best.pth (torch_old, 28369 bytes, 6 tensors)

fc1.weight f4 [64, 37]
000000 df 05 29 bc a9 00 8e 3d b8 05 10 3e 2a 70 ef be
       -0.010316341 0.0693372 0.14064682 -0.46765262
000010 0f 55 03 bc b8 c9 4b 3d 82 4b 05 3e 8f 63 d2 3d
       -0.008015885 0.04975292 0.13017085 0.102728955
000020 ce 84 71 be b1 fd dd 3d 78 db 75 3e 74 84 64 be
       -0.23585817 0.108394034 0.24009502 -0.22316152
000030 11 11 76 be 2e a2 d2 be 20 3a ba bf 56 2e 41 be
       -0.24029948 -0.41139358 -1.4548988 -0.18865332
000040 6a c7 74 3e 92 f4 6f 3e 1a 2f 59 be 7d 55 2d bf
       0.23904195 0.2343314 -0.21209374 -0.6770857
000050 d5 f8 05 3e 82 f7 3e 3e 00 5f da 3d 4f b6 0f be
       0.13083203 0.18649104 0.10662651 -0.14034389
000060 eb 12 db be 4a 13 09 be b2 7a f7 3c e3 30 b9 3d
       -0.4278787 -0.13386264 0.030209873 0.090425275
000070 b7 b0 85 bd 72 07 e3 be 59 17 fc bd 1c 00 47 be
       -0.06527846 -0.44341618 -0.12309141 -0.19433635
000080 5a 13 b1 3e 77 63 3d be da b8 3e be 40 96 61 bd
       0.34585077 -0.18494974 -0.18625203 -0.05507493
000090 18 27 88 bc f0 84 3d 3e a4 7a 5c 3d 77 4e fb 3d
       -0.016620204 0.18507743 0.053827897 0.12270825
0000a0 c5 d9 e4 3c 5d d3 8f be ed 58 51 be 80 2a 84 3e
       0.027935872 -0.28090945 -0.20444079 0.25813675
0000b0 0a 42 ee bc f2 61 cc be 21 75 00 bf 5a cb ad 3d
       -0.029084224 -0.39918476 -0.50178725 0.08486052
0000c0 8d de c5 bd c2 bb e3 3d 8b b2 6c 3e 6c d9 22 3e
       -0.09661589 0.11119796 0.23114984 0.15903252
0000d0 3a a9 5d 3e 08 51 2b be e4 a0 bf 3d 59 60 2a 3e
       0.21646586 -0.1673013 0.09356859 0.16638316
0000e0 de 13 7c 3e db 87 2d bd 9b 29 ad bd 7f 56 b2 bd
       0.24616954 -0.04236589 -0.08455201 -0.08707904
0000f0 a0 6e dc 3c af 84 14 3d 62 40 96 bd 60 06 12 3d
       0.026908219 0.03625935 -0.07336499 0.03565061
000100 33 9f 13 3e 51 76 f1 3d 42 84 9a 3d 6a 3a df 3d
       0.14416198 0.11790145 0.075447574 0.108998135
000110 7c 4c b3 3e bf 82 09 3d 0e 02 34 bf a7 5b 6f bf
       0.3501929 0.033571955 -0.70315635 -0.93499225
000120 53 27 78 bc 03 0e c0 bb da d7 bd 3d a2 39 1a 3e
       -0.015146094 -0.0058610453 0.09269686 0.15061048
000130 96 08 12 3d 2c 44 54 bd 0e fc 30 be d3 2f 6f 3d
       0.03565272 -0.051822826 -0.17283651 0.058395218
000140 25 5e 20 bd fe 31 03 3e c5 91 92 bd dd 4f 3c 3c
       -0.039152283 0.1281204 -0.071567096 0.01149365
000150 9a 13 f0 3e 56 4b 8d be cd c6 9c be 31 6d 5a bf
       0.46889955 -0.2759654 -0.30620423 -0.8532286
000160 b0 aa fb bf 04 b4 a8 3d a6 d3 e0 ba 0e a4 12 3e
       -1.9661465 0.0823746 -0.001715292 0.14320394
000170 4d 06 3a 3e 6d 04 44 3e 9b 4d 06 bd 95 96 d0 3c
       0.18166466 0.19142313 -0.032788854 0.025462428
000180 f2 a0 64 3d 3d f6 c2 ba 65 b4 02 3e 82 8d 1e 3e
       0.055817552 -0.001487441 0.12764128 0.15483668
000190 f6 4d f2 3d e7 42 99 3d 5e 6e a2 3d ac d0 6b bd
       0.11831276 0.07483464 0.07931207 -0.057572052
0001a0 d2 db a8 bd fd 25 cd bc 25 c1 6a bd c6 c3 fc bc
       -0.082450524 -0.025042528 -0.057313103 -0.03085507
0001b0 c7 ed ad 3d c3 34 93 bc ca 09 28 3c 39 10 56 3e
       0.08492618 -0.017969495 0.01025624 0.20904626
0001c0 ab 83 18 3e c9 ff 44 3e e1 54 21 3e f7 e0 4e 3c
       0.14893977 0.192382 0.15755035 0.012626878
0001d0 a0 09 72 3d 04 97 6a 3d a7 82 98 3c 6f bf b5 3d
       0.05909121 0.057272926 0.018616987 0.08874404
0001e0 25 26 b4 3c 19 5a 82 3d 27 57 21 3d d5 91 aa 3d
       0.021990845 0.06364841 0.039389756 0.083285965
0001f0 65 6f dd 3d 85 95 04 3c 59 a1 e5 bb 6c 59 bc bb
       0.108122624 0.008092289 -0.0070077595 -0.0057479646
000200 db d2 d3 bc 0f 8e d2 bc 95 f6 59 bd a0 a1 d1 3e
       -0.02585738 -0.025702504 -0.053213675 0.40943623
000210 39 9b 3a bf 0b 28 e0 be 74 c5 12 bf a0 e7 1f c0
       -0.728931 -0.4378055 -0.5733254 -2.4985123
000220 84 37 b6 3d 15 4e ca 3d ae 7d bd 3d 4f 0e 56 3d
       0.088973075 0.09878174 0.09252487 0.05225974
000230 07 76 89 3c 20 0b bf 3d 42 ad ed 3d b5 6e e0 3d
       0.016779913 0.09328294 0.11605312 0.10958616
000240 2e 19 34 3e d8 b2 b7 3d d9 ca aa bb 3c 21 d3 ba
       0.1758773 0.089696586 -0.0052121696 -0.0016107927
000250 ea fb e8 bd 57 0c 9a bd d9 69 5c bd c2 96 38 be
       -0.11376174 -0.07521885 -0.05381188 -0.1802626
000260 18 fc 62 3d d8 87 2a 3e cd d5 a6 3d ba 88 ae bd
       0.055416197 0.16653383 0.08146248 -0.08522172
000270 08 69 9d be 76 18 e3 be d7 59 1e bd 3d f5 5d 3d
       -0.30744195 -0.443546 -0.038659897 0.054188956
000280 44 1d 7c bd ef 70 b0 3b ca 07 d6 bc a5 f5 10 bd
       -0.061551347 0.0053845565 -0.026126761 -0.035390515
000290 43 1e 33 be 38 be c5 bd 75 b6 17 3e 48 e4 ee 3e
       -0.17492013 -0.09655422 0.14815696 0.4665854
0002a0 e8 de 37 3c 78 38 cb bd bb 43 ba 3c 74 06 a9 3d
       0.011222579 -0.0992288 0.022737375 0.08253184
0002b0 2a 4c 8c 3d 08 29 38 3d c8 3e 05 bd 2c 3a a6 bd
       0.06850465 0.044961005 -0.032530576 -0.08116564
0002c0 bd b7 91 3e e9 9e da 3e ea 0e 28 3d 25 79 75 be
       0.28460494 0.42699364 0.04102985 -0.23971994
0002d0 42 bd 14 3e 49 c9 db 3e 51 83 75 3f 03 77 5c bd
       0.14525321 0.42927006 0.959035 -0.053824436
0002e0 39 a0 37 3c 56 54 a9 3d 3a 20 94 bd 60 7a a9 3d
       0.011207634 0.08268039 -0.07232709 0.08275294
0002f0 a5 02 a9 3d 46 83 18 3e a8 73 a9 3e c0 66 92 3d
       0.082524575 0.14893827 0.3309605 0.07148504
000300 a0 6d d1 3c e6 0f 10 be d2 6a e0 be 7d bc 02 3e
       0.025564969 -0.14068565 -0.43831497 0.12767215
000310 a5 f9 68 bd 3a 90 05 bd b8 9d 12 3b 6d 86 de 3c
       -0.056878705 -0.03260825 0.002237184 0.027163709
000320 b2 3a 37 3e 17 70 57 3d 8b 69 9f bb 07 78 3a be
       0.17893484 0.05259713 -0.0048648766 -0.1820985
000330 ce 24 78 be fe de 24 3e b4 63 23 3e 65 72 c0 3d
       -0.2423279 0.1610069 0.15956002 0.09396819
000340 e9 eb 4e 3e dd aa 70 3e 60 2f 96 3b e5 0a 8a 3d
       0.2020718 0.23502679 0.0045832843 0.06740359
000350 d1 7f 0e 3e 02 7f 51 3e 01 1f bd 3d 08 13 80 3e
       0.13915946 0.20458606 0.09234429 0.2501452
000360 a2 d4 22 3e 9d cc 37 be cd cc 6d be 31 0b f6 be
       0.15901425 -0.17949148 -0.23222657 -0.48055413
000370 46 17 0b 3d 82 fe 6a 3d 44 fb d3 3e d7 20 e9 be
       0.033957742 0.057371624 0.41402638 -0.45532867
000380 0a 04 ac be db 26 4f bf 53 d1 e1 bf 99 6b 56 bd
       -0.33596832 -0.80918664 -1.7642006 -0.052348707
000390 e8 70 17 be 7e 04 7f 3d c4 85 31 3e bc 31 2b 3e
       -0.14789164 0.062260143 0.17336184 0.16718191
0003a0 7d ab 16 3e 74 57 bb 3d 34 88 33 3e 76 33 1e 3e
       0.14713855 0.0914754 0.17532426 0.15449318
0003b0 0a 94 88 3d 4a 1a 8e 3d aa d6 89 bd d5 95 cc 3c
       0.06668861 0.06938608 -0.06730397 0.02497379
0003c0 62 d5 a6 bc 86 e6 67 3e 29 89 56 bd 3a f2 d9 3d
       -0.02036542 0.22646531 -0.0523769 0.10641904
0003d0 ce f5 ae 3c 8c 2a de 3c 9b f9 64 3d 9d 13 6c 3d
       0.021357443 0.027119897 0.055902105 0.057635892
0003e0 b6 a7 36 3c a5 b9 91 bc e8 64 74 be 69 79 66 3d
       0.011148384 -0.017788718 -0.23866618 0.05626813
0003f0 df 28 a3 3d 8c ab 82 3d 73 14 ac 3b 3a f5 26 be
       0.0796678 0.06380376 0.005251461 -0.16304484

fc1.bias f4 [64]
000000 07 a2 21 3e 6d 5f fd 3c ed bf 9f bd 7a 41 59 bd
       0.15784465 0.030929292 -0.07800279 -0.05304096
000010 9e 53 42 3e 61 6b 94 3d af 36 ab bd c5 61 9f 3d
       0.1897721 0.072470434 -0.083600394 0.0778232
000020 93 e0 b2 3d 55 e2 60 be e9 16 6b 3d 93 81 4c 3e
       0.087342404 -0.21961339 0.057394896 0.19971304
000030 6f 7f 50 3e 78 a8 5c 3e f5 93 39 3a 5a 19 81 bb
       0.20361112 0.2154864 0.0007079237 -0.0039397897
000040 fd 41 f2 bc 77 e7 b5 ba da 5b 5f bc 5f c7 38 be
       -0.029572481 -0.0013878186 -0.013632739 -0.18044804
000050 51 af 29 be ff c4 d9 3d b2 19 5b 3d cb d5 e4 bd
       -0.16570784 0.10633277 0.0534913 -0.1117359
000060 60 2c 4f be 23 3c de 3d 3a e4 04 bd f7 47 6a be
       -0.20231771 0.10851314 -0.032444216 -0.22879015
000070 d9 30 0a 3e d9 47 95 3e f2 12 1f be b1 43 9b be
       0.13495196 0.29156378 -0.15534571 -0.30325082
000080 6d 1e 20 3e 9a f4 d0 3c f2 49 86 bd 48 d6 30 ba
       0.15636607 0.02550726 -0.06557073 -0.00067457976
000090 26 96 13 be 30 b0 26 3d 47 08 1b 3d c3 57 a8 bd
       -0.14412746 0.04069537 0.03784969 -0.08219864
0000a0 b1 ad 39 be 27 8a c8 3c 19 8d 39 be 6c d4 0c 3e
       -0.18132664 0.024479939 -0.1812023 0.13752908
0000b0 d7 cb d7 bd 43 d0 e2 bd 23 f9 81 3c 19 6b 58 bd
       -0.10536926 -0.11074879 0.015865868 -0.05283651
0000c0 5f ee 07 be 7f 3d af bc 76 0f 07 be 80 19 3d 3c
       -0.13274525 -0.021391628 -0.13189492 0.011541724
0000d0 a4 5a f1 bd 64 53 ec bd 5f cc eb bd 85 09 4b 3d
       -0.117848665 -0.11539343 -0.1151359 0.049569625
0000e0 1d aa a8 bd 44 90 23 3c 5e 2e c9 bd c2 0f 9e bc
       -0.082355715 0.009983126 -0.09823297 -0.019294623
0000f0 17 6a 48 3d 1e 98 18 bd ed 47 93 3c 6e e6 ae bd
       0.0489293 -0.037254445 0.017978633 -0.08540045

fc2.weight f4 [64, 64]
000000 ab 8e fa 3c ac 98 0f 3e 3e 84 db 3e bc 65 a7 be
       0.030585608 0.14023083 0.4287433 -0.32694805
000010 f5 ce 3b bc 70 26 97 3c d8 cf 9e be 9a 0b 13 be
       -0.011462917 0.018450946 -0.31017947 -0.14359894
000020 c9 21 1d bd a0 df a5 3e 41 a0 5f be 4a 6a 79 3d
       -0.0383623 0.32397175 -0.21838476 0.06089238
000030 bc f0 dc bd c1 4f 0b bf ba 2c 9c 3e d2 89 36 be
       -0.10788104 -0.5441857 0.30502874 -0.17826012
000040 45 15 ed be 4b 9b 84 be 04 43 9e 3d b0 f6 2a be
       -0.4630529 -0.2589973 0.07727626 -0.16695666
000050 2a 5e 05 3e 06 de a3 be c1 92 43 3d 9b d3 1a bf
       0.13024202 -0.32005328 0.047747377 -0.60479134
000060 55 23 90 be 7a 6c c1 bd 73 85 84 3d 53 a2 d1 bd
       -0.28151956 -0.094445184 0.06470766 -0.10236039
000070 10 8e 10 bf 3a 2c 9a be 1a 4c a0 3e 4d 89 d5 be
       -0.5646677 -0.30111867 0.3130806 -0.41706315
000080 88 fa 61 3d ed f3 a8 bc cb 3b bb be 53 10 42 3e
       0.055170566 -0.020624125 -0.36569056 0.1895154
000090 00 55 d1 be 69 0a c8 be 42 f6 01 3f 93 5e 89 bf
       -0.40885162 -0.39070442 0.50766385 -1.0731987
0000a0 30 d6 a2 3e 5c b0 22 ba 03 eb e4 bc 97 dd 5d be
       0.31804037 -0.0006206089 -0.027944094 -0.21666561
0000b0 d6 63 ce 3c ec b0 46 be e8 48 f1 bd 9f 57 c1 be
       0.02519409 -0.19403428 -0.11781484 -0.37762162
0000c0 8b 03 8c be b7 8c 57 be df 76 ac be a3 17 69 be
       -0.27346453 -0.21049772 -0.3368444 -0.22762923
0000d0 2b 6c 8e bc a3 7e b1 be 8d 15 3f bf 38 bc 09 be
       -0.017385563 -0.3466693 -0.7464226 -0.13450706
0000e0 02 61 5a be 70 91 62 be 5d 02 3b 3e 0c c9 f3 be
       -0.21326068 -0.22125793 0.1826262 -0.47614324
0000f0 f5 02 df be b9 4f 67 be 22 13 73 be 6f 9c b2 3e
       -0.43556944 -0.22589006 -0.23737767 0.34884974
000100 5f e7 40 3e e3 d9 cb 3d 27 82 47 be f2 e9 07 be
       0.18838261 0.09953668 -0.19483243 -0.13272837
000110 d1 bb c2 bb be 8c 35 be 3c 8d 49 be 33 0f fb bd
       -0.0059427996 -0.1772947 -0.19682783 -0.122587584
000120 97 00 9a 3d 30 43 08 3d 08 c0 be 3d ea 61 08 3e
       0.07519644 0.0332672 0.09313971 0.13318601
000130 f4 16 5d be 24 30 10 3e 49 04 82 ba 5b f7 77 3d
       -0.21590787 0.14080864 -0.000991949 0.06053863
000140 9f 41 92 3e f2 52 76 3d 50 3c f2 3c 67 4f 7a 3e
       0.2856569 0.060137697 0.029569775 0.24444352
000150 2e 2e ea 3d 6e 42 ce be 95 8d 9d bd 60 e6 64 be
       0.11434589 -0.40285057 -0.0769302 -0.22353506
000160 0e 36 76 bd 55 51 8b 3e 13 38 84 be 07 05 37 be
       -0.060110144 0.2721049 -0.2582403 -0.17873012
000170 9a 7c a6 3e 05 64 ed 3d 59 68 74 be 34 a6 a2 be
       0.32516938 0.11591343 -0.2386793 -0.31767428
000180 6c ef e5 3d 5e a1 32 3d 4a 26 84 3b f4 92 a1 3e
       0.11227307 0.043610923 0.0040328847 0.3155743
000190 54 6b 08 be 56 31 90 3d d7 f4 e8 be 6c c2 86 be
       -0.13322192 0.0704066 -0.45499298 -0.26320207
0001a0 05 93 42 be 4b 17 02 bb e9 23 9f 3e 40 de 98 bd
       -0.19001396 -0.001985031 0.31082085 -0.07464266
0001b0 d5 fa cf bd 61 b3 90 3d 2f c3 c2 be d4 77 e9 bd
       -0.10155264 0.07065464 -0.38039538 -0.113998085
0001c0 eb 69 06 be ae d9 71 be ed 95 29 be cb 01 80 be
       -0.13126342 -0.23618194 -0.16561098 -0.25001368
0001d0 a7 d6 13 be ae 91 4a be 5a 00 ee 3e fb fb 9c bd
       -0.14437352 -0.19782135 0.46484643 -0.07665249
0001e0 78 85 0c 3d 8e b7 2f 3e 5c cf f4 3d 57 de 5d 3d
       0.034306973 0.17159864 0.11953613 0.054167118
0001f0 f8 90 03 be 51 2f 00 be e0 c7 81 bd e4 31 a8 be
       -0.1284827 -0.1251805 -0.06336951 -0.32850564
000200 16 2c da 3d 03 1d 87 bd 10 2e b9 3d c6 63 25 be
       0.1065294 -0.065973304 0.09041989 -0.16151342
000210 15 fe 69 bd fd 0c 65 3d f0 5b 43 be 29 04 ea 3d
       -0.057127077 0.05592059 -0.1907804 0.11426575
000220 2c 29 0b bd fe 66 c4 3d c3 44 a8 bc 06 c7 fe 3d
       -0.03397481 0.09589957 -0.0205406 0.124403045
000230 7f e1 88 bc 68 09 a5 3e bb 37 ef bd 3f a1 6c 3d
       -0.016709087 0.3223374 -0.116805516 0.057770964
000240 0e a3 33 3e 05 7f 16 3e 81 e2 ed bd 7b 45 a6 3d
       0.17542669 0.14696892 -0.11615468 0.08118721
000250 3d 0a 09 be ae ea 81 bc 0f 37 16 bd b7 5b 55 bd
       -0.13382812 -0.015858974 -0.0366736 -0.05208942
000260 f1 73 c6 3c 32 d5 87 3e 81 73 87 3b 0a e5 e5 bb
       0.024225207 0.26529843 0.004133642 -0.007015829
000270 c8 93 0d 3e 5f 52 9a 3e 75 60 b1 bd 40 a5 4e 3e
       0.13825905 0.3014097 -0.08660976 0.20180225
000280 ea 24 56 bc 78 59 88 be 93 83 57 be 19 0e 44 3e
       -0.013070324 -0.2663076 -0.21046285 0.19146003
000290 79 3b b5 3d 23 91 81 3e bb 49 9d 3e 1c 0b 38 3d
       0.08849234 0.25306043 0.30720314 0.04493247
0002a0 80 73 c9 bd c5 1e 73 bd ef 99 e0 bd cf 22 3e be
       -0.09836483 -0.059355516 -0.109668605 -0.18567966
0002b0 5b 6f 36 3d 80 75 3f 3e 29 11 21 be 35 21 49 be
       0.04453979 0.18697166 -0.15729202 -0.19641574
0002c0 38 eb 2d be d4 6d 11 3f f4 b5 99 be ce 6f aa 3d
       -0.1698426 0.5680821 -0.30021632 0.08322106
0002d0 d6 b5 36 3e a8 c2 7f 3c 6a ca 77 be f3 2d e3 bd
       0.17842802 0.0156103745 -0.24198309 -0.110927485
0002e0 7a 08 c3 3b 9b d4 44 be c0 60 65 3d b5 bd 59 bd
       0.005951938 -0.19221728 0.05600047 -0.053159434
0002f0 9c 63 a3 bd 86 26 bb 3e 34 e1 84 be d1 1d 16 3d
       -0.07977983 0.3655283 -0.25953066 0.03664953
000300 37 b3 31 be 98 5d ab be d8 03 9a 3c 7c 56 c7 bd
       -0.17353521 -0.33469844 0.018800661 -0.097332925
000310 9c 41 36 be 97 1b 40 bd 94 c7 76 be 93 b7 6b be
       -0.17798465 -0.04690131 -0.2409957 -0.23019247
000320 32 b4 bb bd 00 25 a9 be 39 d9 20 3d 7a 95 82 3d
       -0.09165229 -0.3303604 0.03926966 0.06376167
000330 0d 5d 28 be bb a0 74 3d 0e b4 84 be a3 8a 0e be
       -0.16441746 0.059723597 -0.2591862 -0.13920073
000340 56 d0 33 be c3 32 58 be 35 f4 ce bd dd a6 01 be
       -0.17559943 -0.21113114 -0.101051725 -0.1266131
000350 43 cd 8a 3d 3c c3 38 3d 33 fc df bd a9 60 8e 3d
       0.06777432 0.045108065 -0.10936775 0.0695203
000360 97 06 b0 3d 0c 89 95 3d 8f 0f 53 3e 03 34 a2 be
       0.08595007 0.0730153 0.20611404 -0.31680307
000370 e2 6d 63 3e 45 88 0e be 74 e3 0b 3e ff 7b 7f be
       0.22209886 -0.1391917 0.13660985 -0.24949645
000380 d6 97 3e be a2 bf 3e be a5 f1 7e bd 0e 9e f5 3d
       -0.18612608 -0.1862779 -0.06224217 0.11993037
000390 6c 35 be be 56 12 41 3d a2 80 2d 3e c4 76 4b be
       -0.37150133 0.047136627 0.16943601 -0.19869524
0003a0 c4 52 d9 bc d2 39 7d 3b f1 7e f6 bd bd 01 a6 bd
       -0.026528724 0.00386392 -0.12035931 -0.081058
0003b0 08 e3 8c be 2c 1f 23 bc f0 63 f6 bd 58 ca 1b bd
       -0.2751696 -0.009956162 -0.1203078 -0.038034767
0003c0 2a 38 7f bd 21 a5 32 be c8 c1 a8 bd e1 8e b7 3a
       -0.06230942 -0.17445804 -0.08240086 0.0014004373
0003d0 22 2a 7a 3d 11 13 78 be af 64 8a bd ae 1e e3 bd
       0.061075337 -0.24226023 -0.06757485 -0.11089836
0003e0 4a ff 9b 3c 8d 07 cb be 6b b9 dd 3c 7f 5b c7 bc
       0.01904263 -0.39654198 0.027065953 -0.02433562
0003f0 a7 99 23 be 84 28 46 3d 45 35 0c be 50 3e ff bc
       -0.15976582 0.048378482 -0.13692196 -0.031157643

fc2.bias f4 [64]
000000 ba 2a 47 be 14 13 db 3d 7a ee 97 3e 04 7a 98 bd
       -0.19449893 0.10696998 0.2967413 -0.07445148
000010 49 a5 2c 3e 90 3d a3 be 0d 83 83 3d 2a 4f 04 3f
       0.16859926 -0.31882906 0.0642148 0.51683295
000020 e4 7c 94 3d ec 2b 5e 3f 5d ff 0e be cd 53 22 3f
       0.072503835 0.8678577 -0.13964601 0.6340912
000030 de ca 06 3f 91 72 87 be 76 37 58 be ea 69 ce 3d
       0.526533 -0.26454595 -0.21114907 0.10078795
000040 0f 71 98 bc d9 1d b9 bd f0 49 f9 3c d0 cc 25 3e
       -0.018608598 -0.09038896 0.030430764 0.16191411
000050 62 d1 36 3f 31 ff 4d 3f 8f 74 ce bd 9b 78 e4 bd
       0.7141324 0.80467516 -0.100808255 -0.11155816
000060 23 4a 55 be 77 16 56 be be 3b ac bb 55 ba a6 be
       -0.20829062 -0.20907007 -0.0052561453 -0.32564035
000070 2d d9 13 be 49 e2 ac 3e c3 7a 14 3d 9d 86 f4 bc
       -0.14438315 0.33766392 0.036249887 -0.029849345
000080 a5 5f 81 3e 05 fa 32 3f 63 35 bc 3e bb 0a e3 bd
       0.25268283 0.6991275 0.3675948 -0.11086031
000090 3b 01 02 3e 9e 25 76 be ca c4 4c 3f 66 e2 5d 39
       0.12695782 -0.24037787 0.79987776 0.00021160542
0000a0 37 20 27 3c 2c 3f 6a 3f 96 71 d3 3e 60 5c 42 be
       0.010200552 0.9150264 0.41297597 -0.18980551
0000b0 f8 24 19 3e a7 c6 2f be 25 54 32 3f 2f b0 4d be
       0.14955509 -0.17165624 0.69659644 -0.2008674
0000c0 92 d2 2e 3e d7 a5 02 3d c1 40 90 be 0d 17 68 3f
       0.17072514 0.03189644 -0.28174403 0.9066017
0000d0 86 6d a9 bd 05 3b a9 3d 18 3d 14 3f 66 56 b3 3e
       -0.08272843 0.0826321 0.5790572 0.35026854
0000e0 d6 d5 ff bd 48 ce 32 be c8 28 ba 3d 9f 24 75 be
       -0.12491958 -0.17461503 0.0908981 -0.23939751
0000f0 dc 26 80 bd 0a 12 11 3f 49 ba 23 be f3 fa 56 be
       -0.06257412 0.5666815 -0.15989031 -0.20994167

fc3.weight f4 [4, 64]
000000 3c 8a 10 3f 82 f0 84 3d 4c 94 32 3e 3d 47 2f bd
       0.5646093 0.06491186 0.17439383 -0.042792547
000010 0c 0d cb 3d 58 89 a6 be a6 88 26 3f b7 db 14 3e
       0.09914598 -0.3252666 0.6505226 0.1453694
000020 1a f0 1a bd eb 8f 62 3e c3 3f eb bd f9 28 3f 3e
       -0.037826635 0.22125213 -0.11486771 0.18667974
000030 09 a2 02 3e 1e de ae be eb 0c 03 bf a5 e3 37 3e
       0.12757124 -0.34153837 -0.51191586 0.17957933
000040 e9 35 0c 3f 17 f7 87 3e 9b 05 04 3f 24 ad 93 3d
       0.5476976 0.26555702 0.51571053 0.07210758
000050 4f ff 41 3e b5 31 07 3f bc 6d 36 3c 78 20 01 bd
       0.18945049 0.5281022 0.011134561 -0.031525105
000060 be 7d bf be e0 b8 32 be 75 c7 38 be 16 f7 83 be
       -0.3740062 -0.17453337 -0.18044837 -0.2577445
000070 cc 33 b9 bd 80 eb 07 3e 00 33 bd be 9c 11 96 3d
       -0.090430826 0.1327343 -0.36952972 0.073275775
000080 1b e8 07 3e f5 0f 63 3e 5e ae af 3d 5c 2a db bc
       0.13272135 0.22174056 0.0857818 -0.026753597
000090 70 37 3d 3e 21 11 78 be 27 96 92 3e e4 ad 2e 3f
       0.18478179 -0.24225284 0.28630182 0.68234086
0000a0 ef a6 3b 3e 6d 61 5c 3e 09 27 b5 3d 36 05 1e be
       0.18325399 0.2152154 0.08845336 -0.15431675
0000b0 9f 32 82 3d fd aa 6f bd cd 32 72 3e e3 54 af 3e
       0.063573115 -0.058512677 0.23652191 0.3424445
0000c0 7c 61 d4 3e 49 09 14 3e 79 07 82 be cd 5a 8d 3e
       0.41480625 0.14456667 -0.25396326 0.27608338
0000d0 50 c4 b0 3e 6e d9 09 be 65 ee 14 3e a7 a7 4a 3e
       0.34524775 -0.13461849 0.14544065 0.19790517
0000e0 69 04 1e bd c7 d8 e6 be c2 95 0c 3e 1b 96 3d be
       -0.038578425 -0.45087263 0.13729003 -0.18514292
0000f0 94 e3 f1 be db f0 5f 3e 90 9b 52 be 99 3d 1a be
       -0.4724394 0.21869223 -0.20567155 -0.1506256
000100 b4 bd 7d 3d 89 b2 47 3e c2 b5 33 3e 02 15 7a be
       0.061948493 0.195017 0.17549804 -0.24422076
000110 50 96 ad 3b 9e 84 3e be 7d d6 1b 3f 44 77 90 3e
       0.0052974597 -0.18605277 0.6087416 0.28215992
000120 73 7c b6 3c 6e c6 89 3e 7b 6b 1e 3e b4 64 82 3e
       0.022276139 0.26909202 0.15470688 0.25467455
000130 7e fb 4f 3e ab ea 08 be ff 60 8b be 21 71 a5 3e
       0.2031078 -0.13370769 -0.2722244 0.32312873
000140 14 14 e7 3e 25 78 85 3e a6 78 b8 3e bc cc 20 3d
       0.45132506 0.26068226 0.36029547 0.03925775
000150 bd 3d 3d 3e 63 1a eb 3e 4c 45 21 3e d4 0a b2 3d
       0.18480583 0.4591857 0.15749091 0.086934716
000160 b7 be 9a 3e 96 5e ee bd e7 87 05 bd 21 dd 06 be
       0.3022363 -0.116391346 -0.03260031 -0.13170291
000170 8f 61 09 3e 8b 4b 03 3e 7c b4 9e be 2f d1 d4 bb
       0.13416122 0.12821786 -0.30997074 -0.006494663
000180 80 51 e6 3d 2d b7 d3 3d fa a1 13 3e 9a a6 8c bd
       0.11246014 0.103376724 0.14417258 -0.06867714
000190 47 59 59 3e 8f 8e de bd 3f 86 6d 3e aa b8 89 3e
       0.21225463 -0.10867035 0.23195742 0.268987
0001a0 d1 be 53 3e 9d 1d a2 3e e2 07 0e 3e bb 8c 3f 3e
       0.2067826 0.31663218 0.13870195 0.18706028
0001b0 e7 76 15 3e c8 2b 9d 3d f7 9e 87 3e a5 16 53 bd
       0.14596139 0.07674366 0.26488468 -0.051535267
0001c0 a9 b2 0d 3e ac cb f5 3d 04 4a d0 3b ec b2 59 3e
       0.13837685 0.12001738 0.0063564796 0.2125966
0001d0 07 1f a3 3e 62 71 23 bc 05 a9 71 3e 4c 9a 47 3e
       0.3185961 -0.009975763 0.23599632 0.19492453
0001e0 c3 16 f9 3d f9 00 d5 bd 32 83 80 3e de 68 9c bd
       0.121625446 -0.10400576 0.25100094 -0.07637189
0001f0 67 02 0c 3c 7d df 02 3e a4 0a f9 be 75 27 24 be
       0.008545495 0.12780567 -0.4864093 -0.16030677
000200 95 a1 98 3e 6c c1 43 3e ec 30 10 3e 33 6f 36 3e
       0.29810777 0.19116753 0.14081162 0.17815857
000210 06 25 18 3e 3f a6 6a be 06 55 82 3e 38 a4 50 3e
       0.14857873 -0.2291498 0.25455493 0.20375144
000220 e8 66 b9 3d 2a 57 7c 3e 71 f2 99 3e 58 05 a3 3e
       0.09052831 0.24642625 0.3006778 0.31840014
000230 b1 79 ad 3e da 63 8a be f2 e5 12 be 79 ac 69 be
       0.33881906 -0.27029306 -0.1434553 -0.228197
000240 2c 21 92 3e be cd ee 3c 8f a0 b5 3d 89 51 33 be
       0.28540933 0.02915084 0.08868515 -0.17511572
000250 2c ec 7a 3e cc 51 ab 3e 28 cf 03 3e 7b b4 cb 3c
       0.24504155 0.33460844 0.12871993 0.024866333
000260 6f 96 02 be ca fd b1 3d f1 a6 d7 3d fa 51 3e be
       -0.12752698 0.086909845 0.105298884 -0.18585959
000270 a2 60 e7 3e 88 00 66 3e 8f b9 db be b7 8f 11 bd
       0.45190912 0.2246114 -0.42915007 -0.035537448
000280 bb ef be 3a df c7 70 3e 87 9a 68 3e 46 7e 8c 3d
       0.0014567295 0.23513745 0.22715198 0.06860022
000290 c2 4a bd bd d0 f0 14 be 31 ff 29 3e 89 42 02 3f
       -0.092427745 -0.14544988 0.16601254 0.50882775
0002a0 73 8f 52 3e 4e fa 97 3e 98 1a 05 3e 88 f7 1d 3f
       0.20562534 0.29683155 0.12998426 0.6170583
0002b0 c4 db 9d 3d b6 14 d3 3e 88 26 51 3e d3 5a 2c bd
       0.077079326 0.4122674 0.20424855 -0.042078804
0002c0 87 dd 81 3e 02 74 37 3d 16 d7 4e 3c da c9 d2 3e
       0.25364324 0.044788368 0.012624523 0.41169626
0002d0 af fe 68 3d 81 a0 57 3e 85 7b 37 3e 32 9d 29 3e
       0.05688351 0.21057321 0.17918213 0.16563872
0002e0 c4 f7 a8 bd 4a 29 d4 be 65 4d e0 3e 03 49 a3 3c
       -0.082503825 -0.4143775 0.43809047 0.019932276
0002f0 6b 54 71 be 03 16 15 3e 6e 1a c1 be 73 76 b4 be
       -0.23567359 0.14559178 -0.37715477 -0.3524662
000300 b8 74 8f be b7 c3 4e 3e c1 ad 54 3d 53 f4 4b bd
       -0.28018737 0.20191847 0.051923517 -0.049793553
000310 65 4c 37 3e d2 7a 91 be c3 9a b0 3e cc 9d 68 3e
       0.17900236 -0.28414017 0.34493074 0.22716445
000320 87 b5 8b 3e 0f 6c 91 3e 30 f2 e6 3e 5c 80 90 3e
       0.27286932 0.28402755 0.4510665 0.2822293
000330 89 ba ae 3e 0a 2b 46 be b0 b8 1e be 80 c9 98 3e
       0.3412669 -0.19352356 -0.1550014 0.29841232
000340 e5 31 e4 3e 05 7c fc 3e 7d a5 09 3f 6b 94 89 3c
       0.44569317 0.4931337 0.5376814 0.016794404
000350 f8 6d 55 3e ab 1d 9d 3e cb 71 2f bf 55 6b 39 3d
       0.20842731 0.30686697 -0.6853301 0.045268375
000360 aa e8 4b 3e 5a f2 3e bc b6 f7 3c bf 85 98 03 3e
       0.19912973 -0.011654461 -0.73815477 0.1285115
000370 ce 49 c0 3e 8a ea 18 3d 2d ee 96 be 23 a5 d7 3d
       0.37556309 0.03733305 -0.2947859 0.10529544
000380 21 2c a6 3d b5 5b 6b 3e 69 b3 e0 3d 5e 7c c9 3c
       0.08113886 0.22984202 0.1097172 0.024595436
000390 89 20 25 3e 85 02 06 be 22 d0 9a 3e 4e 68 89 3d
       0.16125692 -0.13086899 0.30236918 0.06709348
0003a0 a4 b6 18 3e f7 d3 97 3e fb a2 8d 3e b1 80 7f 3c
       0.14913422 0.29653904 0.27663407 0.015594647
0003b0 24 56 70 3e ea 8e 6f 3d b9 19 26 3e 92 c7 36 bd
       0.2347036 0.058485903 0.1622075 -0.04462392
0003c0 3e 2c 35 3e 51 22 f4 bd c7 b5 34 3e 4c 18 90 3e
       0.17692658 -0.11920608 0.17647468 0.28143537
0003d0 12 70 48 3f ec 1a 65 be d0 ba 4c 3e 77 a4 29 3e
       0.78296006 -0.22373551 0.19993138 0.16566645
0003e0 35 45 e1 3e dd d0 49 bf 84 7e 65 3d de 39 df bd
       0.43998113 -0.78834325 0.056028858 -0.10899709
0003f0 e6 52 e9 be 4b 5a 39 3e 3a 71 78 be 5e 5d fb be
       -0.4557106 0.1810085 -0.24261943 -0.4909467

fc3.bias f4 [4]
000000 73 9d 30 3f 12 38 10 3f ec df df 3e 3a 71 fb 3e
       0.6899025 0.56335557 0.43725526 0.49109823
