MultiAgent/actor0.pth (torch_old, 29368 bytes, 8 tensors)

norm0.weight f4 [24]
0.25641546 1.0073969 0.28468353 -0.08275181 1.6348579 1.6370566 -0.16516264 0.084332846
0.1151022 0.66888887 -0.7521306 1.1280833 1.5191023 0.1483794 -0.030586451 1.1054975
1.9142683 1.8829688 -0.09068367 0.78357524 3.7840242 2.8410244 -0.5076057 1.2171725
00000000: e348 833e 62f2 803f 0ac2 913e c879 a9bd
00000010: 0643 d13f 128b d13f 6520 29be b3b6 ac3d
00000020: b4ba eb3d 4d3c 2b3f a28b 40bf 0965 903f
00000030: f271 c23f c5f0 173e 7090 fabc f180 8d3f
00000040: be06 f53f 1f05 f13f 5cb8 b9bd 6398 483f
00000050: 742d 7240 58d3 3540 72f2 01bf 4fcc 9b3f

norm0.bias f4 [24]
0.67124295 -0.14084552 0.6416402 -0.7353956 1.4207917 0.8455748 -0.24895158 -0.6552789
0.51992476 -0.9693807 -0.11404363 -0.0809613 0.94817996 0.99375015 -0.59854215 0.05692394
0.21255481 -1.1870775 -0.911641 0.43854377 0.11848492 1.0968215 0.09265881 0.31119534
00000000: 94d6 2b3f cf39 10be 8842 243f e342 3cbf
00000010: 81dc b53f 9777 583f 2aed 7ebe 5cc0 27bf
00000020: ca19 053f 5529 78bf b58f e9bd 0acf a5bd
00000030: ecbb 723f 6966 7e3f 0f3a 19bf 1429 693d
00000040: f8a7 593e 28f2 97bf 4e61 69bf cf88 e03e
00000050: 39a8 f23d a664 8c3f e7c3 bd3d ff54 9f3e

norm0.running_mean f4 [24]
-8.042968 -0.56785977 5.0079317 -0.09700438 0.4321078 4.1602182 5.0079317 -0.09700438
-8.057399 -0.57491 5.143796 -0.09979417 0.43115437 4.1565475 5.143796 -0.09979417
-8.059594 -0.5810058 5.216913 -0.10226746 0.42875734 4.153139 5.216913 -0.10226746
00000000: ffaf 00c1 425f 11bf fa40 a040 3baa c6bd
00000010: 3c3d dd3e 8220 8540 fa40 a040 3baa c6bd
00000020: 1beb 00c1 4d2d 13bf fa99 a440 e360 ccbd
00000030: 44c0 dc3e 7002 8540 fa99 a440 e360 ccbd
00000040: 19f4 00c1 ccbc 14bf f4f0 a640 9a71 d1bd
00000050: 1586 db3e 84e6 8440 f4f0 a640 9a71 d1bd

norm0.running_var f4 [24]
16.918549 1.1296104 356.8007 15.157196 27.52573 2.2124 356.8007 15.157196
16.849535 1.1332995 358.75192 15.280355 28.012184 2.243868 358.75192 15.280355
16.656996 1.1330268 365.12283 15.609344 28.465933 2.2737896 365.12283 15.609344
00000000: 3059 8741 1397 903f 7d66 b243 e083 7241
00000010: b234 dc41 f697 0d40 7d66 b243 e083 7241
00000020: d9cb 8641 f50f 913f 3f60 b343 567c 7441
00000030: f418 e041 899b 0f40 3f60 b343 567c 7441
00000040: 8741 8541 0607 913f b98f b643 dfbf 7941
00000050: 3bba e341 c585 1140 b98f b643 dfbf 7941

fc1.weight f4 [256, 24]
-1.0444099 0.34285426 0.20922457 0.8416891 -2.1712706 0.6752308 0.18823415 0.5278499
-0.67962176 0.79609835 0.6599697 0.65457606 -0.36035708 -0.009076448 1.10526 0.30913806
-0.093402766 0.36807087 0.559005 0.42326277 2.6621609 -0.2860836 0.71257716 0.70982647
0.4825049 0.6036319 1.239283 0.22426496 2.885603 -0.6952765 0.0021352228 -0.65682894
0.24132752 0.73992854 0.7648103 -0.006167283 1.6855277 -0.27619895 0.5080943 -0.2708888
0.42295012 1.0715209 -0.15263385 -0.33505332 2.1836798 1.5392579 0.24116428 -0.27459693
-1.179691 0.39135438 0.33440435 0.42705622 -1.3899292 -0.45374107 0.589206 -0.59319943
-0.6026314 1.5122434 -0.13582863 0.29886836 -1.4327096 -1.1956173 0.82465756 -0.004282237
0.04535477 1.4219229 0.71283954 -0.8631815 0.40612516 -1.1155533 0.67078656 -0.73176336
-1.0852717 0.3070762 0.41957974 0.7303991 -3.2296052 0.3240746 -0.06387844 0.23602922
-0.5932955 0.47572204 0.6897234 0.18881404 0.24690768 0.014613495 0.22476467 -0.32147196
0.19916086 -0.053790417 -0.08723121 0.08549603 4.3560143 -0.39490232 -0.1664944 0.3759073
-0.11444637 -0.7273583 -0.6953606 1.7239932 -0.15332894 -1.4868443 0.92605555 1.7785181
-0.6633005 0.5267621 0.33974248 0.21226315 1.588055 0.11052442 1.656426 -0.22796488
-0.54488117 1.0729232 1.1238462 -0.16984193 2.8954291 0.7717372 0.93794656 0.13212658
-0.81618726 0.58822495 0.059060305 1.0606716 -2.8952625 1.0333416 -0.051638007 0.29158732
-0.24436258 0.8544481 0.31737864 0.91864336 -0.24221835 0.44698367 0.020598354 0.4111859
-0.3080113 0.6885887 0.30522364 0.56636786 3.7600815 0.056771785 1.5518676 0.556027
-0.88878757 -0.16724746 -0.118099645 1.214025 -1.1729075 0.21688873 0.46506044 0.7916469
-0.579874 0.9657785 0.08977641 0.79868454 -1.2829908 -1.079223 1.2702042 0.30698833
-1.4008756 2.5466826 0.7644335 0.7630558 1.027063 -3.3523617 0.4937843 1.0614759
-0.3688669 0.14275365 -0.041184217 1.5075232 1.7260796 -0.94594455 0.72217005 0.43315434
-0.6719709 -0.043434232 0.8624442 0.071841314 1.8069003 0.03321525 1.0019194 -0.07950573
-0.74023426 0.8213681 0.7760529 -0.34229165 1.4467435 1.7714069 0.42530268 -0.28461754
-0.23691645 0.34630585 0.7439789 0.6984598 1.180496 -0.16488643 0.032033697 0.4689013
0.4579739 0.22230184 -1.3288391 0.9136474 1.1507962 -0.46712357 -0.40274683 0.7529308
0.43455446 0.9913613 0.11587324 -0.014444625 0.98453164 -1.3022976 0.8310742 -0.24720928
-1.0000036 0.053493015 0.4582482 0.6457538 -2.2550774 1.087335 0.13530248 -0.26787704
-0.51748043 0.3745552 0.99615675 -0.05341563 0.0038257516 -0.24602184 0.6955388 -0.58942175
0.34360382 -0.048288155 0.4428092 -0.4638991 3.1628804 -0.53724796 -0.03142739 -0.33631527
-0.5115747 -0.42525554 -0.18804845 1.3018763 0.07182267 0.19920377 -0.36810514 1.179025
-0.5019225 0.34266788 0.7191034 1.7124051 -0.33613747 0.54159933 0.40331087 1.0030878
00000000: 39af 85bf 988a af3e f73e 563e f078 573f
00000010: 19f6 0ac0 eddb 2c3f 74c0 403e 2c21 073f
00000020: b1fb 2dbf 1acd 4b3f c6f3 283f 4c92 273f
00000030: b980 b8be 62b5 14bc 2979 8d3f 5847 9e3e
00000040: f349 bfbd c973 bc3e f41a 0f3f e6b5 d83e
00000050: d860 2a40 8d79 92be 756b 363f 30b7 353f
00000060: e20a f73e 9f87 1a3f d3a0 9e3f b7a5 653e
00000070: b8ad 3840 a4fd 31bf 18ef 0b3b f125 28bf
00000080: 901e 773e f56b 3d3f 9cca 433f eb16 cabb
00000090: 5fbf d73f f369 8dbe 7812 023f f0b1 8abe
000000a0: eb8c d83e 9927 893f 0c4c 1cbe 1c8c abbe
000000b0: 69c1 0b40 6706 c53f c5f3 763e f897 8cbe
000000c0: 1d00 97bf 9a5f c83e 0c37 ab3e 1da7 da3e
000000d0: 33e9 b1bf c050 e8be 34d6 163f ebdb 17bf
000000e0: 0d46 1abf 3191 c13f a916 0bbe 4605 993e
000000f0: 0763 b7bf fd09 99bf c21c 533f 0252 8cbb
00000100: ecc5 393d 9201 b63f a77c 363f 76f9 5cbf
00000110: a3ef cf3e 73ca 8ebf abb8 2b3f d854 3bbf
00000120: 2fea 8abf 1739 9d3e 28d3 d63e 6ffb 3a3f
00000130: dab1 4ec0 1bed a53e b3d2 82bd a5b1 713e
00000140: 37e2 17bf d791 f33e b691 303f 7858 413e
00000150: 5ed5 7c3e 716d 6f3c b628 663e f997 a4be
00000160: d3f0 4b3e 5753 5cbd 47a6 b2bd 8b18 af3d
00000170: 7864 8b40 a330 cabe 827d 2abe ec76 c03e
00000180: dc62 eabd 2734 3abf 2703 32bf cfab dc3f
00000190: 4302 1dbe ea50 bebf fa11 6d3f 7ba6 e33f
000001a0: 10ce 29bf e2d9 063f baf2 ad3e 835b 593e
000001b0: 6345 cb3f a15a e23d c405 d43f a06f 69be
000001c0: 557d 0bbf 8c55 893f 31da 8f3f 0beb 2dbe
000001d0: b64e 3940 9290 453f 441d 703f 314c 073e
000001e0: a6f1 50bf e995 163f 38e9 713d 16c4 873f
000001f0: fb4b 39c0 8a44 843f 6082 53bd ef4a 953e
00000200: 2f3a 7abe 1cbd 5a3f 747f a23e 362c 6b3f
00000210: 1608 78be 0bdb e43e e1bd a83c f586 d23e
00000220: a8b3 9dbe 5947 303f 4646 9c3e 7cfd 103f
00000230: 2da5 7040 8889 683d 99a3 c63f c957 0e3f
00000240: 9587 63bf eb42 2bbe 3ade f1bd 2c65 9b3f
00000250: d521 96bf 1418 5e3e 671c ee3e 5fa9 4a3f
00000260: 9f72 14bf 433d 773f b2dc b73d 9776 4c3f
00000270: 0b39 a4bf fb23 8abf 0d96 a23f 932d 9d3e
00000280: e44f b3bf d9fc 2240 eab1 433f a057 433f
00000290: cd76 833f 188d 56c0 4cd1 fc3e 71de 873f
000002a0: 1fdc bcbe 032e 123e c8b0 28bd 85f6 c03f
000002b0: 2df0 dc3f 6c29 72bf 23e0 383f 68c6 dd3e
000002c0: 4906 2cbf 18e8 31bd 25c9 5c3f 8a21 933d
000002d0: 8248 e73f b70c 083d e53e 803f e6d3 a2bd
000002e0: fe7f 3dbf 2e45 523f 67ab 463f da40 afbe
000002f0: e42e b93f 76bd e23f 46c1 d93e 64b9 91be
00000300: 3a9a 72be 004f b13e 6775 3e3f 43ce 323f
00000310: 7e1a 973f fdd7 28be c435 033d d513 f03e
00000320: 8e7b ea3e 18a3 633e 6617 aabf cce4 693f
00000330: 4a4d 933f d22a efbe d534 cebe 13c0 403f
00000340: ec7d de3e dbc9 7d3f f34e ed3d 26a9 6cbc
00000350: 440a 7c3f b0b1 a6bf 47c1 543f 6e24 7dbe
00000360: 1e00 80bf 7e1b 5b3d 829f ea3e 1f50 253f
00000370: 3053 10c0 cb2d 8b3f bc8c 0a3e 2e27 89be
00000380: 9979 04bf b3c5 bf3e 2104 7f3f 59ca 5abd
00000390: 76b9 7a3b 26ed 7bbe d50e 323f 58e4 16bf
000003a0: d7ec af3e cdc9 45bd e3b7 e23e 2f84 edbe
000003b0: a26c 4a40 1589 09bf 02ba 00bd 8431 acbe
000003c0: 8ff6 02bf 18bb d9be c68f 40be e2a3 a63f
000003d0: c417 933d 13fc 4b3e 4778 bcbe 4bea 963f
000003e0: fe7d 00bf 2a72 af3e 2917 383f 1730 db3f
000003f0: 361a acbe 41a6 0a3f c37e ce3e 2e65 803f

fc1.bias f4 [256]
-1.0558008 -1.5750921 -0.84692734 -1.0601596 -0.37351787 -1.3206413 -1.0980731 -0.10128238
-0.110456415 -1.0755708 -0.23729098 0.633347 -1.1802056 0.19666053 -0.36164021 -0.8884461
-0.694239 -0.6071307 -0.84877676 -1.3498049 -0.80723566 -1.0480542 -1.1725401 -1.9474137
0.9726257 -0.38178602 0.20756361 0.4375531 -1.5984056 -1.6849233 -0.09997682 -1.1979578
0.7099277 0.302084 -0.51729745 -0.8655113 -0.86878204 -0.33850354 -0.77571464 -1.4988325
-0.894461 -0.0050448594 -0.7769488 -0.8996611 -1.6764216 -1.8463628 0.36393666 -0.78084946
-0.881763 -0.20148987 -0.8425656 -0.21090661 0.45943117 -0.25621778 -0.6544888 -0.5848879
-1.029294 -0.65764004 -1.7356067 -1.2595235 -0.5602903 -0.8307917 -1.1863829 0.16741501
-0.52136743 -0.6183296 -1.2048454 -0.11807124 -1.254341 0.8182621 -1.7095547 -0.69298404
-0.39760762 -1.5664662 -0.6948699 -0.4969851 -0.69604886 -0.5452116 -0.7175533 -0.57980335
-0.89111376 1.2515495 -0.2500853 -0.5855221 -0.6318921 -0.2860372 -0.57852596 0.099858716
-0.8266347 -1.0762327 0.9476884 -0.60299283 -0.7172277 -0.04610357 -2.4297843 0.45528853
0.122720264 -1.0168092 -0.68394417 -0.23367138 -0.8923535 0.8286075 -0.42499822 -1.1654294
-0.5543028 -1.0256186 -0.9958875 0.92308694 -2.1082308 -0.33561915 0.13856933 0.6409924
-0.8383519 -1.1916034 0.24284661 -0.060386106 -0.8549327 0.6046969 0.96229416 -0.36710697
-0.765744 -1.1688673 -1.7364781 0.103177615 -0.91702217 -0.22361405 -0.9252984 -0.5706691
-0.34719953 -1.6795268 0.11764739 0.22992487 0.3623507 -1.3244569 -1.402933 0.8514203
-2.191541 -1.1628051 -0.84125125 0.13676536 -1.2441185 0.9024654 -1.2046007 -0.5825284
0.04497878 -0.6018269 -0.5233322 -0.10681168 0.3913529 -1.0875983 -1.2372733 -1.4409727
-0.5673683 -0.57541 -1.6967945 -0.37572256 -1.5035193 0.33845934 -0.42671713 0.8961141
-0.3132832 -1.241765 -0.23004957 -1.1609437 0.51815575 0.10266918 -0.45422018 -0.738463
-1.4974663 -1.1390282 -0.4544702 -1.3634479 0.0034476486 0.6007527 -0.20697401 -0.20255795
0.029114937 -0.7857101 0.028152302 0.15834126 0.61398304 0.6077472 -1.6745256 -0.55379623
-1.1716526 -0.76937336 -0.7678547 -1.1938306 -0.33103245 0.22342448 -0.15625758 -0.87262046
0.8872438 -0.7940676 -0.5900306 -1.2367527 -0.6352205 0.45028427 -0.21025124 -0.9073243
-1.1451414 -1.4300724 -0.8874095 -0.87634164 -1.0976573 0.404272 1.3653734 0.12867106
-0.66380423 -0.9812782 -0.26825738 0.8225933 -0.99020565 0.48630694 -1.0403876 0.2574768
-1.053149 -0.91305035 -0.2280844 -1.4421873 -0.6329826 -0.24666598 -0.016001167 -1.3443595
-0.7259922 -0.8142253 -1.4981811 -1.3084557 1.0283144 -0.226488 -1.2734122 -0.32514268
-0.57045007 -1.0429974 0.5185669 -0.68712443 0.23056489 1.2206376 1.2064605 -0.8176066
-0.51189184 -0.9204296 -0.19831605 -0.91942436 -1.0957844 -0.07305779 -1.1127008 0.34930655
-1.3868082 -0.6652104 -0.2416412 -1.0617701 -0.34803548 0.20169345 -1.1070119 -0.6725323
00000000: 7b24 87bf 9e9c c9bf 3bd0 58bf 4fb3 87bf
00000010: bc3d bfbe c60a a9bf a98d 8cbf 236d cfbd
00000020: f936 e2bd 4eac 89bf 68fc 72be 0723 223f
00000030: fa10 97bf 6161 493e e828 b9be 3471 63bf
00000040: a6b9 31bf eb6c 1bbf 6f49 59bf 68c6 acbf
00000050: ffa6 4ebf a426 86bf cb15 96bf da44 f9bf
00000060: fffd 783f 7579 c3be 8e8b 543e f606 e03e
00000070: 8e98 ccbf 91ab d7bf a6c0 ccbd ae56 99bf
00000080: d2bd 353f c1aa 9a3e 9b6d 04bf 2692 5dbf
00000090: 8068 5ebf 5650 adbe 3c95 46bf bed9 bfbf
000000a0: 65fb 64bf 594f a5bb 1ee6 46bf 3150 66bf
000000b0: fc94 d6bf 9e55 ecbf e855 ba3e c0e5 47bf
000000c0: 38bb 61bf 5c53 4ebe 61b2 57bf e7f7 57be
000000d0: 903a eb3e fa2e 83be 948c 27bf 37bb 15bf
000000e0: e8bf 83bf 195b 28bf 5c28 debf 1138 a1bf
000000f0: 2f6f 0fbf c4ae 54bf 65db 97bf d76e 2b3e
00000100: 5678 05bf d94a 1ebf 6038 9abf 56cf f1bd
00000110: 3f8e a0bf a079 513f b0d2 dabf 6767 31bf
00000120: 3a93 cbbe f781 c8bf fee2 31bf d574 febe
00000130: 4230 32bf fd92 0bbf 93b1 37bf fe6d 14bf
00000140: 0820 64bf c632 a03f 2e0b 80be c7e4 15bf
00000150: aec3 21bf 7873 92be 471a 14bf ba82 cc3d
00000160: 559e 53bf fec1 89bf b59b 723f bd5d 1abf
00000170: 3c9c 37bf 19d7 3cbd 9681 1bc0 941b e93e
00000180: c354 fb3d ce26 82bf f716 2fbf 8d47 6fbe
00000190: 4771 64bf 9f1f 543f 5e99 d9be ca2c 95bf
000001a0: cae6 0dbf 7847 83bf 7cf2 7ebf 6d4f 6c3f
000001b0: 41ed 06c0 46d6 abbe 1ee5 0d3e 1418 243f
000001c0: 3b9e 56bf 7686 98bf c8ac 783e 6c57 77bd
000001d0: dfdc 5abf 6bcd 1a3f e958 763f 72f5 bbbe
000001e0: cc07 44bf 729d 95bf ea44 debf c94e d33d
000001f0: f7c1 6abf 15fb 64be 5be0 6cbf 5f17 12bf
00000200: 23c4 b1be bcfa d6bf 1df1 f03d 6d71 6b3e
00000210: 0886 b93e ce87 a9bf 4f93 b3bf aef6 593f
00000220: 3542 0cc0 ccd6 94bf 3e5c 57bf 380c 0c3e
00000230: 463f 9fbf f907 673f 5b30 9abf 9520 15bf
00000240: ab3b 383d 5411 1abf 19f9 05bf 15c0 dabd
00000250: 685f c83e 6c36 8bbf f95e 9ebf cb71 b8bf
00000260: 0d3f 11bf 124e 13bf 9030 d9bf b55e c0be
00000270: 5273 c0bf 8b4a ad3e ab7a dabe bc67 653f
00000280: a866 a0be 28f2 9ebf 1d92 6bbe ce99 94bf
00000290: dba5 043f 3844 d23d 8c8f e8be e90b 3dbf
000002a0: faac bfbf adcb 91bf 51b0 e8be 7685 aebf
000002b0: f2f1 613b eeca 193f fff0 53be 5a6b 4fbe
000002c0: 7382 ee3c 4c24 49bf a89f e63c 3624 223e
000002d0: fe2d 1d3f 5295 1b3f db56 d6bf 97c5 0dbf
000002e0: b6f8 95bf a7f5 44bf 2092 44bf 71cf 98bf
000002f0: 167d a9be 63c9 643e fd01 20be 0e64 5fbf
00000300: 6922 633f 0448 4bbf 3f0c 17bf ea4d 9ebf
00000310: d09d 22bf a98b e63e 1a4c 57be 6846 68bf
00000320: fe93 92bf 9d0c b7bf 452d 63bf ed57 60bf
00000330: 0980 8cbf bdfc ce3e 8ec4 ae3f 59c2 033e
00000340: 13ef 29bf 0c35 7bbf 0859 89be 7995 523f
00000350: 1e7e 7dbf 39fd f83e 6c2b 85bf 00d4 833e
00000360: 96cd 86bf abbd 69bf f58e 69be 9899 b8bf
00000370: 260b 22bf 0296 7cbe e114 83bc f913 acbf
00000380: a0da 39bf 1271 50bf 66c4 bfbf 7a7b a7bf
00000390: ce9f 833f 78ec 67be 2cff a2bf 1a79 a6be
000003a0: 0409 12bf f080 85bf cdc0 043f 63e7 2fbf
000003b0: 3419 6c3e da3d 9c3f 4c6d 9a3f ab4e 51bf
000003c0: 580b 03bf 46a1 6bbf 5d13 4bbe 655f 6bbf
000003d0: aa42 8cbf 539f 95bd fb6c 8ebf 4fd8 b23e
000003e0: ee82 b1bf 3b4b 2abf ca70 77be 15e8 87bf
000003f0: b531 b2be ba88 4e3e 91b2 8dbf 142b 2cbf

fc2.weight f4 [2, 256]
0.4606796 -1.454888 0.50478035 0.9919532 -0.5024864 1.8774761 1.5815642 -1.1722178
-0.2757642 0.5211838 -0.8194644 0.15670294 -0.6527475 -0.52451 -1.5027808 0.674115
-0.7743992 1.3195618 1.0539889 -0.52959615 -0.5643991 0.75299895 -1.4615982 -0.12150218
0.10086896 0.46395028 1.43389 -0.1883345 1.0332935 0.08597659 0.8374788 1.065574
-0.5986579 1.2013444 0.63460237 0.47797528 1.0018567 -0.62778836 -1.0834543 -1.0004009
0.7636703 0.18604282 1.4333392 -0.490684 1.7829839 -0.66386575 -1.0907937 2.230093
1.2074671 1.1305443 -0.3128625 0.57904804 1.760879 0.45914072 1.0266584 0.7477063
-1.0653987 1.0127738 -1.1215464 1.8309923 0.8466709 -0.949381 -0.35087395 2.047181
1.6201196 -0.46246698 0.6705731 -0.77922684 1.3368137 0.13038121 -1.1361402 -0.38236472
0.62991446 1.1264299 -0.3702143 0.79041356 0.41515717 0.96326023 -0.3721513 1.0815992
1.1220522 0.15249486 0.20913859 0.06451531 0.48989955 -0.66740656 -0.563278 1.1002407
1.2750901 -1.5164663 0.5092967 0.71440554 -0.5041248 -1.1348962 -0.35705367 0.24901937
-1.0988294 -0.3117104 0.42597148 -0.43136722 0.3341643 0.9330213 -0.5528729 -0.35325253
-0.29085097 1.5842468 1.549963 -0.1438752 1.5276079 0.63133895 1.148186 0.46161377
-0.31352937 0.74017084 1.6857423 -0.34446985 0.80284065 2.0156376 0.39032203 0.41492295
-0.20739262 1.0709304 -0.7627795 0.09100945 1.539335 0.3311519 2.0442169 -0.38956282
-0.29091752 -0.7694474 0.84882164 1.2402245 0.4073692 0.74193555 -0.92123675 0.38397533
-0.06796005 -0.35129055 0.86652017 1.9125345 1.1800191 -0.64552647 -0.53662026 1.0224178
1.0550417 0.603667 -0.7074969 -2.11169 1.4282993 1.400294 1.9233626 -0.99937433
1.1306009 -0.033290833 1.0504111 0.896856 -0.44354263 0.5784728 0.8515381 0.36732468
-0.23700531 1.8552604 2.0756621 0.31657025 0.40862405 -0.8706694 0.5979331 0.32249412
-0.8397228 2.3596575 -0.46465823 -0.30348295 -1.6232418 0.61595607 0.3060713 -0.48276412
0.64935505 0.29528254 0.5382983 -1.8713822 0.1596745 -0.44322938 0.95737267 0.21895505
0.56006455 0.46794897 0.37829372 0.16817525 0.60020256 -0.067478 1.4081274 -0.863345
0.22250515 0.45000204 0.9520326 -1.7522336 0.23507114 -1.2603973 0.19724879 2.2275333
1.7890639 -1.0490208 -0.4687813 1.2180387 0.17461796 -0.24254291 0.14307219 -1.2113082
0.9540399 -1.3670006 -0.46640155 0.4090963 -0.96445715 0.3129638 -0.7366508 1.1869605
1.7979357 -1.5696856 0.6910479 0.66228735 1.2194037 0.3229622 -1.2185936 -1.7925535
1.0907336 0.047867604 0.10679521 0.9563122 0.26169837 -1.1692654 -0.67116266 -0.6211651
1.2839279 -0.8790869 1.5818627 -0.5557181 2.2029972 0.60949653 0.25225902 1.2172929
-0.025570514 -0.9939649 -0.9255632 1.2629871 -0.47057196 -0.60175693 -0.28457695 -0.6703574
-0.2867704 -1.3330853 1.1883568 1.6738944 0.53222317 -0.40321782 -0.81912225 0.817356
00000000: 32de eb3e c539 babf 4939 013f a5f0 7d3f
00000010: f3a2 00bf 2351 f03f b270 ca3f 3c0b 96bf
00000020: f730 8dbe 4d6c 053f 6bc8 51bf bc76 203e
00000030: 761a 27bf 4a46 06bf 1f5b c0bf cd92 2c3f
00000040: 073f 46bf 67e7 a83f 1ce9 863f 9d93 07bf
00000050: 767c 10bf 8ac4 403f a615 bbbf 23d6 f8bd
00000060: 6394 ce3d e48a ed3e b589 b73f c2da 40be
00000070: f642 843f 7f14 b03d 0365 563f bb64 883f
00000080: a541 19bf a7c5 993f 4d75 223f 2db9 f43e
00000090: d73c 803f bdb6 20bf a1ae 8abf 230d 80bf
000000a0: e67f 433f 0282 3e3e a977 b73f ef3a fbbe
000000b0: d138 e43f 1bf3 29bf 219f 8bbf d8b9 0e40
000000c0: 488e 9a3f adb5 903f 832f a0be 7e3c 143f
000000d0: 7c64 e13f 7e14 eb3e 8b69 833f ae69 3f3f
000000e0: fc5e 88bf 92a2 813f d58e 8fbf f55d ea3f
000000f0: 6dbf 583f a20a 73bf c0a5 b3be 0305 0340
00000100: 1460 cf3f 79c8 ecbe aeaa 2b3f 697b 47bf
00000110: b61c ab3f a782 053e 0b6d 91bf 4fc5 c3be
00000120: 1342 213f db2e 903f bb8c bdbe 8b58 4a3f
00000130: 7b8f d43e 3998 763f 9d8a bebe d871 8a3f
00000140: 689f 8f3f 9d27 1c3e 6d28 563e 9a20 843d
00000150: 1dd4 fa3e 28db 2abf fd32 10bf b0d4 8c3f
00000160: 2736 a33f 911b c2bf 4561 023f 48e3 363f
00000170: 530e 01bf 4744 91bf bdcf b6be effe 7e3e
00000180: 71a6 8cbf 8198 9fbe ef18 da3e 2adc dcbe
00000190: 9517 ab3e 7cda 6e3f 1489 0dbf 84dd b4be
000001a0: 6bea 94be 99c8 ca3f 3065 c63f 0554 13be
000001b0: a888 c33f 6e9f 213f c2f7 923f a458 ec3e
000001c0: ec86 a0be d67b 3d3f 67c6 d73f 5a5e b0be
000001d0: f786 4d3f 3500 0140 4ad8 c73e c870 d43e
000001e0: bb5e 54be 3f14 893f 8445 43bf 2a63 ba3d
000001f0: ee08 c53f be8c a93e 73d4 0240 c774 c7be
00000200: 24f3 94be 81fa 44bf 604c 593f adbf 9e3f
00000210: b292 d03e 7def 3d3f 2cd6 6bbf 6a98 c43e
00000220: a42e 8bbd 5bdc b3be 44d4 5d3f eecd f43f
00000230: de0a 973f 3941 25bf f25f 09bf 96de 823f
00000240: 9b0b 873f ec89 1a3f 841e 35bf ee25 07c0
00000250: 83d2 b63f d53c b33f bf30 f63f ffd6 7fbf
00000260: 88b7 903f f85b 08bd df73 863f 5b98 653f
00000270: 0518 e3be cb16 143f 67fe 593f fb11 bc3e
00000280: 85b1 72be 2c79 ed3f a6d7 0440 7f15 a23e
00000290: 2c37 d13e 31e4 5ebf 2512 193f f31d a53e
000002a0: 13f8 56bf a104 1740 afe7 edbe 1e62 9bbe
000002b0: 63c6 cfbf 4caf 1d3f 61b5 9c3e dc2c f7be
000002c0: 223c 263f 462f 973e ebcd 093f 7489 efbf
000002d0: b681 233e f6ee e2be 6016 753f c135 603e
000002e0: 6460 0f3f 0297 ef3e b7af c13e 2236 2c3e
000002f0: e0a6 193f e831 8abd 853d b43f 2e04 5dbf
00000300: 64d8 633e ab66 e63e 69b8 733f 3149 e0bf
00000310: 7db6 703e b354 a1bf 96fb 493e e88f 0e40
00000320: 0c00 e53f 5046 86bf 1a04 f0be b1e8 9b3f
00000330: 0dcf 323e 2b5d 78be 8481 123e 260c 9bbf
00000340: f53b 743f e0f9 aebf 2fcc eebe 1275 d13e
00000350: aae6 76bf cb3c a03e 2695 3cbf 52ee 973f
00000360: c222 e63f 75eb c8bf 84e8 303f aa8b 293f
00000370: 6c15 9c3f 4d5b a53e e0fa 9bbf 6572 e5bf
00000380: 299d 8b3f d210 443d 72b7 da3d e0d0 743f
00000390: 54fd 853e 7daa 95bf 51d1 2bbf ad04 1fbf
000003a0: c057 a43f d70b 61bf 7a7a ca3f 8b43 0ebf
000003b0: e8fd 0c40 f707 1c3f 1828 813e 41d0 9b3f
000003c0: 4179 d1bc 7c74 7ebf b6f1 6cbf 90a9 a13f
000003d0: cfee f0be be0c 1abf 12b4 91be 8b9c 2bbf
000003e0: 92d3 92be 8aa2 aabf 131c 983f 2c42 d63f
000003f0: c73f 083f 9172 cebe ffb1 51bf 3e3e 513f

fc2.bias f4 [2]
-0.1090653 0.10979075
00000000: a15d dfbd f9d9 e03d
