MultiAgent/actor1.pth (torch_old, 29368 bytes, 8 tensors)

norm0.weight f4 [24]
1.8793955 -0.045369487 0.06595554 0.17372136 1.1063169 2.2254453 0.008132291 0.20809725
1.0276017 1.2017099 1.1701527 0.2577334 1.3716538 -0.08038437 0.96178544 0.022992345
1.4913477 1.1145102 0.8384568 0.6100678 1.749567 -2.6998203 -0.68493515 -0.75606114
00000000: 0890 f03f 5bd5 39bd b313 873d 03e4 313e
00000010: cb9b 8d3f b26d 0e40 4d3d 053c 7217 553e
00000020: 7488 833f a1d1 993f 90c7 953f a2f5 833e
00000030: 5a92 af3f 90a0 a4bd 9237 763f 715a bc3c
00000040: 7be4 be3f 45a8 8e3f 1ba5 563f 672d 1c3f
00000050: d0f1 df3f dbc9 2cc0 e957 2fbf 398d 41bf

norm0.bias f4 [24]
0.1592145 0.06223226 0.033300977 -0.035681702 0.4021937 0.12817898 -0.03021059 -0.051418517
-0.25445494 -0.10673212 -0.17529455 -0.019313017 0.47329968 -0.06203826 -0.13937151 0.00046970038
0.079689465 -0.1576821 -0.020889087 -0.12048938 0.3428344 -0.88035 0.24292815 -0.22167256
00000000: 2009 233e 41e7 7e3d 9b66 083d fa26 12bd
00000010: 55ec cd3e 5a41 033e 337c f7bc 399c 52bd
00000020: eb47 82be 5f96 dabd 6a80 33be 5536 9ebc
00000030: 5654 f23e d51b 7ebd 68b7 0ebe 1e42 f639
00000040: 3b34 a33d 6b77 21be 971f abbc 23c3 f6bd
00000050: fe87 af3e 9e5e 61bf 28c2 783e 22fe 62be

norm0.running_mean f4 [24]
-6.195211 -0.82971436 4.9725256 0.3909147 0.48978138 3.020126 4.9725256 0.3909147
-6.4061575 -0.861332 5.8919387 0.41241452 0.55980855 2.9512672 5.8919387 0.41241452
-6.594122 -0.8926364 6.650006 0.3810139 0.6392784 2.8282866 6.650006 0.3810139
00000000: 2b3f c6c0 2968 54bf ee1e 9f40 f925 c83e
00000010: a0c4 fa3e bf49 4140 ee1e 9f40 f925 c83e
00000020: 3eff ccc0 4180 5cbf c38a bc40 ff27 d33e
00000030: 9d4f 0f3f 90e1 3c40 c38a bc40 ff27 d33e
00000040: 0c03 d3c0 d283 64bf d9cc d440 4114 c33e
00000050: c0a7 233f a602 3540 d9cc d440 4114 c33e

norm0.running_var f4 [24]
18.449892 1.0544795 308.20804 7.3403788 40.552444 5.003504 308.20804 7.3403788
17.556162 1.0829618 321.77036 7.738654 43.546223 5.556677 321.77036 7.738654
16.533707 1.1098623 342.57 8.168253 46.583496 6.5495734 342.57 8.168253
00000000: 6199 9341 2ff9 863f a11a 9a43 62e4 ea40
00000010: b435 2242 b41c a040 a11a 9a43 62e4 ea40
00000020: 0573 8c41 7e9e 8a3f 9be2 a043 0ea3 f740
00000030: 552f 2e42 4cd0 b140 9be2 a043 0ea3 f740
00000040: 0845 8441 f80f 8e3f f648 ab43 2ab1 0241
00000050: 8055 3a42 1b96 d140 f648 ab43 2ab1 0241

fc1.weight f4 [256, 24]
0.027662696 -0.48260322 -0.087461986 0.13807164 0.58169043 -0.28694007 -0.21703503 0.17674896
0.6517741 0.1699779 0.24241619 0.09806329 0.24589732 0.268019 0.36294755 0.011518624
-0.2186695 -0.06314633 -0.3134227 0.07008009 0.3008983 0.62132585 0.124368064 0.49536568
0.1691521 -0.40244907 0.00023245621 -0.016917333 0.13005234 0.040970773 -0.1272455 0.044916816
0.44013515 0.1219138 0.039549574 0.14928223 0.09930767 0.27670684 0.1010892 0.07116989
-0.0092199715 0.08417655 -0.09676811 0.12898186 0.31115982 0.2176815 0.0061963643 0.20904273
-0.36555344 0.94805306 -0.31560966 -0.2995643 2.9614713 -1.2985069 0.83996135 -0.40911534
-0.51215667 -0.37134618 0.92886215 -1.4891199 3.467854 -1.0318489 0.78160405 -0.65274626
0.67394245 -0.54588026 -0.21491729 -0.0748659 3.6941981 0.5943143 0.73503363 -0.7687442
0.14251234 -0.23359235 0.02775976 -0.031457074 0.009443104 0.04521947 -0.21578477 -0.02898983
0.27522528 -0.050369825 0.061532047 -0.02004151 -0.04548129 0.102563046 0.16985193 0.016782586
-0.16742986 -0.06555779 -0.11133588 0.017903812 0.02923566 0.15346213 -0.1879346 -0.021617565
0.070073195 -0.438168 -0.1340214 -0.054487765 0.19923146 -0.1822485 -0.2777049 -0.03284131
0.21918602 0.026672624 0.20786083 0.07278184 0.31760266 0.28647992 0.1809473 0.05222097
-0.14833401 0.031098636 -0.25820953 0.10953165 0.5256092 0.15696374 -0.12006351 -0.013159772
-1.556145 -0.17682676 0.23707438 -0.20441633 1.3566538 -0.6163057 0.17632078 -0.23683201
-0.8311523 0.8228567 -0.92920834 -0.024549464 0.6370308 0.16582267 -1.272383 -0.1834559
-1.3583006 0.84973526 -0.51560616 0.7146805 1.2790082 2.485957 0.8312245 -0.97376627
-1.1929212 0.43707088 -0.19279876 -0.042959392 0.91369605 -1.1741997 -0.40713945 -0.039403684
-0.97569406 0.11032291 -0.26327026 0.074416086 1.0653746 0.012337889 0.18806005 0.010101546
-1.4386866 0.66584504 -1.1193048 1.4757704 1.0537779 1.3099099 0.89696354 -1.5622724
0.1467837 -0.07778256 -0.08153642 -0.13951284 -0.036121096 0.036731936 -0.13482127 -0.16102514
0.062598825 -0.13883932 0.120416895 -0.028826589 0.26139128 0.051846378 0.2146511 0.038651306
-0.07200587 -0.25658923 -0.1028743 -0.020705123 0.63694346 -0.5143814 -0.2340394 0.07397826
0.4458656 0.30573303 -0.07637082 -0.22029985 -0.9170011 0.46046683 -0.09522554 -0.2484164
-0.055990167 -0.706581 -1.0899007 -0.34132674 -0.77407694 0.016410582 -0.98869056 -0.13749665
-0.11447331 -0.98796993 0.06481747 -0.1945906 -1.197181 -2.641857 0.16238408 -0.33797312
0.17987847 1.0711521 -0.4151576 -0.5821727 2.7529373 -0.45577008 0.63726455 -0.6474433
0.165603 -1.0584363 0.5507266 -0.70708096 3.3982449 -0.41955087 0.5565319 0.015499545
0.7919441 -1.2663085 -0.118172266 -0.20182994 3.7779639 -0.55987287 0.50877273 -0.25008482
0.09224419 -0.120995216 0.093087435 -0.13939463 0.4180131 0.55097556 -0.06508217 -0.09216199
0.033000022 -0.22603568 0.09004278 -0.051429354 0.35287285 0.131576 0.11070975 0.053559255
00000000: e19c e23c c517 f7be 451f b3bd a762 0d3e
00000010: aae9 143f cfe9 92be 6e3e 5ebe aefd 343e
00000020: abda 263f b00e 2e3e f33b 783e 68d5 c83d
00000030: 82cc 7b3e c939 893e 43d4 b93e 9cb8 3c3c
00000040: e6ea 5fbe dd52 81bd f178 a0be 2686 8f3d
00000050: 580f 9a3e 360f 1f3f afb4 fe3d 92a0 fd3e
00000060: 3536 2d3e ce0d cebe 7dbf 7339 3896 8abc
00000070: 712c 053e f8d0 273d a54c 02be b2fa 373d
00000080: 6559 e13e f1ad f93d bcfe 213d 71dd 183e
00000090: d261 cb3d 85ac 8d3e db07 cf3d 85c1 913d
000000a0: 5d0f 17bc c164 ac3d 5c2e c6bd d213 043e
000000b0: 5750 9f3e e6e7 5e3e df0a cb3b 4c0f 563e
000000c0: d229 bbbe 9bb3 723f 9797 a1be 7e60 99be
000000d0: bf88 3d40 7935 a6bf b507 573f 9177 d1be
000000e0: b31c 03bf 1621 bebe e9c9 6d3f 7b9b bebf
000000f0: 52f1 5d40 a013 84bf 3417 483f 611a 27bf
00000100: 7e87 2c3f cfbe 0bbf 4713 5cbe 4b53 99bd
00000110: be6d 6c40 fb24 183f 2a2b 3c3f 6bcc 44bf
00000120: c1ee 113e d532 6fbe 7068 e33c 22d9 00bd
00000130: 40b7 1a3c 0d38 393d aff6 5cbe 147c edbc
00000140: 54ea 8c3e 9750 4ebd 0709 7c3d 182e a4bc
00000150: 974a 3abd 930c d23d aaed 2d3e a27b 893c
00000160: bc72 2bbe 2a43 86bd 1104 e4bd 04ab 923c
00000170: 9f7f ef3c 2d25 1d3e ee71 40be 5217 b1bc
00000180: 8982 8f3d 8e57 e0be e83c 09be 902e 5fbd
00000190: 5503 4c3e 5a9f 3abe 562f 8ebe 9c84 06bd
000001a0: 4d72 603e 8c80 da3c 78d9 543e a50e 953d
000001b0: d19c a23e 7fad 923e 404a 393e a8e5 553d
000001c0: dfe4 17be 91c2 fe3c 0a34 84be 2152 e03d
000001d0: 538e 063f 1abb 203e dce3 f5bd 169c 57bc
000001e0: c22f c7bf 1312 35be a0c3 723e 8452 51be
000001f0: d5a6 ad3f 36c6 1dbf 6f8d 343e 1784 72be
00000200: 66c6 54bf bda6 523f 99e0 6dbf f51b c9bc
00000210: 7314 233f 6bcd 293e 72dd a2bf dddb 3bbe
00000220: cbdc adbf 4088 593f c4fe 03bf 4df5 363f
00000230: 8ab6 a33f eb19 1f40 21cb 543f bf48 79bf
00000240: a4b1 98bf c1c7 df3e 0a6d 45be 30f6 2fbd
00000250: fce7 693f 2d4c 96bf 9574 d0be c265 21bd
00000260: 16c7 79bf faf0 e13d 5ccb 86be 7667 983d
00000270: 325e 883f db24 4a3c d092 403e f480 253c
00000280: e226 b8bf d274 2a3f 6145 8fbf 0be6 bc3f
00000290: 32e2 863f 21ab a73f 679f 653f 8bf8 c7bf
000002a0: 774e 163e 764c 9fbd 91fc a6bd 74dc 0ebe
000002b0: b7f3 13bd 3a74 163d 960e 0abe c6e3 24be
000002c0: d033 803d e52b 0ebe 229d f63d bd25 ecbc
000002d0: 14d5 853e de5c 543d 7fcd 5b3e d550 1e3d
000002e0: d077 93bd aa5f 83be c3af d2bd ca9d a9bc
000002f0: ba0e 233f 80ae 03bf 06a8 6fbe ea81 973d
00000300: 7f48 e43e 0a89 9c3e 4e68 9cbd 4996 61be
00000310: 96c0 6abf 4fc2 eb3e 9c05 c3bd de60 7ebe
00000320: f255 65bd 7ee2 34bf de81 8bbf 61c2 aebe
00000330: e829 46bf 7c6f 863c d31a 7dbf eccb 0cbe
00000340: fc70 eabd 99eb 7cbf 06bf 843d c242 47be
00000350: 3a3d 99bf 2f14 29c0 0348 263e d00a adbe
00000360: 1032 383e 831b 893f 898f d4be 4509 15bf
00000370: 2030 3040 b25a e9be c523 233f d8be 25bf
00000380: d593 293e d77a 87bf 6bfc 0c3f 4203 35bf
00000390: d87c 5940 5fcf d6be e078 0e3f cef1 7d3c
000003a0: d9bc 4a3f 6616 a2bf 4d04 f2bd 82ac 4ebe
000003b0: 29ca 7140 d453 0fbf ee3e 023f 1e0b 80be
000003c0: 86ea bc3d 57cc f7bd a0a4 be3d 77bd 0ebe
000003d0: d005 d63e bc0c 0d3f cd49 85bd 6dbf bcbd
000003e0: 082b 073d e675 67be 5968 b83d 96a7 52bd
000003f0: c0ab b43e dcbb 063e cbbb e23d f360 5b3d

fc1.bias f4 [256]
-0.2214147 -0.03622204 2.2437856 -0.1564398 0.031749796 0.040962502 0.2539512 -0.05789956
0.30615267 1.0894657 -0.3221773 -0.20845276 0.151193 -0.09549892 0.057119474 -0.22164123
-0.4911967 -0.1872962 -0.005770429 -0.71664494 -0.09017104 -0.29246923 0.06331333 0.26002482
-0.1550243 -0.07547046 -0.39036784 0.21725193 -0.077843726 -0.4878477 -0.19411704 0.017570948
-0.03997419 -0.023459313 0.024645101 -0.25708878 -0.11793621 -0.01836832 -1.0443776 -0.20956905
-0.5727656 -0.4116544 -0.36302724 -0.0889741 -0.4066231 -0.035063706 -0.6731993 -0.47625554
0.12873025 -0.059488736 0.108179815 0.0054437467 -0.20063822 -0.09606204 -0.001205812 -0.018051308
-0.2714454 -0.3954299 -0.59890974 -0.15615496 -0.15716499 -0.21455295 -0.03252146 -0.66432256
-0.9148816 -0.61079735 -0.3697357 -0.30490175 -0.4034171 -0.011885106 -0.045437403 -0.038329013
-0.026572635 -0.042133525 -0.11680928 -0.58184904 -0.17703553 -0.027168514 -0.46403906 0.02270248
-0.3718793 -0.23285702 -0.031410784 -0.43478158 0.31009868 -0.44853577 -0.4742753 -0.11539496
-0.7457184 -0.32751045 0.0016961418 0.24320862 -0.21218458 -0.12286716 -0.0014194017 0.06550772
-0.07453608 -0.036450636 1.251224 -0.14578168 -0.15235962 -0.474239 0.03393529 -0.09793018
-0.10990404 -0.027045272 -0.08778107 -0.37259477 -0.013943462 -0.15059946 1.0026789 -0.07957948
-0.10063349 -0.107638255 0.0353476 -0.018177642 -0.84001434 -0.3895093 -0.08024055 -0.083085485
-0.06423933 -0.05981108 -0.11014675 -0.69858265 -0.25792405 -0.0029837494 -0.036568597 -0.31822118
-0.09816501 -0.009987467 -0.031595625 -0.19732347 -0.50508434 -0.0022475347 -0.08181141 -0.06829808
-0.13730253 0.41595194 -0.44880185 0.013773758 -0.0433425 -0.4659291 -0.16558145 -0.30373478
-1.2203639 -0.73831993 -0.057283964 -0.017937155 -0.98565716 -1.1457657 -0.021589726 -0.80677414
-0.23306204 0.15156196 -0.72456926 0.018779987 0.033911068 0.22289987 -0.028144674 0.2474182
-0.61976445 -0.057424057 -0.3031424 -0.046887707 -0.0010529605 -0.32217678 -0.24787042 -0.030019756
-0.8165225 -0.29687563 -0.098280504 -0.080221266 0.1154433 -0.93825835 -0.4097531 -0.026106298
-0.17350571 -0.24112621 -0.028486542 -1.2093085 -0.11774278 0.018347971 -0.05070763 -0.02219759
-0.090144776 -0.28790438 -0.047905922 0.06431015 -0.55165774 -0.545281 -0.40973243 -0.08705956
-0.20852345 -0.11343877 -0.15687732 -0.031344835 -0.13576797 -0.1447813 -1.0438366 -0.6503369
-0.32484254 -0.6180022 1.2952198 -0.074068934 -0.39244223 -0.17047441 -0.61929446 -0.30091378
-0.10980827 -0.5477464 -0.11195117 -0.801305 -1.0765197 -0.028667338 -0.5959007 0.04334749
-0.19362909 -0.018703513 0.25659436 -0.15679714 -0.0052272743 0.68383 -0.042949066 -0.16175841
0.16253036 -0.018136479 -0.15283282 0.018379144 -0.0534051 -0.015355178 -0.23335482 -0.18282679
-0.13460624 -0.09559411 -0.24034108 -0.008174145 -0.04980625 -0.21729526 0.002317637 -0.007682044
-0.08500188 -0.13227879 0.04130719 -0.043447793 -0.29535186 0.030013153 -0.16897477 0.0677744
-0.7789903 -0.092134684 0.016122706 -0.0022916489 0.13959135 -0.03549157 -0.4964271 -0.5906376
00000000: 89ba 62be 905d 14bd 2f9a 0f40 c131 20be
00000010: 130c 023d 4cc8 273d e405 823e 1728 6dbd
00000020: 0bc0 9c3e 9d73 8b3f 6cf4 a4be a474 55be
00000030: 56d2 1a3e f094 c3bd 1cf6 693d ebf5 62be
00000040: 227e fbbe 93ca 3fbe de15 bdbb 0b76 37bf
00000050: 98ab b8bd 87be 95be 6baa 813d f921 853e
00000060: b1be 1ebe 4290 9abd 4bde c7be 4a77 5e3e
00000070: 886c 9fbd 2cc7 f9be 9ec6 46be f3f0 8f3c
00000080: fabb 23bd bf2d c0bc 86e4 c93c 24a1 83be
00000090: 8a88 f1bd 2979 96bc 2aae 85bf 4599 56be
000000a0: c4a0 12bf 5ec4 d2be b5de b9be 0e38 b6bd
000000b0: e730 d0be f69e 0fbd ca56 2cbf c4d7 f3be
000000c0: ddd1 033e 76aa 73bd 618d dd3d 7561 b23b
000000d0: 1b74 4dbe 2dbc c4bd 560c 9eba 56e0 93bc
000000e0: e4fa 8abe ca75 cabe 2652 19bf 16e7 1fbe
000000f0: dcef 20be c5b3 5bbe 3935 05bd 0b11 2abf
00000100: ae35 6abf 375d 1cbf ff4d bdbe 151c 9cbe
00000110: b08c cebe bfb9 42bc 921c 3abd e2fe 1cbd
00000120: dbae d9bc 3494 2cbd b439 efbd 0ff4 14bf
00000130: cd48 35be 8190 debc 8796 edbe 8dfa b93c
00000140: f766 bebe 1272 6ebe 98a8 00bd b19b debe
00000150: 41c5 9e3e 7ba6 e5be 36d4 f2be 3154 ecbd
00000160: 67e7 3ebf 73af a7be 1351 de3a ae0b 793e
00000170: ea46 59be c7a1 fbbd 380b baba e928 863d
00000180: 5fa6 98bd 434d 15bd 1c28 a03f cb47 15be
00000190: 2904 1cbe 74cf f2be bbff 0a3d 9e8f c8bd
000001a0: 5f15 e1bd 0c8e ddbc 90c6 b3bd bec4 bebe
000001b0: 1e73 64bc bf36 1abe c857 803f 91fa a2bd
000001c0: ee18 cebd 7271 dcbd a5c8 103d 47e9 94bc
000001d0: 2e0b 57bf c36d c7be 2855 a4bd b928 aabd
000001e0: e98f 83bd 77fc 74bd 9f94 e1bd 50d6 32bf
000001f0: 9f0e 84be 028b 43bb f4c8 15bd e3ed a2be
00000200: bd0a c9bd 79a2 23bc 6a6a 01bd 2a0f 4abe
00000210: 354d 01bf 604b 13bb be8c a7bd dddf 8bbd
00000220: 0999 0cbe a7f7 d43e 5bc9 e5be 54ab 613c
00000230: e887 31bd 428e eebe 2f8e 29be 2083 9bbe
00000240: e234 9cbf 8902 3dbf 97a2 6abd f1f0 92bc
00000250: 0754 7cbf 73a8 92bf f0dc b0bc c088 4ebf
00000260: d1a7 6ebe 0f33 1b3e 5f7d 39bf 7dd8 993c
00000270: 55e6 0a3d dd3f 643e a98f e6bc 325b 7d3e
00000280: e2a8 1ebf 7d35 6bbd 7b35 9bbe 530d 40bd
00000290: 7e03 8aba 5bf4 a4be bed1 7dbe feeb f5bc
000002a0: 9e07 51bf 1500 98be 4a47 c9bd 0c4b a4bd
000002b0: 896d ec3d b331 70bf 29cb d1be e0dc d5bc
000002c0: 7bab 31be cae9 76be 9c5c e9bc 9fca 9abf
000002d0: 2023 f1bd 7c4e 963c ceb2 4fbd b8d7 b5bc
000002e0: d39d b8bd 3468 93be 0039 44bd 0ab5 833d
000002f0: 7139 0dbf 8997 0bbf 73c8 d1be 484c b2bd
00000300: 2c87 55be 9652 e8bd 73a4 20be 7163 00bd
00000310: c206 0bbe 8d41 14be 709c 85bf 7b7c 26bf
00000320: c351 a6be 6435 1ebf c3c9 a53f 74b1 97bd
00000330: 30ee c8be d890 2ebe 158a 1ebf 5f11 9abe
00000340: 29e3 e0bd 1c39 0cbf a846 e5bd 5322 4dbf
00000350: 66cb 89bf c4d7 eabc f38c 18bf 238d 313d
00000360: b446 46be 1c38 99bc 5660 833e 6e8f 20be
00000370: 8e49 abbb 7c0f 2f3f 5ceb 2fbd ffa3 25be
00000380: 5c6e 263e f492 94bc 3580 1cbe dc8f 963c
00000390: 4ebf 5abd 4994 7bbc 91f4 6ebe f236 3bbe
000003a0: 38d6 09be d8c6 c3bd f91b 76be d9ec 05bc
000003b0: a301 4cbd a682 5ebe 7fe3 173b a8b9 fbbb
000003c0: 7715 aebd 1774 07be ba31 293d 50f6 31bd
000003d0: 5c38 97be 25de f53c b907 2dbe 4ecd 8a3d
000003e0: e96b 47bf 1cb1 bcbd c413 843c 7d2f 16bb
000003f0: 09f1 0e3e 9c5f 11bd b12b febe 0734 17bf

fc2.weight f4 [2, 256]
0.015574693 -0.0033644526 3.3120997 -0.013301062 0.017249027 0.8746753 0.92748564 0.08213677
-1.8141289 2.220794 0.25470474 -0.01786668 -0.90094113 0.004127334 -0.75324726 0.052150887
0.35992038 0.05248938 0.016724903 0.65648127 -0.5274763 0.01081316 0.01159017 1.39629
-0.019753002 -9.834075e-05 -0.40870836 -0.4144899 -0.006301072 -0.6632312 -0.010379743 -0.0064105005
0.0058012446 0.007494842 0.02107383 -0.91820174 -0.010679579 0.010906641 0.66000974 0.00522147
-0.010912186 -0.24851832 0.0010256553 0.016079418 -0.8542755 -0.0040404564 -0.12330496 0.34805906
-0.93597454 -0.012982793 1.0606889 0.0056230184 0.037281442 -0.5262253 -0.018114675 -0.015091957
0.096128 -0.865333 0.84235096 0.7293304 0.008619608 0.03574662 -0.00074063364 -0.078736
0.28863695 -0.19624972 -0.14248218 -0.073144056 -0.3883039 -0.010822095 -0.568352 -0.014746888
-0.006553555 -0.06852909 -0.010298116 -0.054161392 -0.015184012 0.0053593754 0.93956625 0.005367235
0.19599764 -0.022961022 0.017153483 -0.27568197 0.17671405 0.15710579 -0.11612546 -0.27720144
-0.13040666 -0.45863196 -0.0061897864 1.264059 0.113761835 0.014596799 0.008954926 0.0041299984
-0.0027601875 0.0053531323 1.1534729 -0.035086486 0.0015370543 0.5482352 0.0011425184 0.012082532
0.00032485576 0.014624293 -0.023053333 0.5173357 0.012225295 -7.264014e-05 0.79349923 0.0031263914
0.0001403135 -0.0019334182 0.047607023 0.0063837827 -0.23877466 -0.15657276 -0.18528569 0.026878782
0.013965777 -0.009697354 -0.64205265 -0.03875615 -0.0026804332 0.0033864717 -0.014660658 0.60574627
-0.0015662073 -0.003349985 0.011340484 0.016982239 -0.1232122 0.006764267 0.012465682 1.1240827
0.009200413 1.0496852 -0.93443984 0.003499049 -0.0009701618 -0.11991769 -0.0016348314 0.015075408
0.14146778 -0.2543076 -0.003202299 -0.005011028 0.019568587 -0.20825607 0.00540234 0.29974246
0.005347165 -1.2145004 0.40118274 0.004004949 -0.014734347 -1.4981335 0.006284888 -1.0826814
-0.1886181 0.011222076 -0.04275217 -0.0008727826 -0.0012166132 0.025562342 -0.038206574 0.039124116
-0.18062223 -0.04854741 0.0019409423 1.6926146 -0.84592724 0.030736951 -0.09182089 -0.002781963
-0.24982014 0.0034878408 0.0067444295 -0.19650061 -0.020791773 0.017961191 0.011332037 0.006515352
-0.0028181565 0.04435729 -0.002877997 0.05409821 0.011067363 -0.024673745 0.031155303 0.008786377
-0.060092352 -0.7078477 -0.54200625 0.010647625 0.009539862 -0.007509374 -0.11566078 0.03632826
0.18489891 -0.2014601 2.8094256 -0.0132626295 -0.061946385 -0.14014421 0.06905932 -0.1641481
-0.010368615 -0.23232843 -0.00341498 0.27387878 0.026948357 0.004823362 0.10660649 0.0064194975
0.039350122 0.015506482 1.2307916 -0.27439362 0.010637699 -1.0567211 -0.14118424 -0.02495645
-0.7376394 -0.009059944 -0.43563274 0.014265868 -0.0024904269 -0.013201055 -0.006052645 0.38952786
-0.3734326 0.0040260074 0.047369163 0.0145656755 -0.0050946544 0.077736415 0.01279867 -0.008363273
0.010776215 -0.044585068 0.010713941 0.004173289 0.50927484 0.016472908 -0.8437593 1.1587423
-0.6949253 -0.0073324367 0.017360462 -0.00825683 -0.8787014 0.013629027 -0.069309294 0.07207359
00000000: ff2c 7f3c 267e 5cbb 71f9 5340 b3ec 59bc
00000010: d54d 8d3c b8ea 5f3f b36f 6d3f 5337 a83d
00000020: 6035 e8bf 7d21 0e40 a968 823e 255d 92bc
00000030: 14a4 66bf 963e 873b d0d4 40bf 2b9c 553d
00000040: 7c47 b83e 1bff 563d aa02 893c 280f 283f
00000050: b008 07bf ae29 313c b2e4 3d3c a1b9 b23f
00000060: 0cd1 a1bc 4a3c ceb8 3942 d1be 0538 d4be
00000070: 3979 cebb 85c9 29bf cc0f 2abc 2d0f d2bb
00000080: 5e18 be3b 4b97 f53b 06a3 ac3c 450f 6bbf
00000090: 67f9 2ebc c5b1 323c 66f6 283f dd18 ab3b
000000a0: 06c9 32bc 967b 7ebe 486f 863a fcb8 833c
000000b0: cdb1 5abf ce65 84bb 5087 fcbd cc34 b23e
000000c0: 079c 6fbf c8b5 54bc a7c4 873f 4c41 b83b
000000d0: 6db4 183d b4b6 06bf 3a65 94bc 4144 77bc
000000e0: c2de c43d 7786 5dbf 50a4 573f 66b5 3a3f
000000f0: 4239 0d3c 0c6b 123d 1527 42ba 5740 a1bd
00000100: 39c8 933e b0f5 48be d9e6 11be 8dcc 95bd
00000110: c5cf c6be 284f 31bc 847f 11bf ee9c 71bc
00000120: 34bf d6bb fb58 8cbd 6eb9 28bc 56d8 5dbd
00000130: 5dc6 78bc b39d af3b 6a87 703f a1df af3b
00000140: 9bb3 483e c118 bcbc 7685 8c3c 3026 8dbe
00000150: 87f4 343e 57e0 203e 2fd3 edbd 59ed 8dbe
00000160: 5389 05be cfd1 eabe b1d3 cabb afcc a13f
00000170: f7fb e83d 6a27 6f3c afb7 123c f054 873b
00000180: 43e4 34bb 5469 af3b 00a5 933f d9b6 0fbd
00000190: fc76 c93a 2459 0c3f 8ec0 953a d0f5 453c
000001a0: 6751 aa39 bb9a 6f3c 58da bcbc 1d70 043f
000001b0: 9b4c 483c 6156 98b8 c422 4b3f 25e4 4c3b
000001c0: 1e21 1339 c06a fdba 95ff 423d 0d2f d13b
000001d0: 5881 74be 9c54 20be 88bb 3dbe e430 dc3c
000001e0: b7d0 643c a7e1 1ebc 905d 24bf c5be 1ebd
000001f0: 35aa 2fbb 91ef 5d3b 4233 70bc 3012 1b3f
00000200: 3249 cdba 6c8b 5bbb 70cd 393c 561e 8b3c
00000210: ae56 fcbd c9a6 dd3b dc3c 4c3c f1e1 8f3f
00000220: 54bd 163c 165c 863f 7337 6fbf 4d50 653b
00000230: 7552 7eba 6897 f5bd d747 d6ba d8fe 763c
00000240: eedc 103e 9b34 82be a9dd 51bb 8d33 a4bb
00000250: 4d4e a03c 1441 55be 1d06 b13b d877 993e
00000260: 4537 af3b c074 9bbf d367 cd3e f23b 833b
00000270: 5568 71bc d7c2 bfbf 76f1 cd3b 4e95 8abf
00000280: 1a25 41be ccdc 373c e61c 2fbd 73cb 64ba
00000290: c476 9fba 1e68 d13c 7f7e 1cbd 9c40 203d
000002a0: 09f5 38be a6d9 46bd 3767 fe3a 98a7 d83f
000002b0: b08e 58bf 0fcc fb3c 970c bcbd 9851 36bb
000002c0: dad0 7fbe 4294 643b 6000 dd3b 7537 49be
000002d0: 8253 aabc 5923 933c 02aa 393c bc7e d53b
000002e0: d2b0 38bb fdaf 353d c79c 3cbb 1696 5d3d
000002f0: e353 353c 9820 cabc 6839 ff3c bcf4 0f3c
00000300: 6623 76bd 8235 35bf ecc0 0abf 6073 2e3c
00000310: 154d 1c3c 3211 f6bb 8fdf ecbd f1cc 143d
00000320: 2456 3d3e 8e4b 4ebe a1cd 3340 804b 59bc
00000330: 7ebb 7dbd f781 0fbe f96e 8d3d 7116 28be
00000340: 20e1 29bc 81e7 6dbe dbcd 5fbb d739 8c3e
00000350: cdc2 dc3c 4b0d 9e3b 8154 da3d a65a d23b
00000360: 982d 213d e60e 7e3c 948a 9d3f 527d 8cbe
00000370: be49 2e3c a342 87bf 9a92 10be 7871 ccbc
00000380: f0d5 3cbf 2970 14bc 410b dfbe 63bb 693c
00000390: 6e36 23bb 3d49 58bc 4455 c6bb 3270 c73e
000003a0: 8f32 bfbe 99ec 833b 2b06 423d dfa4 6e3c
000003b0: 0ff1 a6bb 4534 9f3d 83b1 513c 1c06 09bc
000003c0: b98e 303c d59e 36bd 8789 2f3c 16c0 883b
000003d0: d65f 023f 31f2 863c 9c00 58bf ab51 943f
000003e0: a0e6 31bf f044 f0bb 8737 8e3c a847 07bc
000003f0: 93f2 60bf 484c 5f3c 08f2 8dbd 519b 933d

fc2.bias f4 [2]
-0.048585292 0.015727708
00000000: 5f01 47bd 65d7 803c
