MultiAgent/actor1.pth (torch_old, 29368 bytes, 8 tensors)

norm0.weight f4 [24]
0	0x3f8065f3	1.0031112
1	0x3eda2937	0.4260957
2	0x3f029224	0.5100424
3	0xbe74d226	-0.2390829
4	0x3ff3886c	1.9026008
5	0x400b718e	2.1788058
6	0xbecc56e7	-0.3991005
7	0x3f203e6c	0.6259525
8	0x3fb42cd7	1.4076184
9	0x3f6e5db6	0.9311174
10	0x3e800bca	0.25008994
11	0x3ef1adc8	0.47202897
12	0x3f08b799	0.5340515
13	0xbf96585e	-1.1745718
14	0x3dd93890	0.106064916
15	0x3ed9f0a0	0.42566395
16	0x4015b1e1	2.3389819
17	0x40012f57	2.0185144
18	0xbf2480a1	-0.6425877
19	0x3fa7af0d	1.3100296
20	0x4067c85b	3.6216037
21	0x401ff287	2.4991777
22	0x3e19cb97	0.1501907
23	0xbf4df950	-0.80458546

norm0.bias f4 [24]
0	0xbe8e2f5e	-0.27770513
1	0x3e0f742d	0.14009161
2	0xbe9bca3d	-0.30427733
3	0x3eb43635	0.35197607
4	0x3f93e508	1.155427
5	0x3f31e2ff	0.69486994
6	0x3eb66975	0.35627332
7	0xbeffed31	-0.4998565
8	0xbdfb29b8	-0.122638166
9	0x3c2025bc	0.009774622
10	0xbf0a736d	-0.54082376
11	0xbef9da3a	-0.48799306
12	0x3f99fb6b	1.2029852
13	0xbf1c7d39	-0.61128575
14	0xbf0c27c7	-0.54748195
15	0xbf41c1ab	-0.7568614
16	0xbec7e228	-0.3903973
17	0x3c5cc920	0.013475686
18	0xbeab43b2	-0.33450085
19	0xbe0d59bb	-0.1380376
20	0x3f317f4c	0.69334865
21	0x3f10a1ab	0.56496686
22	0x3e9f0a66	0.3106262
23	0xbe91e5cb	-0.2849563

norm0.running_mean f4 [24]
0	0xc1289a2c	-10.53764
1	0xbf40c2d6	-0.75297296
2	0xbe2ff0f4	-0.1718176
3	0x3d20d05e	0.039261214
4	0xbeaa849f	-0.33304307
5	0x4084486a	4.1338396
6	0xbe2ff0f4	-0.1718176
7	0x3d20d05e	0.039261214
8	0xc1298e06	-10.597174
9	0xbf40ab17	-0.7526106
10	0xbe459309	-0.1929437
11	0x3c5917c9	0.0132503
12	0xbeafacee	-0.34311622
13	0x40849720	4.143448
14	0xbe459309	-0.1929437
15	0x3c5917c9	0.0132503
16	0xc12a681a	-10.650415
17	0xbf4096fb	-0.7523038
18	0xbe2a999f	-0.16660164
19	0x3b120b32	0.0022284505
20	0xbeb7ac40	-0.35873604
21	0x4084955c	4.1432323
22	0xbe2a999f	-0.16660164
23	0x3b120b32	0.0022284505

norm0.running_var f4 [24]
0	0x40047a47	2.0699632
1	0x3f93524c	1.150949
2	0x42b7195b	91.54952
3	0x4158eec6	13.558294
4	0x41e055aa	28.041828
5	0x400ee4a5	2.2327054
6	0x42b7195b	91.54952
7	0x4158eec6	13.558294
8	0x3fbdb65f	1.482128
9	0x3f938777	1.1525716
10	0x42ba729a	93.22383
11	0x415bba29	13.732949
12	0x41e2744e	28.30679
13	0x400d6550	2.2093086
14	0x42ba729a	93.22383
15	0x415bba29	13.732949
16	0x3f6983a1	0.91216475
17	0x3f944378	1.158309
18	0x42bbf886	93.9854
19	0x415bcfa8	13.738197
20	0x41e55267	28.665236
21	0x40108a3f	2.2584379
22	0x42bbf886	93.9854
23	0x415bcfa8	13.738197

fc1.weight f4 [256, 24]
0	0xbf5a2d23	-0.85225123
1	0x3e03465c	0.12819809
2	0x3d360677	0.04443976
3	0xbf1f4f54	-0.6223042
4	0xbf9b2e5e	-1.2123525
5	0x3e848564	0.2588302
6	0x3f243017	0.6413588
7	0xbc2b7aba	-0.010466272
8	0x3cf0e3f9	0.02940558
9	0x3e658e65	0.224176
10	0xbf97f5e2	-1.1871912
11	0xbe49183f	-0.19638155
12	0x3f14099c	0.5782716
13	0xbeafb363	-0.3431655
14	0xbfb4f446	-1.4137046
15	0xbe07f16c	-0.13275689
16	0x3f2181fe	0.6308898
17	0x3dce9ca8	0.100884736
18	0x3e81d772	0.25359684
19	0xbf0e88b5	-0.5567735
20	0x3ee3c811	0.44488576
21	0x3e8d2bd5	0.27572504
22	0x3f80fe01	1.0077516
23	0x3f80d9f7	1.0066518
24	0x3eb8c179	0.36085108
25	0xbf8a029c	-1.0782046
26	0x3e6daac1	0.23209669
27	0xbde6f161	-0.11276508
28	0xc009b765	-2.1518185
29	0x3fd96def	1.6986674
30	0xbe8186be	-0.25298113
31	0x3e968ebe	0.2940578
32	0x3fb73763	1.4313778
33	0xbf9be2d8	-1.2178602
34	0xbe8140cc	-0.2524475
35	0x3ed7fd16	0.42185277
36	0x3e2f0a7f	0.17093848
37	0xbefec73d	-0.49761382
38	0xbef2c1d6	-0.4741351
39	0x3ea45757	0.32097885
40	0x3f8f0870	1.117445
41	0xbfbb79b2	-1.4646513
42	0x3f0bf69e	0.5467318
43	0x3ee64e9d	0.44981852
44	0x3ffe9220	1.9888344
45	0xbf505006	-0.81372106
46	0x3ee1a2f2	0.4406963
47	0x3f09414b	0.53615254
48	0x3ff40d6a	1.9066594
49	0xbfca53e9	-1.5806857
50	0x3f37be6e	0.7177495
51	0xbf91191f	-1.1335791
52	0x3f184a90	0.59488773
53	0x3eb7c74e	0.35894245
54	0xbf3ece82	-0.74533856
55	0x3f54e496	0.83161294
56	0x3fca7813	1.5817894
57	0xc0017646	-2.0228438
58	0x3fb81e65	1.4384276
59	0x3e9928d8	0.29913974
60	0xbf738adb	-0.9513375
61	0xbf11ee91	-0.5700465
62	0x3fb773e7	1.4332246
63	0x3f849d48	1.0360498
64	0x4090da85	4.5266747
65	0xc033421b	-2.8009098
66	0x3f82dab8	1.0222998
67	0xbf765a8d	-0.9623192
68	0xbfb59ab3	-1.4187835
69	0x401b4239	2.425917
70	0xbed2835c	-0.41115844
71	0x3f2d2a06	0.6764225
72	0xbf6beddf	-0.9215984
73	0x3efe5ab1	0.49678567
74	0x3eb94aaa	0.36189777
75	0x3e6cb737	0.23116766
76	0xbe806afd	-0.25081626
77	0x3e42efaa	0.19036737
78	0x3f514130	0.81740093
79	0xbe497d37	-0.19676672
80	0xbd980b3d	-0.074240185
81	0x3f08d595	0.534509
82	0x3d6d3604	0.05791284
83	0xbf0db06f	-0.5534734
84	0x3f769867	0.963263
85	0x3cfdc117	0.030975861
86	0xbe8a7d93	-0.2704893
87	0xbf35e419	-0.71051174
88	0x3f644da3	0.89180964
89	0x3e91d90b	0.28485903
90	0x3f314b71	0.6925574
91	0xbe5edf93	-0.21764974
92	0x3f428eb4	0.75999
93	0xbee42077	-0.4455602
94	0xbe5386e0	-0.2065692
95	0x3fe30d91	1.7738515
96	0xbe4a2adb	-0.1974291
97	0xbed5949b	-0.4171494
98	0x3eb1e848	0.3474753
99	0xbea8a7af	-0.32940432
100	0xc03b4e3a	-2.9266496
101	0x3fd9a65b	1.7003893
102	0xbe215a13	-0.15757017
103	0xbef9744c	-0.4872154
104	0x3f01b49b	0.5066621
105	0xbf44a3e4	-0.7681258
106	0xbddc2b1f	-0.10750412
107	0xbf77759a	-0.9666382
108	0xbe469650	-0.19393277
109	0xbeac4ac0	-0.3365078
110	0xbd002beb	-0.031291883
111	0xbf8ee2e4	-1.1162992
112	0x3f2e96d9	0.68198925
113	0xbfb608a9	-1.4221393
114	0x3cde53a2	0.027139489
115	0xc00209f3	-2.0318573
116	0x3fc78420	1.5587196
117	0xbf8e0ca5	-1.1097609
118	0x3f538b94	0.82634854
119	0xbf26eca4	-0.65204835
120	0xbee346ac	-0.44389856
121	0x3d24394e	0.040093713
122	0x3d94d6df	0.07267546
123	0xbf02a711	-0.51036173
124	0xc02102f2	-2.5158048
125	0xbd9645bd	-0.0733752
126	0x3f72a7ad	0.947871
127	0xbdda5144	-0.106600314
128	0x3d6f3d73	0.058408212
129	0xbed70541	-0.41996196
130	0xbe9f6947	-0.31135008
131	0xbf172350	-0.5903826
132	0xbe452601	-0.19252779
133	0xbe290668	-0.1650635
134	0xbf10fb42	-0.5663339
135	0xbeb4855b	-0.35257992
136	0x3f1c8090	0.6113367
137	0xbf0beb5a	-0.54655993
138	0x3fb0db71	1.3816968
139	0x3f62629d	0.8843172
140	0x3fa7e33c	1.3116221
141	0x3e7be3dc	0.2459864
142	0x3d44a75c	0.04801117
143	0xbe74b24f	-0.23896144
144	0xbf928a5f	-1.1448478
145	0xbed60f3c	-0.41808498
146	0x3f0f48ef	0.5597066
147	0xbfbdb75c	-1.4821582
148	0xbf8432a8	-1.0327959
149	0x3f69f2d3	0.91386145
150	0x3c235886	0.009969836
151	0xbf8849da	-1.0647538
152	0xbf3dafb8	-0.7409625
153	0xbf99ba0a	-1.20099
154	0x3d797f34	0.060912326
155	0xbf455048	-0.77075624
156	0x3ec7a8dc	0.38996017
157	0xbf646e61	-0.89230925
158	0xbc47d130	-0.01219587
159	0xbf294772	-0.6612464
160	0x3f920a42	1.140938
161	0xbfb3a06c	-1.4033332
162	0x403e4b40	2.973343
163	0xbf44afe6	-0.768309
164	0x401b9258	2.430807
165	0x3d7f8f8f	0.062392768
166	0x3efefb1b	0.49800953
167	0xbda5e9a4	-0.08101204
168	0xbec60a7c	-0.38679874
169	0xbdceda56	-0.10100238
170	0x3e66ea0c	0.2255022
171	0xbf26508c	-0.64966655
172	0x3d4fea17	0.050760355
173	0xbc8cf640	-0.017207265
174	0x3e6632bc	0.22480291
175	0x3d88b232	0.06674613
176	0xbe5c5b10	-0.21519113
177	0x3c154a57	0.009111962
178	0xbd9ae77a	-0.07563682
179	0x3e85e7ef	0.26153514
180	0x3e61b4ea	0.2204167
181	0x3e70371f	0.23458527
182	0x3d70fb0a	0.05883316
183	0x3ee2ead7	0.44319794
184	0x3f421b55	0.75822955
185	0x3d9dd9ed	0.07707582
186	0x3ed7922e	0.42103714
187	0xbe2ab415	-0.16670258
188	0x3f61404e	0.87988746
189	0x3ed35343	0.4127446
190	0xbebca2e6	-0.36843032
191	0x3fa6703d	1.3003002
192	0xbcb9d369	-0.022683816
193	0x3d80db10	0.06291783
194	0x3f1a30e6	0.60230863
195	0xbf627d72	-0.88472664
196	0x40307b9d	2.7575448
197	0x3faf1f41	1.3681413
198	0x3ea61df0	0.32444715
199	0xbf044b33	-0.51677245
200	0x3e8b305c	0.27185333
201	0x3e9160ba	0.2839411
202	0x3eb4bf24	0.3530208
203	0x3f074c0b	0.5285041
204	0x3fa2a539	1.2706672
205	0xbfde2179	-1.7353965
206	0x3b9cdfe9	0.0047874344
207	0x3ee8683b	0.45392022
208	0x3e816b48	0.25277162
209	0x3e33754b	0.17525212
210	0x3d487cd9	0.04894719
211	0x3f1fc76c	0.6241367
212	0xbfa803ea	-1.3126194
213	0x402a285f	2.658714
214	0xbe997da2	-0.29978663
215	0x3ece0ece	0.4024567
216	0xbe895b25	-0.2682735
217	0x3e9bc128	0.30420804
218	0x3c6b462a	0.01435999
219	0xbf8f4286	-1.1192176
220	0x4002bee7	2.0429018
221	0xbdf8eadb	-0.1215417
222	0x3f573732	0.84068596
223	0xbe9bda74	-0.30440104
224	0x3d90344b	0.07041224
225	0x3f2707ce	0.65246284
226	0xbf500b08	-0.8126683
227	0xbdbe3612	-0.09287657
228	0x3f34d006	0.7062992
229	0xbe8f031d	-0.27932063
230	0xbfab5e99	-1.3388244
231	0xbe750d76	-0.23930916
232	0x3fb8e4ef	1.4444865
233	0x3ec968fc	0.3933791
234	0x3ef7c7e4	0.48394692
235	0x3e62e008	0.22155774
236	0xbe81e0df	-0.25366876
237	0x3e93af91	0.28844884
238	0x3fe8b6fe	1.8180845
239	0xbe4315f7	-0.19051348
240	0x3f643452	0.89142334
241	0x3d5a0112	0.053223677
242	0xbe11288e	-0.14175627
243	0xbe2e8128	-0.17041457
244	0x3de49025	0.11160306
245	0xbfb944ab	-1.4474081
246	0x3f0fd7e1	0.5618878
247	0xbe8032fb	-0.25038895
248	0xbeb6c316	-0.35695714
249	0xbe73e6f4	-0.2381857
250	0xbf4c7caa	-0.7987772
251	0xbed91bc1	-0.42403987
252	0x3f79302d	0.97339135
253	0xbe3562c7	-0.17713462
254	0xbf2481e1	-0.6426068
255	0xbea2341c	-0.3168038

fc1.bias f4 [256]
0	0xbf040c13	-0.51580924
1	0x3ef3ca61	0.4761534
2	0xbfbee6b1	-1.4914151
3	0xbe1b2e36	-0.15154347
4	0x3eff382d	0.49847546
5	0xbfbb147a	-1.4615624
6	0xbf8786ad	-1.0587975
7	0xbf81827d	-1.0117947
8	0x3c1d93cf	0.00961776
9	0xbfa95caf	-1.323141
10	0xbf69f9f6	-0.91397035
11	0xbed6ef32	-0.41979367
12	0x3e1a37e0	0.15060377
13	0x3ea0a5ec	0.31376588
14	0xbeb9d194	-0.36292708
15	0xbf77c73f	-0.967884
16	0x3f8217bf	1.0163497
17	0xbeefa300	-0.46804047
18	0x3f005735	0.5013307
19	0xbf8bad38	-1.0912237
20	0xbf150acb	-0.58219594
21	0xbfa1ddaf	-1.2645777
22	0xbef22fe2	-0.47302157
23	0xbf530fdc	-0.82446074
24	0xbf4e3e27	-0.80563587
25	0xbf5a538e	-0.85283744
26	0xbf9e5748	-1.2370386
27	0xbfca558b	-1.5807356
28	0xbe8ee1c3	-0.27906618
29	0xbfcc8d99	-1.5980712
30	0xbed2c536	-0.41166085
31	0xbf056222	-0.52102864
32	0xbe70b2a9	-0.23505653
33	0xbe902ebc	-0.28160655
34	0xbec7b6eb	-0.39006743
35	0xbe58cc17	-0.21171604
36	0xbf293d10	-0.661088
37	0xbf0b69d4	-0.54458356
38	0xbfd34e4d	-1.650827
39	0xbf0adc87	-0.5424275
40	0xbf036386	-0.51323736
41	0xbfa01516	-1.2506435
42	0xbd2bed59	-0.0419744
43	0xbf54abbf	-0.83074564
44	0xbfb051b7	-1.3774937
45	0xbe57d41d	-0.21077009
46	0xbf6bd7af	-0.9212598
47	0xbf93860e	-1.1525285
48	0xbf91c6eb	-1.138883
49	0xbf059a26	-0.52188337
50	0x3f54a087	0.83057445
51	0x3d6ac2d2	0.0573147
52	0xbfb54045	-1.4160239
53	0xbd591b63	-0.053004634
54	0xbefb4eb5	-0.49083486
55	0xbe348c21	-0.1763158
56	0x3ee5ef9b	0.44909367
57	0xbf046b88	-0.5172658
58	0x3ee9bf0a	0.45653564
59	0xbffd0d69	-1.9769717
60	0xbf5471cd	-0.82986146
61	0x3d07a4dc	0.033116207
62	0xbf5c6248	-0.86087465
63	0xbf2f0a01	-0.6837464
64	0xbf868de2	-1.0512049
65	0x3f47558d	0.77864915
66	0xbfa57e09	-1.2929088
67	0xbee675e0	-0.45011806
68	0xbea46b10	-0.32112932
69	0x3f284058	0.6572318
70	0x3fc15fb7	1.5107335
71	0xbe8737b0	-0.26409674
72	0xbe802de3	-0.2503501
73	0xbf226220	-0.63430977
74	0xbf520a91	-0.82047373
75	0x3fe7d56b	1.8112005
76	0x3d74da88	0.05977872
77	0x3c935fc1	0.017989995
78	0xbfbfce4c	-1.4984832
79	0xbf33aedc	-0.7018869
80	0xbf04c761	-0.5186673
81	0xbed9fb60	-0.42574596
82	0x3e657c62	0.2241073
83	0xbf87d5df	-1.0612143
84	0xbfac4eba	-1.3461525
85	0xbf01e9df	-0.50747484
86	0xbefc1c61	-0.492404
87	0xbf475656	-0.77866113
88	0x3e7a4dd6	0.24443755
89	0xbe303632	-0.17208174
90	0xbd57d90d	-0.05269723
91	0x3f7e0506	0.99226415
92	0xbd2f07cf	-0.042732056
93	0xbd90c48a	-0.07068737
94	0xbf2c6fd6	-0.6735815
95	0xbeebe277	-0.46071216
96	0xbf6b9ddd	-0.92037755
97	0x3dba4ffb	0.09097286
98	0xc00b82f3	-2.1798675
99	0xbf313b11	-0.69230753
100	0x3d3a353b	0.04546092
101	0x3edb218d	0.42799035
102	0x3ebe1300	0.3712387
103	0xbf0d4512	-0.5518352
104	0xbeddad24	-0.43296158
105	0xbf5c2ed6	-0.86008966
106	0xbf476450	-0.7788744
107	0xbdcf266a	-0.10114749
108	0xbeeb44b3	-0.4595085
109	0xbefc6bd3	-0.49301013
110	0xbf91823e	-1.1367872
111	0x3d4217d2	0.047385998
112	0xbecab1f3	-0.3958889
113	0x3ea32fa2	0.31872278
114	0xbe9756af	-0.29558322
115	0xbf0ce000	-0.55029297
116	0xbed06ee7	-0.40709612
117	0xbf4cb407	-0.799622
118	0xbeafbfc6	-0.34326
119	0xbef43836	-0.47699136
120	0xbdf0fd8a	-0.11767109
121	0x3daa364c	0.083111376
122	0xbe54a9fc	-0.20767969
123	0xbf47e7b1	-0.7808791
124	0xbf6fecc3	-0.93720645
125	0xbf57e031	-0.84326464
126	0x3f39deac	0.72605395
127	0xc0086c72	-2.131619
128	0xbdcef8a1	-0.10106016
129	0xbf2a255f	-0.66463274
130	0x3ce9cf43	0.028541213
131	0xbed7b973	-0.42133674
132	0xbf0b5661	-0.5442868
133	0xbe49f5c7	-0.19722663
134	0x3d32bd9c	0.043637857
135	0xbfefaafb	-1.8724054
136	0xbf4585bf	-0.77157205
137	0xbfbd3481	-1.4781648
138	0xbf86bf84	-1.0527196
139	0x3ed73730	0.42034292
140	0xbf490a0f	-0.78530973
141	0xbfa8d0cf	-1.3188723
142	0xbf894dfe	-1.0726926
143	0xbf51f156	-0.82008874
144	0xbfadbe9e	-1.3573797
145	0xc00e2061	-2.2207263
146	0x3df7b8cd	0.12095795
147	0xbf22d307	-0.6360325
148	0xbee4f124	-0.44715226
149	0xbf8d9826	-1.1062057
150	0xbeb48d63	-0.3526412
151	0xbfb0bdf9	-1.3807975
152	0xbf8d09ae	-1.1018579
153	0x3e88b9a7	0.26704141
154	0x3f1f94a3	0.62336177
155	0x3eeb3ac1	0.45943263
156	0x3e13cf00	0.14434433
157	0x3fdfbb0e	1.747896
158	0xbeae83fa	-0.34085065
159	0x3c191412	0.009343164
160	0xbb970fbd	-0.0046100304
161	0xbedb4ac7	-0.42830488
162	0xbe0ca962	-0.1373649
163	0xbedd8428	-0.4326489
164	0x3e879bf8	0.26486182
165	0xbfc754eb	-1.557279
166	0xbf9197d2	-1.1374457
167	0xbe3d563e	-0.1848993
168	0xbfa8a25c	-1.3174548
169	0xbef961c3	-0.487074
170	0xbf0d7165	-0.5525115
171	0xbfbede96	-1.4911678
172	0xbdf2f487	-0.11863046
173	0xbe8626a1	-0.26201347
174	0xbf2fc77d	-0.6866377
175	0x3f0f09b9	0.5587421
176	0xbf946681	-1.1593782
177	0xbf887c37	-1.0662907
178	0xbe957998	-0.2919433
179	0x3ef3edbd	0.47642317
180	0x3eadd360	0.3395033
181	0xbea3c5d0	-0.31986856
182	0xbf6d4271	-0.92679507
183	0x3f1c5dad	0.6108044
184	0xbec2beb3	-0.38036117
185	0xbfc73e48	-1.5565882
186	0xbeaa813d	-0.33301726
187	0x3f231609	0.637055
188	0xbf851e87	-1.0399941
189	0xbf9122a8	-1.1338701
190	0xbfb83d67	-1.4393739
191	0xbf41a6f4	-0.75645375
192	0xbf1e5f24	-0.61863923
193	0x3dfa9bb2	0.12236728
194	0xbe92db33	-0.2868286
195	0xbf1990ae	-0.5998639
196	0xbf5d47d7	-0.86437744
197	0xbdb544c5	-0.08851007
198	0xbcd341e6	-0.025788259
199	0xbf9b6827	-1.214116
200	0xbf72a21d	-0.94778615
201	0xbefd0128	-0.49414945
202	0xbfa977d3	-1.3239692
203	0x3ea82fca	0.3284896
204	0xbe8febdf	-0.28109643
205	0xbeb40dac	-0.3516668
206	0xc000f514	-2.0149584
207	0xbf462176	-0.7739481
208	0xbf42515e	-0.75905406
209	0xbfe3c9fd	-1.7796017
210	0xbf573e1d	-0.8407915
211	0xbf2cf5d1	-0.67562586
212	0xbfbdb9b3	-1.4822296
213	0xbeaaca80	-0.3335762
214	0xbf54896d	-0.83022195
215	0xbf1cac29	-0.61200196
216	0xc0108a9a	-2.2584596
217	0xbf11130a	-0.56669676
218	0xbfc9f6ca	-1.5778439
219	0xbf9432e8	-1.1578035
220	0x3f0ae4e0	0.54255486
221	0xbed7346e	-0.42032188
222	0xbe9faa03	-0.31184396
223	0xbf07ba05	-0.5301822
224	0xbfe93138	-1.8218145
225	0x3ead7315	0.33876863
226	0xbf039b4c	-0.5140884
227	0xbea2a785	-0.31768432
228	0xbf3812b4	-0.7190354
229	0x3f61edd0	0.882535
230	0xbfba30b3	-1.4546112
231	0xbfe25e7c	-1.7685084
232	0xbcb42aef	-0.021993129
233	0xbf17d1a4	-0.5930426
234	0xbebac32e	-0.36477035
235	0xbe6197c2	-0.22030547
236	0xbf20fcfe	-0.62886035
237	0xbf69b7cc	-0.91296077
238	0xbf6da25d	-0.9282587
239	0x3eb842a5	0.35988346
240	0xbf3ea595	-0.7447141
241	0xbed6de8c	-0.41966665
242	0x3dabb0d6	0.08383338
243	0xbf7b8c1d	-0.9826067
244	0xbf7bbc52	-0.9833423
245	0x3f612046	0.8793987
246	0xbd05499e	-0.03254091
247	0xbe0bf91c	-0.13669246
248	0xbec3e933	-0.38263854
249	0xbea4e3a2	-0.3220492
250	0xbead6e5e	-0.33873266
251	0xbec1a3b0	-0.37820196
252	0xbf7ca5af	-0.98690313
253	0xbf68a987	-0.9088368
254	0x3f7815ff	0.96908563
255	0x3f575b16	0.8412336

fc2.weight f4 [2, 256]
0	0x3f7fb733	0.99888915
1	0xbcb446dd	-0.022006446
2	0xbfc9ad93	-1.5756096
3	0x3f072359	0.5278831
4	0xbf3460f9	-0.7046047
5	0x3e412ca5	0.18864687
6	0x3dfbdadc	0.122976035
7	0xbe522c39	-0.20524682
8	0xbfd13afa	-1.6346123
9	0x3f2e43ee	0.680724
10	0xbf45d8e5	-0.7728408
11	0x3f4c6c04	0.7985232
12	0xbff06b11	-1.8782674
13	0xbd8ee998	-0.06978148
14	0xbf1b9964	-0.6078093
15	0xbf5f7864	-0.87293077
16	0xbde161e9	-0.11005003
17	0x3f065dae	0.52486694
18	0xbf7dc507	-0.99128765
19	0x3f108589	0.5645376
20	0xbfcbd95e	-1.592571
21	0x3f41bbbc	0.75677085
22	0xbeb68baf	-0.35653445
23	0x3f98218e	1.188524
24	0x3f97bc82	1.1854403
25	0x3c0e5b45	0.008688753
26	0xbfd18916	-1.636996
27	0xbef0db42	-0.4704228
28	0xbf4ad3aa	-0.79229224
29	0x3fc82cb1	1.5638639
30	0x3e973842	0.2953511
31	0xbe963fbe	-0.29345506
32	0x3e3c2169	0.1837212
33	0x3f5525bd	0.8326071
34	0xbf8035e2	-1.0016444
35	0xbf3de1b6	-0.7417253
36	0xbf455640	-0.7708473
37	0xbe08c9d0	-0.13358235
38	0x3f29b069	0.66284806
39	0xbf10b2e4	-0.56522965
40	0xbfb621cc	-1.4229064
41	0x3e70a9c2	0.23502257
42	0xbfae0581	-1.359543
43	0xbecfd7fe	-0.40594476
44	0xbfacc876	-1.3498676
45	0xbd8379d9	-0.06419725
46	0x3f84a740	1.0363541
47	0xbf90c19e	-1.1309087
48	0xbed040e9	-0.40674523
49	0xbf1ea585	-0.6197131
50	0xc036c13a	-2.8555436
51	0xbe8dddde	-0.27708334
52	0xbf228c80	-0.63495636
53	0x3feec96e	1.8655221
54	0xbea5c8af	-0.32379672
55	0x3e2d9448	0.16951096
56	0xbee1cccb	-0.44101557
57	0xbf8b4288	-1.0879679
58	0xbe1c7dab	-0.15282314
59	0xbff14849	-1.8850185
60	0xbf11a311	-0.56889445
61	0xbf7016f4	-0.93785024
62	0xbf9a373f	-1.204811
63	0xbc620a8e	-0.013796462
64	0x3db70ef6	0.089384004
65	0xbe8d6536	-0.2761628
66	0xbf07666b	-0.5289065
67	0x3ee945b1	0.45560983
68	0xbff19bb8	-1.8875647
69	0xbea49da8	-0.32151532
70	0xc065df23	-3.5917442
71	0xbee40f85	-0.4454309
72	0x3e9f324d	0.31093064
73	0x3e9727f3	0.29522666
74	0xbef1ce56	-0.47227734
75	0xbd94e2e4	-0.072698385
76	0xbf66640e	-0.8999642
77	0x3cce8461	0.025209608
78	0x3eb0414e	0.34424824
79	0x3b3ea158	0.0029087868
80	0x3f1880f8	0.5957179
81	0xbee80924	-0.45319474
82	0xbd9c94ad	-0.07645545
83	0xbe45f386	-0.19331178
84	0xbf38cbd7	-0.72186035
85	0xbeedc43f	-0.46438786
86	0xbea4f255	-0.32216135
87	0x3ef1d79a	0.47234803
88	0x3f6bc565	0.92098075
89	0xc026d42b	-2.6066997
90	0x3ddbf357	0.10739773
91	0xbe174765	-0.14773329
92	0x3f92185a	1.1413682
93	0xbee542df	-0.4477758
94	0x3e7c5b3e	0.24644181
95	0xbf1cca81	-0.61246496
96	0xbf1e8cd3	-0.6193363
97	0xbf4ea4cb	-0.80720204
98	0xbfbad6bb	-1.459678
99	0x3f246657	0.6421866
100	0xbeda7b5e	-0.42672247
101	0xbfc8ec7d	-1.569717
102	0xbde660fd	-0.11248968
103	0x3e9cb2c8	0.3060515
104	0x3de4e8fb	0.1117725
105	0xbf42f2d4	-0.76151776
106	0x3ed042de	0.40676016
107	0x3f7bd0fd	0.98365766
108	0xbf0d2c22	-0.55145466
109	0xbfc4358c	-1.5328841
110	0xbf119a9e	-0.5687655
111	0xbfd906df	-1.6955222
112	0x3f3263f4	0.69683766
113	0x3f09af07	0.53782696
114	0x3ed6d6e3	0.4196082
115	0xbebe18a9	-0.3712819
116	0x3ef1dc85	0.47238556
117	0xbf8f5ebf	-1.1200789
118	0xbf873912	-1.0564291
119	0x3e94df2b	0.29076514
120	0x3f621c84	0.8832476
121	0x3f3728f8	0.7154689
122	0xbf785f5b	-0.970205
123	0xbfb1937a	-1.3873131
124	0x3f333b6c	0.70012546
125	0x3e7a1454	0.24421817
126	0x3d4e8d98	0.050428003
127	0x3fa79e65	1.3095213
128	0xbf0c7819	-0.54870754
129	0xbe7a8e4f	-0.24468349
130	0x3f10d401	0.5657349
131	0xbf54d719	-0.8314071
132	0xbfcf3dc3	-1.6190723
133	0x3e0d694d	0.138097
134	0xbf5088b8	-0.81458616
135	0x3e4a6671	0.19765641
136	0x3f93e190	1.1553211
137	0x4000f308	2.0148335
138	0xbdcb0a46	-0.09914069
139	0xbf5de26d	-0.86673623
140	0xbf0224d7	-0.50837463
141	0x3fd4ed14	1.663485
142	0x3de2daf1	0.11076916
143	0xbe4cb206	-0.19989786
144	0xbc97bb14	-0.018521823
145	0x3ea92243	0.33033952
146	0xbe939e72	-0.28831822
147	0xbf1586be	-0.58408725
148	0xbe9585cc	-0.2920364
149	0xbf3eeeb5	-0.7458299
150	0xbf2cd0b4	-0.67505956
151	0x3e51d0de	0.20489833
152	0xbf1d382b	-0.6141383
153	0xbf4bc337	-0.7959475
154	0xbf6e75b8	-0.93148375
155	0x3e429c06	0.1900483
156	0xbfa1122d	-1.2583672
157	0xbfe58f4b	-1.7934355
158	0xbf0ae171	-0.54250246
159	0xbf556d71	-0.8337012
160	0x3fedb3ce	1.8570497
161	0xbe7e5b67	-0.24839555
162	0xbe8c01a5	-0.27345005
163	0xbe83c8e8	-0.25739217
164	0xbe70c62c	-0.23513097
165	0x3ef6fed7	0.48241302
166	0xbf084d71	-0.53243166
167	0x3f239833	0.6390411
168	0x3f3e85f1	0.7442313
169	0xbf743af1	-0.9540244
170	0x3e2a0bc9	0.16606058
171	0x3fb18326	1.3868148
172	0x3f1305c0	0.5743065
173	0xbfa8818a	-1.3164532
174	0x3fa3260e	1.2745988
175	0x3e5dd46a	0.21663061
176	0x3f80b29d	1.0054508
177	0x3f0dc84d	0.5538376
178	0xbfa041c4	-1.252007
179	0xc00cdffe	-2.2011714
180	0x3e0007cb	0.12502973
181	0x3f0f38dc	0.55946136
182	0xbf2b4c38	-0.66913176
183	0xbe880418	-0.26565623
184	0xbe9f67c6	-0.3113386
185	0xbf390984	-0.72280145
186	0xbf40695c	-0.75160766
187	0x3e64d992	0.22348621
188	0x3f1e9491	0.61945444
189	0xbf0a93de	-0.5413188
190	0x3ef453e7	0.47720262
191	0x3f78d8e2	0.97205937
192	0x3f827685	1.0192419
193	0xbf8ac393	-1.0840935
194	0xbeca5ad3	-0.39522418
195	0xbf064bc1	-0.5245934
196	0xbf8f142a	-1.1178029
197	0x3f5c662e	0.86093414
198	0x3fa654ef	1.299467
199	0x3f7f2b6e	0.99675643
200	0x3f71bd4e	0.9442948
201	0xbf88ae33	-1.0678161
202	0xbf367f23	-0.71287745
203	0x3f51d83d	0.8197058
204	0xbfaf36d8	-1.3688612
205	0x3e67a11b	0.2262005
206	0xbf505540	-0.8138008
207	0x3fb25f32	1.3935301
208	0xbf6016d9	-0.8753486
209	0xbeb06561	-0.34452346
210	0xbe9053ca	-0.28188926
211	0x3f7dc7bd	0.991329
212	0x3f5816a7	0.84409565
213	0xbefa6c01	-0.48910525
214	0xbf6e6a3a	-0.9313084
215	0xbf1748e1	-0.5909558
216	0xbf0b23b4	-0.54351354
217	0xbea1d6e4	-0.3160926
218	0x3e1b3bbc	0.15159506
219	0x3e8ef89f	0.27924058
220	0x3e4e1442	0.20124915
221	0xbf652049	-0.8950239
222	0xbfcd58d4	-1.6042733
223	0xbf0de47b	-0.5542676
224	0x3f0cb7d5	0.54968005
225	0xbecbf2ef	-0.3983378
226	0xbfb34d50	-1.4007969
227	0x3edb25ab	0.42802176
228	0xbdf40e74	-0.11916819
229	0xbfbb044a	-1.4610684
230	0xbf79b1e3	-0.9753706
231	0xbf551bfa	-0.83245814
232	0xbf9a5c41	-1.2059404
233	0x3ec83ad2	0.39107376
234	0xbce97900	-0.02850008
235	0x3eb7ea4b	0.3592094
236	0xbeca5511	-0.39518026
237	0x3f8163b7	1.0108556
238	0x3f1042b4	0.5635178
239	0xbded3f33	-0.1158432
240	0x3f74d623	0.95639247
241	0x3e0e2815	0.13882478
242	0x3f5fceb5	0.87424785
243	0xbb8f60c6	-0.00437555
244	0xbc22068c	-0.009889256
245	0xbe68d99b	-0.2273926
246	0xbeecbde2	-0.4623862
247	0xc00d9e3f	-2.2127836
248	0x3e1f4b74	0.15556127
249	0x3f1d0ea6	0.61350477
250	0xbf16c70c	-0.5889747
251	0x3e197d11	0.14989115
252	0xbef99141	-0.48743632
253	0xbeb8cdd8	-0.36094546
254	0xbefc5e82	-0.49290854
255	0x3ea2e3aa	0.3181432

fc2.bias f4 [2]
0	0xbf012547	-0.50447506
1	0xbdaf3c0a	-0.085563734
