MultiAgent/actor.pth (torch_old, 40784 bytes, 8 tensors)

norm0.weight f4 [33]
1.1089256 1.6141773 0.7249228 0.7753855 0.62686855 1.0904615 0.8443912 1.2123408
0.7096991 0.7984665 0.53206396 0.8717376 -0.17953406 0.96984357 1.3111991 1.092909
1.2800126 1.4659364 0.80694467 1.1068691 1.0339302 1.0507916 0.58361775 1.2754738
1.1195892 1.0248017 1.7833693 0.03616482 1.3082603 0.37341738 0.30510002 0.9320004
1.4950043
00000000: 46f1 8d3f 5d9d ce3f 8a94 393f aa7f 463f
00000010: 757a 203f 3e94 8b3f 062a 583f fc2d 9b3f
00000020: d7ae 353f 4d68 4c3f 5835 083f 322a 5f3f
00000030: c7d7 37be ab47 783f 5fd5 a73f 71e4 8b3f
00000040: 74d7 a33f cea3 bb3f ed93 4e3f e3ad 8d3f
00000050: d357 843f 5780 863f f967 153f ba42 a33f
00000060: b34e 8f3f b42c 833f 7245 e43f 9021 143d
00000070: 1375 a73f 9030 bf3e 1236 9c3e 9497 6e3f
00000080: 4d5c bf3f

norm0.bias f4 [33]
0.1469398 -0.19682768 0.01861936 -0.15972072 0.15081182 -0.2366246 0.19637048 0.0023448563
-0.118483625 0.024586737 -0.185 -0.20445485 -0.37613192 0.084579855 0.19707982 0.0065873363
0.15091127 0.11487267 0.1753952 -0.007913276 0.018008592 0.07670578 -0.18217504 -0.021860147
0.04133121 -0.075383455 -0.09652703 0.39765775 -0.017957393 -0.36834803 0.4004932 0.36128035
-0.15513124
00000000: 6377 163e 328d 49be a187 983c d48d 23be
00000010: 6a6e 1a3e b84d 72be 5815 493e 29ac 193b
00000020: 8ba7 f2bd 206a c93c a470 3dbe 9d5c 51be
00000030: 5d94 c0be 3438 ad3d 4bcf 493e 95da d73b
00000040: 7c88 1a3e 5d42 eb3d cd9a 333e afa6 01bc
00000050: c186 933c ec17 9d3d 188c 3abe 0d14 b3bc
00000060: ea4a 293d a462 9abd f7af c5bd cc99 cb3e
00000070: 621b 93bc 1d98 bcbe 720d cd3e bdf9 b83e
00000080: b9da 1ebe

norm0.running_mean f4 [33]
-0.09828931 -2.776641 0.20903859 0.70827985 0.017384848 -0.04447449 0.017072175 0.03814181
-0.0063273525 -0.01675507 -0.031544343 -0.0018349137 0.035268735 -0.34598494 -3.584794 -0.07959517
0.0036965003 0.12700458 -0.023130544 -0.05165903 0.3455761 -0.020268487 0.026759118 -0.021246998
0.07137567 -0.003699776 -0.12600084 -0.99999976 -0.1616454 0.0 0.99999976 0.0
-0.02849333
00000000: e84b c9bd 7cb4 31c0 360e 563e d451 353f
00000010: ab6a 8e3c e22a 36bd f2da 8b3c 963a 1c3d
00000020: ae55 cfbb ee41 89bc a434 01bd 7d81 f0ba
00000030: f375 103d f024 b1be 446d 65c0 cb02 a3bd
00000040: fc40 723b 7d0d 023e 447c bdbc 6b98 53bd
00000050: 5aef b03e 190a a6bc f035 db3c 2f0e aebc
00000060: 682d 923d f177 72bb 5d06 01be fcff 7fbf
00000070: 5f86 25be 0000 0000 fcff 7f3f 0000 0000
00000080: d86a e9bc

norm0.running_var f4 [33]
3.3350968 1.4891953 3.4678316 0.28319776 0.061165158 0.061119013 0.09047874 0.5946951
0.075630985 0.2068112 3.6704805 2.6253757 4.1405916 15.749891 4.512229 16.65936
0.15858482 0.19307548 0.127952 0.5010689 3.5937114 0.90032434 1.1213639 9.749598
12.734061 13.573692 32.2973 6e-45 31.617653 6e-45 6e-45 6e-45
0.29136753
00000000: 3a72 5540 f49d be3f f4f0 5d40 4cff 903e
00000010: 5188 7a3d ee57 7a3d eb4c b93d f03d 183f
00000020: 6be4 9a3d 51c6 533e 27e9 6a40 2806 2840
00000030: ba7f 8440 8eff 7b41 2e64 9040 5f46 8541
00000040: 0f64 223e 94b5 453e d905 033e 0d46 003f
00000050: 5eff 6540 a87b 663f da88 8f3f 5afe 1b41
00000060: b7be 4b41 d82d 5941 6f30 0142 0400 0000
00000070: f4f0 fc41 0400 0000 0400 0000 0400 0000
00000080: 202e 953e

fc1.weight f4 [256, 33]
0.277002 -0.05029194 0.0063288123 0.25228268 -0.041800346 0.0074757296 0.12329725 -0.25917846
0.07058303 0.050784703 -0.042997558 -0.17948528 -0.15976457 -0.0777295 0.14663926 0.1608832
0.013808625 0.01520764 -0.09133702 0.04653341 -0.30084148 -0.15948762 -0.038938615 0.15685321
-0.042752523 0.040908266 -0.28430867 0.15380345 0.19674458 -0.11801755 0.16684666 0.11040984
-0.21972331 0.12718813 0.061722267 -0.23555559 0.09848026 -0.039643 -0.084431574 -0.15355405
0.063909955 0.1912884 0.07179374 0.18509194 0.10719033 0.2048742 -0.052918635 -0.08442382
-0.5412815 -0.06984825 0.018521229 -0.25850457 0.13182932 -0.06053906 0.072488934 -0.042736813
0.0776582 0.2411934 -0.2804985 0.13729751 -0.095537856 0.2114345 0.026931405 -0.0042797956
-0.09872615 -0.20160091 0.40241432 -0.17242308 0.16584466 -0.11357461 0.23446271 -0.016493637
0.11979288 0.014032856 0.18060282 0.02758642 0.039382763 0.018246135 -0.04117078 -0.024787575
0.29541346 0.05285815 -0.041992582 -0.21691783 -0.09642528 -0.1431209 0.017791111 -0.05120322
-0.16611287 -0.07821576 0.09372047 0.0043206746 0.16738057 -0.053552464 0.40382212 -0.010252074
-0.051047616 -5.5331024e-05 -0.12985219 -0.11733749 -0.13948739 0.26180986 -0.014262995 0.17786299
0.12910579 0.15757658 -0.06245349 -0.12135779 0.100079015 0.10422972 -0.035902593 -0.09608148
0.13489847 -0.280421 -0.01971435 -0.013204271 0.13970867 -0.44690025 0.31459484 0.10004307
-0.06365327 0.03439244 0.06327845 -0.025299115 0.1614631 -0.23941071 0.047923997 0.011241264
-0.08659281 0.036792632 0.020663152 -0.17384756 -0.24044724 0.34494457 -0.46117097 -0.08447265
0.07266611 0.033398997 -0.29025298 -0.05028159 0.08098381 -0.11858549 0.042333573 0.08225646
0.20639114 0.13044022 -0.53262913 0.15929915 0.18914367 -0.18208303 0.17005251 0.017721768
0.076185055 0.03420829 0.076300554 0.05210396 -0.17088784 0.3374539 0.2915111 -0.26251137
0.6706514 0.2087613 -0.26425046 -0.28600535 0.29040614 0.13826023 0.34067905 0.0958819
0.34973374 -0.1443776 0.015292274 -0.019276684 -0.19041398 0.010324077 -0.08292192 -0.13657723
0.013788352 0.081842095 -0.28908217 0.16393077 0.16177912 -0.20041087 -0.30105662 0.10159198
0.11003166 0.03916673 -0.16495481 -0.17352135 0.11466785 0.37266847 0.011613592 -0.095888615
-0.04989206 0.37203184 0.14259219 -0.05968934 -0.0988697 0.023064464 0.096907094 -0.1950431
0.25731033 0.07220788 0.07194296 0.1152416 -0.070084825 -0.0007197716 0.00037559186 0.08246228
0.067306586 -0.14094332 -0.05794076 -0.051523454 -0.23030546 -0.40984303 -0.19035062 -0.056232598
-0.008135583 0.21874146 -0.003566717 -0.015557388 0.048753444 -0.016567862 -0.0778983 -0.05467969
0.0958211 0.083444074 0.115831286 -0.06949562 0.07319613 0.044691034 -0.19193113 0.016264698
0.14713725 -0.042594783 0.4572305 0.10579935 -0.09051723 -0.028516645 -0.16953063 0.11381525
-0.14748739 -0.18071917 0.22222921 -0.16767019 -0.10113365 -0.37050292 -0.17154077 -0.018468898
-0.19861974 -0.13881078 0.04026212 -0.20078717 0.10021315 0.2128895 -0.05831323 -0.6494178
00000000: 35d3 8d3e ecfe 4dbd ed61 cf3b 322b 813e
00000010: d736 2bbd f7f6 f43b 4583 fc3d 0ab3 84be
00000020: d68d 903d 9f03 503d 351e 30bd fdca 37be
00000030: 5399 23be a530 9fbd 9a28 163e 91be 243e
00000040: 923d 623c 7729 793c e70e bbbd d199 3e3d
00000050: e507 9abe b950 23be 197e 1fbd 219e 203e
00000060: 451d 2fbd 6d8f 273d e890 91be a77e 1d3e
00000070: 6977 493e 2fb3 f1bd dad9 2a3e 8e1e e23d
00000080: 26ff 60be 9b3d 023e 7dd0 7c3d 7c35 71be
00000090: 05b0 c93d b360 22bd 76ea acbd 463d 1dbe
000000a0: 39e3 823d 1be1 433e 9908 933d be88 3d3e
000000b0: 9b86 db3d 8bca 513e 36c1 58bd 65e6 acbd
000000c0: 6d91 0abf 990c 8fbd d5b9 973c b65a 84be
000000d0: 44fe 063e cef7 77bd 1475 943d cc0c 2fbd
000000e0: 430b 9f3d 67fb 763e 809d 8fbe b897 0c3e
000000f0: 5aa9 c3bd 4982 583e 409f dc3c 873d 8cbb
00000100: f030 cabd 7870 4ebe 4009 ce3e ad8f 30be
00000110: 2fd3 293e ce99 e8bd fe16 703e aa1d 87bc
00000120: f855 f53d 10ea 653c f2ef 383e eafc e13c
00000130: d24f 213d eb78 953c b1a2 28bd 500f cbbc
00000140: 6f40 973e ca81 583d 6a00 2cbd b51f 5ebe
00000150: 9e7a c5bd 498e 12be aabe 913c 78ba 51bd
00000160: 7e19 2abe 962f a0bd 85f0 bf3d 7294 8d3b
00000170: d065 2b3e d459 5bbd c6c1 ce3e 51f8 27bc
00000180: 4e17 51bd 3c13 68b8 f9f7 04be a34e f0bd
00000190: c8d5 0ebe f10b 863e 56af 69bc b721 363e
000001a0: 4f34 043e c15b 213e 3bcf 7fbd 6f8a f8bd
000001b0: 3af6 cc3d 6476 d53d 990e 13bd 5ec6 c4bd
000001c0: d322 0a3e 5793 8fbe fd7f a1bc ba56 58bc
000001d0: ca0f 0f3e 1cd0 e4be 9312 a13e 62e3 cc3d
000001e0: a55c 82bd 16df 0c3d 2298 813d 1740 cfbc
000001f0: 9556 253e 1528 75be f44b 443d 472d 383c
00000200: 9257 b1bd dfb3 163d c545 a93c 1805 32be
00000210: cd37 76be 939c b03e 9a1e ecbe ffff acbd
00000220: f8d1 943d 63cd 083d 0a9c 94be 12f4 4dbd
00000230: d7da a53d f3dc f2bd f865 2d3d 1376 a83d
00000240: 3358 533e 1f92 053e 625a 08bf 511f 233e
00000250: e1ae 413e f973 3abe 3f22 2e3e 3e2d 913c
00000260: e906 9c3d fe1d 0c3d 7743 9c3d f66a 553d
00000270: 39fd 2ebe c2c6 ac3e f140 953e e467 86be
00000280: cfaf 2b3f 86c5 553e d64b 87be 4b6f 92be
00000290: 1db0 943e 1794 0d3e 7c6d ae3e bb5d c43d
000002a0: 4d10 b33e b9d7 13be 728c 7a3c 23ea 9dbc
000002b0: e2fb 42be 5126 293c f8d2 a9bd e7da 0bbe
000002c0: 8ae8 613c d49c a73d 9402 94be 78dd 273e
000002d0: 6da9 253e 8238 4dbe 1824 9abe 750f d03d
000002e0: 4758 e13d 4b6d 203d eae9 28be 95af 31be
000002f0: fad6 ea3d 67ce be3e ef46 3e3c 4061 c4bd
00000300: 9e5b 4cbd f57a be3e b003 123e cf7c 74bd
00000310: 337c cabd b0f1 bc3c 3a77 c63d 61b9 47be
00000320: 2ebe 833e bae1 933d d556 933d ca03 ec3d
00000330: a288 8fbd 0eaf 3cba 16eb c439 fce1 a83d
00000340: 09d8 893d 7253 10be 4a53 6dbd 420a 53bd
00000350: 32d5 6bbe f2d6 d1be 46eb 42be 2754 66bd
00000360: 1c4b 05bc c3fd 5f3e 95bf 69bb 6ae4 7ebc
00000370: b1b1 473d 53b9 87bc 2589 9fbd d0f7 5fbd
00000380: da3d c43d bae4 aa3d f438 ed3d b853 8ebd
00000390: dae7 953d f20d 373d 9889 44be 8b3d 853c
000003a0: 26ab 163e de77 2ebd 1e1a ea3e 54ad d83d
000003b0: 1961 b9bd bd9b e9bc 7099 2dbe f817 e93d
000003c0: ef06 17be 720e 39be 0e90 633e bcb1 2bbe
000003d0: 291f cfbd 8fb2 bdbe 62a8 2fbe 164c 97bc
000003e0: f962 4bbe 6a24 0ebe e5e9 243d 279b 4dbe
000003f0: 8d3c cd3d b5ff 593e dad9 6ebd 3f40 26bf

fc1.bias f4 [256]
0.07714838 0.008558924 0.020630952 0.2149275 -0.10156848 -0.14864057 0.1627431 -0.06071317
-0.035519548 0.05807038 0.044773933 0.09971832 -0.20331633 0.17449845 -0.09648165 0.15174058
-0.27318195 0.10602375 0.21039867 0.12422279 0.08467889 0.0036437942 0.021717887 0.19760093
0.1581149 -0.05620393 0.013582488 -0.18249205 0.21577843 -0.040038783 -0.23214503 -0.089473635
0.0055454015 0.19838041 0.023744853 0.068764485 0.035995405 0.23227896 0.053986687 -0.035620548
-0.15068889 0.10923837 0.030413985 0.040341627 -0.008333207 0.2861307 0.10312003 0.22503966
0.16808005 0.040967338 0.1728987 0.12683322 0.09246086 0.18919495 0.08386527 0.08065096
0.17427415 -0.14291802 0.07686465 0.18051755 0.007779094 0.08935774 0.23364909 -0.045501422
0.115771614 0.22050783 -0.057352643 0.1076227 0.108623125 0.03880657 -0.038086828 0.039859768
-0.0732025 0.090277635 0.20935445 -0.03479048 -0.038003568 0.16632017 0.025017973 0.0474393
0.070826106 0.17913467 -0.2014263 0.14880873 0.019475564 0.13915704 -0.3053458 0.1538249
0.18777616 0.093069285 -0.032780766 0.09712951 -0.06537844 0.17935039 0.2584039 0.09262883
0.26746726 0.16914122 -0.29615718 0.17411743 0.24892585 0.1239714 0.1865909 0.11130445
0.234775 -0.14238016 0.10390677 0.093879044 0.11422031 0.08308117 0.057081945 -0.01633363
-0.14828524 -0.081004135 0.059658933 -0.029575603 0.11543225 0.13300258 0.07081713 0.1299783
-0.057285197 0.16250941 0.07044053 0.13838716 0.14238465 0.05062757 0.015719168 0.15716696
0.0013722181 -0.06973688 -0.097976536 -0.25570762 0.24127065 -0.024540836 -0.04620359 -0.060080975
0.19928868 0.13384265 0.22546145 0.13044183 0.26361474 0.18235672 0.038304515 0.20448588
0.016528208 0.182531 -0.008540503 0.069402814 0.14299832 -0.09509168 0.017127624 0.18513244
0.060658686 -0.12993634 0.101479985 0.043604776 0.22143687 0.025786987 0.1513457 0.10919569
0.1395971 0.11921517 0.06348649 -0.04620112 0.058609985 0.13456456 0.18258195 0.03811498
0.20039618 -0.0329173 -0.012369775 0.21524762 0.0460583 0.08189408 0.13530399 -0.19219735
-0.18765545 0.27094898 0.21197791 0.18160956 0.21115634 0.097539455 0.0977828 -0.14284651
0.12476856 0.12363099 0.07308578 0.16686401 -0.0039493763 0.0033199182 0.08524824 0.2582361
0.1615509 0.009621584 0.08131779 0.069479115 0.078959964 0.04802882 0.18316023 -0.16549288
0.03398913 0.07052637 0.06186518 0.00567231 0.16606057 0.1909325 -0.37346044 0.120156586
-0.18501216 0.15785953 0.04471435 -0.009025472 0.1145536 -0.069563344 0.17762059 0.050304003
0.12942639 0.10320522 -0.020587595 0.1599079 0.067031935 0.21409017 -0.03600486 -0.0115816295
0.066576675 0.034678258 0.04635264 -0.071207784 -0.088392414 -0.027964331 0.034034654 0.08728813
-0.09735434 0.2719392 0.22447948 0.1031966 0.1074292 -0.11937007 0.17265376 0.13785566
-0.11441223 -0.079513595 0.08503333 0.15323544 0.059645105 0.12684269 -0.15618208 0.118052475
0.07328922 -0.047564324 0.26894596 -0.17735703 0.05945633 -0.010989799 0.06381788 -0.1264761
00000000: f8ff 9d3d bb3a 0c3c 3e02 a93c f415 5c3e
00000010: 2303 d0bd 3c35 18be 21a6 263e 5fae 78bd
00000020: f27c 11bd 35db 6d3d df64 373d 1e39 cc3d
00000030: 2832 50be b9af 323e 2c98 c5bd e261 1b3e
00000040: 81de 8bbe fb22 d93d c072 573e 8568 fe3d
00000050: 206c ad3d b9cc 6e3b b6e9 b13c e657 4a3e
00000060: dfe8 213e 1836 66bd 1589 5e3c 32df 3abe
00000070: 05f5 5c3e b5ff 23bd 6db7 6dbe f43d b7bd
00000080: 33b6 b53b 3c24 4b3e 9184 c23c 65d4 8c3d
00000090: eb6f 133d 89da 6d3e 2521 5d3d dae6 11bd
000000a0: 304e 1abe 5eb8 df3d c026 f93c 433d 253d
000000b0: 0188 08bc b97f 923e 9830 d33d cc70 663e
000000c0: 2d1d 2c3e 5ecd 273d 5b0c 313e 91e0 013e
000000d0: 1f5c bd3d 52bc 413e 8ec1 ab3d 552c a53d
000000e0: ec74 323e 1a59 12be 376b 9d3d 98d9 383e
000000f0: c5e7 fe3b 3101 b73d b541 6f3e b35f 3abd
00000100: ab19 ed3d cecc 613e 9bea 6abd 4a69 dc3d
00000110: cd75 de3d a3f3 1e3d ef00 1cbd ff43 233d
00000120: 31eb 95bd 7be3 b83d 0361 563e 7680 0ebd
00000130: a1a9 1bbd d64f 2a3e 7ef2 cc3c b64f 423d
00000140: 470d 913d 146f 373e b242 4ebe 5161 183e
00000150: 388b 9f3c 2f7f 0e3e 4956 9cbe 4684 1d3e
00000160: 6548 403e 1c9b be3d 2045 06bd d6eb c63d
00000170: 22e5 85bd a1a7 373e 844d 843e 2fb4 bd3d
00000180: 78f1 883e 5b33 2d3e eaa1 97be d74b 323e
00000190: 6be6 7e3e b8e4 fd3d af11 3f3e 96f3 e33d
000001a0: dc68 703e 1bcc 11be 13cd d43d a843 c03d
000001b0: 56ec e93d 7626 aa3d c2ce 693d 1bce 85bc
000001c0: 16d8 17be 7fe5 a5bd ed5c 743d 8948 f2bc
000001d0: be67 ec3d d431 083e 9208 913d 0819 053e
000001e0: e2a3 6abd de68 263e 2043 903d 5db5 0d3e
000001f0: 48cd 113e db5e 4f3d 7cc5 803c 60f0 203e
00000200: 00dc b33a 36d2 8ebd eca7 c8bd 1cec 82be
00000210: a70f 773e dd09 c9bc fa3f 3dbd 7817 76bd
00000220: 5512 4c3e 0c0e 093e 5edf 663e 8b92 053e
00000230: 83f8 863e b8bb 3a3e 32e5 1c3d bf64 513e
00000240: 2a66 873c 68e9 3a3e 77ed 0bbc 1023 8e3d
00000250: 276e 123e 6dbf c2bd 3b4f 8c3c 5c93 3d3e
00000260: 3e75 783d 080e 05be bdd4 cf3d ec9a 323d
00000270: 59c0 623e 3b3f d33c 5efa 1a3e fda1 df3d
00000280: 8bf2 0e3e 1527 f43d 3405 823d 633d 3dbd
00000290: 0611 703d 4bcb 093e c3f6 3a3e 741e 1c3d
000002a0: a834 4d3e 4ad4 06bd 99aa 4abc df69 5c3e
000002b0: a1a7 3c3d 15b8 a73d 218d 0a3e 62cf 44be
000002c0: c028 40be d3b9 8a3e bd10 593e dbf7 393e
000002d0: 5e39 583e c4c2 c73d 5942 c83d 5b46 12be
000002e0: a986 ff3d 3f32 fd3d ffad 953d 66de 2a3e
000002f0: c569 81bb fc92 593b a196 ae3d 8637 843e
00000300: 996d 253e d9a3 1d3c f189 a63d 114b 8e3d
00000310: c3b5 a13d deb9 443d 5b8e 3b3e f776 29be
00000320: 3038 0b3d 2170 903d 5866 7d3d c9de b93b
00000330: c80b 2a3e cf83 433e 3536 bfbe a814 f63d
00000340: d473 3dbe eea5 213e 6526 373d 93df 13bc
00000350: 149b ea3d 3a77 8ebd 2ce2 353e 920b 4e3d
00000360: 5a88 043e 425d d33d 51a7 a8bc e6be 233e
00000370: 0a48 893d 743a 5b3e d579 13bd e0c0 3dbc
00000380: 5a59 883d ca0a 0e3d 44dc 3d3d 63d5 91bd
00000390: 1507 b5bd 7415 e5bc ec67 0b3d 1ec4 b23d
000003a0: b661 c7bd 9d3b 8b3e f3dd 653e bd58 d33d
000003b0: d703 dc3d 4c78 f4bd 26cc 303e 092a 0d3e
000003c0: f650 eabd 06d8 a2bd f425 ae3d c0e9 1c3e
000003d0: 6d4e 743d 0de3 013e 32ee 1fbe 7fc5 f13d
000003e0: a918 963d cfd2 42bd 49b3 893e 159d 35be
000003f0: 7b88 733d 8f0e 34bc f3b2 823d f382 01be

fc2.weight f4 [4, 256]
0.15474193 -0.37379217 0.03800815 0.194999 0.22631353 0.12187165 -0.15261832 0.22222064
-0.21156669 -0.29831594 0.14249022 0.13216801 -0.04370011 0.120587036 0.11824295 -0.31726357
-0.2171508 0.25853562 -0.08957826 0.15375632 0.13970098 0.43427387 -0.1376635 0.22612217
0.05473561 -0.2507273 -0.034803588 0.32598415 -0.10158857 -0.15307517 -0.08134153 0.23205021
0.3449889 -0.39876482 -0.24972537 -0.19301637 -0.27904844 -0.15740176 -0.1336165 -0.03362349
0.17117664 0.03502375 -0.16507992 0.28142482 -0.39580876 0.17791517 -0.43283585 -0.18798473
-0.0729961 0.031802833 -0.20715213 -0.2191322 0.24626216 -0.0069244434 -0.17525354 0.122445576
0.0084068775 -0.3532595 0.0826351 -0.15291908 0.2529432 0.08310727 0.21750525 0.57766205
-0.093164906 -0.07005665 -0.13447417 -0.42010853 -0.21036936 0.21940215 0.00029654254 0.16716316
-0.29897124 0.13412212 -0.007757972 -0.31900248 -0.3831408 0.1055689 -0.10609775 0.21220052
-0.18559173 -0.31319523 0.37121633 0.32654053 0.19804461 0.06331057 0.54309577 -0.37110206
0.024278374 0.12464588 0.029377451 -0.17893216 0.14622332 0.3369694 -0.07198856 0.034421347
-0.012444968 0.21509843 -0.25756788 -0.04476541 0.06143145 0.12733951 -0.4912949 0.1801255
-0.023972776 -0.20265345 0.06454307 0.37648705 -0.09439143 -0.032824248 -0.38199964 0.14683124
-0.24582681 0.15470529 0.050639264 -0.23960198 -0.055392887 -0.026042951 0.09606444 -0.1645576
0.021904748 0.097 -0.18677002 0.13842131 -0.0625528 -0.19144362 0.28532702 -0.3901355
0.0511449 0.12959428 0.014973652 0.0008985192 -0.16149212 -0.096752614 -0.24985826 -0.26602852
-0.031217908 0.11565768 0.21557555 -0.30935037 0.09347199 -0.2992699 0.20167588 0.09003879
0.060244806 0.13644718 -0.08584493 -0.09524438 -0.017294135 0.05116092 -0.18784432 0.13821368
-0.11419571 -0.244947 -0.007465349 0.35960495 -0.31195328 -0.0075921593 0.014218685 0.079135455
-0.23091581 -0.066282034 0.316744 -0.35648572 -0.0867806 0.15964256 0.03169345 0.20455217
-0.040783033 -0.198542 0.13307376 -0.13313167 -0.12741022 0.19543011 0.0688237 -0.3055058
0.06624863 0.052147284 0.3439439 -0.2582233 -0.016252153 0.2539396 0.05123407 0.20182887
0.1313787 -0.1866377 -0.31824824 -0.052407414 0.33423352 0.024878107 0.2823268 -0.26439562
0.029220164 0.26010925 -0.3900148 -0.061318617 -0.14982292 -0.14420801 -0.121935725 0.13108818
-0.042320002 0.09859105 -0.26295704 -0.31515104 0.33983332 -0.0025383383 0.23114307 -0.13585545
-0.1255854 0.11229901 0.07990885 0.040137347 -0.017816696 -0.17829995 0.12388338 -0.3645068
0.009595183 0.049753383 -0.21474035 0.08100188 -0.23272812 -0.05737675 0.44067276 -0.07786907
-0.42376032 -0.17555092 0.37173226 0.20221111 0.18943277 -0.051656146 -0.51325387 0.15166937
0.26657683 -0.22077517 -0.30134344 0.10332219 -0.052027393 0.077981666 -0.49380428 -0.2888247
0.16821375 -0.37723008 -0.2616583 0.073277555 -0.39956167 0.3736705 0.3550512 0.28037348
-0.08097794 0.0023659097 0.021309456 -0.2716762 0.01926041 0.06478962 -0.6211063 -0.03559684
00000000: ab74 1e3e b061 bfbe 6fae 1b3d d1ad 473e
00000010: bcbe 673e d897 f93d fa47 1cbe cf8d 633e
00000020: f0a4 58be debc 98be f5e8 113e 0d57 073e
00000030: e3fe 32bd 56f6 f63d 5c29 f23d 5f70 a2be
00000040: c85c 5ebe c85e 843e cf74 b7bd 4c72 1d3e
00000050: c60d 0f3e 2559 de3e a9f7 0cbe 928c 673e
00000060: 7232 603d 545f 80be 358e 0ebd 65e7 a63e
00000070: ab0d d0bd bdbf 1cbe 6396 a6bd 929e 6d3e
00000080: 63a2 b03e e72a ccbe 02b8 7fbe 15a6 45be
00000090: 70df 8ebe ed2d 21be c4d2 08be c9b8 09bd
000000a0: ee48 2f3e 1075 0f3d b60a 29be ea16 903e
000000b0: 72a7 cabe 652f 363e a99c ddbe 127f 40be
000000c0: fb7e 95bd b043 023d b01f 54be 3164 60be
000000d0: 262c 7c3e 71e6 e2bb aa75 33be bfc4 fa3d
000000e0: 00bd 093c 6ede b4be 973c a93d d296 1cbe
000000f0: c581 813e 2534 aa3d b2b9 5e3e a9e1 133f
00000100: 3ecd bebd dc79 8fbd 99b3 09be 7718 d7be
00000110: 116b 57be f5aa 603e 4479 9b39 d22c 2b3e
00000120: c212 99be 4f57 093e 9636 febb 4b54 a3be
00000130: 082b c4be 8234 d83d c749 d9bd 184b 593e
00000140: c20b 3ebe 205b a0be 1110 be3e 5230 a73e
00000150: 35cc 4a3e f9a8 813d 5308 0b3f 1701 bebe
00000160: 71e3 c63c 5746 ff3d fba8 f03c fe39 37be
00000170: 91bb 153e 4187 ac3e bd6e 93bd 66fd 0c3d
00000180: fbe5 4bbc c342 5c3e f0df 83be ef5b 37bd
00000190: 8b9f 7b3d 4a65 023e 018b fbbe d272 383e
000001a0: 8e62 c4bc 6384 4fbe 282f 843d e9c2 c03e
000001b0: 4b50 c1bd b872 06bd 7595 c3be ee5a 163e
000001c0: 06ba 7bbe 106b 1e3e 1e6b 4f3d 395a 75be
000001d0: a7e3 62bd 0758 d5bc 6fbd c43d ca81 28be
000001e0: 9671 b33c f0a7 c63d a440 3fbe 51be 0d3e
000001f0: af1b 80bd cc09 44be 6216 923e d7bf c7be
00000200: 517d 513d 5db4 043e 0c54 753c 9a8a 6b3a
00000210: 315e 25be 3c26 c6bd d8da 7fbe e434 88be
00000220: b3bc ffbc efdd ec3d d6bf 5c3e 2c63 9ebe
00000230: 3e6e bf3d e839 99be 1f84 4e3e 4266 b83d
00000240: 42c3 763d cfb8 0b3e 77cf afbd 7c0f c3bd
00000250: 6eac 8dbc 1d8e 513d 435a 40be e387 0d3e
00000260: 71df e9bd 63d3 7abe e39f f4bb 241e b83e
00000270: 57b8 9fbe a6c7 f8bb 7df5 683c c511 a23d
00000280: 3275 6cbe e0be 87bd 452c a23e 4c85 b6be
00000290: 07ba b1bd 5779 233e fed0 013d 2076 513e
000002a0: 1c0c 27bd 984e 4bbe 7d44 083e ab53 08be
000002b0: d377 02be d51e 483e 71f3 8c3d 426b 9cbe
000002c0: 5dad 873d 6498 553d 6a19 b03e d835 84be
000002d0: 3c23 85bc 5f04 823e d1da 513d 3aac 4e3e
000002e0: 2388 063e f41d 3fbe 6ff1 a2be 28a9 56bd
000002f0: a820 ab3e 2ccd cb3c 238d 903e dd5e 87be
00000300: 205f ef3c 0a2d 853e 05b0 c7be 3b29 7bbd
00000310: 2e6b 19be 44ab 13be 70b9 f9bd fb3b 063e
00000320: bd57 2dbd 1bea c93d 4ea2 86be 7a5b a1be
00000330: a2fe ad3e 405a 26bb c5b0 6c3e b11d 0bbe
00000340: 7699 00be 06fd e53d 40a7 a33d 0f67 243d
00000350: 52f4 91bc 4394 36be 92b6 fd3d a3a0 babe
00000360: 1d35 1d3c 34ca 4b3d e5e4 5bbe 50e4 a53d
00000370: 4850 6ebe e203 6bbd dc9f e13e d279 9fbd
00000380: 1df7 d8be 9fc3 33be b153 be3e 6e10 4f3e
00000390: aafa 413e 6595 53bd 9b64 03bf 374f 1b3e
000003a0: c27c 883e e312 62be b049 9abe 969a d33d
000003b0: ad1a 55bd dab4 9f3d ead3 fcbe d5e0 93be
000003c0: 3a40 2c3e 4d24 c1be 14f8 85be 8b12 963d
000003d0: 5993 ccbe bd51 bf3e 45c9 b53e 1d8d 8f3e
000003e0: c3d7 a5bd 610d 1b3b 2b91 ae3c 2519 8bbe
000003f0: 02c8 9d3c 6cb0 843d d300 1fbf fecd 11bd

fc2.bias f4 [4]
0.0007987307 0.11180768 -0.08672192 -0.05060313
00000000: e961 513a 6dfb e43d 439b b1bd 3a45 4fbd
