MultiAgent/actor0.pth (torch_old, 29368 bytes, 8 tensors)

norm0.weight f4 [24]
0.2965169 0.6511724 -0.32733798 -0.3270332 0.16794524 0.6656265 0.20024216 0.7620738
0.18695648 0.5934334 -0.075613305 0.14627802 0.07111103 0.27185556 -0.12593378 0.3756097
0.3335508 0.6708924 -0.25232375 0.22841872 0.54754037 0.942401 0.003950969 0.8201847
00000000: 10d1 973e 3cb3 263f d898 a7be e570 a7be
00000010: d6f9 2b3e 8066 2a3f 480c 4d3e 4517 433f
00000020: 8571 3f3e 40eb 173f 26db 9abd e8c9 153e
00000030: a9a2 913d a730 8b3e c9f4 00be ea4f c03e
00000040: 2cc7 aa3e 9bbf 2b3f 9430 81be 99e6 693e
00000050: 9b2b 0c3f 3141 713f 2177 813b a0f7 513f

norm0.bias f4 [24]
-0.35490748 0.121663295 -0.50925064 0.5889889 0.44066897 0.20799732 -0.45923838 -0.01489492
-0.379497 0.28744054 -0.46955296 0.29037642 0.51745796 0.17430575 -0.46885544 0.090679035
-0.4621749 0.17048022 -0.4777219 -0.22839455 -0.5401974 0.15837641 -0.51218426 -0.26884392
00000000: 6fb6 b5be 9b2a f93d 405e 02bf fac7 163f
00000010: 5d9f e13e 40fd 543e 4b21 ebbe d309 74bc
00000020: 6e4d c2be 682b 933e 3f69 f0be 38ac 943e
00000030: 2078 043f 357d 323e d20d f0be eeb5 b93d
00000040: 30a2 ecbe 5e92 2e3e f797 f4be 43e0 69be
00000050: 604a 0abf 6d2d 223e 821e 03bf e9a5 89be

norm0.running_mean f4 [24]
-8.969154 -0.98432964 -0.81013745 0.36049306 -0.50250125 3.0181317 -0.81013745 0.36049306
-9.500292 -1.0137085 -0.6297312 0.3566518 -0.5787736 2.9170756 -0.6297312 0.3566518
-10.059346 -1.0536585 -0.54653347 0.3118678 -0.65526164 2.796369 -0.54653347 0.3118678
00000000: a881 0fc1 07fd 7bbf 2b65 4fbf 8c92 b83e
00000010: eca3 00bf 1229 4140 2b65 4fbf 8c92 b83e
00000020: 3201 18c1 33c1 81bf 1036 21bf 119b b63e
00000030: 822a 14bf 5eb1 3a40 1036 21bf 119b b63e
00000040: 15f3 20c1 48de 86bf 9ee9 0bbf 23ad 9f3e
00000050: 3abf 27bf b6f7 3240 9ee9 0bbf 23ad 9f3e

norm0.running_var f4 [24]
12.079697 0.9941683 124.09678 5.5614424 40.74919 5.009519 124.09678 5.5614424
8.018343 1.019801 126.21155 6.0002923 43.422764 5.568119 126.21155 6.0002923
2.880302 1.0388571 131.88406 6.376377 46.406387 6.574034 131.88406 6.376377
00000000: 7046 4141 d081 7e3f 8d31 f842 56f7 b140
00000010: 2cff 2242 fb4d a040 8d31 f842 56f7 b140
00000020: 224b 0041 d788 823f 506c fc42 6502 c040
00000030: e9b0 2d42 082e b240 506c fc42 6502 c040
00000040: de56 3840 45f9 843f 52e2 0343 480b cc40
00000050: 24a0 3942 7d5e d240 52e2 0343 480b cc40

fc1.weight f4 [256, 24]
-0.059552364 0.0281771 0.14134288 -0.057682265 -0.011702685 0.074279755 0.010019039 0.0323566
-0.02273705 -0.0105433725 0.099015705 -0.0700128 -0.1605952 0.07624149 0.05644286 0.019113084
0.0029316552 -0.0059118317 -0.023912756 0.028058633 0.0593132 0.074076355 -0.018455386 0.058114395
0.010275524 -0.26187775 0.2843517 -0.30232847 -0.22293873 -0.08015827 -0.049555533 0.17200652
-0.022953305 -0.2986002 0.15021354 -0.15654804 -0.22768773 -0.07564694 0.15381664 -0.010386445
-0.05274327 -0.28735876 0.16734691 0.16164722 0.18127057 -0.123028204 0.14018206 0.20303077
0.00030355874 -0.0031442528 0.26646134 -0.13460903 -0.08354605 0.11768241 0.019618051 0.027315065
-0.030120956 0.034446858 0.11878286 0.05603494 -0.19581412 0.12371813 0.10027783 0.013390336
-0.017015371 0.004605558 0.25692162 0.07116616 0.013129193 -0.004245415 0.116082765 0.06025719
0.00054423336 -0.32698992 0.3237981 -0.3368694 -0.13181655 -0.051057946 0.0699681 0.09566369
-0.015046508 -0.31009197 0.20202194 -0.09922134 -0.20620322 -0.07875458 0.1500377 0.045470007
-0.07519767 -0.14415622 0.2563673 0.053425 0.12688427 -0.11451367 0.2119953 0.20789748
-0.052676212 -0.04671686 0.02276201 0.060579054 0.008647385 -0.019467173 0.038977187 0.05669767
0.0036917778 -0.0143130915 0.010418948 0.028766813 0.032213174 0.084010966 -0.009448044 -0.013341441
0.017045733 -0.051917 0.031211907 -0.0028732142 0.0050077965 0.017926767 -0.054256856 0.015548026
-0.23052937 0.17144622 -0.5801029 0.53444254 0.45437872 0.04989419 -0.4549681 -0.31889713
-0.27824223 0.1669816 -0.48213226 0.3520276 0.5419756 -0.018091815 -0.5321538 -0.109152965
-0.24263605 0.10338597 -0.6140685 -0.31754163 -0.43868613 0.09361872 -0.5142464 -0.36616042
0.007656387 0.01917772 0.06683066 -0.0022861082 0.028936872 0.004815059 -0.009058564 0.012582878
0.037967265 -0.022041911 0.010210426 0.0193407 0.0032200625 0.016545428 -0.051309776 -0.005141488
0.023776224 0.013947734 -0.013185724 0.040453527 0.013282303 0.025413305 0.016786268 -0.014705365
-0.2726006 0.1527363 -0.5915499 0.57207704 0.4764576 -0.026751198 -0.37476704 -0.20641398
-0.18516722 0.2430875 -0.4056132 0.09159582 0.52661055 -0.14615594 -0.449479 -0.17420563
-0.28838092 0.12615459 -0.4627575 -0.31318843 -0.44198954 0.31338814 -0.48236907 -0.35362867
-0.3080028 0.21226203 -0.52936167 0.6137704 0.34772077 -0.0056374767 -0.45541906 -0.22045583
-0.24140576 0.23630017 -0.50436246 0.29866868 0.52641726 -0.122175105 -0.4636578 -0.046325453
-0.19594021 0.076578416 -0.56251645 -0.28525004 -0.42761454 0.078313455 -0.49979085 -0.3244861
-0.013550523 0.004250164 0.1300001 -0.1402074 -0.02164219 -0.02346032 0.023614174 0.021294244
0.019610226 -0.032613274 0.060077257 -0.025753237 -0.12849955 0.02377194 0.03919475 -0.013470057
0.003400809 0.0010875005 0.09508329 0.0073330784 0.021755252 0.002519195 0.0005176034 0.031077612
0.16296895 -0.13734786 0.23989925 -0.2722549 -0.22299536 -0.056698415 0.068646364 0.09247185
0.18190834 -0.17381105 0.13148575 -0.027345987 -0.21499193 -0.019247381 0.21981992 0.021244327
00000000: 2eed 73bd a9d3 e63c 30bc 103e 3d44 6cbd
00000010: 9ebc 3fbc fc1f 983d e526 243c 5b88 043d
00000020: 0d43 babc 1cbe 2cbc bfc8 ca3d df62 8fbd
00000030: 1173 24be 8024 9c3d a130 673d 0b93 9c3c
00000040: 0321 403b 0ab8 c1bb afe4 c3bc 38db e53c
00000050: 66f2 723d 58b5 973d c02f 97bc 5c09 6e3d
00000060: ac5a 283c d714 86be 8c96 913e ccca 9abe
00000070: 0d4a 64be 052a a4bd befa 4abd 7a22 303e
00000080: 9208 bcbc 20e2 98be 94d1 193e 214e 20be
00000090: f926 69be c8ec 9abd 1c82 1d3e e82b 2abc
000000a0: 5409 58bd b020 93be fd5c 2b3e d986 253e
000000b0: fe9e 393e 36f6 fbbd e38b 0f3e 4ce7 4f3e
000000c0: f726 9f39 cf0f 4ebb 9f6d 883e f3d6 09be
000000d0: 311a abbd 7a03 f13d 09b6 a03c d8c3 df3c
000000e0: 39c0 f6bc 2618 0d3d 6e44 f33d e584 653d
000000f0: 7f83 48be ee5f fd3d 775e cd3d 2463 5b3c
00000100: d263 8bbc 38ea 963b 3b8b 833e 90bf 913d
00000110: d41b 573c 1f1d 8bbb cdbc ed3d 3ed0 763d
00000120: e2aa 0e3a 396b a7be ddc8 a53e 257a acbe
00000130: ebfa 06be 2322 51bd 6f4b 8f3d 53eb c33d
00000140: a185 76bc 60c4 9ebe d7de 4e3e 8f34 cbbd
00000150: f026 53be 154a a1bd 7ca3 193e c23e 3a3d
00000160: 3c01 9abd b09d 13be 9342 833e 2cd4 5a3d
00000170: f3ed 013e 2586 eabd 4c15 593e 14e3 543e
00000180: 03c3 57bd 2e5a 3fbd 6577 ba3c be21 783d
00000190: c3ad 0d3c 9f79 9fbc 8ba6 1f3d d13b 683d
000001a0: c1f1 713b 7581 6abc 3cb4 2a3c 61a8 eb3c
000001b0: f6f1 033d f10d ac3d f8cb 1abc 0f96 5abc
000001c0: 7ea3 8b3c eca6 54bd 1db0 ff3c 894c 3cbb
000001d0: 7118 a43b 28db 923c 703c 5ebd 26bd 7e3c
000001e0: e40f 6cbe 998f 2f3e a081 14bf 3ad1 083f
000001f0: 54a4 e83e da5d 4c3d 94f1 e8be 7c46 a3be
00000200: c475 8ebe 39fd 2a3e 0ada f6be f63c b43e
00000210: eabe 0a3f 4935 94bc 3b3b 08bf 978b dfbd
00000220: 9675 78be 06bc d33d 9833 1dbf d194 a2be
00000230: 789b e0be 2cbb bf3d a7a5 03bf 6179 bbbe
00000240: 6ee2 fa3b 981a 9d3c 83de 883d 88d2 15bb
00000250: 050d ed3c a4c7 9d3b 5f6a 14bc 6a28 4e3c
00000260: 9083 1b3d 3d91 b4bc a149 273c 6370 9e3c
00000270: af07 533b 478a 873c 332a 52bd ed79 a8bb
00000280: 5bc6 c23c 0985 643c ef08 58bc 99b2 253d
00000290: 049e 593c 902f d03c 5b83 893c c5ee 70bc
000002a0: 4e92 8bbe e866 1c3e d06f 17bf a473 123f
000002b0: 40f2 f33e 5425 dbbc 77e1 bfbe 305e 53be
000002c0: 7a9c 3dbe eeeb 783e 89ac cfbe 9796 bb3d
000002d0: f3cf 063f e7a9 15be 1d22 e6be f662 32be
000002e0: aaa6 93be ab2e 013e 8dee ecbe 3c5a a0be
000002f0: 744c e2be 6974 a03e 14f9 f6be d10e b5be
00000300: 8bb2 9dbe 385b 593e 3f84 07bf 0f20 1d3f
00000310: 7508 b23e 95ba b8bb b02c e9be 2cbf 61be
00000320: 1233 77be acf8 713e e61d 01bf 1aeb 983e
00000330: 48c3 063f f136 fabd 8e64 edbe c2bf 3dbd
00000340: 8da4 48be 25d5 9c3d 1401 10bf 4b0c 92be
00000350: 4bf0 dabe ce62 a03d 96e4 ffbe 0b23 a6be
00000360: 0303 5ebc f644 8b3b bf1e 053e 8792 0fbe
00000370: f64a b1bc db2f c0bc 8372 c13c 4471 ae3c
00000380: a0a5 a03c 7f95 05bd 9213 763d 74f8 d2bc
00000390: 6395 03be 5fbd c23c ad8a 203d 84b1 5cbc
000003a0: 1be0 5e3b 768a 8e3a 07bb c23d 524a f03b
000003b0: 1238 b23c 1419 253b c7af 073a 7a96 fe3c
000003c0: 55e1 263e eba4 0cbe 26a8 753e ff64 8bbe
000003d0: e558 64be 993c 68bd 7796 8c3d e261 bd3d
000003e0: 2e46 3a3e 86fb 31be 33a4 063e b104 e0bc
000003f0: d826 5cbe afac 9dbc 7918 613e 9508 ae3c

fc1.bias f4 [256]
-0.08624689 -0.43942824 -0.08658813 -0.23156501 -0.17439517 0.37179774 -0.1675138 0.34468657
0.35689238 -0.108403444 -0.3401387 -0.021976827 -0.30864358 0.058368087 -0.16270669 0.012588356
-0.37242657 -0.20465499 -0.1615891 -0.1705298 -0.14803946 -0.16921403 -0.19605105 -0.3652472
0.05832152 -0.06001132 -0.16744824 0.019342564 -0.18064472 -0.24028519 -0.104062736 -0.13484147
0.04722052 -0.14513671 -0.18641296 -0.021721538 -0.11060212 -0.089353785 -0.26344535 -0.20600802
-0.036983043 -0.08101062 -0.30688524 -0.055069715 -0.24195859 -0.16923638 -0.3125179 -0.25191706
-0.2201835 -0.1650879 -0.12851594 -0.012092537 0.021665657 0.011234322 -0.09108232 -0.07403687
-0.12099345 0.32750142 -0.23352303 -0.22646435 -0.061687328 -0.21572208 -0.3174323 -0.056063626
-0.1588443 -0.08763568 -0.13724206 -0.01603655 -0.22943117 0.00821702 -0.322603 -0.23661801
0.017450485 -0.22003599 0.009045432 -0.061354287 -0.09295763 -0.11483256 -0.094786756 0.24563994
-0.17927083 0.051933393 -0.056023393 -0.08312584 -0.10395396 -0.11338565 -0.16081573 -0.17708036
-0.33881548 -0.19548033 -0.25545236 -0.05008043 0.075275145 -0.20517802 -0.18471274 0.026684185
-0.15767308 -0.13018934 -0.0659947 0.023974594 -0.07495031 -0.08641304 -0.13576685 -0.08251638
0.049122036 -0.19437914 -0.19760224 0.007920859 -0.23352005 -0.052701175 -0.034592893 0.0017551334
-0.08525223 -0.09547817 0.00038044943 -0.047965582 -0.120269254 -0.40570387 -0.021976907 -0.093693
-0.0011572667 -0.19709115 -0.13695745 -0.20065849 -0.2713847 -0.021221789 0.108075 -0.004476616
0.04658461 -0.36693102 0.071168385 -0.10180819 -0.022632372 -0.101320915 -0.1431638 -0.019758495
-0.2212996 -0.09632828 0.3063616 -0.10433915 -0.2623367 -0.007734618 0.3493673 -0.0603194
0.012909161 0.027298486 -0.08204997 -0.24414459 -0.20371473 -0.23755679 -0.23039229 -0.19212161
-0.11210341 0.0068105585 -0.27582523 -0.073820055 -0.1396039 0.031332236 0.0014784946 -0.019925997
0.01107134 -0.1938874 0.3269306 -0.17765704 -0.105061114 0.058713425 -0.051017717 -0.096003436
-0.110634156 -0.33793426 0.03527313 -0.21487868 -0.29616833 0.0011379054 0.008117089 -0.084760495
-0.10394278 -0.12789904 -0.20753092 -0.16934665 0.058818106 0.09704651 0.29018006 -0.027117439
-0.19912814 -0.23217447 -0.08156604 -0.1075362 -0.015101457 -0.1110119 0.32845223 -0.20019804
0.015597666 -0.011620915 -0.11074815 0.43380153 -0.12960969 -0.100101255 0.0025963085 -0.23562261
0.2579547 -0.24456629 -0.003779717 0.070192404 -0.08234946 -0.17694476 0.028626181 -0.014973028
-0.16764046 -0.13796327 -0.039084107 -0.08119688 -0.29071748 -0.07942737 -0.12005468 -0.03855586
0.3262048 -0.17999205 -0.07965238 -0.097007774 -0.29081285 0.035590526 -0.123374656 -0.19345973
-0.12727319 -0.15027761 -0.24051914 -0.19487533 -8.0158345e-05 -0.0137483375 -0.22525884 -0.060483314
0.023259519 -0.1719499 0.17745209 -0.08854167 -0.10141628 -0.017934032 0.021466352 -0.1156022
-0.0069924467 -0.17149986 -0.23510703 -0.20869023 -0.064993344 -0.14314294 -0.17244312 -0.20691699
-0.2420167 -0.1287931 0.3577059 -0.17466636 -0.19743536 0.011961406 -0.1373568 -0.07691279
00000000: 36a2 b0bd bdfc e0be 1e55 b1bd 611f 6dbe
00000010: a694 32be 465c be3e bd88 2bbe c27a b03e
00000020: 99ba b63e a002 debd a926 aebe bf08 b4bc
00000030: 8806 9ebe 6013 6f3d 959c 26be 643f 4e3c
00000040: b2ae bebe 1491 51be 9d77 25be 5d9f 2ebe
00000050: a897 17be 7146 2dbe 9bc1 48be ae01 bbbe
00000060: 8ce2 6e3d 6ece 75bd 8d77 2bbe 4c74 9e3c
00000070: eefa 38be 520d 76be d81e d5bd e213 0abe
00000080: 4e6a 413d b89e 14be 0ae3 3ebe 5ef1 b1bc
00000090: 5d83 e2bd 1eff b6bd 4fe2 86be c4f3 52be
000000a0: 887b 17bd e5e8 a5bd 1020 9dbe c890 61bd
000000b0: fec3 77be 4d4c 2dbe 5902 a0be 46fb 80be
000000c0: c977 61be cd0c 29be af99 03be c71f 46bc
000000d0: 2d7c b13c 2910 383c 5e89 babd a4a0 97bd
000000e0: 6acb f7bd 44ae a73e a920 6fbe 45e6 67be
000000f0: daab 7cbd 40e6 5cbe 7d86 a2be f9a2 65bd
00000100: 15a8 22be 567a b3bd 2f89 0cbe 155f 83bc
00000110: 01f0 6abe aea0 063c 382c a5be fe4b 72be
00000120: 52f4 8e3c 1d51 61be 4b33 143c a24e 7bbd
00000130: 9260 bebd 552d ebbd 8f1f c2bd 0989 7b3e
00000140: c692 37be 1cb8 543d c978 65bd e13d aabd
00000150: d0e5 d4bd bc36 e8bd e1ac 24be 8e54 35be
00000160: 3979 adbe ff2b 48be a7ca 82be 2321 4dbd
00000170: db29 9a3d 301a 52be 5625 3dbe cb98 da3c
00000180: 0d75 21be 5b50 05be 3b28 87bd 5e66 c43c
00000190: 8c7f 99bd 52f9 b0bd 7706 0bbe 59fe a8bd
000001a0: 3034 493d 530b 47be 3e58 4abe 7ec6 013c
000001b0: e11f 6fbe 30dd 57bd 47b1 0dbd 810c e63a
000001c0: b998 aebd 0f8a c3bd 0f77 c739 8f77 44bd
000001d0: ba4f f6bd 6bb8 cfbe ea08 b4bc 1ee2 bfbd
000001e0: 6daf 97ba 43d2 49be 933e 0cbe 6b79 4dbe
000001f0: eff2 8abe 51d9 adbc 6d56 dd3d 94b0 92bb
00000200: 81cf 3e3d 62de bbbe bbc0 913d d080 d0bd
00000210: 8667 b9bc 5781 cfbd 8899 12be 91dc a1bc
00000220: 5d9c 62be c347 c5bd 6ddb 9c3e c4af d5bd
00000230: ff50 86be ae72 fdbb 45e0 b23e 7a11 77bd
00000240: f280 533c 13a1 df3c d109 a8bd 0a01 7abe
00000250: 989a 50be 1642 73be f5eb 6bbe 87bb 44be
00000260: 7996 e5bd 1b2b df3b f738 8dbe f82e 97bd
00000270: 53f4 0ebe 3b56 003d 0cca c13a d83b a3bc
00000280: 9164 353c 6b8a 46be 7363 a73e baeb 35be
00000290: 482a d7bd 7d7d 703d f4f7 50bd 739d c4bd
000002a0: 2994 e2bd b805 adbe 8f7a 103d 2809 5cbe
000002b0: 60a3 97be c525 953a 8afd 043c e996 adbd
000002c0: f4df d4bd f7f7 02be fc82 54be 3569 2dbe
000002d0: 41eb 703d 52c0 c63d 7b92 943e 6425 debc
000002e0: 3fe8 4bbe 25bf 6dbe 190c a7bd f03b dcbd
000002f0: 1a6c 77bc 355a e3bd e42a a83e b700 4dbe
00000300: 5a8d 7f3c a665 3ebc edcf e2bd 3c1b de3e
00000310: 67b8 04be e301 cdbd d426 2a3b 0e47 71be
00000320: a312 843e 966f 7abe 21b5 77bb 09c1 8f3d
00000330: d5a6 a8bd 0231 35be 7481 ea3c 6e51 75bc
00000340: f1a9 2bbe 3e46 0dbe a816 20bd 8d4a a6bd
00000350: ecd8 94be d1aa a2bd 3adf f5bd c0ec 1dbd
00000360: 5104 a73e d64f 38be c920 a3bd 03ac c6bd
00000370: 6ce5 94be 5fc7 113d daab fcbd 4f1a 46be
00000380: e753 02be 60e2 19be a64a 76be 668d 47be
00000390: af1a a8b8 b540 61bc 41aa 66be 5abd 77bd
000003a0: bf8a be3c a213 30be 00b6 353e 5655 b5bd
000003b0: 57b3 cfbd 64ea 92bc 34da af3c d9c0 ecbd
000003c0: e520 e5bb a99d 2fbe e6bf 70be e4b2 55be
000003d0: 3b1b 85bd 1094 12be ee94 30be 0ce2 53be
000003e0: 3ad3 77be 57e2 03be 3a25 b73e bddb 32be
000003f0: 7f2c 4abe c6f9 433c 43a7 0cbe 7484 9dbd

fc2.weight f4 [2, 256]
0.0037902652 -0.08118794 0.0060132993 -0.07882015 -0.00017323709 -0.39820263 0.055266786 -0.4398544
-0.3320641 0.040335063 0.145621 -0.063211165 0.0838329 -0.02218571 -0.00016821231 -0.060379006
0.082587905 0.05917909 0.027614022 0.032508593 0.056219343 0.0275004 0.09631487 0.1722062
-0.00862494 0.026835807 -0.008644777 -0.030823175 0.02881282 0.019052923 0.034647282 0.02054304
-0.02129704 0.03190584 0.016327126 0.010788033 0.047270443 0.01904808 0.101126455 0.0063129994
-0.025355188 0.026412614 -0.16948225 -0.015078919 0.0026518386 0.03645964 -0.16443671 0.032729506
0.010699556 0.049276885 0.025694005 0.015861278 -0.053041667 0.0047349646 0.030939776 0.0036952703
0.035104748 -0.34600383 0.046276905 0.034003552 0.0099617615 0.017358659 -0.19452666 -0.028938921
0.049149852 0.027692067 0.045444675 -0.07738069 0.07895426 0.009342338 -0.20314848 -0.009248741
-0.014325478 0.04341998 0.008551831 0.027258068 0.03428332 0.04305937 0.017590746 -0.19498561
0.008391458 -0.042658154 0.02704554 0.024961798 0.048841026 0.027040698 0.03462195 0.0016524647
0.119580075 -0.00067597494 0.043363728 0.0058128783 -0.042022992 0.00915831 0.027205914 -0.021803495
0.048254292 0.03194682 0.033743527 0.0016583088 -0.016377231 -0.003970628 0.033694353 -0.011594186
-0.082909025 -0.0019623619 0.0011552799 -0.015747145 0.04358054 0.01504595 0.022235814 -0.030573953
0.026854992 0.027995678 -0.039144833 0.0324583 0.032585707 0.053873893 -0.012191071 0.045070283
-0.012381154 0.01725435 0.033965927 0.0150247365 -0.0006988797 0.017678477 -0.15851797 0.015265277
-0.025758266 -0.09415495 -0.026395291 -0.00049150456 -0.0012194109 0.03383666 0.047039475 0.0073627876
0.05831072 0.017442105 -0.30870616 0.0091652945 0.10404113 -0.00669582 -0.2986598 -0.030251902
-0.06350397 0.0013615891 0.023269396 0.032539513 -0.013761655 -0.011820498 0.036211908 0.030539494
0.019634442 0.0072212256 -0.29033303 0.019346103 0.024771435 -0.021607917 -0.010149424 -0.03919438
0.007306302 0.023742324 -0.535134 0.018276572 0.023474662 -0.023122806 0.02266683 0.033815052
0.008122957 -0.16004981 0.012829587 0.0061910893 0.064155154 -0.024131244 -0.003930453 0.00908697
0.04774989 0.039958436 -0.03755562 0.02610211 -0.0004689432 -0.02915834 -0.40424952 0.0043656016
-0.02400533 0.06173464 -0.026029095 0.048912924 0.017015746 0.03001367 -0.31332558 0.04061744
-0.025629558 0.0025003357 0.040931482 -0.35693532 0.009842926 0.027512694 0.014312253 0.10760251
-0.24615029 0.013075735 -0.0656028 -0.23398347 -0.08005694 0.0096723065 -0.00032854616 -0.008411947
0.02716121 0.057098884 -0.035973117 0.015329165 0.13464777 0.017570628 0.052860245 0.029903214
-0.44135347 0.0074258847 -0.013451897 0.035928786 0.06687685 -0.004124762 0.045733385 -0.0023280643
0.033544596 0.0106582055 0.100996815 0.023976458 0.0070911665 0.009374004 0.07527217 0.02703511
-0.074531585 0.024382142 -0.25118542 0.014547412 0.024572318 0.010165722 -0.014515002 0.024340605
0.00441282 0.036270767 0.08691372 0.0140771875 0.035770833 0.05490916 0.018825307 0.016521027
0.11485938 -0.001747064 -0.37138945 -0.0011497829 0.030400354 0.007502672 0.059574716 0.04074112
00000000: 1966 783b dd45 a6bd 360b c53b 756c a1bd
00000010: faa6 35b9 37e1 cbbe 6d5f 623d 9934 e1be
00000020: 4e04 aabe 6136 253d ac1d 153e db74 81bd
00000030: 95b0 ab3d cebe b5bc 2662 30b9 fa4f 77bd
00000040: d923 a93d c665 723d cd36 e23c bb27 053d
00000050: 4146 663d 8548 e13c bb40 c53d d256 303e
00000060: 9f4f 0dbc c4d6 db3c d3a2 0dbc e280 fcbc
00000070: dd08 ec3c e014 9c3c 4fea 0d3d e149 a83c
00000080: 2177 aebc b3af 023d 77c0 853c 4ac0 303c
00000090: a79e 413d b80a 9c3c 631b cf3d 47dd ce3b
000000a0: afb5 cfbc 445f d83c c18c 2dbe 920d 77bc
000000b0: 78ca 2d3b b456 153d 1962 28be 600f 063d
000000c0: 314d 2f3c 8fd6 493d 3c7c d23c 83ef 813c
000000d0: 3842 59bd c327 9b3b 6a75 fd3c 592c 723b
000000e0: ffc9 0f3d 6a27 b1be da8c 3d3d 4f47 0b3d
000000f0: a836 233c bf33 8e3c ff31 47be 5111 edbc
00000100: 5b51 493d 79da e23c 3224 3a3d c479 9ebd
00000110: c5b2 a13d 9b10 193c 2806 50be 0888 17bc
00000120: 69b5 6abc 26d9 313d fb1c 0c3c 504c df3c
00000130: ab6c 0c3d 065f 303d 781a 903c 4faa 47be
00000140: 537c 093c 51ba 2ebd 9c8e dd3c af7c cc3c
00000150: 870d 483d 7484 dd3c bfcf 0d3d 8497 d83a
00000160: 66e6 f43d e933 31ba 2a9e 313d f579 be3b
00000170: 4d20 2cbd bc0c 163c f0de de3c 3e9d b2bc
00000180: 4ba6 453d abda 023d a736 0a3d 9c5b d93a
00000190: 8b29 86bc 0b1c 82bb 1703 0a3d 8af5 3dbc
000001a0: 35cc a9bd f89a 00bb c36c 973a 2800 81bc
000001b0: 8281 323d 4a83 763c e227 b63c 3a76 fabc
000001c0: 00ff db3c 3157 e53c 5556 20bd fff2 043d
000001d0: 9778 053d dfaa 5c3d 0fbd 47bc 9e9b 383d
000001e0: 53da 4abc ff58 8d3c db1f 0b3d 502a 763c
000001f0: 0635 37ba 74d2 903c 8952 22be 361b 7a3c
00000200: 0003 d3bc 4fd4 c0bd f03a d8bc 50d8 00ba
00000210: a4d4 9fba 4f98 0a3d 77ac 403d 8a43 f13b
00000220: 39d7 6e3d bfe2 8e3c bc0e 9ebe 082a 163c
00000230: 8413 d53d 9c68 dbbb f0e9 98be d6d2 f7bc
00000240: 5f0e 82bd 5977 b23a 769f be3c 2748 053d
00000250: 9178 61bc c3aa 41bc f052 143d f62d fa3c
00000260: 69d8 a03c 08a0 ec3b 88a6 94be b87b 9e3c
00000270: 77ed ca3c 1603 b1bc c549 26bc 498a 20bd
00000280: b469 ef3b 437f c23c 8bfe 08bf c0b8 953c
00000290: ef4d c03c 0a6c bdbc caaf b93c a781 0a3d
000002a0: 2716 053c 19e4 23be 3033 523c 9fde ca3b
000002b0: c763 833d e3ae c5bc 08cb 80bb 84e1 143c
000002c0: 6395 433d 75ab 233d ecd3 19bd 18d4 d53c
000002d0: 7edc f5b9 79dd eebc cbf9 cebe 520d 8f3b
000002e0: d3a6 c4bc 76dd 7c3d f83a d5bc eb58 483d
000002f0: 9b64 8b3c 3adf f53c 366c a0be 795e 263d
00000300: 14f5 d1bc acdc 233b c5a7 273d 3ac0 b6be
00000310: 3944 213c 4d62 e13c f17d 6a3c b45e dc3d
00000320: d20e 7cbe 9c3b 563c c35a 86bd 5d99 6fbe
00000330: e5f4 a3bd 9878 1e3c b840 acb9 43d2 09bc
00000340: 3081 de3c 85e0 693d 8c58 13bd 2e27 7b3c
00000350: 1be1 093e 47f0 8f3c fc83 583d 96f7 f43c
00000360: 15f9 e1be d654 f33b 5865 5cbc 102a 133d
00000370: bbf6 883d 0329 87bb ee52 3b3d 7092 18bb
00000380: 0f66 093d c19f 2e3c 6bd7 ce3d 476a c43c
00000390: 045d e83b 6c95 193c 4c28 9a3d bc78 dd3c
000003a0: 04a4 98bd 0fbd c73c 609b 80be 4558 6e3c
000003b0: e34b c93c 218e 263c 55d0 6dbc f365 c73c
000003c0: 6b99 903b a890 143d d2ff b13d 01a4 663c
000003d0: 7084 123d 6de8 603d 8837 9a3c 1b57 873c
000003e0: 653b eb3d bdfd e4ba c226 bebe 50b4 96ba
000003f0: 2a0a f93c f9d8 f53b 9e04 743d 29e0 263d

fc2.bias f4 [2]
-0.072681606 -0.03708573
00000000: 18da 94bd 35e7 17bd
