MultiAgent/critic0.pth (torch_old, 425076 bytes, 11 tensors)

norm0.weight f4 [24]
000000 73 ec 90 3e a0 68 f7 3e 6f 64 8c ba 6c a9 4b 3a
       0.28305396 0.4832201 -0.0010711084 0.0007769081
000010 41 65 61 3f 64 10 21 3f 62 ff d4 3d 5b 95 0d 3f
       0.88045126 0.62915635 0.10400273 0.55306023
000020 3c 6d 4e 3e 1f 7e a9 3e 3e 98 5d 3d ee a9 d8 3d
       0.20158857 0.33104035 0.054100268 0.105792865
000030 ee 9a 9d bb 5f 84 8d 3e cf e4 24 3c 9a 46 3d 3e
       -0.004809729 0.27640054 0.010064318 0.18483964
000040 af f1 b9 3e 8f aa fc 3e b2 13 0b 3c e5 94 f2 3c
       0.36317202 0.49348876 0.008488582 0.029612014
000050 1d 38 8b 3f 24 f4 78 3f 67 76 a9 3d db b3 1a 3f
       1.08765 0.9724753 0.082745366 0.6043069

norm0.bias f4 [24]
000000 6f 95 8d 3c ff 5b 58 3c 78 cc e0 37 09 68 70 bb
       0.01728317 0.013205527 2.6798094e-05 -0.0036683104
000010 1f 36 80 3c 0c 0e 4e 3d 5f d1 c0 bc 64 e7 0b 3b
       0.015650807 0.050306365 -0.023537336 0.0021347636
000020 0c 29 2d 3d ff 91 b8 bc 05 1e 10 bc b2 74 7e bd
       0.042275473 -0.022530554 -0.00879622 -0.062123008
000030 1b 38 d2 ba f8 e1 bc 3b 43 b1 1e bb 0b 63 a2 bb
       -0.0016038449 0.0057642423 -0.0024214543 -0.0049556545
000040 f4 3f 0f 3d c1 16 a6 3d df 74 bb bd 47 89 5c 3d
       0.0349731 0.08109809 -0.09153151 0.053841855
000050 71 88 54 3d ea cb 05 bd 07 6c 28 bd 83 4c 62 3d
       0.051887933 -0.03266517 -0.041118648 0.05524875

norm0.running_mean f4 [24]
000000 a8 81 0f c1 07 fd 7b bf 2b 65 4f bf 8c 92 b8 3e
       -8.969154 -0.98432964 -0.81013745 0.36049306
000010 ec a3 00 bf 12 29 41 40 2b 65 4f bf 8c 92 b8 3e
       -0.50250125 3.0181317 -0.81013745 0.36049306
000020 32 01 18 c1 33 c1 81 bf 10 36 21 bf 11 9b b6 3e
       -9.500292 -1.0137085 -0.6297312 0.3566518
000030 82 2a 14 bf 5e b1 3a 40 10 36 21 bf 11 9b b6 3e
       -0.5787736 2.9170756 -0.6297312 0.3566518
000040 15 f3 20 c1 48 de 86 bf 9e e9 0b bf 23 ad 9f 3e
       -10.059346 -1.0536585 -0.54653347 0.3118678
000050 3a bf 27 bf b6 f7 32 40 9e e9 0b bf 23 ad 9f 3e
       -0.65526164 2.796369 -0.54653347 0.3118678

norm0.running_var f4 [24]
000000 70 46 41 41 d0 81 7e 3f 8d 31 f8 42 56 f7 b1 40
       12.079697 0.9941683 124.09678 5.5614424
000010 2c ff 22 42 fb 4d a0 40 8d 31 f8 42 56 f7 b1 40
       40.74919 5.009519 124.09678 5.5614424
000020 22 4b 00 41 d7 88 82 3f 50 6c fc 42 65 02 c0 40
       8.018343 1.019801 126.21155 6.0002923
000030 e9 b0 2d 42 08 2e b2 40 50 6c fc 42 65 02 c0 40
       43.422764 5.568119 126.21155 6.0002923
000040 de 56 38 40 45 f9 84 3f 52 e2 03 43 48 0b cc 40
       2.880302 1.0388571 131.88406 6.376377
000050 24 a0 39 42 7d 5e d2 40 52 e2 03 43 48 0b cc 40
       46.406387 6.574034 131.88406 6.376377

fc1.weight f4 [256, 24]
000000 d7 13 d9 bb 57 00 38 bc 1d fe 95 bb 96 e1 40 3d
       -0.0066246795 -0.01123055 -0.004577412 0.047090136
000010 9e 4a 07 3d e6 d1 ec 3c af b4 7c 3c 9b a8 a4 3b
       0.033030145 0.028908681 0.015423938 0.005024982
000020 cb aa 90 bc e3 5b 4f bd f5 ea 6a bc 35 29 11 3d
       -0.017659565 -0.05062474 -0.014338245 0.03543969
000030 48 ba 17 bc 55 97 a9 3c 64 3e 5b 3c 30 a4 93 3c
       -0.0092607215 0.020702044 0.013381574 0.018022627
000040 2d 2c 02 bd be 86 0a 3d 52 a2 58 3d a4 97 15 3b
       -0.03178041 0.033819906 0.052889176 0.002282598
000050 6b 5e d9 bc fa a2 60 3d ee 65 ea bb 79 cf 25 bc
       -0.02653428 0.054842927 -0.0071532642 -0.010120266
000060 b7 aa 89 3a 89 a5 35 3c 5f 4b 36 37 f5 b7 63 37
       0.0010503147 0.01108683 1.0865594e-05 1.3573085e-05
000070 41 1a d3 bb ad 88 b7 3b 97 ae 34 3b 43 90 03 3c
       -0.0064423387 0.00560101 0.0027569884 0.00803
000080 13 29 b4 3a 0b 84 28 3c 4c 66 d6 39 90 0c ae 3a
       0.0013745151 0.010285388 0.00040893478 0.001327889
000090 11 e2 d9 37 49 0c c4 ba 37 4c 98 38 44 f1 1d bb
       2.5973686e-05 -0.0014957275 7.262121e-05 -0.0024100104
0000a0 30 f7 95 3b b7 ed 17 3c 8d 10 28 39 28 16 c5 ba
       0.004576586 0.009272984 0.00016027894 -0.001503651
0000b0 68 69 7c bc ae 3f 81 3b 3b ad c4 3a df be e1 3c
       -0.01540599 0.003944359 0.001500524 0.027556835
0000c0 32 21 8c bc 96 42 0e 3d 34 f2 1a bd d0 ff d9 3b
       -0.017105673 0.03473147 -0.03782864 0.0066528097
0000d0 7c e2 66 bd 98 36 47 3e 79 de 86 3b e9 b3 0a 3a
       -0.056368336 0.1945442 0.0041158763 0.0005291091
0000e0 64 26 66 bc 2c 13 4a 3c b3 06 41 3d 3a a9 d3 bc
       -0.014047239 0.0123336725 0.04712553 -0.02583753
0000f0 58 c6 99 bb 11 31 4a 3e ed 3c 83 3c 91 f1 16 3d
       -0.004692834 0.1974528 0.016020263 0.03685147
000100 70 61 4d bc 51 82 b2 bc ee f0 3f bb c6 69 e8 bb
       -0.012535438 -0.021790655 -0.0029287892 -0.0070926873
000110 7c 8b 28 3c ff 24 37 be dc 13 0e bd d2 e5 49 3c
       0.010287162 -0.17885207 -0.034686908 0.01232286
000120 16 65 37 bc e5 99 9c 3c f0 d3 b0 bb a6 01 31 3d
       -0.011193534 0.019116351 -0.0053963587 0.043214463
000130 1c fd f0 3d 8b 12 12 bd 0e 23 be 3a bc b8 92 bc
       0.11767027 -0.035662215 0.0014506297 -0.017910354
000140 08 1f 79 bc 80 46 00 3d 99 dc b9 bc 2b 18 8e bc
       -0.015205152 0.031317234 -0.022688197 -0.017345509
000150 50 42 cc b9 ad d3 91 bd d1 9f db bc dd f3 3f 3c
       -0.0003895932 -0.07120452 -0.026809605 0.011715856
000160 2e ea 99 bc ec 40 4f 3d 38 88 a4 3c be 46 68 3b
       -0.018788423 0.050599024 0.020084485 0.0035442556
000170 2a 74 21 bd 2b 28 d6 3c e8 57 09 bc 10 73 b4 3c
       -0.039417423 0.0261422 -0.008382775 0.022027522
000180 a9 14 43 37 2c bf 92 3a e4 6f 2c 36 32 5f ac b6
       1.1627716e-05 0.001119589 2.5695126e-06 -5.1370816e-06
000190 a0 ec aa 38 52 76 bc ba d6 65 ab b8 06 29 5f bb
       8.1503065e-05 -0.0014378524 -8.172884e-05 -0.0034051551
0001a0 b8 b2 45 38 41 f5 c9 b8 dc 84 b0 b7 bf 87 65 b9
       4.7134905e-05 -9.630109e-05 -2.1042702e-05 -0.00021889711
0001b0 39 83 93 b6 dd 1e 02 b9 57 f8 17 b7 c4 d2 49 ba
       -4.3962177e-06 -0.00012409264 -9.0581225e-06 -0.0007698948
0001c0 d0 bd 61 39 28 1d 24 39 fe 54 ab b8 24 35 9e 38
       0.00021528383 0.0001565112 -8.1697464e-05 7.543925e-05
0001d0 86 5d d7 39 d2 5e 23 3b 7f 6a a5 b7 1d 8d 58 3a
       0.00041077676 0.0024928343 -1.9719124e-05 0.00082607736
0001e0 9f e2 44 3d 10 26 3a bc e5 8c 16 3c 45 ba 79 3c
       0.048067685 -0.011361614 0.009188865 0.015242164
0001f0 cb bd 18 bc 58 28 f2 3a 8b 54 90 3c c9 1d b2 3d
       -0.009322594 0.0018475158 0.017618438 0.08697087
000200 46 81 9c 3d 59 eb 22 bd e1 9d 01 3c d0 fe c9 3b
       0.076418445 -0.039775226 0.007911176 0.006164409
000210 d3 15 9a bb a0 e0 62 3c f7 22 17 3c 25 fe ee 3b
       -0.0047023087 0.0138475 0.009224645 0.00729348
000220 63 83 bf 3c 36 4c 51 bc c2 9c cd 3c 5e da 2f 3d
       0.02337808 -0.012774518 0.025099162 0.04293286
000230 8a ec 64 bc b9 85 2d bc fe 21 6e 3b 50 a4 39 3b
       -0.013972411 -0.010590964 0.003633618 0.0028326698
000240 4e 5f d1 bc 81 2d 86 bc 0d a6 21 bc 22 de 09 3c
       -0.02555814 -0.01637912 -0.00986625 0.008414777
000250 98 fd d6 3d 8a cf 0a 3d 6a 1d a7 bd 15 b4 5e 3e
       0.10497588 0.03388933 -0.08159907 0.21748383
000260 02 f3 74 bd 81 42 b6 3d 1e ed 26 3d 59 4c 5e 3d
       -0.059802063 0.08899403 0.040753476 0.05427203
000270 1b c4 57 3a 04 b0 1e be d4 e7 0e 3d fc 09 a8 3d
       0.0008230821 -0.15496832 0.034889057 0.08205029
000280 75 fc 8b bc ea 30 f8 3c fb fc e6 3d 2d 13 ee bd
       -0.017088154 0.030296762 0.11278721 -0.11624751
000290 2f 81 45 bd 8c 52 66 3c d7 43 f6 3d 7f 9e 89 be
       -0.048218902 0.014057767 0.12024658 -0.26878735
0002a0 fc d9 84 bb d0 ab 00 3d 63 21 e7 b9 73 f8 f6 38
       -0.004054306 0.031413853 -0.00044084628 0.000117764714
0002b0 c3 4d 7a bb 68 f5 24 3d ce a4 e9 bb 0f 72 9d bb
       -0.0038193322 0.0402731 -0.007130242 -0.0048048566
0002c0 bf 10 25 3c 59 66 dc 3c 67 01 30 bc b8 0c 3a bc
       0.010074793 0.026904272 -0.010742522 -0.011355571
0002d0 82 83 0a 38 ce 96 39 3b fc 2d 88 3a 35 77 cb bc
       3.302424e-05 0.0028318646 0.0010389681 -0.024837116
0002e0 92 0f 3d 3c 48 68 b9 bc c8 83 da 37 48 32 e3 39
       0.011539357 -0.022632733 2.604899e-05 0.00043334276
0002f0 fd 3b 6c 3d 51 82 cc bb f7 b8 e1 bc 47 f2 d6 3c
       0.057674397 -0.006241121 -0.027554018 0.026238574
000300 34 04 11 3e d6 ec d5 3c 11 bd 43 3c 4a 40 0a bc
       0.1416176 0.026113909 0.011946932 -0.008438179
000310 fe e9 91 3d b0 59 34 3d d9 3c 31 bd 5c 61 3e 3d
       0.071247086 0.044030845 -0.04327092 0.046479568
000320 42 51 84 3d e2 35 0c bd 82 15 8c 3d 00 44 08 3d
       0.06460811 -0.034231074 0.0684004 0.033267975
000330 0b 19 6f 39 d7 5d 9a 3d a5 f4 c3 3c 27 41 e2 bc
       0.00022802145 0.0753743 0.023920367 -0.027618958
000340 e2 73 a9 3c 0e 1c 13 be de b3 69 3d 02 65 8e 3d
       0.02068514 -0.14366171 0.0570563 0.069528595
000350 fa 2f 75 be 87 ef 0f bc d7 76 d8 bc fd 00 1b bd
       -0.23944083 -0.008785135 -0.026423855 -0.03784274
000360 92 14 0d bd 53 e6 6e 3c d2 e5 20 bc 8f 18 f6 3b
       -0.034443446 0.014581281 -0.009820418 0.007510252
000370 27 a1 19 3e 1f 56 76 3e 20 cc 2b 3d af 2c 21 bc
       0.15002881 0.2405629 0.041942716 -0.009837314
000380 33 f1 20 bd 2f 48 ad 3b e7 ef 02 bc e3 46 0b 3d
       -0.039292526 0.005288146 -0.0079917675 0.03400315
000390 54 88 54 3b 7a d7 1e 3e 6a d7 00 bd 1c e2 15 3c
       0.003242989 0.15511885 -0.031455435 0.009148147
0003a0 53 e5 02 3c 31 5d 58 3c b8 e2 d5 3c 89 71 12 3d
       0.0079892455 0.013205812 0.026109084 0.035752807
0003b0 8c f8 83 bd a3 e8 d5 bd 77 ac a0 3c 2b 6b 86 3c
       -0.06443891 -0.104447626 0.019613488 0.016408524
0003c0 42 22 0b 3c ce 42 cf 38 31 3b fe bb 1a 63 f1 39
       0.008492054 9.8829725e-05 -0.007758521 0.00046040938
0003d0 8f 06 0a 3d 9d 71 15 3d 21 9d 19 3c 6e 2f 53 3d
       0.03369766 0.036485303 0.009375841 0.051558904
0003e0 8a 58 18 bc ff 75 b0 3b 25 33 35 3b db ee 57 3c
       -0.009298453 0.00538516 0.0027648893 0.013179506
0003f0 fa 20 60 37 a6 4e 9f 3c e4 25 09 bc 6d 23 34 3c
       1.3359118e-05 0.019446682 -0.00837085 0.010994774

fc1.bias f4 [256]
000000 c8 e3 97 bd d1 79 0c be e8 ee a3 3c e9 7b 80 bd
       -0.07416493 -0.13718344 0.02001138 -0.06273634
000010 44 ca e0 bc 3c b9 01 be cd ba 5c be d7 16 16 be
       -0.027440198 -0.12668318 -0.21555634 -0.1465715
000020 5e 99 fe bd 34 f7 24 bb 6a 6a 1e be 1f 0f be bc
       -0.12431596 -0.0025171759 -0.15470281 -0.02320057
000030 10 63 7d bd 84 f6 bc 3d 10 b3 7c be 1f 9c 01 3d
       -0.06186205 0.092267066 -0.24677682 0.03164303
000040 fc ce 06 3e e9 b6 1a be 9f 6f b3 bd ca 77 1c be
       0.13164896 -0.15108837 -0.087615244 -0.15280071
000050 44 8f 7a be 82 79 58 be 4c 33 1b be bf a9 f4 bd
       -0.24468714 -0.21140102 -0.15156287 -0.11946439
000060 48 74 d1 3d 0c 06 ef 3c 66 05 1f be 94 c1 bf 3d
       0.10227257 0.029177688 -0.15529403 0.09363094
000070 1f 19 16 be 0e 7c 4e bd c5 83 89 bc 87 a1 f1 bd
       -0.1465802 -0.050411277 -0.016786465 -0.11798387
000080 8b e7 47 3d c5 bd c4 bd ec ec 83 be 21 ed b6 3d
       0.0488048 -0.09606508 -0.25766695 0.089319475
000090 cf 82 67 bc 1c 95 88 bc 68 d1 89 bd 09 e9 b3 bc
       -0.014130308 -0.016672663 -0.06729394 -0.021961706
0000a0 4b 6a 56 bc 47 66 cc bd d8 43 38 be 7c a4 4a 3d
       -0.013086866 -0.09980445 -0.1799463 0.04947327
0000b0 73 47 10 bd be 84 bf be 49 9e 0c be 24 3b 64 be
       -0.03522439 -0.37405962 -0.13732256 -0.22288185
0000c0 ce a5 45 bb 9c 1f f2 bd f2 f4 51 be 86 8c 05 3e
       -0.0030158642 -0.11822435 -0.20503595 0.13041887
0000d0 53 22 07 3d 13 26 bf 3d 5b 07 be bc d4 38 63 bd
       0.03299172 0.09333434 -0.023196867 -0.055474117
0000e0 c3 7b da bd dc 48 23 be 71 a8 36 be 65 d8 2e be
       -0.10668137 -0.15945762 -0.17837693 -0.17074735
0000f0 43 05 69 bc 02 0d 4b be 0a b1 fd bd c6 23 84 3c
       -0.014222446 -0.19829181 -0.12387283 0.01613034
000100 4a 44 8d be 06 4c 96 3c 9a a3 2a bd 81 da ed bc
       -0.27591163 0.018346798 -0.04165993 -0.029034855
000110 e7 55 f6 bd fb c3 8d 3d 69 d2 6e be bb 0b 7d bd
       -0.12028103 0.06922146 -0.23322453 -0.061778765
000120 a2 25 90 3d f1 0a e6 bd 1b 16 de 3d ff d7 a7 3d
       0.07038428 -0.11232556 0.1084406 0.08195495
000130 d8 2d c0 bb bd c9 b1 bd da 3f 1b bd a5 75 d4 bc
       -0.00586484 -0.08681057 -0.03790269 -0.025935004
000140 28 6e 0f be 39 19 b5 3d ce 9c 93 3d 0e 8d 85 bd
       -0.14006865 0.088427015 0.072076425 -0.06521045
000150 d5 88 b7 bb 1a 98 9d bd 5b 61 3a be dc 13 95 be
       -0.0056010284 -0.07695027 -0.182012 -0.29116714
000160 c2 4e 61 be b2 3e 3b be 54 62 9c bd 47 39 c5 3c
       -0.220027 -0.18285635 -0.07635942 0.024075164
000170 6f 0f d6 3d cc db 22 be cc 7c 1d be aa 46 d0 3d
       0.104521625 -0.15904158 -0.15379637 0.10169728
000180 81 b4 f0 bd 36 0d 51 bd dd 9e 97 3d 32 aa f1 3d
       -0.117531784 -0.05103799 0.07403348 0.1180004
000190 aa c1 23 bb 2a 9a fa bc 50 af 9b bd 87 1c 8b bd
       -0.002498726 -0.03059109 -0.076017976 -0.067925505
0001a0 19 cc 9c 3c 0a de 70 bd 66 fe 13 be d9 46 99 3d
       0.01914029 -0.058805503 -0.14452514 0.07484216
0001b0 05 5c de bd df 76 02 3d 85 5f 86 3d a2 45 90 3d
       -0.10857395 0.031851646 0.06561188 0.070445314
0001c0 38 23 87 3b 74 f6 80 bd 62 a9 9a 3c 58 1d 86 3d
       0.0041240714 -0.06297007 0.018879596 0.065485656
0001d0 9a c2 8f bd 80 68 3e be 34 90 93 3d 67 e2 e9 bc
       -0.07019539 -0.18594551 0.07205239 -0.02855034
0001e0 8f 1b 29 3d 34 89 0c be 0f c2 e3 bd 48 6d 9b be
       0.041286048 -0.13724214 -0.11120998 -0.30356812
0001f0 d7 9d 32 3b 6b 65 d1 3d c6 54 0b bd 32 ff b6 3d
       0.0027254724 0.10224422 -0.034016393 0.089353934
000200 12 f9 78 3d 94 e6 aa be 83 ba be 3d b9 e3 b0 bd
       0.060784407 -0.33379042 0.09312918 -0.08637185
000210 9e ea 04 3e f9 e2 90 bc c6 f3 af bd 41 86 e2 3d
       0.12980124 -0.017686354 -0.08591418 0.11060763
000220 d0 ae 20 be c6 12 4e bd 11 25 d6 bd 61 de be bd
       -0.15691686 -0.050310872 -0.104562886 -0.09319759
000230 28 f8 1f be b1 c9 c2 3d fa 02 c3 bd d1 df 12 bd
       -0.15622008 0.09511126 -0.09522052 -0.03585798
000240 96 75 3d 3c b4 94 07 3e 62 21 2b bc 18 5e 1e be
       0.011563679 0.1324032 -0.010444971 -0.15465581
000250 c4 b4 80 be 59 32 be bd 9c da 10 be 45 79 01 be
       -0.25137913 -0.09286947 -0.14145893 -0.12643917
000260 80 10 5e bd 02 c2 cd 3d 32 8a e6 bd 9f ea 4c 3d
       -0.054214954 0.1004677 -0.112568274 0.05002844
000270 58 bf 0f be 07 75 ba 3d a9 db 80 3d 16 ba 16 bd
       -0.14037836 0.091043524 0.06291897 -0.03679856
000280 53 7f f1 3d 07 44 b9 be 74 2d 3f be c0 83 19 be
       0.11791863 -0.36184713 -0.18669683 -0.14991665
000290 f6 2a a5 bd 82 a8 e6 3d d8 34 7e 3d d8 7f c1 3b
       -0.08064835 0.11262609 0.062062114 0.0059051327
0002a0 7a 07 15 be 4e 9e 93 be c1 6c 0f 3e 3d 3b d2 bd
       -0.14553633 -0.28831714 0.1400633 -0.10265205
0002b0 c9 a7 93 be 50 22 57 3d f8 f2 90 3d 2c af 95 bb
       -0.28838947 0.052522957 0.070775926 -0.0045680013
0002c0 1a b7 d3 bb be 64 8a bd b1 07 58 3b ee d4 21 be
       -0.0064610364 -0.06757496 0.0032963569 -0.15803882
0002d0 65 b8 03 3e 41 15 fa 3d 39 96 03 be 63 c2 99 3d
       0.1286331 0.12211085 -0.12850274 0.075077794
0002e0 92 eb 1e be ab 21 0e be 6d c6 25 bd 48 f3 dd bd
       -0.1551955 -0.13880031 -0.040472437 -0.10837418
0002f0 23 3f e3 3d 8d 74 28 bd 49 1b e8 bd 8f 79 8c be
       0.11096027 -0.041126776 -0.11333329 -0.27436492
000300 c3 50 94 3d 44 5e 92 3d 5f 47 4e bd fb b1 c1 3b
       0.072419666 0.07146886 -0.050361034 0.0059111095
000310 74 fa 00 be 28 3e b4 bb e6 c9 08 3e 11 db ad bd
       -0.1259554 -0.0055005737 0.13358268 -0.08489049
000320 b0 fc 26 bc 77 8c 55 be 4d ec 74 bd d7 44 8c be
       -0.010192081 -0.20854364 -0.059795666 -0.2739627
000330 3f 96 d0 bd 2a af 69 be 93 2f f0 3d cf ac 8d 3d
       -0.10184907 -0.22820726 0.11727824 0.06917726
000340 50 14 09 be 3a 78 2a be 74 d7 33 bc d7 2f 24 3d
       -0.13386655 -0.16647425 -0.010976661 0.040084686
000350 80 11 02 be aa 58 92 3c 64 a3 9a bc 09 7e c5 3c
       -0.12701988 0.017864544 -0.018876739 0.02410795
000360 7d 09 25 be 15 21 18 be c6 83 1a 3d bc e1 8d bd
       -0.161169 -0.1485637 0.037723325 -0.06927821
000370 ef a6 22 be d7 14 c6 3d 2b 6b ab bd db 05 93 bd
       -0.15883993 0.09671944 -0.0837005 -0.07178851
000380 6f 27 25 be b1 60 26 be d3 f6 55 be 04 50 e0 bd
       -0.16128324 -0.16247822 -0.20894937 -0.10952762
000390 82 ac a9 3d 37 93 aa 3d fa 5b 7e be 73 22 a1 3c
       0.082848564 0.0832886 -0.24839774 0.019669747
0003a0 6e 6e 0c bd 5e 46 01 be 50 59 0e be fe d6 2d bd
       -0.034285 -0.12624499 -0.13901258 -0.04244136
0003b0 52 df 23 bd dc a4 b9 3d 5b 2e 08 3e 8c f1 44 bd
       -0.040007897 0.090646476 0.13298933 -0.04808192
0003c0 c2 e2 c5 3d 76 a9 25 be b2 85 a6 bd c8 3c 4e be
       0.09662391 -0.16177925 -0.08130969 -0.20140374
0003d0 b6 d1 85 3c 72 e7 bb 3c 38 1d f9 bd 71 09 10 be
       0.01633535 0.02293751 -0.12163776 -0.14066102
0003e0 be fd 0f be 75 4d 01 be 59 0b 06 be 26 27 3e be
       -0.14061639 -0.12627204 -0.13090266 -0.18569621
0003f0 c8 56 fe bd 12 e7 c1 3d 20 b1 10 be ac c1 74 3c
       -0.12418896 0.09467901 -0.14130068 0.014938753

fc2.weight f4 [256, 258]
000000 a6 46 5d 39 4b de 66 36 e5 e7 19 3b 00 99 5e 39
       0.00021102521 3.4402062e-06 0.0023484167 0.00021228567
000010 53 b7 14 b5 ac e6 70 b9 9b 6b b7 3a f6 02 a7 37
       -5.540107e-07 -0.00022974116 0.0013993861 1.990933e-05
000020 c7 ab ab bb dd bc 59 3b 5f d8 c8 37 a8 f0 8a bb
       -0.0052389833 0.0033224144 2.3942614e-05 -0.0042401142
000030 95 b8 01 37 b7 4a ea bb a4 d2 41 ba 0a 82 6b bb
       7.7319755e-06 -0.00715002 -0.00073937536 -0.0035935664
000040 a7 20 16 bc 52 8d 04 3b e2 c9 a1 b9 27 e9 a3 b5
       -0.009163058 0.0020225835 -0.00030858727 -1.2212303e-06
000050 18 3a 67 38 4d 92 17 bb 9c be 93 37 6c 94 da 38
       5.5128796e-05 -0.0023127974 1.7612525e-05 0.00010422696
000060 70 0c 0e bc de 39 37 3b b0 9a 38 3b 2c 5c 2e bb
       -0.0086699575 0.0027958076 0.0028168373 -0.0026605232
000070 09 15 1a b8 47 31 48 34 77 28 f3 bb 33 63 d5 36
       -3.673605e-05 1.8644378e-07 -0.0074205953 6.359443e-06
000080 08 66 04 ba 4a 40 11 bc ff 4e 0a bc 9e 22 f1 bb
       -0.0005050604 -0.008865425 -0.008441686 -0.007358863
000090 69 9c 06 bb d3 3a 8b bc c2 fe 69 b9 34 c6 eb 35
       -0.0020540005 -0.016995823 -0.00022315516 1.7566549e-06
0000a0 ec a7 a3 b9 83 e6 3c b9 60 04 18 38 2c 64 3f bb
       -0.00031214894 -0.0001801495 3.62437e-05 -0.0029203994
0000b0 f6 e6 27 b4 6c 8b 90 bb 2f bc 3b 3a 72 98 49 39
       -1.563711e-07 -0.0044111516 0.00071615254 0.00019225644
0000c0 3c 62 15 35 88 e5 f1 b7 d0 d9 8a 38 4e b5 3f 3c
       5.5649775e-07 -2.8836323e-05 6.6209235e-05 0.011700941
0000d0 07 c1 11 3b 8e 41 3f bc ce fe 8d ba 99 b3 0c 38
       0.0022240297 -0.011673344 -0.0010833384 3.3545864e-05
0000e0 72 87 19 38 55 6a 1a ba d4 9f d2 38 82 fe 91 bb
       3.6604186e-05 -0.00058904785 0.000100433506 -0.0044553885
0000f0 31 a5 b7 bb f3 cb f6 ba 7c df 36 36 51 4e 8e bb
       -0.005604409 -0.0018829092 2.7250198e-06 -0.004342832
000100 a7 c3 20 bc eb 73 b0 3a 24 f6 f4 bb 2e 2a ae bb
       -0.009812272 0.0013462281 -0.0074756313 -0.005315087
000110 64 ca 32 b8 cc 35 33 bb 3c 97 e7 b8 96 d2 0b b7
       -4.2626998e-05 -0.0027345298 -0.00011043108 -8.3340765e-06
000120 23 38 c2 bb 1f 98 da b5 f1 46 1b bc f0 0e 6f bc
       -0.005927102 -1.6286539e-06 -0.009477363 -0.014590964
000130 43 00 97 bb 1d 83 cf 39 df 26 07 3a 2f 38 0f 3b
       -0.0046081855 0.00039579804 0.00051556336 0.0021853556
000140 74 46 3e 37 c4 c3 9e bb b0 8f 8e 3b 37 94 56 b6
       1.1341286e-05 -0.0048451144 0.004350625 -3.1974757e-06
000150 d2 a2 81 39 f4 70 b7 ba db 2f bb ba 9c b3 a6 ba
       0.00024726108 -0.0013995455 -0.001428123 -0.0012718323
000160 0a 09 d0 ba 68 98 d9 b9 cb f1 05 bc 03 ff 73 bb
       -0.0015871834 -0.00041503017 -0.008175324 -0.0037230856
000170 c2 b2 d7 bb d8 3c fc ba 84 e8 71 ba 31 6a 76 bc
       -0.006582589 -0.0019244207 -0.0009228068 -0.015039966
000180 14 d3 c0 b7 5b cb 2c ba 68 1a 3a bc 72 fe 37 bc
       -2.2986475e-05 -0.00065915816 -0.011358835 -0.011230098
000190 fe 5a b0 b9 03 da b5 bb 59 ed b3 38 3b e6 c1 b8
       -0.0003363713 -0.0055496707 8.5795946e-05 -9.245841e-05
0001a0 13 f4 05 bc 44 c4 04 3c 03 67 68 bb 63 d8 8d 3a
       -0.008175868 0.008103434 -0.003546179 0.0010821935
0001b0 5f 5b c0 b6 04 70 02 bc 61 ac d8 bb f0 67 8d bb
       -5.732683e-06 -0.007961277 -0.006612346 -0.004315369
0001c0 69 98 04 39 03 88 49 ba 0b 09 4d 3b 03 2a ab 3b
       0.00012645278 -0.0007687809 0.0031285908 0.005223514
0001d0 f3 98 e3 b8 4d 0c 09 bb b7 2a 4e 3b 0c 4b 34 bb
       -0.000108526925 -0.0020911873 0.0031458565 -0.0027510552
0001e0 f0 4a aa bb cb 2e 61 ba 89 ac c1 36 bf b9 91 39
       -0.0051969215 -0.00085900415 5.771934e-06 0.00027794947
0001f0 1a 77 25 3b 05 c1 01 bc c8 7a 54 3a b1 28 dc bb
       0.0025247992 -0.007919555 0.0008105454 -0.006718718
000200 b2 1f 46 3a 23 20 d1 bc 03 83 38 bc fc b3 bf 39
       0.00075578236 -0.02552802 -0.011261704 0.00036564458
000210 1c d7 9b bc 32 bb a6 ba 0e d0 6c bb 5b 39 3e bc
       -0.01902347 -0.0012720583 -0.0036134752 -0.011610354
000220 f3 d5 44 ba cd 19 26 bb 76 f3 38 37 78 7c 60 ba
       -0.00075086876 -0.0025344968 1.102394e-05 -0.0008563469
000230 fa 61 9e ba 70 8e e7 ba dc d8 9d ba 2a f3 15 bc
       -0.0012083643 -0.0017666351 -0.0012042779 -0.009152213
000240 da 87 0f 3b 3b 8b 8e bc 60 97 4a bb 68 2a 1d 37
       0.0021901042 -0.017400375 -0.003091298 9.367803e-06
000250 4e eb 74 bc d1 84 c7 36 1a 7c bc 37 d8 37 05 b7
       -0.014948679 5.946124e-06 2.2469136e-05 -7.94042e-06
000260 e3 09 83 39 05 bc da bb f2 70 79 b8 0c ef 07 bc
       0.00024993633 -0.0066752457 -5.9471415e-05 -0.008296739
000270 3f 41 b2 37 04 d2 70 bc 51 98 62 bb e5 33 a8 39
       2.1249636e-05 -0.014698509 -0.003457565 0.00032082121
000280 7f 9e 71 bc 65 ed 2a 3b 0e d1 a1 39 f2 6a 1c 37
       -0.014747261 0.002608144 0.0003086407 9.323225e-06
000290 dd bc d0 3a e5 67 1d bc c6 f7 a9 bb a8 34 08 b8
       0.0015925426 -0.00960729 -0.0051870076 -3.2473967e-05
0002a0 f6 55 96 b8 34 9a c9 bc 60 6d 04 bc 90 e9 12 37
       -7.168569e-05 -0.024609663 -0.008082718 8.756659e-06
0002b0 99 de b9 bb 72 a5 cb bb 30 c7 0c bb fe 98 ac 39
       -0.0056722877 -0.006214791 -0.002148103 0.00032920385
0002c0 3e 9c 29 3b 96 c3 a6 3a 09 9c 04 3b 54 86 9e b9
       0.002588048 0.0012723084 0.0020234606 -0.0003023619
0002d0 e3 51 d4 bb 7e 18 11 bc b5 ca e4 37 ae 6d 1c bb
       -0.006479488 -0.008855937 2.727411e-05 -0.0023869085
0002e0 7a 76 49 ba 0a fb be ba e1 30 d2 b8 df 9a 13 3a
       -0.0007685196 -0.0014570665 -0.00010022685 0.00056306826
0002f0 f4 20 31 bc 10 63 bc b8 ab 35 77 b8 f0 a9 ec bb
       -0.010811079 -8.9829904e-05 -5.893937e-05 -0.0072224066
000300 38 53 37 bc cd 7e 20 bb 2b 42 1e bb d8 a8 12 3b
       -0.0111892745 -0.0024489642 -0.0024148326 0.002237847
000310 ba 42 0d 3b 64 76 c8 3a d3 68 43 bc 6b a6 be 38
       0.0021554665 0.0015294072 -0.0119268475 9.090904e-05
000320 c4 38 5e 3a f1 b1 6a bb 82 0f c8 3a fc 57 33 ba
       0.00084770867 -0.0035811628 0.0015263411 -0.0006841419
000330 83 ec 31 b7 7a 25 16 3a 42 b1 49 bc 3d 16 f0 ba
       -1.0605089e-05 0.00057276303 -0.012310328 -0.0018317174
000340 c0 1a 27 39 3c b2 df ba e8 7f 65 bb e3 58 9d bc
       0.00015936326 -0.0017066668 -0.0035018865 -0.019207424
000350 e8 bd 5b b6 40 6d f9 b8 4e 6c 91 39 54 dc be bb
       -3.2744083e-06 -0.00011893595 0.00027737248 -0.005824605
000360 f6 8c 94 35 84 96 cb b6 7e 7d 4a bb 9b 03 a2 bb
       1.1067884e-06 -6.0673938e-06 -0.0030897553 -0.0049442775
000370 7a 57 c1 b6 34 f0 b4 bb 78 8d 77 3a 8d 07 a5 36
       -5.762032e-06 -0.0055217985 0.0009443383 4.918262e-06
000380 33 0e b7 3a 62 65 0e b9 aa 08 05 3b 44 32 32 bb
       0.0013966024 -0.00013579943 0.0020299354 -0.0027190605
000390 f8 7d b0 bb 04 7c aa bb 5f 90 cc ba 12 85 c4 3b
       -0.0053861104 -0.005202772 -0.0015606991 0.0059973085
0003a0 82 52 60 39 48 f3 fd 36 0f 05 19 3a 22 37 19 38
       0.00021393041 7.5683092e-06 0.00058372406 3.652939e-05
0003b0 76 d0 22 ba 6f 16 c2 ba bf 6f 5b bb bc c8 4d 39
       -0.00062108727 -0.0014807711 -0.0033483354 0.00019625103
0003c0 cf 62 2d bc 40 01 92 b7 f4 dc e6 3a fe b4 8e 36
       -0.01058264 -1.7405138e-05 0.0017613457 4.253e-06
0003d0 f2 9c ab bb 03 d4 12 bb 78 e3 8a 37 a7 44 81 bb
       -0.005237215 -0.00224042 1.6556805e-05 -0.0039449516
0003e0 26 3e 3c 39 47 09 db b5 bb 6d 65 37 72 9c d4 ba
       0.00017952229 -1.6319472e-06 1.3675012e-05 -0.0016220941
0003f0 aa a1 0e 37 3d f3 fb ba ed c2 b0 37 bb 2f 7f ba
       8.5015e-06 -0.0019222271 2.1071604e-05 -0.00097345904

fc2.bias f4 [256]
000000 44 87 02 be 08 20 b9 bd d2 96 e1 bc d3 e4 be 3c
       -0.12746912 -0.090393126 -0.027537737 0.023302471
000010 75 ea 20 bd 30 25 71 3c 30 b5 ef bb 3c a4 13 bd
       -0.039286096 0.014718339 -0.0073153004 -0.036045298
000020 cc 5b 75 bc ac d2 af bd af d1 1f 3b 99 99 df bb
       -0.014975499 -0.08585104 0.0024386456 -0.00682373
000030 b6 7b 13 bd bc fb c5 bc 11 35 a6 bb 68 df 3d bc
       -0.03600665 -0.024167888 -0.005072244 -0.011588909
000040 f9 4b d7 bc 43 c4 21 bd b9 82 ce bd d3 43 e9 bb
       -0.026281344 -0.03949381 -0.10083527 -0.007118681
000050 b3 a4 16 bd ac 52 a9 bd 2e 8b 0b bd 93 ca 14 bd
       -0.036778163 -0.082677215 -0.03406828 -0.036326002
000060 69 b4 29 bd 78 99 1a bd 7c b2 22 bd ee e0 00 bd
       -0.04143182 -0.037744015 -0.039720997 -0.03146451
000070 7d 42 ea bc 25 89 c4 bb 2b 8f ed 3c 30 2a 9f bd
       -0.028596157 -0.005997794 0.028998932 -0.077717185
000080 9e b6 bc bd 79 c7 2a bc 07 c7 78 bd a1 32 e3 bc
       -0.09214519 -0.010423535 -0.060736682 -0.027734103
000090 f7 e1 12 bd 75 b9 e9 bb e7 89 09 3c 61 96 1b be
       -0.035860028 -0.007132704 0.008394695 -0.15194084
0000a0 c4 a7 1c bd e1 24 87 bd ee 1f 58 3c cd 5d 61 bd
       -0.03824593 -0.06598831 0.013191206 -0.055021096
0000b0 ed 9f c9 bc 55 e5 ab bd 7b 83 87 bd 51 05 8c bd
       -0.024612391 -0.08393351 -0.06616875 -0.068369515
0000c0 1d d9 55 bc 46 10 08 be c5 be 4e bd 42 6c 0f bd
       -0.013052252 -0.13287458 -0.0504749 -0.035015352
0000d0 d1 ff 71 bd 07 84 b3 bc b8 40 a3 bd 25 8e 56 bc
       -0.059081856 -0.021913541 -0.079713285 -0.013095413
0000e0 12 47 82 3b 78 d4 0f bd 4c 25 c5 bc 66 4b 29 bd
       0.0039757574 -0.035114735 -0.024065636 -0.04133167
0000f0 73 d0 5b bd 84 f6 0d bd 56 59 32 bd 45 ac c5 3e
       -0.05366559 -0.034658924 -0.04354223 0.38607994
000100 7b ee 4a bb b8 70 6f bd 40 96 b2 bc fd 30 de bc
       -0.00309649 -0.058457106 -0.02180016 -0.027122969
000110 b0 a6 87 bd 1a c5 ce bd 17 ca 3a bd 4e d0 d3 bd
       -0.0662359 -0.10096188 -0.045602884 -0.10342465
000120 3f fd bc bd b5 13 6e bc 5d ab 21 bd e1 e0 18 be
       -0.0922799 -0.014531066 -0.039470065 -0.14929534
000130 17 31 d0 bc 6b b1 b7 bc 0f 31 05 bd ad 6b 37 be
       -0.025414033 -0.022423467 -0.03251749 -0.17912169
000140 ef 10 77 bd 7e ec c4 bb 20 bc 07 bc 7d 99 d3 bd
       -0.060318884 -0.0060096374 -0.008284599 -0.1033201
000150 f4 97 2b bc c4 38 82 bc 99 72 1a be c6 20 9e bb
       -0.01047324 -0.015896209 -0.15082778 -0.0048256842
000160 7c 29 2f bb f5 0a 24 be 64 c9 1b bd 04 21 83 bd
       -0.0026727607 -0.16019805 -0.038033858 -0.064027816
000170 bf 87 f4 bd da 0c be bc 3c 8c 8b bd 61 cc 6e bc
       -0.11939954 -0.023199487 -0.06813857 -0.014575095
000180 6f fe 69 bd 95 58 94 bd 4c 35 87 bc d8 43 5e bc
       -0.057127412 -0.07243458 -0.016504906 -0.01356598
000190 31 61 46 bd fc 71 dd bd c2 e8 75 bd 69 7c b0 bd
       -0.048432533 -0.108127564 -0.06003643 -0.08617479
0001a0 29 7b 63 bb 5e 79 fb bc 62 97 08 be 24 a7 05 be
       -0.003471086 -0.03069752 -0.13338998 -0.1305204
0001b0 4e cc e0 bc d9 f9 2f bd b7 8a 93 bd c4 43 d0 bd
       -0.02744117 -0.042962883 -0.07204192 -0.10169175
0001c0 62 45 ec bc f5 47 96 bd 76 62 c8 bc b7 ca ba 3b
       -0.028841678 -0.073379435 -0.024461012 0.005700435
0001d0 eb 0d b3 bd f7 65 6f 3d 05 46 a3 bb d5 33 1a 3c
       -0.08742889 0.05844685 -0.004982712 0.009411772
0001e0 1e 7a 76 bc 84 20 dc bc 02 23 7a bd 9d 99 cb bd
       -0.015043763 -0.026870973 -0.061068542 -0.09941409
0001f0 55 70 c7 bd a7 69 a5 bd b8 59 46 bd fb 3d f9 bc
       -0.097382225 -0.08076792 -0.048425406 -0.030425062
000200 40 ca 88 bd bd a1 4c bd 82 cd ae bb 5c 2e d4 bd
       -0.06679201 -0.049958933 -0.005334557 -0.10360405
000210 41 dd 93 bc 8c 4a f5 bd 99 5b 7b 3c 55 c0 36 be
       -0.018049838 -0.11977109 0.015341663 -0.17846806
000220 b1 bb 98 bc 87 dd 01 bd 26 42 f4 3b 18 c4 2d bb
       -0.018644186 -0.031705406 0.0074541746 -0.0026514586
000230 c5 40 5a bd d0 b1 b0 bc 61 df 50 bc 78 3a ac bd
       -0.053284425 -0.021569163 -0.01274857 -0.084095895
000240 b7 eb 62 bc 6d dd 1c be 60 c0 fc bb db 76 c4 bd
       -0.013850144 -0.15318842 -0.0077133626 -0.095929824
000250 66 6b b1 bd b3 3a 7c bd ba 51 ed bb be 7c bc bc
       -0.08663063 -0.061579417 -0.0072424086 -0.0230087
000260 e3 3d ca bd 95 7c 5b bc 6d 2f a2 bc 8e cc b8 bc
       -0.09875085 -0.013396402 -0.019798005 -0.022558477
000270 79 17 99 bd db ed be bd d4 14 f6 bc a0 17 86 bc
       -0.0747518 -0.09322711 -0.030039228 -0.016368687
000280 04 0a 17 be c5 d7 b8 bd 6f 5e 33 bc 28 a1 f5 bb
       -0.14749914 -0.0902553 -0.010947808 -0.007496018
000290 c9 b4 3e bc 36 52 83 bd 36 5a be bd fd b3 2a bc
       -0.011639782 -0.06412165 -0.0929455 -0.010418889
0002a0 96 09 ec bc b9 ca ee bc 13 69 b3 bd db c1 bd 3a
       -0.028813165 -0.0291494 -0.08760276 0.0014477329
0002b0 c2 b4 d9 bd 8a 94 4f bd 80 cd 7a bc b3 50 bd bd
       -0.1063018 -0.050678767 -0.015307784 -0.09243908
0002c0 d7 9b 1f bc ef 14 99 bd 9a b6 ae bc 6d 50 82 bd
       -0.009741745 -0.07474696 -0.021327306 -0.06362996
0002d0 62 19 31 3c 8c 41 fa bc 77 49 10 bd 4e de f0 bc
       0.010809274 -0.030548833 -0.03522631 -0.029402878
0002e0 11 cf 45 bd d3 3b cd bd 9e fa 98 ba 1d e3 ba bb
       -0.048293177 -0.10021176 -0.001167137 -0.0057033435
0002f0 13 0e 0e be cf 1d 05 bc e1 4e a1 bd ab d6 be bc
       -0.13872556 -0.008124783 -0.07876373 -0.023295721
000300 95 64 98 bd ca 9a 71 bd b6 2e 13 bd 28 c8 40 bd
       -0.074410595 -0.05898551 -0.03593322 -0.047065884
000310 ba fd b6 bd 26 68 95 bd a0 5e 87 ba 81 b5 57 bb
       -0.08935113 -0.07295255 -0.0010327883 -0.0032914581
000320 9a ec 25 bd 18 94 0e be e1 cb 16 bd 1b c0 d6 bd
       -0.040508844 -0.13923681 -0.036815528 -0.1048586
000330 29 26 85 bd 74 66 00 bd ba 54 da bd 51 85 85 ba
       -0.06501419 -0.031347707 -0.106606916 -0.0010186826
000340 dd d5 b6 bd 52 a0 21 be f1 16 fe bc dc 84 d8 bb
       -0.0892751 -0.15783814 -0.031016799 -0.006607635
000350 73 0d 54 bd 87 bb 66 3c a1 47 d4 bb a0 83 08 bd
       -0.05177064 0.014082796 -0.0064782654 -0.033328652
000360 ba 89 90 bc 17 e5 7a bc 04 30 b3 bd 86 ce 6f bc
       -0.017643798 -0.015313408 -0.08749393 -0.014636641
000370 46 e9 ec bc 1d b8 48 bd 9e 88 e8 bb 01 09 87 bb
       -0.028919827 -0.04900371 -0.007096364 -0.0041209464
000380 e5 2d 09 bd 20 ca af bd 4d 6a 41 bd 1b 83 0d bd
       -0.033491034 -0.08583474 -0.047220517 -0.03454886
000390 05 91 14 bd a0 b3 a1 bc 7e d7 cd bd 88 ce a7 bd
       -0.036271114 -0.019738972 -0.100508675 -0.081936896
0003a0 eb 14 0d bd 22 0f a5 bd 63 4e 16 bb 46 76 4f bd
       -0.034443777 -0.08059527 -0.0022934906 -0.050649904
0003b0 6b 55 18 bd 80 86 23 3c 2f 07 11 be e4 4c 56 bd
       -0.037190836 0.009980798 -0.14162897 -0.052319422
0003c0 a5 a2 2b be 22 e7 cc bd 1d 77 5d bd 4e f0 e3 bb
       -0.16761263 -0.100050226 -0.054068673 -0.006956137
0003d0 42 d7 4b bd aa db 5f bd 81 ee 98 bd f0 d2 aa bd
       -0.049765833 -0.054652847 -0.07467366 -0.083410144
0003e0 e8 34 08 bd f8 56 b1 bd ff a8 55 bd 57 46 0d bd
       -0.03325358 -0.08659166 -0.05216312 -0.03449091
0003f0 48 34 b4 bd 98 0f b3 bd c7 ac e9 bd df 39 70 be
       -0.08799034 -0.08743209 -0.11409908 -0.23459576

fc3.weight f4 [128, 256]
000000 d4 09 15 b7 1e ee 5c 39 1e 78 08 bb 89 d8 97 39
       -8.88338e-06 0.0002106954 -0.0020823549 0.00028962296
000010 da d4 1c 38 ea 8e 9e 39 6c 89 88 b5 e6 fc 93 39
       3.739153e-05 0.00030242588 -1.0172785e-06 0.0002822645
000020 12 3f 77 36 76 03 38 37 e0 62 ed 37 9e 74 92 38
       3.684258e-06 1.096806e-05 2.8298644e-05 6.983544e-05
000030 b7 14 be 37 db f6 25 39 d2 a3 17 ba e1 c3 22 39
       2.2659411e-05 0.00015827587 -0.0005784604 0.00015522495
000040 0a e1 29 b7 ec 3b 9e b9 aa 56 5e b8 02 36 20 b7
       -1.0125581e-05 -0.00030180754 -5.3009637e-05 -9.549318e-06
000050 a9 27 52 bd 04 f5 31 38 1e aa b4 39 dd 8b 14 b9
       -0.051307354 4.2428277e-05 0.00034459023 -0.00014166483
000060 28 6a 30 39 2c 34 2f 39 7e 01 8c b8 cc f4 eb b9
       0.00016824214 0.00016708736 -6.675998e-05 -0.0004500508
000070 a5 ab 35 39 7f df c2 b8 78 cf a5 3c 74 36 c1 38
       0.00017325448 -9.29227e-05 0.02024053 9.2131e-05
000080 db db 57 39 fb f6 dd b7 7e 09 74 38 53 c8 bc b6
       0.000205859 -2.6460262e-05 5.8182974e-05 -5.6261574e-06
000090 25 71 89 39 6f 54 40 b6 a6 06 b9 39 56 0d 0c ba
       0.00026214976 -2.8659376e-06 0.00035290903 -0.00053425634
0000a0 88 4a 55 b7 fc 52 3e 39 4b 24 01 3a 9e 1b 48 39
       -1.27131425e-05 0.00018150726 0.00049263675 0.00019083775
0000b0 f2 35 ae 39 05 b4 b6 38 70 b5 8b 39 4d b0 13 38
       0.0003322806 8.7119675e-05 0.00026647327 3.5211724e-05
0000c0 ee 80 e8 3b 84 cf 5f bd 7b 71 e4 38 78 55 ba b7
       0.0070954477 -0.05464126 0.000108930246 -2.2212727e-05
0000d0 2a 17 bf b8 18 cf 97 38 01 32 a2 38 42 24 69 39
       -9.1119044e-05 7.238815e-05 7.734076e-05 0.00022234119
0000e0 19 1a 28 39 66 4c b4 39 ab 30 a8 35 16 46 f4 b7
       0.0001603145 0.00034389197 1.253114e-06 -2.9119703e-05
0000f0 7c e7 38 39 a0 ad 48 39 8d a1 9b 39 8b d9 49 bc
       0.00017633842 0.00019138167 0.00029684269 -0.012319933
000100 1b 19 7f 36 11 fb 55 38 d7 91 80 39 36 63 38 38
       3.8012574e-06 5.101698e-05 0.00024522722 4.3961416e-05
000110 0f 23 47 39 88 c2 76 37 2d f0 63 39 2b a7 58 37
       0.00018991179 1.4708035e-05 0.0002173788 1.2913525e-05
000120 43 0f c6 39 25 52 b5 3b bc 37 1f 39 15 cc 4d ba
       0.00037776874 0.005533474 0.00015184184 -0.000785054
000130 53 13 59 39 8b 65 8e 39 86 3a a4 b6 d0 4e 08 b9
       0.00020701931 0.00027160006 -4.894394e-06 -0.0001299933
000140 1a ed 0c 39 1b 1c c5 b6 d8 9b c6 37 29 6a 1e b8
       0.00013439768 -5.8743294e-06 2.367601e-05 -3.7769005e-05
000150 7b da 0a b8 7f 54 0b b7 b6 0d 06 ba b9 eb 76 b7
       -3.310524e-05 -8.304719e-06 -0.00051137374 -1.4717626e-05
000160 16 6e 25 39 2b 87 2e 3b 85 8e 48 39 3a 76 af 39
       0.00015776636 0.002663086 0.00019126579 0.00033466687
000170 17 87 0c 3a 80 7d de 38 c4 9f 84 39 de 0e 8f 39
       0.0005360706 0.00010609161 0.00025296037 0.00027286162
000180 e7 ff 85 39 6c 92 51 38 e6 4a 52 39 09 dc 29 39
       0.000255584 4.996585e-05 0.00020055062 0.00016199065
000190 dd 2e fd ba 5a 6b d8 b7 d9 2b c7 38 60 0d 1e 39
       -0.0019316335 -2.5799196e-05 9.497227e-05 0.00015073037
0001a0 d6 ca 89 39 6a 7c c0 38 71 53 db bd c5 49 30 b9
       0.000262818 9.178447e-05 -0.107092746 -0.00016812149
0001b0 77 bc 76 39 e6 20 7c 3a 83 43 1b b8 a8 b3 f8 3b
       0.00023530597 0.00096179394 -3.7017755e-05 0.007589776
0001c0 e5 e1 06 39 76 56 a5 b9 06 6c 59 39 aa 9f a6 bb
       0.00012863388 -0.0003153567 0.00020734975 -0.0050849514
0001d0 20 c8 b4 39 99 0e a8 3d 22 44 b7 b6 d9 cb ef b9
       0.0003448138 0.08205909 -5.4617567e-06 -0.0004573751
0001e0 01 a4 c1 b7 b6 6d 8e 3b e8 54 7e 34 81 1c 26 39
       -2.3083763e-05 0.0043465747 2.3686482e-07 0.00015841612
0001f0 db 89 fa 38 13 77 06 39 79 46 08 b7 e0 83 fa 38
       0.000119466065 0.00012823594 -8.12264e-06 0.000119454926
000200 47 c7 cf 37 e9 35 cf 38 4a 3a bd 38 a0 b1 85 b9
       2.4769119e-05 9.880571e-05 9.0230795e-05 -0.00025500078
000210 d6 44 9d b6 d5 14 26 bb 23 a4 bb 39 86 03 ea 37
       -4.686978e-06 -0.0025342007 0.0003578971 2.7896614e-05
000220 b9 cf 07 38 4e f3 15 39 41 7c 83 39 ca 53 db b5
       3.2379965e-05 0.00014300385 0.00025078843 -1.6341157e-06
000230 54 94 c7 39 2f 7b dd 38 de 9f 52 b6 b0 f8 b6 b7
       0.0003806675 0.00010561046 -3.1385493e-06 -2.1811895e-05
000240 0b 01 95 39 4a b3 6d b9 48 14 1b 39 19 ad 5d 38
       0.00028420272 -0.00022668872 0.00014789507 5.2851716e-05
000250 ae ea ae b7 a6 af 54 39 2d 71 08 39 28 1f 00 b7
       -2.0851698e-05 0.0002028333 0.00013012132 -7.636649e-06
000260 ae 9d 6d 3a 3e 24 45 b6 2c ca 54 39 58 75 02 39
       0.00090643286 -2.9376383e-06 0.0002029321 0.0001244148
000270 e0 a5 63 39 75 bb 93 b8 d2 f9 cf 39 de 17 ea b6
       0.000217102 -7.044423e-05 0.00039668247 -6.976522e-06
000280 eb 15 68 39 0d 57 38 39 04 20 0a 39 f3 4a 85 b6
       0.00022133409 0.00017580036 0.00013172632 -3.972434e-06
000290 a6 41 e9 b6 28 a9 3c b9 e7 f6 53 38 22 9e d8 36
       -6.9515836e-06 -0.00017992093 5.0536266e-05 6.4557107e-06
0002a0 4c c2 69 39 56 38 fe 39 25 62 63 39 24 39 80 39
       0.00022292993 0.0004848863 0.00021684969 0.00024456636
0002b0 28 c8 1c 39 5f df 95 39 12 0c 6a 37 3d 3a e0 b9
       0.00014951883 0.0002858592 1.3950297e-05 -0.00042768
0002c0 d9 df 0b b6 e8 9d 76 39 b4 28 db b7 22 28 b4 38
       -2.084291e-06 0.00023519213 -2.6125788e-05 8.590544e-05
0002d0 2e 47 97 39 0f 7d 93 39 da df 04 38 4c 05 8b 36
       0.00028853997 0.000281312 3.167973e-05 4.1431394e-06
0002e0 78 84 0b 38 3e 8f f0 b7 e1 7d 74 b8 c8 bd aa b6
       3.3263554e-05 -2.8676932e-05 -5.8291367e-05 -5.0884883e-06
0002f0 22 53 5c bb ea 7d 1d 3a 13 15 63 38 68 24 db 39
       -0.0033618887 0.00060078374 5.4140644e-05 0.0004179806
000300 9a b8 f9 bb d8 d6 88 38 20 be 01 b7 ec ef 25 39
       -0.007620883 6.525003e-05 -7.733266e-06 0.00015825004
000310 df 37 a9 39 4b 3c ac 38 b6 eb 13 38 1f c9 72 39
       0.0003227582 8.2128296e-05 3.5267054e-05 0.00023153842
000320 78 59 30 ba 57 15 2a b9 34 10 9f 38 c0 d7 1d 39
       -0.0006727199 -0.00016220413 7.584729e-05 0.0001505306
000330 ce 79 26 36 57 e9 25 39 9c 8e ce b9 4e 4e 01 39
       2.4806827e-06 0.00015822552 -0.00039397634 0.0001233157
000340 ec b5 bf 38 c8 3b e2 b8 6c 35 8d 39 57 6d 3e b4
       9.141475e-05 -0.00010787655 0.00026933418 -1.7734907e-07
000350 01 af 48 38 41 6e 6a 39 b6 a3 5b 39 1f d1 04 b7
       4.78467e-05 0.00022357052 0.00020946455 -7.916503e-06
000360 87 9b c7 b5 7c 87 d9 39 c2 51 7e 39 00 e2 e1 b6
       -1.487192e-06 0.0004149041 0.00024253785 -6.7318324e-06
000370 6b ab 70 39 a0 48 4f 38 6c 23 08 39 56 30 98 b6
       0.00022952042 4.9420283e-05 0.00012983166 -4.53558e-06
000380 fb 80 09 39 b8 9a 17 39 f5 65 e2 b7 46 ed 7a b7
       0.00013113387 0.0001445812 -2.6988777e-05 -1.4956406e-05
000390 1c 0f 97 39 e8 cc bd b2 5f f8 6b b9 55 9e d2 38
       0.00028812222 -2.2095676e-08 -0.00022503872 0.00010043072
0003a0 76 d0 79 39 8f fe 11 39 3f cb 75 ba ec 9e 7a 39
       0.00023824148 0.00013923108 -0.00093762943 0.00023901061
0003b0 d8 97 80 39 7b 9c 6f 39 39 51 13 39 30 34 08 b9
       0.00024527195 0.0002285111 0.0001404927 -0.00012989412
0003c0 8c c7 47 b9 a4 c3 3c 39 6e 3c e3 38 d5 aa a7 b7
       -0.00019052456 0.00018001959 0.000108354594 -1.9987501e-05
0003d0 41 73 a6 38 5e 53 78 38 0f 63 9b 38 02 2a 42 39
       7.9369645e-05 5.920545e-05 7.409427e-05 0.00018516931
0003e0 33 50 a5 38 c3 57 6b 39 bd 62 1e 39 d7 af 4b 39
       7.8827514e-05 0.0002244404 0.00015104837 0.00019425094
0003f0 b9 c8 39 39 cd e3 23 39 f0 02 d1 b6 25 b7 ce 3c
       0.0001771775 0.00015629754 -6.2290273e-06 0.025233814

fc3.bias f4 [128]
000000 d6 4b f4 bd 53 b2 eb bc 39 3a 02 bd eb a3 3a 3d
       -0.11928527 -0.028771555 -0.031793807 0.04556648
000010 1a ad 24 bd 34 24 7c 3d e2 43 e6 bd b3 7c 3b bd
       -0.040204145 0.061557963 -0.11243416 -0.04577322
000020 32 63 98 bd 92 99 d3 bc 9f 34 00 bd 91 e2 75 bc
       -0.07440795 -0.025830064 -0.031300183 -0.015007631
000030 c1 15 b2 bd 5e fb 9b bd d6 a5 9b 3d b5 e0 e5 3d
       -0.086955555 -0.07616304 0.0759999 0.112245
000040 22 6f 87 bc cf 89 9a bc 24 f3 4e bd 2d f5 2a bd
       -0.016532484 -0.01886454 -0.050524846 -0.041737724
000050 7d 9e a0 3d 56 e7 26 bc 8d 65 3d bd 50 ca cf bb
       0.07842729 -0.010186991 -0.046239424 -0.006341256
000060 b4 dc fe bd 88 87 dd bd 02 66 46 bd 56 0e b1 3d
       -0.124444395 -0.10816866 -0.048437126 0.086453125
000070 94 95 3e bb fa a7 6f 3d e1 df b5 bd cc b8 bf ba
       -0.0029080855 0.058509804 -0.08880592 -0.0014627217
000080 3f f4 c8 bd 7a 11 93 bd 28 c2 57 bd 45 e6 29 bd
       -0.09812211 -0.07181068 -0.052675396 -0.041479368
000090 43 fc 16 bd 28 44 6c bd 8e 2a 8f bc 7b 1f 85 bc
       -0.03686167 -0.057682186 -0.017476346 -0.016250363
0000a0 61 a3 23 bd 65 86 50 bd 09 65 9b bc 99 df 45 bd
       -0.039950732 -0.05090942 -0.018969076 -0.048308942
0000b0 9f 78 08 bd 16 93 27 bd 49 a2 89 bd c5 e6 af bc
       -0.03331816 -0.040911756 -0.067204066 -0.021472344
0000c0 83 d7 de bd c8 d0 3f 3b 05 30 1d 3d 47 fa 80 bd
       -0.10880949 0.002926873 0.038375873 -0.062977366
0000d0 f8 31 64 3a d5 d5 13 bd 71 a3 8a bb 57 c2 97 bd
       0.00087049557 -0.036092598 -0.0042309095 -0.07410114
0000e0 56 31 89 bd 28 bd d2 bc 45 a5 b0 3a 3b 61 1e 3d
       -0.06698863 -0.025724962 0.0013476989 0.038666945
0000f0 51 a5 45 bd 25 71 91 bd 27 fc 2b bd 65 29 47 bc
       -0.04825336 -0.07101659 -0.041988518 -0.012155865
000100 e7 1d 13 be 78 b6 de bc dd 43 08 bd 2e 49 82 bc
       -0.14366876 -0.027186617 -0.033267844 -0.015904035
000110 91 65 21 bd af eb cf bd 83 72 9e bd 26 70 c9 3c
       -0.039403502 -0.10152375 -0.07736685 0.02458961
000120 32 b8 67 bd b6 20 67 bc 92 45 cc bc f8 f9 73 bd
       -0.056572147 -0.01410692 -0.024935517 -0.05956456
000130 fd 44 06 3e 9b e0 7c bc 0d 47 97 3b dd 08 03 3e
       0.13112254 -0.0154344095 0.004616624 0.1279635
000140 13 30 cd bb e9 79 89 3d 0e 0b 26 3c f5 73 fc bc
       -0.0062618344 0.06712706 0.010134472 -0.030817011
000150 f8 6e c9 bc 2e 76 c0 bd 79 07 57 3d 14 e0 80 3d
       -0.024589047 -0.09397541 0.05249736 0.062927395
000160 77 d9 c6 bd 6b 15 00 bc 3c b9 14 bd 02 99 1d bd
       -0.09709447 -0.007817606 -0.036309466 -0.038475998
000170 e2 e9 23 bd 02 f8 85 bd 9d 27 c0 bb dc 10 9f bd
       -0.04001797 -0.06541444 -0.0058640973 -0.077668875
000180 c4 f7 3d 3b b9 92 09 bd 5a 32 b3 bd 0e 30 45 bd
       0.002898679 -0.03358719 -0.08749838 -0.04814153
000190 e1 0a 90 bd 87 5f b8 3d da 79 ff bc 86 30 ba bd
       -0.07033325 0.090025954 -0.031186033 -0.09091286
0001a0 b0 a9 a3 bd 21 f2 b0 bc d7 f1 28 be 19 4f 20 3d
       -0.0799135 -0.021599831 -0.16498505 0.039137933
0001b0 ff 2c b0 bc ae 2f f3 bb bd d8 9f bd 2b 28 ae 3d
       -0.02150583 -0.0074214553 -0.078050114 0.08503755
0001c0 93 04 a3 3c f1 b4 51 bd 4e 02 3c bd fd 1c 7e bd
       0.019899642 -0.05119795 -0.045900635 -0.062039364
0001d0 5a 9f 84 3b e4 d8 14 bd 57 d0 38 bd 7e 41 49 bb
       0.0040473165 -0.036339656 -0.045120563 -0.0030709202
0001e0 c3 f5 5a bc 05 5d 62 bd e9 68 13 be 68 75 9c 3c
       -0.013364258 -0.05526449 -0.14395489 0.019098952
0001f0 0c a3 bc 3b a3 9a 02 bd 50 c4 2e bd d9 25 7b bb
       0.0057567414 -0.031885754 -0.042667687 -0.003832212

fc4.weight f4 [1, 128]
000000 e8 2b 97 3c bf b8 29 3d 19 0b d2 bb 26 19 1a bc
       0.018453553 0.041435953 -0.0064100143 -0.00940541
000010 ac 5c 66 3d 1c af 4a 3d b7 4a a7 bc 49 fc 27 3d
       0.056240723 0.049483404 -0.020421369 0.041012082
000020 8d 32 3a 3d 0a 34 2c 3d 07 07 30 3d 6e e8 2e 3d
       0.045458365 0.042041816 0.04297545 0.04270213
000030 d5 aa 7a bc eb 2b ac 3c 20 29 26 bd 50 06 3e 3d
       -0.015299519 0.021017035 -0.040566564 0.04639274
000040 2e 7f 29 3d b2 4f b2 bc 7d d2 e3 bc 00 e4 30 3d
       0.041381054 -0.021766517 -0.02781033 0.043186188
000050 23 69 6b 3d 7f c6 36 3d 2c 3f 91 3b 19 3a 62 3b
       0.057473313 0.044622894 0.0044325795 0.0034519492
000060 27 05 34 3d b6 01 3b 3d b0 d3 26 bb 73 ce 71 3d
       0.043950226 0.04565593 -0.0025455765 0.059034776
000070 c5 db 48 3d cd da 62 bc 28 96 9c 3c 6b 28 6f 3d
       0.049037714 -0.0138461115 0.019114569 0.058388155
000080 6a cd 3b 3d 32 c5 0b 3c 85 66 2e 3d 84 55 2b 3d
       0.045850195 0.008530902 0.04257824 0.0418296
000090 09 5a 23 3d cf ca 2c 3d 66 9b 29 3d e8 ea 1f 3d
       0.039880786 0.0421856 0.041407965 0.039042383
0000a0 f7 66 32 3d d7 9d 33 3d 2e 4e 71 3d af 3d 31 3d
       0.043555226 0.0438517 0.05891245 0.043271717
0000b0 49 ce 30 3d ac 80 c1 3c 53 d9 30 3d 46 f2 5b 3a
       0.04316548 0.023620926 0.043176007 0.00083902886
0000c0 e9 d5 bd 3c 83 45 67 bb 9b 5b 2c 3d 64 17 2c 3d
       0.02317329 -0.0035289235 0.04207955 0.042014495
0000d0 4c 8f 27 3d b9 dd 2f 3d 5f 43 2d 3d fa 29 26 3a
       0.040908143 0.04293606 0.04230058 0.00063386525
0000e0 40 59 01 bc c5 85 b8 bb ba cc 5c bc 82 1d 59 3b
       -0.007894814 -0.005631181 -0.013476545 0.003312916
0000f0 29 1d 30 3d 9d a9 35 3d 61 38 37 3d f1 25 32 3d
       0.04299656 0.04435121 0.0447315 0.043493215
000100 78 e5 72 3d de b4 dd bc fe 44 2f 3d 76 6e 0a bd
       0.05930087 -0.027063783 0.042790405 -0.03379675
000110 d2 ed af bc 52 61 37 3d 68 5c 39 3d 86 51 aa 3c
       -0.021475706 0.044770546 0.04525414 0.020790827
000120 89 13 b5 bc 51 f4 2a 3d 58 85 34 3d 8e 1d 36 3d
       -0.022104042 0.041736905 0.04407248 0.04446178
000130 85 47 7b 3d 00 72 c2 bb 89 1c 2c 3d ca d3 62 bd
       0.061347503 -0.005934 0.0420194 -0.05537776
000140 94 4a 2a 3d 95 c3 53 3d a9 a5 c3 39 50 3a e5 ba
       0.04157503 0.051700193 0.00037316725 -0.0017488692
000150 0f 14 72 3d d6 2e 9f 3c 75 6f 9a 3d 47 55 83 3d
       0.05910116 0.019431513 0.0754079 0.0641275
000160 4e 83 04 3c b3 42 6b bc 09 75 8f bc 80 2d 28 3d
       0.008087946 -0.014359164 -0.017511861 0.041059017
000170 7b bf 07 bc d5 a4 0d 3b 95 b9 27 3d 33 7b 34 3d
       -0.008285399 0.002161314 0.04094847 0.044062804
000180 57 12 29 3d a1 6f 34 3d ad d6 7e 3c 32 2a 7e bb
       0.041277256 0.04405177 0.015554112 -0.0038782475
000190 55 2d 38 3d 8d b6 6e 3d b4 4b a3 3b 56 da 86 3c
       0.044965107 0.058279563 0.0049833898 0.016461533
0001a0 43 47 36 3d 85 b5 8b bc aa 04 0d 3d 15 de 3d bc
       0.044501554 -0.017054329 0.034428276 -0.011588593
0001b0 9d fd 2b 3d 47 be 2b 3d 87 9e 38 bc ba 99 6b 3d
       0.04198991 0.04192951 -0.011268265 0.057519652
0001c0 da 30 8a bc ce 1b 9b bb d3 9a 35 3b 6b 45 52 ba
       -0.016868997 -0.004733539 0.002771069 -0.00080212083
0001d0 b0 ee f7 b9 41 60 44 3c 8a a6 2b 3d 3d 2a 2c 3d
       -0.00047289347 0.011985839 0.04190687 0.04203247
0001e0 7c 25 e5 b9 21 10 0f bb e9 c4 9f bc 7a 30 19 3c
       -0.00043706212 -0.0021829682 -0.019503074 0.009349937
0001f0 0e 08 27 3d 10 d5 aa bc af 93 27 3d 24 98 2b 3d
       0.040779166 -0.02085355 0.040912326 0.04189314
