MultiAgent/critic0.pth (torch_old, 425076 bytes, 11 tensors)

norm0.weight f4 [24]
0.43313268 0.7096615 0.019830449 0.04876522 0.24665481 0.5988652 0.4222804 0.83216053
0.40599477 0.57542706 0.29754332 0.3332955 -0.022227665 0.12998249 0.2226812 0.4462551
0.6360913 0.7596275 0.118785985 0.20025307 0.6246818 0.8831598 0.32965276 0.81075424
00000000: 91c3 dd3e 60ac 353f 7773 a23c 0abe 473d
00000010: 1493 7c3e 3b4f 193f 2335 d83e 7908 553f
00000020: 8cde cf3e 304f 133f 9957 983e b5a5 aa3e
00000030: cb16 b6bc 211a 053e 8a06 643e 8c7b e43e
00000040: e1d6 223f f376 423f 1146 f33d 240f 4d3e
00000050: 25eb 1f3f c316 623f 3fc8 a83e 978d 4f3f

norm0.bias f4 [24]
-0.04347902 0.045321476 -0.023026511 -0.03327572 -0.028879998 0.051740367 -0.03857399 0.043057796
0.028029123 -0.034993354 0.08910669 -0.06745941 0.08312956 0.058557384 0.032431625 -0.017529419
0.07144682 0.012890801 -0.0750405 0.071616754 0.07605772 0.088039316 -0.013892666 0.05503523
00000000: 0f17 32bd 03a3 393d 18a2 bcbc 1f4c 08bd
00000010: bf95 ecbc b5ed 533d c3ff 1dbd 5f5d 303d
00000020: 559d e53c 3155 0fbd 917d b63d 2928 8abd
00000030: d53f aa3d ded9 6f3d 06d7 043d db99 8fbc
00000040: b652 923d f033 533c d5ae 99bd ceab 923d
00000050: 26c4 9b3d f54d b43d 119e 63bc 9f6c 613d

norm0.running_mean f4 [24]
-2.2855446 -1.1617212 15.439991 0.17859188 0.45163384 2.9546716 15.439991 0.17859188
-2.4085248 -1.2406894 16.892616 0.20577577 0.49403027 2.8778794 16.892616 0.20577577
-2.4830315 -1.3020878 18.336834 0.28461844 0.5276054 2.7112186 18.336834 0.28461844
00000000: 5d46 12c0 48b3 94bf 340a 7741 cae0 363e
00000010: 8d3c e73e 5719 3d40 340a 7741 cae0 363e
00000020: 4525 1ac0 e9ce 9ebf 1424 8741 e2b6 523e
00000030: 89f1 fc3e 2d2f 3840 1424 8741 e2b6 523e
00000040: fde9 1ec0 d0aa a6bf d6b1 9241 82b9 913e
00000050: 2611 073f 9b84 2d40 d6b1 9241 82b9 913e

norm0.running_var f4 [24]
9.327039 0.8852983 185.28142 3.1077442 42.11279 5.5878224 185.28142 3.1077442
9.479387 0.8397212 177.30836 3.8589323 45.60965 6.3065066 177.30836 3.8589323
9.49312 0.78757143 165.03789 5.107742 48.88813 7.5612464 165.03789 5.107742
00000000: 8d3b 1541 e9a2 623f 0b48 3943 48e5 4640
00000010: 7f73 2842 71cf b240 0b48 3943 48e5 4640
00000020: 92ab 1741 f8f7 563f f14e 3143 bff8 7640
00000030: 4870 3642 e7ce c940 f14e 3143 bff8 7640
00000040: d2e3 1741 489e 493f b309 2543 9f72 a340
00000050: 728d 4342 bbf5 f140 b309 2543 9f72 a340

fc1.weight f4 [256, 24]
-0.022545472 -0.001610527 0.07066298 0.09169361 -0.0066059297 -0.010553558 0.0021951587 0.013519367
-0.0056730583 -0.039832193 -0.01761333 0.050022483 -0.031940196 -0.0361148 0.03323076 0.030367604
-0.04108943 0.065084994 0.068651676 0.0012219137 -0.026727442 -0.13166334 0.0064505166 -0.0003297213
0.010735233 -0.09827633 -0.022406753 -0.07148905 0.07584585 0.10081093 -0.07245317 -0.07328688
0.083227664 -0.07536864 0.019090274 -2.2896289e-05 0.04137296 0.029337421 0.0058756834 -0.024254672
0.080986775 -0.024179656 0.03565498 0.0048086736 0.09774005 -0.0035003203 0.06014998 0.029822016
0.008059012 0.040117685 0.009247172 -0.062526785 -0.013692315 -0.05729211 0.0029060037 -0.020831563
-0.020763999 0.034564797 0.073901534 -0.06896699 -0.061832152 -0.04507405 -0.028097037 0.019035308
0.06215366 0.009635847 0.017879162 0.008346354 -0.006219566 0.0038952546 -0.030586867 -0.0032742466
0.0023646795 0.018413922 0.0068434607 0.056884307 0.115893744 -0.0145232435 -0.05044496 -0.016911848
-0.07995915 0.02944085 0.03699466 -0.026211483 -0.01807239 0.058741145 -0.0014347088 -0.020746345
0.015400141 0.059929375 0.10405159 0.01600133 0.0013917191 0.04695711 -0.07195185 0.012932012
-0.03540417 0.084144436 0.00048956036 0.04208863 0.13817234 0.05402693 -0.109309934 0.03689535
0.032525737 0.003057356 -0.038207676 0.054400157 0.024152268 0.07049165 -0.013362734 0.043522447
0.024759777 0.06407824 0.06585436 0.08018427 0.03971991 0.06966213 0.033020813 0.09429552
0.023084542 -0.010514135 0.014922162 0.0040647304 -0.082308374 -0.009122826 -0.0625764 0.058023512
0.07869312 -0.0448654 -0.053117413 -0.008858017 -0.01672517 0.0044905334 -0.046714284 -0.008301457
-0.013206285 0.0021863384 0.023850922 0.040175766 -0.031501178 -0.016018681 -0.022775711 -0.003723043
-0.010340956 -0.090025686 -0.02723512 0.008204466 0.022767028 -0.0023219578 -0.014646389 0.012167492
-0.0091009755 -0.018293582 -0.034273107 -0.027420647 0.019542845 0.06369986 0.03768382 0.0077559776
-0.06814593 0.025766023 0.013579192 -0.05578235 0.03341212 0.008587391 0.13274883 -0.0045552333
-0.026521988 0.0093458155 0.013979589 -0.03474092 -0.012697177 0.07145174 -0.008077886 -0.030740729
0.009854134 0.015367498 -0.038876005 -0.025475409 -0.054451752 0.0049464293 -0.021993242 -0.033556115
0.056923777 -0.040723175 0.043152478 -0.03087264 -0.050962728 -0.003743005 -0.05406663 0.00048796544
0.046318613 0.013465557 -0.04962028 -0.0199351 -0.046653934 0.07881901 -0.023645738 0.06907816
-0.020121995 -0.028775593 0.0057378546 0.040839996 -0.069804706 0.044529814 0.051892664 -0.016856259
0.03485934 -0.084601834 0.00507723 0.08551124 -0.013294957 -0.0058781346 -0.01870791 -0.024576576
0.025834147 0.009022236 0.007830931 0.020980118 0.071941316 -0.0032733667 0.021826202 -0.023699602
0.024344 -0.0061600087 -0.014297785 0.027056172 -0.07665948 -0.05397373 -0.015042129 -0.009146335
-0.005839478 0.0027331733 0.10513506 0.07201442 -0.027665883 -0.085370734 -0.08984243 0.015409594
0.01885406 0.0071022995 -0.032304734 -0.042122975 0.06460517 0.052584685 0.007910292 0.03964839
-0.0050015952 0.016022826 0.002784635 0.021712733 -0.04726826 0.059895445 0.0017008671 0.01923451
00000000: 48b1 b8bc 5218 d3ba c1b7 903d dcc9 bb3d
00000010: 8e76 d8bb d5e8 2cbc a7dc 0f3b 5680 5d3c
00000020: 10e5 b9bb 1527 23bd d549 90bc 60e4 4c3d
00000030: b9d3 02bd 1ded 13bd fa1c 083d 7bc5 f83c
00000040: 644d 28bd 484b 853d 4099 8c3d 9f28 a03a
00000050: 82f3 dabc c1d2 06be db5e d33b 72de acb9
00000060: d5e2 2f3c 1a45 c9bd 5e8e b7bc da68 92bd
00000070: 1255 9b3d f675 ce3d 5462 94bd 6f17 96bd
00000080: 4473 aa3d e05a 9abd 3563 9c3c 6811 c0b7
00000090: b176 293d 0855 f03c ce88 c03b bcb1 c6bc
000000a0: 65dc a53d 6a14 c6bc f50a 123d 1492 9d3b
000000b0: ef2b c83d a165 65bb d35f 763d 4d4d f43c
000000c0: f209 043c 7152 243d 7381 173c 0b0e 80bd
000000d0: bb55 60bc 22ab 6abd a772 3e3b f4a6 aabc
000000e0: 4319 aabc d193 0d3d b059 973d 913e 8dbd
000000f0: b643 7dbd 919f 38bd c22b e6bc efef 9b3c
00000100: d694 7e3d acdf 1d3c 5277 923c 25bf 083c
00000110: 80cd cbbb 8747 7f3b 4f91 fabc be94 56bb
00000120: bdf8 1a3b cbd8 963c 1c3f e03b 85ff 683d
00000130: b359 ed3d e6f2 6dbc 609f 4ebd b78a 8abc
00000140: 9fc1 a3bd f02d f13c b687 173d 77b9 d6bc
00000150: 8d0c 94bc 8e9a 703d d70c bcba 3df4 a9bc
00000160: df50 7c3c 8178 753d 0019 d53d 3915 833c
00000170: 586a b63a 1956 403d 7e5b 93bd cae0 533c
00000180: f703 11bd eb53 ac3d d755 003a 2165 2c3d
00000190: 0d7d 0d3e 584b 5d3d e3dd dfbd 941f 173d
000001a0: b539 053d ec5d 483b a77f 1cbd b3d2 5e3d
000001b0: fada c53c ed5d 903d 5eef 5abc 9844 323d
000001c0: 04d5 ca3c 743b 833d a7de 863d a737 a43d
000001d0: 58b1 223d 05ab 8e3d d540 073d 021e c13d
000001e0: cb1b bd3c 7a43 2cbc 157c 743c 6e31 853b
000001f0: 4b91 a8bd e877 15bc 0e28 80bd 10aa 6d3d
00000200: dc29 a13d c8c4 37bd a591 59bd 3721 11bc
00000210: 3903 89bc 5325 933b 7a57 3fbd d602 08bc
00000220: 2d5f 58bc ac48 0f3b 0263 c33c 588f 243d
00000230: 6107 01bd 9c39 83bc 2194 babc 4cfe 73bb
00000240: 1d6d 29bc 635f b8bd 301c dfbc 066c 063c
00000250: eb81 ba3c fd2b 18bb 68f7 6fbc 295a 473c
00000260: 421c 15bc 6cdc 95bc f561 0cbd 44a1 e0bc
00000270: 5118 a03c 1275 823d 595a 1a3d db25 fe3b
00000280: 1890 8bbd 4413 d33c 427b 5e3c 097c 64bd
00000290: 26db 083d 21b2 0c3c 4fef 073e 1144 95bb
000002a0: a444 d9bc 311f 193c a50a 653c 7f4c 0ebd
000002b0: d207 50bc 4a55 923d 1c59 04bc fbd3 fbbc
000002c0: 3c73 213c f5c7 7b3c 723c 1fbd ceb1 d0bc
000002d0: cd08 5fbd a815 a23b 2c2b b4bc 2372 09bd
000002e0: e828 693d 58cd 26bd a7c0 303d 9ee8 fcbc
000002f0: 4bbe 50bd 344d 75bb f874 5dbd 9dd5 ff39
00000300: 96b8 3d3d a49e 5c3c a23e 4bbd ef4e a3bc
00000310: 3218 3fbd dc6b a13d b5b4 c1bc da78 8d3d
00000320: e2d6 a4bc cbba ebbc 9d04 bc3b d747 273d
00000330: c5f5 8ebd e564 363d 678d 543d 2316 8abc
00000340: abc8 0e3d ba43 adbd e45e a63b 8420 af3d
00000350: 17d3 59bc 5e9d c0bb 5541 99bc d154 c9bc
00000360: 22a2 d33c 00d2 133c 4e4d 003c 7fde ab3c
00000370: f855 933d fb85 56bb ddcc b23c ab25 c2bc
00000380: 116d c73c e6d9 c9bb 4241 6abc e8a4 dd3c
00000390: a5ff 9cbd 8f13 5dbd 4373 76bc 82da 15bc
000003a0: 1859 bfbb 0a1f 333b 0d51 d73d 4c7c 933d
000003b0: 90a3 e2bc dad6 aebd 4fff b7bd 8678 7c3c
000003c0: d473 9a3c 68ba e83b f851 04bd 2489 2cbd
000003d0: b74f 843d 0a63 573d 2b9a 013c 5a66 223d
000003e0: 6ce4 a3bb 4d42 833c 6c7e 363b e7de b13c
000003f0: 5d9c 41bd ed54 753d a1ef de3a b191 9d3c

fc1.bias f4 [256]
-0.055909768 -0.15576214 0.015360761 -0.039476745 -0.10306922 -0.11571823 -0.13499644 -0.13026202
-0.08979623 -0.004691063 -0.15634683 -0.00034186945 -0.14949504 0.13847023 -0.18329312 0.046762593
-0.17335798 -0.13993624 -0.06868489 -0.15092719 -0.116516046 -0.14020576 -0.10941918 -0.10578978
0.13960251 0.056186087 -0.13243458 0.10960808 -0.13256818 -0.21289854 0.010833259 -0.14318614
0.09506279 -0.09417321 -0.15949522 0.118907414 0.007579611 0.020782512 -0.06281231 -0.20579621
0.009299957 -0.058671694 -0.16981037 0.07271175 -0.23609228 -0.16673678 -0.11837076 -0.22822177
-0.115008414 -0.121298 -0.118072666 0.09604419 0.036177117 0.13767225 0.012678381 -0.049956743
-0.094034605 -0.12649278 -0.1298141 -0.13003288 0.024221927 -0.1396864 -0.14052618 0.036498938
-0.07810574 0.0325584 -0.010775869 -0.012516457 -0.14777265 0.09360136 -0.14922273 -0.20047241
0.10209275 -0.19081748 0.14579603 0.051984157 0.021931432 -0.06303955 -0.021696774 -0.004587884
-0.1333784 0.11452016 0.08616047 -0.04795105 0.019495774 -0.06581836 -0.11402272 -0.14875801
-0.13506679 -0.14389546 -0.08856212 0.047956973 0.13945206 -0.20062253 -0.20757027 0.12691844
-0.11658211 -0.043286283 0.09032077 0.14165255 0.024022963 -0.00750945 -0.04759882 -0.055811934
0.04074686 -0.23103541 -0.1487619 0.097182356 -0.18464307 0.04714542 0.096448444 0.09367955
0.02104242 -0.043895535 0.03786781 0.07827464 -0.052522454 -0.20526339 0.08122012 -0.01665692
0.068338215 -0.1837036 -0.10648437 -0.010482079 -0.045682054 0.13254179 -0.018064272 0.11988176
0.09115862 -0.09825446 0.1351411 -0.043011665 0.13188252 -0.0040524425 -0.07131966 0.11873178
-0.13089654 -0.03709275 -0.08152736 -0.07414171 -0.11107418 0.12218852 -0.022808386 0.03678128
0.043452974 0.1481309 0.016942088 -0.22264054 -0.22036639 -0.15189108 -0.18898603 -0.21084595
-0.044601705 0.1418864 -0.19712287 0.042206742 -0.12843886 0.12316274 0.08079551 0.017366657
0.14196654 -0.18958528 -0.2039437 -0.16569687 -0.02874641 0.13845405 0.08614707 0.027804032
-0.1263287 -0.10842389 0.16182694 -0.18318082 -0.17515714 0.072829604 0.10501784 0.010912938
-0.04561093 -0.07230091 -0.019771978 -0.15068218 0.15843827 0.15042289 -0.11894776 0.09723211
-0.11866062 -0.18785994 -0.024398925 -0.100156516 0.13221496 -0.034177173 -0.085872196 -0.20169583
0.09695136 0.1001946 -0.032878425 -0.07136658 -0.10912031 -0.008930657 0.16044645 -0.07793846
-0.023516534 -0.18692863 -0.0047128424 -0.121665046 -0.090398416 -0.1589497 0.14681119 0.07970847
-0.12456232 -0.110643454 0.019491533 0.02154475 -0.13097651 0.04060267 -0.009321298 0.05990633
-0.16353102 -0.18414456 0.0363854 -0.05174391 -0.14240736 0.11929595 -0.077609085 -0.1818117
-0.08493467 -0.13288778 -0.114480816 -0.21389244 0.106851615 0.11234985 -0.065795705 0.08116468
0.0005859336 -0.12345262 -0.09849997 -0.026170827 0.0031048476 0.11372457 0.15066259 -0.0337594
0.14384627 -0.1587915 -0.06245402 -0.20793714 0.04128145 0.04541264 -0.16040997 -0.13527147
-0.09038697 -0.11529894 -0.12074717 -0.1062475 -0.19227429 0.10935561 -0.13651651 0.024171658
00000000: a401 65bd 1c80 1fbe b4ab 7b3c 5eb2 21bd
00000010: f515 d3bd aefd ecbd 823c 0abe 6863 05be
00000020: 16e7 b7bd 7db7 99bb 6219 20be f13c b3b9
00000030: 3a15 19be 24cb 0d3e 31b1 3bbe 228a 3f3d
00000040: c184 31be 724b 0fbe aaaa 8cbd a88c 1abe
00000050: f79f eebd 1992 0fbe 2a17 e0bd 50a8 d8bd
00000060: f6f3 0e3e 6223 663d ee9c 07be 337a e03d
00000070: f4bf 07be 1302 5abe fb7d 313c 639f 12be
00000080: 48b0 c23d e2dd c0bd b752 23be bb85 f33d
00000090: 635e f83b 1640 aa3c bea3 80bd 3ebc 52be
000000a0: d95e 183c bb51 70bd c5e2 2dbe e6e9 943d
000000b0: 2dc2 71be 0cbd 2abe 5e6c f2bd f8b2 69be
000000c0: 8889 ebbd 166b f8bd 15d0 f1bd d1b2 c43d
000000d0: 752e 143d f4f9 0c3e fcb8 4f3c 719f 4cbd
000000e0: 3795 c0bd 5387 01be fded 04be 5727 05be
000000f0: 106d c63c f409 0fbe 18e6 0fbe e97f 153d
00000100: e7f5 9fbd f55b 053d 458d 30bc d311 4dbc
00000110: b751 17be 12b2 bf3d d8cd 18be a448 4dbe
00000120: 0116 d13d a865 43be 8e4b 153e 57ed 543d
00000130: 8ca9 b33c e11a 81bd 6fbd b1bc f655 96bb
00000140: 5994 08be 8c89 ea3d e774 b03d 5268 44bd
00000150: 9ab5 9f3c c7cb 86bd be84 e9bd 0554 18be
00000160: f34e 0abe 5559 13be 0f60 b5bd 886e 443d
00000170: 85cc 0e3e fe6f 4dbe 4d8d 54be e8f6 013e
00000180: 9ac2 eebd f54c 31bd 19fa b83d 5e0d 113e
00000190: cecb c43c d511 f6bb fbf6 42bd 0e9b 64bd
000001a0: 2ee6 263d 8c94 6cbe 0a55 18be 8b07 c73d
000001b0: 1313 3dbe 8e1b 413d c386 c53d 10db bf3d
000001c0: 2761 ac3c cecb 33bd 471b 1b3d 744e a03d
000001d0: c921 57bd 9130 52be bc56 a63d 1874 88bc
000001e0: e8f4 8b3d cc1c 3cbe 7a14 dabd 07bd 2bbc
000001f0: 1b1d 3bbd 09b9 073e 86fb 93bc 9184 f53d
00000200: 5fb1 ba3d a239 c9bd 6e62 0a3e 002d 30bd
00000210: 360c 073e 5aca 84bb 0b10 92bd a629 f33d
00000220: be09 06be 91ee 17bd d1f7 a6bd 9cd7 97bd
00000230: dc7a e3bd fa3d fa3d a7d8 babc f8a7 163d
00000240: bffb 313d a0af 173e 22ca 8a3c e2fb 63be
00000250: baa7 61be 5689 1bbe 8e85 41be 00e8 57be
00000260: 47b0 36bd ab4a 113e 94da 49be fae0 2c3d
00000270: 7a85 03be bf3c fc3d 1e78 a53d 8544 8e3c
00000280: ad5f 113e a522 42be 9ed6 50be 71ac 29be
00000290: 977d ebbc e6c6 0d3e e06d b03d 48c5 e33c
000002a0: 505c 01be 580d debd f6b5 253e c193 3bbe
000002b0: 655c 33be b027 953d 9813 d73d 2ecc 323c
000002c0: 87d2 3abd 8012 94bd d8f8 a1bc 6e4c 1abe
000002d0: a43d 223e 7508 1a3e e29a f3bd a121 c73d
000002e0: 5704 f3bd 5b5e 40be 41e0 c7bc dc1e cdbd
000002f0: 5c63 073e 5dfd 0bbd c3dd afbd 5a89 4ebe
00000300: 6f8e c63d d432 cd3d 87ab 06bd a428 92bd
00000310: 787a dfbd e451 12bc 134c 243e 339e 9fbd
00000320: bfa5 c0bc 386a 3fbe 306e 9abb 862b f9bd
00000330: ce22 b9bd b6c3 22be ac55 163e 323e a33d
00000340: 881a ffbd 0999 e2bd b5ac 9f3c 9e7e b03c
00000350: b51e 06be fc4e 263d 5cb8 18bc 5760 753d
00000360: ad74 27be 6490 3cbe db08 153d 6cf1 53bd
00000370: 3cd3 11be 6f51 f43d 83f1 9ebd d92c 3abe
00000380: 3af2 adbd bc13 08be eb74 eabd 9f06 5bbe
00000390: 05d5 da3d ae17 e63d e6bf 86bd ab39 a63d
000003a0: 5799 193a bad4 fcbd 5aba c9bd 3464 d6bc
000003b0: b37a 4b3b 6de8 e83d 4b47 1a3e 4c47 0abd
000003c0: 704c 133e 3d9a 22be c9cf 7fbd 79ed 54be
000003d0: bd16 293d 9b02 3a3d 8342 24be 9b84 0abe
000003e0: ce1c b9bd da21 ecbd 4b4a f7bd 4a98 d9bd
000003f0: 8de3 44be d6f5 df3d fcca 0bbe a403 c63c

fc2.weight f4 [256, 258]
-0.011300996 -0.0022806749 -0.006105597 0.013989146 -0.0071350164 -0.03289307 0.008121347 0.006393045
0.0024415494 -0.0137696555 -0.0072418717 -0.013957933 -0.0049937414 -0.015083398 0.008568986 -0.047125153
-0.003619069 0.010689939 -0.028646266 -0.002288136 -0.018194256 -0.02457484 -0.015706742 0.01825646
-0.0087629575 -0.027124956 0.0067123673 -0.056599893 -0.015611734 0.011094477 -0.018632932 -0.013484406
-0.05147652 -0.021025613 -0.0065598474 -0.028369347 -0.025196712 -0.04732996 -0.0026055044 -0.007220143
-0.017444832 0.0038373638 -0.0065680617 -0.056758527 0.009803019 -0.010308724 -0.011663267 0.012033958
0.003923441 0.0039417795 0.00054269057 -0.05358059 -0.03548026 0.017530276 -0.028645748 -0.01736235
-0.025549866 0.0020752342 0.0014742095 -0.0035650672 -0.03175956 -0.008196647 -0.008563527 -0.05523709
0.009790209 -0.057227474 0.007424409 0.008069896 -0.0005548283 0.0017988081 0.003499939 0.009249199
-0.029558348 -0.0058743325 -0.06652422 -0.013014283 -0.01235891 -0.0077922046 -0.05072591 -0.0012524276
-0.0216008 -0.06212736 -0.071385354 -0.030834002 -0.043598924 0.01438691 -0.020920364 0.018621013
-0.014117465 -0.010804442 -0.014109866 0.016502878 -0.07921667 0.0053441557 0.010890864 0.010334241
-8.4673455e-05 -0.0029696426 -0.044200573 0.0011242536 -0.03346966 0.01430523 0.012571535 -0.03204507
-0.03533263 0.0025406764 0.019393515 0.009820985 0.0005800134 0.0011423242 -0.03061803 -0.0189029
0.0057739737 0.008250505 -0.036295116 -0.0018406237 -0.017350582 0.004379572 -0.058067467 -0.04539801
-0.050508533 -0.006538905 -0.0058559338 -0.018200178 -0.02277778 0.013217307 -0.034892224 -0.052119736
-0.0720396 -0.009491554 -0.05684407 -0.03481199 -0.035643157 0.013582909 -0.021896478 -0.039445613
-0.004294175 0.008036705 -0.010375717 0.010132946 0.012240482 -0.039895553 -0.013587305 -0.0302421
-0.05509339 -0.028879998 -0.0037494912 0.008633552 -0.008035728 0.0085840635 0.0067210845 0.008464108
-0.005314253 0.01177537 0.003972438 0.0040519964 0.014108711 -0.020773256 0.025124202 -0.027703427
0.013127807 0.00994989 -0.022213044 -9.4173505e-05 -0.011324438 -0.040157918 -0.024754062 -0.02314763
-0.0027232955 -0.0023043368 -0.078748874 -0.00558409 -0.016466388 -0.022915708 -0.040079758 -0.023498511
-0.018920923 -0.014507081 -0.013770637 -0.00981101 -0.010747239 -0.006698704 -0.013362368 -0.0051960433
0.011473476 -0.02949739 -0.015104513 0.0003619429 -0.04446876 -0.012294367 -0.027282108 -0.024988135
-0.05166284 -0.017292755 -0.0080024535 -0.011970855 -0.0034738996 -0.00818073 -0.07386018 -0.022085756
-0.033201527 0.011921209 -0.017826386 0.0043979767 -0.01018733 -0.0149021745 -0.07409494 -0.024669545
-0.007909816 0.009262931 -0.007444521 0.0017247403 0.012105121 -0.055722777 0.021022119 0.013743517
0.0035449814 0.0036751362 -0.01724435 -0.030252717 0.0070673176 -0.018843044 0.0035796508 -0.009741804
-0.009186947 0.008652728 -0.02790527 -0.0039255363 -0.04446215 -0.0639338 0.0027757569 0.021107113
-0.04193718 0.005176213 -0.03709514 -0.016396342 -0.010067725 -0.0026540556 0.024311513 -0.040988974
-0.04907447 -0.0064408164 -0.03061966 -0.0054983553 -0.015227079 0.026000697 0.008879362 -0.008782404
-0.0039005226 -0.025400838 -0.0085025495 0.0068867463 -0.0033263701 -0.028524267 -0.0023203334 -0.046704996
00000000: d027 39bc 6077 15bb 7611 c8bb bb32 653c
00000010: dbcc e9bb e2ba 06bd 660f 053c c07c d13b
00000020: 6702 203b 1f9a 61bc 394d edbb d0af 64bc
00000030: 8aa2 a3bb 5b20 77bc ef64 0c3c 4e06 41bd
00000040: e72d 6dbb db24 2f3c 93ab eabc 8df4 15bb
00000050: 1f0c 95bc 2d51 c9bc 6dab 80bc 928e 953c
00000060: 8292 0fbc 2835 debc 6bf3 db3b 4ad5 67bd
00000070: 5cc8 7fbc 9cc5 353c 17a4 98bc b3ed 5cbc
00000080: 0bd9 52bd e83d acbc fdf3 d6bb d566 e8bc
00000090: 5669 cebc 0fdd 41bd 1cc1 2abb f396 ecbb
000000a0: 77e8 8ebc 487c 7b3b e538 d7bb a17b 68bd
000000b0: d89c 203c ece5 28bc 4a17 3fbc 142a 453c
000000c0: 3590 803b 0b2a 813b 5943 0e3a 5277 5bbd
000000d0: c053 11bd a79b 8f3c 7daa eabc 7d3b 8ebc
000000e0: f44d d1bc a700 083b 433a c13a e7a3 69bb
000000f0: 5016 02bd 3b4b 06bc 094e 0cbc 4940 62bd
00000100: 1d67 203c 5b67 6abd 7548 f33b 9937 043c
00000110: e671 11ba fcc5 eb3a 3c5f 653b f489 173c
00000120: 5924 f2bc 797d c0bb da3d 88bd dc39 55bc
00000130: 077d 4abc c055 ffbb f9c5 4fbd 7f28 a4ba
00000140: 29f4 b0bc 4279 7ebd 7c32 92bd 9797 fcbc
00000150: c994 32bd 13b7 6b3c 2f61 abbc 188b 983c
00000160: f14c 67bc 1d05 31bc 112d 67bc 0b31 873c
00000170: 593c a2bd 071e af3b 986f 323c f350 293c
00000180: b792 b1b8 569e 42bb a90b 35bd b15b 933a
00000190: 7b17 09bd 7c60 6a3c d7f8 4d3c b141 03bd
000001a0: f3b8 10bd 7a81 263b 26df 9e3c 32e8 203c
000001b0: 0a0c 183a 0aba 953a aad2 fabc 41da 9abc
000001c0: 9a33 bd3b 202d 073c 30aa 14bd 1541 f1ba
000001d0: cf22 8ebc 8382 8f3b 27d8 6dbd 44f3 39bd
000001e0: 09e2 4ebd 5044 d6bb 22e3 bfbb 8a18 95bc
000001f0: 7898 babc 678d 583c 26eb 0ebd 817b 55bd
00000200: 7f89 93bd 7782 1bbc 54d5 68bd 0497 0ebd
00000210: 8ffe 11bd d98a 5e3c 3e60 b3bc b991 21bd
00000220: 27b6 8cbb 62ac 033c e9fe 29bc a804 263c
00000230: 4d8c 483c 8569 23bd 4a9d 5ebc 48be f7bc
00000240: 9ba9 61bd bf95 ecbc 06ba 75bb be73 0d3c
00000250: 49a8 03bc 2ca4 0c3c 8b3c dc3b 0bad 0a3c
00000260: 2f23 aebb 7bed 403c 3a2b 823b 9cc6 843b
00000270: 3928 673c ad2c aabc 45d1 cd3c 4cf2 e2bc
00000280: 0316 573c dd04 233c 21f8 b5bc 047f c5b8
00000290: 238a 39bc a17c 24bd 08c9 cabc 19a0 bdbc
000002a0: 5179 32bb 5b04 17bb 1747 a1bd befa b6bb
000002b0: 85e4 86bc b9b9 bbbc ac2a 24bd f37f c0bc
000002c0: 0d00 9bbc 1caf 6dbc 3d9e 61bc 5cbe 20bc
000002d0: 3015 30bc cd80 dbbb d5ed 5abc 9243 aabb
000002e0: 3ffb 3b3c 83a4 f1bc eb78 77bc 27c3 bd39
000002f0: e024 36bd 506e 49bc ba7e dfbc ebb3 ccbc
00000300: 6a9c 53bd 89a9 8dbc b91c 03bc 6821 44bc
00000310: 5daa 63bb 7808 06bc 0244 97bd 30ed b4bc
00000320: 53fe 07bd 2d51 433c a408 92bc e71c 903b
00000330: c2e8 26bc 4028 74bc 17bf 97bd c917 cabc
00000340: 2c98 01bc 8cc3 173c 2bf1 f3bb ae10 e23a
00000350: 8f54 463c 913d 64bd 9436 ac3c 7d2c 613c
00000360: eb52 683b 8eda 703b 0644 8dbc 8cd4 f7bc
00000370: f594 e73b ba5c 9abc 9398 6a3b 169c 1fbc
00000380: d984 16bc 2cc4 0d3c 9899 e4bc c9a1 80bb
00000390: f21d 36bd b9ef 82bd 79e9 353b d3e8 ac3c
000003a0: 52c6 2bbd 399d a93b 13f1 17bd 9f51 86bc
000003b0: 19f3 24bc aaef 2dbb f028 c73c 0ee4 27bd
000003c0: 5002 49bd 7c0d d3bb 15d6 fabc 8c2b b4bb
000003d0: 007b 79bc 6aff d43c be7a 113c 12e4 0fbc
000003e0: e99f 7fbb 6b15 d0bc 474e 0bbc 37aa e13b
000003f0: 3bff 59bb b9ab e9bc bc10 18bb bd4d 3fbd

fc2.bias f4 [256]
-0.01042327 -0.08135695 -0.0037227357 0.08151162 -0.030904906 0.026905062 -0.015342827 -0.032302648
-0.015524751 -0.09692298 0.00878538 -0.0030228677 -0.023847975 -0.021112874 -0.08338319 0.0012329879
-0.08120284 0.012689275 -0.004858319 0.017677708 0.03399864 -0.051181696 -0.03146367 -0.013548402
-0.037724815 -0.029418265 0.073069185 0.04857744 -0.034066275 0.008047533 -0.039178386 -0.079348914
-0.091799796 -0.085921995 -0.06321342 -0.05993194 -0.02757641 -0.05497209 0.019824812 -0.022699047
-0.08822883 -0.05730433 0.020723928 -0.049975608 -0.025936618 -0.08360092 -0.07241816 -0.009737175
0.0065028137 -0.015524616 -0.040354457 -0.017555108 -0.0578792 0.024405796 -0.07209362 -2.8295566e-05
0.017974729 -0.028705742 -0.05416144 -0.013600618 -0.05360967 -0.035057347 -0.02568488 -0.039837375
-0.046419315 -0.010812266 -0.007250649 -0.03242179 -0.07295533 -0.09225701 -0.03555339 -0.030186754
-0.08475089 -0.073862486 -0.043913983 -0.043527987 -0.020403383 -0.0070289974 -0.030937672 -0.036711104
-0.027090004 -0.078014195 0.07922037 -0.06377696 0.015026873 0.0062186765 -0.074336804 -0.009911968
0.009096647 -0.014520133 -0.003506097 -0.06152338 0.015397071 -0.015076254 -0.061244 -0.0060854754
-0.047815263 -0.07791474 -0.010718055 -0.0067026364 -0.08559346 0.005147006 -0.05095351 -0.08889497
0.008634672 -0.026172014 -0.01470387 -0.10290496 -0.01951648 -0.059457544 -0.036509458 -0.059969056
-0.021723185 0.00842585 -0.016805653 0.003676592 -0.014948104 -0.052772984 0.01112864 -0.041556396
-0.004748174 0.0020037703 -0.05072876 -0.09097621 -0.086017355 -0.07399663 -0.05580199 -0.020090083
-0.061512426 -0.038284436 0.0025147793 -0.009851633 -0.067436025 -0.060355805 0.031105502 -0.005778829
-0.08044871 -0.024335418 0.014474607 0.011824826 -0.043137457 -0.015957713 -0.014195091 -0.017925093
-0.008212856 -0.0826122 -0.009483805 -0.080335185 -0.043121632 -0.05152985 0.042400755 -0.06750067
-0.07207584 -0.028855452 -0.0148438895 -0.01523688 -0.06943192 0.0012537955 -0.0227374 -0.004028069
-0.031528816 -0.08304229 2.4832072e-05 -0.07178741 -0.03531352 0.025762076 -0.09012978 -0.05513743
-0.015229427 -0.023063362 -0.080894545 0.012269868 -0.06214044 -0.045710355 -0.013984592 0.018778546
-0.044998102 -0.06269895 -0.041640464 0.016533535 0.004234809 -0.02870342 -0.02634692 -0.031690694
-0.06362826 -0.07635075 0.0019258078 -0.054588564 -0.015257804 -0.0385398 -0.08426935 -0.00788095
-0.08034664 -0.04948797 -0.07141271 -0.03661489 -0.08521567 -0.06383795 0.016030539 0.005918191
0.014382869 0.008317606 -0.036239758 -0.06536552 -0.048904445 0.06486128 -0.043829907 0.011406384
-0.08132982 -0.03722349 -0.02230497 0.0048178677 -0.052790772 0.020893926 -0.001570007 -0.05201349
0.03352723 -0.018715708 -0.0779386 -0.003647694 -0.021301074 -0.028294798 0.004560821 0.0040029464
-0.035407953 -0.078385614 -0.065881826 -0.036400884 -0.017248604 -0.024664946 -0.08311312 -0.07772
-0.03538327 -0.05307938 0.00840248 -0.045051735 -0.030622857 0.016328076 -0.018411085 -0.06937365
0.022696288 -0.09245238 -0.049332406 0.00062511454 -0.03495985 -0.039264612 -0.06524478 -0.080985844
-0.025778137 -0.07929787 -0.039357975 -0.026703745 -0.0775099 -0.07863151 -0.058933273 -0.04237899
00000000: 5dc6 2abc 799e a6bd 24f9 73bb 90ef a63d
00000010: 492c fdbc 0168 dc3c 7b60 7bbc c84f 04bd
00000020: 865b 7ebc 8e7f c6bd 8ef0 0f3c 4e1b 46bb
00000030: d45c c3bc e8f4 acbc cec4 aabd 359c a13a
00000040: ad4d a6bd ade6 4f3c 8932 9fbb d7d0 903c
00000050: 2842 0b3d e6a3 51bd 0de0 00bd 1efa 5dbc
00000060: 5685 1abd 93fe f0bc 4ca5 953d 23f9 463d
00000070: 1489 0bbd cdd9 033c 8479 20bd af81 a2bd
00000080: 8801 bcbd dff7 afbd 0a76 81bd 327b 75bd
00000090: ece7 e1bc 6a2a 61bd a567 a23c 5af3 b9bc
000000a0: 51b1 b4bd f2b7 6abd 3ac5 a93c 39b3 4cbd
000000b0: 0879 d4bc f636 abbd f94f 94bd ac88 1fbc
000000c0: 8e15 d53b f65a 7ebc b74a 25bd bbcf 8fbc
000000d0: bd12 6dbd aaee c73c d2a5 93bd 445c edb7
000000e0: bd3f 933c 4e28 ebbc 63d8 5dbd 20d5 5ebc
000000f0: d095 5bbd 4b98 0fbd 1969 d2bc 842c 23bd
00000100: 2e22 3ebd ee25 31bc da96 edbb b6cc 04bd
00000110: 9b69 95bd 3ef1 bcbd 6ea0 11bd 364a f7bc
00000120: e091 adbd 3745 97bd 26df 33bd 674a 32bd
00000130: ff24 a7bc 8153 e6bb 0071 fdbc 625e 16bd
00000140: dbeb ddbc e8c5 9fbd 4a3e a23d 7f9d 82bd
00000150: 4633 763c 0ac6 cb3b e53d 98bd cf65 22bc
00000160: 1a0a 153c dae5 6dbc 8cc6 65bb f1ff 7bbd
00000170: ff43 7c3c 6402 77bc fdda 7abd ab68 c7bb
00000180: f0d9 43bd c391 9fbd c89a 2fbc caa1 dbbb
00000190: a04b afbd 37a8 a83b a1b4 50bd 910e b6bd
000001a0: 7078 0d3c b166 d6bc 80e8 70bc d6bf d2bd
000001b0: 06e1 9fbc c189 73bd f18a 15bd 1da2 75bd
000001c0: d2f4 b1bc 940c 0a3c 02ac 89bc faf2 703b
000001d0: e4e8 74bc 7c28 58bd e654 363c 0a37 2abd
000001e0: 9296 9bbb b051 033b f6c8 4fbd bc51 babd
000001f0: de29 b0bd 8c8b 97bd a190 64bd f593 a4bc
00000200: 74f4 7bbd 24d0 1cbd ffce 243b be68 21bc
00000210: e61b 8abd a637 77bd f7d0 fe3c 555c bdbb
00000220: 4bc2 a4bd 125b c7bc e726 6d3c eabc 413c
00000230: e7b0 30bd c0b9 82bc 8792 68bc a5d7 92bc
00000240: 378f 06bc 9630 a9bd f661 1bbc c686 a4bd
00000250: 4fa0 30bd f710 53bd 6aac 2d3d cb3d 8abd
00000260: 7f9c 93bd 4562 ecbc c933 73bc 1ba4 79bc
00000270: 5332 8ebd 6556 a43a c943 babc e4fd 83bb
00000280: 5c24 01bd 1312 aabd 784e d037 4705 93bd
00000290: e9a4 10bd fd0a d33c f695 b8bd c9d7 61bd
000002a0: d984 79bc 60ef bcbc 0aac a5bd 8e07 493c
000002b0: f986 7ebd c83a 3bbd a11f 65bc 77d5 993c
000002c0: ee4f 38bd 4f68 80bd 318f 2abd 5671 873c
000002d0: 27c4 8a3b 6f23 ebbc 7fd5 d7bc 1ace 01bd
000002e0: 884f 82bd c85d 9cbd 636b fc3a 4298 5fbd
000002f0: defb 79bc e9db 1dbd 6995 acbd 1a1f 01bc
00000300: c78c a4bd e6b3 4abd d440 92bd 7ff9 15bd
00000310: 8e85 aebd 79bd 82bd 7a52 833c 62ed c13b
00000320: 20a6 6b3c 9146 083c 2470 14bd 5cde 85bd
00000330: 0750 48bd fed5 843d fd86 33bd d8e1 3a3c
00000340: 4090 a6bd a977 18bd eab8 b6bc 34df 9d3b
00000350: 233b 58bd bd29 ab3c b1c8 cdba 190c 55bd
00000360: d953 093d af51 99bc 469e 9fbd 260e 6fbb
00000370: 977f aebc 7eca e7bc f172 953b 262b 833b
00000380: ee07 11bd a388 a0bd 0ded 86bd 1819 15bd
00000390: f24c 8dbc 240e cabc 3637 aabd aa2b 9fbd
000003a0: 0cee 10bd c469 59bd 8eaa 093c 2b88 38bd
000003b0: c9dc fabc 75c2 853c d8d2 96bc c613 8ebd
000003c0: 91ed b93c ac57 bdbd c710 4abd bade 233a
000003d0: 0f32 0fbd eed3 20bd 0e9f 85bd e8db a5bd
000003e0: ac2c d3bc ec66 a2bd d435 21bd d0c1 dabc
000003f0: 83bd 9ebd 8f09 a1bd 0464 71bd 9895 2dbd

fc3.weight f4 [128, 256]
0.017705001 -0.0075334474 -0.053746276 -0.0833041 0.029598245 -0.019045174 -0.040341016 -0.081924
-0.020967511 -0.029324133 -0.04871259 -0.008100821 0.017939666 -0.029635806 -0.07885024 -0.08131662
-0.04139242 -0.07166599 0.034667704 -0.02136419 -0.031927098 0.029972743 -0.071338 0.019410646
0.021207767 0.031689655 0.005716442 -0.0179245 -0.024464972 -0.0245133 -0.050180327 -0.03583202
-0.072083555 0.018044453 0.067166686 0.024705183 -0.10757204 0.03270516 0.028024785 0.019173471
0.031768467 -0.049733467 0.03613246 -0.03322145 0.017935857 0.023338335 0.008205421 -0.050918266
0.04210227 -0.004287451 -0.020540822 -0.0049645915 0.050932802 0.0037680482 -0.0025995735 -0.038890775
0.0036713681 -0.11402606 0.044273257 0.0049578757 -0.0030396143 -0.055912632 -0.03690261 -0.022674652
-0.008685495 -0.013749836 -0.11280161 -0.046660084 0.043918595 -0.025144508 0.0119408425 0.015640575
0.008511985 -0.020781623 -0.042513028 -0.0073309294 0.023403754 -0.061684854 -0.109816775 -0.04378865
-0.015642751 -0.01834491 -0.0079631135 -0.038436044 -0.020832112 0.035033777 -0.022984738 0.0824775
-0.034372706 0.014560267 -0.017822975 -0.014892012 0.014203076 -0.11219665 -0.019711578 0.024534503
-0.07798392 -0.029953804 -0.0824974 -0.082781196 -0.021723807 -0.016150009 0.0075943256 -0.0407037
0.024004905 -0.029299604 0.013233274 0.021404736 -0.075795576 -0.03766352 -0.046576094 0.020689927
-0.017422186 -0.0054588146 -0.067789696 0.031810153 0.04099882 -0.05796712 0.026514722 -0.07549672
0.05247818 -0.034729924 -0.019638654 -0.09695976 0.040345233 -0.04336856 -0.033212297 0.029447718
-0.030490896 -0.061857045 -0.104887664 0.05624729 0.037233576 -0.015895275 -0.010817538 0.020895459
0.030179895 -0.08867315 -0.0519823 -0.01569612 -0.058085836 -0.11667263 0.00028509623 -0.020537613
-0.0066695255 0.05412386 0.005362448 -0.0044803414 -0.03453658 0.012580373 -0.080718525 0.009104598
-0.024231445 -0.0062093157 0.014012588 0.005132401 -0.065596834 -0.035521474 0.04453162 0.017008694
0.018070448 -0.046486016 -0.0072802845 -0.001888224 0.045279674 0.05098082 -0.0070241755 -0.012232288
0.015100598 -0.0788619 -0.06963012 0.02132054 -0.010503458 -0.09698431 0.005088213 0.04814284
0.025217285 -0.08014744 0.030180627 0.0009702391 0.034749564 -0.014498087 -0.02138493 -0.0713582
-0.030303894 0.019335682 0.00021867928 0.03929842 -0.019639732 -0.08153096 -0.10428933 0.01573694
0.05796525 0.031883042 0.000986791 -0.052556608 -0.0006922562 0.008164644 0.041494194 -0.061025716
-0.036039874 -0.024153762 0.0014592689 -0.112136476 -0.056140315 -0.039302137 0.019192642 -0.03265989
0.032652047 -0.023258056 0.008004588 0.002362596 0.008455851 -0.0011839222 0.010724773 -0.021781262
-0.08855821 -0.019086963 -0.083961956 -0.012932036 -0.09103034 0.050985888 -0.006779964 -0.01870606
-0.07613628 -0.045349415 -0.0574769 0.041455597 0.055749465 0.032531627 -0.0013554583 -0.054136116
-0.05436177 0.023254154 -0.018074708 0.01086256 0.0123553295 -0.00073887623 -0.020001138 0.009631333
0.014465079 -0.011789793 -0.0005808946 -0.017282218 -0.031544764 -0.004098013 -0.026435101 -0.032398693
-0.09206803 -0.09813262 0.0403699 -0.024760572 0.029433738 -0.029150208 0.035829876 0.010057378
00000000: 140a 913c 23db f6bb 0e25 5cbd 579b aabd
00000010: 0578 f23c a004 9cbc 9f3c 25bd c5c7 a7bd
00000020: 0fc4 abbc 2a39 f0bc da86 47bd 4eb9 04bc
00000030: 35f6 923c cac6 f2bc 3c7c a1bd 5489 a6bd
00000040: 198b 29bd 9ec5 92bd b9ff 0d3d f403 afbc
00000050: fdc5 02bd 6689 f53c a819 92bd 1303 9f3c
00000060: e9bb ad3c 03cd 013d fe50 bb3b 67d6 92bc
00000070: c46a c8bc 1ed0 c8bc e389 4dbd 99c4 12bd
00000080: 8ba0 93bd f6d1 933c b08e 893d 8662 ca3c
00000090: bb4e dcbd d9f5 053d 3c94 e53c af11 9d3c
000000a0: a71f 023d 52b5 4bbd a1ff 133d 3713 08bd
000000b0: 38ee 923c 0930 bf3c 0870 063c ac8f 50bd
000000c0: 6e73 2c3d bf7d 8cbb 3a45 a8bc 03ae a2bb
000000d0: ea9e 503d 5cf1 763b 9b5d 2abb ef4b 1fbd
000000e0: 569b 703b 7f86 e9bd e057 353d ad75 a23b
000000f0: 4434 47bb a504 65bd 3127 17bd 31c0 b9bc
00000100: 9b4d 0ebc fe46 61bc 8804 e7bd a51e 3fbd
00000110: fce3 333d dbfb cdbc 86a3 433c aa20 803c
00000120: da75 0b3c 393e aabc 2422 2ebd 4b38 f0bb
00000130: 3bb9 bf3c 42a9 7cbd 9ee7 e0bd ba5b 33bd
00000140: 3a25 80bc 1148 96bc b877 02bc 1d6f 1dbd
00000150: 1ba8 aabc 947f 0f3d 7d4a bcbc f7e9 a83d
00000160: 65ca 0cbd 308e 6e3c 7d01 92bc a0fd 73bc
00000170: 05b4 683c 5bc7 e5bd 2d7a a1bc 95fc c83c
00000180: 09b6 9fbd ae61 f5bc 66f4 a8bd 3089 a9bd
00000190: 20f6 b1bc 064d 84bc d2d9 f83b ecb8 26bd
000001a0: efa5 c43c b905 f0bc 60d0 583c fc58 af3c
000001b0: b63a 9bbd 1045 1abd 93c6 3ebd ec7d a93c
000001c0: f9b8 8ebc dbdf b2bb 53d5 8abd 5d4b 023d
000001d0: 61ee 273d ee6e 6dbd 6735 d93c 069e 9abd
000001e0: 5cf3 563d f740 0ebd 3ee1 a0bc d792 c6bd
000001f0: 0b41 253d 3ba3 31bd 9e09 08bd 573c f13c
00000200: 0bc8 f9bc d05d 7dbd 58cf d6bd 8f63 663d
00000210: 3c82 183d cf36 82bc 0b3c 31bc f42c ab3c
00000220: d43b f73c 459a b5bd 64eb 54bd 2695 80bc
00000230: 6aeb 6dbd 0ff2 eebd f878 9539 7f3e a8bc
00000240: 098c dabb fbb0 5d3d 79b7 af3b d4cf 92bb
00000250: 3b76 0dbd e91d 4e3c c14f a5bd 742b 153c
00000260: 0681 c6bc 8477 cbbb 0e95 653c b32d a83b
00000270: a257 86bd f77e 11bd ca66 363d d155 8b3c
00000280: 7a08 943c 1f68 3ebd 748f eebb 497e f7ba
00000290: 2e77 393d 44d1 503d 0e2b e6bb ef69 48bc
000002a0: 8068 773c 5982 a1bd 3d9a 8ebd 6aa8 ae3c
000002b0: b216 2cbc b69f c6bd 06bb a63b 6d31 453d
000002c0: 7b94 ce3c 5724 a4bd 5d3d f73c a557 7e3a
000002d0: 8f55 0e3d 6289 6dbc 732f afbc 3f24 92bd
000002e0: df3f f8bc dd65 9e3c 464d 6539 61f7 203d
000002f0: 81e3 a0bc b4f9 a6bd a595 d5bd c1ea 803c
00000300: f86c 6d3d cb97 023d 3657 813a 9945 57bd
00000310: 8778 35ba 00c5 053c d1f5 293d 1af6 79bd
00000320: 8c9e 13bd 1cde c5bc f044 bf3a cfa7 e5bd
00000330: 63f3 65bd 47fb 20bd e339 9d3c 60c6 05bd
00000340: 27be 053d ae87 bebc ad25 033c c9d5 1a3b
00000350: 698a 0a3c d62d 9bba f5b6 2f3c 9e6e b2bc
00000360: 025e b5bd 435c 9cbc 3ff4 abbd e4e0 53bc
00000370: 1d6e babd 94d6 503d 762a debb 733d 99bc
00000380: 57ed 9bbd 4fc0 39bd e66c 6bbd 58cd 293d
00000390: 8d59 643d e23f 053d a2a9 b1ba d5bd 5dbd
000003a0: 73aa 5ebd 7f7f be3c 6911 94bc e1f8 313c
000003b0: 026e 4a3c 25b1 41ba 6dd9 a3bc bdcc 1d3c
000003c0: f0fe 6c3c fa29 41bc 2d47 18ba 7093 8dbc
000003d0: 1535 01bd a048 86bb 6d8e d8bc 7eb4 04bd
000003e0: 2a8e bcbd c1f9 c8bd e95a 253d afd6 cabc
000003f0: 061f f13c 6bcc eebc 59c2 123d b3c7 243c

fc3.bias f4 [128]
-0.08295534 -0.014080465 -0.022270449 -0.049153235 -0.033997342 -0.004965895 -0.08473628 -0.030309329
-0.008344423 -0.011267671 0.028249053 0.0060726483 -0.044429034 -0.066028185 0.07130666 0.042244334
-0.00030595006 0.0054528923 -0.05323592 -0.030485788 -0.015012833 0.008256788 -0.041370966 0.041372173
-0.06335609 -0.09558652 -0.030854786 -0.00264236 -0.0060188742 0.053260256 -0.08552398 -0.0684323
-0.026548285 -0.050240796 -0.04189176 -0.026605723 -0.008784016 -0.043021884 0.004221333 0.059685804
-0.027304849 -0.03768285 -0.030126885 -0.032935914 -0.019976873 -0.042516682 -0.05502276 -0.08693806
-0.09316605 0.035606932 0.028664133 -0.04645186 0.016752971 -0.018681359 0.014462935 -0.049876515
-0.08114154 -0.07462062 0.012470791 0.015283076 -0.033568826 -0.05928482 -0.028519055 0.006598997
-0.030362988 -0.031050507 -0.0149775855 -0.042255346 -0.011694154 -0.08871861 -0.06267127 -0.036322944
-0.01940344 0.0030906177 0.040652473 0.006229692 0.009562861 -0.033178832 0.02475206 0.009479121
0.0122808935 -0.011329916 0.012086994 -0.07174657 -0.09403326 -0.020613125 -0.0349069 -0.02762929
-0.096186 -0.0014844096 -0.054956123 -0.023214675 -0.052943625 -0.08182414 0.015335625 -0.06756166
0.026387258 -0.019148069 -0.085080124 -0.0014619712 -0.057450615 0.01587529 -0.042677477 -0.08093608
-0.06685955 -0.036563326 -0.03160705 0.0005145165 -0.0063499473 0.01563992 -0.036855593 0.010164037
0.0016126396 -0.06136444 0.017360255 -0.06458008 -0.020778077 -0.03445635 -0.029372098 0.016139122
0.0014653658 -0.08994008 -0.062491477 -0.0064480365 0.014895964 -0.104378395 -0.028407438 0.016919388
00000000: 7de4 a9bd c0b1 66bc 8470 b6bc e754 49bd
00000010: cc40 0bbd f2b8 a2bb 378a adbd 454b f8bc
00000020: 0cb7 08bc 0a9c 38bc 8f6a e73c 11fd c63b
00000030: 38fb 35bd c939 87bd 3a09 923d 6508 2d3d
00000040: ec67 a0b9 2dae b23b e80d 5abd 55bd f9bc
00000050: 63f8 75bc 7b47 073c 9a74 29bd de75 293d
00000060: d6c0 81bd dec2 c3bd 2dc3 fcbc 722b 2dbb
00000070: fa39 c5bb 6d27 5a3d 3227 afbd 3c26 8cbd
00000080: ca7b d9bc 4bc9 4dbd b296 2bbd 3ff4 d9bc
00000090: d5ea 0fbc b737 30bd 1c53 8a3b 1a79 743d
000000a0: 6bae dfbc 5559 1abd a8cc f6bc cfe7 06bd
000000b0: 8aa6 a3bc f925 2ebd 8c5f 61bd 950c b2bd
000000c0: d8cd bebd 93d8 113d 0bd1 ea3c 4e44 3ebd
000000d0: 873d 893c a609 99bc f2f5 6c3c 514b 4cbd
000000e0: 892d a6bd b2d2 98bd 4a52 4c3c de65 7a3c
000000f0: 777f 09bd a4d4 72bd cba0 e9bc 663c d83b
00000100: cdbb f8bc a25d febc 8c64 75bc f113 2dbd
00000110: d698 3fbc 1ab2 b5bd cb59 80bd 5ec7 14bd
00000120: f7f3 9ebc f68b 4a3b 3583 263d 7222 cc3b
00000130: 8cad 1c3c 87e6 07bd d5c4 ca3c 514e 1b3c
00000140: cd35 493c 1da1 39bc 8708 463c deef 92bd
00000150: 8394 c0bd dbdc a8bc 8afa 0ebd d256 e2bc
00000160: 2afd c4bd 8590 c2ba ac19 61bd b42c bebc
00000170: 6adb 58bd 6a93 a7bd 4642 7b3c c55d 8abd
00000180: 172a d83c 69dc 9cbc 7d3e aebd 9d9f bfba
00000190: 5651 6bbd e50c 823c 94ce 2ebd d1c1 a5bd
000001a0: a9ed 88bd 6dc3 15bd 6576 01bd 9ee0 063a
000001b0: 3813 d0bb 4a1f 803c e4f5 16bd 1087 263c
000001c0: 355f d33a 4759 7bbd 1837 8e3c 9042 84bd
000001d0: c936 aabc 1a22 0dbd c19d f0bc 3136 843c
000001e0: 8411 c03a 8132 b8bd 10f7 7fbd 0d4a d3bb
000001f0: 340e 743c 57c4 d5bd b7b6 e8bc 879a 8a3c

fc4.weight f4 [1, 128]
-0.017097885 0.03150635 -0.013861061 -0.00924477 0.04011229 0.016137779 -0.044977814 0.029819505
0.030929506 0.03157822 0.03535235 0.030163933 -0.049200036 -0.027834142 -0.02995281 0.023064995
0.029262992 -0.0040275813 -0.0406187 0.033302013 0.029342199 0.03398246 0.0085467575 -0.029315813
-0.04593632 0.0345579 -0.033708364 0.027440727 0.036734488 -0.024719585 0.005554044 0.032393225
0.03311702 -0.042977612 0.032650676 0.0300764 0.032040928 0.030532794 0.029678322 0.024329191
0.032734703 0.0326956 0.028020818 0.032046758 0.032461956 -0.040921733 0.033295155 -0.012935375
-0.016914539 -0.006089708 0.031285662 0.03184313 0.028453726 0.032571487 0.0310205 -0.041578826
-0.013691994 -0.013758457 -0.016838094 -0.024680613 0.032617047 0.03396573 0.03397266 0.032296173
-0.024667963 -0.043663222 0.033991158 -0.03966281 -0.0064475928 0.03364426 0.03280748 -0.008999449
-0.025491374 0.029884074 0.03688579 0.036959305 0.03203548 -0.020136548 0.030306282 -0.051243346
0.033227354 0.03295467 -0.009038742 -0.03480515 0.032914497 -0.0271749 0.033438034 -0.02039784
-0.03709414 -0.0107469 -0.045747627 0.029923119 -0.02035938 -0.025151389 0.031156415 0.033553876
0.03012513 0.032753363 -0.025887499 -0.0052239415 0.03421518 0.029823571 0.0075980946 0.014091416
0.033637695 -0.03778784 0.033265505 -0.049280558 0.030308202 0.031585585 -0.029252158 0.034711402
-0.043087497 -0.01580561 -0.009609837 -0.02496395 -0.051772255 -0.00019709804 0.03258206 0.03236562
-0.005020354 -0.035425957 -0.04801717 -0.0075941496 0.031839818 -0.05440303 0.029201351 0.03163073
00000000: dd10 8cbc cd0c 013d 8119 63bc 6077 17bc
00000010: c94c 243d 6033 843c a83a 38bd 0948 f43c
00000020: e05f fd3c 2a58 013d a0cd 103d 5a1a f73c
00000030: fa85 49bd 6d04 e4bc 985f f5bc cdf2 bc3c
00000040: f1b8 ef3c cdf9 83bb cb5f 26bd b167 083d
00000050: 0d5f f03c 3131 0b3d b307 0c3c b727 f0bc
00000060: b927 3cbd 968c 0d3d c811 0abd 60cb e03c
00000070: e776 163d ba80 cabc b3fe b53b c2ae 043d
00000080: b6a5 073d 4b09 30bd b7bc 053d c862 f63c
00000090: 593d 033d e91f fa3c f41f f33c 034e c73c
000000a0: d314 063d d2eb 053d ea8b e53c 7643 033d
000000b0: d4f6 043d 8c9d 27bd 8060 083d e5ee 53bc
000000c0: 5c90 8abc 2c8c c7bb 6525 003d f16d 023d
000000d0: ca17 e93c ae69 053d b41e fe3c 8f4e 2abd
000000e0: 6354 60bc 276b 61bc 0bf0 89bc ff2e cabc
000000f0: 7499 053d a61f 0b3d ea26 0b3d fe48 043d
00000100: 7814 cabc 35d8 32bd 503a 0b3d 7875 22bd
00000110: 5446 d3bb 90ce 093d 2361 063d 6d72 13bc
00000120: 49d3 d0bc 72cf f43c 8e15 173d a462 173d
00000130: a337 033d 67f5 a4bc e144 f83c 8be4 51bd
00000140: 6819 083d 7afb 063d 3b17 14bc d88f 0ebd
00000150: 5ad1 063d e59d debc 52f6 083d 5f19 a7bc
00000160: 06f0 17bd c413 30bc dd61 3bbd 5421 f53c
00000170: b7c8 a6bc 490a cebc bd3b ff3c ca6f 093d
00000180: fac8 f63c 6428 063d 0512 d4bc 992d abbb
00000190: 3725 0c3d 9050 f43c 70f9 f83b afdf 663c
000001a0: aec7 093d 6cc7 1abd 6941 083d 69da 49bd
000001b0: e848 f83c e35f 013d 39a2 efbc 8b2d 0e3d
000001c0: 847c 30bd c47a 81bc 9472 1dbc 3381 ccbc
000001d0: 250f 54bd 1aac 4eb9 c474 053d d091 043d
000001e0: c881 a4bb cf1a 11bd a7ad 44bd 58d8 f8bb
000001f0: 786a 023d b6d5 5ebd ac37 ef3c 398f 013d
