MultiAgent/critic0.pth (torch_old, 425076 bytes, 11 tensors)

norm0.weight f4 [24]
000000 5e ae 37 b9 7a a0 62 39 78 46 ea bd bb 38 3d ba
       -0.00017517197 0.00021612822 -0.11439222 -0.00072182313
000010 af 03 a8 3f 6e 5f 33 3f ee 7e 84 3e 1f 57 ba 3e
       1.3126124 0.7006749 0.2587809 0.36394593
000020 51 c2 b8 ba 08 81 1a 38 e8 9c 83 be fc e8 11 bb
       -0.0014095997 3.683663e-05 -0.25705647 -0.0022264114
000030 1e fb f2 39 3a 32 af b8 bd 51 63 bd b1 47 8d 3e
       0.00046344934 -8.354006e-05 -0.055497874 0.2759376
000040 b9 c3 5e 3f 4d 48 10 3f db 30 cd 38 72 ab 1a b9
       0.870174 0.5636032 9.784262e-05 -0.00014750453
000050 cd 4c de 3f 58 39 3b 3f 9c 35 c2 3e 47 7a 20 3f
       1.7367188 0.73134375 0.37931526 0.6268658

norm0.bias f4 [24]
000000 46 70 e5 37 1a 23 33 39 41 8a f1 bc d4 2e 51 ba
       2.7351209e-05 0.00017083847 -0.02948487 -0.0007979695
000010 ed 79 a1 3e 9b 60 c2 be 1c f9 8b 3d 20 94 7e be
       0.31538334 -0.3796433 0.06834623 -0.24861193
000020 bb 1d 1b ba 67 ec ee b8 b5 b4 8e bd cf 0b 16 3a
       -0.0005917211 -0.00011392758 -0.06968061 0.00057238055
000030 0e 75 5f ba 29 c4 24 ba 8a 0f 0d bc 39 c1 f9 bd
       -0.00085242174 -0.00062853337 -0.008609662 -0.121950574
000040 2b e6 ff 3e c9 4d 1f bf df 45 55 39 fc 07 57 b9
       0.49980292 -0.62228066 0.00020339292 -0.00020506972
000050 d0 8e fd 3d f6 d8 9b be 96 99 03 3e 3f 2e 18 be
       0.12380755 -0.30438966 0.12851557 -0.14861391

norm0.running_mean f4 [24]
000000 ff af 00 c1 42 5f 11 bf fa 40 a0 40 3b aa c6 bd
       -8.042968 -0.56785977 5.0079317 -0.09700438
000010 3c 3d dd 3e 82 20 85 40 fa 40 a0 40 3b aa c6 bd
       0.4321078 4.1602182 5.0079317 -0.09700438
000020 1b eb 00 c1 4d 2d 13 bf fa 99 a4 40 e3 60 cc bd
       -8.057399 -0.57491 5.143796 -0.09979417
000030 44 c0 dc 3e 70 02 85 40 fa 99 a4 40 e3 60 cc bd
       0.43115437 4.1565475 5.143796 -0.09979417
000040 19 f4 00 c1 cc bc 14 bf f4 f0 a6 40 9a 71 d1 bd
       -8.059594 -0.5810058 5.216913 -0.10226746
000050 15 86 db 3e 84 e6 84 40 f4 f0 a6 40 9a 71 d1 bd
       0.42875734 4.153139 5.216913 -0.10226746

norm0.running_var f4 [24]
000000 30 59 87 41 13 97 90 3f 7d 66 b2 43 e0 83 72 41
       16.918549 1.1296104 356.8007 15.157196
000010 b2 34 dc 41 f6 97 0d 40 7d 66 b2 43 e0 83 72 41
       27.52573 2.2124 356.8007 15.157196
000020 d9 cb 86 41 f5 0f 91 3f 3f 60 b3 43 56 7c 74 41
       16.849535 1.1332995 358.75192 15.280355
000030 f4 18 e0 41 89 9b 0f 40 3f 60 b3 43 56 7c 74 41
       28.012184 2.243868 358.75192 15.280355
000040 87 41 85 41 06 07 91 3f b9 8f b6 43 df bf 79 41
       16.656996 1.1330268 365.12283 15.609344
000050 3b ba e3 41 c5 85 11 40 b9 8f b6 43 df bf 79 41
       28.465933 2.2737896 365.12283 15.609344

fc1.weight f4 [256, 24]
000000 86 45 36 b8 53 38 52 38 45 7a af 3c d8 3d fa 38
       -4.345693e-05 5.0120358e-05 0.021420607 0.00011932448
000010 a0 f6 f3 3b 96 2d 6e 3c 9b 6e 4a bd d7 74 cf 3c
       0.0074451715 0.014537236 -0.049421888 0.025324268
000020 15 44 c9 b9 11 0b 9d b9 ee 2f e0 bc d3 c8 a0 b9
       -0.00038388433 -0.0002995362 -0.027366605 -0.00030667204
000030 22 e2 1d b9 a3 99 99 38 5c 70 c1 bb 64 21 42 3c
       -0.00015056928 7.3242256e-05 -0.005903287 0.011848781
000040 e1 37 cb 3c 5b b6 3f 3d 0f 61 6c 38 2b 50 13 ba
       0.024806919 0.046804767 5.6357178e-05 -0.0005619551
000050 cd a5 01 3c c7 e2 a6 3c 3a 52 ef bb ee b8 a4 3c
       0.007913065 0.020371808 -0.0073035033 0.020107713
000060 18 90 c9 33 1d d3 01 34 87 ef 9e b6 27 f3 85 b4
       9.3860024e-08 1.2090864e-07 -4.7366516e-06 -2.4950097e-07
000070 29 ad 7c b8 2d ed c1 37 88 17 3a 37 52 00 fe b7
       -6.024275e-05 2.3117836e-05 1.1091943e-05 -3.0279309e-05
000080 3d da 02 34 63 5d da 33 91 b1 e8 b6 6e 31 9d 32
       1.2186588e-07 1.0168403e-07 -6.9348102e-06 1.8299684e-08
000090 48 29 30 b4 87 f9 34 b4 97 83 aa 33 06 fc 93 b7
       -1.6406295e-07 -1.6854584e-07 7.940178e-08 -1.7641123e-05
0000a0 61 5a 35 38 8c 41 e9 b7 d7 4e 8d 33 19 7a 65 33
       4.3237935e-05 -2.7806287e-05 6.580165e-08 5.3429265e-08
0000b0 9c af 38 b7 53 0c 72 38 24 d8 1b 38 d1 e6 56 b8
       -1.1008142e-05 5.7708774e-05 3.7156176e-05 -5.123654e-05
0000c0 ec ae b5 34 33 4b 26 35 0b 06 b7 b6 01 dc ca b5
       3.384115e-07 6.194925e-07 -5.4545285e-06 -1.5114202e-06
0000d0 31 13 75 ba 6d c5 e2 39 a8 61 35 37 80 0a 61 b9
       -0.0009348868 0.00043253173 1.0811178e-05 -0.00021461584
0000e0 42 1a 74 34 fe b4 da 34 c7 5a e8 b7 61 a4 71 35
       2.2733823e-07 4.0737353e-07 -2.7698827e-05 9.00187e-07
0000f0 8e 83 5a b6 42 ad 6e b5 e9 c9 a0 b4 fd 3f 09 b9
       -3.2561106e-06 -8.891403e-07 -2.994923e-07 -0.00013089176
000100 13 e5 ce b9 2a 32 62 b9 8d 2b 80 33 da 20 59 33
       -0.00039462055 -0.00021571727 5.968386e-08 5.0554128e-08
000110 a5 7f e0 3a 66 ea cc 3a 5e 1f 99 b8 6e 9d a6 b8
       0.0017127885 0.0015633821 -7.301451e-05 -7.9448204e-05
000120 95 48 10 3a 21 61 a7 b6 45 40 98 3c cf 30 38 ba
       0.00055039796 -4.988295e-06 0.018585334 -0.0007026316
000130 5e 30 c1 bb 4a 4d 6c bc c8 d7 fb bc 6a 54 75 bd
       -0.0058956584 -0.014422724 -0.030742541 -0.059894957
000140 5f 8c 29 3a 52 3e 6a 39 95 ad 3e 3d 64 6f e9 b9
       0.00064677553 0.00022339195 0.04655226 -0.00044524216
000150 95 c7 8d b8 71 cb 07 38 7b af 32 3c 73 a6 8a 3d
       -6.760579e-05 3.2375978e-05 0.010906096 0.06770029
000160 99 d6 71 bd 60 64 e0 ba fd 51 6c 39 2e b7 fe 39
       -0.059042547 -0.0017119758 0.00022537257 0.00048583135
000170 d6 bd 58 3d 49 48 63 3c 0b 2f c0 3c 6d a3 b7 3d
       0.052915417 0.013872215 0.023459932 0.08966718
000180 f7 4f 9a bc 0a 7f 6b 3c b9 07 b0 bb ee c4 64 3b
       -0.018836958 0.01437355 -0.0053720144 0.0034907418
000190 ca ce ca 3d ae b7 7e be f7 e7 37 3b 4f ea 1d 3e
       0.09902723 -0.24874756 0.0028061846 0.15421413
0001a0 af 84 99 bb 51 f3 43 3c fb 0b 6d bb 59 a3 6c 3b
       -0.0046850066 0.011959867 -0.003617047 0.0036108105
0001b0 64 25 2b bc 45 92 3c bc d0 35 08 bc 17 2a 1f 3e
       -0.010445926 -0.011509483 -0.008313611 0.155434
0001c0 27 0a 9b be a7 b6 84 3e ba 14 ed 3b 5c f0 6e 3c
       -0.30281183 0.25920603 0.007235137 0.014583673
0001d0 99 1a 2a 3e d6 1c f7 3d a8 53 24 bd 28 e1 02 3f
       0.16611709 0.12066047 -0.040118843 0.5112481
0001e0 2c 45 1c 34 48 89 47 36 f0 99 1a 38 78 3f b7 37
       1.4553797e-07 2.973322e-06 3.6859827e-05 2.1844855e-05
0001f0 45 0a 67 3b cd c8 3d 3c 25 03 65 39 11 9b d9 3a
       0.0035253924 0.011583519 0.00021840313 0.0016602
000200 a0 fb 09 b6 01 c7 18 b6 d1 7d 3a 3b 96 e7 24 b7
       -2.0561056e-06 -2.27656e-06 0.002845634 -9.829082e-06
000210 27 df e5 b6 f2 22 f6 b6 8a 6a b3 39 45 e8 e4 3a
       -6.85071e-06 -7.3354395e-06 0.00034220918 0.0017464241
000220 fe c7 f3 bb ce d4 20 3c 40 4c 28 b6 92 8a 97 b7
       -0.0074396124 0.009816362 -2.5078334e-06 -1.806513e-05
000230 56 65 3c 3c 01 ee 63 3c 53 10 9e b9 f6 68 3c 3b
       0.01149877 0.013911725 -0.0003014827 0.0028749085
000240 39 54 24 3b 0d 69 c6 35 c9 c9 40 bb 48 7e 20 38
       0.0025074615 1.4782723e-06 -0.0029417148 3.826458e-05
000250 54 ed d4 3c fe 55 e4 bb 32 4a 42 3c 47 a2 77 3c
       0.025992073 -0.006968259 0.01185851 0.0151143735
000260 e8 81 25 b7 98 47 97 bb c9 9b 86 3c d5 70 89 37
       -9.8650125e-06 -0.004616689 0.016431706 1.6384214e-05
000270 8e 29 69 b8 95 b6 15 3a a0 a1 98 3b f9 6c 2f 3b
       -5.559023e-05 0.0005711106 0.004657939 0.0026767834
000280 6e 56 11 bd ef 48 0b 3d 50 7a 77 37 a5 4d a6 b7
       -0.035482816 0.0340051 1.4750825e-05 -1.9824898e-05
000290 b1 e8 01 3c 74 56 21 bc 1a 69 ad bc 12 a6 ce 3b
       0.007929013 -0.009847272 -0.02116828 0.006306418
0002a0 86 52 dd bb f7 77 66 3a 69 94 b7 3c c2 74 be b9
       -0.0067542223 0.000879168 0.022409635 -0.00036326615
0002b0 f4 81 29 3d 3a 7f 32 3c d7 ae 0d bd b9 8b a0 3d
       0.0413837 0.010894591 -0.03459057 0.0783915
0002c0 6c f1 2c bb 73 6b 8d 3b f4 2d ab bc 83 3c 4d 3b
       -0.0026389016 0.0043157875 -0.020895936 0.0031316585
0002d0 03 9a 28 bb 77 bc 87 bb 2c e9 a4 bc 7b a9 88 3c
       -0.0025726564 -0.00414234 -0.020130716 0.016682377
0002e0 bd 06 a9 be 5d bb 3f 3e 71 f5 a5 3a 11 d8 91 ba
       -0.33012953 0.18723817 0.0012661648 -0.0011127015
0002f0 d1 67 fb 3d 25 09 a6 bb 9f 1e 25 3c 31 be 96 3d
       0.12275661 -0.005067008 0.010078101 0.07360495
000300 fe b5 3f 39 99 9f cd 3b a8 fd a8 bc ba 5f 97 3b
       0.00018282977 0.006275129 -0.020628765 0.004619566
000310 a3 4e 52 3c 0a 3b 31 3d 28 24 63 3c 5f 9b d8 3d
       0.012836131 0.043269195 0.013863601 0.1057651
000320 7e 54 15 bb 65 e6 38 3b af 89 4c 3d ec 58 4c 3a
       -0.0022785957 0.0028213498 0.049935993 0.0007795233
000330 c7 90 7f 3a a1 7f 10 39 f9 80 90 3c 9d ad d2 3c
       0.00097490515 0.00013780456 0.017639624 0.02571755
000340 c1 38 05 bf a7 95 69 bb 5c 11 73 3b 83 ad 89 3a
       -0.52039725 -0.0035642178 0.0037089204 0.0010503981
000350 fb 75 1f 3e cb a0 1d bd 36 3d 45 3d ab 72 56 bd
       0.1557235 -0.038483422 0.04815408 -0.05235545
000360 17 cf 42 37 8f 64 2d b6 46 8f 0e 3a 68 5e d5 b6
       1.1611518e-05 -2.5837542e-06 0.00054382195 -6.358885e-06
000370 30 39 7f 3b d7 3f ae 3b e3 e2 9b b9 40 d8 fe 3a
       0.0038943999 0.005317669 -0.00029732948 0.001944311
000380 c3 88 10 38 bf db c4 b6 c2 4c 63 3b 7a 17 2f 36
       3.4459645e-05 -5.866837e-06 0.0034683202 2.6090697e-06
000390 89 4f 4d b7 e3 3d 0b 38 fe a7 5a 3a 75 63 83 3a
       -1.223747e-05 3.319782e-05 0.0008341073 0.0010024147
0003a0 47 88 cc bb 9f f0 9a 3b 2b 8e 03 b5 3b d4 bc b6
       -0.0062418315 0.0047283913 -4.9008185e-07 -5.6275435e-06
0003b0 3e c5 d7 3b 3b eb c9 3b ba 14 3a bb 8e c4 4f 3b
       0.0065847924 0.006162075 -0.0028393702 0.003170285
0003c0 78 e2 09 bc a0 ab 28 bb 0b 67 ca 3b af 57 05 3c
       -0.008415811 -0.0025737062 0.0061768345 0.008138581
0003d0 6c 6a ea bc 73 b9 8c 3d da 6a d6 bc 56 67 0e 3e
       -0.028615199 0.06871309 -0.026173998 0.13906607
0003e0 ad ad 4c 3b a3 c8 f0 bb 6d 3f a5 bc b4 36 8f b9
       0.0031231449 -0.0073481365 -0.020171845 -0.00027315842
0003f0 c6 50 24 3c 7e 38 e6 3a d1 51 e5 bb c6 6c ea 3d
       0.0100290235 0.0017564443 -0.0069982787 0.11446528

fc1.bias f4 [256]
000000 2a 72 15 bd 2d 59 bf b9 31 90 40 bb eb 72 1c bd
       -0.03648583 -0.000364968 -0.002938282 -0.03819553
000010 60 60 ff bd 5b 72 bb bc 02 84 64 bc 91 a5 74 bd
       -0.12469554 -0.022881677 -0.013947489 -0.05972821
000020 8e c2 70 bd 3a 43 47 bc 15 7a 85 3c 12 c1 ba bd
       -0.05877929 -0.012162024 0.016293565 -0.091188565
000030 8f 33 40 be 7a df 2c be a0 48 2b bd 02 72 a8 bc
       -0.18769668 -0.16882125 -0.041817307 -0.020562176
000040 e7 87 6a bd 65 92 61 ba e4 35 cd bc 09 85 04 bd
       -0.057258513 -0.00086048833 -0.025050111 -0.032353435
000050 26 da 06 bb ab e2 e6 bd 3d 21 77 bc 05 04 c1 bc
       -0.0020576804 -0.11273702 -0.015083608 -0.023561487
000060 9a 4b 6e bc 92 94 ba bc 78 5f 87 bd 4d 73 1d ba
       -0.014544392 -0.022775922 -0.06610006 -0.0006006256
000070 c4 90 8d bb 3f 26 08 be 3d 3f 7b bd 27 9b ac b9
       -0.004320236 -0.1329584 -0.061339606 -0.00032921994
000080 29 69 0d bd a5 22 8b bc df 3c e9 bb d9 3b 9b bc
       -0.034524117 -0.016984293 -0.007117852 -0.018949436
000090 c9 2e 01 bd 8b 29 fb bd d9 1e 63 bd c9 82 09 bd
       -0.03153876 -0.12263783 -0.05544934 -0.033571992
0000a0 f7 a6 2e bd 7f 0f 97 bf 59 9b 20 bd c6 8d 3e bc
       -0.0426397 -1.1801604 -0.03921065 -0.011630481
0000b0 09 32 34 bd 89 48 06 bc 38 0b 95 be 5f 24 c5 be
       -0.04399303 -0.008196005 -0.29110122 -0.3850431
0000c0 86 4c 93 be ff c5 ef bc 7c 4c 7c be 85 cb a3 bc
       -0.2876932 -0.029269217 -0.24638551 -0.019994507
0000d0 e4 a7 03 bc f5 31 80 bb 61 50 fa 3c 3d e2 f3 bc
       -0.008035634 -0.0039122053 0.030555906 -0.029770965
0000e0 6a 97 f1 bc 08 1a 2e bb d6 4a aa bb 09 64 46 be
       -0.029491145 -0.0026565809 -0.0051969094 -0.19374098
0000f0 68 33 08 bd 51 53 a1 bc cf 0c e2 bc 65 ef 41 bb
       -0.03325215 -0.019693049 -0.027593998 -0.0029592153
000100 63 c9 e3 3d 39 99 a6 bd 7d 22 6b bc fa 0c 9a bc
       0.11122396 -0.08134694 -0.014351484 -0.018805016
000110 84 5b c9 bd cb 06 46 bd b4 0a 89 b8 8a 0c e4 bc
       -0.09831908 -0.048346322 -6.534663e-05 -0.02783801
000120 34 0b 82 bd dd 69 b4 bd a1 ef 1c bb ea 87 c2 bd
       -0.06349793 -0.08809254 -0.002394654 -0.0949858
000130 a9 57 15 bd f7 0c d2 bc 46 ea 97 bd b5 3c ea 3d
       -0.036460552 -0.025640948 -0.07417731 0.1143736
000140 37 93 01 bd a6 52 7f bd 25 78 9a ba 06 51 3d bc
       -0.031634536 -0.06233468 -0.0011785073 -0.011554962
000150 f1 2f 8f bc 5a 83 07 be 9c a8 83 bd 5a c9 e3 bb
       -0.017478915 -0.132337 -0.06428644 -0.006951493
000160 79 6a 0d bd 80 ab 87 bd 43 bc a0 bb fe b8 c0 bd
       -0.03452537 -0.06624508 -0.004905255 -0.094102845
000170 34 a4 02 bd 82 ff 43 bd a8 a5 9c bb 24 14 17 bb
       -0.031894878 -0.047851093 -0.00478049 -0.0023052776
000180 a1 8d 63 bd 69 aa 61 bd a6 f2 10 bc 06 65 25 bd
       -0.05555499 -0.055094156 -0.008846914 -0.040379547
000190 d9 52 e2 bb 69 b8 87 bb 74 a3 ae bc 6a 95 f7 b9
       -0.006906849 -0.0041418565 -0.021318175 -0.00047222833
0001a0 ed 29 ae bc b0 3b 59 b7 ae f8 1d bd 90 d4 90 bd
       -0.021260226 -1.2948105e-05 -0.038567238 -0.07071793
0001b0 ac 63 5e bd 40 88 85 bc 98 c8 cc bc fb c3 4f bb
       -0.054294273 -0.01630032 -0.024997994 -0.0031702507
0001c0 ea f3 01 bc 7a 63 2d bb 08 d9 21 ba 5c 01 69 bc
       -0.007931689 -0.0026456998 -0.0006174003 -0.0142215155
0001d0 e9 11 a2 bb 3f 8b 50 bd df f8 6f bd c5 03 01 be
       -0.0049459827 -0.050914045 -0.05858695 -0.12599094
0001e0 c9 0e 85 bc 71 c4 8d bc fc 26 0d bd 19 2d d8 bc
       -0.016242402 -0.017305585 -0.034461007 -0.026388692
0001f0 35 6c d1 be 3d 03 72 bd 61 51 01 bb 24 cf 6a bb
       -0.40902868 -0.05908512 -0.0019732343 -0.0035829032
000200 bb c3 80 bd 15 09 95 bd 33 43 8e b9 7f 62 cf bc
       -0.062873326 -0.07277123 -0.00027134418 -0.025315521
000210 25 85 57 bb 41 0d ac bb 18 f7 82 bb 5f a4 2e bd
       -0.0032885757 -0.0052506034 -0.003996741 -0.042637225
000220 57 79 81 bc 7d 65 ff ba c5 22 3e bd 1a 42 00 bd
       -0.01580493 -0.0019485202 -0.046419878 -0.03131304
000230 a7 b4 64 bd 13 6c 36 be 5d 9d 07 bd 07 ae c8 bb
       -0.055836346 -0.17814665 -0.033109058 -0.0061242613
000240 0b 5d 1f bd 3e 53 73 bd 49 67 c3 bc e3 cf 37 bd
       -0.038907092 -0.059405558 -0.023852961 -0.04487599
000250 0d b1 54 bd f6 24 60 b8 19 38 4f bd e1 34 79 bd
       -0.05192666 -5.3440184e-05 -0.05059061 -0.060841445
000260 b3 c7 8b bb fd e3 ce bc 6e 3b 50 bc 2f e5 55 ba
       -0.0042657494 -0.025255198 -0.012709482 -0.0008159456
000270 36 f6 51 bb 16 af b6 bc f7 10 eb bd f5 75 64 bd
       -0.0032037622 -0.022300284 -0.11477845 -0.055776555
000280 4f a6 8b bd 96 5b 5d bb 48 de be bb 09 f5 1c b8
       -0.0681883 -0.0033776513 -0.005824838 -3.7421505e-05
000290 a7 8b 5f be 99 d4 5d ba bf 25 a0 ba ad 0f ce ba
       -0.21830617 -0.00084621605 -0.001221828 -0.0015721224
0002a0 a7 19 ea be 98 b9 71 bd f9 db dc bd f7 69 6c bd
       -0.45722696 -0.059014887 -0.10784144 -0.057718243
0002b0 89 72 72 bd 6e c1 96 bd 70 d9 d8 bc 02 03 1f bd
       -0.05919126 -0.073611125 -0.02647087 -0.038821228
0002c0 88 10 54 bd 1f 15 e7 3c 40 97 16 bb 93 b9 39 bc
       -0.051773578 0.028208314 -0.0022978336 -0.011335748
0002d0 6e 40 5e ba c6 8f b9 b8 84 2b 07 bc 37 9f 81 bd
       -0.00084782287 -8.848267e-05 -0.008250121 -0.06329196
0002e0 d8 e1 25 bd be cb 17 bd 3e ea ba bb c6 51 f8 ba
       -0.040498585 -0.037059538 -0.0057041934 -0.0018945269
0002f0 2d 46 0d 3e 2b 13 56 bc e9 d9 26 bc 90 f5 72 bd
       0.13796301 -0.013066093 -0.01018379 -0.059316218
000300 b0 75 22 bd 86 fc be bb 0f 9d f2 bc 27 89 41 be
       -0.039663017 -0.005828443 -0.029615907 -0.18899976
000310 20 18 38 bd 13 6b 99 be 44 a4 d6 bc 3d b7 16 bd
       -0.044944882 -0.29964504 -0.026201375 -0.036795843
000320 c3 6d 21 bd b0 b8 d0 bd 35 85 91 bd 94 16 38 bd
       -0.039411318 -0.10191476 -0.07105485 -0.044943407
000330 28 b9 15 ba c3 bd 6f be 0c e5 33 bd 4d 2d 8d 3d
       -0.00057114894 -0.23412232 -0.043919608 0.06893406
000340 34 17 67 bd dd ea 31 bc ed 01 41 b8 d4 fd 79 bd
       -0.056418613 -0.010859218 -4.601658e-05 -0.061033085
000350 fc b3 82 bd b1 a5 27 3c 20 be a4 bb 72 0d 74 bc
       -0.063819855 0.010232375 -0.0050275475 -0.014895784
000360 a8 1e e5 bd f2 ae 7f bb 0d fc 6c bd c4 84 e2 bc
       -0.11187488 -0.0039014188 -0.05785756 -0.027651198
000370 46 8a 93 ba 87 9f a2 bd 0b 0b 4c bc 80 e1 1e bf
       -0.0011256419 -0.07940584 -0.012453805 -0.62062836
000380 ab 7e 08 be 54 2e 78 bd 0d bd 5c bc 38 6c 91 ba
       -0.1332957 -0.060591057 -0.013472808 -0.0011094874
000390 58 ab a9 bd 67 a9 0c bb d9 a4 c1 bc e2 a5 22 be
       -0.08284634 -0.0021463276 -0.023638176 -0.15883592
0003a0 68 d2 23 b7 db f7 9c b9 b5 06 6e bd 9e 8c f6 bc
       -9.764546e-06 -0.00029939305 -0.058111865 -0.030096348
0003b0 83 5c a0 3d c6 36 83 bb f5 e0 b8 b9 4f f7 83 bd
       0.07830145 -0.0040043322 -0.0003526282 -0.06443655
0003c0 1b 64 2b bd 27 5a 8a b9 f2 89 e1 bc 35 01 37 b9
       -0.041843515 -0.0002638858 -0.027531598 -0.0001745269
0003d0 c3 a1 7c bb 58 cd 7e be 20 72 d6 bd f2 50 a2 bc
       -0.0038548566 -0.2488302 -0.10470986 -0.019813988
0003e0 f9 12 ce bc de a9 7f 3d 02 8a 5a bd 6b f7 44 be
       -0.025155531 0.062417857 -0.05335427 -0.19235007
0003f0 26 cb ab bc a1 2b 34 3c ac 63 a0 bc 27 ff 14 bd
       -0.020970892 0.01099673 -0.019578777 -0.036376145

fc2.weight f4 [256, 258]
000000 31 26 ef b7 0a 88 85 b6 93 a8 1e b7 75 14 9f 3b
       -2.8508804e-05 -3.979546e-06 -9.456783e-06 0.0048547336
000010 c0 da 85 bc 64 3e 81 b7 b0 38 2c bb 33 ef dd bb
       -0.01633966 -1.5407051e-05 -0.0026278906 -0.0067728995
000020 cf c6 03 bc a5 f5 a9 3a de a5 a2 bb b6 4e 4b bc
       -0.008043005 0.0012966885 -0.0049636206 -0.012408903
000030 70 63 4e 3c 64 0b 2a bd dd 5b 4a 3c 34 c5 05 38
       0.01259695 -0.04151477 0.0123510035 3.189333e-05
000040 d7 ce 10 bc 66 7e 02 b7 9d 05 b4 b8 41 2f 2c b9
       -0.008838377 -7.778033e-06 -8.5841144e-05 -0.00016420802
000050 f2 0a 47 b7 bb bb ae 3c f8 17 8b b8 4c 53 f1 b8
       -1.1863873e-05 0.021329751 -6.632501e-05 -0.00011507291
000060 5c 82 ab 38 b3 2a 05 b9 61 6b 6e 3d 28 40 f9 b6
       8.178197e-05 -0.00012699775 0.058207873 -7.428247e-06
000070 6e 98 26 b8 e8 9e ce 3b 1f 03 e7 bb 37 2d 5b b6
       -3.9719445e-05 0.006305564 -0.0070499326 -3.2659862e-06
000080 b7 4c e7 3b ac 2a f3 b7 d9 0d c7 b7 ec 6a ce 3c
       0.0070587057 -2.8987728e-05 -2.3729097e-05 0.025197469
000090 89 cf 74 bd 43 c0 81 bd 9c 1e 06 bc 99 45 16 b9
       -0.059768233 -0.06335499 -0.008186009 -0.00014331042
0000a0 da 8f 5d ba 0f df 84 3b dd 08 93 b8 1d 88 8b ba
       -0.00084519165 0.004054911 -7.011157e-05 -0.0010645423
0000b0 70 76 9a b8 7a bc 8f b8 a7 48 83 bd a3 1a b1 bd
       -7.365353e-05 -6.853878e-05 -0.06410342 -0.08647659
0000c0 21 43 e0 bd 66 78 95 ba d4 e4 e0 bb 47 3c ec b8
       -0.10950304 -0.0011403679 -0.006863216 -0.000112645845
0000d0 17 d6 3a b8 e1 a9 db b7 d0 13 84 3d 46 61 ea b8
       -4.4545242e-05 -2.618594e-05 0.064490914 -0.00011176108
0000e0 d5 4f 48 3a d0 03 6d b7 ce af e5 b7 24 fc 4d bc
       0.00076412904 -1.41271885e-05 -2.7380793e-05 -0.012572322
0000f0 d2 69 3f b9 3b fe 6a 3a 12 9c e2 b9 06 76 71 b7
       -0.000182546 0.0008964275 -0.0004322236 -1.4392199e-05
000100 0e dc 12 bd 3c ea db b9 02 4a 8c 39 2c 0b 2a b8
       -0.03585439 -0.00041945453 0.0002675802 -4.0541563e-05
000110 aa 5f cb 3b 37 34 ae bd bc 3a 12 b5 d4 91 54 39
       0.0062064724 -0.08506053 -5.447471e-07 0.0002027222
000120 20 9d 15 bb ab 44 5a bd ff 46 b2 b7 95 66 a9 bc
       -0.002282925 -0.053288143 -2.1252314e-05 -0.020678798
000130 32 ae f2 3c e4 2b 8e 38 b2 a5 8d bc 97 43 b8 3b
       0.029624078 6.779263e-05 -0.017290924 0.0056232917
000140 58 a2 80 3b d4 c1 e0 ba 24 fd 2f b7 71 60 57 b8
       0.003925603 -0.0017147609 -1.0489752e-05 -5.1349813e-05
000150 c0 92 a8 b8 62 71 5c bd 3e d0 f5 bb 33 60 61 b8
       -8.0381986e-05 -0.053819068 -0.007501631 -5.3733773e-05
000160 49 59 38 3b 90 9f 97 b9 c7 73 16 b8 74 47 9c bb
       0.002812939 -0.00028919848 -3.5870613e-05 -0.00476926
000170 00 a7 5d bb d9 8d 08 bc 15 87 f4 b7 51 05 5c b7
       -0.0033821464 -0.0083346 -2.914997e-05 -1.311426e-05
000180 fc 68 a7 bb 7e a4 85 bc 5f 96 7e b8 89 70 80 3a
       -0.0051089507 -0.016313788 -6.0698363e-05 0.0009799163
000190 5c 7c 48 b8 30 dc 07 37 36 c0 e1 b8 a9 cc 56 b6
       -4.7799535e-05 8.097893e-06 -0.00010764638 -3.2007613e-06
0001a0 c7 fa 16 b9 8c f5 ed b3 53 74 71 3a 14 67 a0 3b
       -0.00014398537 -1.1080837e-07 0.0009210754 0.0048951004
0001b0 cd cb 51 3c 3f 80 9f b8 5b 83 ea b8 00 bb 33 bb
       0.012804938 -7.6055985e-05 -0.000111824564 -0.0027424693
0001c0 60 cf 37 b8 af 0b 0c 37 7e 02 48 b6 37 8e e2 3b
       -4.3823733e-05 8.347371e-06 -2.9803773e-06 0.006913926
0001d0 ba 36 f6 b7 32 15 09 b9 74 79 89 3d dc 3a 54 ba
       -2.935097e-05 -0.00013073234 0.067126185 -0.0008095929
0001e0 b5 49 58 39 9b 9b b3 b8 01 9c 4f b9 24 5a 1e b9
       0.00020626823 -8.564369e-05 -0.00019799174 -0.00015101634
0001f0 00 3d 0b be 54 08 84 bc b5 c2 80 b7 b4 10 00 b8
       -0.13597488 -0.016117252 -1.5349457e-05 -3.0533134e-05
000200 98 59 a7 38 82 ba cf bc 03 89 05 b6 ab f5 06 b9
       7.979869e-05 -0.025357489 -1.9898296e-06 -0.00012870754
000210 07 ff d2 b7 94 13 22 b8 f9 21 02 b8 50 e7 b3 3c
       -2.5152707e-05 -3.8642043e-05 -3.1026055e-05 0.021960884
000220 b8 91 1f b9 1b 5e 84 b7 dd db 1f ba af 3a b3 b9
       -0.00015217706 -1.5779447e-05 -0.0006098131 -0.00034185263
000230 3a e7 96 ba ab 87 df 3b 68 36 c0 bc 39 98 89 37
       -0.0011513003 0.006821593 -0.023463443 1.6402557e-05
000240 37 4a 12 ba 48 84 2d bc 34 a7 49 b9 6c 0d 5c b9
       -0.0005580517 -0.01059062 -0.00019231142 -0.00020985835
000250 9d dd a3 bb cf 69 0d b5 21 27 1f 3b de 1b 79 3c
       -0.0050007836 -5.2680565e-07 0.0024284797 0.015204398
000260 bc 1f 8b b7 51 a8 b8 b8 42 64 4c b8 77 42 32 b7
       -1.6584869e-05 -8.805155e-05 -4.8730763e-05 -1.0625102e-05
000270 1e 2d b9 b7 54 9c da bc 2b df d7 3c 3f 20 a1 b9
       -2.2074728e-05 -0.026685871 0.026351532 -0.00030732338
000280 8a 67 3b 3b 8f 85 01 b8 c9 e2 12 b7 98 df 02 30
       0.002859565 -3.0880383e-05 -8.755081e-06 4.761147e-10
000290 05 d8 aa bb e4 3e f4 b6 a8 97 a2 37 1f c7 a9 b7
       -0.00521374 -7.279088e-06 1.9382525e-05 -2.0239093e-05
0002a0 95 0f c1 3d 20 43 ac 3b cd 62 8b 3c b3 21 84 bb
       0.094268 0.0052570254 0.017014885 -0.0040323376
0002b0 50 ac a1 bb 8e 4a 40 bc 47 71 39 bc 18 3f b5 b9
       -0.0049338713 -0.011736525 -0.011318511 -0.0003457002
0002c0 b2 20 b0 bc 06 69 1f bd fc da c9 b7 b9 56 8d b8
       -0.021499965 -0.038918518 -2.406304e-05 -6.739557e-05
0002d0 cc b4 96 b7 8c 91 8f b5 78 f6 5a b8 65 75 8e bc
       -1.7965584e-05 -1.069669e-06 -5.2204792e-05 -0.017389962
0002e0 5d f4 27 b9 b2 0f 4f b9 50 0e b2 b7 76 ec 63 b7
       -0.00016017394 -0.00019746905 -2.1225918e-05 -1.358531e-05
0002f0 e8 5b 4a be ce 97 0d 3a ef ce c1 b5 57 0c 4c 3d
       -0.19761622 0.0005401344 -1.4439846e-06 0.049816456
000300 35 80 d3 b9 ec 05 1a b8 29 ed bf b8 e3 ca 56 3c
       -0.00040340578 -3.6721976e-05 -9.151764e-05 0.013109895
000310 19 f1 15 3a f7 84 67 bd 72 42 30 b9 af 1f fa b8
       0.0005719825 -0.05652329 -0.00016809421 -0.000119268305
000320 80 ee fb b8 a4 9f 00 3b 01 66 73 bb c9 cc 0d 3a
       -0.00012013037 0.0019626403 -0.0037139656 0.00054092385
000330 3c da 8d b6 d2 ec 2d 3c 17 c6 3a b9 60 37 1e 3d
       -4.2275333e-06 0.010615544 -0.00017812137 0.03862703
000340 59 26 90 bb 43 cd 43 b9 75 e7 eb b4 2f d1 d4 ba
       -0.0043991026 -0.00018673115 -4.3940568e-07 -0.0016236658
000350 24 da d9 ba 17 6d 17 bc f8 16 6c 36 da d3 ad b8
       -0.0016620797 -0.009242318 3.518011e-06 -8.288743e-05
000360 e9 89 22 bc 9b 69 8f b6 63 04 77 bd 62 2e 32 b9
       -0.009920576 -4.274026e-06 -0.060306918 -0.00016992682
000370 bc bf cc b6 9e f0 72 bd b6 f7 0c bb 39 d5 8b bd
       -6.1019946e-06 -0.0593115 -0.0021509952 -0.06827778
000380 9c 45 e2 bc 8a bd f1 ba c8 64 01 3a f6 32 83 b7
       -0.027621083 -0.0018443328 0.0004935977 -1.5640147e-05
000390 e4 58 be 3b fa d2 3c b7 98 1c c1 36 d9 0c 57 bc
       0.0058089364 -1.1254795e-05 5.755177e-06 -0.013125622
0003a0 2a 08 ac b3 e2 37 83 b8 3d 7e aa ba 4e 48 d3 3a
       -8.010859e-08 -6.256976e-05 -0.0013007593 0.0016119571
0003b0 c8 1d 20 3c 54 ce 06 b8 38 cb 2b b6 51 bc 97 bc
       0.009772725 -3.2140248e-05 -2.5599275e-06 -0.018522413
0003c0 d7 9d d3 bb a3 84 13 b6 75 cf e0 39 83 6a c8 b5
       -0.006458025 -2.1981912e-06 0.00042879177 -1.493216e-06
0003d0 d7 d5 b2 b7 3f 4e d8 bc 55 8e 93 3c 48 55 10 39
       -2.131883e-05 -0.026404498 0.018012205 0.0001376468
0003e0 3b e7 98 3b 34 db 83 3d 59 92 d6 ba 63 c1 cf bc
       0.0046662367 0.06438294 -0.0016370519 -0.025360769
0003f0 6e 1d e0 bb 41 64 a2 3d 8d ca e2 b8 f7 32 80 ba
       -0.006839446 0.07929278 -0.00010814248 -0.0009780814

fc2.bias f4 [256]
000000 e5 c7 4a bd 93 7d f8 bc 3f 29 9c bc 37 9d 61 ba
       -0.04950704 -0.030333316 -0.019062636 -0.00086064957
000010 fe 4b 7f bc 6e 1b ce bc 04 c9 48 bc 97 7a 07 bd
       -0.015582083 -0.025159564 -0.012254957 -0.033075895
000020 7b 28 8e bb 27 c3 5c bd 36 20 3d bd 6f 5f 87 bb
       -0.0043383217 -0.05389705 -0.046173297 -0.0041312496
000030 b1 ef c0 bc 7a 3e 5b bc ce 23 95 ba d5 08 1a bd
       -0.023551794 -0.013381595 -0.0011378468 -0.03760608
000040 a8 99 99 bd a3 fe 21 bd e6 8b b8 ba 74 08 1c bc
       -0.07500011 -0.03954948 -0.0014079779 -0.0095235
000050 cb da b8 bb ae a4 24 bc b8 7f 37 bd fa 14 97 bc
       -0.0056413165 -0.010049028 -0.044799536 -0.01844262
000060 28 fa d0 3c 7d b3 af bc 99 a6 dc bc ef ef 53 be
       0.025509909 -0.021447891 -0.026934909 -0.20696996
000070 96 d0 84 bc 14 88 60 bd 69 4a 7f 3e 2e e6 37 bc
       -0.016212743 -0.054817274 0.24930729 -0.011224313
000080 da 0f 63 ba a5 65 96 bd f6 98 fc ba ee 7a 28 bd
       -0.0008661725 -0.07343606 -0.001927166 -0.04113286
000090 43 eb 87 bb db 18 ef bb 1a 81 46 bd 29 85 96 bc
       -0.0041479184 -0.007296664 -0.048462965 -0.018374043
0000a0 83 90 1c bc d8 85 9a bd 43 4a 07 3d ea 2e 5b 3d
       -0.009555939 -0.0754506 0.033029806 0.053511538
0000b0 0a 40 94 bc 5e a1 09 bd 2f ff a2 bc b5 04 fc bc
       -0.018096942 -0.033601157 -0.019897072 -0.030763963
0000c0 b2 9c b9 3d 1f 10 29 bc f0 59 ee bc f1 e4 0e bc
       0.090630904 -0.010318785 -0.02909562 -0.008721576
0000d0 4e 2b 03 bc d2 0e 2f be fd 01 69 bc 6a 58 10 bd
       -0.00800593 -0.17095497 -0.014221665 -0.03524057
0000e0 d1 d1 8a bd 11 84 0b bd 36 1a 2b be e1 0d 3e 3c
       -0.067783006 -0.034061495 -0.16709217 0.011599989
0000f0 e6 eb 41 bc a2 ef 7e 3d 4d dd 98 bc 5d b7 7f bc
       -0.011836028 0.06224025 -0.018660212 -0.015607682
000100 78 12 d4 bb 61 c1 61 bc 55 68 a9 bb 70 82 1e be
       -0.006471928 -0.013779015 -0.005169908 -0.15479445
000110 6d e1 2f bc a5 59 10 be 64 0b 99 bc 8c 2b 18 bd
       -0.010734898 -0.14096697 -0.01868219 -0.037150905
000120 5a 7d 53 bc 30 6a 1c bc a1 91 16 bd 1c 46 c0 bd
       -0.012908304 -0.009546801 -0.036759976 -0.09388372
000130 d1 80 2e bd 3c 24 55 bd 50 51 ec bd 9a 6a 89 bc
       -0.042603318 -0.05203651 -0.11538947 -0.016774464
000140 97 ad b3 bc b2 99 b9 bb bf 41 de 3d 6e ce d7 bd
       -0.02193336 -0.005664074 0.10852384 -0.1053742
000150 a8 71 30 bc 2c dd 08 bd 02 2b e2 bc 6d d0 63 bc
       -0.010769285 -0.03341405 -0.027608398 -0.013904673
000160 3e ae 72 bc a9 95 a1 bc d6 d5 b6 bc 3e d1 30 bc
       -0.01481205 -0.019724684 -0.022318762 -0.010792075
000170 5f 2e e3 bc c2 fe bd bc f3 94 83 bd 13 eb 81 bc
       -0.027732072 -0.023192767 -0.06424894 -0.015859162
000180 95 e5 0d bc be 6c a4 bb 8f ee 11 bd 41 ca 2e bb
       -0.008660694 -0.005017846 -0.035627898 -0.0026670846
000190 b1 2b 49 bc 4e 8e 3e bb 4b a1 bc bc 3f 44 04 bd
       -0.012278483 -0.002907652 -0.02302613 -0.032291647
0001a0 e6 30 79 bc 60 b5 71 bc 11 7d 92 bb a6 6b d6 bb
       -0.015209412 -0.014752716 -0.0044704755 -0.0065435944
0001b0 02 5e 81 bb c2 8b dd bb 41 65 10 bc 61 d6 09 be
       -0.003947974 -0.006761045 -0.008813203 -0.13460685
0001c0 00 f6 0b bd 10 36 04 bc b6 19 df bd 5b c0 d8 bc
       -0.03417015 -0.00806953 -0.10893576 -0.02645891
0001d0 44 07 f7 bc d6 b5 52 bd 99 66 09 bb 49 cc 5f bc
       -0.030154832 -0.051442944 -0.0020965694 -0.013659545
0001e0 28 b3 fd ba de 65 98 bc c6 d0 e1 bc 43 7f 00 be
       -0.0019355761 -0.018603262 -0.027565371 -0.12548546
0001f0 f3 5a 54 bb e0 71 53 bc 89 c6 f2 bc f5 de b7 bc
       -0.0032402843 -0.012905568 -0.029635685 -0.022445181
000200 32 0a eb 3b 3e 7d 84 bc c5 76 40 bd df aa de bc
       0.0071728462 -0.016173001 -0.046988267 -0.027181087
000210 52 7b 81 bd a9 4d c6 bd d0 5a db bc c5 4a d8 bc
       -0.063223496 -0.09682781 -0.026776701 -0.02640284
000220 d6 30 f9 ba e9 44 f6 bc d3 9a 0d be c9 3f 87 bd
       -0.0019011747 -0.030062156 -0.13828592 -0.06603963
000230 f8 09 d9 bb 96 8e e9 bc d5 46 57 bc 3c cc 59 bc
       -0.006623503 -0.028510373 -0.013139446 -0.013293322
000240 83 43 cd bb ba ca c0 bc 19 c2 42 bc e1 48 f0 bd
       -0.0062641515 -0.023534168 -0.011887097 -0.117326505
000250 ea 6f af bc ba c3 4d bd f3 fd 4c 3d 2f 9f 09 bd
       -0.02141567 -0.050235488 0.050046872 -0.033599075
000260 ca fc dd bb f8 e5 e8 bc 17 f3 8a bb 4c 0a 90 bc
       -0.0067745196 -0.02842997 -0.0042404043 -0.017583035
000270 ac 0d 53 bc 94 fb 1d bd b9 2f 06 bd 64 f4 14 bd
       -0.012881678 -0.03857 -0.032760356 -0.03636588
000280 1a 7f 59 bc a3 67 a9 bc 58 66 06 bd 74 0a 9c bc
       -0.013274932 -0.0206793 -0.032812446 -0.019047953
000290 58 c0 08 bc 95 6f e8 bc f3 be 64 3c fc 7d 59 bb
       -0.00834664 -0.028373519 0.0139615415 -0.0033186665
0002a0 7a f5 d3 bc 7c 21 6a bc 20 45 a1 bb 09 2c 7e 39
       -0.025873888 -0.01429021 -0.0049215704 0.00024239732
0002b0 21 75 0a bd 9b da f3 b9 22 97 fb bc 6b ba 78 bb
       -0.03380311 -0.00046511446 -0.030711714 -0.003795291
0002c0 8a 96 89 bc 5f d3 25 bd 75 cc ac bc 9d f8 ff bc
       -0.016795415 -0.040484782 -0.021093586 -0.031246478
0002d0 07 26 9e bc ef 96 7e bd 7f e9 c0 ba da 9a 95 be
       -0.019305242 -0.06215566 -0.0014718025 -0.29219705
0002e0 56 71 20 bd e6 19 2c bc 10 e2 21 bd f3 a5 40 bd
       -0.039170586 -0.010504222 -0.03952223 -0.04703326
0002f0 4f 15 66 bb 13 5f 29 3f a9 71 d9 bb 59 66 f0 bb
       -0.0035107916 0.66160697 -0.006635864 -0.0073364195
000300 45 f5 bd bc 32 9a 52 bd 67 4c c2 bc 1f a0 15 bc
       -0.023188243 -0.051416583 -0.023718072 -0.009132414
000310 de 7c 8b bc 0a 9c e3 ba 69 52 e3 bc 10 28 5c bc
       -0.017027315 -0.0017365229 -0.027749257 -0.013437286
000320 88 87 3b bd 35 06 06 bd 8a d1 c1 ba 3c 62 95 bc
       -0.04578355 -0.032720763 -0.0014787179 -0.018235318
000330 6a 0c 0e bd af f5 e4 bc d7 f0 81 bb b8 2d 7e bb
       -0.034679808 -0.027949182 -0.003965478 -0.0038784575
000340 6a 8b 1f bc c0 6e b9 bd 87 29 3f bd b0 d5 a9 bb
       -0.009737829 -0.09054327 -0.046670463 -0.0051829442
000350 3c ca e7 bc 92 1d 1f 3d 26 db 35 bb 27 43 56 bd
       -0.028294675 0.03884656 -0.002774903 -0.052310135
000360 b6 ce 8c bc a6 50 81 3b e4 12 94 bd 77 24 a3 bc
       -0.017188411 0.0039463816 -0.072301656 -0.019914849
000370 71 5c 48 bb f0 88 f8 bc 4a 51 06 be 7f b7 c8 bd
       -0.0030572677 -0.030338734 -0.13116947 -0.09800624
000380 56 04 88 bb 27 10 15 bc a6 1a bd bc 4e 5b 86 ba
       -0.0041509075 -0.009098089 -0.023083996 -0.00102506
000390 e8 55 68 bc 0b 08 93 bc 2e a9 02 bd 09 5f d6 3b
       -0.014180638 -0.017948171 -0.031899624 0.006542091
0003a0 36 92 99 bc 41 51 51 bc af 0e 9f bb 18 70 fb bc
       -0.018746477 -0.01277572 -0.0048540453 -0.030693099
0003b0 57 fb 94 bc 39 d5 04 bd 6b 97 c6 bc 2d 92 92 bc
       -0.018186254 -0.032429907 -0.024242124 -0.017891968
0003c0 2a 27 79 bc 0c 6f a6 bd db 41 19 bc d5 b3 0d bd
       -0.015207091 -0.08126649 -0.00935408 -0.03459533
0003d0 b1 06 d0 3d 66 89 a6 bc 5d e4 0a bc 58 56 42 bb
       0.10157526 -0.020329189 -0.008477298 -0.0029653516
0003e0 85 94 64 ba f1 d5 5d bb 05 ce 3a bd 5e 17 1a bc
       -0.0008719641 -0.0033849443 -0.04560663 -0.009404985
0003f0 bc c3 d8 bb fd 7f 25 bd 22 81 b4 bc 02 23 8a ba
       -0.00661513 -0.040405262 -0.022034232 -0.0010538998

fc3.weight f4 [128, 256]
000000 46 5f 14 bd 6b 8d 17 bb fb d2 c4 3a 8b 2a 69 bc
       -0.036223672 -0.0023125063 0.001501649 -0.014231334
000010 ac cc a4 39 c4 98 71 3a 90 a9 fb bb e4 6f 3b 3a
       0.0003143301 0.0009216184 -0.0076801255 0.0007150157
000020 af 49 a7 37 df 78 83 3c d1 d2 c2 bb 02 45 2b bb
       1.9942263e-05 0.016048847 -0.0059455414 -0.002613366
000030 6f 1a 83 ba 89 03 68 3a 41 89 a0 b5 7c 4d a1 3c
       -0.0010002385 0.00088506244 -1.1960875e-06 0.019690268
000040 36 08 67 3c 15 7c ec bc c2 6e 0b 3d cc b3 41 ba
       0.014101079 -0.02886776 0.034041174 -0.00073891575
000050 c3 27 45 bd 28 ee 94 ba 55 78 0a bb fa a6 77 3d
       -0.048133623 -0.001136248 -0.0021128852 0.060461976
000060 0c 80 82 3c 81 d3 d5 b9 18 0a c0 ba d5 d2 84 bc
       0.015930198 -0.0004078411 -0.0014651446 -0.016213814
000070 9d 22 1c ba ab 8e 67 bb 2a b8 c0 bb 6e a7 e9 b9
       -0.00059560855 -0.003533284 -0.005881329 -0.00044565968
000080 d0 fa 14 b7 17 2d ab bb 3c 9c d8 37 8e 7f d2 ba
       -8.879884e-06 -0.005223881 2.5821959e-05 -0.0016059743
000090 1c 08 d6 38 ad c8 df b8 98 08 fb ba 69 97 28 ba
       0.00010205826 -0.000106708474 -0.0019152341 -0.0006431253
0000a0 a8 a2 01 ba 0e b3 14 bb c8 c7 e7 bd 2c 85 e3 3c
       -0.0004945197 -0.0022689733 -0.11317402 0.027773462
0000b0 22 32 85 39 38 f9 14 bb a6 b7 74 39 49 60 24 bd
       0.0002540509 -0.0022731554 0.00023338068 -0.040130887
0000c0 f0 32 f1 bd c3 8f 94 bc 51 b8 d5 b9 97 76 e6 ba
       -0.11777294 -0.018134957 -0.00040763852 -0.001758295
0000d0 09 3d c2 3d 19 7e 19 be 4a 40 0f 39 8e f5 29 3b
       0.09484298 -0.14989509 0.00013661492 0.0025933716
0000e0 ec 28 17 3c 0a 7d e8 bb d6 54 47 3e 34 13 2c ba
       0.009226065 -0.007094984 0.19465956 -0.0006564141
0000f0 f7 2f d9 38 5d 5e fe 3d 3b 4a 1a ba f8 6d eb 39
       0.000103563005 0.12420342 -0.0005885695 0.00044904626
000100 b9 55 68 3a 9d 21 fa ba 2a 17 89 38 21 94 45 3d
       0.00088628713 -0.0019083504 6.536984e-05 0.04823697
000110 12 c7 96 3a a4 1a 77 bc 9a be 28 ba f7 4a e5 3c
       0.0011503419 -0.015082035 -0.0006437093 0.027989848
000120 35 42 31 ba 4d e3 18 39 ce ea 53 3c aa 32 03 3c
       -0.000676188 0.00014580526 0.0129344 0.008007685
000130 2c 2a c3 bd 12 f6 af 3d 95 ec b3 bd 46 8c 5e 39
       -0.09529528 0.08591856 -0.08785359 0.00021223826
000140 cd db 2c ba 96 e7 2c 39 d0 d4 9b 3c 11 d8 2a bd
       -0.0006594032 0.0001648947 0.019022375 -0.041709963
000150 55 18 7a b8 4c 40 ab 38 bc 4c 7e 3b e0 ed 1d 3b
       -5.9627306e-05 8.1658916e-05 0.0038803061 0.0024098083
000160 29 95 18 ba a1 c1 b5 bb 5c 82 03 b9 c6 e4 14 3a
       -0.00058205664 -0.005546764 -0.00012541696 0.0005679842
000170 13 e7 5d bc 01 6e 4d 3a b4 1b 5d 3d ce a8 04 bc
       -0.013543862 0.0007836521 0.053981498 -0.008096887
000180 c1 f4 d5 b9 96 c1 ff 38 bf 77 c4 bb 5d 58 e6 38
       -0.00040808882 0.00012195406 -0.00599572 0.000109837136
000190 9f 08 98 bd 97 4b 51 38 f0 97 43 3b e8 d8 d4 bb
       -0.07423519 4.989988e-05 0.00298452 -0.006495584
0001a0 71 8b 8a bb 6f c8 1b 3a 93 86 59 39 9e 05 9d 39
       -0.0042280485 0.00059426477 0.00020744865 0.0002994956
0001b0 84 19 9b 3a da 28 de 39 11 54 3c 38 c7 29 21 3e
       0.0011833166 0.00042373576 4.4900986e-05 0.15738593
0001c0 99 a2 8b 3c 52 bc 4a ba 0e e4 28 3c 0d e9 72 3c
       0.017045306 -0.00077337504 0.010308279 0.014826071
0001d0 9c 0e c6 ba 7b ea f2 ba 4e fb 1e b8 34 e6 87 39
       -0.0015110555 -0.0018533015 -3.790418e-05 0.0002592072
0001e0 2d ca 9d 39 f6 a0 c8 b8 ce 9d 29 3b 27 2d 17 bd
       0.00030096006 -9.5667245e-05 0.0025881412 -0.036908295
0001f0 ca 8a a8 37 07 92 1a bb 03 60 1c bc f3 db 62 ba
       2.009179e-05 -0.0023585574 -0.009544375 -0.0008653991
000200 b5 fd 1f 3d 10 b3 d6 ba 65 e5 30 bc f1 16 92 ba
       0.039060313 -0.0016380269 -0.010796879 -0.0011145753
000210 db 64 b2 bc 68 21 d3 3b 0d 14 b2 3b b8 e8 da 3b
       -0.021776607 0.0064431913 0.005434519 0.0066805743
000220 f2 4a bb b8 5f 8a 2f ba bd e7 64 3d c1 9a 38 3c
       -8.9308145e-05 -0.0006696339 0.055885065 0.011267365
000230 e6 43 61 37 ef 7a 1c ba cb 17 d7 39 6c ca 4a 3c
       1.3426854e-05 -0.0005969246 0.00041025723 0.012377363
000240 20 6c 23 b9 b6 8f 1d bc 31 bf 1d 3b 74 c2 a8 bd
       -0.00015585171 -0.009616783 0.0024070258 -0.08240214
000250 80 8d c0 b8 f9 b1 9a b6 08 0a a0 bd 64 76 a6 3c
       -9.18163e-05 -4.6102764e-06 -0.07814413 0.020320125
000260 5b 2d 03 38 89 93 9c 3b c1 71 a4 b8 ff 07 f1 b9
       3.1275074e-05 0.0047783297 -7.841318e-05 -0.0004597306
000270 f2 ca 33 3c 14 25 b5 bb d9 d8 58 b9 86 67 6b 3c
       0.010973679 -0.0055281017 -0.00020680147 0.014367944
000280 ed 06 8e ba fb c0 e6 ba 31 6e 8e 3c 3d 9a b1 3b
       -0.0010835804 -0.001760512 0.017386528 0.005419998
000290 d7 c0 00 bb 97 70 d4 bb e6 d2 9d bc 64 bd 06 ba
       -0.0019646192 -0.0064831483 -0.019265603 -0.0005139916
0002a0 b3 94 0c bb 90 ab 13 ba 92 71 36 ba 1c 5c eb 3d
       -0.0021450936 -0.000563317 -0.00069596723 0.11492178
0002b0 32 bc 02 be c3 50 1e b7 7f 0d d4 ba 1a 29 b1 b9
       -0.12767103 -9.436338e-06 -0.0016178339 -0.00033790694
0002c0 35 26 c5 39 a5 fd f7 bc 1d d5 8e 3b 0d c1 2e bc
       0.00037603235 -0.030272314 0.004358901 -0.010666144
0002d0 9a d5 ba ba 4c 44 c8 ba 76 ec 2f 38 30 b1 2d 3e
       -0.0014254332 -0.0015279143 4.1943473e-05 0.16962123
0002e0 11 1e bd bb 6e c7 27 3a 32 c3 d8 b8 41 ef b4 bc
       -0.0057714065 0.0006400262 -0.000103360406 -0.022086741
0002f0 f1 90 08 39 fe a7 80 bd 37 7e be 38 4d 94 cf 3a
       0.00013023966 -0.06282042 9.083415e-05 0.0015837044
000300 1e fa 09 bc cf 42 61 ba 21 30 35 ba f6 c6 17 3a
       -0.008421449 -0.0008593024 -0.0006911774 0.00057898404
000310 1b 8f 37 3a 20 55 58 b8 42 0b c8 b9 68 46 92 37
       0.00070022204 -5.1577692e-05 -0.0003815536 1.7437342e-05
000320 24 b1 61 bc 75 5c 4c 3c 99 6a 0c b9 b8 fb aa ba
       -0.013775144 0.012473215 -0.00013391151 -0.0013044989
000330 ed 44 69 bb ad 15 84 b9 a1 22 1d ba 0e 9a b0 38
       -0.0035594061 -0.00025193152 -0.0005994235 8.421029e-05
000340 6c ea b3 38 b9 3c 89 bb 0b 2d 9e b9 54 06 17 39
       8.5790496e-05 -0.004188147 -0.00030169668 0.0001440284
000350 4e 2e 1c 3c b1 b0 6d 3c e5 39 01 3e 2e 1b 87 3d
       0.009532524 0.014507459 0.12619741 0.06596981
000360 56 dc 72 3c ba 58 c0 bb f9 63 50 3d c8 4e 33 3b
       0.01482304 -0.005869952 0.05087659 0.002736019
000370 ee 68 48 39 52 0e e0 bc 3d 98 04 bd 13 b1 a5 3a
       0.00019112576 -0.027350578 -0.03237175 0.0012641273
000380 27 12 1c bd 5b 21 df 38 ae 3c 0a 3a eb 36 d5 b7
       -0.03810325 0.000106396816 0.0005273324 -2.5417152e-05
000390 64 74 38 bb 5c 2b 8c b9 d6 a8 ea bb 7d 78 7d bc
       -0.0028145546 -0.00026735186 -0.00716124 -0.015470621
0003a0 7a ef eb 39 05 b6 6a 3d f7 69 2e bd a7 ad 80 bb
       0.00045001117 0.057302494 -0.042581525 -0.003926951
0003b0 50 98 73 b9 b0 70 17 3d 2d fb 17 39 86 b5 90 b9
       -0.00023231027 0.0369727 0.00014494052 -0.00027601066
0003c0 21 7f 09 3c 4d 11 0c 3e 7a ce 8b 39 19 bc 58 ba
       0.008392126 0.13678475 0.00026665983 -0.0008267775
0003d0 ee 48 01 3d 11 b8 82 ba ed 86 dd b9 62 9c 5f 3b
       0.03156369 -0.0009973069 -0.00042252932 0.003412031
0003e0 72 a8 07 37 be e9 12 39 3e 12 19 3a 64 07 66 36
       8.085846e-06 0.00014010721 0.0005839205 3.4276973e-06
0003f0 0e ca a8 b8 cc 28 56 3a c8 dd 14 ba 54 60 ab 3c
       -8.0485e-05 0.00081695314 -0.00056788 0.020919956

fc3.bias f4 [128]
000000 fc 44 c7 bc b0 ca e9 bc 81 0e 2e b9 0e 21 30 3d
       -0.024324887 -0.028539032 -0.00016599336 0.043000273
000010 ad 5c 85 bc b6 13 0a bc 85 ec e7 bc c4 71 1b bd
       -0.016279543 -0.008427551 -0.028311023 -0.037950292
000020 1b 0d d7 bb f6 a5 8c ba f8 84 28 bb 78 49 01 bd
       -0.0065628416 -0.0010730613 -0.0025714021 -0.031564206
000030 cb 70 15 bd 7d 41 a8 bb b3 da 11 bc 39 19 60 bc
       -0.03648452 -0.00513476 -0.00890224 -0.013677889
000040 97 4f b1 b7 c1 77 35 ba 04 1b 02 bd 7e f3 96 bc
       -2.1137106e-05 -0.0006922447 -0.031764045 -0.018426653
000050 4e 07 14 bc f8 9c 98 b9 85 94 d6 b9 54 b7 76 bb
       -0.009034945 -0.0002910865 -0.00040927916 -0.0037645893
000060 ee 71 b4 b6 0a 28 97 bc 8f f0 a2 bc fa d6 33 bc
       -5.377681e-06 -0.01845171 -0.019890098 -0.010976547
000070 fa 61 e9 bb b1 97 45 3d 02 95 4b b8 5a bc 20 bc
       -0.0071222754 0.048240367 -4.8537746e-05 -0.0098105315
000080 0f 2b 9f b8 28 ce f0 bb 89 e7 4a bc 33 e2 a4 3a
       -7.589731e-05 -0.0073487945 -0.012384304 0.001257962
000090 cd b0 14 bd 8d 20 a0 ba b3 95 18 bd fd af 00 bb
       -0.036301423 -0.0012216732 -0.03725214 -0.0019636147
0000a0 cb b3 d6 bc 7d 1f 49 bb a1 bb 7e ba cb 19 3e bd
       -0.026208779 -0.0030688934 -0.000971729 -0.046411317
0000b0 57 1d 56 b9 14 af 5a bc 93 1d 3c bc 78 12 ed bc
       -0.0002041956 -0.013347406 -0.01148166 -0.02893947
0000c0 45 32 80 bc 59 d8 ca bc 8d 08 0e bb ee f7 0c 3d
       -0.01564897 -0.024761366 -0.0021672577 0.03441613
0000d0 48 42 99 bb cb 96 99 bc db 24 b6 bb c2 e3 3c bd
       -0.004677091 -0.018748662 -0.0055585927 -0.046115644
0000e0 e0 d3 22 bd 55 51 27 bb b6 c9 75 bc 1c 0b 95 bc
       -0.03975284 -0.0025530655 -0.015001705 -0.018193774
0000f0 79 28 0b bb d7 cd b9 bc 62 2f b1 3d 27 41 b5 bb
       -0.002123384 -0.02268116 0.08651616 -0.0055314484
000100 fe a1 a9 bb 4f 3a 40 bc 5c 23 a5 3d e7 ce 09 bd
       -0.0051767817 -0.011732652 0.08063385 -0.033644583
000110 89 80 f2 bc d3 f7 91 bc b9 65 d1 b9 83 ca ae 3d
       -0.029602306 -0.017818367 -0.00039939376 0.0853472
000120 12 00 78 3d 3d e5 4b b8 96 9a 0b bb 88 e3 78 bb
       0.060546942 -4.8612466e-05 -0.0021301857 -0.0037977416
000130 1a 1c 34 bb 4f 5c c9 bb c7 4b 87 ba eb 0c f3 bc
       -0.002748257 -0.0061450372 -0.0010322266 -0.029669246
000140 3e f3 1c bc 65 02 94 3d b7 be c5 ba 3e 2a 87 bd
       -0.009579478 0.07227019 -0.0015086745 -0.06599854
000150 db 93 8e bc 0a 84 9f bc 64 ec ce bc d5 b2 f9 bb
       -0.017404487 -0.01947214 -0.025259204 -0.0076201954
000160 a4 a7 d3 bc 2a 1e fe bc 2d d9 17 ba 2d a8 7e bc
       -0.025836773 -0.031020243 -0.00057925546 -0.015543026
000170 94 c3 39 bd f2 44 0e bb 27 a7 a5 bc 18 95 db 3d
       -0.045352533 -0.0021708575 -0.020221306 0.10721797
000180 ea c5 03 bd 02 a1 86 bc a3 e3 16 bc 1a 82 67 bc
       -0.032171167 -0.016434196 -0.009209546 -0.01413014
000190 49 02 88 bd b4 15 1f bd 44 5e 50 bd ca d7 42 bc
       -0.06641061 -0.038839057 -0.05087115 -0.011892268
0001a0 ee d3 28 bd 9f 3c 1e bd cb 5d f0 b8 4f 46 53 bc
       -0.041217737 -0.03863203 -0.00011461562 -0.012895181
0001b0 78 f4 d4 bc 15 b7 aa 3d e7 78 9b bb cc 84 8a ba
       -0.025995478 0.083357014 -0.0047446373 -0.0010568141
0001c0 86 b1 c3 b9 a7 7b 1d bd f9 8c 2e b8 f8 f9 50 bc
       -0.00037325564 -0.038448002 -4.1616124e-05 -0.01275491
0001d0 3c 59 62 3d a7 d9 b1 bc e9 35 96 ba d1 9d 8a bc
       0.05526088 -0.02171023 -0.0011460158 -0.016920956
0001e0 f8 5f a6 bc 4d f9 2f bc b7 89 d2 bd 77 e9 93 bc
       -0.020309433 -0.01074059 -0.10280173 -0.01805566
0001f0 61 83 0d bd 71 20 0b 3e 36 e9 c3 bc 43 66 a6 ba
       -0.03454912 0.13586594 -0.023914915 -0.0012695271

fc4.weight f4 [1, 128]
000000 c5 af 64 3e 1b 97 37 3c ff fa bc 37 bf 30 75 be
       0.22332676 0.01120546 2.2528226e-05 -0.23944376
000010 9f 41 81 b8 d8 8b 5d ba f8 0d 88 3d 0d 78 33 3e
       -6.163422e-05 -0.00084513193 0.06643289 0.17526264
000020 84 b0 6d b8 0b 4c a8 b7 57 23 ee b5 f5 ff 3c bc
       -5.6669596e-05 -2.0062571e-05 -1.7742667e-06 -0.011535634
000030 e0 6d 18 bd e6 dc 0e 3a bc 3a a6 ba 0f 10 14 3d
       -0.03721416 0.00054497865 -0.0012682299 0.036148127
000040 d9 1e a9 b5 cd b0 f1 b6 97 b7 9c 3b 9d b5 bc ba
       -1.2600459e-06 -7.202942e-06 0.004782628 -0.0014397387
000050 2e 8d b0 3a 60 cf a5 b5 54 e3 10 b4 40 43 47 b8
       0.0013469809 -1.2353812e-06 -1.3493747e-07 -4.750793e-05
000060 f9 f9 4e b4 fd a6 44 3b f7 60 68 3a 82 82 db ba
       -1.9276185e-07 0.003000676 0.00088645465 -0.0016747268
000070 ff e2 d1 b8 06 a4 00 be 76 0e d1 36 40 1a 92 bb
       -0.00010008178 -0.1256257 6.230369e-06 -0.0044586957
000080 56 2e 6f b6 0a 1f 04 bb 90 7a b6 b9 39 78 c6 3d
       -3.5640746e-06 -0.0020160102 -0.0003480506 0.096908994
000090 6b fe 81 3b 80 78 10 37 0e c0 3a bc 5e aa 78 b7
       0.0039670966 8.611125e-06 -0.0113983285 -1.4821619e-05
0000a0 73 23 a1 bc d2 16 93 b9 13 c8 0c b7 73 76 61 bb
       -0.019670224 -0.00028055027 -8.391234e-06 -0.0034402877
0000b0 67 1b 70 b7 80 c6 a9 bb b1 47 b8 3a c7 42 4f bc
       -1.4311495e-05 -0.0051811337 0.0014059452 -0.012650198
0000c0 59 78 2f 3b ed 23 5c bb e1 20 58 b7 87 25 52 3e
       0.0026774614 -0.003359075 -1.28822585e-05 0.20522128
0000d0 bf 58 c6 37 ba 3f 5f be de ba 05 38 28 f9 6e be
       2.3644765e-05 -0.21801654 3.1883705e-05 -0.23337233
0000e0 33 96 94 3e 19 8f 10 b8 aa d1 29 3b 12 99 2d 38
       0.29020843 -3.4465545e-05 0.0025912323 4.1388972e-05
0000f0 64 2c c9 b6 a4 b4 56 3c f1 c2 d3 bd 44 d8 07 38
       -5.9954345e-06 0.0131045915 -0.103399165 3.238792e-05
000100 94 26 71 39 51 f1 37 bb 17 8c bc bd 0b a4 82 bc
       0.00022997922 -0.002806742 -0.092064075 -0.015947362
000110 76 d6 08 bb f5 39 81 b9 31 25 eb 37 71 4c 72 bd
       -0.0020879782 -0.0002464798 2.8031502e-05 -0.05915493
000120 88 5c 00 3e 00 c0 ce 35 50 0b fa b7 e7 c8 45 be
       0.12535298 1.5404075e-06 -2.980759e-05 -0.1931492
000130 27 bf c5 b6 ae 76 b3 37 70 f6 ec b7 63 a9 94 3c
       -5.8933106e-06 2.1393727e-05 -2.8248149e-05 0.018147176
000140 de fc 77 3a 63 8c 36 bd 8a fb 0f b8 15 db 2e be
       0.00094599824 -0.044567477 -3.432812e-05 -0.1707576
000150 d3 48 10 3b b0 63 13 3c 03 83 c1 3b 67 f8 fb bd
       0.0022016063 0.008995935 0.0059055104 -0.12303238
000160 bd ae 36 38 72 e5 c2 bb 62 e6 a4 b5 eb 4b 1c 3b
       4.355492e-05 -0.005947762 -1.2286002e-06 0.0023848962
000170 71 af 55 bd d3 c5 35 b8 75 d9 e1 ba 7c e4 de 3d
       -0.052169267 -4.3338e-05 -0.0017230945 0.10883424
000180 b8 77 92 3b 80 a0 fd 38 5d 15 76 ba c5 fd 81 3c
       0.004469838 0.000120938756 -0.00093873387 0.015868077
000190 fd c7 0d be 77 ce 89 3c e2 70 0a ba 11 fc 30 3b
       -0.1384582 0.016822083 -0.0005281103 0.0027005712
0001a0 c9 32 e2 39 1e 75 7d ba f6 75 4f 36 02 8f 70 bb
       0.00043143917 -0.0009668636 3.0914066e-06 -0.0036706333
0001b0 86 d9 e7 bc 45 35 df 3d 78 58 f0 39 ee 94 3e b7
       -0.028301965 0.10898832 0.00045842282 -1.1359558e-05
0001c0 15 ff 6a 38 ee 0e 5b 3c 17 2d 9e b5 4a 62 80 3a
       5.602751e-05 0.013370259 -1.178504e-06 0.0009794917
0001d0 6c 56 fd bd 24 c9 c6 3a f6 f2 ec b6 4c 51 75 3c
       -0.12369999 0.0015166146 -7.0616325e-06 0.014972996
0001e0 83 6f 27 bc 97 1a c2 3a dc bc 60 3e 50 16 87 3c
       -0.010219458 0.001480895 0.21947044 0.016490132
0001f0 97 87 3e 3e 6c 41 57 be 3e 92 9e bc c3 38 9b 3e
       0.18606411 -0.2102105 -0.019356843 0.30316743
