DDPG/actor.pth (torch_old, 40766 bytes, 8 tensors)

norm0.weight f4 [33]
0	0x3f8237ca	1.0173275
1	0x3fba7f7d	1.4570156
2	0x3f2e560b	0.6810004
3	0x3f29b119	0.66285855
4	0x3f4cbc4b	0.7997481
5	0x3fa105fd	1.2579952
6	0x3f7e7a69	0.99405533
7	0x3f9166de	1.1359518
8	0x3f25a668	0.6470704
9	0x3f63f232	0.89041436
10	0x3f02b75a	0.5106102
11	0x3f49832b	0.7871577
12	0x3ec68add	0.3877782
13	0x3f67e0fb	0.9057767
14	0x3fb19300	1.3872986
15	0x3f96f799	1.1794311
16	0x3fa4d53b	1.2877573
17	0x3f8ded93	1.1088127
18	0x3f4bc0c5	0.7959102
19	0x3f480bee	0.78143203
20	0x3f684761	0.90733916
21	0x3f6f5ff8	0.9350581
22	0x3f372270	0.7153692
23	0x3fa64619	1.2990142
24	0x3f8b9d72	1.0907423
25	0x3f88fc49	1.0701991
26	0x3fec117f	1.8442839
27	0x3d142190	0.03616482
28	0x3f9c872c	1.2228751
29	0x3ebf3090	0.37341738
30	0x3e9c3612	0.30510002
31	0x3f6e9794	0.9320004
32	0x3fb30bfc	1.3988032

norm0.bias f4 [33]
0	0x3d9214e0	0.07132888
1	0xbe8ddb72	-0.27706486
2	0xbdac207d	-0.08404634
3	0x3e916b1c	0.2840203
4	0x3e1a1435	0.15046771
5	0xbcb6422d	-0.022248352
6	0xb9c4fc0b	-0.0003757182
7	0xbe32a748	-0.17446625
8	0x3e2b3300	0.16718674
9	0x3c894e48	0.01676096
10	0xbe76b376	-0.24091896
11	0x3e62654f	0.22108959
12	0xbe029c7e	-0.1275501
13	0x3da30e47	0.079617076
14	0x3b912a24	0.0044300724
15	0x3c81e930	0.015858263
16	0xbd7ba6cc	-0.061438367
17	0x3afa6522	0.0019103626
18	0xbd2fe1cd	-0.04293995
19	0x3e5f7f62	0.21825936
20	0x3c488cae	0.012240572
21	0x3d902384	0.07038024
22	0xbc9230f1	-0.017845603
23	0xbdfd572c	-0.12370142
24	0xbd993476	-0.07480709
25	0xbb242208	-0.0025044698
26	0xbd9cc9e8	-0.07655698
27	0xbe9624df	-0.29325005
28	0x3e1864bb	0.14882176
29	0xbe98322f	-0.29725787
30	0x3e8a4809	0.27008083
31	0x3eab6bd5	0.33480707
32	0xbdd6eb9d	-0.104941584

norm0.running_mean f4 [33]
0	0xbf22ae3e	-0.6354712
1	0xc017c08d	-2.3711274
2	0xbebfa2a9	-0.37428787
3	0x3f12c2ff	0.5732879
4	0xbcab0c47	-0.020879878
5	0xbc9878ef	-0.018612353
6	0xbcf2d384	-0.029641874
7	0x3d37f62c	0.044912502
8	0x3c26c9ce	0.01017995
9	0xbd54b012	-0.051925726
10	0xbc7ecf05	-0.015552287
11	0xbbd33ec3	-0.0064466908
12	0xba6513c0	-0.00087386
13	0xbfb4a431	-1.4112607
14	0xc05434b5	-3.315717
15	0xbebb30e9	-0.36560753
16	0x3c823a43	0.015896922
17	0x3ba8e82c	0.00515463
18	0x3ce6525c	0.028115444
19	0x3e969306	0.29409045
20	0xbe94cb56	-0.29061383
21	0x3cd667aa	0.026172478
22	0xbe13853a	-0.1440629
23	0xbc4337a3	-0.01191512
24	0x3db455c2	0.088054195
25	0xbca30311	-0.019898923
26	0xbde3dfc8	-0.11126667
27	0xbf7ffffc	-0.99999976
28	0xbd2b9220	-0.041887403
29	0x00000000	0.0
30	0x3f7ffffc	0.99999976
31	0x00000000	0.0
32	0xbcca4b6a	-0.024694163

norm0.running_var f4 [33]
0	0x40409706	3.0092177
1	0x4017ad35	2.3699467
2	0x4090cb2e	4.524802
3	0x3ec910e8	0.3927071
4	0x3d819f56	0.06329219
5	0x3d9ae124	0.075624734
6	0x3e0d5d7e	0.13805196
7	0x3f81707d	1.0112454
8	0x3df4228d	0.119206525
9	0x3e6e5cc2	0.23277572
10	0x408fa961	4.489426
11	0x40a28f9f	5.080032
12	0x40bd2129	5.910298
13	0x4168aaf7	14.541739
14	0x40f085eb	7.5163474
15	0x41977499	18.931932
16	0x3e352632	0.17690352
17	0x3e6617de	0.22470042
18	0x3e3a8fde	0.18218943
19	0x3ea853af	0.32876346
20	0x4094ebc0	4.653778
21	0x3f854e70	1.0414562
22	0x3fcc9fa8	1.5986223
23	0x4162affa	14.167963
24	0x41aec861	21.847841
25	0x41a56161	20.672548
26	0x420003f2	32.003853
27	0x00000004	6e-45
28	0x41ffc359	31.970385
29	0x00000004	6e-45
30	0x00000004	6e-45
31	0x00000004	6e-45
32	0x3e98be10	0.29832506

fc1.weight f4 [256, 33]
0	0xbe823e7d	-0.254383
1	0x3db2af3a	0.08724828
2	0xbe936a1d	-0.28791896
3	0x3d2f7993	0.04284055
4	0x3d05d79c	0.032676324
5	0x3daafccc	0.083489984
6	0xbe5d46ca	-0.21609035
7	0x3ce1831d	0.02752834
8	0x3e8456b4	0.258474
9	0xbcf2128f	-0.029549865
10	0xbd974ec8	-0.07388073
11	0xbdd262e2	-0.10272767
12	0xbd80143a	-0.06253858
13	0x3e8d5b60	0.27608776
14	0xbe8db2e9	-0.2767556
15	0x3db93abf	0.09044408
16	0x3e057625	0.1303335
17	0x388e95e5	6.799008e-05
18	0xbeb1b834	-0.34710848
19	0x3d33dc50	0.04391128
20	0x3d295325	0.04133906
21	0xbe695416	-0.22785982
22	0x3db59764	0.08866766
23	0xbd959663	-0.073040746
24	0xbeac4680	-0.33647537
25	0x3d31f98f	0.04345089
26	0x3cad2bb6	0.021139007
27	0xbd0a4216	-0.03375443
28	0xbc25aa31	-0.010111378
29	0xbd257c5b	-0.040401798
30	0x3db39521	0.087686785
31	0x3d011974	0.031518415
32	0xbe07effd	-0.13275142
33	0xbd31b461	-0.043384913
34	0x3e8bd8d7	0.27313873
35	0xbe2e11d0	-0.16998982
36	0xbd320948	-0.043465883
37	0xbe1dd2f8	-0.1541251
38	0x3dfab9f2	0.122424975
39	0xbd95987b	-0.07304474
40	0xbd8f5919	-0.06999416
41	0xbdeac5c0	-0.11463499
42	0x3c29f14b	0.01037247
43	0x3e8ee039	0.27905443
44	0xbde40181	-0.11133099
45	0x3e000855	0.12503178
46	0xbe94b928	-0.29047513
47	0xbeed7608	-0.46379113
48	0x3d545109	0.051835094
49	0xbd81b427	-0.063331895
50	0x3e079c79	0.13243283
51	0x3eb1e798	0.34747005
52	0xbe321511	-0.17390849
53	0xbc9874d9	-0.018610405
54	0xbc9b69e0	-0.018971384
55	0xbd6970f3	-0.056992482
56	0xbd92c6ef	-0.0716685
57	0xbee33dd3	-0.44383106
58	0x3d9b612f	0.07586896
59	0xbed46a01	-0.41487125
60	0xbd833e18	-0.06408328
61	0x3da0928e	0.07840453
62	0xbd04061c	-0.03223239
63	0x3d62c2f1	0.05536169
64	0xbd2d4f10	-0.042311728
65	0xbe289415	-0.16462739
66	0xbdc060b2	-0.09393443
67	0x3df02695	0.11726109
68	0x3e951cc8	0.2912352
69	0xbdf0c461	-0.11756206
70	0x3e927e88	0.2861216
71	0xbddc5ffc	-0.10760495
72	0x3e49236b	0.19642417
73	0xbda2da9a	-0.07951851
74	0x3dae6177	0.08514684
75	0x3d86f88a	0.06590374
76	0x3bcec70a	0.0063103484
77	0x3e5f77e8	0.21823084
78	0xbcfd97d1	-0.03095618
79	0x3eb95e08	0.36204553
80	0xbe63a44a	-0.2223064
81	0xbdbf1d02	-0.09331705
82	0xbe8cd904	-0.2750932
83	0xbead24d0	-0.33817148
84	0xbe69f177	-0.22846018
85	0x3d348962	0.04407633
86	0xbd9aae5f	-0.0755279
87	0xbd05c03d	-0.032654036
88	0x3d41f3d1	0.047351662
89	0xbe56a98f	-0.20963119
90	0x3e80ee62	0.25181872
91	0xbe37e7d4	-0.17959529
92	0x3e765766	0.24056777
93	0xbe25d810	-0.16195703
94	0x3d4af189	0.049546752
95	0xbe116c62	-0.14201501
96	0x3da05963	0.07829549
97	0x3e06b2e5	0.1315418
98	0xbe9bd286	-0.30434054
99	0xbd76c48e	-0.060246043
100	0x3e4716a0	0.19442225
101	0xbe91f806	-0.2850954
102	0x3d26016e	0.040528707
103	0xbdbb2509	-0.09137923
104	0x3d268c9d	0.040661443
105	0x3d1d9418	0.03847131
106	0x3dda2a22	0.106525674
107	0xbd8de541	-0.06928492
108	0xbcadad9d	-0.02120095
109	0x3dc2d490	0.09513199
110	0xbd9376ba	-0.0720038
111	0xbe6f6428	-0.2337805
112	0xbdeb5e3a	-0.11492582
113	0xbf13fe83	-0.5781023
114	0x3da6d0fa	0.08145328
115	0x3e16c2ad	0.147227
116	0xbe3d21fb	-0.18469994
117	0xbd67a355	-0.05655225
118	0x3de22ffa	0.11044307
119	0x3ce1cc92	0.027563367
120	0x3d4c072b	0.049811523
121	0xbd4cd0d2	-0.050003834
122	0x3e34e320	0.17664766
123	0xbe6812bb	-0.22663395
124	0x3d9cf969	0.07664759
125	0xbe9a592c	-0.30146158
126	0xbd547d90	-0.05187756
127	0x3d9280bf	0.071534626
128	0xbde0abc3	-0.10970261
129	0x3d7256b1	0.059164707
130	0x3d2b4e97	0.041822996
131	0x3df767e3	0.12080362
132	0x3e003e28	0.1252371
133	0xbd0c1ed4	-0.034209087
134	0x3e817dfe	0.25291437
135	0x3e2314d7	0.15925919
136	0xbe2db46b	-0.16963355
137	0x3e581939	0.21103372
138	0xbd9b2fba	-0.075774625
139	0xbd15952e	-0.036519222
140	0x3cec2b26	0.028829169
141	0xbce0e269	-0.02745171
142	0xbce809fd	-0.028325075
143	0x3e3db3b7	0.18525587
144	0x3e24aa03	0.1608048
145	0xbdea14f6	-0.11429779
146	0xbec0dd29	-0.37668732
147	0x3ba56bc8	0.005048249
148	0x3d85bc2c	0.065300316
149	0x3d37d371	0.04487938
150	0x3d5e3d0d	0.05425744
151	0xbd1da6ba	-0.03848908
152	0x3da19ce0	0.0789125
153	0xbc2e9643	-0.010655942
154	0x3e2d0ab4	0.16898614
155	0xbe12e71b	-0.14345972
156	0xbdaf34db	-0.08555003
157	0x3e8ebad6	0.2787692
158	0xbe8cecb2	-0.27524334
159	0xbdbe055c	-0.09278366
160	0xbe33a63e	-0.17543885
161	0xbdaca9de	-0.08430837
162	0x3ced3612	0.028956447
163	0x3b895371	0.004190855
164	0xbdfce30a	-0.12347992
165	0xbc914be6	-0.017736387
166	0xbdd59d6f	-0.10430419
167	0xbebb74ec	-0.36612642
168	0xbdd66129	-0.104677506
169	0x3cb396db	0.02192252
170	0xbdbd77ef	-0.09251391
171	0xbd452f14	-0.0481406
172	0xbd81f222	-0.06345011
173	0x3d0f9008	0.03504947
174	0x3da17d23	0.07885196
175	0x3b960fcd	0.0045795203
176	0xbe739384	-0.23786741
177	0xbdae8211	-0.08520902
178	0x3e117eda	0.14208546
179	0xbe892db1	-0.26792672
180	0x3df89b17	0.12138956
181	0xbeb62421	-0.3557444
182	0x3e0d738e	0.13813612
183	0xbd12f234	-0.035875514
184	0xbe45ddb5	-0.19322856
185	0xbcf7f6ba	-0.030269016
186	0xbde82154	-0.11334482
187	0xbd0b5cc0	-0.034024
188	0xbe3ceb0e	-0.18449041
189	0xbe19efff	-0.15032957
190	0xbe4c8cc1	-0.19975568
191	0x3e5cc039	0.21557702
192	0xbdf941dd	-0.121707655
193	0x3eb34d17	0.35019752
194	0xbdb5ed51	-0.08883155
195	0x3e2f2dfd	0.17107387
196	0x3e05fa82	0.13083842
197	0x3d965cd4	0.07341924
198	0x3ac3463e	0.0014898253
199	0xbe3157e7	-0.17318688
200	0x3e64c25c	0.22339767
201	0x3e8f56f9	0.27996042
202	0x3dc3b437	0.09555858
203	0x3e8ea273	0.27858314
204	0xbd6d350a	-0.05791191
205	0x3ce7db6c	0.02830287
206	0x3d1bf3c8	0.038074285
207	0x3d2ca119	0.042145822
208	0x3dbb9e9d	0.091611125
209	0x3dd79026	0.10525541
210	0x3a1a1d30	0.0005878983
211	0xbe99ddf9	-0.30052164
212	0x3e361cd0	0.17784429
213	0xbe8f5844	-0.2799703
214	0xbe750ab9	-0.23929872
215	0xbebe120e	-0.3712315
216	0x3ec0ccd0	0.3765626
217	0x3db6aadb	0.08919307
218	0xbd576e31	-0.05259532
219	0xbd29d8af	-0.04146641
220	0xbda0a5d6	-0.07844131
221	0x3d319cd3	0.04336245
222	0x3e37077f	0.17873953
223	0xbd436958	-0.047707886
224	0x3dadaf1f	0.08480667
225	0xbdc0f4ac	-0.094216675
226	0x3e570c77	0.21000849
227	0xbe2a8801	-0.16653444
228	0x3e2d61e9	0.16931881
229	0x3e0ee383	0.13953976
230	0xbcf45ae0	-0.029828489
231	0xbca03ef3	-0.019561267
232	0xbddb4786	-0.107070014
233	0xbecb2ef6	-0.39684266
234	0x3e256279	0.16150846
235	0x3e0774bc	0.13228124
236	0x3e903a9d	0.28169718
237	0xbe366b85	-0.17814453
238	0x3dc9a538	0.09845966
239	0x3d69afc2	0.05705238
240	0xbcdbf12f	-0.026848404
241	0xbd2a4d24	-0.041577473
242	0x3d5cde4d	0.05392294
243	0xbea3ec18	-0.32016063
244	0x3ef6073d	0.48052397
245	0x3c775817	0.015096686
246	0x3e188a01	0.14896394
247	0x3ed03d02	0.40671545
248	0x3e5671b2	0.20941809
249	0xbcfba0e2	-0.030716363
250	0x3e6a2b48	0.22868073
251	0x3d16f1c6	0.036851667
252	0x3da66e4c	0.08126506
253	0xbc8f08ca	-0.017460246
254	0x3e8b567d	0.27214423
255	0xbe9c37b6	-0.30511254

fc1.bias f4 [256]
0	0x3c7330c0	0.014843166
1	0x3dafe2c6	0.085881755
2	0x3e0b6174	0.13611394
3	0x3e7f60f0	0.24939322
4	0x3e42a6e9	0.19008984
5	0x3db90265	0.0903366
6	0x3e9076fa	0.28215772
7	0x3cb23a92	0.021756444
8	0xbdb66bd4	-0.08907285
9	0x3e689088	0.22711384
10	0x3c7a1982	0.015264871
11	0x3cfc9572	0.03083298
12	0xbd5b3531	-0.053517524
13	0x3db1e4b5	0.086862005
14	0x3da90a7a	0.08253951
15	0x3e891e89	0.2678111
16	0xbe1f129f	-0.15534447
17	0xbb05311d	-0.0020323463
18	0x3d425748	0.04744652
19	0x3c556d35	0.013026525
20	0x3d4a68e7	0.04941645
21	0xbddc81b7	-0.10766929
22	0x3e853fa2	0.2602511
23	0xbc8805ed	-0.016604388
24	0x3de6b813	0.11265578
25	0x3d087623	0.03331579
26	0x3db932fb	0.09042927
27	0xbe705d1c	-0.23473018
28	0x3e916685	0.2839853
29	0xbde2e2e6	-0.11078434
30	0x3e0b3325	0.13593729
31	0xbdfaccdf	-0.12246107
32	0x3cd5cae6	0.026097726
33	0x3dff73c5	0.12473253
34	0x3e1588d7	0.14602982
35	0x3e344b5e	0.17606875
36	0x3d12e287	0.035860565
37	0x3ddc53db	0.10758182
38	0x3db34d08	0.08754927
39	0x3e107583	0.14107327
40	0xbbe5ed96	-0.007016848
41	0xbdd930d0	-0.10605013
42	0xbd34a67e	-0.04410409
43	0xbda8497a	-0.082171395
44	0x3db5fd62	0.088862196
45	0x3db4e7ee	0.088332996
46	0x3c8b3907	0.016994966
47	0x3e21762a	0.15767732
48	0x3dec115d	0.11526749
49	0x3e354a2e	0.17704079
50	0x3e026d5e	0.12737033
51	0x3e381eb3	0.17980461
52	0xbd8117d5	-0.06303374
53	0x3e2de145	0.16980465
54	0x3e0517fd	0.12997432
55	0x3e09c069	0.13452305
56	0x3e1e1c87	0.1544057
57	0x3e006a03	0.1254044
58	0x3e1d01c2	0.15332702
59	0x3dee8a85	0.11647514
60	0x3bcc9652	0.0062435055
61	0xbd79ae31	-0.060957137
62	0x3e0656d6	0.13119063
63	0x3e8c7fc9	0.27441242
64	0xbd317967	-0.04332867
65	0x3e9ea32d	0.30983868
66	0x3d583adb	0.052790504
67	0x3e696a2e	0.2279441
68	0xbe04a06c	-0.12951821
69	0x3e6a5605	0.22884376
70	0x3d4eb84f	0.05046874
71	0xbd7859ec	-0.06063263
72	0x3e63e4a2	0.22255185
73	0x3c233895	0.009962221
74	0x3e6023c0	0.21888638
75	0xbe1f61bc	-0.15564626
76	0xbe0ea8e6	-0.13931617
77	0xbd88a003	-0.06671145
78	0x3e2816fb	0.16415016
79	0xbe961565	-0.29313198
80	0x3c4ce66a	0.012506107
81	0x3e0bf4a3	0.1366754
82	0xbe34fd5a	-0.17674771
83	0xbd8cfc61	-0.06884075
84	0xbe97bf11	-0.2963796
85	0x3e0385ce	0.12844011
86	0xbd956a47	-0.072956614
87	0x3e1203a6	0.14259204
88	0x3d1265a4	0.035741463
89	0xbd28e9d7	-0.041238632
90	0x3e3e4040	0.18579197
91	0x3d18fce0	0.037350535
92	0xbb22ecf7	-0.002486048
93	0x3de2f916	0.110826656
94	0xbd43393d	-0.04766201
95	0xbe220666	-0.15822753
96	0x3e1ddc25	0.1541601
97	0x3d190686	0.037359737
98	0xbd81ecf7	-0.063440256
99	0x3e1409ed	0.14456911
100	0x3e6e8838	0.23294151
101	0x3e0ac5c9	0.13552012
102	0xbcef54ca	-0.029215235
103	0x3d898024	0.06713894
104	0x3e7cdd6e	0.24693844
105	0xbd9b28a8	-0.07576114
106	0x3dc8ee70	0.09811103
107	0x3df6aa28	0.120441735
108	0xbdbede1e	-0.09319709
109	0x3e242fcb	0.16033857
110	0xbd81cfc5	-0.06338457
111	0x3e31388d	0.17306729
112	0xbc103d64	-0.008803699
113	0xbd6aad6d	-0.057294298
114	0xbbe49008	-0.0069751777
115	0x3d8832b4	0.06650296
116	0x3eba07db	0.36334118
117	0x3e49646d	0.19667216
118	0x3af176c1	0.0018422232
119	0x3e148d4d	0.14507027
120	0x3e58cc69	0.21171726
121	0x3e519d1e	0.20470092
122	0x3ce020df	0.027359424
123	0x3e8cdfc6	0.27514476
124	0x3d26be68	0.04070893
125	0x3d97e87e	0.07417391
126	0x3c743dcd	0.014907313
127	0x3d26f5c0	0.04076171
128	0xbdac3725	-0.084089555
129	0xbdcd58a6	-0.10026674
130	0xbea0167b	-0.3126715
131	0x3da55797	0.08073347
132	0x3e7115a5	0.23543413
133	0x3d956eef	0.072965495
134	0xbd9e21fa	-0.07721324
135	0x3d21be41	0.03948808
136	0x3e8bd906	0.27314013
137	0x3db888aa	0.090104416
138	0x3e8f1d7a	0.27952176
139	0x3e6e7c21	0.23289539
140	0x3e82c83b	0.2554339
141	0x3e22d320	0.1590085
142	0x3e49205c	0.1964125
143	0x3e169e8f	0.14708923
144	0xbdfb220d	-0.12262354
145	0x3ea33bd5	0.31881586
146	0x3d181338	0.037127703
147	0x3d86d32a	0.06583245
148	0x3cc04b59	0.023473429
149	0xbe0ebd5d	-0.13939424
150	0x3e08f7bc	0.13375753
151	0x3def6096	0.11688344
152	0x3c913add	0.017728264
153	0x3daaf7d7	0.08348053
154	0x3c644f9f	0.013934999
155	0x3d68c51e	0.05682861
156	0x3e5ac670	0.2136476
157	0xbd1fbe86	-0.039000057
158	0x3dcd4bf6	0.10024254
159	0x3ddd1d97	0.107966594
160	0x3e1c85ed	0.15285464
161	0x3e9ca93f	0.30597875
162	0x3e4e94ca	0.20173946
163	0x3e0c637c	0.13709825
164	0xbe180a6a	-0.14847723
165	0x3d8d6c27	0.06905394
166	0xbd4f7ce5	-0.050656218
167	0xbe6fd97b	-0.23422806
168	0x3e0df8b7	0.13864408
169	0x3e4194b5	0.18904383
170	0xbe3fc772	-0.18728426
171	0x3e133960	0.14377356
172	0x3d5d476d	0.054023195
173	0x3d8d6d9c	0.06905672
174	0x3d27aff1	0.040939275
175	0xbd89b6ef	-0.06724345
176	0x3e00aa18	0.12564886
177	0x3e0e2da9	0.13884605
178	0x3e57c039	0.21069421
179	0x3e2b5098	0.16729963
180	0x3dda6f1e	0.10665725
181	0x3e0c098a	0.13675514
182	0x3d7ba791	0.0614391
183	0x3e0e3c0b	0.13890092
184	0x3e613719	0.21993674
185	0x3d92b119	0.07162685
186	0x3c5c6e8a	0.013454089
187	0x3ccaa469	0.0247366
188	0x3d651949	0.055932317
189	0xbd598f50	-0.05311519
190	0xbe3aae6d	-0.182306
191	0x3dfdec2a	0.1239856
192	0xbdd7bce8	-0.10534078
193	0x3d54248c	0.051792666
194	0x3c96c77c	0.018405668
195	0x3e7590c1	0.23981
196	0x3e4e13c5	0.20124729
197	0x3da0f951	0.07860053
198	0x3e3bccba	0.18339816
199	0xbd0416d3	-0.03224833
200	0xbd55c801	-0.05219269
201	0x3e203979	0.15646924
202	0xbd998b53	-0.07497277
203	0x3e522540	0.20522022
204	0x3db69dfe	0.08916853
205	0x3e1d59fc	0.15366358
206	0x3cca4a67	0.02469368
207	0x3e17ab67	0.14811479
208	0xbdf16a68	-0.117878735
209	0x3e74f595	0.23921807
210	0x3d5988ed	0.0531091
211	0x3e59c576	0.21266732
212	0x3e8aea53	0.271319
213	0x3e7228fc	0.23648447
214	0x3dcc6042	0.09979297
215	0x3e566868	0.20938265
216	0xbd615d1f	-0.055020448
217	0x3d840520	0.0644629
218	0x3e241418	0.1602329
219	0x3bcd4fcf	0.0062656174
220	0x3d76d602	0.060262688
221	0xbada6da4	-0.0016664756
222	0x3da06470	0.07831657
223	0x3d0b4d52	0.034009285
224	0x3d3f5e3f	0.04672074
225	0xbd2351d8	-0.039872974
226	0x3b800a85	0.003907504
227	0x3b6af0e4	0.0035849148
228	0x3db2cf27	0.087309174
229	0xbe0488dc	-0.12942833
230	0x3dd8312d	0.105562545
231	0x3e177dbc	0.14794058
232	0x3d14dab4	0.036341384
233	0x3e3cad24	0.18425423
234	0x3e3a2bc3	0.18180756
235	0x3e047815	0.12936433
236	0xbe75641a	-0.23963967
237	0xbdfcf27a	-0.12350936
238	0x3e53a3d1	0.2066796
239	0x3e265e5f	0.16246937
240	0xbb35138b	-0.0027630057
241	0xbd0b8454	-0.034061745
242	0x3d11c004	0.03558351
243	0x3df02259	0.11725301
244	0x3c81087e	0.01575112
245	0x3cf55144	0.029945977
246	0x3d6d8907	0.057992008
247	0xbe1c1282	-0.15241435
248	0x3e462242	0.19349006
249	0x3b39eb6d	0.0028369084
250	0x3e0db7a9	0.13839592
251	0x3dd78bfc	0.10524747
252	0x3d8e8bba	0.069602445
253	0x3d73f50d	0.05955987
254	0x3cdce5fa	0.02696513
255	0xbd844875	-0.064591326

fc2.weight f4 [4, 256]
0	0x3d089ca2	0.0333525
1	0x3d3d2be8	0.04618445
2	0xbdb0223e	-0.08600281
3	0x3dc59686	0.09647851
4	0x3e4fbb6e	0.20286343
5	0xbe81e2fe	-0.25368494
6	0xbe28e217	-0.16492496
7	0xbb60bba8	-0.003429154
8	0xbd8f5150	-0.06997931
9	0xbc21bc25	-0.009871517
10	0xbe499f7a	-0.19689742
11	0xbe6d3100	-0.23163223
12	0xbd2d7ea9	-0.04235712
13	0x3e83236b	0.2561296
14	0xbe330197	-0.17481075
15	0x3d7d5f64	0.06185855
16	0xbe3762dc	-0.17908806
17	0xbe89237a	-0.2678488
18	0x3de0ab96	0.109702274
19	0xbe1cafbd	-0.15301414
20	0xbe73c732	-0.23806456
21	0xbf025d43	-0.50923556
22	0x3b63d5a5	0.0034764793
23	0xbe857cea	-0.26071864
24	0xbe5d4d8f	-0.21611618
25	0x3dace41f	0.08441948
26	0xbaf97b3b	-0.0019033918
27	0x3e5eb1e9	0.21747555
28	0x3ddca473	0.10773554
29	0x3e926135	0.28589788
30	0x3e28b19a	0.16474
31	0x3ebd55b4	0.3697945
32	0xbe8364aa	-0.25662738
33	0x3ed7604a	0.4206565
34	0xbde2ddc3	-0.11077454
35	0x3cf2e0fa	0.029648293
36	0x3ea0be28	0.31395078
37	0xbe307cd9	-0.17235126
38	0x3e22da0b	0.1590349
39	0xbea77873	-0.32709083
40	0x3e1ece0d	0.1550829
41	0x3ea725a8	0.32645917
42	0xbe2bd1a1	-0.16779186
43	0xbe8d88ec	-0.27643526
44	0x3e9eeb3c	0.31038845
45	0x3a4d9c67	0.0007843435
46	0xbcc14497	-0.023592276
47	0x3e8f0bc1	0.27938655
48	0xbcf29eb5	-0.029616693
49	0xbdbd3afa	-0.092397645
50	0xbbfa3071	-0.007635169
51	0xbcae4374	-0.021272399
52	0x3e2d9a47	0.16953383
53	0x3eaada2e	0.33369583
54	0x3f036de0	0.5133953
55	0x3c3ccb95	0.011523147
56	0x3e4135bb	0.18868153
57	0x3e377e80	0.1791935
58	0xbdc8e4b0	-0.09809244
59	0x3b1067e7	0.0022034587
60	0x3d8f1886	0.06987099
61	0xbdcaa936	-0.09895556
62	0x3ea41b7e	0.32052225
63	0xbd9aa7d1	-0.0755154
64	0x3d0181fd	0.031618107
65	0x3d2b022a	0.04175011
66	0x3f01c449	0.5069013
67	0x3d468954	0.04847081
68	0xbebb5e78	-0.3659551
69	0xbe2d0d15	-0.16899522
70	0xbe243d3d	-0.16038986
71	0x3dbd15e1	0.09232689
72	0xbe1df852	-0.15426758
73	0x3e79c232	0.24390486
74	0x3df4b9b8	0.119494855
75	0x3e520c3b	0.20512478
76	0xbe1b61f6	-0.15174088
77	0xbe1dda27	-0.1541525
78	0xbd966c87	-0.07344919
79	0xbd2c04a1	-0.041996602
80	0x3eb17041	0.34655955
81	0xbe4e5eb7	-0.20153318
82	0x3e15109a	0.14557114
83	0x3e955a27	0.29170343
84	0xbec39a9b	-0.38203892
85	0x3eb2aa42	0.3489552
86	0xbddf3b79	-0.109000154
87	0x3e706122	0.23474553
88	0xbd9f60ac	-0.077821106
89	0x3e9e9437	0.30972454
90	0x3dcf82ec	0.10132393
91	0xbd35bd8b	-0.044370215
92	0xbe53f8b7	-0.20700346
93	0xbe8a360f	-0.26994368
94	0x3df53625	0.11973218
95	0x3f1bd438	0.60870695
96	0x3d3cc79d	0.046088804
97	0xbe2351e8	-0.15949214
98	0xbdf3c450	-0.11902678
99	0x3d5d8729	0.054083977
100	0x3e81b0f7	0.25330326
101	0xbe17e6ec	-0.14834183
102	0xbd03f420	-0.032215238
103	0xbd9dbceb	-0.07702049
104	0xbe0e35b5	-0.13887675
105	0x3e4b15d4	0.19832546
106	0xbe06351e	-0.131062
107	0xbe1ae4d8	-0.1512636
108	0x3d7ce02a	0.061737217
109	0xbec4586a	-0.38348705
110	0xbe4abfe7	-0.19799767
111	0xbda3d042	-0.079987064
112	0xbe3b9794	-0.18319541
113	0xbe83abd1	-0.25717023
114	0xbe3c52ae	-0.18390915
115	0xbe2084d4	-0.1567567
116	0x3e511e89	0.20421804
117	0xbde295ca	-0.11063726
118	0x3ecdbe92	0.40184456
119	0x3e9a3122	0.3011561
120	0xbec6f18b	-0.38856158
121	0xbdc7cd6b	-0.09755977
122	0x3ee44ab8	0.44588256
123	0x3ebdbee0	0.3705969
124	0xbe195246	-0.14972791
125	0xbcea3038	-0.028587446
126	0xbdc1fed8	-0.09472436
127	0xbd8ba02c	-0.0681766
128	0x3ec65c4e	0.38742298
129	0xbf18b55f	-0.5965175
130	0xbf35a96a	-0.7096163
131	0x3f13a8be	0.57679355
132	0xbd37994c	-0.04482393
133	0x3e240df2	0.16020945
134	0xbe45803b	-0.19287197
135	0x3dd0b30a	0.10190399
136	0x3eac43e9	0.3364556
137	0xbe3596bf	-0.17733286
138	0x3ebd7ff2	0.37011677
139	0x3e1d0c3f	0.15336703
140	0x3ccbbd78	0.02487062
141	0x3eaf38c1	0.34222987
142	0xbdbf0db5	-0.09328786
143	0x3e4b8c48	0.19877732
144	0xbe4f834d	-0.20264931
145	0x3dca5443	0.09879353
146	0xbee0558c	-0.43815267
147	0x3e877896	0.26459187
148	0xbeb01302	-0.34389502
149	0xbf233289	-0.63748986
150	0xbe58faca	-0.21189418
151	0xbcecc1cc	-0.028901003
152	0x3eadfd5f	0.3398237
153	0x3e31ddde	0.17369792
154	0xbe7c8ec5	-0.24663837
155	0x3e7b157b	0.24519913
156	0xbe1d3d06	-0.1535531
157	0x3e106ccd	0.14104004
158	0xbe0b0404	-0.1357575
159	0x3d64d773	0.05586953
160	0x3e3f6e16	0.18694338
161	0xbbfd41df	-0.0077287997
162	0xbe71cee8	-0.23614085
163	0xbe4ffc61	-0.20311119
164	0xbe150e19	-0.14556159
165	0xbd3e47e8	-0.046455294
166	0xbeddef7c	-0.43346775
167	0x3f1dab57	0.6158957
168	0x3eb0f5ba	0.34562474
169	0x3e3e1c16	0.18565401
170	0x3f1ff983	0.624901
171	0x3e980755	0.29693094
172	0xbc67b9ca	-0.014143417
173	0xbe647276	-0.22309288
174	0x3e55b267	0.20868836
175	0xbd93a4d2	-0.07209171
176	0x3db69e64	0.08916929
177	0xbe69780d	-0.22799702
178	0xbe9356b9	-0.28777102
179	0xbd58899f	-0.05286562
180	0xbe90ce32	-0.28282315
181	0x3c0a87fe	0.008455275
182	0x3e8020ef	0.25025126
183	0x3e53ba2f	0.20676492
184	0x3e184149	0.14868654
185	0xbcfe0145	-0.031006465
186	0xbe000316	-0.12501177
187	0xbd9c5418	-0.07633227
188	0xbccdec4a	-0.025137085
189	0x3cc87292	0.024468694
190	0xbda34c1f	-0.07973503
191	0x3de36d95	0.111048855
192	0x3b52317e	0.0032072957
193	0xbe4b7687	-0.19869433
194	0x3e8e4578	0.27787375
195	0xbe1434b6	-0.14473233
196	0xbd6b43a2	-0.057437547
197	0xbe8dc3ba	-0.2768839
198	0x3e829686	0.25505465
199	0x3d90944d	0.07059536
200	0xbe282ca5	-0.1642328
201	0xbe55a9ff	-0.2086563
202	0x3df72344	0.12067273
203	0xbe6e7129	-0.23285355
204	0x3d0710f0	0.032975137
205	0x3c3f5587	0.011678106
206	0xbee11bf2	-0.43966633
207	0x3ebdada0	0.37046528
208	0x3e825d97	0.25462028
209	0xbe715c04	-0.23570257
210	0x3edabdc6	0.4272291
211	0xbe27797e	-0.1635494
212	0x3dfd87e8	0.12379438
213	0x3c7fe697	0.015618942
214	0x3ec4ac83	0.38412866
215	0x3c84db53	0.016217863
216	0x3e112a90	0.14176393
217	0xbca2400d	-0.019805932
218	0xbd884581	-0.06653882
219	0x3da198c9	0.078904696
220	0x3dfa6fa0	0.12228322
221	0xbe11cc60	-0.14238119
222	0xbe92596c	-0.28583848
223	0x3e9181e2	0.28419405
224	0xbd2cf882	-0.042229183
225	0xbe2b3d10	-0.16722512
226	0xbed652d7	-0.41860077
227	0x3e46f312	0.19428661
228	0xbeaaafd2	-0.33337265
229	0xbe21b604	-0.1579209
230	0x3e819e44	0.2531606
231	0xbd4aa378	-0.049472302
232	0x3ce0cf74	0.027442671
233	0xbe4976ab	-0.19674174
234	0xbbfa68dd	-0.007641895
235	0x3e407c5f	0.18797444
236	0xbe9120ba	-0.2834528
237	0x3e04c8c6	0.12967214
238	0x3f182de4	0.59445024
239	0xbe872ddf	-0.26402184
240	0xbecbb786	-0.39788455
241	0x3d9ac80a	0.07557686
242	0xbe22350b	-0.15840547
243	0x3e3602cc	0.17774504
244	0x3f100277	0.5625376
245	0xbc9c6e61	-0.019095602
246	0xbd8105ca	-0.06299932
247	0x3e123e83	0.14281659
248	0x3e4e136f	0.20124601
249	0xbec7a9cd	-0.38996735
250	0x3bd84ca3	0.0066009327
251	0x3e86a0a3	0.2629443
252	0x3e9c262b	0.3049787
253	0xbd2fde40	-0.042936563
254	0xbea4e9ca	-0.32209617
255	0xbdcf82b0	-0.101323485

fc2.bias f4 [4]
0	0xbddbc5a2	-0.10731055
1	0x3da86187	0.08221727
2	0x3d936da1	0.071986444
3	0xbda443e7	-0.08020764
