MADDPG/actor1.pth (torch_old, 29368 bytes, 8 tensors)

norm0.weight f4 [24]
000000 02 71 be 3d db 25 8c 3e bd 48 c6 3e 91 b4 2f 3f
       0.09298898 0.2737263 0.3872737 0.686349
000010 11 45 d1 3f ea 51 07 40 9c 74 55 be 0d e7 80 be
       1.6349202 2.1143746 -0.20845264 -0.25176278
000020 d5 72 f3 3e b1 03 f8 3e 02 87 5b 3e dd 04 95 3e
       0.47548547 0.48440316 0.2143822 0.29105273
000030 97 e9 01 3f 46 b1 bc 3e 21 b2 29 3e 4b 97 81 3e
       0.50747055 0.36854 0.16571857 0.2531074
000040 c4 06 8d 3f b6 71 8f 3f 9a be 0e 3f f1 5d 7a 3f
       1.101769 1.1206577 0.55759585 0.97799593
000050 a8 df 06 40 09 0a 01 40 2c bb 6e 3d af b2 91 3e
       2.107401 2.0162375 0.05828397 0.28456637

norm0.bias f4 [24]
000000 e5 86 ae bf 20 c1 bb bf 11 5e 68 3e 37 5e ba be
       -1.3634917 -1.4668312 0.22692133 -0.36400005
000010 19 4a 40 bf 64 f2 a4 3e d9 d1 08 3e 49 64 f4 be
       -0.75113064 0.3221618 0.133613 -0.47732762
000020 70 85 58 bf d1 e4 04 be cd a8 87 3d f2 11 00 be
       -0.8457861 -0.12977912 0.06623993 -0.12506846
000030 45 79 1b 3f 23 7f 1f bc c3 0e c9 bc 25 fe ac be
       0.6073192 -0.009734902 -0.024543172 -0.33787647
000040 16 ed 18 3f ea 3c 9f bf ea 91 fb be fa 54 24 bf
       0.59736764 -1.2440464 -0.4913476 -0.64192164
000050 05 0a 88 3e ce f1 cf 3e b2 5e f4 3e df 95 03 3f
       0.26570144 0.4061417 0.47728497 0.5140056

norm0.running_mean f4 [24]
000000 5d 66 b6 c0 19 f0 3d bf de c3 dc 40 f1 92 92 bd
       -5.6999955 -0.74194485 6.8989096 -0.07156933
000010 ce 4a 91 be a9 1d 38 40 de c3 dc 40 f1 92 92 bd
       -0.28377384 2.8768103 6.8989096 -0.07156933
000020 97 e2 b7 c0 9d 03 3e bf 36 5c e0 40 ca cb 30 bd
       -5.74641 -0.74224263 7.011256 -0.0431631
000030 4d d4 9d be 9d 4c 38 40 36 5c e0 40 ca cb 30 bd
       -0.30826035 2.879676 7.011256 -0.0431631
000040 ac 53 b8 c0 8f 0a 3d bf 33 14 e8 40 3f 0b 25 bd
       -5.760214 -0.73844236 7.2524657 -0.04029393
000050 93 3d a9 be 5b b6 37 40 33 14 e8 40 3f 0b 25 bd
       -0.3305479 2.870505 7.2524657 -0.04029393

norm0.running_var f4 [24]
000000 07 33 8c 41 61 a8 8a 3f 24 29 06 44 42 24 44 41
       17.524916 1.0832635 536.6428 12.258852
000010 76 29 d9 41 5e cc 3d 40 24 29 06 44 42 24 44 41
       27.145245 2.9655986 536.6428 12.258852
000020 a3 a5 8b 41 ea f5 8a 3f 3d 20 07 44 67 d9 45 41
       17.455877 1.0856297 540.5037 12.365577
000030 8f f6 db 41 3f ea 3f 40 3d 20 07 44 67 d9 45 41
       27.49539 2.9986722 540.5037 12.365577
000040 a8 43 8c 41 06 e9 8b 3f 7d 19 07 44 5d 3b 48 41
       17.533035 1.0930488 540.39825 12.514493
000050 6f 3d de 41 51 64 44 40 7d 19 07 44 5d 3b 48 41
       27.779997 3.0686228 540.39825 12.514493

fc1.weight f4 [256, 24]
000000 5c c5 b8 3e 49 63 93 3f 59 d9 e0 3c 31 d4 86 3d
       0.36088073 1.1514674 0.02744739 0.06583441
000010 6e e4 1e 3e 4e 79 fc bd ae 65 71 bc b5 71 9a 3e
       0.15516827 -0.123278245 -0.014733715 0.30164877
000020 35 11 74 3e ee 57 d1 3e c8 2d 46 be 68 3f 8b 3e
       0.23834689 0.40887398 -0.19353402 0.27196813
000030 27 e3 59 bf d2 31 9a bb b1 8b c9 3c 7b e7 f6 3e
       -0.8511223 -0.004705646 0.024602743 0.4822348
000040 e5 f6 28 3d 17 23 0a 3f 07 65 d9 3e 9a ea 16 bf
       0.041251082 0.5395979 0.4245989 -0.58951724
000050 fa 07 6a bf 59 37 9e 3e 52 c8 b8 be 16 7e d2 bf
       -0.9141842 0.30901602 -0.36090332 -1.6444728
000060 cb d7 b2 3d d3 02 4f 3e 3e 72 79 3d c1 48 e0 bb
       0.087325655 0.20215921 0.060899965 -0.0068446104
000070 0c f7 b2 3e 21 2c 14 bd 88 58 26 be d6 df db 3d
       0.34954107 -0.036174897 -0.1624471 0.10736053
000080 33 2d 7e 3d fa 6e 9f be b8 77 8a be 0a b2 0c bd
       0.062054824 -0.31139356 -0.27044463 -0.03434948
000090 09 be 8a bd 37 47 5d 3e 2b 61 a0 bd e0 18 92 3d
       -0.067745276 0.21609198 -0.07831033 0.07133651
0000a0 6a 43 4e be 86 af 49 bd ed c9 97 3e 97 19 9b 3d
       -0.20142904 -0.049239658 0.29646245 0.0757324
0000b0 25 96 90 be df eb 2e be 3a 35 60 be f8 d6 b8 be
       -0.2823955 -0.17082165 -0.21895304 -0.36101508
0000c0 de 37 33 3f 95 d3 3b 3e 3c 11 10 3e a7 cc c4 3e
       0.7000712 0.18342431 0.14069074 0.38437387
0000d0 0e 91 4d 3f 05 54 6c bf f9 34 62 bd 10 55 89 3e
       0.8029946 -0.92315704 -0.0552263 0.2682271
0000e0 54 d1 3d 3f 10 04 0d 3e f1 04 17 3f 14 b1 b2 be
       0.74147534 0.13771081 0.58991915 -0.34900725
0000f0 8f 0f 75 3e 8a 63 0e bf ac 2e 38 3f 86 06 cb bd
       0.23931716 -0.55620635 0.71946216 -0.099133536
000100 70 90 f2 3e 24 0d ec 3b 31 ca a8 3e 31 f0 11 be
       0.47375822 0.007203715 0.3296676 -0.14251782
000110 a9 96 9d 3e 84 bc b4 3e 80 3c 71 be ca a7 fe be
       0.30779007 0.35300076 -0.23558235 -0.49737388
000120 9b 00 92 3e 48 b0 18 3e 59 f3 3c 3e 36 98 b0 3e
       0.28516087 0.14910996 0.18452205 0.34491128
000130 f1 28 75 be ac 1c 80 3e b0 0c 92 be 11 e3 8c 3e
       -0.23941399 0.25021875 -0.28525305 0.27516988
000140 da d7 65 3e a3 bf ea 3e f5 84 98 3d eb 74 a5 3f
       0.22445622 0.45849332 0.074472345 1.2926306
000150 0c ce b9 3d 65 23 fb 3e 99 cf 92 3e 92 0c f0 3f
       0.090725034 0.4905044 0.2867401 1.8753836
000160 0e 91 36 bf ae 41 19 3f 54 4b 8a 3e db b8 c8 3e
       -0.71315086 0.59865844 0.27010596 0.39203534
000170 ba 3e ef 3e 95 3c db 3e 40 0f 73 be e4 d2 c4 bd
       0.46727544 0.42819658 -0.23736286 -0.09610537
000180 2b 25 f0 3d 93 33 8c 3e 3d d2 7b be 43 7d 17 3f
       0.11725839 0.27383098 -0.24591918 0.5917551
000190 57 b6 c8 3f d3 b0 52 bf 43 38 b1 be 7f 61 0f 3e
       1.5680646 -0.8230106 -0.34613237 0.14002036
0001a0 ee 0a 90 3e 7d c3 8f 3e ef d3 ab 3e 74 68 8c 3f
       0.2813334 0.28078833 0.3356013 1.0969377
0001b0 67 f9 c9 3e 14 68 09 3e b4 21 e7 3e 11 fd 58 3f
       0.3944809 0.13418609 0.451429 0.8476115
0001c0 2d 14 43 be 5c 6c 17 3f ab 10 01 3f b6 2c a0 3f
       -0.19050665 0.5914972 0.5041606 1.2513645
0001d0 ea 19 9a 3e 44 78 95 3f fa 24 c2 be e1 29 68 3c
       0.30097896 1.1677327 -0.37918836 0.014170141
0001e0 47 78 da 3d 21 e2 23 3e b8 43 8e bd 36 c9 75 3e
       0.10667472 0.1600423 -0.0694651 0.24002537
0001f0 69 06 8d be 3c 6d f7 be a2 fa f4 bd dd 2e 1b 3e
       -0.27543953 -0.48325527 -0.11961867 0.15154596
000200 74 bc 59 3e 12 ce 8d 3e f6 b0 2d be 8c ad 05 3d
       0.21263295 0.27696282 -0.16962036 0.03263621
000210 be e7 e8 3d 87 61 72 be 5e 7a 81 be 85 47 92 3d
       0.11372326 -0.23670016 -0.2528867 0.071425475
000220 fe 19 b5 3e a8 37 af 3e 2a fd 85 be 88 1d 8f 3e
       0.35371393 0.3422215 -0.2616971 0.27952218
000230 4a 72 f5 3e 35 88 29 bf 36 43 d4 bd 2a e9 0a 3e
       0.47938758 -0.6622346 -0.10364382 0.13565508
000240 e9 9e 5f 3b f4 ea ab 3e 4d c6 4c 3e 5d 35 d0 3e
       0.0034121817 0.33577693 0.1999752 0.40665713
000250 b8 92 84 be d2 0b a9 3d 3c 57 b5 bd 2d cc f2 3e
       -0.25893188 0.08254208 -0.08854529 0.474214
000260 b2 02 a3 bd 43 bf 96 3e 52 ee 24 be ce 9d ca 3e
       -0.079594985 0.29442796 -0.16106537 0.3957352
000270 fc 55 aa be 24 54 04 bf e3 66 c4 bd 3b 8b bb 3e
       -0.33268726 -0.5169089 -0.095899366 0.36629662
000280 06 88 7d be 53 a8 40 3f 0a 28 ed bc d7 22 b6 3e
       -0.2475892 0.7525684 -0.028949756 0.35573456
000290 e0 75 ce bc 9c b0 ac bf 8f 47 d0 bd e1 66 3a 3e
       -0.025202692 -1.3491397 -0.10169899 0.18203308
0002a0 ea a6 36 3e fd db 17 3f 51 a8 10 3d 7a 23 d2 bd
       0.1783711 0.5932005 0.03531677 -0.10260673
0002b0 f2 5a 4a 3e ae 51 18 be de 23 31 be 32 d8 dd 3d
       0.19761255 -0.14874908 -0.17298838 0.108322516
0002c0 e4 d3 b1 3e 62 27 03 3f cd e1 d5 3d f8 8f 80 3c
       0.34731972 0.5123197 0.10443459 0.01569365
0002d0 d9 ae 53 be a5 9c 14 bf 69 52 05 3e 84 ca 07 3e
       -0.20672168 -0.5805152 0.13019718 0.13260847
0002e0 3b e7 9a bd 87 d9 82 3f dd 15 0a 3e 07 ee b7 3e
       -0.07563635 1.0222634 0.13484903 0.35923788
0002f0 87 60 52 be 13 a2 9a bf a2 8e c3 be 06 69 ba 3c
       -0.20544635 -1.2080711 -0.38194758 0.022755157
000300 f0 03 e4 3e 88 6a 98 3e 26 95 ad bf 2e 0d 83 3f
       0.44534254 0.29768777 -1.3561141 1.0238397
000310 65 6a 4c 3f b2 e0 bc be 7d 4d 60 3d 1e 4c 13 bd
       0.79849845 -0.3689018 0.0547614 -0.035961263
000320 44 a8 8f 3b d8 19 4c be 15 ae 58 bc f6 e0 fc 3e
       0.0043840725 -0.19931734 -0.013225098 0.49390382
000330 23 2b cb 3d eb c9 08 3e 80 4b db 3e f9 b1 0c 3f
       0.09920337 0.13358276 0.4283104 0.54959065
000340 98 a0 c1 be b4 2b 84 3d 37 42 8c 3f 06 a6 14 3f
       -0.37817836 0.06453648 1.0957707 0.5806583
000350 ae 16 43 3e 45 81 3e bf aa 44 68 3d fe ab d0 be
       0.1905162 -0.74416 0.05670611 -0.4075622
000360 7e ed 1c 3f c1 a7 69 3c 12 67 a4 3e f6 c0 a6 3d
       0.61299884 0.014261187 0.32109886 0.08142273
000370 dd f7 d2 3f 4e 34 be bd e4 be 23 bd c1 35 82 bd
       1.6481892 -0.0928732 -0.03997697 -0.06357909
000380 0f ea ac 3e 32 c9 a1 be 11 61 b5 be 7d c5 b4 3e
       0.33772323 -0.31598812 -0.35425618 0.35306922
000390 63 d2 21 3e 8d 91 e6 3c a2 71 69 bd 53 87 e7 3e
       0.15802912 0.028145576 -0.056993134 0.45220432
0003a0 df c1 63 3e 30 6f ac 3e a5 a8 ec 3d 7c 24 ba 3f
       0.22241925 0.3367858 0.11555604 1.4542384
0003b0 10 38 f3 be 16 24 36 3f 37 3c 19 be f7 c2 0d 3f
       -0.4750371 0.7114881 -0.14964376 0.5537562
0003c0 fb db 01 3f 49 ca d6 3c a5 9f 96 be d5 66 5a 3f
       0.5072629 0.026219504 -0.29418674 0.8531316
0003d0 9d 75 f6 3e f5 29 69 3e 62 5f 7c 3e 12 22 3e 3f
       0.48136607 0.22769912 0.2464576 0.7427074
0003e0 b6 f5 86 3e 99 cf 30 3e 6d dc 0a bf ba e6 14 3f
       0.26359338 0.17266692 -0.54242593 0.5816456
0003f0 b9 ab 5c 3e 26 f5 df 3d e5 67 00 bf b1 21 00 3f
       0.21549882 0.1093543 -0.5015853 0.5005141

fc1.bias f4 [256]
000000 60 7e 33 bf 48 cf f0 be c1 90 11 bf cf 1c 86 be
       -0.7011471 -0.47033143 -0.568615 -0.26193854
000010 7b 65 2f bf 3d c1 98 3d 82 a3 9f be 11 ae 70 bf
       -0.6851422 0.07458732 -0.31179434 -0.94015604
000020 98 89 8a bf e7 7f 1e bf e7 1b 68 be 6b ed e1 bc
       -1.082324 -0.61913913 -0.22666894 -0.02757903
000030 9e 2c 07 bf b4 dd 57 bf c6 32 e0 be 03 26 27 bf
       -0.52802455 -0.8432267 -0.43788737 -0.65292376
000040 2c bf 1d bf 3d 25 1a bf f5 4c d0 be 0b 3b 3f bf
       -0.6161983 -0.6021307 -0.40683714 -0.7469947
000050 23 e2 4b bf bf bd c6 be c1 8a c8 be 2e 26 5a bf
       -0.7964193 -0.3881664 -0.3916836 -0.8521451
000060 f3 d0 b3 be 36 18 fc be 3d 67 53 bf 79 c0 4f be
       -0.35120353 -0.4923722 -0.82579404 -0.20288266
000070 0e 97 37 bf 92 c3 d0 be 75 5f d2 be c3 3f 13 bf
       -0.71714866 -0.40774208 -0.41088453 -0.5751917
000080 75 f8 1e bf 9f fb d0 be b9 0d 05 bf 3d 9e 71 bf
       -0.62097865 -0.40816972 -0.51974064 -0.9438208
000090 df a2 30 bf 7c d2 cc be 11 e9 a3 bf a2 75 d3 be
       -0.6899852 -0.40004337 -1.2805501 -0.41300684
0000a0 86 09 df be a9 9a 02 bf c6 f2 4a bf 1c d7 1a bf
       -0.43561953 -0.5101724 -0.7927669 -0.6048448
0000b0 60 e3 14 bf 75 6d 28 bf c5 e6 31 bf 90 22 7f bf
       -0.58159447 -0.6579202 -0.6949275 -0.99662113
0000c0 3e ee 8b bf a8 67 80 bf 00 43 d1 be a6 cc 1a 3e
       -1.0932081 -1.0031633 -0.4087143 0.1511713
0000d0 c6 f2 c6 be a6 fd 25 bf d9 d9 99 be 2a 8e 5b be
       -0.38857096 -0.6484016 -0.30049017 -0.2144095
0000e0 ed 72 fe be ba 3a c3 be 9c dc e6 be 36 0d 6b bf
       -0.49697056 -0.38130742 -0.45090187 -0.91817033
0000f0 ea 7c 28 bd 7e c4 57 be 0d f6 87 be 54 16 5c bf
       -0.041134752 -0.2107105 -0.2655491 -0.8597157
000100 0d d3 31 bf e3 d9 0e bd 3d 3d 7d bf 8d 62 20 bf
       -0.6946266 -0.03487576 -0.9892157 -0.62650377
000110 b4 31 84 bf 54 43 12 bf da 11 e0 be e7 e2 bc be
       -1.0327668 -0.57133985 -0.4376362 -0.36891863
000120 5d 4d 22 bf 3d b8 04 bf b0 4c 45 bf 11 cd c1 be
       -0.63399297 -0.51843625 -0.7707014 -0.37851766
000130 95 3a 25 bf d9 86 87 be 49 93 82 bf df af 2c bf
       -0.64542514 -0.26470068 -1.0201198 -0.6745586
000140 e0 74 76 bf e6 4b b7 be 38 42 a8 be 25 f9 27 bd
       -0.9627209 -0.35800093 -0.3286302 -0.041009087
000150 1d d4 95 be d0 17 97 bf 76 50 d6 be df f3 ee be
       -0.29263392 -1.1804142 -0.41858262 -0.46670434
000160 77 45 19 be 32 01 14 bf 02 bf b2 be 79 d4 16 bf
       -0.14967905 -0.57814324 -0.34911352 -0.5891796
000170 57 a2 5f be 98 4e c8 be 5a 52 92 be a6 0f 7e 3e
       -0.21839271 -0.39122462 -0.28578454 0.24810657
000180 8f b7 2c be f8 bc 57 3e 5e 08 09 bf a2 0f 88 be
       -0.16866897 0.2106818 -0.5352839 -0.26574427
000190 e1 a7 fc be d2 0e d2 be 8d 8a 3e bf 7f f3 81 bd
       -0.4934683 -0.41026932 -0.7443016 -0.06345271
0001a0 59 99 21 3e fd 6e c3 bd 8c 88 72 bd 85 cd 20 be
       0.15781154 -0.09542654 -0.059212252 -0.157034
0001b0 0d cb 81 bf dc e3 96 bf 34 57 40 bf b0 6d e3 be
       -1.0140091 -1.1788287 -0.7513306 -0.44419622
0001c0 27 39 19 bf 45 b1 25 be b4 01 d0 be 78 39 75 3e
       -0.5985283 -0.16180904 -0.406263 0.23947704
0001d0 39 8b bc be 37 a9 28 bf 20 6b 3d bf 52 fb 61 be
       -0.36824968 -0.658832 -0.73991585 -0.22068527
0001e0 88 c6 70 bd 36 44 d6 be 87 49 99 be 25 9c 85 bf
       -0.058783084 -0.41848916 -0.2993891 -1.0438277
0001f0 3d dd 89 be 01 bd 29 bf 7d b0 c4 be 5e 57 4b bf
       -0.26926604 -0.6630402 -0.384159 -0.79430187
000200 2c 32 41 bf 67 a7 3c bf 80 5d e3 3e 9e 89 7e bf
       -0.7546718 -0.73692936 0.44407272 -0.9942874
000210 da 0f c2 be 28 df 14 bf 1a 16 9c be 42 89 0e bf
       -0.3790272 -0.5815301 -0.30485612 -0.5567819
000220 2d b3 28 bf 6c 6f ae be fb 12 06 bf 27 67 ed be
       -0.658984 -0.34069383 -0.5237271 -0.46367761
000230 cd cb eb be 2a 0c 0b bf 66 a4 ac be f3 d5 15 bf
       -0.46053925 -0.54315436 -0.33719176 -0.58529586
000240 57 8b d0 be 1b 60 52 bf 10 92 aa bd 5f 69 8b be
       -0.40731308 -0.82177895 -0.083286405 -0.2722883
000250 d4 71 25 bf b9 c0 0b bf ff d0 04 bf c9 05 01 be
       -0.6462681 -0.54590946 -0.518814 -0.12599863
000260 4b 6d 9a be 33 de 1f bf 10 54 c6 3d e4 fe 3c bf
       -0.3016151 -0.62448424 0.096840024 -0.7382643
000270 a1 d7 81 be 39 42 14 be 4e 5b 0d bf a2 8a 9d be
       -0.25359824 -0.14478387 -0.55217445 -0.3076983
000280 45 60 e5 be 87 fb e4 be 35 86 13 bf dd d5 09 bf
       -0.4480001 -0.4472315 -0.5762666 -0.53841954
000290 d9 a6 48 be fd 31 94 be b0 09 48 bf 2a dc cc bd
       -0.19594897 -0.28944388 -0.7813978 -0.100029305
0002a0 7d 80 93 be 47 19 25 bf 4b c9 06 bf 45 9c 72 bf
       -0.28808966 -0.64491695 -0.526509 -0.947697
0002b0 6b a2 09 bf 7e 58 07 bf f6 03 3e bf e9 00 1d bf
       -0.53763455 -0.52869403 -0.74224794 -0.61329514
0002c0 94 76 3d bf 43 8f d3 be 65 5d c5 be c0 4d b3 be
       -0.7400906 -0.41320238 -0.38547817 -0.35020256
0002d0 56 0c 78 bf 6d 47 75 be 35 2b 95 be 10 7e 36 bf
       -0.96893823 -0.23953028 -0.29134527 -0.71286106
0002e0 5c 1f ec be 29 69 27 3e 5e ee a2 be e2 e5 76 be
       -0.46117675 0.16348709 -0.31822485 -0.24111131
0002f0 77 8a 42 bf 95 8c d0 be dd a0 54 bf 0a c2 73 3d
       -0.7599253 -0.40732256 -0.8305796 0.059511222
000300 7e 15 b7 be 55 d8 30 bf 6c 32 19 bf 0f 0b 2e 3e
       -0.35758585 -0.69080096 -0.5984256 0.16996406
000310 db 8d ff be ed cc b8 bd db 47 31 bf 9a 03 01 bf
       -0.49912915 -0.090234615 -0.6925027 -0.5039612
000320 a0 dc a0 be 39 28 1f bf 8a 87 4b be a2 f2 2b be
       -0.31418324 -0.6217075 -0.19875923 -0.16791776
000330 93 80 51 bf c1 c2 1f bf cc 8e 43 bf 4b 78 d2 be
       -0.81836814 -0.62406546 -0.76389766 -0.411074
000340 a4 18 e5 be a9 19 19 bf 81 93 c9 be 0e e6 c7 be
       -0.44745362 -0.5980478 -0.3937035 -0.39042705
000350 65 1f 92 be 15 32 1d 3e a7 ed a9 be 4c 39 d7 3c
       -0.28539577 0.15351136 -0.33189127 0.026272438
000360 da 0f 90 be 30 ba 8d be 4e 6f 0b bf 98 75 9b be
       -0.28137094 -0.27681112 -0.5446671 -0.30363154
000370 3f cd ec bc 0d ac 23 bf e4 1d 2a bf 8c 95 19 bf
       -0.028906463 -0.63934404 -0.6645186 -0.59993815
000380 70 3b 86 bf 19 5b e3 be 87 7b d0 be 7d ea c2 bc
       -1.0486889 -0.4440544 -0.40719244 -0.023793453
000390 d2 84 1c 3c 93 80 87 be b4 dd 41 bf 57 9a 4e be
       0.009553151 -0.26465282 -0.7572892 -0.20176063
0003a0 26 39 03 bf fc 5e 6a bd a0 7c a7 be 80 63 bf be
       -0.51259077 -0.05721949 -0.3271227 -0.373806
0003b0 67 50 4d be 74 52 e6 be ea 0f f1 be ef d7 42 3d
       -0.20050202 -0.44984782 -0.47082454 0.04756921
0003c0 ef e1 e6 bd 0b e9 c7 be 16 2b a7 be ea db e0 3d
       -0.11273562 -0.39044985 -0.3265006 0.10979445
0003d0 d3 35 43 bf 43 99 d7 be 81 83 26 bf 51 59 d4 be
       -0.76254004 -0.42109117 -0.6504441 -0.41474393
0003e0 21 e3 f8 be d8 e9 23 be 97 ef 5b 3e 39 33 3e be
       -0.48610786 -0.16007173 0.21478115 -0.18574227
0003f0 b4 07 2d bf 7e 00 00 3e e7 97 79 bd 4e 0e 42 bf
       -0.6758988 0.12500188 -0.06093588 -0.7580308

fc2.weight f4 [2, 256]
000000 ab 06 a8 3f 36 3c e6 bc 5d 45 a7 3f 01 de 11 3f
       1.3127035 -0.028104883 1.3068043 0.56979376
000010 86 dc 3c 3f 04 79 99 3d e4 5b 0d 3f 56 b0 6c 3f
       0.7377399 0.07493785 0.5521834 0.9245657
000020 7a fd 07 c0 d7 0f 08 40 c7 02 ae 3e 20 60 61 be
       -2.124846 2.1259668 0.33986494 -0.22009325
000030 1b ce 5f bf 49 17 50 bf 98 66 99 3e 12 2b 2f 3f
       -0.87423867 -0.8128553 0.29961085 0.68425095
000040 c1 3f 90 bf c5 67 80 bf 18 12 fc 3e 2f c0 24 40
       -1.1269456 -1.0031668 0.49232554 2.57423
000050 35 8b 09 c0 1f e2 68 be e6 8e b9 3f ec 09 21 c0
       -2.1491215 -0.22742508 1.4496734 -2.5162306
000060 8a f1 9d 3e e1 9d f6 3f 4a 43 97 3f 1b 97 ea 3d
       0.30848342 1.9266931 1.181741 0.11454602
000070 dc a0 2b 3f ab 59 d3 3c e1 36 64 bf 4e ea 89 bf
       0.67042327 0.025799593 -0.8914624 -1.0774629
000080 29 98 8e bb 44 96 e4 3f f1 47 9e bf 03 10 f1 bf
       -0.004351635 1.7858357 -1.2365705 -1.8833011
000090 e1 4e 2e c0 ef 64 af 3e 42 8b 17 c0 b2 0d 5a 3f
       -2.7235644 0.34256694 -2.3678746 0.8517715
0000a0 f0 04 75 3f 39 12 eb be 2d e1 25 3c ab 69 c2 bf
       0.9571066 -0.4591234 0.010124487 -1.5188497
0000b0 27 f5 17 bd 3e ec 49 3f ef d4 88 bf 70 7e 1a bf
       -0.03709903 0.788761 -1.0689982 -0.6034918
0000c0 89 b4 6b 3f 07 d1 e8 3f 0e 14 01 3f bf 1b 15 bf
       0.9207235 1.818879 0.50421226 -0.5824546
0000d0 fd 69 8a be 86 52 27 c0 55 8e 9b be 35 3c 6c bd
       -0.27033988 -2.6144118 -0.30382028 -0.057674605
0000e0 59 02 63 be c1 a8 fc 3e 4a 2d be bf 1f 3c 18 bd
       -0.22168864 0.493475 -1.4857571 -0.03716671
0000f0 e1 ca 2d 3e 14 5e 0a 40 68 32 36 bf c2 48 7f 3f
       0.16971923 2.161992 -0.71170664 0.99720395
000100 9e bf e6 bf 61 73 d0 bd 72 30 59 40 4a 27 9d bf
       -1.8027227 -0.10178257 3.3935819 -1.2277615
000110 a5 0a c4 bf 1a 0e a8 bf 54 6e a0 bd b3 5f 3e bf
       -1.5315748 -1.3129303 -0.078335434 -0.74364775
000120 56 79 f0 3f 81 6d 0c 3f 86 88 db bf 57 2f ff 3e
       1.8787029 0.5485459 -1.7151039 0.49840805
000130 18 cf af 3d c4 24 06 bf 45 5f f3 3f 61 b1 59 40
       0.08584422 -0.5239985 1.9013449 3.4014513
000140 69 07 b1 bf 2f b3 03 c0 fc 54 02 3e f1 ee db be
       -1.3830386 -2.0578115 0.12727731 -0.42955735
000150 38 40 21 3d 4a 9b 5c c0 30 72 b1 bd 39 dd 5f bf
       0.039367884 -3.446978 -0.08664358 -0.87446934
000160 05 83 86 3e e7 2f f1 3f 8b 9b a1 bd 46 62 ea bd
       0.26271835 1.8842744 -0.078909956 -0.114445254
000170 84 84 44 3e 28 12 86 3d 43 c3 2e 3f fa e0 42 bf
       0.19191176 0.06546432 0.68266696 -0.76124537
000180 31 7c 33 bf 79 6a 2e 3e c7 87 24 bf 50 37 10 be
       -0.70111376 0.17032804 -0.6426968 -0.140836
000190 14 5b 2c bf 32 45 6b 3e 9c 0d 07 40 00 6d 82 bf
       -0.67326474 0.22975615 2.1102057 -1.0189514
0001a0 cb f5 8e 3f 5e 54 2b 40 60 17 46 bf 86 85 99 bf
       1.116876 2.6770244 -0.7737942 -1.1993873
0001b0 e3 bf 42 40 03 5c 21 40 ad 38 33 c0 e8 82 1f bf
       3.0429618 2.521241 -2.8003342 -0.6230912
0001c0 bc dc b0 3d c9 aa 82 3e 10 20 ee 3c 77 65 a0 bc
       0.08635852 0.25520924 0.029068023 -0.019579632
0001d0 a6 85 8e bf 7e c9 d0 3e ca 36 a4 bf 85 6c 6d bd
       -1.1134536 0.40778726 -1.282922 -0.05796482
0001e0 14 d4 de be f9 70 79 3f 29 a3 49 be 56 b7 11 bd
       -0.43521178 0.9743801 -0.19691147 -0.035575233
0001f0 e3 db 62 3f 89 5f 2f 40 c7 3f 83 bf 11 13 7f 3f
       0.8861677 2.740206 -1.0253838 0.9963847
000200 25 92 38 3f f2 c7 eb 3f 84 07 3f be 70 8a 35 3d
       0.72098 1.8420393 -0.1865521 0.044321477
000210 c0 e0 50 3f d7 02 73 3f ab de e5 3e 92 ed b4 bf
       0.8159294 0.9492621 0.44896445 -1.4135001
000220 7c ac 82 be f7 69 52 be 85 1f be be 6f bb 10 c0
       -0.2552222 -0.20548235 -0.37133422 -2.26144
000230 61 9d a8 bf 4c 42 8f bd 83 fe 57 3d 12 6e d1 bf
       -1.3173028 -0.06995067 0.052732956 -1.6361716
000240 f9 84 e7 3e 08 de b6 3f ae 94 90 3d d0 15 db 3e
       0.45218638 1.4286509 0.070596084 0.4279008
000250 19 ea 63 bf 5e 32 25 be 26 b8 17 c0 34 a5 72 bd
       -0.8902908 -0.16132495 -2.3706145 -0.05923958
000260 e4 76 5f be a7 66 a3 bf 12 b2 56 be 86 d0 d4 bf
       -0.21822697 -1.2765702 -0.20966366 -1.6626136
000270 54 aa 03 3f 0a 5d 71 3e f4 38 b8 3e 2e 2d 11 40
       0.51431775 0.23570648 0.35980952 2.2683825
000280 d3 c2 fa 3e c5 5c 6b 3e 84 53 a2 3e 33 4b a0 3d
       0.48976764 0.22984608 0.31704342 0.07826843
000290 a8 18 b6 bf 16 46 8c 3d f8 a4 0d 40 e4 d6 02 be
       -1.4226274 0.06849305 2.213194 -0.12777287
0002a0 f8 3d 13 be 6e ca 1f 3f 66 d9 d3 bf 36 19 5a 40
       -0.14379108 0.6241826 -1.655072 3.4077888
0002b0 b2 2c a5 3f 62 95 cd bf 32 9c 44 bf 9f e8 94 3f
       1.2904265 -1.6061213 -0.76800835 1.163349
0002c0 ce d0 ac 3f e9 5b 20 bf e9 c4 07 bf a2 06 65 3f
       1.3501222 -0.62640244 -0.53034836 0.89463246
0002d0 b2 19 06 40 ba 4c 8a 3d 99 08 bd 3e 1c f4 7d 3e
       2.0953183 0.06752916 0.36920622 0.24800152
0002e0 ae fc bd be 46 30 72 3e 67 34 10 3d 4e 90 28 bf
       -0.37106842 0.23651227 0.035206225 -0.6584519
0002f0 2c 0d b5 be 90 71 35 3f 5f 21 98 bf 75 34 4f bf
       -0.35361612 0.7087641 -1.1885184 -0.8093942
000300 c1 5a bd bd 44 1e 76 3c 1e dc ed 3f 06 4a a4 3e
       -0.092458256 0.015021864 1.85828 0.32087725
000310 45 8a 27 40 e7 c2 a1 3e 0e 48 84 3f 83 ef 93 bf
       2.6178143 0.3159401 1.0334489 -1.1557468
000320 1f 86 aa be 04 f7 66 be 9c f0 9c bd 97 68 bd 3f
       -0.3330545 -0.22555166 -0.0766308 1.4797543
000330 17 2c 52 be 3d 91 ca c0 f7 94 dc bf 8d 02 63 3f
       -0.20524631 -6.3302293 -1.723296 0.8867577
000340 7f 7e f0 3e a6 3d 06 40 87 1a a1 3e 28 be 66 3b
       0.4697151 2.0975127 0.3146555 0.0035208557
000350 b2 c1 8a 3e 3d bf 09 bf 31 24 b9 3e c8 11 3a 3e
       0.27100903 -0.5380743 0.36160424 0.18170846
000360 1f 5a 36 bd 4e d0 76 bd db 07 f6 3e 51 51 03 3f
       -0.04451954 -0.06025725 0.48052868 0.51295954
000370 08 80 6a be 0e 49 cc 3e 8d 58 77 bf 8c e9 2a 3f
       -0.22900403 0.39899486 -0.9661949 0.66762614
000380 e1 88 e9 3f c5 b6 6b bf 6d 91 af be 06 09 99 be
       1.8244897 -0.9207576 -0.3429064 -0.29889697
000390 66 2b 97 be f0 38 a0 bc 45 10 b0 c0 db 7f 7a 3e
       -0.29525298 -0.0195584 -5.501986 0.24462835
0003a0 f1 95 17 c0 bc 52 73 bf fb 21 9b 3f 38 84 04 40
       -2.3685267 -0.9504812 1.2119745 2.07057
0003b0 3f 18 c8 3d e5 31 5c bd 73 01 5c bf e7 28 43 bd
       0.097702496 -0.05375852 -0.8593971 -0.04764643
0003c0 e8 8d 80 3f 23 75 2b bf 16 bd 79 3d 72 60 61 3e
       1.0043306 -0.6697561 0.060971342 0.22009447
0003d0 62 9c a2 3f 0d 21 08 c0 58 0a 0a 40 6c 12 0e 3f
       1.2703974 -2.1270173 2.1568813 0.5549686
0003e0 17 a4 8d 3f f0 1a e1 be 16 60 e5 bd fb 6e 03 3e
       1.1065701 -0.43965864 -0.111999676 0.12835304
0003f0 3c 11 94 bd eb 00 e4 3d 31 79 d1 3e 15 81 ec 3f
       -0.0722985 0.111329876 0.40912774 1.8476893

fc2.bias f4 [2]
000000 ea 2b 30 3e 9d 2a 7c 3e
       0.17204252 0.2462563
