MADDPG/critic1.pth (torch_old, 425076 bytes, 11 tensors)

norm0.weight f4 [24]
00000000: 4639 2d3e 4eb8 e13c e3e3 ab3c 554f 303e
00000010: 06eb 123f e41e 3e3f 8c75 7e3e 4287 a7bb
00000020: 88e3 cbbb b019 20b9 0390 663e b2b9 403e
00000030: 5cee 393f a053 3c3f 5612 a83b 6785 453a
00000040: 3d43 0f3f 3336 fd3e f202 953e 1e27 bd3e
00000050: cd41 763f e39a 443f 69f3 483a e10e a439
0.1691638 0.027553704 0.020982688 0.17217763 0.5738987 0.74265885 0.24849528 -0.0051125595
-0.006222192 -0.00015268358 0.22515874 0.18820837 0.7262933 0.735651 0.005129139 0.0007534832
0.5596197 0.49455413 0.2910381 0.36943907 0.96194154 0.7679884 0.00076656655 0.00031291603

norm0.bias f4 [24]
00000000: 22af fe3c 0fcb b33a 1d49 c5bb a08a 98bd
00000010: 7e98 7b3d f7d8 1c3e 4462 453c ef5b 8a3b
00000020: cd60 02bb a23c c336 c7ee 513c e832 6cbd
00000030: 94ca 483e 5f56 0e3e 595a f4b8 e835 82b9
00000040: c613 0cbd d5ea 6fbe ce8d d13c 1b30 d0bd
00000050: 0ecf 113e 2cbd 153e 8b48 10b8 51e2 32b9
0.03108937 0.0013717132 -0.0060206787 -0.074483156 0.061424725 0.1531714 0.012047354 0.004222385
-0.0019894124 5.8185115e-06 0.012813277 -0.057665735 0.19608527 0.13900135 -0.00011651655 -0.00024835696
-0.034198545 -0.23429425 0.025580313 -0.101654254 0.14239141 0.14622945 -3.4399836e-05 -0.00017059712

norm0.running_mean f4 [24]
00000000: 5d66 b6c0 19f0 3dbf dec3 dc40 f192 92bd
00000010: ce4a 91be a91d 3840 dec3 dc40 f192 92bd
00000020: 97e2 b7c0 9d03 3ebf 365c e040 cacb 30bd
00000030: 4dd4 9dbe 9d4c 3840 365c e040 cacb 30bd
00000040: ac53 b8c0 8f0a 3dbf 3314 e840 3f0b 25bd
00000050: 933d a9be 5bb6 3740 3314 e840 3f0b 25bd
-5.6999955 -0.74194485 6.8989096 -0.07156933 -0.28377384 2.8768103 6.8989096 -0.07156933
-5.74641 -0.74224263 7.011256 -0.0431631 -0.30826035 2.879676 7.011256 -0.0431631
-5.760214 -0.73844236 7.2524657 -0.04029393 -0.3305479 2.870505 7.2524657 -0.04029393

norm0.running_var f4 [24]
00000000: 0733 8c41 61a8 8a3f 2429 0644 4224 4441
00000010: 7629 d941 5ecc 3d40 2429 0644 4224 4441
00000020: a3a5 8b41 eaf5 8a3f 3d20 0744 67d9 4541
00000030: 8ff6 db41 3fea 3f40 3d20 0744 67d9 4541
00000040: a843 8c41 06e9 8b3f 7d19 0744 5d3b 4841
00000050: 6f3d de41 5164 4440 7d19 0744 5d3b 4841
17.524916 1.0832635 536.6428 12.258852 27.145245 2.9655986 536.6428 12.258852
17.455877 1.0856297 540.5037 12.365577 27.49539 2.9986722 540.5037 12.365577
17.533035 1.0930488 540.39825 12.514493 27.779997 3.0686228 540.39825 12.514493

fc1.weight f4 [256, 24]
00000000: 41a8 73bc de38 7ebc f111 f63b 683a 503b
00000010: 9e5b 373e 27d0 e63d c619 80bd ae14 f2bb
00000020: d115 1fbc 31f0 5cbb 6a39 9d3c acdb 543e
00000030: 10b8 293e 2e9f 68be 93d8 42ba 91db 813b
00000040: 5a0c eabd 6695 94bd a1e8 8fbe 63ea f5bd
00000050: 8287 4fbe 87fa 743d a970 2abb b532 853b
00000060: 5b1e 62bb e771 173a 4518 323b db13 633a
00000070: 7bc1 bf3b a950 acbb 72d1 09bc c22b b13a
00000080: bd70 07ba ab4c 7eba bd38 a4bb c56c 293c
00000090: b53f c2bb bdee 74bb 2db3 883a 58f4 cf39
000000a0: 6018 f53a 76c9 3b3c 5dee b6bb 44b9 013c
000000b0: 75b8 6c39 87d7 0fbb e708 84b7 83eb 123a
000000c0: 496b c2bd 4270 ce3c b11f 0a3d 4c10 c23d
000000d0: 8067 8abc 2fb7 54bd 4d34 8fbd 843b e2bc
000000e0: 0653 153d 27cd c63b a2d7 373d 1e23 363b
000000f0: bf60 83bb 674b 82bc 4305 f93b 1e48 2abb
00000100: 471d bebd 4bf3 fe3d 9d3c a93d 95a1 883a
00000110: 7e50 d33c b16d 163c 3c82 0b3c ca3f 933b
00000120: 0476 43be 7aa6 ab3b 914d 95bd 0baf 7b3e
00000130: 5311 463c 9295 cc3e e361 ec3d 5219 12bd
00000140: b9b9 a73d ad69 a3bb 7736 6abe a414 183e
00000150: adfc ba3b ebc9 003e c0de 8cbd 5151 053c
00000160: f67f c5bd 1de0 3bbe bee3 063f c96f a7bd
00000170: 1241 3cbd b2d8 95be 7041 ba3b d853 a6bb
00000180: c0d4 2f3e 57ab b6bc 0ac2 b1bc 880e 473d
00000190: d41e 5ebc 7e94 2ebe 03c5 43be 9c8c 98bb
000001a0: 5a95 8bbc 0a7b c7ba 9f06 223e 393c 283e
000001b0: fa01 423d a39a d53d 0152 723c c09a 533c
000001c0: 2073 443e 9850 1d3e 9455 a8be ba03 073e
000001d0: 7bb0 9cbc b4ff b7bc 57cd 89bb e069 293c
000001e0: f912 6b3e 7037 8bbc a31e 0e3d fbaf a63e
000001f0: 1ac2 e9be 196c 6f3e ad46 143e e834 6939
00000200: ac2c bebc 9c6d b8bb ebbc e5bd 030e a93e
00000210: 61e2 7d3d 870c b1be 3854 57bd 7f7c 88bb
00000220: e905 3f3e aacf 7c3e e7c9 ccbe 8fe2 9ebe
00000230: 63ec 303e 2773 45bd 0f75 3e3b 6521 0d3c
00000240: 7f20 5c3e ba7c 683b 0cef c33b a2ac 60bd
00000250: 83db 79bd f2ca dbbd ae1d 513e ab2e 2f3c
00000260: b202 bfb9 bfa1 74ba ff3a f33c eae1 00be
00000270: 2128 14be f526 4ebd c5d8 bd3b 9917 903a
00000280: 42a3 1f3e 2ed5 a7bd a6a5 83be bf06 b5bd
00000290: 32b1 0a3e 9cb2 50bd d1aa 9ebb f570 bcbb
000002a0: b782 f53d 9ed6 573d d56f 993c 06ac 30bd
000002b0: 1e0a bcbd 9005 41be c9c4 083d 2285 27bc
000002c0: 6cae 5fbd 74f1 233c 8fec 94bd 2777 8dbc
000002d0: b103 89be c9f7 f6bd 6ec6 bbbc f1c7 4fbb
000002e0: 0ca7 ba3e 9fba 623e 990f 0a3e b32f 2ebe
000002f0: 1754 113e c58a af3c ed3c 0fbc a67e 85bb
00000300: 1501 8abd b081 37bd c6e2 dc3d 56c3 ebbd
00000310: 7da1 363e f956 be3b 6155 733d e3fe f13b
00000320: 6f69 7e3c b90e 6839 df13 65bd 3114 0d3c
00000330: e3fd e1bd 8c11 103d 31bd 5abc 3f94 afbc
00000340: 2822 073e 8fd9 d1bd 8df7 0f3d ecb7 8fbc
00000350: 1be3 f2be 3b26 a8bc f96f edbb a5c6 c5b9
00000360: 9651 84bb 2aa8 5ebb a518 8f3d 2c40 d43d
00000370: 8f92 af3e 28ea 76be 4da3 103d 6b8f 43bd
00000380: 2fbd 5c3d 3325 fd3b b579 86bd b429 0c3e
00000390: b205 403e 0dba 973d 9265 aebc f6e5 333b
000003a0: d154 653d e2d2 933d f535 653b 1425 e53d
000003b0: a5a0 933d 39cc 093f 2388 813b 2ca6 b8bb
000003c0: 46ba 783c fa34 c13b cd38 47ba ee8a ea3d
000003d0: 686c ecbc b774 59bd 1265 76bd 6589 e7bb
000003e0: 15ae fabb 8b51 8dba 39c1 263e 106c 78bc
000003f0: ecdf 9bbc 2121 babc a0f6 083c bd80 023a
-0.014871658 -0.015516488 0.007509463 0.0031773094 0.17906043 0.11270171 -0.06254916 -0.007387719
-0.009709791 -0.0033712501 0.019192416 0.20786923 0.1657412 -0.22716972 -0.0007432785 0.003962942
-0.11428137 -0.07255058 -0.2810717 -0.12007596 -0.20266536 0.059809234 -0.0026007092 0.0040648826
-0.0034502957 0.00057771656 0.002717511 0.00086623215 0.005851922 -0.005258639 -0.008411752 0.0013517069
-0.00051666406 -0.00097007555 -0.0050116465 0.010340874 -0.0059280046 -0.0037373744 0.0010429375 0.00039664167
0.0018699281 0.011461606 -0.0055826143 0.007917706 0.0002257543 -0.0021948533 -1.5739772e-05 0.0005604552
-0.09493119 0.025200013 0.03372163 0.09475765 -0.016895056 -0.05193251 -0.069923975 -0.02761627
0.03645613 0.0060669365 0.044883378 0.0027791928 -0.004009336 -0.015905095 0.007599504 -0.0025982927
-0.09282928 0.12448748 0.08263514 0.0010424132 0.025795218 0.009181426 0.008514937 0.0044936882
-0.19087988 0.0052383514 -0.07290185 0.24578492 0.012089091 0.39957863 0.11542108 -0.03566868
0.08189721 -0.004986963 -0.22872339 0.14851624 0.005706391 0.12577026 -0.06878424 0.008137063
-0.09643547 -0.18347211 0.52691257 -0.08175618 -0.045960493 -0.29266888 0.0056840703 -0.005075913
0.17171001 -0.022298498 -0.02169897 0.048597842 -0.013557155 -0.17048833 -0.19118123 -0.004655434
-0.01703899 -0.0015219164 0.15822838 0.16429223 0.047365166 0.10429885 0.014790059 0.012915313
0.19184542 0.15362775 -0.3287779 0.13185015 -0.019127121 -0.022460796 -0.0042053866 0.010340184
0.22956456 -0.016994208 0.034697186 0.32556137 -0.456559 0.2338108 0.14480086 0.0002224032
-0.02321466 -0.005628301 -0.11217674 0.33018503 0.06198347 -0.3457987 -0.05257055 -0.0041652317
0.18654598 0.24688593 -0.3999779 -0.31032225 0.17277674 -0.04820552 0.0029061472 0.008613919
0.21496771 0.0035474733 0.0059794243 -0.054852135 -0.06100036 -0.10732068 0.20421478 0.010692279
-0.00036432367 -0.00093319634 0.029691217 -0.1258618 -0.14468433 -0.05033012 0.005793663 0.0010993361
0.15589622 -0.08194958 -0.25712317 -0.08839177 0.13544157 -0.050951585 -0.0048421402 -0.00575077
0.119878225 0.05269491 0.018730083 -0.043132804 -0.09181617 -0.18849778 0.033390794 -0.010224612
-0.0546097 0.010006297 -0.072716825 -0.01726873 -0.2676063 -0.1205898 -0.022921767 -0.0031704868
0.36455572 0.22141503 0.13482513 -0.17010383 0.14192234 0.021428475 -0.008742553 -0.0040739356
-0.06738488 -0.044801414 0.10785441 -0.11511867 0.1783504 0.005808708 0.059407596 0.007385121
0.015528067 0.00022130729 -0.055927154 0.008610771 -0.11034753 0.035172984 -0.013350771 -0.021432994
0.13196623 -0.10246574 0.035148192 -0.017543755 -0.47438893 -0.020526042 -0.007246014 -0.0003772277
-0.004038046 -0.0033974745 0.069871224 0.10363802 0.34291503 -0.24112761 0.035311986 -0.047744196
0.053891357 0.0077253818 -0.065661825 0.13687783 0.18752173 0.07408533 -0.021288667 0.00274503
0.05598909 0.07217957 0.0034974788 0.11188713 0.07208375 0.53827244 0.0039529963 -0.0056350436
0.01518113 0.005896208 -0.00075997115 0.1145228 -0.028860286 -0.053089824 -0.060154982 -0.0070659393
-0.0076501467 -0.0010781748 0.16284646 -0.015162483 -0.019027673 -0.022720875 0.008359581 0.000497829

fc1.bias f4 [256]
00000000: eb03 46be 06d2 3abd e335 3bbd 8d1c a9be
00000010: 569c 25be 34aa 98be b811 84be 8651 38be
00000020: 7f22 d9be 3151 b7be 466d 90be b9f4 57be
00000030: 673e 44be 8f9f 28bd 0711 c6be b720 aebe
00000040: 1f31 4bbd a3be 86be d49c bcbc f52e 5dbd
00000050: 0de6 6cbe 2781 b1be c6b7 abbc 1e19 89bd
00000060: b328 903d 298c 1ebe 7b09 f1bc 0071 56be
00000070: 1106 fabd 51f6 93be b0e5 e5be 1d60 cbbd
00000080: 8628 e3bd 1c5f 31be b325 8ebd 3276 c3bc
00000090: 2465 86be 575e 66be bf11 e2be b1a5 33be
000000a0: ef58 c1be 1c07 51be 1942 69bc 1e64 19be
000000b0: 6f2e 31be f4b0 44be 52b0 68be 22d9 92be
000000c0: 9197 a4be 9335 1e3d 999f 88be 6f1b c2bc
000000d0: cd63 aabe 5bef 60bd bccb 5bbe da0f 59be
000000e0: 0f57 94be 30f3 bbbe 9e68 d0be 2b54 60be
000000f0: 944e 1bbf c32f 8fbe 1ce9 54be 6c99 e6be
00000100: 0f2e 8bbd f0d2 aebd ae79 aabe ba57 3ebe
00000110: bb98 8fbd 08c9 73bd 5d44 aebe 0a04 643b
00000120: 5f10 1abe 59f8 98bc 9160 01bd dfa5 67be
00000130: 4f18 68be 0156 9bbc 6f1e c8bd d355 98be
00000140: 68ae 5abe 563f 2c3e 194c 80be 60f2 36be
00000150: 9598 cabe a3cd 8abe f5ac c8bd 5e46 07be
00000160: e064 9fbe 5d3e 87be ad33 97bd 3932 f4be
00000170: dd72 ecbe 01cc 2cbe 4692 62be e22f 723e
00000180: 980d 79be f04c 7dbe 2269 aebe 3331 87be
00000190: 7b00 e1be e316 8bbe 6c92 76bd 8360 17be
000001a0: 36aa a2be 57c5 07bd 7153 2fbe c5d5 50bd
000001b0: 831c 073d fc57 cdbe 698c e9be 2610 26be
000001c0: c67f b3be 77ef 5fbe 7c43 22be f97f 93be
000001d0: 3a82 a9be f599 5ebe c985 c6be 9c0b 9bbe
000001e0: 83fe 133e 9483 21be da67 bbbe 4208 b2bd
000001f0: fb83 1abe 01b1 b93d 71b5 d7be 87a6 1abf
00000200: 7255 c7be 323f 663e f093 00be 034f 66be
00000210: 61c7 6fbd f557 943d 81c3 24be b380 8cbe
00000220: c4df 6dbe 9723 92be 1f79 cfbe ead4 b9bd
00000230: a2d9 5ebe 1359 acbe 71b4 48be 4954 2dbe
00000240: c40a babe e02d 04bf 0e5f 5bbe 1a42 30be
00000250: 5fc8 a7be 2ded 83bd e0a5 a3be df7e cdbc
00000260: d63f 8abe b0ed febe 59c2 5fbe 708e 76be
00000270: 35aa 36bd ca50 1ebf c060 3ebe 04b8 7fbe
00000280: c0f0 cfbe c42e abbe add3 b3be cd2c 47bd
00000290: e462 4cbe 9521 92be e37b 95be 8f8a e0bd
000002a0: ae10 20bd f226 8abe 7b99 c1be 357b b6be
000002b0: 284d 50bd fa8b f9be 9b5a 4ebc 4630 7cbd
000002c0: 1a23 40be 875c 47be a1bc 32be 053e 8bbe
000002d0: 1499 9dbd bc96 5bbe 2f47 963d 4225 24bd
000002e0: 96cc 2ebe e4cb 8dbe 6918 ffbe d1fe 3b3d
000002f0: 9b41 68be c8c1 64bd da24 15bc e808 96be
00000300: 4fbe 2dbe e073 60be 9f70 98be 9381 a5be
00000310: 5585 99be 998e 693d bd4a 44be 337e 97be
00000320: 441a 61be d8cb fabe a3d5 64be da82 65be
00000330: 23e8 9fbe 144e 39be 0516 89bd baf1 03bf
00000340: f981 99be 9540 2bbe 661d d8bd ce0e 03be
00000350: 55f8 69be cd94 26be 561c 3abe 8ccc 9fbe
00000360: 8292 4bbd 2603 5cbe 0f2e 44be ef57 b1be
00000370: e995 e23d 5caa a3be 3102 43be 752e 0bbe
00000380: 2717 babe 2bd5 1bbe 4f51 81be cd7a a4be
00000390: 1690 1ebe 4f29 9ebe 52cd 06be 35d3 82be
000003a0: 263e d7bc fd7b 653e a977 41bf 52b3 a4bc
000003b0: c501 b2bc 90de 93be 6ba7 dcbd e425 35be
000003c0: afba 60be d535 a4bc 297e ecbd 2586 e5be
000003d0: c0db 91be c412 3bbd 2a3d c4bd 93ad 49be
000003e0: dc52 ffbc a323 a23c 55b0 b73a b892 77be
000003f0: 428f 92be 7233 3cbe b71b 80be 1271 6fbe
-0.19337432 -0.04561045 -0.045705687 -0.33029595 -0.16172919 -0.29817355 -0.25794768 -0.17999849
-0.4240913 -0.35804132 -0.2820837 -0.21089448 -0.1916443 -0.041167792 -0.38684866 -0.34009334
-0.049607392 -0.2631732 -0.023024 -0.05399986 -0.23134632 -0.34668848 -0.020961653 -0.06694244
0.07039013 -0.15483154 -0.029423466 -0.20941544 -0.12208188 -0.28898862 -0.449018 -0.099304415
-0.110917136 -0.17321438 -0.06940784 -0.02386007 -0.2624904 -0.22496925 -0.44154164 -0.17543675
-0.37763163 -0.20412868 -0.01423695 -0.14979598 -0.1730287 -0.19208127 -0.22723511 -0.28681284
-0.32146886 0.03862531 -0.26684263 -0.023694722 -0.33279267 -0.054915767 -0.21464437 -0.21197453
-0.2897267 -0.36708975 -0.40704817 -0.21907108 -0.60666776 -0.27966127 -0.20792049 -0.45038927
-0.06795894 -0.08536327 -0.3329596 -0.18588153 -0.07011553 -0.05951789 -0.34036532 0.0034792447
-0.15045308 -0.018673109 -0.031586234 -0.22621869 -0.22665523 -0.018961908 -0.0977143 -0.2975298
-0.21355593 0.16821036 -0.25058058 -0.17865896 -0.39569536 -0.27110013 -0.09798614 -0.13210437
-0.3113165 -0.26414767 -0.07382903 -0.47694567 -0.46181384 -0.16874696 -0.22126111 0.23651078
-0.24321592 -0.2473638 -0.34064585 -0.26404724 -0.4394568 -0.271659 -0.060198233 -0.1478291
-0.31770486 -0.033147182 -0.17121674 -0.050985117 0.032986175 -0.4010619 -0.45614937 -0.16217098
-0.3505842 -0.21868692 -0.15846056 -0.28808573 -0.33107167 -0.21738417 -0.38773945 -0.30282295
0.14452557 -0.1577285 -0.3660267 -0.08692981 -0.15089409 0.09066964 -0.42130616 -0.6041035
-0.38932377 0.22485045 -0.12556434 -0.22491078 -0.058539752 0.07243339 -0.16090204 -0.2744194
-0.23229891 -0.28542778 -0.40522096 -0.09073813 -0.21762708 -0.33661708 -0.19600083 -0.16926683
-0.3633634 -0.516325 -0.21422979 -0.17212716 -0.3277006 -0.06441722 -0.3196249 -0.02508491
-0.27001828 -0.49790716 -0.21851481 -0.24077773 -0.044595916 -0.61842024 -0.18591595 -0.2497254
-0.40613365 -0.33434117 -0.35122433 -0.04862671 -0.19959599 -0.28541246 -0.2919608 -0.10963928
-0.039078407 -0.26982838 -0.3781241 -0.35640875 -0.050854832 -0.48739606 -0.012594844 -0.061569475
-0.1876339 -0.1946889 -0.17454769 -0.27195755 -0.07695213 -0.2144422 0.07337796 -0.040074594
-0.17070231 -0.2769462 -0.4982331 0.04589731 -0.22681277 -0.055848867 -0.009103024 -0.2930367
-0.16967128 -0.21919203 -0.29773423 -0.3232542 -0.29984537 0.057020757 -0.19169135 -0.2958847
-0.21982676 -0.48983645 -0.22347121 -0.22413197 -0.31231794 -0.1809619 -0.06693653 -0.5154072
-0.29981974 -0.16723855 -0.10552482 -0.12798616 -0.22848637 -0.162677 -0.18174872 -0.31210744
-0.049700268 -0.21485576 -0.19158195 -0.346374 0.11063749 -0.3196591 -0.19043805 -0.1359194
-0.3634579 -0.15218036 -0.25257346 -0.3212494 -0.15484652 -0.3089089 -0.13164261 -0.25551763
-0.026274752 0.22410579 -0.7557321 -0.020105038 -0.02172936 -0.2888074 -0.1077412 -0.17690235
-0.21946214 -0.0200452 -0.11547501 -0.44828907 -0.28487968 -0.045672193 -0.095819786 -0.1969512
-0.03116744 0.019792384 0.0014014343 -0.24177063 -0.28624922 -0.18379 -0.25021145 -0.23382977

fc2.weight f4 [256, 258]
00000000: a9a8 063b 36e5 d439 7153 31bb e03e 7bbb
00000010: ed5a 1f3b 6067 36b9 d355 d339 b59e 90bb
00000020: 05d3 b8ba 9d72 c1ba 94ef 12ba a8ed 57bb
00000030: 4819 76b9 d02b 89b9 d05e c4b9 f544 54b9
00000040: f55d 8e39 6a00 d13a 3f98 26bb df7a 1939
00000050: ebc6 cdb9 4533 fe3a 698f 22bb d8d7 1bba
00000060: 5a1a cdba cc17 58bb defe 5c38 3226 80bb
00000070: bf90 11bb 8fac 15b9 66f0 da3a 87e1 c838
00000080: c371 60bb 86b1 223b 4911 37bb b402 e939
00000090: 4b73 e3ba 062d 5dbb 8876 bc3a de6c c9ba
000000a0: 346e 1dba ba88 ac3a dfe7 ec36 9a5f 5cba
000000b0: 5f18 afbb 7ae3 6bbb e6d2 b33a fbeb 4dbb
000000c0: 1cd9 0f3a 45b7 cdb9 a1e8 28ba ca1e c939
000000d0: 3211 32bb 294b 8839 2dbd e9b9 bf2f 80ba
000000e0: 8880 073a 2455 52ba ea4a 66bb 9667 30bb
000000f0: cbcc 153b 9074 00b7 65a5 41bb 6543 2abb
00000100: 5d10 153a 9a4a ecba 7b61 99ba cd09 a2bb
00000110: dc7f 0f3a f4a2 69b9 4be6 40bb f755 caba
00000120: 90e4 91b9 242e f437 de34 2e39 4f6c 94ba
00000130: e46d 16bb 3909 d739 f33d b53a 73d3 38bb
00000140: 3cf9 65bb a150 4bbb 8e5b 9aba 9178 3bbb
00000150: e200 11bb e426 a6ba e3cd 3f38 e0e1 aaba
00000160: 5e1e 67ba 4ffe 2bbb 2b27 39ba eccb 20ba
00000170: 7aec 92ba fe27 8e3a b18e 5dbb 0d1b 20bb
00000180: aa51 7bba e04c cd3a a7c6 19bb 9ae0 423b
00000190: 0207 b9b9 b4c4 7639 b6f4 f3bb c9d7 e9ba
000001a0: 717c a1ba 9bd0 96ba 1508 69ba 4dd8 9dbb
000001b0: d039 01bb c50d efba 904c b5ba 2919 5fbb
000001c0: 8102 7f3b 8cff 8e3b 0bd2 143a 1ab5 87bb
000001d0: 2737 09bb 6af8 3ebb 4532 c2bb 81ff 7ebb
000001e0: fadf 8aba d157 32bb 549a dfba 9eeb 8fbb
000001f0: a7f2 06bb 6fde 38ba a2dd 4b3b 1d8c 89bb
00000200: e6f1 c4ba 1030 05bb 5b64 acb9 3873 3f3a
00000210: eb89 8f39 9b53 8ebb 5ecf c1b9 dadd b2bb
00000220: f640 173b 87c0 faba f578 32bb 10ee b5ba
00000230: 33c6 07ba 0a62 73ba 36d7 f0ba b8b8 c5ba
00000240: f599 223b 1fa3 1339 0684 24bb 5afe f93a
00000250: fa26 8939 71c6 073a 6143 1a39 d5fd 7e38
00000260: 714d 36bb 90a6 7dbb a83c 54bb 34e6 09bb
00000270: ee3d 0339 a3bc 7abb 705f e5ba 8993 213a
00000280: 490f 7a3b 293c c839 9ca1 f738 3c5a baba
00000290: 4229 39ba 0d52 3f3a 44ae ab3a ada7 213a
000002a0: c09f b939 00a4 4ebb 5338 87bb 1236 bd3a
000002b0: c5fb f539 8801 ddba a43e 5238 62f7 2a3a
000002c0: cb4c e5ba 4492 04bb e531 23b7 2bf8 62bb
000002d0: b219 a339 7c40 a53b b0ba 82bb c6ba 44ba
000002e0: 8be9 90b9 97c9 2e3b c51c 49bb 1724 92ba
000002f0: ccbf b4b9 70d5 4939 6894 a935 e5a0 b0bb
00000300: ac87 abba c5ec 25bb 5f25 92ba 1417 9138
00000310: 35ca 1ebb fcb6 bcba b4ee 9e39 0227 b7ba
00000320: 73bd 783a 2ace 27b9 81a1 41bb a0f8 82bb
00000330: abd6 053b 5229 d7ba ef74 98bb f576 44bb
00000340: d797 8f39 1771 71bb c70c 42b7 0f36 ceba
00000350: db4c e2ba 9bd8 4639 a429 1bbb 9ab9 62bb
00000360: a306 a438 40fa 33ba 063c b5bb bfc7 3cba
00000370: 5657 e8ba e6a6 0cbb d4ae 66bb d973 1cbb
00000380: 18a9 67bb 95c4 55bb 342f e5ba ed52 4dbb
00000390: d429 d8ba dd51 35bb eb38 5c39 dac8 053b
000003a0: b289 8b39 723b 05bc 5584 c53a 5bb7 6cbb
000003b0: 2d8d a537 f979 e03a 54da 37bb a951 c8ba
000003c0: 0a03 64bb 9b56 e239 5ae8 1f3a f854 8cba
000003d0: 6750 58ba 985b 4dbb fe0a afb9 b767 cb39
000003e0: 36a2 9e38 1a59 23bb 7539 5dbb 1d09 2f3a
000003f0: fd0d be3a c7f0 86b9 0fe5 80ba d3da 9939
0.0020547307 0.00040606566 -0.0027057792 -0.0038337037 0.002431567 -0.00017395383 0.00040309 -0.0044134506
-0.0014100975 -0.0014758889 -0.0005605158 -0.003294805 -0.00023469806 -0.0002616332 -0.00037454674 -0.00020243584
0.00027154354 0.0015945558 -0.0025420336 0.0001463699 -0.00039248852 0.0019393942 -0.0024804717 -0.0005944944
-0.0015648112 -0.0032973168 5.268945e-05 -0.0039108032 -0.002221152 -0.0001427403 0.0016703724 9.578751e-05
-0.0034247495 0.002482505 -0.0027933887 0.00044443237 -0.0017353086 -0.003374876 0.0014378587 -0.0015367528
-0.0006005496 0.0013163306 7.0603414e-06 -0.000840658 -0.0053434814 -0.003599374 0.0013719469 -0.0031421173
0.0005487369 -0.00039237193 -0.0006443356 0.00038360647 -0.0027170894 0.0002599594 -0.0004458217 -0.0009779854
0.0005168994 -0.0008023551 -0.0035139867 -0.002691721 0.0022857662 -7.656534e-06 -0.0029548046 -0.0025980112
0.0005686337 -0.0018027604 -0.0011702025 -0.004945016 0.00054740696 -0.00022281316 -0.002943414 -0.0015436996
-0.00027826848 2.9108553e-05 0.00016613628 -0.0011323782 -0.0022953684 0.00041014867 0.0013827666 -0.0028202205
-0.0035091182 -0.00310234 -0.0011776553 -0.0028605799 -0.002212577 -0.0012676385 4.5729696e-05 -0.0013037287
-0.0008816476 -0.002624411 -0.00070630264 -0.00061339024 -0.0011209392 0.0010845659 -0.0033806975 -0.0024430186
-0.0009587059 0.0015663169 -0.0023464353 0.0029735924 -0.0003529117 0.00023533666 -0.0074449433 -0.0017840798
-0.0012320412 -0.0011506261 -0.0008889449 -0.004817045 -0.0019718297 -0.0018238357 -0.0013832022 -0.0034042096
0.0038911405 0.0043639597 0.0005677051 -0.004141462 -0.0020937414 -0.0029139766 -0.0059264028 -0.0038909616
-0.0010595315 -0.0027212987 -0.0017059543 -0.0043921014 -0.002059141 -0.0007052188 0.0031107445 -0.004197611
-0.0015025705 -0.0020322837 -0.00032881167 0.0007303241 0.00027377842 -0.0043434626 -0.0003696633 -0.0054585757
0.0023079491 -0.0019130864 -0.002723274 -0.0013880152 -0.00051793753 -0.00092843233 -0.0018374685 -0.0015084958
0.0024811004 0.0001407978 -0.0025103106 0.0019072995 0.00026159716 0.00051794114 0.00014711685 6.079472e-05
-0.0027817155 -0.0038704015 -0.0032384787 -0.0021041753 0.00012516204 -0.003825941 -0.0017499756 0.0006163647
0.0038156083 0.00038191795 0.0001180798 -0.0014217566 -0.0007063338 0.00072982983 0.00130982 0.0006166648
0.00035404973 -0.0031530857 -0.0041265874 0.001443567 0.00046917624 -0.0016861418 5.012624e-05 0.0006521848
-0.00174942 -0.0020228783 -9.727174e-06 -0.0034632783 0.00031108927 0.0050430875 -0.00398954 -0.0007504638
-0.00027639823 0.002667045 -0.0030687314 -0.0011149672 -0.00034475175 0.00019248365 1.2634673e-06 -0.005390274
-0.0013086698 -0.0025318128 -0.0011150053 6.9184374e-05 -0.0024229412 -0.0014397795 0.00030313956 -0.0013973417
0.00094886794 -0.00016003163 -0.0029545727 -0.0039969236 0.0020422142 -0.0016415513 -0.0046526114 -0.002997813
0.00027388215 -0.0036841088 -1.1566276e-05 -0.0015732663 -0.0017265336 0.00018963443 -0.0023675943 -0.003459549
7.8213656e-05 -0.0006865598 -0.005530837 -0.00072013953 -0.0017726223 -0.0021461784 -0.003519942 -0.0023872762
-0.003534859 -0.0032618393 -0.0017485381 -0.0031329945 -0.0016491958 -0.0027667203 0.00021002039 0.0020413906
0.00026614737 -0.008131849 0.0015069345 -0.003612003 1.9735273e-05 0.0017126194 -0.0028053718 -0.0015283126
-0.003479185 0.00043170605 0.0006099992 -0.0010706475 -0.0008251727 -0.0031335112 -0.0003338679 0.0003879645
7.564241e-05 -0.0024924935 -0.003375617 0.0006677078 0.0014500018 -0.00025737865 -0.000983389 0.0002934547

fc2.bias f4 [256]
00000000: 5862 52bc fff0 93bd 7d17 45bd 7f9a 11be
00000010: e02a 6dbd 5b58 17bc ca1e bdbc 99da 53be
00000020: 3eba 7c3e 268d 00bd ccb0 46be 39ec d0be
00000030: 5654 14bd 7115 83be f90a 80be e5ec 2ebd
00000040: efcc dbba 75ab aa3c ae45 13bd 7118 71be
00000050: bff3 1fbe 134e 393e 357d e5bc 87a9 85be
00000060: 74ec 1cbd 548c 41be f21d b7bd bc1c 873b
00000070: 3f8d 01be b067 23bd e591 81be b732 13bd
00000080: 4507 6dbe d319 9cbd bc48 2cbe eae5 21bd
00000090: 0184 68be fc5c 6fbd 7af6 19bd c2b2 2abe
000000a0: faa0 23be 7541 00bd 845c ab3c b82f 1dbd
000000b0: 94ba 62be c2f2 cdbc 3bca 55bd 52bb 38be
000000c0: e5a6 b23d 7822 3dbe 5f51 b8be 6ab6 39bd
000000d0: a81d b03d eb10 073d fe71 0abe d7eb 53bd
000000e0: c26a ac3c 0192 1e3d d7ec 56bd e38b c5be
000000f0: a5dd 34be d22d aabe 180b 26bd 6878 00bd
00000100: ef07 12bd 6592 1abd 4caa c03d 316a 50bd
00000110: 5010 6cbd 5dc1 40be 2fd2 273e 1c5d f2bc
00000120: b2c5 33bd 2f70 a8bd a71c acbd 2e04 c0bc
00000130: b55f 4ebe f253 7ebe 6596 35bd 9edb 93bd
00000140: a432 02bd 758d 8cbd 8ced 43bd 7129 d5be
00000150: 6a75 27bd 422e d7bc 182a 69be 92df 0a3e
00000160: a389 79be 8e47 43be db8f 62bd a4af 3fbd
00000170: 15ff b2be 3c39 c9bc 5c6e b5bd 6e96 24be
00000180: 160e 77be d4ef 11be 1499 ffbc 87c9 2bbe
00000190: d381 27be f976 dfbc ff3e 93bd 9405 d0bd
000001a0: 63f1 67bd bafa 1cbd 960e dabc f5ea 023e
000001b0: b051 bcbd 2fbf 16bd ffca 8fbd 3ed4 a9bc
000001c0: d517 06be 3d0b 2fbe 8e5b 39bd a688 ddbd
000001d0: 7a14 fabd 1388 9fbe 5fc2 853d 51af 94bd
000001e0: 0c1c f8bc 67a1 59be 0812 9bbd 62e9 bcbd
000001f0: 58ea 8fbd b034 ddbc 40cb c3bd db2f 5e3e
00000200: ca72 79be bd4f 35bd 7438 49bd 2c38 5fbe
00000210: f419 02be 6e7a 123e 87d2 8dbe 34e7 99bc
00000220: bf78 18bf 5553 f0bd a247 40be dccb 21bd
00000230: dbcb 70bb 265c 3ebd e401 32bd c726 02bd
00000240: a489 fabc 654b d3bc 9ba3 23be 2901 5abe
00000250: 63c9 13be ee29 a5bd 61ad fabe 7248 94be
00000260: e73b 23bd 7fd7 9e3d 3c29 1b3e f559 b9bc
00000270: c0f8 7fbd 9093 bebc 52ff 3c3d 58da 383d
00000280: 77ad b2be ff47 893a e505 d03d f20f 70bd
00000290: 62ea 893c 8584 c1be e03a 22bd d3f1 e6bc
000002a0: be94 8ebe 01e8 59bd 0a6c 0ebf bf20 183e
000002b0: 8868 bfbe bcb0 67be 48c8 193d f071 2dbd
000002c0: d14b 723d 006b 563c 4a7c 21be 1f50 8abd
000002d0: a842 abbd bc77 08be 460d 203c e240 c7bc
000002e0: 71ad 36be fcd1 32bd 1192 24bc 752d 98be
000002f0: 37f7 df3d d413 83be 643a 07bd 3939 38bd
00000300: de11 edba 571a 78bd f8b2 fc3d 54a4 afbc
00000310: be5f 52bd 7553 66be 5b9c fbbd 8284 debd
00000320: bcc8 35be 9c43 83bd d361 47be 2bc7 6abe
00000330: cb6e e4bc 3fa1 2dbd 8bb4 febc 0116 3abe
00000340: 5b82 773d 48d8 acbc 51e3 bbbc acd1 5cbe
00000350: 4fac cebd 79cf 09bd 49f5 84be 1350 353c
00000360: de3a 413e 8292 30bd 2f79 b5bd f9ba 5e3c
00000370: 1609 e8bd 5e39 0ebd bdc3 e03d 06b6 acbe
00000380: 9af5 0ebd 256a 3abe b618 9bbd f6ec f7bc
00000390: 9b93 57be 43d3 11be 66ab 79be 0a18 0cbe
000003a0: 7f6d 813d 2374 90bd 58b5 3abe 483b 20be
000003b0: 8069 5dbb 0823 93bd 062e 02bd 9513 aebd
000003c0: 4eb9 003e edb4 bcbd 19b9 99bc cd12 37be
000003d0: 4fc0 d5bc 1f8c 2ebd d7c1 efbd 80ab 453d
000003e0: 4830 22be b0cd 81bc 0534 703d ad72 d7bd
000003f0: 2f5c 04bd 83f2 0cbe 09e8 b3bc 59cb 29bd
-0.01284083 -0.07223701 -0.048118103 -0.14219092 -0.057902217 -0.009237374 -0.02308597 -0.20688857
0.24680421 -0.03138461 -0.1940338 -0.40805224 -0.03621324 -0.25602296 -0.2500837 -0.04270639
-0.0016769449 0.02083371 -0.035955124 -0.2354448 -0.15620326 0.18096189 -0.028013805 -0.26105902
-0.038311437 -0.18901187 -0.089412585 0.0041232985 -0.12651537 -0.039893806 -0.2530662 -0.035937037
-0.23147304 -0.07622113 -0.16824621 -0.039525904 -0.22706605 -0.058438286 -0.037588574 -0.16669753
-0.15979376 -0.031312425 0.020918138 -0.038375586 -0.22141486 -0.02514017 -0.052194815 -0.18040207
0.08723239 -0.1847018 -0.3599958 -0.04533998 0.085994065 0.03297512 -0.13520047 -0.051738586
0.021047 0.03871346 -0.05247196 -0.38583288 -0.17662676 -0.33238083 -0.040537924 -0.03136483
-0.035652097 -0.03773727 0.094074816 -0.050882522 -0.057632744 -0.18823762 0.16388772 -0.029585414
-0.04388971 -0.08224522 -0.084039025 -0.023439493 -0.20153697 -0.2483671 -0.04433288 -0.07219623
-0.031786576 -0.06862918 -0.047833964 -0.4163318 -0.04088346 -0.026267175 -0.22769964 0.13561848
-0.2436891 -0.19070265 -0.055312973 -0.046798363 -0.34960237 -0.024563424 -0.0885894 -0.1607301
-0.24126467 -0.14251643 -0.031200923 -0.16776095 -0.16358118 -0.02727841 -0.0718975 -0.10157314
-0.05662669 -0.03832505 -0.026618283 0.12784941 -0.09195268 -0.03680342 -0.0702114 -0.020731088
-0.13095029 -0.17094131 -0.04525333 -0.10817079 -0.12210937 -0.31158504 0.06531214 -0.072600015
-0.030286811 -0.21252976 -0.075717986 -0.09224202 -0.070271194 -0.027002662 -0.09560251 0.21697943
-0.24360195 -0.044265497 -0.049126104 -0.21798772 -0.12705213 0.14304516 -0.27699682 -0.018787004
-0.59559244 -0.11734644 -0.18777326 -0.039501056 -0.00367426 -0.0464746 -0.043458834 -0.031775262
-0.03058321 -0.025792787 -0.1598038 -0.21289505 -0.14432292 -0.08064638 -0.48960403 -0.2896152
-0.03985205 0.07755946 0.15152448 -0.022625903 -0.062493086 -0.023263723 0.04614193 0.045130104
-0.34897968 0.0010473727 0.10157374 -0.058608957 0.016835395 -0.37796417 -0.03960693 -0.028191483
-0.27847856 -0.05319977 -0.55633605 0.14856242 -0.3738444 -0.22626013 0.03754452 -0.042344987
0.059154335 0.013087034 -0.15770069 -0.06753563 -0.08362323 -0.13326925 0.00976879 -0.02432293
-0.178396 -0.043657288 -0.010044591 -0.2972218 0.10935824 -0.25601065 -0.03301467 -0.044976447
-0.001808699 -0.060571995 0.12338823 -0.021440662 -0.051360838 -0.22492774 -0.12285682 -0.108651176
-0.17752355 -0.0640938 -0.1947091 -0.22927539 -0.027884861 -0.042390104 -0.031091949 -0.18172456
0.06042705 -0.021099225 -0.022935541 -0.21564358 -0.10091459 -0.033645127 -0.25968388 0.011066454
0.18870112 -0.04310847 -0.088610046 0.013594382 -0.11329858 -0.03472268 0.10974834 -0.33732623
-0.034902193 -0.18204553 -0.075730726 -0.030264359 -0.21052401 -0.14240746 -0.2438179 -0.13681045
0.06319713 -0.07053401 -0.1823324 -0.15647614 -0.0033784807 -0.07184416 -0.031782173 -0.08499829
0.12570688 -0.09214196 -0.01876502 -0.17878266 -0.026092676 -0.0426141 -0.11706894 0.04825926
-0.1583873 -0.01584515 0.05864336 -0.105199195 -0.032314476 -0.13764386 -0.021961229 -0.041453693

fc3.weight f4 [128, 256]
00000000: ff55 4dbc 5e97 d0bc 08e3 f6bd 3906 8ebc
00000010: 0b85 973d f036 45bf 2080 9abb a426 ba3d
00000020: 73cb 0b3c 7f8d b8bc 8773 04be 1e84 3ebd
00000030: c1b0 aebd 6c41 96bd 07c5 65bc e350 043b
00000040: a329 b93c e3de 4fbe b4b9 e7ba 5e65 a23d
00000050: e4a9 abbd 8ceb 3fbd 8d19 483c ecfa ac39
00000060: 0651 aabb 8102 02be 514f a43d 8cbd 953d
00000070: cd11 1fbd db64 e13b ec69 abbd 3b59 a93a
00000080: d2c4 17bd 7d64 af3b 3ca5 ddbd 1919 56bc
00000090: cf93 183d 9f53 02be 1533 193e 54b7 063d
000000a0: fa12 aabc 299c 57bc 80cc 2c3c 8ee1 343c
000000b0: e31f 93bd 22c4 30bc 649a f33c 94db 043d
000000c0: f46a eebd f1b4 e1bd 65fa 68be 413c 2ebc
000000d0: 2d06 8dbe 9a4b ee3d 172e a4bd e89e 66bd
000000e0: e52a 33be d4d0 ea3d b8ee 46bc fb0e 9abd
000000f0: e011 483d f34c 183d d9b1 873c d974 ac3b
00000100: 85e5 e43c 854d c63b 4583 05be 48f6 f23c
00000110: 96e9 f03d 662b 3f3d 382f 71bd d815 433c
00000120: ed3d b3bc 83de 8a3d 6ff1 99bd a2d4 a0ba
00000130: bf2f 953d 7fb6 d9bd f7ac a3bc 50a6 71be
00000140: 976d 623d 8f50 9c3d 8c5b 093d cdc8 a6bc
00000150: e274 84bd 045d 88bc 645a 4e3d 141a 4bbd
00000160: 26d3 263c 46ae 0c3e ddfe 763c 9e06 bdbe
00000170: 5cd5 6cbb 32fb c63c 43a8 f1bc cc88 263d
00000180: f5d5 2bbd 722d c5bc a4ee a93d 00a4 4fbe
00000190: 2071 92bd d6ed 9bbb 9489 30be 3f7a a5bc
000001a0: 1ea9 cabc 2b79 04bd 0af8 cd3d 4cfa 50bd
000001b0: 3f63 2bbc 139b 89bc b91f a53d a474 8c3d
000001c0: 0ae3 d93d af83 74be 289a 203c 4655 a7bc
000001d0: 2f71 ab3d ed1d b5bc c18c 85bd 9629 30be
000001e0: 2ca9 83bb 5fef b43c 1afa ab3d 83e5 813d
000001f0: 4af7 90bc 166c 77be 0182 01ba be06 853e
00000200: 1e78 dfbd 68d6 77bb 345a 7f3e c3bf 1f3e
00000210: 1a60 9fbd d7bb 5ebd b54c ee3d 68c9 333b
00000220: 4911 83be e822 ba3b 7a0a 6b3c 4bf1 86bd
00000230: 9bb7 86be ea17 473e c778 18bb c797 c73c
00000240: 94d3 2a3b ed5a 70bb cc50 2c3e 7383 98bc
00000250: 2064 00bd 1e28 b2bd 84dd a03d 53ae c3bd
00000260: cd47 e0ba 9d75 6bbe a495 dc3d 5ca0 b8bd
00000270: 65a1 59be a93f ea3b 5544 2ebc 9767 0dbd
00000280: ce5f 013e 6c04 223e 856f 90be b1ed e93c
00000290: 9d6f dabc 127d 0c38 4a8f 93bc 0ec6 d73a
000002a0: a6f7 8e3d d652 aebd 5260 0ebe 3827 f2bd
000002b0: 8324 5bbe 2f42 74bd 89e9 a53d 6f88 19bc
000002c0: f7a7 c13d 75bd c53d 0085 a03d 0e5a 8abd
000002d0: 5006 cc3c f93a fb3d 2a75 0fbe 22d7 2a3c
000002e0: 6492 3e3b 0ae1 0d3e 93ce f8bd cdd7 41be
000002f0: 0687 57be 0e87 23be 6a4b c1bb 9ee3 02bd
00000300: 196d 50be 1ec4 f1bc f8be 53be ea05 8bbd
00000310: 0e97 573d 39e5 f53c 1fae a93d c3e1 4abb
00000320: e247 8cbc 8499 2c3d 8b82 6c3c 3f11 79bd
00000330: bb28 c23a 020f ac3c acdb 4a3d 62aa c13c
00000340: f29b c0be a388 d4bb 4bc2 463c 128c 683c
00000350: 7f48 ccbd e487 8c3c 4ecd 533c 7cb8 5abc
00000360: e102 1e3d 275f 923b 6dbe aebc 468c 3d3d
00000370: f34f 01be 2180 df3d 99ba afbd 5115 0f3d
00000380: 92f5 173c b23d 8a3e 6ee5 293c e5aa 383c
00000390: 4875 01bd 3ff0 473d 1dc8 9f3d 2c4b 153d
000003a0: 2d42 09be 217c 96bb b84e a6bb 2184 2abd
000003b0: b1b8 ed3d abc7 ad3d ef69 53bc 135a 07be
000003c0: 85ad 2e3e 9de2 803d f0fe 013c 6849 153d
000003d0: 4063 cabd e3c7 fd3b 1c62 d03d cf5d c33c
000003e0: ac68 11bd 589c c63b ed3e c1bd a4bd 66be
000003f0: 78b8 0dbc 6923 21bd 4aa8 ce3a e531 e63a
-0.01253271 -0.025462802 -0.120550215 -0.017336952 0.07398423 -0.7703695 -0.0047149807 0.09089401
0.008532393 -0.022528408 -0.12934695 -0.046512716 -0.08529807 -0.07336697 -0.014024026 0.0020189814
0.022602862 -0.20299868 -0.0017679245 0.079294905 -0.083820134 -0.046855494 0.012213123 0.00032993348
-0.005197647 -0.12696268 0.08022941 0.07311544 -0.038835336 0.006878478 -0.08369812 0.001292027
-0.037052937 0.0053525553 -0.108225316 -0.013067507 0.037250336 -0.12727211 0.14960892 0.03288968
-0.020761002 -0.01315979 0.0105468035 0.011040105 -0.07183816 -0.010788949 0.029736705 0.03243597
-0.116414934 -0.1102084 -0.22751768 -0.010634483 -0.27543774 0.116355136 -0.080166034 -0.05630389
-0.17496832 0.11465612 -0.012141876 -0.075223885 0.048845172 0.03718276 0.016564297 0.0052629528
0.027941475 0.0060517215 -0.13038357 0.029658452 0.11763303 0.046672247 -0.058882922 0.011907063
-0.021880114 0.06780722 -0.07516753 -0.0012270401 0.072844975 -0.106305115 -0.019979937 -0.235986
0.055280294 0.07632553 0.03353457 -0.020359421 -0.06467606 -0.016645916 0.050379172 -0.049585417
0.010182178 0.13738355 0.015075413 -0.3691911 -0.0036137914 0.024289701 -0.029499179 0.040657803
-0.041952092 -0.024069522 0.0829747 -0.20277405 -0.07150483 -0.004758577 -0.17239982 -0.020199893
-0.024738844 -0.032342117 0.10057075 -0.05101995 -0.010460674 -0.016797578 0.08062691 0.06858185
0.106390074 -0.23878358 0.009802379 -0.020426404 0.083711974 -0.022108996 -0.06520987 -0.17203364
-0.0040179696 0.022086797 0.083973125 0.06342604 -0.017696042 -0.24162325 -0.00049403316 0.25981706
-0.109115824 -0.0037817005 0.24936754 0.15600495 -0.07782002 -0.054378357 0.116357245 0.002743328
-0.25599125 0.0056804307 0.0143457595 -0.06588992 -0.26311955 0.19442716 -0.0023265348 0.024364365
0.0026066052 -0.003667529 0.16827697 -0.018617367 -0.031345487 -0.08699058 0.07854751 -0.09554734
-0.0017111242 -0.22994085 0.10770729 -0.09014961 -0.21252973 0.007148702 -0.010636409 -0.03452262
0.12634203 0.15822 -0.28210083 0.028555723 -0.02666455 3.3495082e-05 -0.018012661 0.0016462223
0.06980829 -0.085118935 -0.13903931 -0.11823887 -0.21400647 -0.05963343 0.08101184 -0.009370907
0.09455865 0.09655277 0.07837868 -0.06755458 0.024905354 0.122671075 -0.14009538 0.010427268
0.0029078955 0.13855377 -0.12148776 -0.18929978 -0.21047601 -0.15969488 -0.0058988826 -0.031955354
-0.20354117 -0.029512461 -0.20678318 -0.067882374 0.05263429 0.030016528 0.08285164 -0.0030957318
-0.01712412 0.04213859 0.014435421 -0.060807463 0.0014813164 0.02100325 0.0495259 0.023640815
-0.37618977 -0.006486015 0.012131284 0.014193552 -0.09974765 0.017154641 0.012927366 -0.013349649
0.038576964 0.0044669094 -0.021331036 0.046276353 -0.12628154 0.109131105 -0.085805126 0.03493244
0.009274857 0.27000195 0.010369642 0.011271213 -0.03160599 0.0488131 0.078018405 0.036448643
-0.1340415 -0.004592434 -0.005075302 -0.041629914 0.11607493 0.08485349 -0.0129036745 -0.13217954
0.1705838 0.06293223 0.007934317 0.03644696 -0.09882212 0.0077447756 0.10174963 0.023848442
-0.035500214 0.006061118 -0.0943583 -0.2253328 -0.008649938 -0.03934041 0.0015766707 0.0017562477

fc3.bias f4 [128]
00000000: 04d0 b13d 7194 9cbc daa2 17bd 1a53 f4bd
00000010: 234b b0bc 3621 ad3c 4ae3 9cbc 656f fdbc
00000020: 2dd1 fabd 6cbd aabc 3c64 cfbc 906a eabc
00000030: d3d7 23be 0371 fdbc 9289 3fbd 2349 17bd
00000040: ca2b fcbd 49fb ee3d 91af 543c 9bde e0bc
00000050: 95c7 1ebd d70e 81bc 97b8 9fbc 64c1 433d
00000060: 9df9 0e3c afe8 31bd 2655 a83c 1063 ccbe
00000070: 67e9 88bc 35f0 2bbe 66d3 5abd 5e54 b5bc
00000080: 83b8 0ebd a2f8 0dbd 1676 97bc a27f 693d
00000090: 6931 953d 23e7 a1bc 75e3 afbc f9e7 95bb
000000a0: e373 28bb 262b 1ebd 9974 56bd 26e7 afbc
000000b0: 8b08 06bd e892 4bbc ca9c 27bc fa79 afbc
000000c0: a110 92bc 7a9f 5dbc fe2d 3fbd 614e 3bbc
000000d0: 90fe 833c 4698 88bd 2156 94bc 2f7f 42be
000000e0: eadc 95be 6078 ddbb d377 32bd e7cd b2bc
000000f0: adb6 95bc f9d8 cabc 71ed 80bd a454 24be
00000100: 636a 83bc 06ca 0dbd fa7b a6bc 07f0 a1bc
00000110: c3f4 ba3c 031a dbbc 624d 0abd 02c4 ecbb
00000120: d956 75bd 781b d9bc aea6 f2bb ea51 fabb
00000130: c9ee b4bb 3d16 85bd 912c 7f3c a849 e93c
00000140: 0b61 31bc c666 94bc 3067 02bd 80a2 4ebc
00000150: 236c 963b 6e8c 86bd de26 84bd 8dc8 19bd
00000160: 3606 b7bc b7a8 3ebc 2580 b4bd cd56 1abd
00000170: 5b82 e5bc 2053 97bc 66b2 bb3c 4643 62bc
00000180: 1e3b a6bc 17fa 0cbe 4d9b 98bc bd50 0ebd
00000190: 1ce3 f2bc e10b d1bd 0349 6a3d 4a8f cebc
000001a0: 9cbf 9ebc cc7a 7d3d fa09 9ebd 1012 33be
000001b0: 89f5 bbbc 13c8 aebc ab24 18bd 8012 bebc
000001c0: 087e f1bc 3fc4 dabc 19a4 1cbc 6a10 ecbd
000001d0: 5150 a2bc 9961 0fbd b570 a7bc 0093 98bd
000001e0: 6585 1bbd ce67 01bd 2457 83bd ad5a 05bd
000001f0: 8a54 2bbd cca1 acbc 0aa0 253e ee4e 98bd
0.08682254 -0.019113751 -0.03702054 -0.11929913 -0.021520203 0.021134 -0.019151349 -0.030936906
-0.12246928 -0.020842277 -0.02531635 -0.028615266 -0.16000299 -0.030937677 -0.046762057 -0.036934983
-0.123130396 0.116690226 0.012981311 -0.027449897 -0.038764555 -0.015754147 -0.019497199 0.047791854
0.008726505 -0.043434795 0.020548414 -0.3991933 -0.016712857 -0.1679085 -0.05342426 -0.022134956
-0.034843933 -0.034660943 -0.018488925 0.057006486 0.07284815 -0.019763535 -0.021470765 -0.0045747724
-0.002570384 -0.03861537 -0.05235729 -0.021472525 -0.03272299 -0.012425162 -0.0102302525 -0.021420468
-0.017830195 -0.013526792 -0.04667472 -0.011432261 0.016112596 -0.06669669 -0.018107476 -0.18993829
-0.29270107 -0.0067587346 -0.043571305 -0.021826698 -0.018275583 -0.024761664 -0.06295288 -0.16047913
-0.01604194 -0.034616493 -0.020322789 -0.019767774 0.02282179 -0.026745802 -0.033765204 -0.0072255144
-0.059897278 -0.026502356 -0.0074051237 -0.0076391594 -0.0055216295 -0.06498382 0.01557459 0.028477505
-0.0108263595 -0.018115412 -0.03183669 -0.012611985 0.0045905276 -0.065697536 -0.06452726 -0.037544776
-0.022341829 -0.011636904 -0.08813504 -0.037680436 -0.02801626 -0.018472254 0.022912215 -0.013809985
-0.020291861 -0.13767277 -0.01862874 -0.034744967 -0.02964931 -0.10207344 0.057198536 -0.02521481
-0.019378476 0.061884686 -0.07716747 -0.17487359 -0.022944229 -0.021335637 -0.037144344 -0.02320218
-0.029479042 -0.026704906 -0.009560608 -0.11526568 -0.019813688 -0.035005186 -0.020439485 -0.07449913
-0.03796901 -0.031593136 -0.06413105 -0.03255718 -0.04182867 -0.021073245 0.16174331 -0.0743693

fc4.weight f4 [1, 128]
00000000: 738f 683e 1e43 243b d9bf 113c 0c4e 88bd
00000010: 402f 273a 2bab 8b3e 6986 993a bcfc 8c3d
00000020: 01f1 63bd 330a 19bc 90b9 903c 6ca3 363c
00000030: fb64 ef3e b9ce 27bb c05c fabd 5e2e 7eba
00000040: da5d 4fbe f9dc cdbe cd33 7cbe 0b75 15bb
00000050: 4216 f9ba 5707 893a 566c 08b9 27c1 47be
00000060: 9bc2 e63e 538e 6bbc b40d 18be 175b a03e
00000070: 4956 013a 1bbb 643e c9bb 2ebe f94e d039
00000080: 8163 223a 599a d43d 24b1 873e 4c2a 813d
00000090: 2640 f9bd 52f3 203a bc3d 623e 3599 2b3e
000000a0: 5da0 5b3e 46a0 2e3b e1a7 f43d 9495 973e
000000b0: ffbd c43e fc21 0abb 4ccc 553b 88e1 253b
000000c0: 9922 09ba ecee 5738 be26 70b9 7d40 213b
000000d0: 90b2 44be 05a7 a83d 422c 533b fb6f 5e3e
000000e0: 5ca5 86be 988d a1be 1e91 583a 987e 9cba
000000f0: 404e dc3a ef73 e8ba 0484 1d3e 5fa1 45be
00000100: 020c 6fbe 3cfe 563b 0381 963e 1c6c a13a
00000110: 6690 043e 9d96 03bb db0c 5f3c a0c3 a438
00000120: 1663 b2be 0ad2 89be 78c1 24bd 4bae 113a
00000130: a4ec 5abe 9c40 163e 9034 e1bd d10d febd
00000140: 2364 c6ba 0253 643a 0a01 af3e e8f7 b639
00000150: b91c 123e 9313 f33d d701 833e 88a4 81bb
00000160: 106c 8c3a 2497 9bb8 af81 743e 4c3a 043a
00000170: 6641 b8ba ed6a 383b 9a97 71be ddea f6ba
00000180: 9d7c e4ba 0a11 19bf 6431 c2b9 5dea 99be
00000190: 0c30 44be f319 753e bdf7 173e f9d8 8dbe
000001a0: ed29 0dbf 6694 29be 8e88 673e 3a91 4abe
000001b0: 639a a83b 48cc e93a 7a4f 123e 309f a4ba
000001c0: baa8 6a3c efb2 d7b9 0075 5c39 be26 48be
000001d0: 6911 66b9 bbd0 7dbc 880c 57bb d39b 763e
000001e0: 5549 9dbc ae2a ed39 3bc3 86be 6111 1bbe
000001f0: e855 97ba 2ffe d83a 68e4 3f3e 1ad9 5bbd
0.22710972 0.002506442 0.008895838 -0.06655511 0.0006377585 0.27279028 0.0011713031 0.06884143
-0.05564976 -0.009340811 0.017666608 0.011147361 0.4675673 -0.0025605394 -0.12224722 -0.00096962403
-0.20250645 -0.4020765 -0.24629135 -0.0022805359 -0.0019003826 0.0010454458 -0.00013010329 -0.19507276
0.45070347 -0.014377194 -0.14848977 0.31319496 0.0004933817 0.22337 -0.17063822 0.0003973169
0.0006194637 0.10381002 0.26502335 0.063068956 -0.121704385 0.0006139773 0.22093862 0.16757663
0.21447892 0.0026645823 0.11946083 0.29606307 0.38426206 -0.0021077385 0.003262299 0.002531143
-0.00052312907 5.1482508e-05 -0.00022902616 0.0024605088 -0.19208741 0.082349814 0.0032222425 0.21722405
-0.26298034 -0.3155334 0.000826137 -0.0011939583 0.0016807988 -0.0017734746 0.15382391 -0.1929984
-0.23344424 0.0032805344 0.29395303 0.0012315544 0.12945709 -0.0020078786 0.013613905 7.8565674e-05
-0.34841222 -0.2691806 -0.04022357 0.0005557283 -0.21379334 0.14673084 -0.109963536 -0.12404979
-0.0015136044 0.0008709879 0.3418048 0.0003489845 0.1426877 0.11868968 0.2558734 -0.003956381
0.0010713357 -7.419128e-05 0.23877595 0.00050440873 -0.0014057576 0.0028139905 -0.23592988 -0.0018838305
-0.0017432157 -0.59791625 -0.00037039362 -0.30061617 -0.19158953 0.2393568 0.14840598 -0.277046
-0.551421 -0.16560516 0.22610685 -0.19781962 0.0051453575 0.001783737 0.1428813 -0.0012559649
0.014322454 -0.00041141312 0.00021024421 -0.19546029 -0.00021940995 -0.01549166 -0.0032813866 0.2408288
-0.019200006 0.0004523596 -0.26320824 -0.15143348 -0.0011545988 0.0016555245 0.18739474 -0.05367384
