ContinuousControl/actor.pth (torch_old, 554892 bytes, 18 tensors)

fc0_batch.weight f4 [33]
00000000: 257b f73e 9832 473f 8ae4 d03d 72a8 223e
00000010: 8148 a53e a836 303f fb03 033f 0fe5 5f3f
00000020: 30f1 ed3e bf51 203f cbc7 b63e 39ac cf3e
00000030: 3372 e83c 3dc3 3f3e 7a36 a03e 27b3 0b3f
00000040: 7309 313f 118c 443f c1a8 0c3e d867 8d3e
00000050: e81e 253f fcd4 5a3f 4ef6 d03e f353 5d3f
00000060: f10c d63e 13cf 083f 5ee8 703f 9021 143d
00000070: d816 403e 9030 bf3e 1236 9c3e 9497 6e3f
00000080: 5ec7 0f3e
0.4833614 0.77811575 0.1019984 0.1588457 0.3228188 0.688334 0.5117795 0.8745889
0.46473074 0.62624735 0.35699305 0.40561083 0.028374767 0.18726821 0.31291562 0.5457024
0.69155043 0.76776224 0.1373625 0.2761829 0.64500284 0.8548124 0.40812916 0.8645622
0.41806749 0.5344097 0.94104564 0.03616482 0.18758714 0.37341738 0.30510002 0.9320004
0.14040896

fc0_batch.bias f4 [33]
00000000: 2bdc 063c 1478 973c b547 c3bc eaa6 31bd
00000010: 91b5 18bd a76c 8fbd 9be8 1a3c 74d7 13bc
00000020: 42b9 9e3c f6b6 fb3c e749 65bb 93e2 613d
00000030: 3169 973c 56d9 1cbc 7106 e93c 1553 43bd
00000040: e580 4c3c 37de fdbb 08d6 babc a249 9dbc
00000050: 5573 12bd 3c25 44ba 5b49 2e3d ff44 933c
00000060: 69f4 b03c d145 0a3d 7964 e73b 0297 40bc
00000070: 118d e5bc 0bd3 833c e060 26bc d4cd 9d3c
00000080: b503 1f3b
0.008231203 0.018489875 -0.023837904 -0.043372072 -0.03728253 -0.07003146 0.0094548715 -0.009023536
0.019375447 0.030726891 -0.0034986676 0.05514772 0.018482776 -0.009573301 0.028445454 -0.047686655
0.012481903 -0.0077474373 -0.022807136 -0.01920015 -0.03575452 -0.0007482355 0.042550426 0.017977236
0.021600919 0.03375799 0.007061538 -0.011754753 -0.028021367 0.016091844 -0.010154933 0.019263186
0.0024263684

fc0_batch.running_mean f4 [33]
00000000: 34c0 9f3f 62b9 b9bf bef6 22bf 4431 473e
00000010: 237e 9d3c 2b51 cb3e 20c3 743b 0973 c9be
00000020: dff3 d13d dd0e f13e 07ec 213e 6cd8 44be
00000030: b40c c63e 947b 2c40 5d29 3ec0 38ed c8bf
00000040: 252b babb cd51 483d 9e0a 073e ea4c 12bd
00000050: e21b 653e 4e6f dc3d a4f4 dd3f 0952 ea3e
00000060: 814a cdbc e28d 9a3e ffc8 703e fcff 7fbf
00000070: f91b 93bd 0000 0000 fcff 7f3f 0000 0000
00000080: ab12 a53e
1.2480531 -1.4509699 -0.6365775 0.19452387 0.019225186 0.39710364 0.003734775 -0.39345577
0.10251593 0.47081652 0.15812694 -0.19223183 0.38681567 2.6950426 -2.9712746 -1.5697393
-0.0056814128 0.048906136 0.13187644 -0.035717882 0.22373918 0.10763417 1.7340283 0.45765713
-0.02505994 0.30186373 0.23514174 -0.99999976 -0.0718307 0.0 0.99999976 0.0
0.32240805

fc0_batch.running_var f4 [33]
00000000: 9e3f b440 8d50 4740 4767 4540 e19e 4d3e
00000010: 76b8 2a3e 51de 8f3e aee2 133e 6b2b 9240
00000020: f994 0d3f 9bd7 853f 3364 8e41 e658 8241
00000030: 5d8b 4c41 c5d1 9541 18f5 6341 5866 5841
00000040: 9195 7f3e a97f 483e aca6 973e 6d19 693e
00000050: 2096 e040 b4af 5440 df2f 7740 e1a2 9b42
00000060: 530a 9a42 ddb1 2b42 3854 0542 0400 0000
00000070: 28ac fb41 0400 0000 0400 0000 0400 0000
00000080: 2cd1 323e
5.632766 3.1142914 3.0844285 0.20080139 0.16671929 0.280993 0.1444194 4.5678
0.5530544 1.0456423 17.798925 16.293407 12.784024 18.727427 14.247337 13.524986
0.24959399 0.19579948 0.29619348 0.22763605 7.018326 3.323224 3.8622968 77.81812
77.020164 42.923695 33.332245 6e-45 31.45906 6e-45 6e-45 6e-45
0.17462605

fc1.weight f4 [400, 33]
00000000: 68c9 b3bc 3bf1 ce3c 9338 04bb 7183 c23c
00000010: 056c 0fbd 80ca f7bc 576b d8bb d7b0 bd3c
00000020: aa7f b03b e3de 3f3b edbe 063d bb60 debc
00000030: d01b 77bc 3460 113c a8fc d03c 8d22 11bd
00000040: e2aa 3b3d ab22 95bb 7cf3 863b 0504 00bd
00000050: c3b5 8e3c 1549 053c c6e7 1dbd ca52 21bd
00000060: 2702 373d 77ff 643b cf1b e63c 3107 353d
00000070: c3c3 273c 2976 b7bc 79a2 153d 8c6c 3cbd
00000080: 0a07 32bd 1eda de3c c804 beba 2451 c83c
00000090: aaad 7cbc f0ac 37bc 88ec 353d 7719 24bb
000000a0: c8ef cabc db77 b4bc 9cde 1bbd fc9f 7eba
000000b0: 31d1 07bd 3081 0a3d 6754 083d 5540 88bb
000000c0: 9743 563d b364 263d b9f8 19bd a20c b0bb
000000d0: bfad f7bc 7835 b0bb 84eb 7c3c 68b4 2fbd
000000e0: 2ad5 bebc b46c d0bc 9ee2 eb3c ad6b a03b
000000f0: 2a0e 443d a3c4 a2bc a86c ec3c c4bb f4bc
00000100: ebbe b1bb 1e0e 23bd 87e0 1c3d 2db9 f53c
00000110: 1032 013d e5e9 a0bc c21d c93c 8d8c 363d
00000120: c74a e23c 5c27 c23c 4e9f 5a3c 27cc f53c
00000130: 9fd2 ffb9 e4c1 bfba b75e adbc 43ae 41bc
00000140: da34 1fbc f7fa 4f3d 74f2 9a3c 0c5a b8bc
00000150: 9059 cd3c 6edb 37bd aaff 153b b17e 013d
00000160: 0be1 913b c162 893c ea0a 133d c739 cc3c
00000170: d221 7dbc abb9 09bd 68b0 4c3d 48e9 213d
00000180: c419 d5bb d6dd 0dbc 3cc8 e3bc 89f1 933c
00000190: a590 82bc 1387 80bc 93bc bb3c faf5 873c
000001a0: dee0 56bd 73c0 cbbc 7898 ccbc 7da2 36bd
000001b0: 5c4b 45bd 468e 7ebc 6309 163d 33ca 003d
000001c0: 5624 963c 32d5 023d a83b efbc 04c9 323d
000001d0: 6209 17bd 6618 253d da50 aebc 3364 233d
000001e0: 3958 433d 61e1 c83c 21a6 9ebc a8e6 8bbc
000001f0: c020 003d 7f68 183d 00ae 28bb 2f18 74bb
00000200: 6989 2c3c 4fbe 10bd b54f 2e3d 986c 763c
00000210: 5d66 3c3d 2779 29bd a195 71bc 3464 4a3d
00000220: b596 71bc 7972 513d c9a9 6c3d aa2b 273d
00000230: 8dca 12bc 9e1b e3bb fa60 68bd 89a5 d63c
00000240: 0c53 d3bc 5733 1c3d c5de 24bd fb89 34bc
00000250: 4095 d53b 9a2d 1c3c 1d6d e2bc 7922 373d
00000260: de23 f43c f3ef 973c 9eac 0abc 7437 61bc
00000270: d107 94bc f15e 0e3d 6522 df3c 2755 3fbc
00000280: 0884 603d a7c9 cbbb 9281 093d b704 323d
00000290: 306b 22bd fe07 f1bb 9d39 fdbc 5e4a f0bc
000002a0: 757f b43c d11e 05bd 149b 08bd 9305 3bbc
000002b0: 062a 37bc 4472 d73c c3ff 1e3d 65d2 863c
000002c0: c131 b33c 5c54 143d eff4 45bc 9827 4eba
000002d0: c730 2fbd 72bd 22bd 5150 293c 111f 383d
000002e0: 3a52 1b3c 4ae7 e73a 8b0d 2ebd 4fbb 403c
000002f0: 94e1 23bc 3dd5 cc3c 3e4e 77bc 13d7 21bd
00000300: 28ce 3a3d 493f 2ebd 8023 78bb e329 8d3c
00000310: 54d1 35bc 0e6a bf3c 47ca 2f3d e28d 1abc
00000320: f532 c7bc e12a b03c e93a 30bd ffbe 153d
00000330: fd37 58bd a309 ffbc f2cf 383d 93e5 a6bb
00000340: 63d4 3fbd ce05 723c 3845 353d 8fd8 353d
00000350: 076d 18bd 02c9 523c 8531 39bd 33ae 30bc
00000360: 4a41 1d3d 949a 1b3d cd5e 4d3c 37b1 0b3d
00000370: 2f03 f83a 7ce2 1d3d 9980 d8bc 2f5f 223d
00000380: 341b 673c 67cd 21bc db12 b03c 7c33 6c3c
00000390: 61f5 86bc 6c59 fdbb c377 d03c 3202 9b3c
000003a0: 5979 813c e21d 243c 3966 00bd 14b6 f33b
000003b0: 94d5 783c 8de7 623b fc35 c2bc ae71 0d3d
000003c0: 485e 023d fe21 d43c f11e f3bc b8f5 f3bc
000003d0: 4b06 993a 5a84 e83c 4100 ba3a d0e2 34bc
000003e0: 5170 2b3d 3c1a a8bc 01d3 44bd 2e27 613d
000003f0: 08ff 8dbc 8582 593d 7c50 dbbc 3f35 6e3d
-0.021946624 0.025261512 -0.0020175322 0.023744317 -0.035015125 -0.030247927 -0.006604593 0.023155613
0.0053863125 0.0029277138 0.032896925 -0.027145734 -0.015082315 0.008873034 0.0255111 -0.03543334
0.045817263 -0.004551252 0.004118381 -0.031253833 0.017420655 0.0081351 -0.038551114 -0.039385594
0.044679787 0.0034942308 0.028089432 0.04419631 0.010239544 -0.02239521 0.0365319 -0.046001956
-0.043463744 0.027203616 -0.0014497275 0.024452753 -0.015422264 -0.011210665 0.044415027 -0.0025039592
-0.02477254 -0.022029808 -0.038054094 -0.00097131706 -0.033158485 0.03381461 0.033283617 -0.0041580596
0.052310552 0.040623378 -0.037590716 -0.0053725997 -0.030234216 -0.0053774677 0.015437011 -0.04289666
-0.023295004 -0.025442459 0.028794583 0.0048956485 0.04786507 -0.019869154 0.028860405 -0.02987469
-0.0054243705 -0.039808385 0.038300063 0.029995525 0.031541884 -0.01964278 0.024550322 0.044567633
0.027623547 0.023700409 0.013343645 0.030004574 -0.00048794315 -0.0014629927 -0.021163328 -0.011821332
-0.009717191 0.050776448 0.018914439 -0.022503875 0.02506712 -0.044887 0.0022887983 0.031614963
0.004451876 0.016770722 0.03589908 0.024929894 -0.015449958 -0.033624332 0.04997292 0.039529115
-0.0065033156 -0.008658847 -0.02780544 0.018059509 -0.015938113 -0.015689408 0.022917068 0.016596783
-0.052460544 -0.02487204 -0.024975047 -0.044588555 -0.04816757 -0.01553685 0.036630046 0.031442832
0.018327873 0.0319416 -0.029203251 0.043648735 -0.036874183 0.04030647 -0.021278787 0.03989048
0.047691558 0.024521532 -0.019366326 -0.017077759 0.031281233 0.03720903 -0.0025738478 -0.003724586
0.010530808 -0.035337742 0.042556483 0.015040539 0.04599606 -0.041375306 -0.014745147 0.049411967
-0.014745404 0.05113456 0.057779107 0.040813126 -0.008959425 -0.0069307825 -0.05673311 0.02620198
-0.025796436 0.0381349 -0.040251512 -0.011019225 0.006518036 0.009532357 -0.02763992 0.04471061
0.029802259 0.018547034 -0.008464007 -0.013746131 -0.018070133 0.034758512 0.02723808 -0.011678017
0.054813415 -0.006219107 0.033570834 0.043461528 -0.039653003 -0.007355689 -0.030911261 -0.029332336
0.022033432 -0.032500092 -0.03335102 -0.011414903 -0.011179453 0.026299603 0.038818132 0.016457746
0.02187431 0.036213264 -0.0120823225 -0.00078641763 -0.042771127 -0.03973145 0.01033409 0.044951502
0.009480054 0.0017692831 -0.042493384 0.011763408 -0.0100025125 0.025004024 -0.015094338 -0.03951175
0.045606762 -0.042540822 -0.0037862957 0.017231887 -0.011097271 0.023366 0.042917516 -0.009433242
-0.02431629 0.021504821 -0.04302493 0.0365591 -0.05278777 -0.031132525 0.045120187 -0.0050932853
-0.046833407 0.014771892 0.044255465 0.04439598 -0.03721335 0.012865307 -0.04521324 -0.01078372
0.038392343 0.037989214 0.012534809 0.034104552 0.0018921847 0.03854607 -0.026428508 0.039641555
0.014105607 -0.009875632 0.021493366 0.014416572 -0.016474428 -0.007731607 0.025447732 0.018921945
0.015804933 0.01001689 -0.031347487 0.007437477 0.01518764 0.0034622878 -0.023707382 0.03453224
0.031828195 0.025895115 -0.02967784 -0.029780254 0.0011674849 0.028383423 0.001419075 -0.011040404
0.04185516 -0.020520322 -0.04805279 0.054969005 -0.017333522 0.05310299 -0.026771776 0.05815625

fc1.bias f4 [400]
00000000: c02b a7bd c479 f73c 1db9 17bd 1569 e2bd
00000010: 2582 133e 909a 0b3e 1b91 863c 8aa7 0a3e
00000020: 107e 4a3d cd37 6a3d 0fc8 933d 2447 a43d
00000030: 13eb 753d a9c3 b53d 8bd0 1d3e 568d 853d
00000040: dd91 e8bd 84f4 823d 0199 333e 65d5 1b3e
00000050: 4ca4 e13d cd17 95bd 332a 313e 2c60 003d
00000060: 2aea adbd 673d e03c 602c f23d 222e 26be
00000070: 5202 3dbd f129 063e 11b9 45bd 1c27 92bd
00000080: 9128 02bd 5f20 6d3d 27bf 19be 7655 263d
00000090: 7c7f d33c 208d 1a3d 8b15 1f3c a379 ab3d
000000a0: 391e 6e3b 2113 063e d184 e13d e87f efbd
000000b0: ab62 a3bc 5b67 0a3e d66b 1ebd 9f93 2bbd
000000c0: 0e73 ccbb 431c 01bd 906c 86bd c60f 483d
000000d0: 2722 173e 3f85 d43c 225b 013e b24a 443d
000000e0: a903 e7bd 8099 0fbe bdf5 44bd e4d3 6f3d
000000f0: 32c1 96bc 3484 95bd c5e5 0cbe 9317 9e3c
00000100: 3327 043e e34e 85bb a45d 293e 79ef b1bd
00000110: 752f 2f3e 6c1f e2bd eee9 0d3e d124 853c
00000120: a401 3a3e 3a34 2b3e d0f9 64bd 006a 13bc
00000130: 9ee6 2bbd 7bba 463d d958 afbd 94cb a0bc
00000140: 9c07 c9bd 3d84 ce3d a1b2 073e 362a 7c3d
00000150: bad2 d03c 9a22 08be 4d90 25be d1d7 0fbe
00000160: 92d5 02be 8b4f 23be 6bb8 883d 58ea 0ebe
00000170: d68c a53d 197d 023e 4e34 d0bb 6a08 373d
00000180: d32a f63d 664e 15be 38af 1a3e 7bfa 2d3e
00000190: 02b7 293e 3832 8abd 9cdd d83d 25f3 7ebd
000001a0: 4ebc 203d 4e2c 253e 78ac 593d f053 363d
000001b0: 3e7e 34bd 8928 aebd 3dce 183e aed3 22be
000001c0: 0595 f83c a6a0 973b a104 4abd 7022 15be
000001d0: 370c f2bd a52c d1bd 46a8 d53c e561 743d
000001e0: b79d 26be e5c4 8abd ea59 31be 4481 f43d
000001f0: 214d 21be ec2e 9cbc b55b bebc 5bf9 e7bd
00000200: 423e 003e 743f 993d 3667 cb3d 0831 f83d
00000210: 025c c4bd 464f a83d d2e7 0b3e c3a3 75bd
00000220: 62cf 88bc 5717 933c 62cc 38be 4f18 20bb
00000230: 3825 a7bc b30f f7bd 0837 053e 8b84 25be
00000240: 5606 66bd 7ace 933c bc37 123d e3bb b83c
00000250: 5a6d a43a 532e 15be f837 04be 135f 49bd
00000260: 95b0 ecbd ee6c f6bd 9528 56bd 52bf 323e
00000270: 66b3 093e 5776 0f3d 8377 c7bd d5b8 d2bd
00000280: ba4e 2a3e 5c9e 5dbb bbe2 c53c 87bf d8bd
00000290: b834 aebd 041a b93d dbc1 57bc 6001 5fbc
000002a0: 766e b6bd c0fc 05be c425 0fbe d72e 26be
000002b0: 5443 233e 0289 d93c 4e23 143d d478 073e
000002c0: 84da 973d eb22 fdbc 48ac f23d 5031 473b
000002d0: 1ddd 2ebe 052c 023e b211 e9bd 1814 0cbe
000002e0: 2f1a 21bd db80 263d 3cc6 193e 0d38 38be
000002f0: 5bbc 30be 6ed6 dabd 6a74 b6bd 72e1 263e
00000300: 72f5 f93c 6ff7 073e 1996 153d 4979 c83d
00000310: 0b31 abbd ca07 9b3d e5cd 7a3d 77f9 3a3d
00000320: 110a 03be c44d 70bd a978 0c3e b04c f8bc
00000330: f08b 0ebe 5fa7 14be b7ba 0fbd b34f 9d3d
00000340: 0665 2fbd 1a51 0d3e 03b3 2f3d a215 0ebe
00000350: bc03 933b 1383 0d3e 3e77 d13d bd05 a7bd
00000360: 1cdf 08be 8793 353d 8a08 233b a022 06bd
00000370: 457c 20be c5cc 2d3e a14c ba3d 1f16 2ebe
00000380: 29a9 1e3c fc9e 1fbd 1a92 283e 29d3 bc3d
00000390: 25bd 503d fa6c 24bd ed4b 05be c33b 443d
000003a0: ffb2 983d f4ba c73a 5627 1d3e 05df cb3d
000003b0: 79a4 29be 28b0 88bb 7f12 96bd ad38 74bc
000003c0: 7379 033c d536 a13c 4d70 d13d 02df e13d
000003d0: ab54 9f3c 56a6 8bbd 3fc5 c4bd 65c1 913d
000003e0: b98f 9b3d c9c9 1d3e 1124 21be 0834 fabd
000003f0: 3114 dcbd 2ea9 943d 9800 0e3e 04c7 60bc
-0.081626415 0.03020943 -0.037041772 -0.11055199 0.14405115 0.1363318 0.016426614 0.13540474
0.04943663 0.057182122 0.072158925 0.080213815 0.060038637 0.0887521 0.15411584 0.06521098
-0.11355946 0.06394294 0.17538835 0.15218122 0.11017665 -0.0727993 0.17301254 0.031341717
-0.08491929 0.027373029 0.1182487 -0.16228536 -0.04614479 0.13101937 -0.048272196 -0.07136366
-0.03177697 0.0578922 -0.15014325 0.040608846 0.025817625 0.037732244 0.009709726 0.0837281
0.0036333932 0.13093235 0.11011661 -0.11694318 -0.01994451 0.1351599 -0.03867706 -0.04188883
-0.0062393015 -0.031521093 -0.065636754 0.048843168 0.14759122 0.025942443 0.1263242 0.047922798
-0.11279995 -0.140234 -0.048085917 0.058551684 -0.01840267 -0.07300606 -0.13759525 0.01929835
0.12905578 -0.004068242 0.16539627 -0.08688254 0.17107947 -0.110411495 0.13858768 0.016252907
0.18164688 0.16719142 -0.055902302 -0.00899744 -0.04196798 0.048517685 -0.08561868 -0.019628324
-0.098159045 0.10083816 0.13251735 0.061563693 0.025491107 -0.1329445 -0.16168328 -0.14047171
-0.12776783 -0.15948312 0.066758 -0.13956583 0.08083503 0.12743033 -0.0063538915 0.04468576
0.12019887 -0.14580688 0.15105903 0.16990082 0.16573718 -0.0674786 0.10589144 -0.0622436
0.03924208 0.16130182 0.053142995 0.044513643 -0.044065706 -0.08503825 0.14922424 -0.15901062
0.030344496 0.004627305 -0.04932082 -0.14563918 -0.11818736 -0.102135934 0.026081216 0.059663672
-0.16271101 -0.06775836 -0.17319456 0.11938718 -0.15752079 -0.019065343 -0.023237089 -0.11326858
0.1252375 0.07482806 0.09931795 0.12118727 -0.095878616 0.08218245 0.13662651 -0.05997063
-0.01670045 0.017955465 -0.18046716 -0.0024428552 -0.02040349 -0.12063541 0.13009274 -0.16163842
-0.056158386 0.018042792 0.035697684 0.022550529 0.0012544796 -0.14568453 -0.12911975 -0.049162935
-0.11557118 -0.120324954 -0.052284796 0.17455795 0.13447341 0.035024967 -0.09739592 -0.1028916
0.16631594 -0.0033816313 0.024155965 -0.10583406 -0.08506149 0.09038165 -0.013168777 -0.013611168
-0.089077875 -0.13084698 -0.1397925 -0.16228805 0.15943652 0.026554588 0.03616648 0.13229686
0.074147254 -0.03090044 0.11849266 0.0030394383 -0.17076536 0.12712105 -0.11380328 -0.1367954
-0.03933161 0.04065023 0.15017027 -0.17990132 -0.17259352 -0.106854305 -0.08908923 0.16296938
0.030512545 0.13277982 0.036520097 0.09788758 -0.083589636 0.07569845 0.061231513 0.045648064
-0.12796809 -0.058667913 0.13717903 -0.030310005 -0.1392057 -0.14516972 -0.035090175 0.07681217
-0.042820953 0.13800469 0.04289533 -0.1387544 0.004486529 0.13819532 0.10227822 -0.08155391
-0.1336636 0.044330146 0.0024876916 -0.032747865 -0.15672405 0.16972645 0.09096647 -0.17000626
0.009683886 -0.03896998 0.16461983 0.09219963 0.050961632 -0.04014299 -0.13017245 0.047908556
0.07456016 0.0015238211 0.15347037 0.09954647 -0.16566648 -0.00417139 -0.073277466 -0.014906091
0.008024561 0.019679466 0.10226498 0.110288635 0.019449553 -0.068188354 -0.09607934 0.07116965
0.07595772 0.15409006 -0.15736414 -0.122169554 -0.10746039 0.07258831 0.13867414 -0.013719324

fc1_batch.weight f4 [400]
00000000: 4e1e 4b3d e8e6 993e 25ec 9f3d e3af a63e
00000010: 68e4 eb3e 8d45 ea3e 7007 db3e 4b61 e33e
00000020: 3903 673f b328 593f 01b5 313d eb58 1c3f
00000030: afe4 783e 37e1 cd3e 8442 9d3e 6c8d 7e3e
00000040: 6d67 663e d2fd 833b d2c1 9b3e 6c5c cc3e
00000050: e284 093d bbb0 263f 4832 6c3e 8814 b23e
00000060: 2f3e 333f 4e00 7b3f b05d 3b3f 8c1e 043e
00000070: 8f1a 5f3f cc51 ed3e 7360 2b3f eefb 423e
00000080: d2cf 763f 0c90 3a3e 4742 4f3f 6d88 693f
00000090: 5b96 0a3f ccff 653f 8cca 4b3f 5fe5 d63e
000000a0: 6103 143f 6efc 013f 827c d53e e27b 813d
000000b0: ebb6 493f b249 e03c d565 303f 67b1 a63e
000000c0: cc36 063f 4fa7 ca3e a076 643e faae a33e
000000d0: 6c6f 5e3d f828 473e 2660 443f 380e 6a3f
000000e0: 8146 b53c e309 c43e 9ccd 0f3f f2e7 663e
000000f0: 81ec 153f 39cd e83e e74c 173f 07a1 673e
00000100: c4db 7d3d 1075 e63e 563a 583f 673a 703f
00000110: 8c92 683f c458 043f a240 5d3f 10d5 963e
00000120: 20e7 5e3f 6410 153f 81ac f63d 5b51 ae3e
00000130: f4d8 6f3f 9367 a43e 1668 f53b 8fb6 793f
00000140: 2613 253f 5f37 1c3f 680a 903e f434 753f
00000150: 804b 663f 0438 b43d c8de 373f c2d7 753f
00000160: c19e f93d 2890 233f 94b3 963e 1af5 5b3f
00000170: 359b 553f 2c8a 413f 4d06 b73e c8b3 663f
00000180: a267 c33e 1da6 553f 73c8 3c3f 899e a43d
00000190: e959 3b3e 1e97 e73e 30ff ba3d 1ab3 bb3e
000001a0: 0d75 443f 0b1a 793f cf46 ee3e 1005 c23e
000001b0: 0e64 f63d f04e 293f 08c5 113f f2c8 343f
000001c0: 2663 a43d e5cf 083f 22ff 943e fab7 6b3e
000001d0: 425f 3f3f 1246 b23d 7edf 433e 9033 5b3f
000001e0: 7ad1 303e 8c87 563f daaa a03e 518e 1e3e
000001f0: b269 ee3e 8941 453e 2e1f 203f 9407 593f
00000200: 1219 f43d 3e05 233e 9f3d d93e bca5 033f
00000210: aa38 713f 7e97 6a3f c9d2 6d3e db40 513f
00000220: 54ea 483f 044f e73d 18d7 4e3f 3e29 7c3f
00000230: c1ef c63e ea67 6f3f 0dfd 783f fa86 1f3f
00000240: 8e3f 023f 5004 6d3f 429a 573f 7cb6 7b3f
00000250: 3b33 333e 788a 2b3f 23ed 4b3f ed35 3a3e
00000260: 636d 153f 8728 683e a116 0f3e 269b 7d3f
00000270: 9284 c33d 995a 333d 5c89 683f 9224 4b3f
00000280: 1abe 1d3f bc50 5d3f 2cb6 023f d3b0 a93e
00000290: 0d15 d83e e272 183f b164 f13c f0e7 123d
000002a0: c9f9 a13e 6b48 0f3f 8e29 533f 4adf 863e
000002b0: bdf2 a13d 0a06 413d 57a7 f53e 42a3 3f3e
000002c0: 7d2a c63e 13e6 363e e168 393f f5cc a73e
000002d0: 3122 1b3e 435f 2a3f e481 f43e af09 4d3f
000002e0: ed6d 053f 7850 363f e6b9 2c3f 96d0 603e
000002f0: a134 653f 07cc 173f 3bc3 d93e c7fa 133f
00000300: dfe2 743f f07a 5e3f 24d6 693f 50b0 583e
00000310: 3003 c33e b377 1d3f 702c d93e a82b d13e
00000320: 22e0 5e3f 95fd 713e 4c6b 893e 90c2 123f
00000330: bee8 883e 5a1d 573e a416 ca3d 8b27 573f
00000340: 0049 7e3e 5dc2 e33e e59f 523f 7d2d af3c
00000350: f504 003f b859 8b3e 500a 0e3e 59d8 123f
00000360: 5f51 263f 7864 503f 0e33 803f c567 283f
00000370: 6482 f93e 1854 703e 3b7d b53e 827b 433d
00000380: edec 3a3d 4a0b ee3d 85d6 563f a0ba 363f
00000390: 67cb 733f 633d 583f 83d4 563f 4f6b 1b3f
000003a0: 9f24 403f 2454 2d3f af79 cb3d 2507 d83d
000003b0: 517b 653f 9b46 523f 4b65 bd3e 6902 5e3e
000003c0: 886e 193e dc11 043e 8b5a ad3e c45d 0b3f
000003d0: 1a9a 033f 5f79 303f 0acc 0d3f 84d0 1e3f
000003e0: f195 603f 1f85 1a3f fcf2 ee3e 6621 3e3f
000003f0: 81bc 2a3f 9aed 353f f869 bb3e f47c 393c
0.049589448 0.3005898 0.07808713 0.32556066 0.46072698 0.45756188 0.42779112 0.44410166
0.9023929 0.8482773 0.04338551 0.6107318 0.24305986 0.40210888 0.3071481 0.24858636
0.22500391 0.0040280605 0.3042131 0.39914262 0.033573993 0.6511342 0.23066056 0.3478129
0.7001676 0.9804734 0.7318983 0.12902278 0.871499 0.4635147 0.66944045 0.19041416
0.9641086 0.18219012 0.80960506 0.91223794 0.54135674 0.8984344 0.79605937 0.4197187
0.57817656 0.507758 0.41696554 0.06322457 0.78794736 0.02737889 0.68905383 0.32557222
0.52427363 0.3958077 0.22310877 0.31969434 0.05430548 0.19449222 0.7670921 0.91427946
0.022128345 0.38288793 0.5617311 0.22549418 0.58564 0.45469072 0.5910172 0.22620021
0.061977163 0.45011187 0.84464014 0.93839115 0.9084861 0.51697946 0.86426747 0.2945943
0.8707142 0.58228135 0.12044621 0.34046444 0.9369042 0.3211027 0.0074892147 0.9754419
0.64482343 0.6102199 0.2813294 0.95783925 0.89958954 0.08799747 0.7182431 0.96032345
0.12188483 0.6389184 0.29433882 0.8592087 0.8343995 0.7560146 0.35746995 0.90118074
0.38165003 0.83456594 0.7374336 0.08038051 0.18296017 0.4523248 0.091307044 0.3666008
0.76741105 0.97305363 0.46538398 0.37894487 0.12030803 0.66136074 0.5694127 0.7061912
0.080267236 0.5344222 0.291009 0.230194 0.74754727 0.08704771 0.19128224 0.85625553
0.17267409 0.8380058 0.3138035 0.15483977 0.46565014 0.19263281 0.62547576 0.8477719
0.11918844 0.15919968 0.42429826 0.51424766 0.9422709 0.9163741 0.2322494 0.81739587
0.78482556 0.11294368 0.80796957 0.9850043 0.38854793 0.93517935 0.97261125 0.6231533
0.50878227 0.92584705 0.84219754 0.98325324 0.17500012 0.6700816 0.79658717 0.18184634
0.58370036 0.2267171 0.13973476 0.9906486 0.0954677 0.043787573 0.90834594 0.79352677
0.61618197 0.86451316 0.5105922 0.3314272 0.4220356 0.595503 0.029466959 0.035865724
0.31635883 0.55969876 0.8248528 0.2634223 0.07907627 0.0471249 0.47979233 0.18714622
0.3870429 0.17861204 0.7242566 0.32773557 0.15149762 0.6655161 0.4775535 0.800929
0.5212086 0.71216536 0.6747116 0.21954569 0.8953343 0.59295696 0.42531762 0.5780453
0.9565868 0.8690634 0.9134238 0.21161008 0.3808837 0.6151077 0.42416716 0.4085362
0.8706075 0.2363189 0.26839674 0.5732813 0.26740068 0.2100729 0.098675996 0.8404471
0.24832535 0.44484225 0.8227523 0.021383995 0.50007564 0.27216887 0.13871121 0.5736137
0.6496791 0.81403303 1.0015581 0.6578334 0.48732293 0.23469579 0.35447106 0.047725208
0.045636106 0.11623247 0.8392108 0.7137852 0.9523224 0.8446867 0.8391802 0.60710615
0.7505588 0.67706513 0.09935319 0.10548238 0.8964129 0.82138985 0.36991343 0.21680607
0.1498357 0.12897438 0.3385814 0.5443995 0.51407015 0.689352 0.55389464 0.6203692
0.8772879 0.60359377 0.46669757 0.7426971 0.66693884 0.71065676 0.36604285 0.011321295

fc1_batch.bias f4 [400]
00000000: b412 f637 7c2e 3cbc b09f 96bc 6dbc 4a3c
00000010: 4136 2dbd 4135 293a a692 48bc ae53 e23c
00000020: a620 e7bc ef41 86bc 4223 8f3b f787 bc3c
00000030: 3040 8a3c e5cf d03c ca83 07bc 932b 4d3c
00000040: 46ea 87bc be08 3c39 31bf 493b 9238 a63c
00000050: 164a edbb 3d42 91bc 681a e9bb def8 d6bb
00000060: 7ab0 413c 1cab 1f3d 768c c6bc 49a7 8f3c
00000070: f94b 1e3d db15 553d ba5c 34bb 9c8e baba
00000080: 3ed6 5b3d c035 313b 880e e83c fc0c c5ba
00000090: d08f bdbc e28f b0bc e4da 263d 16a4 cabb
000000a0: f04c f13c 7a06 dbb9 c6d7 11bc 8fe3 6abc
000000b0: ee1f bd3c 892c d2bb 4362 293d b0aa f03c
000000c0: 44b8 e4bc 5a08 a03c 06ff 5cbb 9d56 193d
000000d0: 9f96 5f3b 1dca e7bb ef09 3a3d 67da 4bbd
000000e0: 0a01 17bc e21c 86b9 edd7 1abd a089 873c
000000f0: cc7b 4f3a 1e64 dabc bdf7 cebc a4df 663b
00000100: 89e4 823b d7a9 24bd ba57 71bb c787 aabc
00000110: 271f 813d 0486 bb3c 33e7 1dbc 6a66 abbc
00000120: e764 693d f0d1 673b 2ce1 3a3c c0e0 033b
00000130: 8283 c2bc 2f36 c53c cd44 1ebc b81a a33c
00000140: 7899 af3c 6cd9 3fbc 947c 2b3c d863 943c
00000150: 6a8a cdbb 5d71 d03c 2ee8 b23b 8830 ebbc
00000160: fb06 92ba 410b 3e3b d268 b63c c090 d9bc
00000170: a8bd d4bb 58cd 153d 634d a2bc d845 0dbd
00000180: 764c ac3c 7b37 89bc 3a95 5b3c e058 1e3d
00000190: 5710 dd3c faa1 f1bc 7348 c43b bab7 bf3b
000001a0: fedd 4dbc c0f8 983d 22e1 893c 6dc0 1bbc
000001b0: 1081 12bc a0df 29bd 5d03 c93b ce28 c2bc
000001c0: 98ed 82bc a4e5 993c 35b6 97bb 1731 d73a
000001d0: 73c9 ce3a 54dc 873a 0726 103c 9aa5 23bb
000001e0: ae41 9ebc c9bc 50bd c28d 803c 97e3 563c
000001f0: 4bf2 a8bc 1608 093c 3cfc cbbc da4d 0dbb
00000200: 3141 363b 3f0f 663c 6962 9f3c 7335 51bc
00000210: 9ad6 85bd d0ba 043c 0492 97bb 30be 12bd
00000220: ec64 d83c a3b8 4abb 2263 f83b 529f 4c3c
00000230: b6b7 6c3c 71ef ffbc c7df a4bc 3764 7c3a
00000240: ed32 65bc 95b3 65bd f095 083c 1620 6abd
00000250: f4d4 c43c 7cc1 dc3c 7dcd 00bb 29cf 54bc
00000260: 3994 0b3d 820c 91bc bf39 a33c 1a73 523d
00000270: 68ba 98bb 9e26 d8bb 6d53 073d e2f6 60bc
00000280: 7b0b 25bd 227e 3dbd 382c bb3b 78f8 8f3c
00000290: 6764 9dbc 5332 6fbc d2fc f3bb c2f8 f73a
000002a0: d593 f53c ba2d 12bd 0f24 8dbc 9f55 1ebb
000002b0: d7f7 003c 3068 4d3c 9a7d 733c 82a5 a23c
000002c0: 0c38 3ebc fdf4 9c3c 4881 02bb 729a f53a
000002d0: 79e2 ecba e572 08bd 8c8f 89bc 1116 bcbb
000002e0: 9a81 55bc 481f 263b 8e3a b33c 3b29 7b3c
000002f0: bcee 933c 3c6f c9bc d716 a6bc 729f afbc
00000300: dcc1 f73c 0ea8 753b e62a 7bbc d6bf 4d3c
00000310: d4b5 1abc 8b6d ab3c 696d 123d c1f2 d5bc
00000320: 3aa9 c83c 999a 55bc a39f a5bc 34a4 013d
00000330: f40e 5e3b a660 1b3c 27c9 fdbb 4bf8 b9bc
00000340: 6bbc 763c 3407 a13b 8df5 f1bc cb74 ca3b
00000350: ca27 28bd 33a8 04bd 9539 3bbc 985d 32bd
00000360: a0e9 9fbc 7746 e23c 1116 54bd 957f 63bc
00000370: fcd5 963c 33a2 633b b93b 373b ae0f c2ba
00000380: 10b5 993c c964 44bc be7c 8d3c 328b 473c
00000390: 9a5e 02bc a42b 013d 8aec babb f896 25bd
000003a0: 92d7 9b3c 841e 8f3c e10c babb 59d9 4dba
000003b0: ff47 03bc f0d3 23b9 2964 f63b 6645 dc3b
000003c0: d3ad c9bc 8089 cfbc 52d2 76bc 90f2 0bbd
000003d0: 97cd 86bc 231a 313d 9726 4cbc 3c36 9ebc
000003e0: c01f 143d 3bd7 43bb 4527 72bc 47e1 17bd
000003f0: f505 0c3d 52e6 f1bc 4c83 783c 41f0 f43b
2.9334195e-05 -0.011485692 -0.018386692 0.012374026 -0.04228807 0.0006454774 -0.012241995 0.027627792
-0.02821381 -0.016388861 0.0043682167 0.023014052 0.01687631 0.025489757 -0.008271167 0.012522596
-0.016591202 0.00017932334 0.0030784125 0.020290647 -0.0072414977 -0.01773178 -0.0071137436 -0.006560429
0.01182186 0.038981542 -0.024236899 0.017535822 0.038646672 0.052022796 -0.002752109 -0.0014233175
0.053671114 0.0027040094 0.028327242 -0.0015033777 -0.023139864 -0.021552984 0.040736094 -0.0061841113
0.029455632 -0.0004177576 -0.008901542 -0.014336481 0.023086514 -0.0064140004 0.041353475 0.029378265
-0.027919896 0.019535232 -0.0033721342 0.037436116 0.0034116877 -0.0070736543 0.04541963 -0.04976883
-0.009216556 -0.0002557999 -0.03780358 0.016545117 0.00079148705 -0.026659068 -0.025264615 0.0035228515
0.0039945287 -0.040201034 -0.003682597 -0.020816697 0.0630477 0.022891052 -0.009637642 -0.020922858
0.056980994 0.0035372935 0.011406224 0.0020122975 -0.023744348 0.024073688 -0.009659958 0.019910201
0.021435484 -0.011709552 0.010466713 0.018114015 -0.0062726038 0.02544468 0.005459807 -0.028709665
-0.0011140996 0.0028998407 0.02226678 -0.02655828 -0.0064923353 0.036572784 -0.019812291 -0.034490436
0.021032553 -0.016750088 0.013402278 0.038658977 0.02698533 -0.029496182 0.005990082 0.0058507593
-0.012565134 0.0746932 0.016830985 -0.009506327 -0.008941904 -0.04147303 0.006134434 -0.023701098
-0.015982434 0.018786259 -0.004629875 0.0016417828 0.0015776589 0.0010365346 0.008798129 -0.0024970532
-0.019318428 -0.05096129 0.015692595 0.013115785 -0.020623347 0.008363744 -0.024900548 -0.0021561296
0.0027809853 0.014041721 0.019456105 -0.012769091 -0.065350726 0.00810118 -0.0046255607 -0.03582591
0.02641531 -0.0030932806 0.007580177 0.012489157 0.014448097 -0.031242104 -0.020126237 0.000962797
-0.013989192 -0.056079466 0.008336529 -0.057159506 0.024027325 0.02694773 -0.001965373 -0.012988844
0.034076903 -0.01770616 0.019924996 0.0513793 -0.004660893 -0.0065964004 0.033038545 -0.013730736
-0.04029415 -0.046262868 0.0057120584 0.017574534 -0.019212915 -0.014599401 -0.00744591 0.001891874
0.029977718 -0.03568814 -0.017229108 -0.002415992 0.00787159 0.012537047 0.014861489 0.01985431
-0.011610042 0.019159788 -0.0019913483 0.0018738045 -0.0018072865 -0.033312697 -0.016792081 -0.005739935
-0.013031388 0.0025348235 0.021878507 0.015329654 0.018058173 -0.024589173 -0.020274563 -0.021438334
0.030243807 0.0037484202 -0.015330052 0.012557944 -0.009442765 0.020926258 0.035748873 -0.02611673
0.024494756 -0.013037347 -0.020217722 0.031650737 0.0033883424 0.009483492 -0.0077449265 -0.022701403
0.015059571 0.0049141888 -0.029536033 0.0061784736 -0.04105357 -0.03238697 -0.011427303 -0.04354629
-0.01952058 0.02762149 -0.051778857 -0.013885398 0.018412583 0.003473413 0.0027959181 -0.0014805698
0.018763095 -0.01198692 0.017271396 0.012179183 -0.007957125 0.03153576 -0.005704467 -0.04042718
0.01902369 0.017470606 -0.005677805 -0.0007852517 -0.008012771 -0.00015623844 0.0075192642 0.00672214
-0.024619019 -0.02533412 -0.015064793 -0.034166873 -0.016455455 0.043237817 -0.012460372 -0.01931297
0.03616309 -0.0029882926 -0.01477987 -0.037080076 0.03418537 -0.02952877 0.015168022 0.0074749296

fc1_batch.running_mean f4 [400]
00000000: 2795 863b b184 2f3d 7282 553c 57f1 193c
00000010: 2540 0e3e 4750 143e 635e 403d 1751 0f3e
00000020: be4c 773d df83 893d f702 a43d 2ab9 c13d
00000030: 56b7 8b3d 7d5e d63d e7bb 193e 6b61 a83d
00000040: 0a45 383b 0910 953d 0b43 323e 5671 223e
00000050: be4c dc3d d23c 853c 3653 323e 0df2 7a3d
00000060: 6207 013c e2da 4b3d 0feb e03d 6466 a138
00000070: 0eb8 813c cf72 123e 526b aa3c 0b36 133c
00000080: cff3 d83c f7f0 973d f09b 7939 0215 5f3d
00000090: ac59 773d 66b3 553d bc8b 103d 0f7c b53d
000000a0: 5cca 413d c45a 003e 737a e03d 839e ab3a
000000b0: d64c 133d 5b56 153e 980a 8f3c 8772 d13c
000000c0: 84dd e13c 518c 663c 22a9 783c 20d6 8d3d
000000d0: ff22 1e3e 3c1b 703d 1d93 0d3e 9cdd 7c3d
000000e0: 8f20 1d3b 99dc 8238 2da7 123c 6026 8c3d
000000f0: 5ff6 a53c a4c4 243c eafa fb39 7c62 373d
00000100: 65ff 023e 0cdd f53c 29e1 283e 99ee ec3b
00000110: 068c 3b3e f3c8 c93b 3c2d 0c3e ec57 153d
00000120: 7960 443e 47f4 2f3e 9c72 253c 6fd8 b13c
00000130: 1307 b93c b8c3 973d fb66 6e3b 436d ee3c
00000140: 72c6 753b 9a31 cc3d be1a 113e fb5b a53d
00000150: 29ee 303d 1c5e a23a 36a9 3d38 1c27 0a39
00000160: 3e7b 7b3b a5e5 c438 0139 a23d 0f36 843b
00000170: ffe6 ac3d 98e6 093e 2e1e eb3c 625e 583d
00000180: 364c 013e 83dc 0c3b 007a 233e eaa4 2a3e
00000190: dc51 2c3e 32cc 983b a6d8 d63d 78bc 933c
000001a0: ea98 743d 7867 373e ed9e 953d 64f3 623d
000001b0: 94a4 c43c 0f3e 853b 7a8b 1f3e e540 823a
000001c0: 51ef 433d 7781 323d 33f2 273c 72ed e33b
000001d0: 469c 6339 2a16 823b 960d 403d 7472 8e3d
000001e0: 8764 8237 74d2 233c ca5c 973a 6161 003e
000001f0: 9c53 163a 5a61 d13c 63b8 b23c 73ca ab3a
00000200: 7eaf 013e feae a83d 1595 e03d d872 f83d
00000210: e965 443b 9234 c23d 6ab6 0d3e 609f 083c
00000220: 0f11 c33c 4dc6 203d 5913 0135 6ae9 233d
00000230: 558f e13c 828d c83b b1a2 0d3e 7554 8537
00000240: 09ac 7f3c 3b84 113d a422 5f3d 413f 113d
00000250: 1fe3 013d cc03 823b 6010 9c3a eea2 063d
00000260: 8c98 b03b 5201 f53a a65d 843c 1ad2 423e
00000270: 4d5a 093e 60f0 543d 5471 ae3b f6d3 313b
00000280: acfe 203e 82fc a13c d37d 223d 3cd2 cb3b
00000290: e30d 5a3c 8c70 d23d 6d9e c43c 01d6 9c3c
000002a0: 492b 7f3b 71df 023b eba4 1439 45bb cb3a
000002b0: 9d4f 243e 8c58 3a3d 2341 753d 95b1 0b3e
000002c0: c0bc 9f3d d187 b93b 7fd3 083e 17da 2e3d
000002d0: 1f62 813b 5d35 f53d c7a3 c63b c2b9 733b
000002e0: 37b3 b63c 299a 533d 1100 273e 96bf 6938
000002f0: 2a3e 193b 7ff5 d43b 6c7c 233c 2390 283e
00000300: f014 7d3d 8b70 123e 7062 633d e1dd e43d
00000310: bc37 bd3b 40cf ac3d 010f b43d 6713 833d
00000320: ed45 ca3a 5b3b 163c 0eb1 173e cf60 bc3c
00000330: 4468 b537 1be1 c739 4592 ed3c 4856 923d
00000340: 00d6 9c3c f2c8 153e 2e46 6e3d 5db3 e03a
00000350: e9b6 303d c8f7 083e 8bd2 de3d a036 373c
00000360: 15dc 363a 8e61 8a3d acae 0e3d 9472 4e3c
00000370: 7eb1 9238 2c08 293e b88d c93d 9fc0 8a3a
00000380: 994a 143d 2ab4 833c 5d65 323e 9d5a db3d
00000390: 6dce a53d 5466 ea3c efd5 c23b 502a 823d
000003a0: 0b2a b33d 386f 233d e283 243e f842 dd3d
000003b0: fc09 cb34 d6cf 173d def6 d63b 6e5f 0b3d
000003c0: ca2d 093d 5eab 473d 7b97 dc3d 20be d73d
000003d0: de6f 413d 268b ef3b 26b3 043b 875a ae3d
000003e0: 34a3 c53d 07af 203e c510 043b 8af6 993b
000003f0: ea8f c63a f090 a73d cd12 133e 78c6 cc3c
0.004107136 0.042851154 0.013031589 0.009395919 0.13891657 0.14483748 0.046965014 0.13995777
0.06037592 0.067146055 0.08008378 0.09459145 0.06822078 0.10467241 0.15013085 0.08221706
0.0028117322 0.07278449 0.17408387 0.15863547 0.10756825 0.016264353 0.17414555 0.061265994
0.007875295 0.04976929 0.10982334 7.69615e-05 0.015834834 0.14301609 0.020803127 0.008985053
0.026483444 0.07419007 0.00023804582 0.054463394 0.060388252 0.05217304 0.03528951 0.08861553
0.047312126 0.12534624 0.10960855 0.0013093505 0.03596195 0.14583723 0.017461106 0.025567306
0.027571447 0.01407154 0.015177043 0.06925607 0.15443037 0.058619723 0.1382565 0.06173478
0.0023975705 6.2399726e-05 0.008950991 0.06843257 0.02025908 0.010056648 0.00048061396 0.044771656
0.12792738 0.03001263 0.16492142 0.0072305915 0.18315133 0.006157988 0.1368913 0.036460802
0.19177426 0.17183028 0.010098126 0.021709649 0.022586381 0.07410377 0.00363773 0.029104834
0.0037502316 0.09970398 0.14170358 0.080741845 0.043195877 0.0012387666 4.52187e-05 0.00013175275
0.0038373019 9.388783e-05 0.07921029 0.0040347646 0.084424965 0.13466871 0.028700914 0.052824385
0.12626728 0.002149374 0.15964508 0.16664472 0.16828102 0.004663014 0.10490541 0.018034205
0.059716143 0.17910564 0.07305703 0.055407897 0.024004258 0.004066236 0.1558055 0.0009937553
0.04783565 0.0435805 0.010250616 0.006955796 0.00021706623 0.0039699273 0.046887957 0.06955424
1.554402e-05 0.009998906 0.0011548039 0.12537147 0.00057345047 0.025559116 0.021816438 0.0013106599
0.12664601 0.08236502 0.10965935 0.1213128 0.002996797 0.09482683 0.13839117 0.008338779
0.023811845 0.039251614 4.80844e-07 0.040017523 0.027534166 0.0061203847 0.13831593 1.5894164e-05
0.015604981 0.035526495 0.054476395 0.035460714 0.03171074 0.003967738 0.0011906736 0.032870226
0.0053892788 0.001869241 0.016157936 0.1902546 0.13413353 0.051987052 0.0053235684 0.0027134395
0.1572215 0.019773725 0.039670777 0.0062201302 0.013308975 0.10275373 0.024001325 0.019145014
0.0038935712 0.0019969607 0.00014175817 0.0015543482 0.16045995 0.0454946 0.059876572 0.13641961
0.07799673 0.0056619425 0.1336193 0.042688455 0.0039484645 0.11973069 0.0060620042 0.0037189578
0.022302253 0.05166069 0.16308619 5.5729957e-05 0.0023383 0.006498992 0.009978395 0.16461234
0.061787546 0.14300744 0.0555138 0.111751325 0.0057744663 0.08437967 0.08791924 0.06400185
0.0015432216 0.009169425 0.14813635 0.02299538 2.1625434e-05 0.00038123954 0.02900041 0.07145363
0.019145012 0.14627436 0.058172397 0.0017143298 0.043143187 0.13375771 0.10880002 0.011182457
0.0006975544 0.06756888 0.03483455 0.01260056 6.994883e-05 0.16507024 0.09841484 0.001058597
0.036203954 0.01607712 0.1742148 0.107106425 0.08096013 0.028613247 0.005945913 0.06355727
0.087482534 0.03990099 0.16065934 0.10803789 3.781896e-07 0.037063442 0.0065601906 0.034026556
0.033490933 0.048747413 0.1077108 0.1053431 0.047225825 0.007310289 0.0020248382 0.085133605
0.09650269 0.15691768 0.0020151597 0.004698579 0.0015149091 0.081819415 0.1436264 0.024996981

fc1_batch.running_var f4 [400]
00000000: d27d 7039 fd27 2a3b fc6c 473a 7c2c 4b3a
00000010: 5193 ef3b 6df6 d63b 9142 863b 7615 e33b
00000020: b868 8d3b ed17 9c3b 57f4 b33b efa5 c73b
00000030: 5562 693b 0689 aa3b dc59 7c3b 0a92 e53b
00000040: 5b31 2f39 7b27 483b 7f3a cf3b 628b f03b
00000050: abb9 803b f82d 143b b91d 093c f25c ac3b
00000060: 3917 023a 8c09 533b fcd7 b23b e1f6 fb35
00000070: ad9c ab3a 5081 9c3b 2cd0 d73a aa24 3b3a
00000080: dda8 1f3b f66f b93b ba64 a837 13aa 5e3b
00000090: 8aa9 b53b 892b 553b d245 023b a2e2 ae3b
000000a0: dbc3 5e3b 9aee b93b 11dc 4e3b a143 8338
000000b0: 0eb1 583b 6f8f 043c 7622 a13a 52ea 2d3b
000000c0: c7a8 083b 6ff9 593a 3b3a 9a3a 1449 9f3b
000000d0: 448a 113c 3eb3 923b a381 7d3b 768b 9e3b
000000e0: 4757 3b39 6ad1 9735 dc2a 053a 1604 7b3b
000000f0: e222 903a d72f 513a b3d4 6f37 d109 483b
00000100: ece4 b63b f15b 283b 5db7 cb3b b224 323a
00000110: 6556 933b 8bef 153a 07b6 f53b 42a5 1b3b
00000120: 6db6 003c ed93 163c bde9 2b3a a07c b03a
00000130: c0aa f13a 4140 9e3b b7ef 4c39 6be0 343b
00000140: 8775 3f39 59b1 ba3b 1f5e 083c 09f4 9e3b
00000150: 6031 753b c9d3 7938 cf1f 0435 64be 8736
00000160: ffe4 8c39 5fa5 5b36 5276 893b 698d 9439
00000170: 127c 973b a8e6 e43b 6e1d d73a dd4d 843b
00000180: cdd0 d63b 6c52 1439 ea66 df3b c279 143c
00000190: 474a c73b c891 ad39 1549 893b bf4e 193b
000001a0: bd2b 983b f995 853b c8d7 9f3b 6516 873b
000001b0: 6559 1b3b c087 3a39 063b f63b 39e1 8738
000001c0: acbc 553b b56b 3e3b dea7 0d3a 18d3 413a
000001d0: 83f8 fa36 ca65 ae39 2f46 3c3b 8c87 783b
000001e0: ec6e b234 39be 373a a5e0 5b38 787b e83b
000001f0: 1db7 8e37 69d6 ed3a d427 e23a fba8 cb38
00000200: 1162 9d3b c14a b23b 497f eb3b 0508 a73b
00000210: c0e8 5039 ad57 d03b 1cf7 333c 9d41 0d3a
00000220: 7899 e03a f33a 283b 060e 0d31 82bf 453b
00000230: e264 173b 9c16 cd39 c8f1 123c 2423 9534
00000240: 79be 8c3a fdda 2f3b c3ca 9a3b 19de 1d3b
00000250: ce56 013b 14f6 8739 74a4 8538 b928 513b
00000260: 216b 2f3a 12b1 bf38 7256 973a 79aa 073c
00000270: 5a9b 313c ea39 5f3b ef28 063a 9c46 3639
00000280: 1c5e 2b3b c920 943a f485 f93a 7d07 1d3a
00000290: 04fe 8f3a bf9f 0c3c 37e5 f33a f268 b03a
000002a0: d381 7839 19bc fa38 b8ff 8b36 437d fe38
000002b0: 95e0 ea3b 9da5 a03b 5cdf ab3b 521e 8c3b
000002c0: f2a0 963b 97e2 5a39 ecda 2c3c 3fbd 853b
000002d0: 4bb1 a039 2391 e83b 8a61 143a 8c94 8939
000002e0: c2d6 263b 191c 233b a318 0d3c 24a7 6435
000002f0: 6bfb 4939 65f8 0b3a da52 2d3a eb1a fc3b
00000300: 192e aa3b e585 fd3b 6376 893b 6fa9 313c
00000310: a157 b739 af7c 9e3b 41b7 023c ed65 6f3b
00000320: 2ca1 be38 eb47 1c3a af6e 4a3c a5dc cb3a
00000330: e80c d934 067b b937 501b 393b a724 6e3b
00000340: 42a2 c53a 851a 043c 37c6 813b 4111 c938
00000350: b1f0 593b 7b24 283c b856 d93b 4193 ad3a
00000360: a980 0538 6944 a53b 5326 5c3b e50e 413a
00000370: 3ad3 4735 0fe8 c83b 75f6 af3b 24c5 3338
00000380: 7779 233b eefa 893a 6bfe 143c cdf8 053c
00000390: 26df 063c 3e3b 613b 62af 473a 618b b93b
000003a0: b03d b93b e908 633b 4ce4 2b3c a735 053c
000003b0: 86e7 3331 78fe 493b 427c b439 4a59 433b
000003c0: e120 2a3b 33f3 853b 1d51 0f3c 70f2 de3b
000003d0: fa77 8c3b 14d5 f039 c26d 0539 209a b63b
000003e0: 0f30 fe3b 8c86 d33b 72f7 0939 2d04 7f39
000003f0: e52b 6738 07d0 c93b c3a0 b73b d354 083b
0.00022935055 0.0025963776 0.00076074875 0.0007750464 0.0073112627 0.006560138 0.004097291 0.0069300486
0.004315462 0.0047635944 0.005491774 0.006092779 0.003561159 0.0052043227 0.0038505709 0.0070059346
0.00016707687 0.003054111 0.006324112 0.0073408345 0.0039283833 0.0022610407 0.008368903 0.0052601034
0.0004962567 0.0032201735 0.0054578763 1.8772809e-06 0.0013092958 0.0047761574 0.0016465238 0.0007138947
0.0024362125 0.0056590987 2.0074065e-05 0.0033975884 0.0055438923 0.003252717 0.0019878042 0.0053370753
0.003399125 0.0056741955 0.0031564275 6.259164e-05 0.0033064517 0.008090838 0.0012293595 0.002653737
0.0020852552 0.00083150616 0.0011766622 0.0048610065 0.008883063 0.0044769337 0.0038682006 0.0048384024
0.00017866223 1.1311324e-06 0.0005079934 0.0038301996 0.0010996724 0.0007979846 1.4295033e-05 0.003052343
0.005581489 0.0025689567 0.006216927 0.0006795629 0.004496383 0.00057195936 0.007498506 0.0023749624
0.007855994 0.009190542 0.0006557962 0.0013464876 0.0018437728 0.004829437 0.00019544257 0.0027599584
0.00018258962 0.005697411 0.0083232215 0.0048508686 0.0037413463 5.9563466e-05 4.922012e-07 4.045478e-06
0.00026873496 3.2729802e-06 0.004195013 0.00028334119 0.0046229446 0.006985504 0.0016411969 0.0040376023
0.0065556527 0.00014145084 0.0068176882 0.009062232 0.0060818526 0.00033105747 0.0041896203 0.0023392884
0.004643886 0.004076716 0.004878018 0.0041225427 0.0023704406 0.00017788913 0.0075143604 6.4792526e-05
0.0032613678 0.0029055898 0.00054037373 0.0007393821 7.479511e-06 0.00033263705 0.0028728356 0.003792259
3.323579e-07 0.00070092414 5.2422885e-05 0.0070947967 1.7012988e-05 0.0018145564 0.0017254301 9.7112694e-05
0.00480295 0.0054410403 0.0071868044 0.0050973915 0.00019923132 0.006358108 0.010984208 0.00053885
0.0017135581 0.0025669902 2.0526172e-09 0.0030173962 0.0023100902 0.00039117492 0.008968778 2.777898e-07
0.0010737918 0.0026833408 0.004723878 0.002408868 0.0019735578 0.0002593255 6.372566e-05 0.0031915142
0.00066916837 9.140572e-05 0.0011546148 0.00828039 0.010840261 0.003406162 0.0005117794 0.00017383177
0.0026148623 0.0011301275 0.0019037114 0.00059901905 0.0010985737 0.008583008 0.001860774 0.001345901
0.00023699486 0.00011955965 4.1722924e-06 0.000121349956 0.0071678855 0.004902555 0.0052451324 0.0042760754
0.004596823 0.00020874511 0.010550242 0.004081398 0.00030649672 0.00709738 0.00056602864 0.00026241352
0.0025457595 0.0024888574 0.008611831 8.517984e-07 0.00019262514 0.0005339443 0.0006611772 0.0076936386
0.0051934836 0.0077369087 0.004195021 0.010843619 0.0003496977 0.004836641 0.007978261 0.0036529258
9.0899266e-05 0.00059616443 0.012355491 0.0015553428 4.042879e-07 2.2111006e-05 0.002824504 0.0036337764
0.0015078264 0.008062963 0.0039603966 9.587641e-05 0.0033255036 0.010262604 0.006632652 0.0013242738
3.1829495e-05 0.0050435555 0.003359218 0.0007364585 7.444065e-07 0.006131179 0.005369956 4.2860527e-05
0.0024944225 0.0010527053 0.009093861 0.0081769945 0.008231914 0.0034367586 0.00076173816 0.005662367
0.0056531057 0.0034642762 0.010491442 0.0081304675 2.6179534e-09 0.0030821841 0.00034424855 0.002980786
0.0025959539 0.0040878295 0.008747366 0.006803803 0.0042867633 0.00045935123 0.00012724756 0.0055725724
0.007757194 0.006455248 0.00013157519 0.0002432025 5.511557e-05 0.006158832 0.005603881 0.0020802512

fc2.weight f4 [300, 400]
00000000: 9d2a 403d e66c 85bc ebfc f8bc 8f34 c43c
00000010: 9f37 213d cf7d 2a3d e812 333d eac3 b1bc
00000020: 0912 a43c 0837 bc3c 3b01 283d 6acf 143d
00000030: 3dd8 533d a5a8 43bd 6ef5 c4bc a104 6b3d
00000040: 97e1 0a3d dc7d 44bc 8124 243d 3cef 27bd
00000050: 0bad df3c e6ba febc ef1f d23c 9439 4bbb
00000060: 5456 9f3c 53a5 60bd d39d d3bc 4484 2a3d
00000070: df6f dc3c 6365 d93c 4e4d 2f3d 7d27 9cbc
00000080: 2490 7f3c 7fe1 e0b9 6b7f 1ebd 5d27 753c
00000090: 8769 1fbd 7681 afbc f921 4d3c 5e92 c73c
000000a0: cae3 433d 8229 4b3d 5a39 87bc 8e49 483d
000000b0: 93e8 c83c 022a 8bbc 4db7 28bc 17a1 613d
000000c0: a35d 413d 6459 babc 713c 0f3d fe86 22bc
000000d0: 3487 59bd 86f3 46bd c7e1 633c 6b9f 35bc
000000e0: 6b09 6b3c 2dd3 65bb c9d4 52bc e415 cb3c
000000f0: 14bc 0d3d a40b 1dbd ffcf f7bc 1463 2cbd
00000100: 84ef 1fbc 5c9b d9bc f9fe dbbc baaa 62bd
00000110: e994 f33b 81d7 303c 366b fd3c 81d5 e0bc
00000120: 4b8b 843c f227 0a3d 68c0 06bc bbff 7b3c
00000130: f0d7 773b 5fa7 02bc b47e 04bd fb8f 67bd
00000140: 0be2 9ebc 8135 1a3c ff1e f7bc e131 b1bc
00000150: d2b8 88bc 7b65 e1bb b202 debc 70bc 903b
00000160: 898b 1a3d e815 263d 6f6a 1bbd 2626 303d
00000170: ea6b babc 56ee 25bd ad55 e73c 29e6 64bb
00000180: 5259 e4b9 f0ea 3fbd 8f6b 2c3d ac86 2a3d
00000190: 47a7 eebc ee91 973c dc46 b9bc e09b 08bd
000001a0: e23f dd3c 062b 013c 02be 1b3d 46ed 523d
000001b0: a427 343d 2a5e b33b 93ec d83c ad91 1b3c
000001c0: 0157 6cbd fb3d f6bc 3382 60bd 2b86 02bd
000001d0: 0b0d 2cbd 3523 3bbd 1ffb 5dbd 4a80 bebb
000001e0: e488 42bc 2651 513d 4895 61bd cd12 19bc
000001f0: 4520 47bd ca62 003d 69d1 3dbd beb7 923c
00000200: 50cc 3839 8d12 103b f0ed 62bd dc2f cfbc
00000210: dfc5 44bd f0a4 4a3d a28d ebbc 1b64 03bd
00000220: b116 1cbd 16e5 453c 75dd 5e3d c180 ae39
00000230: a456 443d 63bd 273d 737b 46bc 4989 063d
00000240: 0066 4e3b 9246 2c3d 258b 243d d60b 14bd
00000250: 3276 44bc ac64 dfbc 2aac 4f3d 3cfb b3bc
00000260: 04e9 0abd 21bc 1c3c 01da e8bc 92c8 1e3d
00000270: 437a 1c3d a78f f9bb 0a7d 36bd b23b 333d
00000280: f989 b73b b018 293d 6a93 ae3c d6ea d5bc
00000290: 1056 9c39 7fce a2bc 3d6c fcbc 8098 3cbc
000002a0: 5731 053d 4421 68bd 018f 4a3d aaf9 40bd
000002b0: 46ac ac3c ec6f b83b 6093 77bc 16f9 283c
000002c0: 7e12 32bc 6989 48bc 3aa0 493d 09f1 23bd
000002d0: 219b d03c a39d 06bd ecee 413c 5b87 09bd
000002e0: 3f47 553d cc44 9d3c 50ed ba3c 6398 efbc
000002f0: 9944 43ba c33a d53c 8d4e b63c 5dab c33c
00000300: 24c8 483d 917f a03c 7f9f 3f3c 05e0 dbbc
00000310: 9513 9d3c 9cb0 1fbd 3e7d 0e3c 42ee c63c
00000320: f882 cb3c 6196 873c 4a67 513d 54c6 433d
00000330: 72bf 663c 3450 673d 665b 16bd 970c 403d
00000340: 7763 2f3d 24f2 413c 23dd 78bc 0b20 473d
00000350: 7099 6f3c b151 343d ab3a 133d 4651 06bd
00000360: 7bfc 4ebc 6959 893c 9f57 af3c d60e 053d
00000370: d016 943c 0cd7 fc3b 88ea 48bc 554d 523d
00000380: f4c5 be3c 5e54 4f3d 6069 77bd b506 11bd
00000390: cb30 593d 3064 153d a2d2 50bd 46c6 16bd
000003a0: b43f f63c db0c 3cbb 2518 e5bb 2732 0dbd
000003b0: eca9 643c c370 b0bc 6135 f13a 56d5 423d
000003c0: 1576 ee3c ed88 57bc d4e5 b53c 8d2b 01bd
000003d0: 1d8f d43c adc8 053d 4d15 ca3c 893a a73b
000003e0: 1d40 4c3d fe62 a4bb 5bec 433d 777c 323c
000003f0: c2f4 3dbd f994 dd3c df20 653d d3a5 693d
0.04691564 -0.016287278 -0.030394038 0.023950843 0.039359685 0.041623887 0.043719202 -0.021699864
0.020028131 0.02297546 0.0410168 0.036330618 0.051719893 -0.047768254 -0.024042811 0.05737746
0.033906545 -0.011992898 0.040073875 -0.040999636 0.027304193 -0.03109498 0.025649993 -0.003100966
0.019450344 -0.054845165 -0.025832092 0.041630045 0.026908813 0.026537603 0.042798333 -0.019061798
0.015598331 -0.00042892617 -0.038695734 0.014962998 -0.038918998 -0.021424036 0.012520307 0.024361786
0.04782466 0.04960013 -0.01650684 0.048898272 0.024524963 -0.016987804 -0.010297609 0.055085268
0.04720844 -0.022747703 0.03496975 -0.00991988 -0.053107455 -0.048572086 0.01390881 -0.0110853715
0.014345507 -0.0035068498 -0.012868115 0.024790712 0.034603193 -0.03834118 -0.030250547 -0.042086676
-0.009761695 -0.026563339 -0.026854979 -0.0553386 0.007433523 0.010793568 0.030934911 -0.027445557
0.016179701 0.0337295 -0.008224584 0.015380795 0.0037817918 -0.007974475 -0.032347396 -0.056533795
-0.019394895 0.00941217 -0.030166147 -0.02163023 -0.016689692 -0.0068785525 -0.027100895 0.0044169948
0.037730727 0.040548235 -0.0379433 0.04300513 -0.022756536 -0.040510498 0.028239096 -0.0034927225
-0.00043554098 -0.046854913 0.042094763 0.04163234 -0.029132498 0.018502202 -0.022616796 -0.03335178
0.027008 0.007883793 0.038023002 0.051495813 0.043983117 0.0054738717 0.026479995 0.009495181
-0.05770016 -0.030058851 -0.054811668 -0.031866234 -0.042004626 -0.045687873 -0.054194566 -0.005813633
-0.011873458 0.05110278 -0.055074006 -0.009342861 -0.04861476 0.031344213 -0.046342287 0.01790988
0.0001762372 0.0021983713 -0.055402696 -0.025291376 -0.048040267 0.049473703 -0.02875406 -0.03207789
-0.038107578 0.012078544 0.054410417 0.00033283795 0.04793419 0.040952098 -0.0121143935 0.03284577
0.0031493902 0.04205949 0.04017176 -0.0361441 -0.011991071 -0.027269684 0.050701298 -0.021970384
-0.033913627 0.009566338 -0.028424265 0.038765498 0.038202535 -0.0076160016 -0.04455284 0.0437581
0.0056011644 0.04128331 0.021310527 -0.026112955 0.0002981876 -0.019873856 -0.03081333 -0.011510968
0.032517757 -0.05667235 0.049452785 -0.0471131 0.02107824 0.0056285765 -0.0151108205 0.010313293
-0.010868667 -0.012239792 0.04922507 -0.04002479 0.025464596 -0.032865178 0.011836749 -0.03357635
0.0520699 0.019197844 0.022818238 -0.029247468 -0.00074488815 0.026028996 0.022254253 0.023885423
0.049018994 0.019592078 0.011695742 -0.02684022 0.019174377 -0.038986787 0.008696852 0.024283532
0.024842724 0.016551198 0.051123895 0.047796562 0.01408373 0.056472972 -0.036708258 0.046887007
0.042819466 0.011837516 -0.015189442 0.048614543 0.014623985 0.04402322 0.035944622 -0.032792352
-0.012633438 0.016766267 0.021404086 0.03248485 0.018077284 0.0077160653 -0.012262948 0.05134328
0.02328775 0.05061757 -0.060403228 -0.035406787 0.05302505 0.0364725 -0.050982125 -0.036810182
0.030059673 -0.0028694186 -0.0069914036 -0.034471657 0.013956528 -0.021538144 0.0018402749 0.047566734
0.02910904 -0.013155204 0.022204317 -0.031535674 0.025947148 0.032662082 0.02466836 0.0051034135
0.04986583 -0.0050166836 0.047832828 0.010893933 -0.046375997 0.027048575 0.05593955 0.057042908
