ContinuousControl/actor.pth (torch_old, 40808 bytes, 8 tensors)

fc0_batch.weight f4 [33]
000000 dd 28 1b 3f b5 fd 79 3f be 7a 8b 3e d6 6b ae 3d
       0.6060923 0.9765275 0.27242082 0.08516662
000010 bb 5a 9d 3e be db 28 3f 64 20 0e 3f 5d ef 87 3f
       0.30733284 0.659603 0.55518174 1.0619923
000020 e5 89 01 3f b0 0d 47 3f a0 dd ec 3e 63 54 12 3f
       0.50601035 0.7775526 0.46262836 0.57160014
000030 f7 db 20 3e d5 ee de 3e c7 99 25 3f 93 a1 48 3f
       0.1570891 0.4354159 0.6468777 0.7837154
000040 b5 46 30 3f 9c a3 62 3f 7d 6d 17 3d 89 6f 7b 3e
       0.6885789 0.885309 0.03696965 0.24554266
000050 5d fd 5d 3f e1 80 8b 3f 86 03 fc 3e 82 9a 84 3f
       0.86714727 1.0898706 0.49221438 1.0359652
000060 b8 04 47 3f c6 a0 6d 3f 33 b2 a2 3f 90 21 14 3d
       0.77741575 0.92823446 1.2710632 0.03616482
000070 6b 84 00 3f 90 30 bf 3e 12 36 9c 3e 94 97 6e 3f
       0.50202054 0.37341738 0.30510002 0.9320004
000080 aa 5e 18 3e
       0.14879861

fc0_batch.bias f4 [33]
000000 7e 1c 91 bc 62 db a6 bd 56 7c af bd 22 6b 38 3e
       -0.017713781 -0.08147313 -0.08568637 0.18009618
000010 59 de a2 3d ff 32 0f bc ff 19 6c bd c2 af 3a bd
       0.07952566 -0.008740186 -0.05764198 -0.045577772
000020 c0 eb 09 3e 4e 5d 40 bd ef 62 10 be 76 29 9c 3d
       0.13468838 -0.046963982 -0.1410024 0.076250955
000030 81 82 5b 3e 6d 2e 4e 3d 0b 6d ae bd 68 ac b0 bc
       0.21436502 0.050337244 -0.08516892 -0.021566585
000040 05 27 1e be f4 9b 03 be 2b 74 44 3e 18 25 1b 3e
       -0.15444572 -0.1285246 0.1918494 0.15150869
000050 bd 5b 63 bd 4b 69 1f 3e 68 bc 22 be 82 82 a2 bd
       -0.05550741 0.1556751 -0.15892184 -0.07935049
000060 1b e0 56 3d a4 f8 4b 3d 9c 2f 7b 3d 1f ed 4d be
       0.052459817 0.04979767 0.0613247 -0.20109986
000070 79 c6 05 be f8 60 47 be b7 e2 50 3e 11 d5 48 3e
       -0.13063993 -0.19470584 0.20398985 0.19612528
000080 68 62 4b 3e
       0.19861758

fc0_batch.running_mean f4 [33]
000000 7d c6 ab 3e 45 08 e5 bf 4a 5f 27 3c ca 3d 25 3e
       0.33549872 -1.7893149 0.01021559 0.16136852
000010 8c 38 7c 3c 7e 7c c5 bc 38 e9 20 bb 01 2f ae 3e
       0.015394341 -0.024107214 -0.0024553072 0.34020236
000020 88 bd 0e 3d e0 5b 09 bd ff 89 97 bd 3f 6a f8 3d
       0.03484872 -0.033534884 -0.073993675 0.1212964
000030 dc 19 33 be 34 df 1e 3e 62 e0 46 c0 64 76 80 be
       -0.17490333 0.15514833 -3.1074452 -0.25090325
000040 89 63 23 3b b1 c9 cf 3b 76 bc 1f bb e0 9c f6 bb
       0.0024931154 0.006341182 -0.0024373806 -0.007526025
000050 c3 42 16 40 6a d6 df 3d c7 59 47 be a2 61 78 bd
       2.3478248 0.10929568 -0.19467841 -0.060639985
000060 46 c1 cb 3e 0f 4d 73 be 50 a4 be bd fc ff 7f bf
       0.39795893 -0.23759864 -0.09308684 -0.99999976
000070 8f 13 27 be 00 00 00 00 fc ff 7f 3f 00 00 00 00
       -0.16316055 0.0 0.99999976 0.0
000080 4a ed e5 bc
       -0.02806725

fc0_batch.running_var f4 [33]
000000 d8 1b 9d 40 9b 6e 73 40 b9 fb 82 40 be f0 d3 3e
       4.909649 3.8036258 4.093228 0.4139461
000010 b8 5b f2 3d 32 aa 92 3e 3f 78 20 3e fa 2b 3b 40
       0.118339 0.28645474 0.1567087 2.924559
000020 9b c6 8b 3e ea f4 39 3f 53 ac 3a 41 f7 b6 6a 41
       0.2729996 0.72639334 11.667071 14.669669
000030 e2 81 84 41 57 42 78 41 fa db 63 41 6d 4e 64 41
       16.56342 15.516196 14.241205 14.269147
000040 72 aa 8a 3e 58 5d 71 3e 57 fc 65 3e 17 aa 8a 3e
       0.27083164 0.23570764 0.22459541 0.27082893
000050 66 a9 48 40 64 34 11 40 3a 2b 52 40 ca dd f6 41
       3.1353393 2.2688227 3.2838883 30.858295
000060 3c 2c ad 42 d8 fe a1 42 0b 61 fd 41 04 00 00 00
       86.586395 80.99774 31.672384 6e-45
000070 52 f5 00 42 04 00 00 00 04 00 00 00 04 00 00 00
       32.23957 6e-45 6e-45 6e-45
000080 68 56 95 3e
       0.29167485

fc1.weight f4 [256, 33]
000000 e8 a0 a0 ba e3 f2 7e 3e 10 f1 94 bd 50 6b 00 3e
       -0.0012254985 0.24897341 -0.072725415 0.12540936
000010 89 27 43 3d 90 bb 39 be bb 9e 11 be 10 f9 05 be
       0.047645126 -0.18137956 -0.14220707 -0.13083291
000020 c5 8a 14 3d da ad 09 be 6d 7b 27 be ec 55 28 3d
       0.036265153 -0.13445225 -0.16355677 0.041097566
000030 31 a5 81 3e 7a 62 26 3e e4 dc ff 3d a3 b3 f2 3d
       0.25321344 0.16248503 0.124933034 0.11850669
000040 13 10 ad bd 15 b5 e5 ba 21 5f c0 3d 9f 25 cc bb
       -0.084503315 -0.001752528 0.093931444 -0.0062300707
000050 b5 83 38 be 7a 3f 7d bc b7 6a 3a bc 6d 71 2d be
       -0.18018992 -0.0154570285 -0.011377982 -0.169378
000060 55 4e c7 bd 4a 12 cd 3e 82 62 3c bd d7 9e 42 be
       -0.097317375 0.40053016 -0.045992382 -0.19005905
000070 5a d6 12 3d 68 1e 49 be 0a b7 79 3e 83 64 40 3e
       0.035848953 -0.19640505 0.2438623 0.18788342
000080 8c a6 a4 3d b3 1f cb 3d b0 df 22 bd 8d 94 48 bd
       0.08039579 0.099181555 -0.039764106 -0.048969794
000090 44 d3 e8 3d 0d 7c ab bc 25 33 bf bb 0d db 69 bd
       0.11368421 -0.020933175 -0.0058349543 -0.05709367
0000a0 45 3f c6 bd ba 30 7f bc 19 c7 bb bd 4a 3d 09 bc
       -0.096800365 -0.015575582 -0.09168834 -0.008376429
0000b0 f1 4f 14 3d f3 df 4e 3e 4e bb 22 3e ce 18 e1 bd
       0.03620905 0.20202617 0.15891764 -0.10991059
0000c0 f2 bc d0 3d 86 f1 08 3d 24 d0 9f 3d d9 ef 6f 3d
       0.101922885 0.03343346 0.078033715 0.058578346
0000d0 1c 4a 5a bd ca 6f 95 bd 7e 15 f8 3d ef d2 bc bd
       -0.053293332 -0.07296713 0.12113474 -0.0921992
0000e0 ea a6 bf 3c d5 1b 92 bc 26 17 c6 3d e3 44 2d 3e
       0.02339502 -0.017835537 0.09672384 0.1692081
0000f0 51 c9 37 be 47 01 0d 3d 74 45 17 be a7 08 30 3e
       -0.1794789 0.034425046 -0.14772588 0.171908
000100 bd d9 9f 3d b7 ec 6d 3d cb e0 15 bc 7d cf c9 bd
       0.07805202 0.058087077 -0.009147833 -0.098540284
000110 17 e8 da bd 7f f4 9e 3b 32 cc b7 3c 54 f4 b9 ba
       -0.10688799 0.0048509235 0.022436235 -0.0014187195
000120 a9 be 6e bd 43 71 bf 3d 6f 5a 54 3c da 21 5d 3b
       -0.058287296 0.09347775 0.012961014 0.00337421
000130 f3 18 a8 3c d5 d2 b0 3c 8c d2 e9 bc 82 61 0b bd
       0.02051971 0.021584908 -0.02854278 -0.034028538
000140 30 87 80 3d 31 3c 3b be 49 82 1e 3b 48 c8 48 bd
       0.06275785 -0.1828468 0.0024186543 -0.049019128
000150 dc 47 d5 bc 7e 2f 0f bd 8c 3d 8d bd 24 bf ba bd
       -0.026035242 -0.0349574 -0.06896505 -0.091184884
000160 1d 31 17 3c 16 9b 19 3c 43 16 39 3e 29 50 3b 3d
       0.009228018 0.009375354 0.18074898 0.045730744
000170 a6 67 82 bd a1 cf c6 bd 24 86 47 be 02 ea 9b bd
       -0.063674256 -0.09707571 -0.19484764 -0.07612993
000180 2e b5 58 3c e6 7c 87 3d b4 c3 f7 3a ef 2b b5 3d
       0.01322679 0.06615619 0.0018902929 0.0884627
000190 16 85 fe bd 8d 0a 3e bd af 2d a2 3d 4a f7 35 bd
       -0.12427728 -0.04639678 0.0791887 -0.044425286
0001a0 9b 9c f3 bc 3d ea df 3d 0c e1 3e bd 0d 3b 8e bc
       -0.029737761 0.10933349 -0.04660134 -0.017362142
0001b0 4b 69 d0 3d b8 03 9d 3d f5 61 fc bc 36 95 5d 3d
       0.10176333 0.07666725 -0.030808428 0.054097377
0001c0 06 ff 9a 3d e9 c5 57 be 79 26 08 be 23 f6 2c 3c
       0.07568173 -0.2107159 -0.13295926 0.01055673
0001d0 78 36 a1 bd bb c2 99 3c 6c 66 d8 3d 6e dd f7 3d
       -0.07871717 0.018769613 0.105664104 0.12102781
0001e0 1d 25 7e bd 4b 74 79 3d 16 1d e0 3d 1a 11 4e bb
       -0.062047113 0.06090192 0.10943048 -0.0031443299
0001f0 8c c3 1e bc 14 f9 56 be 2b 19 bc bd dd 1f 3d be
       -0.009690177 -0.20993453 -0.09184488 -0.18469186
000200 15 8c 19 be 66 de cf 3d d9 58 b0 3d 66 eb c1 3c
       -0.14994843 0.10149841 0.08610696 0.023671817
000210 47 fd 40 bb 1d 06 83 bd f2 4f f6 bd 02 fa 23 b9
       -0.002944784 -0.063976504 -0.12026967 -0.00015638027
000220 d8 5e 6a bc 84 1f 04 bd b0 68 c7 bc 3f 8e 05 3e
       -0.014304839 -0.03225662 -0.024341911 0.13042544
000230 16 df 01 3d 48 c1 a0 bd 7f b0 2c bd dc 0d cf 3d
       0.031706892 -0.078493655 -0.042160507 0.10110065
000240 da 8b 02 3d 6d 3b d8 bb b3 e5 06 3e 25 c7 4b be
       0.031871654 -0.006598881 0.13173561 -0.19900186
000250 d9 25 9d 39 76 21 98 3d e2 43 6f 3d 95 92 6b bd
       0.00029973572 0.07428257 0.058414347 -0.05751284
000260 5b 10 54 bd 5a 1d 11 be 5b 6c 78 bb 93 b3 79 bd
       -0.05177341 -0.14171353 -0.0037906382 -0.06096227
000270 f9 d3 8e 3e dc 97 56 3d bb 61 09 3e 51 59 ca bd
       0.27896097 0.052390918 0.13416187 -0.09880317
000280 25 8e 81 be 6c dd b6 bd 5c 4a 0e 3d 3d 57 4e 3c
       -0.2530376 -0.089289516 0.034738883 0.012594041
000290 f7 31 98 3c 8e ae ab bd c9 a1 ff bc ae 10 63 bd
       0.018578513 -0.08382903 -0.031205075 -0.05543583
0002a0 22 c1 ea 3d 8b ba 20 b9 6d ec aa 3c 0a f3 97 3d
       0.114626184 -0.00015328282 0.02086469 0.07419403
0002b0 d5 f9 76 be 8b d9 ea 3d fe a3 37 be 91 a2 82 bd
       -0.24118741 0.11467274 -0.17933652 -0.06378663
0002c0 ca 7b ae bc d7 f4 76 3e e3 bc 81 3d 8d 9b 0a be
       -0.021299262 0.24116836 0.063348554 -0.135359
0002d0 fc f1 26 3e b6 5a 53 bd a5 a4 7b bd b5 68 04 3e
       0.16303247 -0.05160018 -0.061436314 0.12930568
0002e0 5b 4e d1 bc 08 98 71 3d 8e 5c a6 3d 34 27 28 be
       -0.025550058 0.05898288 0.08123122 -0.16421205
0002f0 05 9c 5d 3c a3 df 45 be d6 52 5e bb 4b 9d 08 3e
       0.0135259675 -0.19323592 -0.0033923886 0.13341253
000300 e9 45 1a be a0 62 b8 3d 3e 3c f2 bd 05 36 4e 3e
       -0.15065731 0.09003186 -0.118278965 0.20137794
000310 8e 05 26 3e 1f 52 fa 3d 45 67 bb 3d 79 bf 62 bc
       0.16213056 0.122226946 0.091505565 -0.013839596
000320 aa ca 3d bd 95 57 a6 3d 1e 00 48 3d 9e f2 1b bb
       -0.046335854 0.08122174 0.048828237 -0.0023795734
000330 b2 af 9b bd ae 7b b9 3d 97 55 bf ba a6 08 08 be
       -0.076018706 0.09056793 -0.0014597651 -0.13284549
000340 7f 78 da bd c6 7c 18 3e 39 7e ab 3d fb cb 07 3e
       -0.10667514 0.14891347 0.083736844 0.13261406
000350 8a 95 5b 3c 8e 6e ad bc d7 e7 b4 3c 14 25 b1 3d
       0.013402352 -0.02117088 0.022083206 0.0864965
000360 95 a9 aa 3d eb 55 0b bd 9e 95 16 be 6c 70 fe bc
       0.083331265 -0.034017485 -0.14705512 -0.031059466
000370 45 6a da bc 84 1d 85 bd c2 16 ee 3d 46 e0 fe 3d
       -0.026662001 -0.0649977 0.116254345 0.124451205
000380 12 61 7a 3e d6 6d 70 bd 66 ad 33 bd e5 21 05 be
       0.24451092 -0.058698498 -0.043866538 -0.13001211
000390 b7 a7 09 3e 00 14 db 3d 92 cd 98 3d 18 bd 87 bc
       0.13442884 0.10697174 0.074610844 -0.01656966
0003a0 c9 a9 2a be ca eb ac bd 91 64 ba 3d 6f c7 9d 3d
       -0.1666633 -0.08443411 0.09101213 0.077040546
0003b0 00 29 08 bd 56 d0 21 bd aa 77 68 bd cd e0 fe 3c
       -0.033242226 -0.039505325 -0.056754746 0.031113053
0003c0 43 77 2c 3d a1 96 85 bc c8 cb d6 bc a8 f8 9b 3d
       0.042105924 -0.016307177 -0.026220217 0.07615787
0003d0 ca e9 a7 3b d7 5e 03 be a7 45 1d be e1 55 c4 bb
       0.0051243054 -0.12829147 -0.15358602 -0.005991683
0003e0 67 04 dc bd 9a f3 ae 3d 95 af 02 3e d8 a2 1a 39
       -0.10743027 0.08542557 0.12762292 0.00014747248
0003f0 21 e2 71 bc cc da 99 3c c7 43 b3 3d d3 a4 aa 3d
       -0.014763386 0.018781088 0.08753162 0.08332219

fc1.bias f4 [256]
000000 dd f5 03 3e 99 98 0f 3e 17 d9 61 3d 14 e1 61 3e
       0.12886758 0.14023055 0.055138674 0.22058517
000010 ae fc 07 3e 6f c9 83 3d 27 8b 31 3e bf 43 3f bd
       0.13279983 0.06434905 0.17338239 -0.046695467
000020 a0 94 43 bc c2 b6 14 3e 6c 6b 6a bd ea 5c 93 3d
       -0.01193729 0.14522842 -0.05723135 0.07195456
000030 2b 65 75 3c 50 8a c9 3d 27 ab 0b 3e 37 91 2b 3e
       0.014977734 0.09840834 0.13639508 0.16754614
000040 bb ec a9 3d 40 66 8d 3d 9a 56 29 3e cd 63 d6 bd
       0.08297106 0.06904268 0.16536942 -0.10468254
000050 8d d4 57 bd d1 e7 c3 bd b0 c0 2f 3e 66 dd 2d 3e
       -0.05269294 -0.095657 0.17163348 0.16978988
000060 4a 03 13 3e cf 48 1d 3e 50 64 01 3e 1b ec ae 3d
       0.14356723 0.15359806 0.12635922 0.08541127
000070 c3 31 4d 3e 03 f1 c8 3d 3e 4b f2 3d 28 be 33 3c
       0.20038514 0.09811594 0.118307576 0.01097063
000080 33 64 1c bd 40 31 26 3e 24 93 15 3e 6c 51 bf 3d
       -0.038181495 0.16229725 0.14606911 0.09341702
000090 28 10 91 3d be 7f ff 3d 21 80 35 3e f7 c0 ea 3b
       0.0708316 0.12475537 0.17724659 0.0071641165
0000a0 f8 18 f4 3d 15 39 a6 3d 65 7b ff 3d 05 8a 0a 3e
       0.11918825 0.08116356 0.124747075 0.13529213
0000b0 2b eb a4 3c 1c 8e 91 3e 95 a8 8e bd 42 48 18 3e
       0.020131668 0.28428733 -0.06965748 0.14871314
0000c0 e2 26 66 3e 9e b7 3f 3e c5 7b ff 3d 1f 25 36 3e
       0.2247577 0.18722388 0.12474779 0.17787598
0000d0 71 d0 20 be 0d 13 0a 3e 11 72 f0 3d e5 f8 57 3e
       -0.15704514 0.1348383 0.117405064 0.2109104
0000e0 35 f1 4b 3e b2 00 43 3e 51 65 d4 3d b6 42 b1 3d
       0.19916232 0.19043234 0.10370887 0.08655302
0000f0 87 7a f6 bd c0 a9 56 3c 4e 2e f1 3d 68 e3 9d 3e
       -0.12035089 0.013101995 0.1177641 0.3083756
000100 f2 2e 67 3c cd 49 07 3e 31 88 1a 3e 84 db 0a 3e
       0.014110314 0.13211747 0.15091015 0.13560301
000110 0b 7b 0f 3d ba e3 1a 3e 3b f7 af bd 99 90 65 bd
       0.035029452 0.15125933 -0.08592077 -0.056046102
000120 8d 67 e2 3d 71 cd 96 3d cb 0b 1f 3e e4 28 a1 bc
       0.11054907 0.073634036 0.15531842 -0.019672818
000130 39 5b 7c bc 0f 66 9e 3e 1e fe 42 3e 52 b6 08 3c
       -0.015402609 0.3093724 0.1904225 0.00834425
000140 e2 3f cb 3d 53 86 14 3e 3a ea 84 3c c0 26 de 3d
       0.09924294 0.14504366 0.01622497 0.10847235
000150 23 ad 69 bd c9 fe 25 3d 3d 13 06 bd ee bc 6d 3e
       -0.05704988 0.040526185 -0.03273319 0.23216602
000160 12 90 41 3e ca 9b 15 3e 35 51 5f 3d 27 91 a3 bd
       0.18902615 0.1461021 0.054520804 -0.0798667
000170 a7 8c db 3d ef 8a 30 3e 28 f6 3f 3e 41 0e e0 3d
       0.10720187 0.17240499 0.18746245 0.10940219
000180 da 67 44 3e d6 3a 28 3e 7d 3c 25 be f0 1f f1 3b
       0.19180241 0.16428694 -0.16136356 0.0073585436
000190 84 35 2d 3e df d7 5b 3d 98 ba eb 3d f8 ad 2b bc
       0.16914946 0.053672668 0.11510199 -0.010478489
0001a0 4a 52 f9 3d c8 a1 21 be 36 0a 44 3d f0 03 65 3e
       0.121738985 -0.15784371 0.0478613 0.22364783
0001b0 03 e1 4d bd c7 b8 05 be b2 8d 72 bd 03 80 46 3e
       -0.050263416 -0.13058768 -0.059217162 0.1938477
0001c0 53 4e b2 3d 4d 66 7a bd 94 9e 92 bc 9c 34 0c 3e
       0.087063454 -0.061132718 -0.017897882 0.13691944
0001d0 b8 f4 62 3e 90 ef 04 3e be fc db 3d 33 6c e8 3c
       0.22163665 0.12982011 0.10741566 0.028371906
0001e0 2f 53 de 3d 15 4d 0b 3e b4 4f b0 3d b9 6a 08 3e
       0.1085571 0.13603623 0.08608952 0.13321961
0001f0 e6 31 82 3d af b3 b9 3d 39 af 0c bd 22 eb b8 3d
       0.063571736 0.09067475 -0.034346793 0.09029223
000200 54 b1 0f bd 18 3d c8 3b ac 2a 24 3c 19 05 2c 3e
       -0.035081223 0.0061107986 0.010019939 0.1679882
000210 6f 7d 9e 3d f7 2a 17 3e 94 30 9e bb 89 ff 24 3e
       0.07738768 0.14762484 -0.0048275683 0.16113104
000220 fb 9d 2d 3e c1 0a 51 3d 9e 7a 78 3e 39 80 62 3e
       0.16954796 0.051035646 0.24265525 0.22119226
000230 18 a4 37 3e 8a 0b fc 3d 30 44 7c 3e 9a 4f 79 3e
       0.1793369 0.123068884 0.24635386 0.24346772
000240 e7 57 98 3c 1d 26 6d 3e d2 6b 91 3b f9 fe fc 3b
       0.018596603 0.2315907 0.004437902 0.007720825
000250 50 b0 cf 3d 88 9c 56 bd a9 db 27 bd 2f 74 02 3e
       0.10141051 -0.052395374 -0.04098097 0.12739633
000260 be 89 ad 3d c9 65 d0 3d 60 c2 02 3d ec ca b4 3d
       0.08473538 0.10175664 0.03192365 0.08827767
000270 a2 af 45 3e 6a d6 70 3d 03 1c 20 3e dc e0 5f 3e
       0.1930528 0.05879823 0.15635686 0.21863121
000280 fc 0f 75 3e af 59 20 3e b4 e4 8a 3d 38 f9 6d bd
       0.23931879 0.15659212 0.06781903 -0.058099
000290 b8 01 04 bd 77 7f 1c 3d 23 7f bf bd 83 ec cf 3d
       -0.0322282 0.038207497 -0.09350421 0.10152533
0002a0 07 f2 0a 3e cb ba 85 3d f8 c2 a5 3d 62 bf 0d 3e
       0.13568889 0.065297686 0.08093828 0.13842538
0002b0 9d b8 9a 3d 3e 7d 88 3d a0 f0 ef 3d 73 a0 86 bd
       0.075547434 0.06664513 0.117158175 -0.06573572
0002c0 7b b0 e5 3d 6f db 6a 3e ba 74 40 3e 17 88 02 3e
       0.112153016 0.2293527 0.18794528 0.12747227
0002d0 c0 40 21 3d 7b 60 a1 3d 39 89 fc 3d 9e c9 37 3e
       0.03936839 0.0787973 0.12330861 0.17948005
0002e0 be 4f fc 3d 38 16 d7 3d e9 85 1a 3e 2c 4d 04 3e
       0.12319897 0.10502285 0.15090145 0.12920064
0002f0 70 d9 86 bd ed 11 ac 3c 19 f9 7e bb a2 94 20 3e
       -0.06584442 0.021004641 -0.0038905798 0.15681699
000300 75 64 a1 bd 5f b2 3b 3d 47 7c 60 3d 45 9c c6 3b
       -0.07880489 0.045824405 0.05480602 0.0060611092
000310 19 17 37 3e 34 c9 c0 3d 69 ce 12 3e 1e 3c 4f bd
       0.17879905 0.094133765 0.14336552 -0.05059444
000320 c4 0f da bd 19 2d 85 3e 7d 09 2a 3d 92 c0 80 3d
       -0.10647538 0.2601097 0.041512955 0.0628673
000330 84 4c 0c 3e 14 d7 a0 3d ea e7 c2 bc c2 64 1e 3e
       0.13701063 0.07853523 -0.023792226 0.15468124
000340 17 c3 4a bd 27 50 0b 3e 6a 3b 99 3d 39 d2 4a 3e
       -0.04950246 0.13604794 0.074820355 0.19806756
000350 b8 9e 63 3e 6d c5 3a 3e 51 c2 9f 3d 04 8c 26 3e
       0.22228515 0.18239374 0.07800735 0.16264349
000360 e5 df c5 b9 32 7d 17 3e de c1 09 bd d4 d0 02 3e
       -0.00037741582 0.14793852 -0.03363215 0.12774974
000370 9d 30 07 3d 38 05 31 3e 55 91 58 3e f5 ee 1e 3e
       0.033005346 0.17287147 0.2114919 0.15520842
000380 da 6a 38 bd d4 e1 33 3e f8 48 fe 3d 89 a2 af 3d
       -0.045023777 0.17566615 0.124162614 0.08575923
000390 15 68 f7 3d 6b 99 0e be 5d 57 28 3d eb 17 64 3d
       0.12080399 -0.13925712 0.04109894 0.055686872
0003a0 98 3a 98 bd f9 65 2c 3e 46 55 0d 3e c0 46 33 3e
       -0.07433051 0.16835774 0.1380206 0.17507458
0003b0 57 94 0e bb 78 2b f6 3c d8 dd 6a 3e c2 8a 2d 3e
       -0.0021755898 0.030050024 0.22936189 0.16947463
0003c0 b9 07 9c bb b0 65 ef bd 1a 93 f7 bb 17 4a 69 3e
       -0.004761663 -0.11689317 -0.0075553777 0.2278217
0003d0 92 2f 2b ba a6 86 27 be 19 a2 9c 3d 56 b8 9d 3d
       -0.0006530221 -0.16359958 0.07648105 0.07701175
0003e0 30 5f 82 3e 4f f3 99 bd 7e 2b 75 3e fe e6 1c 3e
       0.25463247 -0.075171106 0.23942372 0.15322492
0003f0 9d 11 d4 3d 75 83 a9 bc a1 3f 4c 3e 70 94 ee bd
       0.10354922 -0.020692566 0.19946148 -0.11649406

fc2.weight f4 [4, 256]
000000 49 1f 5e be 27 95 50 bd 63 2c 19 bd 31 2c 87 bd
       -0.21691622 -0.050923493 -0.037395846 -0.06600226
000010 97 62 2e bd 8a b5 bb bd 10 bb 52 bd 97 e4 0f bd
       -0.04257449 -0.09165485 -0.051447928 -0.03513011
000020 d0 6a e0 bc a8 50 bc bc 62 d9 e2 bc 47 8c c5 bd
       -0.027394682 -0.022987679 -0.027691547 -0.096458964
000030 f2 f5 ad bd 3d 36 fa bc 84 9a 15 bd bd 4b f5 bc
       -0.08494176 -0.030543441 -0.03652431 -0.029943341
000040 ac f0 76 bd 4c 93 80 be fd f0 80 bd f4 4f e5 3b
       -0.060288116 -0.2511238 -0.06295965 0.0069980565
000050 59 b3 f7 3b c7 82 20 bd ef 7e 5f bd 74 73 3b be
       0.0075592217 -0.03918722 -0.054564413 -0.1830576
000060 34 30 32 be f0 87 ff bd 25 aa a9 bd 0a a3 21 be
       -0.174012 -0.124771 -0.082844056 -0.1578485
000070 a0 92 2c bd d1 c6 4e be 7d 25 ad bd 2a 40 98 bd
       -0.04213202 -0.2019303 -0.08454416 -0.07434113
000080 06 6a 56 bd d4 91 5f bd b6 60 3f bd 88 94 0c bd
       -0.052347206 -0.054582432 -0.04672309 -0.034321338
000090 e0 cb b0 bc dd 9e 47 bd 3d 7b 83 bd ad 1e 39 bd
       -0.02158159 -0.04873549 -0.0641999 -0.04519527
0000a0 e3 bf 1e be ea 4b 21 bd ed 34 0c bd 66 f3 6b bd
       -0.15502886 -0.039379038 -0.03423016 -0.05760517
0000b0 54 1d f3 bc df 1c b5 bd bc 0a 07 bd d5 fc 53 bd
       -0.02967707 -0.08843397 -0.03296922 -0.05175479
0000c0 9c 16 84 bd d0 67 dc bd 7c 6c 1b bd f2 77 68 bd
       -0.06449625 -0.10761988 -0.037945256 -0.056755014
0000d0 f1 3f cc 3c 53 f0 f9 bc 1c 3f 1e bd 5a 1b da bd
       0.024932833 -0.030510103 -0.038634405 -0.10649748
0000e0 53 0d e4 bd 06 14 9e bd f8 20 88 bd b3 af 18 bd
       -0.11135354 -0.07718663 -0.06646913 -0.037276935
0000f0 98 73 19 bd 7e 50 93 be a4 b1 84 bd 70 21 d0 bd
       -0.037463754 -0.28772348 -0.06479195 -0.10162628
000100 86 9a 6c bd 7e 7d d7 bc 79 ce 26 be 56 39 80 bd
       -0.057764553 -0.026304957 -0.162897 -0.06260936
000110 45 9b 8a bd 51 4f 78 bd 54 c8 bd 3b f0 bc 8d bd
       -0.067678966 -0.060622517 0.0057917032 -0.069208026
000120 3a 66 a2 bd 1a 11 48 be da a8 15 bd 13 12 84 bc
       -0.079296544 -0.19537774 -0.036537983 -0.0161219
000130 3a 83 52 bd bf 98 ea bd 89 c1 69 bd 0e 2e 98 bd
       -0.05139468 -0.11454915 -0.057069335 -0.07430659
000140 6e 2c d5 bc a3 79 8d bd 25 d0 83 bd d5 34 88 bd
       -0.026022162 -0.06907966 -0.06436185 -0.06650702
000150 b3 02 8e bd 62 b2 82 bc 49 b3 ba bd a4 cb 82 bd
       -0.069341086 -0.0159542 -0.09116227 -0.063864976
000160 f6 ec d1 bd 5b 4c 47 bd 01 ca dd bc 45 e1 b9 3c
       -0.10250275 -0.048656803 -0.027073862 0.022690425
000170 d0 21 54 bd 04 9c 65 bd 80 66 84 bd fa fc bf bd
       -0.05179006 -0.05605699 -0.06464863 -0.09374423
000180 4b b5 88 bd bd af 8f be fc 24 64 bc 93 32 83 bc
       -0.06675204 -0.28063765 -0.013924833 -0.016015327
000190 ae 5e 31 bd 47 b1 64 bc 41 6f 0a be 54 63 39 be
       -0.043303184 -0.013958282 -0.13519002 -0.18104297
0001a0 29 28 5e bd 2b 26 da bc 8b e2 21 be 0c 28 f9 bd
       -0.05423752 -0.026629528 -0.15809076 -0.121658415
0001b0 fa a6 05 bc c7 17 b7 3b b3 dc 15 bc fa a2 86 bd
       -0.008157486 0.0055875513 -0.009146857 -0.06574054
0001c0 bf 32 74 bd 3b 8e 86 ba ce b1 6b bc 85 d9 75 bd
       -0.059618708 -0.0010265777 -0.014385654 -0.060021896
0001d0 19 e8 33 bd 4b 16 a3 bd 68 ef c0 bd 59 2a 29 bd
       -0.043922517 -0.079632364 -0.09420663 -0.04130015
0001e0 a5 3f 19 bd 1b d7 2c bd 82 24 4b bd 89 76 2b bd
       -0.03741421 -0.042197328 -0.049595363 -0.04186109
0001f0 e5 26 ba bd 7f fe a9 bd 11 9c 90 bd 86 7e ce bc
       -0.0908945 -0.083004944 -0.07061017 -0.025206815
000200 86 11 14 bd 36 80 7b bc 78 54 83 be 49 a2 1a be
       -0.036149524 -0.015350392 -0.25650382 -0.1510097
000210 16 3b 32 bd cb dd 60 bd 45 d6 98 bc df 63 d3 bd
       -0.04351338 -0.05489902 -0.01865686 -0.10321783
000220 e2 77 04 bd f8 f5 89 bd 3f 47 7c bd f5 6e 53 bd
       -0.03234089 -0.06736368 -0.061591383 -0.05161949
000230 42 e6 57 bd 00 e3 21 bd 28 c9 e8 bd 9c b9 7c bd
       -0.052709825 -0.039523125 -0.113664925 -0.06170045
000240 61 0b 2d bd 15 56 82 bd ae cd 4a bd 4e c8 5c bd
       -0.04224718 -0.06364075 -0.049512558 -0.053901963
000250 bd fa 37 bd 53 41 81 bc 7a 97 a1 bc 6c 61 f9 bd
       -0.044916857 -0.01577822 -0.01972555 -0.12176785
000260 f9 26 93 bd 22 5f 9b bd ca 79 28 bd f9 b6 85 bd
       -0.07185168 -0.075865045 -0.041131772 -0.0652904
000270 af f7 3a bd f8 5a 78 bd c1 99 d0 bd 37 c0 3d be
       -0.045646366 -0.06063363 -0.10185576 -0.18530355
000280 d8 d4 f0 bd 70 2b 41 bd 64 18 f7 bd 9d bc 8f bb
       -0.11759347 -0.047160566 -0.12065199 -0.004386498
000290 76 f2 49 bd 6b c7 96 bd 78 8b 9d 3c 9c fb ae bd
       -0.049303494 -0.07362255 0.019231543 -0.085440844
0002a0 52 45 55 bd b1 f3 15 bd fb dd 23 be aa 2e 8d bd
       -0.052068062 -0.036609355 -0.16002648 -0.06893666
0002b0 ac 16 3c bd ed af 87 bd 31 81 a3 bd 22 67 83 bb
       -0.04592006 -0.06625352 -0.07983626 -0.004010097
0002c0 94 cd 06 be c6 2f 7f bd ac a4 40 bd 40 7d 2f bd
       -0.1316436 -0.06230142 -0.047032043 -0.042844057
0002d0 1e 1e 98 bd 73 c7 95 bd ae 62 0a bd ca 1f 02 be
       -0.074276194 -0.073134325 -0.033785515 -0.12707439
0002e0 22 56 83 bd 07 c4 28 bd 85 91 37 bd 5c 9e 85 bd
       -0.06412913 -0.04120257 -0.044816513 -0.06524345
0002f0 fa a8 0f bd da 98 88 be 07 15 2c be 85 0b 80 bd
       -0.035073258 -0.26679116 -0.16804896 -0.06252197
000300 91 8e 01 3c 94 c6 ff bd cf 00 4a bd d5 f5 51 bd
       0.007907526 -0.12489048 -0.049317177 -0.051259834
000310 2b 4d df bd 7d 87 be bd c7 c5 f1 bc 8c 4f a4 bd
       -0.109033905 -0.09303186 -0.029513253 -0.08022985
000320 b8 31 75 bd 57 02 a3 bd bc e2 30 bd a4 fe 14 bd
       -0.05986187 -0.07959431 -0.04318498 -0.036375657
000330 ce f9 3f bd a9 c7 94 bd cf c0 73 bd dc 91 bb bd
       -0.04686909 -0.07264645 -0.05951005 -0.0915868
000340 5a af 2e bd 87 08 0c bd d3 74 90 bd ff 5b 92 bd
       -0.042647697 -0.03418782 -0.070535325 -0.07146453
000350 86 97 7b bd 9b 03 9d bd ce ea 97 bc a8 6d 69 bd
       -0.0614238 -0.07666703 -0.01854458 -0.056989342
000360 e0 44 07 be 9a d5 30 bd 44 f9 de bc b9 ba fe bc
       -0.13209867 -0.043172456 -0.027218468 -0.031094896
000370 f2 66 45 bd fd 26 b3 bd 1c 08 6a bd 31 55 ed bd
       -0.04819388 -0.08747671 -0.05713664 -0.115885146
000380 1c ef b1 3a 0c a0 9a bd 2b 75 ad be 4a c5 6c bd
       0.0013575288 -0.07550058 -0.33878455 -0.057805337
000390 c1 86 e7 bd f9 13 f3 bc cf 26 01 bd 0f 71 12 bd
       -0.11304999 -0.02967261 -0.03153115 -0.035752352
0003a0 e6 05 85 bd 06 a2 68 bd 29 fd 72 bd ea 6a 47 bd
       -0.06495266 -0.056795143 -0.059323464 -0.048685946
0003b0 10 7d 78 bd 1b 8f e3 bd 4e 81 98 bd 25 1d 19 bd
       -0.060666144 -0.111112796 -0.07446538 -0.03738131
0003c0 5d 12 f2 bd cb 2a 83 3c 85 a1 e2 3b 54 f8 97 bd
       -0.11819909 0.016011616 0.0069162273 -0.07420412
0003d0 fc a7 e2 bc f3 67 cb bc 3d 02 e9 bd ac 9f 18 be
       -0.027667992 -0.02482984 -0.1137738 -0.1490466
0003e0 6d 10 dc bd e9 81 dd 3b e4 24 96 bd 12 06 92 bd
       -0.107453205 0.0067598713 -0.07331255 -0.07130064
0003f0 8e ed 6d bd 03 13 87 bc 73 9a 95 bd e0 47 72 bb
       -0.058087878 -0.016488558 -0.073048495 -0.003696911

fc2.bias f4 [4]
000000 ca 46 85 bd d1 cf 58 3d 42 b0 80 3d 7a 76 37 bd
       -0.065076426 0.052932564 0.062836185 -0.044790722
