ContinuousControl/actor.pth (torch_old, 40808 bytes, 8 tensors)

fc0_batch.weight f4 [33]
0.587983 0.8890986 0.13861379 0.17902264 0.2939328 0.7361645 0.58162725 0.9951003
0.57147634 0.7370168 0.4717634 0.4922115 0.1603922 0.17442581 0.41175663 0.62915456
0.78288287 0.920407 0.027001634 0.18495245 0.7808729 1.0192893 0.4494815 1.0030816
0.5061247 0.64396834 1.0639434 0.03616482 0.071806066 0.37341738 0.30510002 0.9320004
0.105945155
00000000: 0e86 163f f79b 633f c6f0 0d3e b651 373e
00000010: 5c7e 963e 4775 3c3f 86e5 143f e5be 7e3f
00000020: 464c 123f 22ad 3c3f f98a f13e 2503 fc3e
00000030: da3d 243e ae9c 323e c4d1 d23e 4610 213f
00000040: 036b 483f cb9f 6b3f 8832 dd3c 2d64 3d3e
00000050: 49e7 473f 1278 823f 7022 e63e fa64 803f
00000060: 6391 013f 1cdb 243f 4c2f 883f 9021 143d
00000070: 0f0f 933d 9030 bf3e 1236 9c3e 9497 6e3f
00000080: c6f9 d83d

fc0_batch.bias f4 [33]
0.1450356 -0.13243464 -0.26801386 0.25905415 0.20589773 -0.13740335 0.15883066 -0.0065469826
0.029557524 0.21132189 0.27406728 0.191957 0.24310839 0.24221103 -0.21842256 0.24745436
-0.15953165 -0.002356953 0.24120532 -0.27018362 0.1083431 -0.096520804 -0.24766928 -0.11926524
0.22200653 -0.023254381 -0.07657033 0.280363 -0.25588518 -0.23430045 0.23546478 0.23596954
-0.23746252
00000000: 3684 143e f29c 07be 1d39 89be bfa2 843e
00000010: dbd6 523e 77b3 0cbe 81a4 223e 1288 d6bb
00000020: 9f22 f23c c464 583e 8c52 8c3e 6090 443e
00000030: 68f1 783e 2b06 783e 2aaa 5fbe ad64 7d3e
00000040: 445c 23be 1c77 1abb 87fe 763e 8255 8abe
00000050: fde2 dd3d b3ac c5bd 049d 7dbe 5641 f4bd
00000060: ae55 633e f97f bebc e8d0 9cbd bd8b 8f3e
00000070: 6203 83be 75ec 6fbe ae1d 713e 00a2 713e
00000080: 6029 73be

fc0_batch.running_mean f4 [33]
-0.42761186 0.2322864 -0.93531275 0.012361901 0.010634214 -0.0024989683 -0.023960039 1.8715234
0.29526973 0.2372356 -0.103406385 0.13979973 -0.0007363446 -0.37888092 0.26412448 -2.1491797
0.008976503 0.003136122 -0.0019939772 -0.015395525 2.508562 0.051881567 -0.7576505 -0.100578815
0.6631621 -0.18942489 0.08325974 -0.99999976 -0.027235573 0.0 0.99999976 0.0
-0.010282628
00000000: f1ef dabe 7cdc 6d3e a870 6fbf 9289 4a3c
00000010: 203b 2e3c bbc5 23bb d847 c4bc 148e ef3f
00000020: 982d 973e e4ed 723e bac6 d3bd a927 0f3e
00000030: 4007 41ba aefc c1be 533b 873e 298c 09c0
00000040: 2f12 133c 6587 4d3b 63ad 02bb 833d 7cbc
00000050: 488c 2040 c481 543d 62f5 41bf 44fc cdbd
00000060: fec4 293f 99f8 41be 1584 aa3d fcff 7fbf
00000070: 231d dfbc 0000 0000 fcff 7f3f 0000 0000
00000080: 7878 28bc

fc0_batch.running_var f4 [33]
2.27612 7.1317124 5.7281857 0.44123304 0.021575497 0.032888602 0.5046667 2.737827
0.3550089 0.60438174 15.33301 44.306583 37.000267 5.302938 34.500805 27.81935
0.29100522 0.21580987 0.23048861 0.26371318 5.713858 1.890858 2.2841434 39.335667
252.9041 201.05922 32.133404 6e-45 31.883133 6e-45 6e-45 6e-45
0.31297415
00000000: f3ab 1140 fd36 e440 4c4d b740 4ce9 e13e
00000010: 19bf b03c 33b6 063d d631 013f 8f38 2f40
00000020: bac3 b53e c3b8 1a3f 0254 7541 f139 3142
00000030: 4600 1442 abb1 a940 d300 0a42 078e de41
00000040: a3fe 943e 43fd 5c3e 3505 6c3e 6a05 873e
00000050: edd7 b640 a307 f23f 682f 1240 b957 1d42
00000060: 73e7 7c43 290f 4943 9b88 0042 0400 0000
00000070: a810 ff41 0400 0000 0400 0000 0400 0000
00000080: 263e a03e

fc1.weight f4 [256, 33]
-0.022117468 0.09396292 -0.029619915 -0.013893902 0.0044643953 -0.10755745 -0.023124754 -0.04996823
0.03349188 0.04504605 0.123280115 -0.05582572 0.10438262 -0.00718443 0.026615134 0.07624757
-0.046479695 -0.0951565 -0.012851587 -0.07241389 -0.06658686 -0.10536869 0.0081903385 0.056960903
-0.01289733 0.07129404 -0.113636695 0.10762801 0.02871694 -0.066927075 0.11428521 0.059230793
-0.11782099 0.13100722 -0.120688476 -0.13473445 0.15464103 0.03752243 -0.079902165 -0.08327964
0.0527984 -0.047822677 0.09628474 0.15071101 -0.05579214 0.16135518 0.08824647 -0.14117274
0.10187493 -0.049047105 0.11273766 0.095629096 -0.12751114 -0.01087079 -0.024104409 -0.13832723
0.049915966 0.031465016 -0.010251008 0.09705725 0.079671875 -0.09458533 -0.13510433 0.1591274
0.06592772 -0.11762319 -0.022835916 0.030280882 -0.0852825 0.009832382 0.020018864 -0.03351792
-0.004765108 -0.016216718 0.110230625 0.11404488 0.10521319 -0.05853896 0.055645034 0.09914817
0.01595096 -0.007073276 0.0012294631 -0.07381587 0.007862984 -0.111930564 -0.09906248 0.100821994
0.0051844977 -0.024030447 -0.034419853 -0.033204466 -0.075262964 0.063525684 -0.017678184 -0.11904224
0.056552436 0.10983144 -0.09865022 0.032483134 -0.00024009278 -0.030513475 0.08119338 -0.03366349
-0.06500104 0.0945741 0.006688456 -0.026964637 0.08632487 0.112930395 0.026284194 0.011748607
0.10392845 -0.07731035 -0.032583743 -0.00055674935 -0.037077468 -0.023267297 0.03643642 0.022251623
-0.06302726 -0.0033688906 0.07521578 -0.003463121 0.06651959 0.03394413 0.07513769 -0.07687273
-0.10438961 0.05603151 0.039937764 -0.09849214 -0.08508022 -0.06803424 -0.09910988 0.042615004
-0.013952143 -0.048117924 0.008365781 -0.024854317 0.05497462 0.11063129 0.044083435 0.118836395
0.0924393 0.026709143 -0.057074513 0.06355551 -0.041538157 0.10387292 0.10577855 -0.11549719
0.018447952 -0.012875364 -0.018020064 -0.10683225 0.11946954 -0.028976714 0.020964047 0.064587355
-0.047722213 -0.106810905 0.052420095 0.030523902 -0.042883795 -0.052814305 0.098234944 -0.14311306
0.011262297 -0.039206874 0.036324963 0.14211881 -0.11523141 -0.020301107 -0.055212613 0.11972455
0.05925179 0.14258844 -0.018935053 0.11011125 0.05187594 -0.124914564 -0.12803073 0.13010214
-0.12677564 -0.02275783 -0.10981123 -0.1274183 0.08270476 0.041914243 -0.08581055 0.012855763
0.14446566 -0.0026225038 -0.047180858 0.13033384 0.09084109 -0.07033272 0.0828601 -0.095789075
-0.05441497 0.102457486 0.07070202 -0.018401524 -0.047523186 0.01897301 -0.022947805 0.06759513
-0.03776872 0.080663405 0.08139684 0.07652977 -0.115775816 0.10083481 -0.08608531 0.09485447
0.10570617 -0.06316614 -0.049354654 -0.06685016 -0.022725506 -0.119821824 0.021265658 -0.014020568
-0.04914188 0.14400235 -0.013688284 -0.11749306 0.12203288 0.09525817 -0.02444989 -0.085629776
0.082881264 -0.14663947 0.14777578 0.13745695 -0.11984265 -0.103808194 -0.12884046 0.047664355
0.12278495 0.09541066 -0.021862565 0.14792676 0.14374097 0.06892403 -0.07570681 -0.09275619
0.0875484 0.13790682 -0.028881174 -0.09940817 0.1648697 -0.035828143 0.1652476 -0.024717243
00000000: b12f b5bc a26f c03d 77a5 f2bc 40a3 63bc
00000010: 104a 923b 1547 dcbd 2070 bdbc 7dab 4cbd
00000020: c82e 093d 3582 383d 497a fc3d 83a9 64bd
00000030: 8ec6 d53d 5e6b ebbb fb07 da3c b027 9c3d
00000040: 7e61 3ebd 69e1 c2bd 768f 52bc bc4d 94bd
00000050: b15e 88bd 8acb d7bd c530 063c d64f 693d
00000060: 534f 53bc 9c02 923d 5bba e8bd 136c dc3d
00000070: ca3f eb3c 1011 89bd 5d0e ea3d fd9b 723d
00000080: 224c f1bd c226 063e 852b f7bd d4f7 09be
00000090: 385a 1e3e 1fb1 193d bfa3 a3bd 848e aabd
000000a0: 2343 583d b6e1 43bd ef30 c53d fd53 1a3e
000000b0: 4d86 64bd 4b3a 253e 91ba b43d 968f 10be
000000c0: cea3 d03d 9ee5 48bd 01e3 e63d 30d9 c33d
000000d0: 4892 02be 661b 32bc 9c76 c5bc a7a5 0dbe
000000e0: af74 4c3d 76e1 003d d8f3 27bc f4c5 c63d
000000f0: 022b a33d f4b5 c1bd ca58 0abe 4bf2 223e
00000100: 1d05 873d 6de4 f0bd 6312 bbbc 9d0f f83c
00000110: 97a8 aebd 0018 213c 9afe a33c 164a 09bd
00000120: a024 9cbb ecd8 84bc 98c0 e13d 5d90 e93d
00000130: 037a d73d 8cc6 6fbd 0cec 633d 320e cb3d
00000140: 96ab 823c f1c6 e7bb f025 a13a c62c 97bd
00000150: bfd3 003c da3b e5bd 45e1 cabd c37b ce3d
00000160: b8e2 a93b 80db c4bc d5fb 0cbd 6801 08bd
00000170: 7823 9abd c119 823d d7d1 90bc 6bcc f3bd
00000180: 87a3 673d 4eef e03d 2009 cabd 090d 053d
00000190: 6ac1 7bb9 65f7 f9bc b748 a63d bae2 09bd
000001a0: 441f 85bd 11b0 c13d d62a db3b f1e4 dcbc
000001b0: 18cb b03d 0d48 e73d f351 d73c 3b7d 403c
000001c0: 70d8 d43d e454 9ebd 8876 05bd d1f2 11ba
000001d0: 8bde 17bd 0f9b bebc 5b3e 153d 0949 b63c
000001e0: 7014 81bd 9bc8 5cbb bb0a 9a3d 87f5 62bb
000001f0: 6c3b 883d 0009 0b3d cae1 993d 736f 9dbd
00000200: 38ca d5bd 4c81 653d c895 233d 3fb6 c9bd
00000210: 8a3e aebd 8955 8bbd 1ffa cabd 128d 2e3d
00000220: 8797 64bc 4d17 45bd a110 093c 489b cbbc
00000230: 112d 613d a892 e23d d590 343d 7f60 f33d
00000240: d150 bd3d 22cd da3c f7c6 69bd 6429 823d
00000250: ea23 2abd 53bb d43d 6da2 d83d ca89 ecbd
00000260: 2920 973c 31f3 52bc d09e 93bc deca dabd
00000270: 72ac f43d 9360 edbc cbbc ab3c 6046 843d
00000280: 5e78 43bd adbf dabd 74b6 563d 430d fa3c
00000290: eba6 2fbd d053 58bd 672f c93d 3b8c 12be
000002a0: 7f85 383c 6397 20bd 7cc9 143d 9887 113e
000002b0: 72fe ebbd 824e a6bc 9f26 62bd 2532 f53d
000002c0: 01b2 723d b402 123e af1d 9bbc 0282 e13d
000002d0: de7b 543d 35d3 ffbd 7d1a 03be 7f39 053e
000002e0: 79d1 01be a16e babc b6e4 e0bd f179 02be
000002f0: 1d61 a93d 45ae 2b3d 71bd afbd faa0 523c
00000300: ceee 133e 50de 2bbb b740 41bd 3c76 053e
00000310: e50a ba3d 9a0a 90bd 8eb2 a93d 102d c4bd
00000320: 3be2 5ebd 3bd5 d13d 38cc 903d cbbe 96bc
00000330: aca7 42bd 496d 9b3c 09fd bbbc 516f 8a3d
00000340: 60b3 1abd db32 a53d 63b3 a63d a4bb 9c3d
00000350: df1b edbd 7b82 ce3d 7f4d b0bd 0f43 c23d
00000360: 7a7c d83d 405d 81bd 1b28 4abd bde8 88bd
00000370: d72a babc 2565 f5bd 5135 ae3c 86b6 65bc
00000380: ff48 49bd 5a75 133e d344 60bc 34a0 f0bd
00000390: 60ec f93d b716 c33d 234b c8bc aa5e afbd
000003a0: a7bd a93d a828 16be 8952 173e 84c1 0c3e
000003b0: 1070 f5bd 6499 d4bd c1ee 03be b33b 433d
000003c0: ad76 fb3d aa66 c33d 1f19 b3bc 1d7a 173e
000003d0: d530 133e 0b28 8d3d 2c0c 9bbd f5f6 bdbd
000003e0: 934c b33d 7237 0d3e 3698 ecbc 8396 cbbd
000003f0: 9ad3 283e 88c0 12bd ab36 293e d17b cabc

fc1.bias f4 [256]
0.03184497 0.15038723 0.10626968 0.21915397 0.18652672 0.034336355 0.19396289 0.05104413
0.008241551 0.20023815 -0.022008954 0.09812017 -0.00987935 0.14718314 0.20168251 0.20907062
0.073013514 -0.055542786 0.1693016 0.00020894078 0.07948123 -0.09743721 0.20646095 0.079176165
0.10301778 0.14781174 0.09807096 0.06196992 0.22693796 -0.023968466 0.09107066 0.06227745
-0.059843574 0.15632078 0.19765584 0.17478578 0.14101316 0.16976237 0.17545888 0.0885983
0.06911282 0.15501338 0.18806522 0.19494615 0.11839895 0.24257928 0.0043700794 0.1469713
0.2078555 0.10303158 0.19367424 0.21410142 0.018257907 0.19372118 0.17212152 0.17011464
0.16107848 0.14908817 0.13535874 0.19168516 -0.023854084 0.007850723 0.14974485 0.2421907
0.060437053 0.2166212 0.07339274 0.15346004 0.09872558 0.1652335 0.02639438 0.0018790605
0.16718161 0.06106426 0.21627444 0.12350526 0.059939872 0.22307605 0.21966383 0.054199405
0.14461777 0.1354628 0.041409228 0.13087344 -0.0074942927 0.12131916 -0.112176985 0.19195744
0.15527615 0.21444981 0.13146216 0.06754205 0.18015221 0.16127186 0.18990475 0.08435755
0.22400466 0.013038244 0.018161075 0.14300379 0.2353396 0.1142529 0.08607023 -0.0027863253
0.17269328 0.009652246 0.060935907 0.16329227 -0.01417884 0.0075533255 0.023221634 0.160178
0.061120745 0.0951126 0.07239885 0.16557837 0.24256293 0.1265892 0.101718955 0.11255411
0.1493168 0.2046045 0.14252427 0.16684182 0.063576765 0.10449061 -0.00205438 0.13264497
0.009544305 0.07503518 -0.03267239 0.11269601 0.14805485 0.1879351 0.03202484 0.09186811
0.23633924 0.091991 0.19702369 0.22824763 0.21634471 0.17398648 0.19164163 0.23115635
0.08274581 0.22628991 0.030231217 0.042293128 0.14366724 0.040216748 0.074603 0.09416976
0.09855298 0.13024335 0.0933562 0.15326162 0.22262594 0.080810644 0.16427395 0.15611412
0.1857072 0.21665254 0.099984415 0.06841611 0.08125007 0.112866625 0.08856674 0.08337678
0.16615029 0.14899987 0.056173865 0.14799856 0.12988362 0.112010226 0.15148252 0.0053654737
0.09702252 0.19217788 0.1986553 0.16330324 0.04958172 0.11335136 0.18352218 0.12114066
0.15473604 0.13810427 0.16955662 0.14698635 -0.021176228 -0.10699296 -0.02655494 0.20455362
0.029697867 0.057379663 0.11661557 0.055268366 0.1423085 0.091363184 0.19962275 -0.054562222
-0.021815965 0.22752708 0.067392536 0.09424097 0.14247763 0.083440445 -0.074280925 0.14077045
0.008641987 0.18659031 0.110467084 0.18120098 0.17647988 0.15300363 0.17250697 0.17384288
-0.07469654 0.18824285 0.047277063 0.1779515 0.09335476 0.15635091 0.18835932 0.13469225
0.08936512 0.17319536 -0.0214987 0.0839115 0.09371032 0.043716956 0.10051601 0.1540641
-0.12399631 0.1929667 0.14552991 0.24121045 0.09019374 0.020440387 0.19019386 0.22527559
0.050223023 0.055589758 0.08926346 0.20788981 0.07176445 -0.021125596 0.040435582 0.00622518
0.21147883 0.010242201 0.20310886 0.1437099 0.084483035 0.08350498 0.16371378 0.059372786
00000000: df6f 023d 1cff 193e eba3 d93d e669 603e
00000010: dc00 3f3e 47a4 0c3d 359e 463e a613 513d
00000020: 9207 073c 3b0b 4d3e 1f4c b4bc 3af3 c83d
00000030: ffdc 21bc 2db7 163e dc85 4e3e 9c16 563e
00000040: 1c88 953d d580 63bd 665d 2d3e 1d17 5b39
00000050: 0ec7 a23d 298d c7bd 806a 533e 1d27 a23d
00000060: fcfa d23d f65b 173e 6dd9 c83d 2cd4 7d3d
00000070: 6d62 683e 8459 c4bc 4183 ba3d a416 7f3d
00000080: 891e 75bd 8e12 203e 4b66 4a3e 0bfb 323e
00000090: c165 103e 30d6 2d3e 7eab 333e 0773 b53d
000000a0: 068b 8d3d d4bb 1e3e 2b94 403e f79f 473e
000000b0: 267b f23d b466 783e e232 8f3b a57f 163e
000000c0: 12d8 543e 3902 d33d 8a52 463e 673d 5b3e
000000d0: 9b91 953c d85e 463e a040 303e 8832 2e3e
000000e0: c2f1 243e 92aa 183e 7b9b 0a3e 1d49 443e
000000f0: a469 c3bc 52a0 003c b756 193e d700 783e
00000100: d88c 773d f3d1 5d3e ef4e 963d a124 1d3e
00000110: a330 ca3d f832 293e 0739 d83c cf4a f63a
00000120: a831 2b3e 841e 7a3d 0c77 5d3e 53f0 fc3d
00000130: 8383 753d 0c6e 643e 8eef 603e 3200 5e3d
00000140: ae16 143e c3b6 0a3e b99c 293d b003 063e
00000150: af92 f5bb 2e76 f83d 0cbd e5bd 7e90 443e
00000160: b600 1f3e bb98 5b3e 049e 063e 7c53 8a3d
00000170: d279 383e 7324 253e 6476 423e a7c3 ac3d
00000180: 7a61 653e 5c9e 553c 89c6 943c 966f 123e
00000190: ddfc 703e 6dfd e93d 9745 b03d c89a 36bb
000001a0: 82d6 303e 7424 1e3c ee97 793d 1736 273e
000001b0: 5e4e 68bc e381 f73b 4c3b be3c b405 243e
000001c0: bf59 7a3d 65ca c23d d945 943d 608d 293e
000001d0: 6b62 783e 99a0 013e 0752 d03d c582 e63d
000001e0: 81e6 183e d883 513e e2f1 113e 95d8 2a3e
000001f0: 8934 823d 2cff d53d c7a2 06bb 15d4 073e
00000200: b75f 1c3c 0bac 993d 7cd3 05bd 2acd e63d
00000210: b19b 173e 0f72 403e 7b2c 033d 5925 bc3d
00000220: ea02 723e c765 bc3d 94c0 493e bfb9 693e
00000230: 7889 5d3e 8329 323e b43d 443e 40b4 6c3e
00000240: a376 a93d 8bb8 673e 75a7 f73c 8f3b 2d3d
00000250: 811d 133e 51ba 243d 75c9 983d 13dc c03d
00000260: 25d6 c93d 835e 053e 8931 bf3d 9df0 1c3e
00000270: 0ef8 633e 0d80 a53d 6e37 283e 61dc 1f3e
00000280: 072a 3e3e 2ada 5d3e a1c4 cc3d bf1d 8c3d
00000290: 7066 a63d 9e26 e73d 7b62 b53d 72c1 aa3d
000002a0: 4d23 2a3e 6c93 183e 9116 663d ef8c 173e
000002b0: 3600 053e 9e65 e53d 3c1e 1b3e dbd0 af3b
000002c0: beb3 c63d 47ca 443e 4c6c 4b3e f738 273e
000002d0: 3416 4b3d c224 e83d 3ded 3b3e 9818 f83d
000002e0: 2073 1e3e 356b 0d3e 40a0 2d3e 9783 163e
000002f0: c579 adbc 201f dbbd bf89 d9bc 8176 513e
00000300: f148 f33c f006 6b3d 25d4 ee3d 1561 623d
00000310: 52b9 113e 9f1c bb3d e869 4c3e a37c 5fbd
00000320: 65b7 b2bc dcfc 683e 1905 8a3d 6901 c13d
00000330: a8e5 113e d3e2 aa3d 9920 98bd 2126 103e
00000340: 1f97 0d3c 8811 3f3e 913c e23d c08c 393e
00000350: 24b7 343e fcac 1c3e aba5 303e de03 323e
00000360: 80fa 98bd bcc2 403e 98a5 413d eb38 363e
00000370: c830 bf3d 741a 203e 44e1 403e c4ec 093e
00000380: 0f05 b73d 205a 313e 0b1e b0bc cbd9 ab3d
00000390: 32eb bf3d 8d10 333d 56db cd3d fbc2 1d3e
000003a0: c7f1 fdbd 1099 453e cb05 153e dfff 763e
000003b0: 7fb7 b83d 9972 a73c 2ec2 423e a5ae 663e
000003c0: a8b6 4d3d 16b2 633d c3cf b63d 11e1 543e
000003d0: 3df9 923d 960f adbc c89f 253d 98fc cb3b
000003e0: e88d 583e e8ce 273c c5fb 4f3e b028 133e
000003f0: 7105 ad3d a904 ab3d 96a4 273e e130 733d

fc2.weight f4 [4, 256]
0.033797875 0.047962308 0.044015944 0.022125337 0.034760572 0.04760523 0.030326752 0.0853237
0.031595338 0.0325233 0.046195846 0.06918414 0.05474964 0.033454772 0.034726832 0.024516094
0.078051575 0.0320686 0.03562101 0.06841832 0.07543366 0.023775253 0.02930749 0.047194704
0.037805263 0.07387865 0.032854196 0.055863902 0.023851052 0.09597671 0.05988938 0.07504967
0.029800033 0.030987384 0.031309053 0.04719664 0.042277098 0.027791923 0.034233443 0.081058286
0.07349416 0.050354533 0.033922527 0.037081335 0.059128735 0.029623946 0.069086775 0.035122734
0.025016598 0.048640054 0.04032689 0.024947412 0.08454686 0.0364348 0.04534172 0.03464891
0.03536098 0.021626681 0.036703765 0.04741298 0.068613164 0.10839993 0.027479915 0.028694555
0.045368798 0.037602063 0.044483364 0.030548444 0.054534268 0.03883711 0.059731252 0.0695537
0.03364391 0.07380534 0.036372554 0.048058547 0.07267668 0.02351243 0.023434294 0.06825964
0.034591317 0.043321688 0.08040821 0.052332096 0.106568284 0.057828765 0.014982294 0.022351691
0.03232458 0.034656823 0.04989152 0.078867815 0.043071885 0.034298524 0.04350926 0.045766715
0.023148112 0.069335766 0.09873029 0.049796935 0.03545344 0.044086203 0.0746466 0.07314549
0.02415616 0.100487 0.0698399 0.028811723 0.033525962 0.058980525 0.048466038 0.0323983
0.07807179 0.06964939 0.048926435 0.0339213 0.040920053 0.053869132 0.042633478 0.06671324
0.029811855 0.03770012 0.049386118 0.029805608 0.062033486 0.05108472 0.09032867 0.025896044
0.05064475 0.04662143 0.07991559 0.050500624 0.04538113 0.039709467 0.03451579 0.04111691
0.034811057 0.038971946 0.031943772 0.02782527 0.030051237 0.041829128 0.036540292 0.030334141
0.054702662 0.04045164 0.040003035 0.043204334 0.02994162 0.067941174 0.07982786 0.030590246
0.039708868 0.057983845 0.05478517 0.046717446 0.019798715 0.06987008 0.028314725 0.054857828
0.038121864 0.032486644 0.047479358 0.05431583 0.09085667 0.096037455 0.10353897 0.06222368
0.028341796 0.046762597 0.0671841 0.023262441 0.06472462 0.04263129 0.03732719 0.05653851
0.054700617 0.025374744 0.04295119 0.030351697 0.034784187 0.03861451 0.03168663 0.04638959
0.030208804 0.022103937 0.045656938 0.03183211 0.04788015 0.020447405 0.068746075 0.027162505
0.05308422 0.11018798 0.04373382 0.042389248 0.039978568 0.07830427 0.031718828 0.05628032
0.07077935 0.03531176 0.06838621 0.02597328 0.041187815 0.024966672 0.013316804 0.065794624
0.059277143 0.01826519 0.0450194 0.02451046 0.025828214 0.036544405 0.055137888 0.030577453
0.017101107 0.022426775 0.036151476 0.022617364 0.05226006 0.0317383 0.024326442 0.051717162
0.071248464 0.047258936 0.07930953 0.049998436 0.06420523 0.09876079 0.058048047 0.05839112
0.026020648 0.022778936 0.02124766 0.028316462 0.07945055 0.06640225 0.039183713 0.02738645
0.07377741 0.08377433 0.053012744 0.028717263 0.054568175 0.06808902 0.044994332 0.040640075
0.038309902 0.08223506 0.03394234 0.033975832 0.044299036 0.07081201 0.032417797 0.07962226
00000000: a46f 0a3d 2074 443d 104a 343d 3240 b53c
00000010: 1a61 0e3d b4fd 423d cf6f f83c 31be ae3d
00000020: 1d6a 013d 2737 053d db37 3d3d 6ab0 8d3d
00000030: 2941 603d df07 093d b93d 0e3d fad5 c83c
00000040: 81d9 9f3d 5d5a 033d 56e7 113d e71e 8c3d
00000050: f67c 9a3d 52c4 c23c 4316 f03c 3c4f 413d
00000060: b1d9 1a3d b14d 973d 1f92 063d 8cd1 643d
00000070: 4863 c33c 708f c43d 914e 753d a4b3 993d
00000080: 331f f43c 41d9 fd3c ec3d 003d 4451 413d
00000090: c02a 2d3d e3ab e33c 5e38 0c3d e301 a63d
000000a0: 1b84 963d 8e40 4e3d 59f2 0a3d 99e2 173d
000000b0: f930 723d ebad f23c 5e7d 8d3d dbdc 0f3d
000000c0: 9cef cc3c cb3a 473d cf2d 253d 845e cc3c
000000d0: e726 ad3d a83c 153d 3db8 393d 04ec 0d3d
000000e0: add6 103d 702a b13c b056 163d 1d34 423d
000000f0: 0f85 8c3d c800 de3d 8f1d e13c d810 eb3c
00000100: a2d4 393d 9f04 1a3d 3034 363d bb40 fa3c
00000110: 535f 5f3d a913 1f3d c2a8 743d 2c72 8e3d
00000120: 32ce 093d 4127 973d 63fb 143d 0ad9 443d
00000130: 83d7 943d 249d c03c 47f9 bf3c b6cb 8b3d
00000140: a0af 0d3d 1572 313d 0fad a43d 2e5a 563d
00000150: 7940 da3d dbdd 6c3d 4c78 753c e51a b73c
00000160: c766 043d 50f4 0d3d 0d5b 4c3d 7385 a13d
00000170: 256c 303d 9c7c 0c3d c436 323d e175 3b3d
00000180: 1ca1 bd3c e9ff 8d3d 1b33 ca3d dff7 4b3d
00000190: a037 113d bc93 343d 51e0 983d 4dcd 953d
000001a0: 24e3 c53c 21cc cd3d 3908 8f3d 9006 ec3c
000001b0: 8552 093d 9095 713d 5384 463d 14b4 043d
000001c0: 1ae4 9f3d 57a4 8e3d 1667 483d 10f1 0a3d
000001d0: c99b 273d e1a5 5c3d 71a0 2e3d f4a0 883d
000001e0: fe37 f43c 716b 1a3d 1949 4a3d e42a f43c
000001f0: d316 7e3d 363e 513d 3dfe b83d f123 d43c
00000200: df70 4f3d 1df6 3e3d c9aa a33d bed9 4e3d
00000210: 90e1 393d 65a6 223d 6e60 0d3d 346a 283d
00000220: 0a96 0e3d 0ca1 1f3d 79d7 023d d2f1 e33c
00000230: 032e f63c 0555 2b3d 46ab 153d 4e7f f83c
00000240: e60f 603d 9eb0 253d 39da 233d 07f7 303d
00000250: 2148 f53c be24 8b3d ca7c a33d 6598 fa3c
00000260: c4a5 223d 7880 6d3d 6a66 603d cb5a 3f3d
00000270: ea30 a23c 0b18 8f3d 48f4 e73c 9ab2 603d
00000280: ac25 1c3d b710 053d b779 423d 477a 5e3d
00000290: 1013 ba3d 49af c43d 3d0c d43d 42de 7e3d
000002a0: 0e2d e83c 238a 3f3d d197 893d e090 be3c
000002b0: 578e 843d 269e 2e3d 65e4 183d ed94 673d
000002c0: c10d 603d b2de cf3c 96ed 2f3d 1fa4 f83c
000002d0: dd79 0e3d 402a 1e3d d7c9 013d 0303 3e3d
000002e0: 7478 f73c 5113 b53c c502 3b3d 6362 023d
000002f0: fa1d 443d 5181 a73c beca 8c3d e783 de3c
00000300: d76e 593d 3caa e13d 3c22 333d 59a0 2d3d
00000310: 91c0 233d fd5d a03d 9aeb 013d 3186 663d
00000320: c4f4 903d 10a3 103d 120e 8c3d ebc5 d43c
00000330: 8eb4 283d e886 cc3c b92e 5a3c 55bf 863d
00000340: 97cc 723d e1a0 953c 4366 383d 29ca c83c
00000350: b195 d33c 96af 153d 44d8 613d 917d fa3c
00000360: 9f17 8c3c 5bb8 b73c 9213 143d 0d48 b93c
00000370: a50e 563d 0500 023d 3f48 c73c 60d5 533d
00000380: b7ea 913d 9692 413d 096d a23d 29cb 4c3d
00000390: 087e 833d 1943 ca3d cac3 6d3d 872b 6f3d
000003a0: 4129 d53c e49a ba3c 930f ae3c edf7 e73c
000003b0: f8b6 a23d e7fd 873d 1a7f 203d 8c59 e03c
000003c0: 9c18 973d e091 ab3d e423 593d 7740 eb3c
000003d0: e182 5f3d 4272 8b3d fa4b 383d 3576 263d
000003e0: d8ea 1c3d db6a a83d 2007 0b3d 3e2a 0b3d
000003f0: e872 353d e305 913d 86c8 043d ff10 a33d

fc2.bias f4 [4]
0.012712351 0.07065557 0.03268594 -0.061285388
00000000: 7747 503c deb3 903d b1e1 053d 6306 7bbd
