ContinuousControl/checkpoint_critic_local.pth (torch_old, 556095 bytes, 17 tensors)

fcs0_batch.weight f4 [33]
000000 ee cc 86 3e d3 0e d6 3e ef fa 5d 3c 1f 5d 24 3e
       0.26328224 0.41808185 0.013548597 0.16051148
000010 17 cd 83 3e bd 73 04 3f ef c2 a7 3e 4d 65 df 3e
       0.2574241 0.517391 0.3276591 0.43631974
000020 6e 37 8f 3e f4 85 a8 3e cd 5e 54 3e 05 7a 81 3e
       0.27971977 0.32914698 0.20739289 0.25288406
000030 fd 01 3e 3d 34 2a 0a 3e fc 0e 30 3e 12 a3 c9 3e
       0.046388615 0.13492662 0.17193216 0.39382225
000040 e0 31 db 3e 9e 46 db 3e 94 21 c9 3d e9 ea 41 3e
       0.4281149 0.42827314 0.09820858 0.18937267
000050 0e aa 87 3e 3e 6c a0 3e 0e 05 79 3e d4 8f f7 3e
       0.2649693 0.31332582 0.24318334 0.4835192
000060 b5 9c a3 3e 6c c5 8c 3e 84 26 06 3f b4 66 9b 00
       0.31955495 0.2749437 0.5240252 1.4271345e-38
000070 9a cd 5b 3e 18 4a a4 0e 3c 93 0b 80 b9 e7 c9 38
       0.2146515 4.050047e-30 -1.063008e-39 9.6275886e-05
000080 8f 30 6b 3d
       0.057419356

fcs0_batch.bias f4 [33]
000000 a0 0b 6b 3c f1 2e dd ba ad 19 69 3a b4 a4 04 bc
       0.014346033 -0.0016874952 0.00088920706 -0.008095909
000010 30 45 12 bb ae 3e e5 bc 04 f3 9b ba df b8 83 bb
       -0.002231907 -0.02798399 -0.0011897986 -0.004019841
000020 87 e8 6a 3b ee 64 c3 3b ff cf 9a 3b 50 45 4e 3c
       0.0035844164 0.0059629595 0.004724502 0.012589768
000030 64 c1 47 bc 0a e6 ba 3a 6e 01 a1 3b 02 7d 26 bc
       -0.012192104 0.0014259231 0.0049135005 -0.01016164
000040 70 83 e2 3a 38 b0 e4 39 db 3d ef bb 4d e6 01 3c
       0.0017281603 0.00043618842 -0.007301075 0.007928443
000050 20 ec 9c bb 13 23 22 3c 22 be 39 bc 8e 1d 80 3b
       -0.0047888905 0.009896058 -0.011336835 0.003909773
000060 6c 6c c8 3b b8 46 74 bc 73 5b 58 bc 19 f1 28 ba
       0.0061164405 -0.014909439 -0.013205397 -0.0006444618
000070 e7 44 82 bc 28 c6 f9 3a 52 f6 15 bb b2 c6 8c ba
       -0.015901996 0.0019056248 -0.0022882414 -0.0010740368
000080 c2 1b 2a b9
       -0.00016222804

fcs0_batch.running_mean f4 [33]
000000 7b a6 a0 3f 1a c1 2c bf 3f 5c 77 bf 47 2f fd bb
       1.2550806 -0.6748215 -0.9662513 -0.007726583
000010 92 71 19 3d ff 76 d1 3d 20 2a b9 bb e4 3d 07 3f
       0.037461825 0.10227775 -0.0056507736 0.5282881
000020 6a e0 54 bd 2c 7e b5 3e eb 8c 27 3e 45 91 86 be
       -0.05197183 0.35447824 0.1636235 -0.26282707
000030 df b0 af 3e e5 eb 3a 40 b3 b4 d4 bf 9c bc e1 bf
       0.3431463 2.9206479 -1.6617645 -1.7635684
000040 e1 a3 b5 3b 9b cb 4b 3d 1d 39 31 3d de f1 56 bd
       0.0055432175 0.04975472 0.043267358 -0.052476756
000050 79 80 f7 3e c8 e5 ce bd 0e 3c a4 3f 7f 45 08 3f
       0.48340204 -0.10102421 1.2830827 0.5323104
000060 5c 50 65 3f fd 7b 55 3f 76 c7 05 bd fc ff 7f bf
       0.89575744 0.83392316 -0.032660924 -0.99999976
000070 38 81 7b bf 00 00 00 00 fc ff 7f 3f 00 00 00 00
       -0.9824405 0.0 0.99999976 0.0
000080 8a be b4 be
       -0.3530162

fcs0_batch.running_var f4 [33]
000000 f3 23 b1 40 75 3c 7f 40 84 aa 74 40 e3 10 57 3e
       5.5356383 3.988065 3.8229074 0.21002536
000010 c4 31 6d 3e 10 a3 be 3e 30 5f 29 3e 27 2c 97 40
       0.23163515 0.37233782 0.16540217 4.7241397
000020 27 5f be 3e 21 a2 33 3f 66 83 25 41 14 50 98 41
       0.3718197 0.70169264 10.34458 19.0391
000030 00 28 57 41 07 99 8b 41 34 da 77 41 2e f4 7f 41
       13.447266 17.44972 15.490772 15.997114
000040 d7 04 8d 3e 93 cc 55 3e 74 9e 99 3e cb 44 5a 3e
       0.27542755 0.2087882 0.30003703 0.21315305
000050 3a 84 bd 40 7d af 61 40 ef 98 9a 40 b5 d7 05 42
       5.922391 3.526336 4.8311687 33.46065
000060 aa 65 6e 42 9a 34 51 42 db 37 ff 41 04 00 00 00
       59.59928 52.30137 31.902273 6e-45
000070 0f 65 fc 41 04 00 00 00 04 00 00 00 04 00 00 00
       31.549345 6e-45 6e-45 6e-45
000080 b8 b5 80 3a
       0.0009819781

fcs1.weight f4 [400, 33]
000000 fa 81 06 2d 60 39 c7 ad c9 5b 7a 2c e1 3b 84 2e
       7.645879e-12 -2.264916e-11 3.5578088e-12 6.013302e-11
000010 c1 87 bd 2e af de da ad b8 d9 94 ae 12 ad eb ac
       8.61884e-11 -2.4882622e-11 -6.7689354e-11 -6.6983164e-12
000020 2b d3 0a 2e ee 2b 9e ad 92 3f 96 ac 2a b9 12 2d
       3.1565122e-11 -1.7982029e-11 -4.270314e-12 8.340254e-12
000030 6c 76 14 2e f2 55 1b 2e 09 71 51 ae 19 c5 d1 2b
       3.3756484e-11 3.5319254e-11 -4.7621494e-11 1.4905049e-12
000040 da 01 fb ad fc 41 60 2e fd fb 0f ad 28 15 52 2e
       -2.8536219e-11 5.099031e-11 -8.1845615e-12 4.7767262e-11
000050 36 8c fc ab a1 ec b4 2c bc cc 5c ae 21 b2 24 2e
       -1.7944593e-12 5.142179e-12 -5.020405e-11 3.7447493e-11
000060 da 47 a7 2d f6 13 33 ae 41 2a bb 2e 2f 6f 80 2b
       1.901761e-11 -4.0717617e-11 8.511281e-11 9.125807e-13
000070 20 6e ae ad e2 21 af ab 41 58 bc 2b 06 ca 92 2b
       -1.9830415e-11 -1.2443902e-12 1.3382699e-12 1.0429997e-12
000080 0c ea 5b 2a db 23 46 b6 02 e1 81 b8 72 45 46 b0
       1.9532309e-13 -2.952517e-06 -6.19311e-05 -7.213067e-10
000090 44 66 9f 31 b3 52 4b 33 39 06 20 b7 18 70 10 36
       4.6391353e-09 4.7339835e-08 -9.538192e-06 2.152292e-06
0000a0 15 75 b1 39 c8 ef 24 35 d8 bb cf b8 08 43 b3 33
       0.00033847304 6.144369e-07 -9.905518e-05 8.34753e-08
0000b0 05 c1 57 b5 87 f8 a5 31 9c 4f a6 30 56 8a d6 b0
       -8.037462e-07 4.8303863e-09 1.2100716e-09 -1.5609867e-09
0000c0 5a bd 02 37 a6 f5 44 38 21 7f d1 b6 38 76 93 31
       7.792691e-06 4.695882e-05 -6.243485e-06 4.291703e-09
0000d0 56 c0 98 b3 ad 70 7f b9 a9 e8 c2 b9 68 00 aa 34
       -7.113037e-08 -0.0002436067 -0.0003717591 3.1665263e-07
0000e0 e0 98 be 39 0b 40 e6 33 74 5b 8a 37 e1 de 2f 39
       0.00036353525 1.0721859e-07 1.6493468e-05 0.0001677233
0000f0 96 c7 d8 2e 95 a9 4f 31 18 b6 12 af c0 65 4f 2f
       9.8579964e-11 3.021886e-09 -1.3343315e-10 1.8862689e-10
000100 bc 60 18 2f ad 83 8a af b0 aa af ac d4 09 44 b0
       1.3858686e-10 -2.5195615e-10 -4.9927493e-12 -7.131835e-10
000110 56 e3 b8 aa 6d 6a 13 2c fe 17 28 2d fa 94 36 af
       -3.2842712e-13 2.0949035e-12 9.555022e-12 -1.660573e-10
000120 e2 7d 83 ac 38 28 d2 31 07 93 a2 ad 62 f7 a2 2c
       -3.7372197e-12 6.1163767e-09 -1.8482561e-11 4.631782e-12
000130 7f e1 2a 2d 5e a8 3e 2c 4a c9 8e 2c 01 64 fd ab
       9.713451e-12 2.7094087e-12 4.0582303e-12 -1.8004488e-12
000140 da 20 cd ac fe 0e e2 ad 36 43 6e 30 46 25 1a 32
       -5.8300977e-12 -2.5699883e-11 8.667941e-10 8.972455e-09
000150 d0 09 0b 2d 62 a5 a8 aa a5 93 62 ac b1 8d 02 35
       7.903414e-12 -2.9957552e-13 -3.219849e-12 4.863496e-07
000160 3e 42 c6 ac 74 51 ce b4 60 68 08 2d d1 d8 9e ae
       -5.634853e-12 -3.8429755e-07 7.753881e-12 -7.2235225e-11
000170 11 9a ef b2 8b 2e 01 29 ac c0 fc ac 54 b2 08 aa
       -2.7893323e-08 2.8684124e-14 -7.1836617e-12 -1.2141097e-13
000180 00 bb 43 29 b5 5f 8b 29 f1 89 85 ab 21 7f 10 b8
       4.3460895e-14 6.1894425e-14 -9.488505e-13 -3.4450673e-05
000190 56 3a f8 34 32 a2 54 ac b4 f2 d3 ad d0 a6 33 37
       4.6236045e-07 -3.0217048e-12 -2.4095705e-11 1.07080705e-05
0001a0 01 04 7b 35 16 32 8b b1 fc 0d e2 3a 22 d3 74 37
       9.3510613e-07 -4.0511265e-09 0.0017246599 1.45926915e-05
0001b0 ab e8 33 39 90 67 57 b4 78 4e 9c 35 58 fa dd 2d
       0.00017157446 -2.0061111e-07 1.1645743e-06 2.5235966e-11
0001c0 d6 ed 35 2d b9 50 02 b1 62 d4 b9 36 ca cb 54 39
       1.0341469e-11 -1.8963375e-09 5.5381543e-06 0.00020293813
0001d0 86 6d 57 39 af a6 c8 2d 5e 24 0e ad ad 37 48 b8
       0.00020544798 2.281139e-11 -8.079841e-12 -4.7735568e-05
0001e0 cf 16 3b 39 5f 52 cb 36 72 4e 04 b8 5d a4 f3 34
       0.00017842207 6.0594607e-06 -3.154431e-05 4.5381867e-07
0001f0 79 8f ef b7 f8 e8 6f b9 58 02 ae 2a b9 9f d7 2e
       -2.855783e-05 -0.00022879604 3.0910235e-13 9.8054405e-11
000200 c8 c5 bf ac c7 36 17 2d 86 ff b9 2c 6a fc a7 2d
       -5.4505046e-12 8.595519e-12 5.286385e-12 1.9097796e-11
000210 80 96 11 3c a6 e0 2f 3c de cd a2 ba 8f 84 1d bc
       0.00888598 0.010734713 -0.0012420972 -0.009614124
000220 ad 93 b6 3b 5c 97 29 bb c8 12 94 bc 17 36 6a bc
       0.0055718035 -0.002587757 -0.018075362 -0.014295123
000230 9f 9b a7 3c 45 b7 52 3c 17 5a 0d 3b 89 76 24 3c
       0.020459948 0.012861078 0.002156859 0.010038027
000240 38 55 68 3b 82 34 f4 3a ef 89 17 3b 02 6f 44 bc
       0.0035451185 0.0018631371 0.0023122986 -0.011989357
000250 14 1e 1b bb ec f6 10 3c f2 20 c8 3b a6 42 44 bc
       -0.002366905 0.008847933 0.006107443 -0.011978781
000260 8b 4d c5 3a 65 aa d8 bb 4c 9c ba ba 93 fd d0 3b
       0.0015053017 -0.0066121095 -0.0014237254 0.0063778847
000270 6b 20 6c 3b 35 7e a0 b9 99 e6 33 bc 12 3e 18 39
       0.0036030065 -0.0003061161 -0.010980272 0.00014518973
000280 1d d0 12 3a 13 00 1a 39 c5 59 06 39 38 d4 b8 b6
       0.00056004693 0.00014686612 0.00012812678 -5.508333e-06
000290 56 b0 cc ba 12 49 e5 39 82 42 90 b9 ef 89 3c 36
       -0.0015616517 0.00043732725 -0.00027515372 2.809447e-06
0002a0 52 2d 62 b6 e4 b0 49 3a d8 af d1 3a 66 d1 0e bb
       -3.3703004e-06 0.00076939 0.001599784 -0.0021792292
0002b0 ee f8 e6 3a 51 d4 1f 3a 9b 7d 25 3a 95 ca 1f ba
       0.0017621794 0.0006097006 0.0006312967 -0.0006095556
0002c0 cd b5 25 ba 51 dd 34 38 a2 c6 a7 b8 c4 fb 25 39
       -0.0006321341 4.312146e-05 -8.000179e-05 0.00015829416
0002d0 06 9e b8 3a 77 de 51 bb e0 7b 1d bb 9e a5 36 39
       0.0014085181 -0.0032023469 -0.0024030134 0.0001741857
0002e0 a7 5d dc 39 c2 d6 52 3a 43 0a 78 bb 90 27 53 3a
       0.00042031446 0.00080428657 -0.0037847913 0.00080549065
0002f0 74 2d 80 ba 7f 8d ff ba a9 53 a7 3a 3c 66 52 3b
       -0.0009779171 -0.0019497125 0.0012766022 0.0032104393
000300 52 f0 24 b7 27 b0 2f ba 24 24 bd 37 73 6e ef b7
       -9.831116e-06 -0.0006701969 2.2547385e-05 -2.8542452e-05
000310 c5 58 4b b7 1f 3e 17 37 05 8f 43 b9 b8 5e b1 b9
       -1.2120411e-05 9.014765e-06 -0.00018649928 -0.00033830642
000320 bc 35 4f b4 e0 78 9d b6 4b 25 e4 37 49 53 0d b9
       -1.9297926e-07 -4.6930363e-06 2.7197084e-05 -0.00013477834
000330 09 e2 64 38 d0 e2 04 b8 3c e5 c9 38 18 10 18 39
       5.4569948e-05 -3.1682488e-05 9.627125e-05 0.00014501845
000340 9e 9b 0a b7 93 00 11 b8 1f 40 88 36 09 a2 08 b7
       -8.261673e-06 -3.457123e-05 4.0605805e-06 -8.143958e-06
000350 5b 27 35 b5 0b d1 d3 36 a9 a1 28 3a b6 1b 26 3a
       -6.7485024e-07 6.312626e-06 0.00064327806 0.0006336527
000360 74 2b ff b6 ba 69 95 37 ca 08 6d b9 5f cd 97 ba
       -7.604651e-06 1.7811417e-05 -0.00022605355 -0.0011581591
000370 13 9c 02 b7 c7 61 10 3a 1c db 9e 38 0d 6c 11 39
       -7.784943e-06 0.0005507734 7.5748394e-05 0.0001386853
000380 ae 46 99 3a 33 6f 66 34 87 ce b7 b6 ad 74 ba b4
       0.0011694038 2.1460873e-07 -5.477868e-06 -3.4730093e-07
000390 fc a5 03 35 7e ae d1 34 a5 d6 c6 b6 ce e8 41 ba
       4.904284e-07 3.9056243e-07 -5.9258477e-06 -0.00073970563
0003a0 d2 2e ae ba 78 78 ea b8 b9 14 d6 39 de 3a 47 39
       -0.00132891 -0.000111804286 0.000408327 0.00019000049
0003b0 80 09 ab 39 8a 34 30 39 f5 8f 8e bb 80 b1 3a b9
       0.0003262274 0.0001680424 -0.004350657 -0.00017804466
0003c0 7a 27 00 3a 40 99 b7 b9 8f 02 18 b9 26 39 cc b9
       0.0004888695 -0.0003501866 -0.00014496803 -0.0003895249
0003d0 a7 66 6a b9 09 de 87 39 04 6a ce ba f3 42 f0 ba
       -0.0002235422 0.00025914636 -0.0015748148 -0.0018330499
0003e0 00 91 11 ba 6b 1d 2a 39 ad bf d9 b9 99 51 87 38
       -0.0005552918 0.00016223422 -0.00041532275 6.4525004e-05
0003f0 c1 bf 71 ba b5 e4 54 b9 9d 8d 61 bb d4 c5 93 b9
       -0.0009221994 -0.00020303096 -0.0034416683 -0.00028185418

fcs1.bias f4 [400]
000000 67 a5 87 ab 45 02 b2 35 e0 e9 94 af c2 c0 bd ba
       -9.638235e-13 1.3262694e-06 -2.708722e-10 -0.0014477002
000010 25 5c a0 bb 38 82 7c 39 32 19 fd b8 ec 04 12 b9
       -0.004893797 0.00024081103 -0.00012068673 -0.00013925479
000020 ca 3e 2e 3c 07 e2 fe 3b 50 37 e3 96 e3 b2 ce bb
       0.010635087 0.0077784094 -3.6708735e-25 -0.006307946
000030 68 3e 62 2f 56 54 ee 39 22 60 7e b3 83 3a 64 31
       2.0576751e-10 0.00045457733 -5.9226416e-08 3.3211627e-09
000040 59 96 ea b9 47 64 42 b5 20 de 00 b7 6a 00 1c 36
       -0.00044743976 -7.2416555e-07 -7.681112e-06 2.3246052e-06
000050 64 8e 9f 9b 8e a8 27 bd 08 e3 11 34 1c bd 71 37
       -2.6396361e-22 -0.04093223 1.3586771e-07 1.440875e-05
000060 d9 d4 36 bd db 17 38 bc f2 34 08 3c 82 a1 ca b8
       -0.04463658 -0.011236156 0.008313404 -9.662194e-05
000070 95 52 50 bc cf 7b f5 39 0e 58 f5 bb b0 f9 c0 b9
       -0.012715002 0.00046822286 -0.0074873036 -0.00036807125
000080 0e 6c ae bc ba fc b2 30 5a 52 30 bd 0c bc 1b 3c
       -0.021291759 1.3023034e-09 -0.043047287 0.009505283
000090 98 b4 3e 3c 87 36 ef 3c 50 bb cd 3a 59 47 f1 3a
       0.011639737 0.029200805 0.0015696082 0.0018408104
0000a0 f1 7a 0d bc ef b7 17 3b 8d e4 4e 39 34 13 5f b5
       -0.008635269 0.0023150404 0.00019730833 -8.310192e-07
0000b0 fe 58 2f bc 14 d9 c4 aa 50 09 22 bc 49 7d d9 bc
       -0.01070237 -3.4967222e-13 -0.009889916 -0.026548998
0000c0 d8 1d 80 39 2c b3 8e bc 19 19 c0 b5 95 23 75 b7
       0.00024436298 -0.01741942 -1.4312419e-06 -1.4611423e-05
0000d0 a2 bf 0a a3 d3 3d 62 b6 fe 8a 8b 3d f5 5c 26 3d
       -7.521575e-18 -3.371261e-06 0.0681362 0.040615994
0000e0 6a e9 83 1d 30 db 82 bc f9 27 e4 bc 3c 1f 9e b2
       3.4916756e-21 -0.015973657 -0.027851092 -1.8407825e-08
0000f0 ae 29 07 bc 9a 10 92 bc 9f 14 ce bc cf e9 75 37
       -0.008249683 -0.017830182 -0.025156317 1.4657576e-05
000100 4c 2e b7 9e 8a 09 67 bb f7 e2 20 bb a1 b5 32 bd
       -1.9395027e-20 -0.0035253488 -0.0024549344 -0.043630246
000110 85 86 c9 3c c4 43 02 bb 3b bd 51 3c 19 48 4e b7
       0.024600277 -0.0019876817 0.012801464 -1.2295343e-05
000120 e4 0e 95 3c ba 16 44 3b 34 d6 2a b5 06 d8 62 b9
       0.018195577 0.0029920773 -6.364164e-07 -0.00021633515
000130 ad af bb bc 06 cc 0e b6 1a 85 68 80 d8 54 c9 bc
       -0.022910917 -2.1278406e-06 -9.59864e-39 -0.02457659
000140 ac e1 16 bd ea b6 4b 3c 47 70 a2 b1 f2 cb 44 3c
       -0.03683631 0.012433747 -4.727585e-09 0.012011515
000150 a3 08 47 3c af 4e df b3 fd e2 0d bd 94 db b1 bd
       0.012148055 -1.0398559e-07 -0.0346403 -0.08684459
000160 c1 42 e8 b8 d5 ae be bc 6e 5a 9b 34 50 33 81 bd
       -0.00011075056 -0.023276726 2.8936796e-07 -0.06308615
000170 2e 46 7e 3b 69 40 81 3c 29 fb 2f 38 36 5e ac 3c
       0.0038799155 0.015777783 4.1957162e-05 0.021041017
000180 b3 32 d5 3c b3 56 9b bd 75 59 2b 3b 06 7b 95 a5
       0.026025152 -0.07584896 0.002614585 -2.5930744e-16
000190 55 48 dd a9 37 93 83 bc a9 0d 8d 2b ad 78 3d bc
       -9.826919e-14 -0.016061408 1.0022444e-12 -0.011564416
0001a0 36 93 be bb 73 d6 88 3b ed cb 2a 38 74 a8 94 b5
       -0.0058158888 0.004175955 4.072108e-05 -1.1075886e-06
0001b0 a5 74 8a b5 1a ef 67 bd 42 b5 29 bd af 23 64 a9
       -1.0315749e-06 -0.05662451 -0.041432627 -5.065712e-14
0001c0 e0 b9 06 24 b1 4a 78 bc eb 19 38 b9 b0 71 9f ba
       2.921406e-17 -0.015154527 -0.00017557263 -0.0012164619
0001d0 d1 be 06 bd ab 9e 81 b2 77 cd 0b 3b a4 85 92 3c
       -0.03289682 -1.508973e-08 0.0021332183 0.01788599
0001e0 d3 e6 29 bb 0f 3c 1c bd 67 8a 42 ba fe 1f 33 a6
       -0.0025924935 -0.038143214 -0.0007421136 -6.214646e-16
0001f0 6d 5b 37 2c df 40 38 b3 8a c4 c0 bc b4 79 85 bd
       2.6056616e-12 -4.289984e-08 -0.023531217 -0.06517354
000200 29 40 b3 23 1a f4 70 a7 68 e7 90 39 ab 9a f4 b9
       1.9434392e-17 -3.3439018e-15 0.0002763823 -0.00046654543
000210 c5 7f 8f bd bd a1 1a 3b 65 88 bc 34 34 f8 0d bd
       -0.07006792 0.0023594939 3.511697e-07 -0.034660533
000220 6e b8 3a 3c 4e 7b 55 23 4e 8c 42 bd 79 83 ab 3b
       0.0113965105 1.1572864e-17 -0.047497086 0.0052341786
000230 c9 36 20 bb 8e f1 f2 bc a7 12 d6 3c ab 34 d1 bb
       -0.0024446717 -0.029656198 0.026131941 -0.0063844523
000240 7b ce fb bc 64 02 81 3d 4f 24 80 3c 03 dc b2 3c
       -0.030738106 0.06299284 0.015642313 0.021833425
000250 a9 15 0e 2e 11 b9 cc bc c1 e1 03 3a 17 8f d1 ba
       3.23063e-11 -0.02499059 0.00050308934 -0.0015988079
000260 0d f0 8d bd c1 66 90 ba a5 78 08 ae ae 2e 6a 3d
       -0.06930552 -0.0011016951 -3.1029974e-11 0.057173423
000270 d3 94 d5 25 72 4c c4 a4 49 0c 91 bd b7 92 9a bd
       3.7050457e-16 -8.5130954e-17 -0.07082421 -0.07547515
000280 34 10 84 bc da c1 77 3c 5b 51 8d 3b c6 e2 8d bb
       -0.016121008 0.015121901 0.004312677 -0.004330012
000290 0a 8c 20 bd c4 15 67 ba ed 39 dd 35 11 9c e1 a9
       -0.03919605 -0.0008815194 1.6482642e-06 -1.00190804e-13
0002a0 46 d2 10 bc 79 8a d9 bc 4c 81 57 bd ee a1 0c bb
       -0.008839196 -0.026555287 -0.05261354 -0.0021458822
0002b0 1d 71 f6 a3 15 c6 c1 aa 8e b9 c6 bc 83 58 93 b5
       -2.6719279e-17 -3.4421134e-13 -0.024258401 -1.0978114e-06
0002c0 ef b3 58 3c 42 df a3 b1 f5 2a a0 3b 7b 50 9a b5
       0.013226493 -4.769306e-09 0.0048879334 -1.1497317e-06
0002d0 45 ac 1a b2 34 53 fe bb f1 69 8f bc d5 f5 5c bd
       -9.003149e-09 -0.0077613834 -0.017506571 -0.05394538
0002e0 22 aa dd bc 25 12 a5 bc 0c 12 24 3c 39 07 da b6
       -0.027058665 -0.020150254 0.010014068 -6.497747e-06
0002f0 ab 08 68 bb b2 5e 24 bd cd b4 a2 bc 00 de 2b 38
       -0.0035405557 -0.04012937 -0.019861603 4.097633e-05
000300 d6 6f 2a 3b 29 fc 01 3d d5 f2 fc 3c 2b 9b 8c 37
       0.00260066 0.03173462 0.03087751 1.6761556e-05
000310 f7 92 44 bd 48 99 96 3c c8 d1 9e 3a 49 ba 99 b8
       -0.04799172 0.018383637 0.0012116963 -7.330307e-05
000320 35 5d 91 bd bd 3c df bc 6e e1 2c ad 7d f4 88 bc
       -0.07097856 -0.027250642 -9.8271235e-12 -0.016718144
000330 5b cc a8 b8 59 cc ae ba 96 cf 23 a1 dc 26 a2 3c
       -8.0489284e-05 -0.0013336047 -5.5501286e-19 0.01979392
000340 ee 54 12 b9 cf 14 69 ba 11 38 55 bc 41 2f 8f 1f
       -0.00013955284 -0.00088913454 -0.013013856 6.064103e-20
000350 59 b6 1f bd 8a 98 66 bb cc 50 57 a6 90 24 07 bd
       -0.03899226 -0.0035186135 -7.470261e-16 -0.032993853
000360 34 d9 b3 bd 55 db 77 3c 24 c1 df 3c 16 24 bf bc
       -0.087816626 0.015127976 0.027313776 -0.023332637
000370 03 a9 95 bc 07 2f 52 b1 6a 30 e4 34 76 45 b5 ab
       -0.018269068 -3.0585754e-09 4.2503535e-07 -1.2880103e-12
000380 66 80 fd a1 ed bd 21 af 69 68 9f 3c cf 5a 52 3c
       -1.7177934e-18 -1.471034e-10 0.019458966 0.012839033
000390 f2 0e 99 3b d0 0b ba bc 27 69 6d bd 7e a2 00 3d
       0.004670971 -0.02271071 -0.05796161 0.031404965
0003a0 15 2e 1e bc 26 db 30 bc fd 61 c9 aa 94 d3 fd a1
       -0.0096545415 -0.010794437 -3.5772766e-13 -1.7199951e-18
0003b0 55 9c a1 bd 62 51 b1 bc 53 d8 44 bb 88 3b c2 bb
       -0.07891146 -0.021645252 -0.0030036166 -0.005927507
0003c0 11 04 6c af 7f 02 ee a8 45 2c df b5 f8 95 ff 3b
       -2.146552e-10 -2.642439e-14 -1.6627679e-06 0.00779986
0003d0 75 96 55 bb d7 e1 16 bd 8f fd 2a bd 78 1e 71 3c
       -0.00325909 -0.03683647 -0.04174572 0.014716737
0003e0 95 4e 6d bc 43 71 12 3c e1 de dc bc b4 ca 9f bd
       -0.014484067 0.0089381365 -0.026961746 -0.078023344
0003f0 0d d8 1b bd 25 7b 30 3b 47 7f 21 3a c8 35 9e ac
       -0.03804784 0.0026928869 0.00061606284 -4.496601e-12

fcs1_batch.weight f4 [400]
000000 98 51 ea ad aa a2 9b 36 00 c6 ee 30 23 97 4f b4
       -2.6638955e-11 4.6382966e-06 1.7373054e-09 -1.933336e-07
000010 78 e5 a8 3c 60 7b e5 3a b3 2c 66 39 e5 1b ae 3a
       0.020617232 0.0017508082 0.00021951161 0.001328346
000020 07 c6 1f 3e e5 c8 7e 3d 3d 2f 32 1e c9 84 eb 3c
       0.15602885 0.062203307 9.43301e-21 0.02874984
000030 ea f2 b5 31 43 94 c9 38 20 0f bb 36 f3 63 c1 30
       5.2954094e-09 9.612043e-05 5.574795e-06 1.4071005e-09
000040 e6 be 08 34 75 ba 04 b8 b1 14 87 37 51 7c f0 37
       1.2735435e-07 -3.1644904e-05 1.610289e-05 2.8668119e-05
000050 fd a8 00 1e 6b 5d 2f 3e f5 af 0f 36 be 5a fd 37
       6.8112095e-21 0.1712548 2.141108e-06 3.0202205e-05
000060 4c ac ac 3b e1 9d 3a 3e 18 8b 0f 3d eb 2a 19 37
       0.005269563 0.18224289 0.03504476 9.129503e-06
000070 d3 04 64 3e a8 a8 4d 3b eb 86 9d 3d b3 b3 f7 33
       0.22267465 0.0031381045 0.07691749 1.1534521e-07
000080 f3 9b bd 3d 97 09 38 31 df 11 4b 38 3f 05 e9 3d
       0.092582606 2.6780975e-09 4.8415615e-05 0.11377954
000090 c2 6b b7 3c be 27 ce 3d 00 76 28 3e 98 d9 2f 3c
       0.02239025 0.10066174 0.16451263 0.010733031
0000a0 ad 37 80 3d 18 d7 cf 3c a0 1e 95 38 e6 cb 79 35
       0.06260619 0.02537112 7.110578e-05 9.305644e-07
0000b0 6c 39 2f 3d 2c bd 84 ac 27 1a 6f 3d 90 0d da 3c
       0.04277937 -3.772668e-12 0.05837455 0.026617795
0000c0 28 82 8e 3d 78 7b bd 3c 94 1c 6b 33 12 0f ce 37
       0.06958419 0.023130164 5.4741193e-08 2.4564131e-05
0000d0 1e a3 90 22 8d 39 26 38 b6 6d 50 3e 37 66 10 3e
       3.9203985e-18 3.9631082e-05 0.20354351 0.14101492
0000e0 03 48 ce 1f ab bb b0 36 67 6c 4f 3d 9b 90 19 33
       8.736353e-20 5.267056e-06 0.05064049 3.5754606e-08
0000f0 92 eb 12 3d c0 ec a7 38 43 92 75 36 6b 74 9b 36
       0.03586919 8.007279e-05 3.659298e-06 4.632913e-06
000100 ff 49 b5 20 4f 48 d0 3b 73 1c 6e 3d 4a 4f 80 3d
       3.071156e-19 0.006356276 0.0581326 0.06265123
000110 7f d0 c3 3d 8d ca 9f 29 52 24 1a 3e 1d 2c 06 38
       0.09561252 7.0961554e-14 0.15052918 3.1989173e-05
000120 f7 62 85 3d 52 54 b0 3b d8 52 a9 34 f6 57 6b 39
       0.06513017 0.0053811455 3.153898e-07 0.00022444114
000130 83 d5 30 3e 31 a5 d7 36 24 dd a3 81 2a ab 3f 3e
       0.17268948 6.42673e-06 -6.0194065e-38 0.18717638
000140 db 98 1c 3b 76 1f 05 3e e5 99 d2 34 b2 89 23 3e
       0.002389482 0.13000283 3.922752e-07 0.15970495
000150 ee 96 cf 3d 77 7f 87 31 06 90 c8 34 46 8d 14 3d
       0.101362094 3.943508e-09 3.7357694e-07 0.03626754
000160 af fe 25 37 99 08 8d 38 cd bc 28 37 90 40 54 3a
       9.8940645e-06 6.7250054e-05 1.0057539e-05 0.0008096779
000170 34 c3 95 3d ad c6 a5 3d e8 5c 93 39 aa cc 4d 3e
       0.07312623 0.08094535 0.00028107245 0.20097604
000180 d7 75 41 3d 0d ea 5d 3b e5 62 92 3d 15 c8 7b 2b
       0.04723152 0.003386143 0.07147769 8.9450783e-13
000190 8a 71 d7 2f ea 60 81 3d 7a 0e 58 2e 04 b9 bd 3c
       3.9188947e-10 0.06317313 4.912557e-11 0.023159511
0001a0 60 62 a1 3d 92 9e 07 3e 14 96 8e b7 3a f7 54 b6
       0.07880092 0.13244084 -1.6997605e-05 -3.1734367e-06
0001b0 82 43 66 32 2c a7 c5 3d ff a3 21 3d 19 0d 29 34
       1.34031115e-08 0.09651026 0.03946304 1.5744116e-07
0001c0 23 08 4c 29 66 38 9e 3c 3c 04 c3 38 b2 7f 26 37
       4.5304157e-14 0.019314002 9.299113e-05 9.924102e-06
0001d0 34 f9 99 3d da 73 74 32 f0 ca 17 3c d7 b2 54 3d
       0.07518235 1.4229011e-08 0.009264693 0.051928367
0001e0 fb 21 c5 b8 1d 12 80 3d 46 d8 3c b5 55 40 da 2d
       -9.4000214e-05 0.06253455 -7.0350177e-07 2.48123e-11
0001f0 6b 66 c3 b3 24 ae 20 32 24 27 8e 3d f0 c3 95 3c
       -9.099025e-08 9.352821e-09 0.06941059 0.018281907
000200 52 ff 74 2d de 67 ae af ce a8 20 3a b6 93 8e 3a
       1.3926487e-11 -3.1724218e-10 0.00061286695 0.0010877762
000210 b4 14 dc 3d c5 30 f0 3d 6f 46 b5 36 f6 61 28 3e
       0.10746136 0.11728052 5.40242e-06 0.16443619
000220 86 fc d4 3d 32 a7 84 29 e8 f2 43 38 32 5b 41 3e
       0.103997275 5.890981e-14 4.6717847e-05 0.18882445
000230 3b fb 64 3b c7 92 7c 39 e0 60 15 3e 98 e0 92 34
       0.0034939784 0.00024087272 0.14587736 2.7358033e-07
000240 a7 f2 a7 3d 5b df 37 3e 11 9a 56 3d bc 2a dc 3d
       0.08200579 0.17956297 0.052393023 0.107503384
000250 c3 7f 7c 31 83 37 d3 36 4b a4 1b 39 fd 7b 20 39
       3.674345e-09 6.2947524e-06 0.00014843156 0.00015304978
000260 82 10 be 3d 9e 3e e6 ae fa 14 cb 30 99 b1 3b 3e
       0.09280492 -1.0470312e-10 1.4776156e-09 0.18329467
000270 71 cd 43 2e b1 aa 59 27 b5 c5 7a 3d 8f 98 c2 3d
       4.4520335e-11 3.0207332e-15 0.061223704 0.095017545
000280 db a5 c4 3c 83 f8 22 3e 5f de 71 3d 2f 87 f2 33
       0.024004867 0.15915112 0.05904996 1.1293593e-07
000290 d1 42 42 3d 1a fc cb 3b ee bd 80 35 8f 10 78 28
       0.047427002 0.006225121 9.59202e-07 1.3770356e-14
0002a0 9a f7 f6 2f 83 31 bc 3c ba 92 2c 3d 94 e7 80 b1
       4.492307e-10 0.022972828 0.042132117 -3.7516177e-09
0002b0 93 fc 9a 2c f6 c2 51 a9 3d 50 95 3c 07 94 dd 36
       4.4049846e-12 -4.6576424e-14 0.018226737 6.603546e-06
0002c0 01 a7 37 3d a8 26 8e 33 f4 f8 6e 3c 62 c7 5d b5
       0.044837 6.619422e-08 0.014585722 -8.2619056e-07
0002d0 31 73 33 b8 bf 1f 1b 3d d4 33 96 3b 32 b9 87 3c
       -4.2784206e-05 0.037872072 0.004583815 0.0165678
0002e0 0e 4f 00 3e eb 69 8b 3d 99 45 1d 3d 36 91 a6 39
       0.12530157 0.068073116 0.03839645 0.00031770178
0002f0 92 e1 3e 3b 46 81 52 3b a3 b1 ae 3a 1a 85 29 3a
       0.002912615 0.003212051 0.0013328086 0.0006466672
000300 49 21 df 3d 5f be d6 3d 8b 86 4d 3e 75 12 83 38
       0.108950205 0.10485529 0.20070855 6.250005e-05
000310 41 89 09 3d d7 a6 0a 3d 94 0b 13 3b 38 36 4f 36
       0.03357816 0.033850517 0.002243732 3.0876963e-06
000320 7a 74 ae 3d 94 00 8d 3d b6 a7 aa 32 4c 7e d4 3c
       0.0851831 0.06884876 1.986687e-08 0.02593913
000330 c2 18 26 33 32 52 6d 31 c2 80 a4 2a 2d bf a1 3d
       3.8672404e-08 3.4534762e-09 2.9221596e-13 0.07897792
000340 7c bf 52 36 ea a4 ad 3a 38 54 d4 3d 07 87 e1 9f
       3.1403897e-06 0.0013248001 0.10367626 -9.551459e-20
000350 9f ce 6e 3d b1 af aa 3a 7d 34 1b 2f 2c 93 a8 3d
       0.058302518 0.0013022331 1.4115815e-10 0.08231196
000360 81 9b eb 3d b3 35 20 3e 3f 13 31 3e b0 e8 c2 3d
       0.115042694 0.15645485 0.17292498 0.09517038
000370 6f cc 1a 34 2c 92 74 35 bc 16 13 36 20 80 12 29
       1.441674e-07 9.110979e-07 2.191794e-06 3.2529643e-14
000380 33 fe 1e 29 b2 44 cb 2c 32 6b 0c 3e 3d 80 71 3d
       3.530353e-14 5.7772337e-12 0.13712767 0.05896019
000390 1f 6d f7 3d f1 cf c8 3d 44 62 ca 3d 45 bb 61 3e
       0.1208136 0.09805287 0.09882024 0.22044094
0003a0 5e 8b 8c 3d 22 fc d1 3d 38 51 37 33 32 9e ee 2c
       0.0686252 0.10253169 4.2681876e-08 6.78193e-12
0003b0 c8 8d 1f 3d 73 57 f4 3d d0 48 57 37 ee e0 b2 3b
       0.038953573 0.11930742 1.2831952e-05 0.0054589426
0003c0 22 78 f9 2f 2d a4 81 2e fe 62 df b4 81 00 40 3c
       4.5378196e-10 5.895404e-11 -4.1609013e-07 0.01171887
0003d0 66 cf ea 3b 15 4d b4 3d ee 63 d7 3d 73 bf 9c 3d
       0.007165837 0.08803765 0.10517107 0.076537035
0003e0 a5 ed 04 3e 19 90 bf 3c 14 fd ec 34 2a 2a c1 3a
       0.12981279 0.02338414 4.4142564e-07 0.0014737297
0003f0 3d e8 39 3d 68 f2 33 3d f0 8f 93 3a 87 00 0f b6
       0.045387495 0.04393235 0.0011258107 -2.1308967e-06

fcs1_batch.bias f4 [400]
000000 03 7d cb 3b d5 ba 0c 36 41 49 ad 38 dc 03 7d 37
       0.006209971 2.0970376e-06 8.2629274e-05 1.5080874e-05
000010 5c 93 a3 b9 82 65 32 39 8e be ee b9 46 36 93 3a
       -0.00031199574 0.00017013217 -0.00045536872 0.0011231385
000020 c0 7b 03 3c b3 58 b1 bb 00 d7 b7 b4 3b 1d c3 3b
       0.00802511 -0.005412185 -3.424284e-07 0.0059544123
000030 26 4b d3 33 4e 93 2b b7 fe 62 46 36 17 5d 47 b4
       9.8391226e-08 -1.0226691e-05 2.956192e-06 -1.8567185e-07
000040 12 23 00 36 3f 45 e3 b3 04 e9 f5 b6 cb 44 a1 38
       1.90939e-06 -1.0583107e-07 -7.3286956e-06 7.689892e-05
000050 03 0c be b9 b7 30 a9 ba 90 be 1b b5 d5 21 00 37
       -0.00036248573 -0.0012908195 -5.8019305e-07 7.637272e-06
000060 0e 0a 38 b8 46 a2 43 bb b5 e3 17 ba b7 55 cf 39
       -4.3878383e-05 -0.0029851361 -0.0005794124 0.0003954598
000070 4a 73 6e bb b2 5f 53 ba e0 63 3b ba c7 a8 2f 35
       -0.0036384636 -0.0008063271 -0.00071483664 6.5438184e-07
000080 67 59 3a bb 50 ad 7f b3 77 48 43 38 d5 db aa ba
       -0.0028434636 -5.952944e-08 4.655911e-05 -0.0013035486
000090 ae 52 3e ba 4c 59 07 38 cb 16 cc ba ff 14 4b bb
       -0.0007260245 3.2269672e-05 -0.0015570758 -0.0030987856
0000a0 a1 ec c0 ba 3e c8 38 bb 66 5b ad b9 f0 06 d0 3b
       -0.0014718958 -0.0028195526 -0.00033065228 0.0063484833
0000b0 7b 3a 32 bb 5d d9 7f b9 45 14 58 bb c7 bb 80 bb
       -0.0027195502 -0.00024399669 -0.0032971066 -0.003928635
0000c0 3e b9 4e b9 ac 93 6d b8 0c b4 97 b5 4a fc e3 37
       -0.00019714699 -5.6642733e-05 -1.1302777e-06 2.717799e-05
0000d0 aa 6c e1 3b 35 dc 06 37 51 25 b2 3b ae 61 86 3a
       0.006879409 8.038293e-06 0.0054365774 0.00102525
0000e0 08 ae cb 38 a1 54 c1 36 06 da 9c bb a8 0c 45 b4
       9.71221e-05 5.7617003e-06 -0.0047867326 -1.8351659e-07
0000f0 d6 15 77 b9 c8 24 29 b8 8f e9 9a b5 73 8a e8 36
       -0.0002356389 -4.0326995e-05 -1.1541869e-06 6.9302564e-06
000100 c5 f8 12 3b 2b 29 31 bb 93 10 23 ba 41 a1 fc 3b
       0.002242611 -0.0027032595 -0.00062204263 0.0077096527
000110 18 2d 91 ba 9a 48 70 ba e2 67 a9 bb dd a4 da 36
       -0.0011076061 -0.0009166092 -0.0051698545 6.516099e-06
000120 cf 0c 0b 3b 3a ad 0b 3b 63 30 4d 34 70 3e 17 b9
       0.0021217351 0.0021312968 1.9109716e-07 -0.00014423742
000130 be 5f 91 3a 2c 04 ec 36 96 37 4e b5 19 96 23 3b
       0.0011091155 7.0338338e-06 -7.682187e-07 0.0024961291
000140 88 c1 0b ba 7d 19 e3 ba 4e 0c 0d b5 37 04 16 bb
       -0.00053312676 -0.0017326322 -5.25445e-07 -0.0022890696
000150 96 ab 07 bc 26 5b 90 b9 54 7c c7 b6 e2 2a 9d bb
       -0.008280655 -0.0002753373 -5.945136e-06 -0.004796372
000160 42 42 4e bb 4f 59 23 39 08 17 4f 37 27 47 fb b9
       -0.0031472598 0.00015578161 1.2343524e-05 -0.00047927463
000170 5c 23 c7 ba 4e ef 4f bb 4c 27 a6 39 90 4c 20 3b
       -0.0015193033 -0.003172833 0.00031691266 0.0024459697
000180 97 54 cd ba 50 c4 3f b9 45 33 54 bb 64 9c 7d b5
       -0.0015665469 -0.00018288312 -0.0032379192 -9.4477423e-07
000190 29 79 70 32 4e 06 94 3b 0d 16 9b b8 13 20 48 3b
       1.3997387e-08 0.004517353 -7.395083e-05 0.0030536696
0001a0 db b4 c2 3b f9 ab 95 bb 05 fa d6 b8 d6 1c b9 b8
       0.00594197 -0.00456762 -0.00010250885 -8.8268585e-05
0001b0 64 74 60 b4 3a eb 60 3b 57 de 35 bb 90 cd 18 b1
       -2.0903968e-07 0.0034319893 -0.0027750933 -2.223576e-09
0001c0 e8 85 fb b9 1d a5 9e bb 0d cf 40 b7 cd 3f fb 35
       -0.0004797422 -0.0048414604 -1.14923e-05 1.8719526e-06
0001d0 75 23 a1 bb 01 7b 85 3b 84 f4 23 bb e3 5a 76 3b
       -0.004917557 0.004073501 -0.002501757 0.0037590794
0001e0 85 49 55 3a a0 72 a1 bb 24 6c 89 b9 cb 6b b4 b3
       0.00081362604 -0.0049269944 -0.00026211247 -8.4015106e-08
0001f0 43 2b af ae 4d 1e 0d 34 e0 00 5c bb 78 62 0b 3b
       -7.9657635e-11 1.3142672e-07 -0.0033569857 0.0021268409
000200 a2 7b b6 31 c8 12 5b 34 7a 53 b0 b9 46 47 ac 39
       5.3109526e-09 2.0402797e-07 -0.0003363153 0.000328595
000210 43 40 a3 3b d2 73 a8 bb f9 78 b8 b5 57 75 db bb
       0.004982026 -0.00514076 -1.3744276e-06 -0.0066973376
000220 9d 9c 33 bb 02 e3 48 b2 1c cf 91 37 fb b1 24 bc
       -0.0027406581 -1.1693148e-08 1.738179e-05 -0.0100521995
000230 ac 2e 02 3b 60 54 60 37 c3 79 86 3b 41 50 2f 36
       0.0019864244 1.33710855e-05 0.0041038706 2.6123746e-06
000240 54 1e 41 3a fb 65 ea b9 be 4d a9 b9 0f 58 ec 39
       0.0007366885 -0.0004470794 -0.00032292114 0.00045079036
000250 a3 8b 47 31 e2 27 66 38 0e d5 87 b7 eb b9 80 37
       2.9037686e-09 5.4873417e-05 -1.6192465e-05 1.5345364e-05
000260 7b d2 be bb 4f 0e bc 32 a9 cb 34 b3 6a 20 91 3a
       -0.005823431 2.1892587e-08 -4.2094744e-08 0.0011072282
000270 e0 79 80 32 d3 e9 d9 39 33 cb 7d 3a cf 43 8e 3b
       1.4956584e-08 0.00041563678 0.0009681463 0.0043415795
000280 22 3b 8b b8 99 d0 11 3b 14 a5 2c bb 47 a6 e6 36
       -6.639051e-05 0.0022249578 -0.0026343511 6.8738914e-06
000290 be ba 0d bb 66 bd 8f ba 57 fc a3 3b 5d ed c8 bb
       -0.00216262 -0.0010966479 0.0050044465 -0.0061318115
0002a0 2f b9 b9 35 00 0b 83 b7 17 e9 44 bb 26 40 70 b5
       1.383747e-06 -1.562154e-05 -0.003004616 -8.9500315e-07
0002b0 b8 f4 09 32 2f ce 41 3b 55 eb c2 ba 88 4d 97 35
       8.030092e-09 0.0029572358 -0.001487116 1.1272941e-06
0002c0 19 e0 60 bb a8 24 7f b5 60 c2 40 b9 83 d3 80 37
       -0.003431326 -9.5048244e-07 -0.00018382957 1.5357282e-05
0002d0 f3 04 7b 34 1b d4 31 bb 46 45 86 3a 9a 57 c9 ba
       2.3377997e-07 -0.0027134481 0.0010244034 -0.001536119
0002e0 5a 71 83 bb ad d5 18 bc b7 39 83 3b fb c5 0b b7
       -0.0040113153 -0.009328288 0.004004683 -8.3311415e-06
0002f0 58 85 33 ba 00 20 03 3a b8 67 11 38 8c 3d f7 39
       -0.0006848178 0.0005002022 3.466729e-05 0.00047157367
000300 5e a6 ab b9 4a 5d e9 39 29 2e b3 3b 24 ca 49 37
       -0.00032739615 0.0004451073 0.005468149 1.2027598e-05
000310 e3 8a f4 39 d9 bc c4 3b 54 8e 4f b9 f3 a1 39 ba
       0.00046642785 0.0060039577 -0.0001979408 -0.0007081322
000320 a4 cc b0 b8 9c 08 03 3a 65 82 a5 35 bb 3f 29 3a
       -8.430451e-05 0.00049985363 1.2331408e-06 0.0006456335
000330 04 a5 e9 b5 47 f4 9b b3 fe 96 ec 30 b0 45 75 3b
       -1.7407879e-06 -7.262184e-08 1.7214175e-09 0.003742557
000340 0a 5b c3 b5 c3 1b 22 ba 9d 80 21 3b 57 66 a1 38
       -1.4555128e-06 -0.00061839464 0.002464331 7.6961405e-05
000350 04 88 3b bb d4 71 04 b8 a6 e9 66 32 cc b0 06 ba
       -0.0028615007 -3.1577263e-05 1.34408875e-08 -0.0005138039
000360 f5 57 a7 39 24 60 9d 3b 13 60 a3 3b 3e ec 2a bb
       0.00031918255 0.0048027206 0.004985818 -0.0026080753
000370 45 81 84 37 9a 00 32 35 60 e5 8c b7 7a 1b e7 39
       1.5795822e-05 6.631104e-07 -1.6796112e-05 0.00044080225
000380 b5 33 3a b4 ca 4d 36 b0 7a 46 5d bb 11 11 bf ba
       -1.7341411e-07 -6.632176e-10 -0.003376393 -0.001457723
000390 38 cc 01 ba fb ef d3 3b 32 6b 3f bb 45 21 5e bb
       -0.00049513904 0.006467817 -0.002920818 -0.0033894342
0003a0 7d 66 94 3b ed 5b 4c ba c8 43 90 b2 30 4a 0e 30
       0.004528819 -0.00077956804 -1.679463e-08 5.1764726e-10
0003b0 88 95 15 3a 6e f1 e1 3a 08 16 b3 37 08 d6 87 ba
       0.0005706181 0.0017238089 2.1348722e-05 -0.0010363469
0003c0 c4 fb 05 b1 39 a5 94 b0 1d 1d e7 37 61 fc 9f ba
       -1.949716e-09 -1.0815376e-09 2.7550903e-05 -0.0012205952
0003d0 40 a1 5e ba 8d eb 4f ba 94 82 6e bb 16 d1 30 3b
       -0.0008492656 -0.0007931523 -0.0036393749 0.0026980094
0003e0 b3 c6 28 bb 6c f1 a7 3a 96 27 0a b6 b8 3f 9a 38
       -0.00257532 0.0012813038 -2.0586644e-06 7.355161e-05
0003f0 f2 76 81 ba 4d bd c7 ba 77 b0 59 ba 97 25 8d 2f
       -0.0009877367 -0.0015238911 -0.00083041884 2.567446e-10

fcs1_batch.running_mean f4 [400]
000000 62 03 9c 2d cd 8b d3 38 f2 93 ce 33 fe f8 4c 37
       1.7736649e-11 0.00010087304 9.6195336e-08 1.2217321e-05
000010 29 6a 87 3b e9 23 c2 3a f8 ca 98 39 92 37 72 3a
       0.0041325283 0.0014811727 0.00029142923 0.0009239848
000020 ad aa e9 3c 78 12 94 3c 84 2e ad 15 2f 78 97 3b
       0.028523767 0.018075213 6.994753e-26 0.0046224813
000030 41 42 38 36 dc 0c 70 3a 5e 1f e8 38 ed 9a ea 37
       2.7456701e-06 0.00091571896 0.00011068465 2.7967117e-05
000040 35 fc a4 38 5c 9d 94 33 ba 85 f6 38 ca 64 af 38
       7.8671066e-05 6.9204106e-08 0.000117551026 8.363424e-05
000050 73 16 f6 1a 08 97 13 3c cf b9 48 37 40 6f 4b 39
       1.01779484e-22 0.009008177 1.1964191e-05 0.00019401032
000060 49 50 e4 36 48 f7 8d 3c 86 61 4a 3c 09 93 d0 35
       6.804276e-06 0.017329827 0.012352353 1.554e-06
000070 38 b7 31 3c a9 77 02 3b 99 03 21 3c 35 88 28 39
       0.010846905 0.0019907749 0.009827518 0.0001607247
000080 e2 27 62 3b 23 96 2e 37 04 00 00 00 52 03 91 3c
       0.0034508635 1.0406165e-05 6e-45 0.017701779
000090 7a 15 7b 3c 64 52 01 3d 5c b0 b2 3c b4 fe cf 3b
       0.015324945 0.031572714 0.02181261 0.0063475017
0000a0 d5 85 db 3b 20 fb 19 3c 69 4c 74 3a 25 01 10 34
       0.0066993036 0.009398252 0.00093192473 1.3411461e-07
0000b0 3b 37 c2 3b 11 d4 b4 2a b6 19 e1 3b 60 05 39 39
       0.005926994 3.2121574e-13 0.00686952 0.00017644977
0000c0 0e e1 33 3c 3f e8 39 3b 78 a9 f6 36 ea 33 90 38
       0.01097895 0.002836719 7.3511e-06 6.876125e-05
0000d0 4a bb a9 1e 1c c0 18 39 45 2e 98 3d 55 a7 2c 3d
       1.7971032e-20 0.00014567416 0.074307 0.042151768
0000e0 b3 1b a8 1e c2 24 38 34 50 33 61 3b fa da 90 36
       1.7799148e-20 1.7149708e-07 0.003436286 4.3170267e-06
0000f0 8b 3f c1 3b b6 7d 67 38 04 00 00 00 e5 c7 6b 39
       0.0058974675 5.519177e-05 6e-45 0.00022485813
000100 11 7a d3 16 3c a7 2f 3b 71 87 1c 3c 2e 3a 2f 3b
       3.4165923e-25 0.002680256 0.009553776 0.0026737559
000110 f4 4d e4 3c 04 00 00 00 c5 51 d1 3c 63 68 ab 38
       0.027869202 6e-45 0.025551686 8.173359e-05
000120 aa 65 c6 3c 7f 9c 95 3b 9a 20 1c 36 35 0e c2 39
       0.0242184 0.004565775 2.3264788e-06 0.00037013149
000130 03 6e 71 3c fa b5 31 39 ea 62 35 00 6d ed 29 3c
       0.0147357015 0.00016947827 4.902765e-39 0.010371548
000140 72 f1 3a 25 ad bb bf 3c 65 eb ed 36 fc 7b a3 3c
       1.6214733e-16 0.02340492 7.090554e-06 0.019956581
000150 95 82 a4 3c 4a 6c 88 33 04 00 00 00 90 46 fa 38
       0.020081798 6.352691e-08 6e-45 0.00011934072
000160 27 74 91 35 04 00 00 00 c0 bc 8a 38 6f be 1a 24
       1.0837147e-06 6e-45 6.61551e-05 3.355473e-17
000170 cc 5f 64 3c 80 ea ae 3c 1c 68 8e 3a 8a 42 09 3d
       0.013938855 0.021352053 0.0010864767 0.033510722
000180 8d 66 e5 3c d6 51 68 0d 2b 4f 64 3c 84 fe d0 2b
       0.028003002 7.1589026e-31 0.013934891 1.4849931e-12
000190 63 55 4d 33 b4 0c 02 3c 19 cf 5f 31 11 44 ea 3b
       4.780794e-08 0.007937599 3.2568492e-09 0.0071492274
0001a0 67 97 66 3c 8d e1 80 3c e8 b5 28 3a 2a c9 48 39
       0.014074183 0.015732551 0.00064357975 0.00019148426
0001b0 3f dd cb 35 35 17 84 3b ae a0 9c 32 1c 76 28 2b
       1.518907e-06 0.004031087 1.8233859e-08 5.98495e-13
0001c0 a6 10 39 2b ef df 97 39 78 19 16 38 b9 36 b1 35
       6.574831e-13 0.00028967808 3.5786506e-05 1.3203454e-06
0001d0 f8 c0 10 3c 03 38 9f 31 0f 48 aa 3b 47 a9 b9 3c
       0.00883507 4.633877e-09 0.0051965783 0.022663726
0001e0 8e bf a9 37 62 e3 36 3b db 61 00 36 ca b7 9a 32
       2.023557e-05 0.0027906527 1.9130446e-06 1.8011537e-08
0001f0 03 5f d9 2e 87 e2 22 37 a1 3b 96 3b 40 ad d8 36
       9.884895e-11 9.708695e-06 0.004584745 6.4574706e-06
000200 14 23 59 30 8a 78 b7 35 0c b1 6e 3a b6 64 c9 39
       7.899399e-10 1.3669644e-06 0.00091053615 0.00038412743
000210 bc d2 f9 3a c4 65 90 3c 2a 25 63 38 4e db af 3b
       0.0019059996 0.01762665 5.415563e-05 0.0053667193
000220 01 2f ae 3c f2 67 83 30 04 00 00 00 4c 7a a6 3c
       0.021262648 9.561048e-10 6e-45 0.020321988
000230 c7 80 c6 3a 04 00 00 00 be 9a 0b 3d 30 8b 21 39
       0.001514458 6e-45 0.03408312 0.00015406008
000240 40 77 8e 3b 5c eb 86 3d c2 1a b9 3c 66 c3 d0 3c
       0.004347712 0.0658786 0.022595767 0.025483798
000250 a6 ac e6 35 04 00 00 00 20 02 37 3a 41 d0 3a 3a
       1.7186583e-06 6e-45 0.00069812126 0.0007126369
000260 8c b6 68 3b 26 52 a1 32 ac 57 60 33 36 5d 74 3d
       0.0035509197 1.8780224e-08 5.22338e-08 0.059659205
000270 de a6 af 2d 77 78 cf 1e b1 e5 19 3a 36 7d f5 39
       1.99693e-11 2.19668e-20 0.00058707135 0.0004682333
000280 98 e9 01 3b a4 f5 cc 3c 57 02 63 3c 9c 41 33 36
       0.001982307 0.025019474 0.013855538 2.6711268e-06
000290 10 9e bc 3a 0c ca 24 3b ad e5 d5 35 13 1b 65 24
       0.0014390368 0.0025144843 1.5936581e-06 4.9679392e-17
0002a0 04 00 00 00 f4 0c 26 3a 00 a9 bb 3a 38 e7 90 37
       6e-45 0.00063343276 0.0014317334 1.7273807e-05
0002b0 e0 8f e5 2c 2a 3c db 24 90 e2 64 38 7d a4 a6 36
       6.524545e-12 9.507803e-17 5.457044e-05 4.9663345e-06
0002c0 2d 4e 85 3c 81 6d 40 35 d4 29 f7 3b 3c 6f 1c 39
       0.016272629 7.1684923e-07 0.007542828 0.00014918757
0002d0 c9 e6 37 34 3f d0 a7 3b c4 b7 88 39 c5 cd 19 2d
       1.7127162e-07 0.0051212604 0.00026076857 8.742733e-12
0002e0 64 40 b7 3b 0a 2d 85 3b e1 2b 7a 3c 52 ba 86 36
       0.0055923928 0.004064207 0.015269251 4.0152017e-06
0002f0 2d 5c 69 38 3f 9e 94 36 2a a8 40 2a 5c 56 47 3a
       5.5637374e-05 4.429166e-06 1.7111369e-13 0.0007604116
000300 b8 49 81 3c 06 80 17 3d dd 41 2c 3d 61 12 ef 38
       0.015782222 0.036987327 0.042055 0.000113998314
000310 dc a2 6b 11 18 15 b0 3c 15 1a 03 3b f0 34 30 3a
       1.8588416e-28 0.021494433 0.002000456 0.00067217555
000320 53 95 0b 3b 80 a5 cb 3b 53 be 99 35 5e d7 3f 3b
       0.002129872 0.0062147975 1.145478e-06 0.0029272656
000330 ef 24 ac 38 cc 41 3f 33 c0 d0 2e 2a 45 5f c7 3c
       8.2084785e-05 4.4530495e-08 1.5526729e-13 0.02433742
000340 65 b9 04 38 28 85 8a 3a 63 e0 40 3c 24 ba a0 1f
       3.1643915e-05 0.0010568248 0.011772248 6.807058e-20
000350 d2 91 0d 3b 19 e7 25 33 7e 78 91 32 2a 34 72 3b
       0.0021601808 3.862724e-08 1.6935015e-08 0.0036957362
000360 7d 3d 87 3a 42 cf c8 3c 56 68 14 3d d3 63 dd 3b
       0.0010318008 0.02451289 0.036232315 0.0067562847
000370 f6 a4 21 25 03 84 e0 36 ba 4d 91 37 b9 89 c1 27
       1.4020415e-16 6.6910884e-06 1.7321541e-05 5.371758e-15
000380 09 64 eb 20 8d d4 dd 33 bc d6 db 3c be 51 97 3c
       3.9876746e-19 1.0329777e-07 0.026835792 0.018471595
000390 5f 1a 76 3c f7 99 02 3c 34 b5 70 3b 0b c2 21 3d
       0.015020936 0.007971278 0.00367291 0.039491694
0003a0 70 c5 e4 3b f0 8c 5a 3c dc 8e 6b 32 6e c2 64 2f
       0.006981544 0.013339266 1.3711283e-08 2.0805555e-10
0003b0 24 38 81 38 53 4e dd 3b 05 7b ed 38 77 f9 7a 39
       6.161656e-05 0.0067537217 0.00011323955 0.00023934791
0003c0 90 73 c1 34 dd 5f 91 31 e7 57 0b 39 aa c8 1a 3c
       3.6033134e-07 4.230954e-09 0.00013288819 0.009447256
0003d0 bc 86 35 3b 49 0d 3f 3b 46 b2 af 3b 5b df c5 3c
       0.0027698716 0.0029152206 0.005361828 0.024154356
0003e0 41 95 21 3c 47 cb 40 3c 04 00 00 00 04 00 00 00
       0.009862245 0.011767215 6e-45 6e-45
0003f0 a4 2a db 3a 47 09 33 3c 29 f3 82 3a cb 76 09 2c
       0.0016721082 0.010927505 0.000999068 1.9534814e-12

fcs1_batch.running_var f4 [400]
000000 6b 65 5b 1c 97 5f 01 33 ab 14 ad 28 fc 3d 13 32
       7.25921e-22 3.012209e-08 1.9215822e-14 8.57062e-09
000010 8f f9 68 38 3c ed 79 36 08 da 7b 34 e9 94 0c 36
       5.554553e-05 3.724198e-06 2.3455516e-07 2.0948303e-06
000020 63 d5 85 3a 6d 17 10 3a 04 00 00 00 53 96 ac 38
       0.0010210689 0.0005496655 6e-45 8.229599e-05
000030 a0 e5 79 2d 13 25 d3 35 8e 70 d6 32 67 7b f9 30
       1.4204998e-11 1.5731515e-06 2.4964063e-08 1.8152208e-09
000040 bf 63 85 33 45 85 98 29 25 d7 0b 33 c1 b5 7d 32
       6.211439e-08 6.7732746e-14 3.2559132e-08 1.4767864e-08
000050 36 00 00 00 b7 71 ff 39 dc b9 ad 2f d9 34 b9 33
       7.6e-44 0.00048722114 3.1600578e-10 8.624347e-08
000060 38 b3 2b 33 62 27 92 3a 68 df 43 39 ee e9 fa 2e
       3.997704e-08 0.0011150653 0.00018679874 1.1410238e-10
000070 80 a7 a9 39 fb f8 e1 36 1f 8c 88 39 f9 17 1a 34
       0.0003235899 6.7345077e-06 0.0002604434 1.4351089e-07
000080 03 ea aa 38 85 d9 94 2f 04 00 00 00 04 96 c0 39
       8.14982e-05 2.70756e-10 6e-45 0.00036732864
000090 0f 34 4c 39 b4 ca 52 3a b0 b0 55 3a 78 9d 94 38
       0.0001947435 0.00080410694 0.00081516337 7.086521e-05
0000a0 ae 9e 13 39 c9 81 15 39 e6 83 c1 35 8d 20 03 2a
       0.00014078125 0.00014258096 1.4418008e-06 1.164643e-13
0000b0 0a 51 f4 38 9a 3a 4b 17 13 cb 50 39 86 95 03 36
       0.00011649921 6.5666803e-25 0.00019912077 1.9607555e-06
0000c0 2e 7e 81 39 0e 84 54 38 e3 02 2e 2f 20 76 65 32
       0.0002469881 5.0667724e-05 1.5826233e-10 1.3356413e-08
0000d0 cc e6 b1 00 6d 58 4c 33 78 64 f8 3a b4 e3 9c 3a
       1.6337677e-38 4.7577874e-08 0.001895084 0.0011969716
0000e0 35 c5 06 00 8e f6 01 30 4d 11 d7 38 80 15 35 2e
       6.21758e-40 4.72803e-10 0.000102552214 4.117373e-11
0000f0 65 3d 25 39 4b 2f 82 34 04 00 00 00 8f 76 01 34
       0.00015758497 2.4248797e-07 6e-45 1.2057193e-07
000100 04 00 00 00 0a f3 db 37 83 2f 7b 39 64 41 79 38
       6e-45 2.6220008e-05 0.00023954925 5.9427126e-05
000110 f6 82 35 3a 04 00 00 00 60 39 5c 3a 85 29 aa 32
       0.0006924117 6e-45 0.00084008835 1.9809486e-08
000120 ab c5 24 3a 9f 11 c8 37 71 f0 bc 2d 15 c0 cb 34
       0.00062855583 2.3850063e-05 2.1479903e-11 3.7951455e-07
000130 00 17 41 3a 4f 3b 88 33 04 00 00 00 bb 6f cb 39
       0.0007365793 6.343782e-08 6e-45 0.00038802423
000140 ae c0 29 21 c7 f3 52 3a 8a 0a a9 2e 57 a2 ff 39
       5.7514437e-19 0.000804719 7.687102e-11 0.00048758343
000150 4c 4a 1a 3a d6 88 27 28 04 00 00 00 a5 f6 98 35
       0.0005885705 9.300034e-15 6e-45 1.1396666e-06
000160 db 8a 71 2e 04 00 00 00 df 1e 1c 32 1a cc b2 1f
       5.4920384e-11 6e-45 9.087414e-09 7.572359e-20
000170 86 58 cc 39 9b a4 07 3a f7 80 41 36 86 b0 d0 3a
       0.00038975867 0.00051743694 2.8834309e-06 0.0015921749
000180 74 a1 f2 39 28 f9 71 07 66 33 0c 3a d7 c3 8d 18
       0.0004627813 1.8204045e-34 0.0005348235 3.6645393e-24
000190 8d 27 c8 27 ff cf d2 39 40 03 15 24 2b 64 57 39
       5.5554032e-15 0.0004020929 3.2311978e-17 0.00020541313
0001a0 d1 81 bb 39 18 cb c7 39 00 fb 70 35 65 73 ca 33
       0.0003576414 0.00038107554 8.977222e-07 9.427348e-08
0001b0 b0 3b c5 2c 22 eb 4a 39 2e 12 f1 2e fd 4d 96 17
       5.6057034e-12 0.00019351815 1.09626405e-10 9.71321e-25
0001c0 34 c0 96 17 52 f2 b2 35 2b 8a fc 31 47 b2 99 2f
       9.742042e-25 1.3332558e-06 7.349873e-09 2.7957212e-10
0001d0 af cb ee 39 cc 02 a3 24 81 1b 7c 38 5a ff 02 3a
       0.00045546654 7.069472e-17 6.0107097e-05 0.0004997157
0001e0 46 85 86 32 39 c8 e2 38 b4 22 d6 2f f0 39 a0 26
       1.5660259e-08 0.00010813814 3.895103e-10 1.1117934e-15
0001f0 54 df b5 1e 75 50 61 2f 23 aa eb 38 f2 91 d1 32
       1.9256487e-20 2.0492215e-10 0.00011237364 2.439717e-08
000200 1d 18 e5 21 7c 1e 54 2c d2 71 c7 35 f8 49 11 35
       1.5524026e-18 3.0143934e-12 1.4859781e-06 5.412435e-07
000210 35 32 a5 38 83 c7 69 3a fc c9 c2 31 c4 5e 22 39
       7.877165e-05 0.0008917974 5.669106e-09 0.00015484827
000220 43 09 8e 3a 7c 1f 19 22 04 00 00 00 4f 86 4c 3a
       0.00108365 2.0752034e-18 6e-45 0.0007801996
000230 30 0f 0f 37 04 00 00 00 51 9d 87 3a 20 13 6f 35
       8.527e-06 6e-45 0.0010346567 8.906227e-07
000240 16 43 22 39 0b 8f ff 3a 5a b0 44 3a f4 fe 2c 3a
       0.00015474515 0.0019497586 0.0007503085 0.000659927
000250 e3 25 42 2d 04 00 00 00 5b ef 1e 35 ec 9f f6 35
       1.1036036e-11 6e-45 5.9207895e-07 1.8374972e-06
000260 ea 3a 6d 39 9d 32 d6 2c 25 f0 10 28 72 8d 0a 3b
       0.00022624028 6.087865e-12 8.045679e-15 0.0021141437
000270 8c 2f 94 1c c1 eb 1e 02 eb 72 73 37 35 5c 26 37
       9.806109e-22 1.1675665e-37 1.4510685e-05 9.91584e-06
000280 bd 86 ce 37 c2 b8 61 3a b7 26 d3 39 4f 8c 31 31
       2.4619856e-05 0.00086106 0.000402739 2.5836646e-09
000290 03 ff 3c 38 2f 31 63 37 54 64 22 2c e1 89 94 0d
       4.506019e-05 1.3541706e-05 2.3077278e-12 9.154397e-31
0002a0 04 00 00 00 af 65 17 37 4f b2 6a 38 d9 f1 4c 32
       6e-45 9.023976e-06 5.595601e-05 1.1929353e-08
0002b0 1b de 99 1a 5e ee 13 0e 19 7b 9b 34 a9 77 71 2e
       6.363815e-23 1.8233919e-30 2.8960565e-07 5.4903335e-11
0002c0 c2 08 b6 39 d3 e8 c0 2b e1 e9 7c 38 4d 6a 63 33
       0.0003472027 1.3707042e-12 6.02993e-05 5.2949236e-08
0002d0 1d 15 5c 29 c1 89 bf 38 9a ac 8b 36 0a c6 20 28
       4.8868126e-14 9.1332484e-05 4.1626163e-06 8.924727e-15
0002e0 d8 03 45 39 ce b8 c4 38 7f 07 d5 39 92 0c 3c 2e
       0.00018788816 9.380431e-05 0.0004063211 4.2757416e-11
0002f0 b1 06 c3 33 c3 3f 14 32 dd 97 88 25 7a 59 da 35
       9.081612e-08 8.6292316e-09 2.3695146e-16 1.6268307e-06
000300 cb 49 0a 3a e3 a0 85 3a 91 01 d6 3a 7b db a8 32
       0.0005275278 0.0010195043 0.0016327371 1.9657582e-08
000310 d3 a4 99 0c 18 f2 90 39 18 57 ab 36 0f ae ad 35
       2.3672582e-31 0.00027646194 5.106336e-06 1.2940162e-06
000320 64 9c a6 38 29 2a 89 39 1d f5 17 2c 2e 33 a1 38
       7.944627e-05 0.00026162088 2.1594456e-12 7.686611e-05
000330 5d f1 a9 32 73 71 a5 2b dd c3 96 15 d0 39 18 3a
       1.9783949e-08 1.1755444e-12 6.0893535e-26 0.00058069546
000340 50 ca 9b 31 eb d2 51 36 e7 0a 30 3a 33 0b 0d 00
       4.534094e-09 3.1266197e-06 0.0006715492 1.197879e-39
000350 1c cc 6d 38 a4 66 c6 2c 96 5b 31 26 64 d8 ee 38
       5.6695295e-05 5.638894e-12 6.1533333e-16 0.0001138903
000360 19 ba f0 37 49 ca 6c 3a d5 62 8d 3a 89 17 43 39
       2.8696888e-05 0.00090328284 0.00107869 0.00018605417
000370 ec 15 f3 1f e4 6d 11 2f cd cf 1a 30 25 b7 df 12
       1.0295077e-19 1.3226714e-10 5.6320176e-10 1.4118427e-27
000380 07 d8 4a 03 a5 4b 03 29 eb 9a a6 3a 69 1c 0e 3a
       5.961045e-37 2.9153454e-14 0.0012710964 0.00054211036
000390 42 b9 d6 39 f2 ed b9 39 f8 e7 4e 39 50 3e 04 3b
       0.0004095529 0.00035463233 0.00019732106 0.0020178743
0003a0 ae c1 42 39 25 da d3 39 ef 07 ec 25 27 60 20 20
       0.00018573433 0.00040407586 4.094485e-16 1.3584341e-19
0003b0 e6 4f b5 35 c5 01 4b 39 ec 70 44 34 9c a0 6a 35
       1.3508804e-06 0.00019360248 1.8295003e-07 8.740551e-07
0003c0 4b 11 a3 2a 1c ff 3d 24 50 02 f7 32 a1 a5 b5 38
       2.8966616e-13 4.1198928e-17 2.8755636e-08 8.661603e-05
0003d0 de 38 06 38 1e 4e d4 38 a1 58 6e 39 a1 2f 1d 3a
       3.200105e-05 0.00010123498 0.00022730466 0.0005996172
0003e0 77 e1 dc 39 d5 6b 1f 39 04 00 00 00 04 00 00 00
       0.00042129654 0.00015203592 6e-45 6e-45
0003f0 d0 c9 1b 38 87 47 58 39 df cb 88 35 06 98 f9 19
       3.7142832e-05 0.00020626011 1.0192124e-06 2.5807398e-23
