ContinuousControl/checkpoint_actor_local.pth (torch_old, 554892 bytes, 18 tensors)

fc0_batch.weight f4 [33]
0	0x3f04e92d	0.519183
1	0x3f4533a2	0.7703191
2	0x3df8cc2e	0.12148319
3	0x3e039dc2	0.12853149
4	0x3ea0f399	0.3143585
5	0x3f33d285	0.702431
6	0x3ee8ebb6	0.45492333
7	0x3f4c8927	0.7989678
8	0x3ebd5fdf	0.36987206
9	0x3f118414	0.5684216
10	0x3eb0a635	0.34501806
11	0x3ed4e116	0.41577977
12	0xbd88617c	-0.06659219
13	0x3e798d3b	0.24370281
14	0x3ea3fa07	0.32026693
15	0x3f150b5d	0.58220464
16	0x3f217e40	0.6308327
17	0x3f3ec587	0.7452015
18	0x3df09a9e	0.11748241
19	0x3e467a3e	0.19382569
20	0x3f0c11ad	0.5471447
21	0x3f43b51b	0.7644822
22	0x3ea5a9d0	0.3235612
23	0x3f560812	0.83606064
24	0x3f02d177	0.5110087
25	0x3f139edc	0.57664275
26	0x3f756226	0.9585289
27	0x3d142190	0.03616482
28	0x3e9d8fe1	0.30773833
29	0x3ebf3090	0.37341738
30	0x3e9c3612	0.30510002
31	0x3f6e9794	0.9320004
32	0x3daf8f0f	0.08572208

fc0_batch.bias f4 [33]
0	0xbd586573	-0.052831125
1	0x3d897557	0.06711834
2	0xbd2bcf7a	-0.041945912
3	0xbd9f9718	-0.07792491
4	0xbd39365f	-0.045217868
5	0xbd9f7759	-0.07786436
6	0x3d061645	0.03273608
7	0xbc32efc6	-0.010921424
8	0xbcc9b276	-0.02462123
9	0x3d9192f9	0.07108111
10	0x3b9b35d8	0.0047366433
11	0x3d4225d5	0.04739936
12	0x3cacea3e	0.02110779
13	0xbd4b7baf	-0.0496785
14	0x3d380027	0.04492202
15	0xbd6743c9	-0.05646113
16	0x3d99733a	0.07492681
17	0x3c4c3819	0.012464547
18	0xbd760650	-0.060064614
19	0xbcc09e85	-0.023513088
20	0xbb8862f9	-0.004162189
21	0x3b95bcaf	0.004569612
22	0x3d37c7dd	0.04486834
23	0x3c105881	0.0088101635
24	0x3d239fd2	0.03994734
25	0x3d86a252	0.06573929
26	0x3d41edc9	0.04734591
27	0x3b8d6c9e	0.0043159267
28	0xbd548d1c	-0.051892385
29	0x3cceef10	0.025260478
30	0x3d9cce42	0.07656528
31	0x3c824128	0.01590021
32	0x3bd0e516	0.0063749654

fc0_batch.running_mean f4 [33]
0	0x400c2090	2.1894875
1	0xbf9b097f	-1.2112273
2	0xbfa19303	-1.262299
3	0xbcfed6c6	-0.031108271
4	0xbd0248ec	-0.031807825
5	0xbe98a119	-0.29810408
6	0x3e4953c6	0.19660863
7	0x3ef5a5bf	0.47978017
8	0xbd15deb4	-0.03658934
9	0x3deb4d14	0.11489311
10	0xba86560d	-0.0010249034
11	0xbc402a6b	-0.011728863
12	0x3bab2412	0.005222806
13	0x4075a464	3.8381586
14	0xc0091619	-2.1419737
15	0xc07ac40d	-3.918216
16	0x3d9c828d	0.07642088
17	0x3e3e3cb9	0.18577851
18	0xbdf8d0a7	-0.12149172
19	0x3d3c54b8	0.04597923
20	0x3f48498f	0.7823724
21	0x3e52658f	0.20546554
22	0x3fae6f26	1.362767
23	0xbe8c7bb6	-0.27438134
24	0xbcc8c5e7	-0.02450843
25	0xbc20e03e	-0.0098190885
26	0xbea591e4	-0.32337868
27	0xbf7ffffc	-0.99999976
28	0xbe9223e5	-0.2854301
29	0x00000000	0.0
30	0x3f7ffffc	0.99999976
31	0x00000000	0.0
32	0xbebc9498	-0.36832118

fc0_batch.running_var f4 [33]
0	0x40683198	3.628027
1	0x3fd72e47	1.6810998
2	0x40352d34	2.830884
3	0x3e455dbd	0.1927404
4	0x3e469981	0.19394495
5	0x3ebba989	0.36652783
6	0x3de13b44	0.10997632
7	0x405db91d	3.4644234
8	0x3e531789	0.20614447
9	0x3e7f011c	0.24902767
10	0x408aa655	4.332804
11	0x40aad244	5.338167
12	0x40a1d28f	5.056953
13	0x4145752a	12.3411045
14	0x40d39c9a	6.6128664
15	0x410b5163	8.70737
16	0x3e82543b	0.25454888
17	0x3e528a86	0.20560655
18	0x3e5c6a4d	0.21524926
19	0x3e8323e3	0.25613317
20	0x4056d145	3.3565228
21	0x3fb21ac8	1.3914423
22	0x407124c1	3.7678683
23	0x4187b227	16.961988
24	0x4194c0c4	18.594124
25	0x419377ba	18.43346
26	0x41f8782b	31.058676
27	0x00000004	6e-45
28	0x4204f99e	33.243767
29	0x00000004	6e-45
30	0x00000004	6e-45
31	0x00000004	6e-45
32	0x3c325834	0.010885287

fc1.weight f4 [400, 33]
0	0xbd05e718	-0.03269109
1	0x3ce3b5f2	0.02779672
2	0xbb5fefba	-0.0034169988
3	0x3cca9b66	0.024732303
4	0xbd01c525	-0.031682152
5	0xbd361dc6	-0.044461988
6	0xbc5dadd4	-0.013530213
7	0x3cbcfe06	0.023070347
8	0xbad2edb1	-0.0016092566
9	0xbad0e41d	-0.0015937124
10	0x3d2043be	0.039127104
11	0xbd1b9295	-0.03798159
12	0xbc711df8	-0.014716618
13	0x3b9285e1	0.004471526
14	0x3cd62a40	0.026143193
15	0xbd0a6502	-0.033787735
16	0x3d34db3a	0.044154383
17	0xb993b378	-0.0002817174
18	0x3b23ef08	0.00250143
19	0xbd01c15c	-0.031678542
20	0x3cbf3e9c	0.023345284
21	0x3c0b5ce4	0.008506034
22	0xbd1e84ca	-0.038700856
23	0xbca71a97	-0.020398421
24	0x3d29b5bb	0.041433077
25	0x3c8f6f2c	0.017509066
26	0x3c7ca651	0.015420512
27	0x3d357cbf	0.04430842
28	0x3c472d2c	0.012156766
29	0xbcb66d3b	-0.022268882
30	0x3d1727ba	0.03690312
31	0xbd3c2a9b	-0.04593907
32	0xbd431fe4	-0.047637835
33	0x3d3cdfb5	0.04611178
34	0xbcfe38e4	-0.031032987
35	0x3cac058a	0.020998735
36	0xbc7e4c2d	-0.015521091
37	0xbc2aa53b	-0.010415371
38	0x3d342f06	0.043990158
39	0xbc1f2c47	-0.009715146
40	0xbbe98051	-0.007125892
41	0xbc960c9d	-0.018316561
42	0xbd09dcf8	-0.033657998
43	0x3cdad83c	0.026714437
44	0xbd066bac	-0.032817528
45	0x3d007a37	0.031366553
46	0x3d651f82	0.05593825
47	0xbd222ee7	-0.03959551
48	0x3d212cd5	0.039349396
49	0x3d2002c5	0.03906514
50	0xbd1b770a	-0.03795532
51	0xbc31b544	-0.01084644
52	0xbcdb2123	-0.0267492
53	0xbca7f381	-0.020501854
54	0x3c2179c4	0.009855691
55	0xbca997da	-0.020702291
56	0x3c906d5e	0.017630275
57	0xbd1cc9c3	-0.038278352
58	0x3ce1c462	0.027559463
59	0xbd0d9b75	-0.034572084
60	0x3d419930	0.04726523
61	0xbced6a5e	-0.028981384
62	0x3ce05e8c	0.027388833
63	0xbd0fcdce	-0.03510838
64	0xbbc5a577	-0.006031688
65	0xbcf7bd78	-0.030241713
66	0x3d31d598	0.04341659
67	0x3cd52461	0.026018323
68	0x3cc2dbfa	0.023786534
69	0xbc9a43ed	-0.018831218
70	0x3ce1421b	0.027497342
71	0x3ce0deef	0.027450053
72	0x3cc2e01f	0.02378851
73	0x3d034010	0.032043517
74	0x3d044e99	0.03230152
75	0x3ca3c7ff	0.019992827
76	0x3a992022	0.001168255
77	0x3ba98411	0.0051732142
78	0xbca9897a	-0.020695437
79	0xbbe13942	-0.0068732807
80	0xbc1a9f2c	-0.009437364
81	0x3d0744cc	0.033024594
82	0x3c60a9d7	0.013712368
83	0xbcd24476	-0.02566741
84	0x3cc92316	0.024552863
85	0xbd45aacf	-0.0482586
86	0x3c0fcbe8	0.008776642
87	0x3d661cff	0.056179997
88	0xbb83c4c0	-0.004021257
89	0x3ca6b708	0.020350948
90	0x3d2f8add	0.04285704
91	0x3cc421f0	0.023941964
92	0xbcebb3b6	-0.028772216
93	0xbd09e305	-0.03366377
94	0x3d1b76c0	0.037955046
95	0x3d2237fd	0.039604176
96	0xbbcabe5a	-0.0061872425
97	0xbc0f0237	-0.008728555
98	0xbcf3f542	-0.029780034
99	0x3ce7fe51	0.02831951
100	0xbd1c28c0	-0.0381248
101	0xbd1cd4a9	-0.038288746
102	0x3bb80654	0.0056159887
103	0xba33a58e	-0.00068529777
104	0xbd29f847	-0.04149654
105	0xbcf72c52	-0.0301725
106	0xbcfae6cc	-0.03062763
107	0xbd1f9622	-0.038961537
108	0xbcc83dea	-0.024443585
109	0xbb32feef	-0.0027312597
110	0x3d1f7065	0.038925547
111	0x3cd58b85	0.026067505
112	0x3cbe0730	0.023196787
113	0x3cc44376	0.02395795
114	0xbd7971ff	-0.06089973
115	0x3c8fccb6	0.017553668
116	0xbd7227b9	-0.059119914
117	0x3d0dc3e3	0.03461064
118	0xb847e94d	-4.7662576e-05
119	0x3ce6bdb7	0.028166635
120	0x3d0a1b6f	0.03371757
121	0x3cfafcc6	0.03063811
122	0x3c71d567	0.014760352
123	0xbb44eb18	-0.0030047353
124	0x3c36d045	0.011158054
125	0x3d46ed71	0.048566286
126	0xbac1f421	-0.0014797488
127	0xbd95b019	-0.073089786
128	0x3c42b425	0.01188377
129	0xbcf69711	-0.030101331
130	0x3d2a14db	0.041523796
131	0x3b77283c	0.003771319
132	0x3d3ac7ea	0.04560081
133	0xbd87d002	-0.06631471
134	0xbcb2f047	-0.021843089
135	0x3d2d087b	0.042244416
136	0xbc051d74	-0.008124698
137	0x3ce4ddf6	0.02793787
138	0x3d1aecef	0.037823614
139	0x3cb2a07e	0.021805044
140	0x3c058a81	0.008150698
141	0xbc7db873	-0.015485871
142	0xbd275908	-0.04085639
143	0x3c362bc9	0.011118838
144	0xbcad106d	-0.021125996
145	0x3d2ca0cd	0.04214554
146	0xbd770e59	-0.060316417
147	0xbd040cb7	-0.03223869
148	0xbb8c5c6c	-0.0042834785
149	0x3c9f64a6	0.019457173
150	0xbd1dcff7	-0.03852841
151	0x3d4153b7	0.047198977
152	0x3d3bd341	0.045855764
153	0x3d026572	0.031835027
154	0xbcd2400c	-0.025665306
155	0xb9bf47a7	-0.00036483744
156	0xbc9e1a30	-0.019299597
157	0x3c79674d	0.015222383
158	0x3d3f37cf	0.046684083
159	0xbc416dc1	-0.0118059525
160	0x3c934e70	0.017981738
161	0xbbbc7d93	-0.0057522743
162	0x3d0afe06	0.033933662
163	0x3d33caad	0.04389446
164	0xbd1b801b	-0.037963968
165	0xbb86ee43	-0.0041177585
166	0xbc511822	-0.012762101
167	0xbd0637b2	-0.03276796
168	0x3ca4f7d7	0.02013771
169	0xbc7365a3	-0.014855775
170	0xbd235c66	-0.03988304
171	0xbc80b872	-0.01571295
172	0x3b7e40d5	0.0038795967
173	0x3ccbe755	0.024890581
174	0x3d26d109	0.040726695
175	0xbaba4bdb	-0.001421328
176	0x3d30da45	0.043176908
177	0x3d24fb9b	0.040279012
178	0xbbfc7848	-0.0077047683
179	0x3c25f73f	0.010129749
180	0xbd3b363d	-0.045706023
181	0xbd298c91	-0.04139382
182	0x3c7547b1	0.014970706
183	0x3cc97caf	0.024595587
184	0x3c752ea3	0.014964732
185	0x3ab37da4	0.001369406
186	0xbd1c6820	-0.03818524
187	0x3c15f675	0.009152998
188	0xbc7b7d1c	-0.015349653
189	0x3d078272	0.033083387
190	0xbcd1ccd6	-0.025610369
191	0xbd2b3ba4	-0.041804925
192	0x3d3b7ad1	0.045771424
193	0xbd88a1df	-0.066714995
194	0xbb5e5f5f	-0.0033931357
195	0x3c9726b7	0.018451078
196	0xbc31ea17	-0.010859034
197	0x3cd21f34	0.025649644
198	0x3c81147b	0.015756836
199	0x3bf1817e	0.007370173
200	0xbcf1839f	-0.029481707
201	0x3cd4795a	0.025936771
202	0xbd5b3a5d	-0.053522456
203	0x3daf32af	0.08554589
204	0xbd1a7361	-0.03770769
205	0xbc85dd1c	-0.016340785
206	0x3d3d4815	0.04621132
207	0x3c4e19ce	0.0125793945
208	0xbd24a993	-0.04020078
209	0xb9e766cc	-0.00044136343
210	0x3d35687c	0.044289097
211	0x3c2416e2	0.010015221
212	0xbc8cc047	-0.017181529
213	0xbac63fea	-0.0015125249
214	0xbd4e8543	-0.050420057
215	0x3c76313f	0.01502639
216	0x3d1c8bc1	0.038219217
217	0x3c543744	0.0129526295
218	0x3c6ef1b7	0.0145839965
219	0x3bc1c9c0	0.005913943
220	0x3c7157e8	0.014730431
221	0x3ca313d1	0.01990691
222	0xbd4ed8bb	-0.05049966
223	0x3d3f7a7a	0.046747662
224	0x3cc5c746	0.024142873
225	0xbc11c331	-0.008896635
226	0x3d14ca8a	0.03632597
227	0x3c81cb71	0.015844079
228	0xbc43cde2	-0.011950942
229	0xbbdcf5e9	-0.006743182
230	0x3cbf1e97	0.023330016
231	0x3cdaed85	0.026724586
232	0xbc4a508f	-0.012348308
233	0x3c9088ab	0.017643293
234	0xbcf64044	-0.030059941
235	0xbce3a636	-0.027789216
236	0x3c274e38	0.01021152
237	0xba36cc60	-0.0006973203
238	0xbc80029f	-0.01562625
239	0x3ced7048	0.028984204
240	0x3c816fcb	0.015800377
241	0x3cb5fdd4	0.022215761
242	0xbd1f12f1	-0.038836423
243	0xbcdf0f8f	-0.027229099
244	0x3b749ad2	0.0037323725
245	0x3c671d19	0.0141060585
246	0x3c19bf10	0.009383932
247	0xbd06b39a	-0.032886125
248	0x3d1a1017	0.037613
249	0xbc83f1e1	-0.016106548
250	0xbcff525b	-0.0311672
251	0x3d89db73	0.0673131
252	0xbce65e23	-0.02812106
253	0x3d2fa48d	0.042881537
254	0xbcab6850	-0.020923764
255	0x3d32801b	0.043579202

fc1.bias f4 [400]
0	0xbda4c2a8	-0.0804494
1	0x3c3a5730	0.011373326
2	0xbce8df22	-0.02842671
3	0xbde27a90	-0.11058533
4	0x3e1a93c8	0.15095437
5	0x3e175dcd	0.14781876
6	0x3cabab7d	0.020955795
7	0x3e0cb484	0.13740736
8	0xbbba7338	-0.0056900047
9	0x3c9d9773	0.019237256
10	0x3d68bb0d	0.05681901
11	0x3d9bf982	0.07615949
12	0x3cf91ab0	0.030408233
13	0x3dbef711	0.09324468
14	0x3e207e73	0.15673237
15	0x3d945fa9	0.07244808
16	0xbdec1997	-0.115283184
17	0x3d7e8d34	0.06214638
18	0x3e2f97d6	0.17147765
19	0x3e0d30ad	0.137881
20	0x3de76c37	0.11299937
21	0xbd4cb478	-0.049976796
22	0x3e2afb46	0.16697416
23	0x39bd3f15	0.0003609589
24	0xbd672e1c	-0.056440458
25	0x3d06b2cf	0.03288537
26	0x3df523e7	0.119697385
27	0xbe24f0b8	-0.16107452
28	0xbd73dbd0	-0.0595358
29	0x3ddd30d7	0.10800331
30	0xbd14b816	-0.03630837
31	0xbd8c2b82	-0.06844236
32	0xbd072f9e	-0.033004396
33	0x3d56e84a	0.052467622
34	0xbe0fd8fa	-0.14047614
35	0x3d12a309	0.035800014
36	0x3d0948e4	0.03351678
37	0xbd37978c	-0.04482226
38	0xbc9a63b5	-0.018846372
39	0x3da4f284	0.08054069
40	0xbc990628	-0.018679693
41	0x3de27dba	0.11059137
42	0x3dcd1a7e	0.100148186
43	0xbdd3ca04	-0.10341266
44	0xbc9ef798	-0.019405171
45	0x3e0a7dcd	0.13524552
46	0xbcf5483c	-0.02994167
47	0xbd46d409	-0.048542056
48	0x3c781262	0.015141102
49	0xbc87d9b6	-0.016583305
50	0xbd53d120	-0.05171311
51	0x3cf9facb	0.030515095
52	0x3e1b1222	0.15143636
53	0x3d1963fa	0.03744886
54	0x3e27c879	0.16385068
55	0x3b9b5e34	0.0047414545
56	0xbdebae04	-0.115078
57	0xbe17cafe	-0.14823529
58	0xbc10553f	-0.008809387
59	0x3d969f67	0.07354622
60	0xbccbe3bd	-0.024888868
61	0xbd6be070	-0.057587087
62	0xbe060e7f	-0.13091467
63	0x3b9073b0	0.0044083223
64	0x3e01b9e4	0.12668568
65	0xbd82b9b1	-0.06383074
66	0x3e2b29f8	0.16715229
67	0xbd5791c4	-0.052629247
68	0x3e2db330	0.16962886
69	0xbe01066c	-0.12600106
70	0x3dd08d26	0.10183172
71	0xbc2354ef	-0.00996898
72	0x3e3f8d58	0.18706262
73	0x3e24f7f0	0.16110206
74	0xbd6d8750	-0.057990372
75	0xbc9eda79	-0.019391285
76	0xbda238f6	-0.07921021
77	0x3d25df8f	0.040496405
78	0xbdb459f0	-0.08806217
79	0xbbfa0ee3	-0.007631169
80	0xbe025988	-0.12729466
81	0x3dc58a75	0.09645549
82	0x3df4be21	0.11950327
83	0x3c27b2f7	0.01023554
84	0xbc98932d	-0.018624866
85	0xbe058268	-0.13038027
86	0xbe245b3d	-0.1605043
87	0xbe0c759d	-0.13716741
88	0xbe1a716a	-0.15082327
89	0xbe2d6432	-0.16932753
90	0x3d6861bc	0.05673383
91	0xbdfdfbfd	-0.124015786
92	0x3d8411c6	0.064487025
93	0x3e2949db	0.1653208
94	0xbbeafb57	-0.0071710753
95	0x3c278a71	0.010225878
96	0x3e06c58c	0.13161296
97	0xbe191e2d	-0.14952917
98	0x3e21cc15	0.15800507
99	0x3e319d73	0.17345218
100	0x3e29ee10	0.1659472
101	0xbd43745b	-0.047718387
102	0x3ddcb3c3	0.10776474
103	0xbd612087	-0.05496266
104	0x3b908448	0.0044103004
105	0x3e1d52ae	0.15363571
106	0xbcc9f164	-0.024651237
107	0x3d475642	0.048666246
108	0xbd2fb5d3	-0.04289801
109	0xbdb0eb35	-0.08638612
110	0x3e1abafd	0.15110393
111	0xbe1d65d2	-0.15370873
112	0x3cecf810	0.02892688
113	0x3c2f8511	0.010712878
114	0xbd77791f	-0.060418244
115	0xbe351780	-0.17684746
116	0xbddfb9f1	-0.109241374
117	0xbdc4c032	-0.09606971
118	0x3cd41be6	0.02589221
119	0x3cc8df8d	0.02452066
120	0xbe12012a	-0.14258257
121	0xbd44a1f6	-0.04800602
122	0xbe2f56b7	-0.17122923
123	0x3e0240d8	0.12720048
124	0xbe32b02e	-0.1745002
125	0xbceaf5d7	-0.028681679
126	0xbcdc475f	-0.026889501
127	0xbe04a57e	-0.12953755
128	0x3df87399	0.121314235
129	0x3db1f85b	0.08689948
130	0x3d87883a	0.0661778
131	0x3df7858f	0.12086021
132	0xbd86548e	-0.06559096
133	0x3dd9f9bf	0.106433384
134	0x3e117422	0.14204457
135	0xbd9b1e2a	-0.07574113
136	0xbb0d42ce	-0.0021554711
137	0x3c18cf47	0.0093267625
138	0xbe3ff788	-0.1874677
139	0x3d2a3cbe	0.041561835
140	0xbae9aa5b	-0.0017827259
141	0xbde9fa80	-0.11424732
142	0x3d4ae0bf	0.04953074
143	0xbe25a304	-0.16175467
144	0xbda83040	-0.08212328
145	0x3d2cc834	0.042183116
146	0x3d2ca25f	0.042147037
147	0xbb5ee695	-0.003401195
148	0xbad41af9	-0.0016182355
149	0xbe28ba88	-0.16477406
150	0xbe17a69d	-0.14809652
151	0xbd5739b2	-0.052545257
152	0xbe000e06	-0.1250535
153	0xbe07575b	-0.13216917
154	0xbd48211c	-0.0488597
155	0x3e410164	0.18848187
156	0x3e031b32	0.12803343
157	0x3d36d061	0.04463232
158	0xbde5f10e	-0.11227618
159	0xbe040171	-0.12891175
160	0x3e2ddc5d	0.16978593
161	0xbd090a94	-0.033457354
162	0x3cc1231f	0.023576317
163	0xbdb6835b	-0.08911773
164	0xbdae2515	-0.085031666
165	0x3d86c1bf	0.06579923
166	0xbc996830	-0.018726438
167	0xbd1263b1	-0.035739604
168	0xbd8ad5df	-0.06779074
169	0xbe126289	-0.142954
170	0xbdd6cac1	-0.10487891
171	0xbe22b866	-0.15890655
172	0x3e27afd8	0.16375673
173	0x3cec619b	0.028855136
174	0x3d1fc6d1	0.039007965
175	0x3e0447b3	0.12917976
176	0x3db97e5b	0.090573035
177	0xbcffb778	-0.031215414
178	0x3e0e0724	0.13869911
179	0x3ccb4a39	0.024815666
180	0xbe32750e	-0.17427465
181	0x3e1ee6fc	0.15517801
182	0xbdd4a373	-0.10382738
183	0xbdf16fa8	-0.11788875
184	0xbd533983	-0.05156852
185	0xbd85da0e	-0.06535731
186	0x3e08e27f	0.13367651
187	0xbe27602f	-0.16345285
188	0xbe0976fe	-0.13424298
189	0xbde2dc3f	-0.11077165
190	0xbdb4e214	-0.088321835
191	0x3e114996	0.14188227
192	0xbc44dfff	-0.012016295
193	0x3e0a657f	0.1351528
194	0xbc569ada	-0.013098443
195	0x3dc12b0e	0.0943204
196	0xbd931739	-0.07182164
197	0x3dc17062	0.094452634
198	0x3d9d60e1	0.07684494
199	0x3d5a42a8	0.053286225
200	0xbdd029c8	-0.10164219
201	0xbd90af8a	-0.070647314
202	0x3e146c11	0.14494349
203	0xbd34f6fb	-0.04418085
204	0xbdd648c1	-0.104630955
205	0xbe11a784	-0.14224058
206	0xbd06023e	-0.032716982
207	0x3c4c218f	0.012459173
208	0xbcabd68c	-0.020976327
209	0x3dd063a3	0.10175254
210	0x3d7f12d8	0.06227383
211	0xbe0e4f14	-0.13897353
212	0xbd50e3a2	-0.050998338
213	0x3e142c0f	0.14469932
214	0x3dea5620	0.11442208
215	0xbd280d6c	-0.041028425
216	0xbe0df719	-0.13863792
217	0x3d8efe96	0.06982152
218	0x3d433a84	0.047663227
219	0xbc384326	-0.011246478
220	0xbe2d3599	-0.16914977
221	0x3e2d0fca	0.16900554
222	0x3db8d1f8	0.09024423
223	0xbe3284a8	-0.17433417
224	0x3bede37a	0.0072597833
225	0xbd3927d1	-0.045203988
226	0x3e33dd4e	0.1756489
227	0x3d95fefe	0.073240265
228	0x3caff882	0.021480802
229	0x3a1da118	0.00060130795
230	0xbe050a16	-0.12992129
231	0x3cfbb74c	0.030727051
232	0x3d8237b3	0.0635828
233	0x3c132d8a	0.008983025
234	0x3e21f289	0.15815176
235	0x3dc28ce8	0.09499532
236	0xbe257149	-0.16156496
237	0x3bc47cdd	0.00599633
238	0xbdae690d	-0.085161306
239	0xbd10b9f8	-0.035333604
240	0xbad30616	-0.0016099836
241	0x3c7bdd56	0.015372595
242	0x3df2893d	0.118425824
243	0x3e0b2992	0.13590077
244	0x3b489dfd	0.0030611746
245	0xbd37bcf3	-0.04485793
246	0xbddb89b1	-0.10719622
247	0x3dc0654f	0.09394323
248	0x3d595500	0.053059578
249	0x3e10d88c	0.14145106
250	0xbe1e12a6	-0.15436801
251	0xbe173f8f	-0.1477034
252	0xbdd66341	-0.1046815
253	0x3c1fe8e5	0.009760116
254	0x3e1ddcdd	0.15416284
255	0xbc853559	-0.01626079

fc1_batch.weight f4 [400]
0	0x3d5da3e7	0.054111388
1	0x3e95874e	0.29204792
2	0x3d972444	0.07379964
3	0x3eb15292	0.3463331
4	0x3ee790d9	0.45227697
5	0x3eed8531	0.4639068
6	0x3ed3d61b	0.41374287
7	0x3eddca44	0.4331838
8	0x3f67f1b5	0.9060319
9	0x3f6c2895	0.92249423
10	0x3d5df398	0.054187387
11	0x3f192d09	0.59834343
12	0x3e806220	0.25074863
13	0x3ecf6975	0.40510145
14	0x3e9b17bb	0.30291542
15	0x3e80396e	0.25043815
16	0x3e6a48a6	0.22879276
17	0x3c234c42	0.009966912
18	0x3e9546f8	0.29155707
19	0x3eccf839	0.4003313
20	0x3d1d4409	0.03839496
21	0x3f261afc	0.64884925
22	0x3e81df75	0.25365797
23	0x3ebd8baf	0.37020633
24	0x3f31055c	0.691488
25	0x3f745e8d	0.95456773
26	0x3f3d4ff9	0.73950154
27	0x3df69668	0.120404065
28	0x3f62efff	0.88647455
29	0x3ee5bc0f	0.4487004
30	0x3f2a5b8e	0.6654595
31	0x3e3e3804	0.18576056
32	0x3f75a22a	0.9595057
33	0x3e2aad1a	0.16667596
34	0x3f4d8740	0.802845
35	0x3f6e397c	0.93056464
36	0x3f0ce0f0	0.5503073
37	0x3f6e59df	0.9310588
38	0x3f4ed0a5	0.80787116
39	0x3ece0839	0.40240648
40	0x3f146208	0.57962084
41	0x3f01bfda	0.5068337
42	0x3ed01f9c	0.40649116
43	0x3d714bfb	0.05891035
44	0x3f468ca2	0.7755834
45	0x3ca48489	0.020082729
46	0x3f360b0a	0.71110594
47	0x3ead525e	0.33851904
48	0x3f067a1e	0.52530086
49	0x3ec97bc7	0.39352247
50	0x3e6446d6	0.22292647
51	0x3ea1e603	0.31620798
52	0x3d563689	0.052298103
53	0x3e48243c	0.19545072
54	0x3f3de8bf	0.7418327
55	0x3f6cd0fa	0.9250637
56	0x3c3f584b	0.0116787655
57	0x3ec2ea57	0.38069412
58	0x3f0a30e1	0.53980833
59	0x3e546b9b	0.20744173
60	0x3f15c91a	0.5850998
61	0x3ee57bc5	0.4482099
62	0x3f0e6960	0.5562954
63	0x3e6737b2	0.2257984
64	0x3d8edb79	0.06975455
65	0x3efa36ae	0.48869842
66	0x3f58bdaf	0.84664434
67	0x3f642ba1	0.8912907
68	0x3f5e65ca	0.8687407
69	0x3f039eae	0.51414
70	0x3f5fca02	0.87417614
71	0x3ea17856	0.31537122
72	0x3f5b0161	0.8554898
73	0x3f17fd85	0.59371215
74	0x3ddd6bb6	0.1081156
75	0x3ea5cdaa	0.32383472
76	0x3f75e499	0.9605194
77	0x3e98c32a	0.29836398
78	0x3c477114	0.012172956
79	0x3f752ff1	0.9577628
80	0x3f29b626	0.6629356
81	0x3f189d21	0.5961476
82	0x3e8e06d7	0.27739593
83	0x3f6e1c44	0.9301188
84	0x3f7821bb	0.9692647
85	0x3dda4a5f	0.106587164
86	0x3f37db41	0.7181893
87	0x3f721bb6	0.94573534
88	0x3dcab994	0.098986775
89	0x3f2486ab	0.64267987
90	0x3e91946f	0.28433558
91	0x3f5da0be	0.865734
92	0x3f592f9c	0.8483827
93	0x3f3cecdc	0.7379892
94	0x3ebd5f1c	0.36986625
95	0x3f64d316	0.8938459
96	0x3eb988a9	0.36237076
97	0x3f532ce7	0.8249039
98	0x3f394751	0.72374445
99	0x3dbbe54c	0.09174594
100	0x3e386448	0.18007004
101	0x3ee7d5cb	0.452803
102	0x3db53217	0.088474445
103	0x3ec70827	0.38873407
104	0x3f3c33e1	0.7351666
105	0x3f6e8fd7	0.9318823
106	0x3f048813	0.5177013
107	0x3ecb4d51	0.39707425
108	0x3dfadbef	0.1224898
109	0x3f327a80	0.6971817
110	0x3f0eb3e3	0.55743235
111	0x3f31a2ac	0.6938884
112	0x3daa7342	0.08322765
113	0x3f01a292	0.5063869
114	0x3e8f4d63	0.2798873
115	0x3e5c120d	0.21491261
116	0x3f409683	0.7522966
117	0x3db25542	0.08707668
118	0x3e403b62	0.18772653
119	0x3f5fd29b	0.87430733
120	0x3e316901	0.17325212
121	0x3f58878d	0.84581834
122	0x3ea19577	0.31559345
123	0x3e0d4ae2	0.13798097
124	0x3eea1bdc	0.4572438
125	0x3e3a570a	0.18197265
126	0x3f2f1208	0.6838689
127	0x3f58d18a	0.8469473
128	0x3de2f4de	0.11081861
129	0x3e30f72a	0.17281786
130	0x3ed448e0	0.4146185
131	0x3f02dda2	0.51119435
132	0x3f6a20ab	0.914561
133	0x3f67ca13	0.90542716
134	0x3e543263	0.20722346
135	0x3f51877b	0.8184735
136	0x3f44556b	0.7669284
137	0x3dcefdbb	0.10106989
138	0x3f4e8ef3	0.80686873
139	0x3f7998c8	0.9749875
140	0x3ebf8ae6	0.3741066
141	0x3f6c6fcb	0.9235808
142	0x3f8296c9	1.0202266
143	0x3f1effa8	0.6210885
144	0x3f03c3cf	0.51470655
145	0x3f740994	0.95327115
146	0x3f5594b7	0.83430046
147	0x3f8037b8	1.0017004
148	0x3e3f820e	0.18701956
149	0x3f29ffee	0.6640614
150	0x3f4c9dfb	0.7992856
151	0x3e3c58d0	0.18393254
152	0x3f11a4de	0.5689219
153	0x3e73c4a2	0.23805478
154	0x3e2acc90	0.16679597
155	0x3f774f3a	0.96605265
156	0x3dbc3632	0.091900244
157	0x3d45db1f	0.048304673
158	0x3f62c273	0.88577956
159	0x3f4b3830	0.7938261
160	0x3f201661	0.6253415
161	0x3f64a4f6	0.8931421
162	0x3efef054	0.4979273
163	0x3eae0f30	0.33995962
164	0x3ed5588a	0.41669112
165	0x3f14550a	0.5794226
166	0x3d1b0344	0.03784491
167	0x3d95799c	0.07298586
168	0x3ea27af8	0.31734443
169	0x3f11d2fa	0.5696255
170	0x3f4c790a	0.7987219
171	0x3e898aa1	0.26863578
172	0x3d951dae	0.072810516
173	0x3d31049b	0.043217283
174	0x3eefb75d	0.46819583
175	0x3e37b821	0.17941333
176	0x3ec2514d	0.37952653
177	0x3e3ca031	0.18420483
178	0x3f34b03b	0.70581406
179	0x3ea75c25	0.32687488
180	0x3e166f51	0.14690901
181	0x3f226fc5	0.63451797
182	0x3ee8dd3e	0.45481294
183	0x3f4fba1d	0.8114336
184	0x3f029bd6	0.51019037
185	0x3f456a25	0.7711509
186	0x3f28cf0e	0.6594094
187	0x3e642b8b	0.22282235
188	0x3f5f40aa	0.87208045
189	0x3f124e30	0.57150555
190	0x3eda6d9f	0.4266176
191	0x3f0d7754	0.55260205
192	0x3f768547	0.96297115
193	0x3f5bab5b	0.8580834
194	0x3f6a63df	0.9155864
195	0x3e5fecb3	0.21867637
196	0x3ec2eddd	0.380721
197	0x3f1c04a0	0.6094456
198	0x3ed8118e	0.42200893
199	0x3ed2f320	0.41201115
200	0x3f621e02	0.8832704
201	0x3e6b1ef0	0.2296102
202	0x3e87971f	0.26482484
203	0x3f10eb3b	0.56608933
204	0x3e9d30a1	0.30701163
205	0x3e5e0c10	0.21684289
206	0x3dd4f353	0.10397973
207	0x3f574ca1	0.841013
208	0x3e8a54db	0.27017865
209	0x3ee2c3e9	0.44290093
210	0x3f565166	0.83717954
211	0x3c8a447e	0.016878363
212	0x3f039141	0.51393515
213	0x3e89956b	0.2687181
214	0x3e0a9ffa	0.13537589
215	0x3f1046e7	0.5635819
216	0x3f24102d	0.6408718
217	0x3f481918	0.7816329
218	0x3f814f2d	1.0102288
219	0x3f272122	0.6528493
220	0x3ef734e2	0.48282534
221	0x3e690b95	0.22758324
222	0x3ebf6b59	0.37386587
223	0x3d44751b	0.047963243
224	0x3d133739	0.035941336
225	0x3e02b5b2	0.12764624
226	0x3f52efb2	0.82396996
227	0x3f3159c7	0.69277614
228	0x3f743559	0.953939
229	0x3f5484ce	0.83015144
230	0x3f52738b	0.82207555
231	0x3f1b5da5	0.60689765
232	0x3f38b4b9	0.7215076
233	0x3f2b91bd	0.67019254
234	0x3dcbc3af	0.09949433
235	0x3dd553fb	0.10416409
236	0x3f5fc132	0.8740417
237	0x3f4e93f0	0.80694485
238	0x3eb2b1ce	0.3490128
239	0x3e539ff9	0.20666493
240	0x3e225f56	0.1585668
241	0x3df8164e	0.12113629
242	0x3ea33594	0.31876814
243	0x3f0b5835	0.5443147
244	0x3f032de4	0.512419
245	0x3f272cc6	0.65302694
246	0x3f0d97db	0.5530984
247	0x3f1bcc73	0.6085884
248	0x3f5de2e3	0.86674327
249	0x3f1ba65d	0.60800725
250	0x3eef2d42	0.46714216
251	0x3f3c60c4	0.7358515
252	0x3f26feb2	0.65232384
253	0x3f34fcd1	0.7069827
254	0x3ec11144	0.37708485
255	0x3c8f454f	0.017489104

fc1_batch.bias f4 [400]
0	0x3c88830a	0.016664047
1	0xbd30308b	-0.043015044
2	0xbcff4e8a	-0.03116538
3	0x3d2ebac5	0.042658586
4	0x3c838a81	0.016057255
5	0xbc1aedd7	-0.0094561195
6	0xbd2497db	-0.040183883
7	0x3c856766	0.016284656
8	0xbdb0f0f9	-0.08639712
9	0xbda7425b	-0.08166953
10	0x3c83c02c	0.016082846
11	0x3c0311cd	0.0079998495
12	0x3d1d7756	0.038443886
13	0x3ca25f32	0.019820783
14	0xbd1c8775	-0.03821512
15	0x3cbe6e75	0.02324603
16	0xbcc4850f	-0.023989229
17	0x3cfb6eba	0.030692447
18	0x3ced24fa	0.028948296
19	0x3be0a053	0.0068550496
20	0x3c78ec79	0.015193098
21	0x3d6771e7	0.05650511
22	0xbc944031	-0.018097015
23	0x3c88cf73	0.016700482
24	0xbd7eadb1	-0.062177364
25	0x3c342e02	0.010997297
26	0xbcbd1ed1	-0.023085983
27	0x3d3a1d3d	0.04543804
28	0xbdeff524	-0.11716679
29	0x3db8017e	0.089846596
30	0xbdb5bddb	-0.08874103
31	0x3c4b8f9b	0.012424375
32	0x3cfe4f4d	0.031043673
33	0xbc9c722d	-0.019097412
34	0xbc349e0f	-0.011024012
35	0xbcba8224	-0.022767134
36	0x3972b292	0.00023145441
37	0xbdfe4517	-0.124155216
38	0x3daa350d	0.083109
39	0x3ca74ba4	0.02042181
40	0x3c21ed3a	0.009883219
41	0x3d1b1bb3	0.037868213
42	0xbd365be8	-0.044521242
43	0xbc652860	-0.013986677
44	0x3c8eb72d	0.01742133
45	0x3bd536d9	0.0065067825
46	0x3d9889f0	0.074481845
47	0x3d819069	0.06326372
48	0xbd130435	-0.035892684
49	0x3c2ed96c	0.010671955
50	0x3d0d75a6	0.034536026
51	0x3b276ad3	0.002554585
52	0x3d7c756b	0.061635416
53	0xbcdc2347	-0.02687229
54	0x3dc5b733	0.09654083
55	0xbdbbcc75	-0.091698565
56	0xbbd94d37	-0.006631519
57	0xbca9c595	-0.020724097
58	0xbd37b20e	-0.04484754
59	0x3da9d9d6	0.08293502
60	0x3cc71d95	0.024306098
61	0xbda66e9c	-0.08126566
62	0xba60044f	-0.0008545564
63	0x39bb521a	0.0003572859
64	0xbc9b493b	-0.018955817
65	0xbc615c89	-0.013754972
66	0xbb71a04c	-0.0036869226
67	0x3d60b8bb	0.054863673
68	0x3d8e9a27	0.06962996
69	0x3cf351a0	0.029702008
70	0xbc860eff	-0.016364573
71	0xbd7467a9	-0.05966917
72	0x3d9cfce8	0.076654255
73	0xbc89542e	-0.016763773
74	0xbd19a4d9	-0.037510727
75	0x3cfc4a61	0.030797185
76	0xbd0655bc	-0.032796606
77	0x3c94378c	0.018092893
78	0xbd46513f	-0.048417326
79	0xbbdcf6a4	-0.006743269
80	0x3cdb1d6b	0.026747426
81	0xbd614b3d	-0.055003393
82	0x3d2eacba	0.042645194
83	0x3d7c4cad	0.06159656
84	0xbd49a79e	-0.049232118
85	0x3d5cafac	0.05387847
86	0x3d2a2109	0.04153541
87	0xbcf36d58	-0.029715225
88	0xbc31779d	-0.010831741
89	0xbc5fad36	-0.013652137
90	0x3d26fac4	0.040766492
91	0x3b356250	0.0027677007
92	0xba868b4a	-0.00102649
93	0x3d6c062d	0.057623077
94	0x3d8ab2d6	0.067723915
95	0xbd0ca930	-0.034341037
96	0x3db00a52	0.085957184
97	0x3d4af4ea	0.049549975
98	0x3bed60a6	0.0072441874
99	0x3d4d8f59	0.050185535
100	0x3ca2cd38	0.019873247
101	0x3c430116	0.011902114
102	0x3d40465a	0.046942092
103	0x3cead42b	0.028665623
104	0xbb95e145	-0.0045739734
105	0x3ded85dd	0.11597798
106	0x3d4d9e33	0.0501997
107	0x3d8af459	0.06784887
108	0xbc4227ac	-0.011850279
109	0xbdff3091	-0.12460435
110	0x3caa2699	0.020770358
111	0x3c29db73	0.010367262
112	0xbc7293b2	-0.014805721
113	0x3c568ce0	0.013095111
114	0x3d831fcd	0.0640255
115	0x3cd0a357	0.025468512
116	0x3c22bca0	0.009932667
117	0xbcb80e6f	-0.02246782
118	0x3d67b725	0.056571145
119	0x3bd99cb6	0.006640996
120	0x3caff8bb	0.021480909
121	0x3ae121f8	0.0017176261
122	0x3a16489b	0.0005732865
123	0x3cb4dac7	0.022076977
124	0xbd2e94ad	-0.042622257
125	0xbc9ae7eb	-0.018909415
126	0x3ca2f426	0.01989181
127	0x3c80b2d1	0.015710266
128	0xbc817b62	-0.015805904
129	0x3c3cc9a5	0.011522685
130	0xbbb3a9f6	-0.0054829074
131	0xbd7c91c1	-0.06166244
132	0xbc5dac0c	-0.013529789
133	0x3d44a08f	0.048004683
134	0x3d43bbbe	0.047786467
135	0xbd8c977d	-0.068648316
136	0x3cd4e777	0.025989277
137	0x3d288711	0.041144434
138	0x3c476b96	0.012171647
139	0xbccbbc45	-0.024870047
140	0x3d24e611	0.04025847
141	0xbc58874f	-0.013215854
142	0xbcddf6f4	-0.027095295
143	0xbcac49c8	-0.021031275
144	0xbd32fc59	-0.04369769
145	0xbd8cbb28	-0.06871635
146	0x3d2a37cd	0.041557122
147	0xbdcd06d5	-0.10011069
148	0x3d5726a8	0.0525271
149	0x3c0d4dc0	0.008624494
150	0xbc47e95f	-0.012201636
151	0x3d5338d9	0.051567886
152	0x3cef975d	0.02924698
153	0xbc0d661a	-0.0086303
154	0x3d6ab074	0.057297185
155	0x3d81ac52	0.063316956
156	0x3b698514	0.00356323
157	0x3b157d6d	0.0022810355
158	0x3d914c8b	0.070946775
159	0x3b1f9248	0.0024348665
160	0xbd3b82ac	-0.045778915
161	0xbda4c687	-0.080456786
162	0x3db9c406	0.09070592
163	0x3d88b6e8	0.066755116
164	0x3b25345f	0.0025208218
165	0xbc905891	-0.017620357
166	0xbcc0e294	-0.02354554
167	0xbd2a4404	-0.04156877
168	0x3d393814	0.045219496
169	0xbd49d09d	-0.049271215
170	0xbd489f9f	-0.04898035
171	0xbbb237d9	-0.0054387865
172	0x3c543de7	0.012954212
173	0x3d5228fe	0.051308624
174	0x3c17ea6c	0.009272199
175	0xbabaf430	-0.0014263447
176	0xbbbcc3b4	-0.0057606343
177	0x3c113091	0.008861677
178	0x3c25ed55	0.010127385
179	0xbd22ff3c	-0.03979419
180	0xbbcadeb1	-0.0061910977
181	0xbd8958e9	-0.067064114
182	0x3c22c281	0.009934069
183	0xbcff7c7c	-0.031187288
184	0x3c18625d	0.009300795
185	0x3d5aad6f	0.053388055
186	0x3d3a7898	0.045525163
187	0x3c45dee1	0.012077064
188	0x3d89fe60	0.06737971
189	0xbc826c67	-0.01592083
190	0x3d63a23c	0.05557464
191	0xbd100c04	-0.03516771
192	0x3d2c20ff	0.042023655
193	0x3a9b3db1	0.0011843947
194	0xbd3515e1	-0.04421032
195	0xbba6d7e9	-0.0050916565
196	0x3c39d931	0.011343286
197	0x3d4a0446	0.04932048
198	0x3cc41247	0.023934497
199	0xbd09da92	-0.03365571
200	0x3df46da5	0.119349755
201	0x3c2797d0	0.010229066
202	0xbd984dbe	-0.07436703
203	0x3cecf9c2	0.028927688
204	0x3cb779ab	0.022396883
205	0xbc83be57	-0.016081972
206	0x3d025489	0.0318189
207	0xbcb6f803	-0.022335058
208	0xbd2ff8db	-0.042961936
209	0x3cd46972	0.025929186
210	0xbd184de7	-0.03718367
211	0xbc9db1b4	-0.019249775
212	0xbdb2784c	-0.08714351
213	0xbb9eb43e	-0.004843264
214	0x3cba06be	0.022708293
215	0xbc50524c	-0.012714934
216	0xbd1f2a9f	-0.038859006
217	0x3c2351a4	0.009968195
218	0xbd53fd81	-0.051755432
219	0xbca1fab0	-0.019772857
220	0x3b42e581	0.0029738846
221	0x3b1f6f8e	0.0024327966
222	0x3ca29958	0.01984851
223	0x3c825e46	0.015914094
224	0x3d63cf5c	0.055617675
225	0x3d0b698b	0.0340362
226	0x3c39c0ce	0.011337472
227	0xbd1335b1	-0.035939876
228	0x3cabf537	0.020990951
229	0x3d5490d6	0.05189594
230	0x3d346402	0.044040687
231	0xbc5bb8a5	-0.013410722
232	0xbc942e2a	-0.018088419
233	0x3d0241cd	0.031801034
234	0xbccb8ddd	-0.02484792
235	0x3cdf253d	0.027239436
236	0xbc1543da	-0.009110415
237	0x3d2272c0	0.039660215
238	0x3d3c10c4	0.045914426
239	0x3c349d78	0.011023872
240	0xbd7ccc2d	-0.061718155
241	0xbcc03a29	-0.023465233
242	0xb93e56cc	-0.00018152146
243	0x3bda25f4	0.0066573564
244	0xbcbfb181	-0.02340007
245	0x3da137d4	0.078719765
246	0xbcadf81e	-0.021236476
247	0x3c5f571c	0.013631608
248	0x3cfa17ab	0.030528864
249	0xbcb43449	-0.021997588
250	0xbc85044e	-0.016237404
251	0xbd058f60	-0.032607436
252	0x3cc14757	0.023593588
253	0x3d2b1f96	0.04177817
254	0xbc197599	-0.009366416
255	0xbc5a9cee	-0.013343079

fc1_batch.running_mean f4 [400]
0	0x3b6e6043	0.0036373294
1	0x3d051b04	0.032496467
2	0x3cac622c	0.021042906
3	0x3bf3f9dd	0.0074455575
4	0x3e11f486	0.14253435
5	0x3e218e7c	0.1577701
6	0x3d341dd8	0.043973774
7	0x3e0ff40f	0.14057945
8	0x3cbde7e5	0.023181865
9	0x3d0287e7	0.031867888
10	0x3d81927f	0.0632677
11	0x3db7191e	0.089403376
12	0x3d30cfb3	0.043166827
13	0x3debb0db	0.11508342
14	0x3e1b2d32	0.1515396
15	0x3da3c290	0.07996094
16	0x3bba310a	0.0056821154
17	0x3da0601a	0.0783083
18	0x3e2974ae	0.16548416
19	0x3e10125a	0.140695
20	0x3de0ec2a	0.10982545
21	0x3cb30e83	0.021857506
22	0x3e2e81a2	0.17041638
23	0x3d2c862b	0.04212014
24	0x3d0c3a9e	0.03423559
25	0x3d9af75b	0.075667106
26	0x3de26d50	0.11056006
27	0x3aa72e74	0.0012754933
28	0x3b1b7af0	0.00237244
29	0x3df2684e	0.11836301
30	0x3c702462	0.014657112
31	0x3c6ad3e4	0.014332745
32	0x3cc73630	0.02431783
33	0x3d9492e5	0.072545804
34	0x3a52b272	0.00080374547
35	0x3d43cda2	0.04780353
36	0x3d884244	0.06653264
37	0x3bad353a	0.005285886
38	0x3cae3948	0.021267548
39	0x3dcb98a7	0.099412255
40	0x3d2551db	0.040361267
41	0x3dddb145	0.10824827
42	0x3db58a2c	0.08864245
43	0x3c105df0	0.008811459
44	0x3cff594d	0.031170512
45	0x3e1c3d7c	0.1525783
46	0x3cd19dad	0.025587881
47	0x3cae5fde	0.021285947
48	0x3d3d03ba	0.046146132
49	0x3ccd8464	0.025087543
50	0x3c7f565f	0.015584557
51	0x3d7cb8de	0.06169974
52	0x3e2991ad	0.16559477
53	0x3d98426a	0.074345425
54	0x3e309971	0.17246033
55	0x3ce501d0	0.027954966
56	0x3b004010	0.0019569434
57	0x25f813f0	4.3034652e-16
58	0x3cb1e23e	0.021714326
59	0x3da34202	0.07971574
60	0x3cc06484	0.02348543
61	0x3c3c62bb	0.011498149
62	0x3af27f10	0.0018501002
63	0x3d2e1cf3	0.042508077
64	0x3dedc53d	0.11609886
65	0x3b9eaa92	0.004842111
66	0x3e305b0f	0.17222236
67	0x3ce80078	0.028320536
68	0x3e40bf07	0.18822871
69	0x3b1b3617	0.0023683363
70	0x3da73f08	0.08166319
71	0x3c5415dd	0.012944666
72	0x3e4d89cf	0.20072101
73	0x3e2818eb	0.16415755
74	0x3c50cac5	0.0127436565
75	0x3c4a5321	0.012348921
76	0x3b44df98	0.0030040499
77	0x3d935675	0.07194225
78	0x3b18837b	0.0023271728
79	0x3d102196	0.03518828
80	0x38e484d8	0.00010896631
81	0x3dbc392d	0.09190593
82	0x3e059b1e	0.13047454
83	0x3d2a9ed6	0.041655384
84	0x3c94cafb	0.018163195
85	0x3acf3696	0.0015809115
86	0x390bbbfd	0.00013326104
87	0x38a3d0ae	7.811315e-05
88	0x3891c87e	6.9514834e-05
89	0x398b4674	0.00026564638
90	0x3d89f290	0.06735718
91	0x3c9b67d4	0.018970408
92	0x3db227fc	0.08699033
93	0x3e37993e	0.17929551
94	0x3ce59f8e	0.028030183
95	0x3d0dfa61	0.034662608
96	0x3e0e944b	0.13923757
97	0x3c250287	0.010071403
98	0x3e3783cb	0.17921369
99	0x3e30b108	0.17255032
100	0x3e20b106	0.15692529
101	0x3c902f3a	0.017600644
102	0x3dda1899	0.10649223
103	0x3c91c414	0.017793693
104	0x3cfd5572	0.030924533
105	0x3e2a90ea	0.16656843
106	0x3cc87402	0.02446938
107	0x3d7aac1d	0.061199296
108	0x3c9b43d5	0.018953243
109	0x3b2370e0	0.0024939105
110	0x3e1ac425	0.15113886
111	0x3a10fc4c	0.0005530759
112	0x3d4d8047	0.050171163
113	0x3d84d76d	0.06486402
114	0x3c32aef9	0.010905975
115	0x34173d98	1.4085379e-07
116	0x3bbc828f	0.0057528685
117	0x3bf10f23	0.0073565408
118	0x3d4a3429	0.04936615
119	0x3d15e75c	0.036597595
120	0x3a993bf1	0.0011690838
121	0x3caa7363	0.020806974
122	0x39d10215	0.00039865138
123	0x3e02870c	0.12746829
124	0x3aba9a94	0.0014236742
125	0x3cc3f7be	0.023921844
126	0x3c91ec88	0.017812982
127	0x00000004	6e-45
128	0x3e0025cd	0.1251442
129	0x3dbb80a4	0.091553956
130	0x3d9eba50	0.0775038
131	0x3dfd620b	0.12372216
132	0x3c4dc690	0.012559548
133	0x3dedd1e2	0.116122976
134	0x3e176de8	0.1478802
135	0x3abfad85	0.0014623856
136	0x3cf7ae76	0.030234557
137	0x3d180c06	0.03712084
138	0x00000004	6e-45
139	0x3da047e2	0.078262106
140	0x3d37c752	0.04486782
141	0x3c35cc63	0.011096093
142	0x3d738e19	0.059461687
143	0x399120f6	0.00027681113
144	0x3b29a345	0.002588467
145	0x3d56c7f0	0.05243677
146	0x3d84befd	0.064817406
147	0x3cc0793a	0.023495305
148	0x3d034444	0.032047525
149	0x3a46d2cb	0.0007584511
150	0x3743cd79	1.1670746e-05
151	0x3ca7af3e	0.020469304
152	0x3aaf64e6	0.001338151
153	0x3aa9a7d7	0.0012943697
154	0x3c831bb2	0.016004417
155	0x3e4477aa	0.19186273
156	0x3dfb0d05	0.12258343
157	0x3d7b153a	0.06129954
158	0x3c31db5f	0.010855525
159	0x000024d2	1.3209e-41
160	0x3e2fed1a	0.17180291
161	0x3c073531	0.008252428
162	0x3d7c4b99	0.061595533
163	0x3c65f14b	0.0140345795
164	0x3c881617	0.016612096
165	0x3da68789	0.0813132
166	0x3cb735cb	0.022364518
167	0x3c92b9a2	0.017910782
168	0x3b977a42	0.0046227286
169	0x3a48aeb4	0.00076554273
170	0x3c3faae9	0.011698463
171	0x398f3d0f	0.00027320578
172	0x3e232a86	0.1593419
173	0x3d4580b9	0.048218463
174	0x3d748a17	0.059702005
175	0x3e0ac624	0.13552147
176	0x3dc010b5	0.093781866
177	0x3c8fd59f	0.017557917
178	0x3e183e14	0.14867431
179	0x3d385048	0.044998437
180	0x3b03e35d	0.0020124533
181	0x3e249e2b	0.16075961
182	0x3b5bb1ca	0.0033522719
183	0x3c9151e6	0.017739248
184	0x3c9bc524	0.019014902
185	0x3c100967	0.008791304
186	0x3e1023da	0.14076176
187	0x3b34c1db	0.0027581367
188	0x3c712412	0.0147180725
189	0x3bb1f792	0.005431124
190	0x3c453aef	0.012037977
191	0x3e06ba4f	0.13157009
192	0x3d5cf0e4	0.05394067
193	0x3e17f5cc	0.14839858
194	0x3c92a66e	0.017901625
195	0x3ddc080d	0.10743723
196	0x3c454752	0.01204093
197	0x3dbaeb38	0.09126896
198	0x3db2e7ba	0.087356046
199	0x3d76b02c	0.060226604
200	0x3c6e55dc	0.014546838
201	0x3c47dea4	0.012199078
202	0x3e1798a0	0.14804316
203	0x3c853988	0.016262785
204	0x3bc5a7f2	0.0060319835
205	0x37b4935d	2.1526293e-05
206	0x3c9866b0	0.018603653
207	0x3d1f3b5c	0.03887497
208	0x3d1731ff	0.036912914
209	0x3de8d36b	0.1136845
210	0x3d8c9ce6	0.068658635
211	0x3aeef9f1	0.0018232447
212	0x3bbf509e	0.0058384677
213	0x3e0887f9	0.1333312
214	0x3de4fe06	0.111812636
215	0x3cd75e31	0.026290031
216	0x3a8b8517	0.0010644522
217	0x3db68b21	0.089132555
218	0x3d4b4cc6	0.049633764
219	0x3cc67330	0.024224848
220	0x23687a9a	1.2602707e-17
221	0x3e2faa05	0.17154701
222	0x3dba8ab5	0.091084875
223	0x3a29bfb6	0.00064754055
224	0x3d038406	0.03210833
225	0x3c59abd0	0.013285592
226	0x3e314f08	0.17315304
227	0x3d9f4f2f	0.07778775
228	0x3d4b71f9	0.04966924
229	0x3d4f7313	0.050646853
230	0x3c0832b6	0.008312872
231	0x3d76dd25	0.060269494
232	0x3d8a140f	0.06742107
233	0x3d08a8f0	0.033364236
234	0x3e315962	0.17319253
235	0x3dcabbc3	0.09899094
236	0x3a726899	0.00092471536
237	0x3d5f9945	0.05458953
238	0x3ba56a3e	0.0050480654
239	0x3ced28fb	0.028950205
240	0x3cda3749	0.02663769
241	0x3d35dd42	0.04440046
242	0x3e046172	0.12927797
243	0x3e1ab246	0.15107068
244	0x3d121b70	0.035670698
245	0x3ccb1cc7	0.024793996
246	0x39d3e5a7	0.0004041616
247	0x3dc254c5	0.09488825
248	0x3db9b163	0.09067037
249	0x3e12963b	0.14315121
250	0x3ac0e0b7	0.0014715408
251	0x38c3a628	9.3292736e-05
252	0x3b0d58d5	0.002156784
253	0x3d61e41d	0.055149186
254	0x3e1ae066	0.15124664
255	0x3c9af034	0.018913366

fc1_batch.running_var f4 [400]
0	0x394d93a7	0.00019605328
1	0x3b2127ff	0.002459049
2	0x3aeb7354	0.0017963448
3	0x3a1c7e22	0.0005969723
4	0x3b9a7bec	0.0047144797
5	0x3bededec	0.0072610285
6	0x3b7dbbe5	0.003871673
7	0x3bd67695	0.006544898
8	0x3b07b4a5	0.0020707038
9	0x3b200601	0.002441764
10	0x3b9c0be8	0.0047621615
11	0x3c125c86	0.008933192
12	0x3b9f9f1d	0.0048712627
13	0x3bac9a34	0.005267406
14	0x3bfbb67b	0.0076816655
15	0x3bae6090	0.0053215697
16	0x39d74099	0.00041056125
17	0x3b8ab828	0.004233379
18	0x3c058953	0.008150416
19	0x3bc968b5	0.0061465153
20	0x3ba96556	0.005169551
21	0x3af6f046	0.0018839918
22	0x3bdb65c2	0.00669548
23	0x3b6da69c	0.0036262637
24	0x3b5f2801	0.0034050944
25	0x3b96d266	0.004602718
26	0x3bd48a0d	0.0064861835
27	0x3905483a	0.00012710775
28	0x38d97089	0.00010368328
29	0x3bca8991	0.00618095
30	0x3aa5211b	0.0012598367
31	0x3ace588c	0.0015742942
32	0x3ab124d1	0.0013515
33	0x3ba64e4a	0.0050752508
34	0x3868fa80	5.5546407e-05
35	0x3b2bd05e	0.0026216726
36	0x3b8e74a2	0.0043474
37	0x39a94867	0.00032288136
38	0x3adc0fe0	0.0016789399
39	0x3bbf6310	0.0058406666
40	0x3b637893	0.003470932
41	0x3bbc7a57	0.0057518887
42	0x3bac456e	0.0052573
43	0x3a91e8db	0.0011132018
44	0x3b2c7706	0.002631606
45	0x3bdaa4f9	0.0066724983
46	0x3b1fd94f	0.0024391
47	0x3b00c3c9	0.0019647947
48	0x3ba2a874	0.004963929
49	0x3aa90a42	0.0012896734
50	0x3ac57fdb	0.0015068011
51	0x3b74b581	0.003733963
52	0x3c01db8e	0.007925881
53	0x3be857d5	0.0070905485
54	0x3b8fd2b1	0.00438913
55	0x3b24ab5d	0.0025126555
56	0x38f9b665	0.00011907219
57	0x22f694b5	6.6835883e-18
58	0x3ac13ea8	0.0014743404
59	0x3b83eb14	0.004025826
60	0x3b12ebe6	0.0022418438
61	0x3a75b687	0.0009373207
62	0x38bbc927	8.9543224e-05
63	0x3b31c453	0.0027125075
64	0x3bc0b804	0.0058813114
65	0x398d0b4b	0.0002690203
66	0x3c0e3c4d	0.008681369
67	0x3b2dfa90	0.0026547052
68	0x3bfc00cb	0.007690524
69	0x39171d29	0.00014411345
70	0x3c08a7e8	0.008340813
71	0x3a1211ca	0.0005572109
72	0x3c13d0bc	0.009021934
73	0x3bfad33c	0.0076545756
74	0x3a66e4e7	0.0008807913
75	0x39f890aa	0.0004741003
76	0x391cf5a1	0.00014968823
77	0x3bcc2723	0.0062302514
78	0x38e5f04e	0.00010964331
79	0x3b56b191	0.0032759646
80	0x362dfc5b	2.59259e-06
81	0x3bc50a1b	0.0060131676
82	0x3c0ab4dc	0.008465972
83	0x3baa4dc2	0.0051972577
84	0x3a770e44	0.0009424428
85	0x38a7d8f6	8.003593e-05
86	0x36799106	3.7188306e-06
87	0x3601986c	1.931122e-06
88	0x35902c9b	1.0741818e-06
89	0x36f25241	7.2217376e-06
90	0x3b7caaeb	0.0038554023
91	0x3b306d8c	0.0026920764
92	0x3b9d112f	0.004793308
93	0x3bf16c9f	0.007367685
94	0x3aff71f0	0.0019488912
95	0x3b5e6a34	0.0033937814
96	0x3b90f355	0.0044235387
97	0x3aa87590	0.0012852419
98	0x3baa0483	0.005188526
99	0x3c52fb24	0.012877259
100	0x3bb4ef20	0.00552167
101	0x3ae017b4	0.0017096908
102	0x3b953863	0.004553841
103	0x3ad06431	0.0015899
104	0x3b1bf3a3	0.0023796342
105	0x3bb9acfe	0.005666374
106	0x3af1776d	0.0018422432
107	0x3be735c7	0.0070559713
108	0x3ab1afd2	0.0013556427
109	0x390b7d87	0.00013302836
110	0x3bc041e4	0.00586723
111	0x37b943fb	2.2085374e-05
112	0x3b5e9883	0.0033965416
113	0x3be4f7fa	0.006987569
114	0x3a457d56	0.000753363
115	0x31db66f0	6.3854415e-09
116	0x3a026107	0.00049735646
117	0x3a1d20a5	0.0005993939
118	0x3b315ce1	0.0027063417
119	0x3b981c7e	0.0046420684
120	0x3859323e	5.1783623e-05
121	0x3adc6231	0.0016813931
122	0x37369f68	1.088516e-05
123	0x3c21121c	0.009830978
124	0x38adb41e	8.282832e-05
125	0x3b132610	0.0022453107
126	0x3a8f06f1	0.0010912103
127	0x00000004	6e-45
128	0x3b76fe2e	0.0037688124
129	0x3b84ec08	0.0040564574
130	0x3bbd4e65	0.0057771676
131	0x3ba8ba37	0.0051491517
132	0x3ab1c7e1	0.0013563597
133	0x3b868f6c	0.0041064527
134	0x3bb8b6bc	0.005637018
135	0x3882cadd	6.236669e-05
136	0x3b381391	0.0028087834
137	0x3b5f283f	0.0034051088
138	0x00000004	6e-45
139	0x3b8d2abb	0.0043080724
140	0x3bb9c9f5	0.005669827
141	0x3a8b0159	0.001060526
142	0x3bd5af08	0.0065211095
143	0x3796c0af	1.7971119e-05
144	0x3907f657	0.00012966372
145	0x3b9786ea	0.0046242373
146	0x3b947112	0.0045300806
147	0x3ab70fee	0.0013966539
148	0x3b17f5ad	0.0023187206
149	0x385a5a77	5.2059502e-05
150	0x34e512b8	4.2668194e-07
151	0x3b23c684	0.002499015
152	0x3863717e	5.4226715e-05
153	0x38859334	6.369353e-05
154	0x3aca7ccb	0.0015448568
155	0x3ba7341e	0.0051026484
156	0x3c0e040e	0.008667959
157	0x3bab4ca6	0.005227643
158	0x3a96e930	0.0011513587
159	0x0000003c	8.4e-44
160	0x3b9fecf7	0.0048805433
161	0x39ff39e1	0.00048680513
162	0x3bb14689	0.00541002
163	0x3b1d2b30	0.002398204
164	0x3b2a69ea	0.002600307
165	0x3be511ee	0.006990663
166	0x3ab3c6e5	0.0013715891
167	0x3a7f4bdf	0.00097387837
168	0x3976898a	0.00023511625
169	0x381750a1	3.6076297e-05
170	0x3abe60b5	0.001452467
171	0x376f3944	1.4258843e-05
172	0x3bc0e3f1	0.0058865477
173	0x3b188191	0.0023270587
174	0x3ba5298b	0.0050403527
175	0x3bbdc997	0.0057918536
176	0x3bdba44e	0.0067029363
177	0x3ac9d23f	0.0015397741
178	0x3c189457	0.009312711
179	0x3b71f67d	0.00369206
180	0x39581801	0.00020608307
181	0x3bd5173b	0.0065030134
182	0x392adca6	0.00016294661
183	0x3b01dc3f	0.0019815115
184	0x3b10d01a	0.0022096694
185	0x39ed3ad7	0.00045248002
186	0x3c2fcaf8	0.010729544
187	0x397b55e9	0.0002396923
188	0x3b61d56e	0.003445949
189	0x3a0a3971	0.00052728417
190	0x3a9fa9f3	0.0012181386
191	0x3bdaea61	0.006680772
192	0x3b99a265	0.0046885484
193	0x3bb2f2e4	0.0054610837
194	0x3ac8e2ff	0.0015326439
195	0x3c3a018f	0.011352911
196	0x3ab671ba	0.0013919391
197	0x3bf08cc1	0.007340998
198	0x3bd0e2a7	0.0063746753
199	0x3b8684f2	0.004105204
200	0x3ac6ae3e	0.0015158129
201	0x3a79f416	0.0009534968
202	0x3c0490c6	0.008091157
203	0x3ac80799	0.0015261053
204	0x39fbdb97	0.00048038058
205	0x3538e058	6.8871805e-07
206	0x3aa92a04	0.0012906198
207	0x3b871597	0.0041224468
208	0x3b56f962	0.0032802452
209	0x3c1b1288	0.009464867
210	0x3bd4c297	0.0064929235
211	0x389cd79e	7.4788215e-05
212	0x39cc7d96	0.0003900348
213	0x3c071a3c	0.008246001
214	0x3bb1996a	0.0054198997
215	0x3b22edd9	0.0024861007
216	0x384af94e	4.8392736e-05
217	0x3be1df6c	0.006893089
218	0x3b779c74	0.0037782462
219	0x3b002d66	0.001955831
220	0x1fef3f44	1.013251e-19
221	0x3c04873b	0.008088882
222	0x3ba37c39	0.0049891737
223	0x3807f110	3.2411015e-05
224	0x3b031280	0.002000004
225	0x3a6f06e8	0.00091181556
226	0x3bf3499c	0.0074245464
227	0x3bbab5a7	0.005697924
228	0x3b90c34e	0.0044178134
229	0x3b9f80a9	0.0048676324
230	0x3aa3dada	0.0012501136
231	0x3bb981e8	0.005661238
232	0x3bc3e2ed	0.0059779794
233	0x3b551bd2	0.0032517803
234	0x3be6677f	0.0070313807
235	0x3bd83d35	0.0065990933
236	0x38735372	5.801343e-05
237	0x3b89d452	0.0042062188
238	0x3971b0b3	0.00023049377
239	0x3b2fa773	0.0026802688
240	0x3b267434	0.0025398852
241	0x3b5db5d5	0.0033830304
242	0x3bf3eeb6	0.007444228
243	0x3bf7773e	0.0075520566
244	0x3b8643d8	0.004097443
245	0x3b05075e	0.002029858
246	0x37245ed2	9.797239e-06
247	0x3bb9267a	0.0056503387
248	0x3bf9500e	0.00760842
249	0x3c11cc3e	0.008898793
250	0x38bc033d	8.965142e-05
251	0x361fab62	2.3792604e-06
252	0x38e3a25c	0.00010854445
253	0x3bbb5f23	0.0057181283
254	0x3c25c738	0.010118298
255	0x3a664a9d	0.0008784922
