ContinuousControl/checkpoint_critic_local.pth (torch_old, 556095 bytes, 17 tensors)

fcs0_batch.weight f4 [33]
00000000: b97d 8b3e 618c 9c3e 3e76 29bb 4aa2 913d
00000010: 5b37 5f3e 4d27 e73e c1c2 683e ebb8 7b3e
00000020: f9e9 0f3e cd05 653e e4e3 453e 531c 763e
00000030: 3f19 9c3d 9043 373e f468 883e 8d2f c33e
00000040: f657 8b3e e855 9e3e f1de 913d cb05 e63d
00000050: 3c02 e53d ec8f cd3d cbe3 053e 6cf7 b73e
00000060: 8e74 b13e a280 923e aab6 053f b466 9b00
00000070: 773e 8e3e d957 2e00 3c93 0b80 c49f 5100
00000080: 3603 863d
0.27244356 0.3057585 -0.0025857831 0.07111032 0.2179846 0.45147172 0.22730543 0.2458226
0.14054097 0.22365494 0.19325215 0.24034242 0.07622003 0.17896867 0.26642573 0.38122216
0.27215546 0.30924916 0.07122601 0.11231574 0.11182067 0.100372165 0.13075177 0.35930955
0.34659237 0.28613764 0.5223185 1.4271345e-38 0.27782032 4.255947e-39 -1.063008e-39 7.495988e-39
0.06543581

fcs0_batch.bias f4 [33]
00000000: afcd aabb a7e4 633c 69cf 12bb 7ed5 173b
00000010: 0798 93bb 39d6 80bc ee80 753a e892 d9bb
00000020: 823b c43b 72e9 e5ba 276c 6fba 179a 903b
00000030: bbb4 b3bc aab9 6c39 62d2 0abc a2b9 873a
00000040: a512 953c bd3a cbbb 5278 83bc f488 123c
00000050: 972f 0fbc 0a5c 84ba 4b29 533a 4890 be3c
00000060: 77e3 2f3b cdb0 6bbc c4bd 20bd 12e0 b037
00000070: b017 e33c febd 0f39 7eb8 2d3b cdfa 4b3b
00000080: 08d2 943b
-0.0052125077 0.013909495 -0.0022401458 0.0023168023 -0.004504207 -0.01572715 0.00093652203 -0.006639827
0.005988539 -0.0017540886 -0.00091332424 0.0044129 -0.021936765 0.00022575879 -0.008473011 0.0010355006
0.018197367 -0.0062020705 -0.016048584 0.008943785 -0.008739374 -0.001009823 0.00080551644 0.023262158
0.002683846 -0.014385414 -0.039243475 2.1085176e-05 0.027721256 0.0001370832 0.002650767 0.003112483
0.0045416392

fcs0_batch.running_mean f4 [33]
00000000: 0773 0e40 35af 99bf d8be a8bf a304 50bd
00000010: 5400 51bd 041b 8dbe 93ff 5f3e ac9d 063f
00000020: eed3 0fbc f812 d43d f16f 7cbd a934 44bd
00000030: d134 c8bc fcd2 7940 adca 07c0 d7f7 81c0
00000040: 9399 8b3d 8508 4b3e c46a febd 1a3f 463d
00000050: 36ce 3a3f f336 7d3e 5d40 a73f 03c0 b1be
00000060: b077 d1bd f572 82bd 105e f6be fcff 7fbf
00000070: 4416 a33d 0000 0000 fcff 7f3f 0000 0000
00000080: 74ab cbbe
2.2257707 -1.2006594 -1.3183241 -0.050785672 -0.051025704 -0.27559674 0.21874838 0.5258434
-0.008778555 0.103551805 -0.061630193 -0.047901783 -0.024439247 3.9035025 -2.1217453 -4.061504
0.06816401 0.19827469 -0.12422708 0.048400022 0.729709 0.24727993 1.3066517 -0.34716806
-0.10227907 -0.063695826 -0.4811864 -0.99999976 0.07963231 0.0 0.99999976 0.0
-0.39779246

fcs0_batch.running_var f4 [33]
00000000: 2302 6d40 2ca9 c73f c651 2640 0130 533e
00000010: 49ed 433e 883a bc3e f800 db3d deca 7b40
00000020: 33e7 3c3e bb8c 593e 6f89 5a40 9381 9140
00000030: 8fd7 9640 145f 4541 0227 cb40 86dd f940
00000040: 79c2 843e 0acd 593e 58c1 543e 0207 7b3e
00000050: 5151 4740 0318 973f 7e90 6e40 af64 6f41
00000060: 2a46 8641 2e9e 9241 ecd3 0042 0400 0000
00000070: b253 0342 0400 0000 0400 0000 0400 0000
00000080: fd01 d83b
3.7032554 1.5598502 2.598741 0.20623781 0.19133486 0.36763406 0.10693544 3.934257
0.1844757 0.2124509 3.4146383 4.547067 4.7138133 12.335712 6.3485117 7.8082914
0.2592962 0.21269622 0.2077688 0.24514392 3.1143382 1.1804203 3.727569 14.962081
16.78426 18.327236 32.206955 6e-45 32.831734 6e-45 6e-45 6e-45
0.006592034

fcs1.weight f4 [400, 33]
00000000: ea74 7231 238e 3b31 2842 5114 fccd b518
00000010: ad01 d7af 525a 98b4 72df a2b0 a178 7532
00000020: fe7b 88ae f426 0632 fad0 7c2d f61e 1fb3
00000030: 34ad 6416 edab 502e 5ff6 1e2e c357 edb1
00000040: 1990 64b2 1807 b3b5 b49f 07a6 639b 852b
00000050: ee48 d5ad 2929 1b2e c4d4 ebac a053 8f32
00000060: 2887 b1b2 58b9 6831 e2a7 5934 b9b6 a214
00000070: 50b3 01b0 0217 a312 b670 4694 b4c5 da93
00000080: 24b4 aa95 cf15 2039 7fcd 8038 f481 0b95
00000090: ac28 0bae 32b2 9d38 3b95 43b9 1238 1937
000000a0: d8d6 f4b3 3ef6 0cb3 66fb f138 f840 fa34
000000b0: ba07 14b8 be0c 08ae 8273 e736 163f 2a38
000000c0: 2316 83b8 7796 f6b7 bcf4 3439 5e3b 7aac
000000d0: 26b4 a333 f706 43b2 001c 0031 f7eb 84b4
000000e0: 1685 79b9 7779 c539 50ea 81b8 f87d 89ba
000000f0: c6dc 1993 e661 ac37 49e5 7714 7719 5493
00000100: 77d9 5b13 549a 461d f5ae 38bc 503a 4bbc
00000110: 2178 0db5 7429 383a 6732 ce3a 5eec ca3c
00000120: b1bc ed3a 4e53 543b 8840 e039 4600 553b
00000130: 1b97 c83b a1f2 8dbb 1221 6a38 9711 88bc
00000140: 0ae5 c3bb d152 3ebc 1ea9 fa3b 1277 3e3c
00000150: 753f 71ba 5de5 efbb 09ed 303a a37a d73a
00000160: acf5 15bc ce3a af3c e495 c0ba 91a1 9dbb
00000170: e0fc aebb 55dc 4837 8ead 923b 3ebe 5d37
00000180: 7563 c6b7 d64f 9fb8 6513 41ba 81ad 35bc
00000190: e218 5bbb bf1f 4139 0f12 55bb e56d 993c
000001a0: f34f 93bb a751 a1ba 33d9 a8ba 42f0 813b
000001b0: 0d43 67bb 74f3 34bb d5e5 343b 6a59 683a
000001c0: 4cf8 d9bb 9441 42bb 3e0d efbb 885a 83bb
000001d0: 613a 16bb 0b7d 59ba bb70 5f3b 0935 6dbb
000001e0: d12c 4a3a d5bb bb3b ddb1 cbbb 0c18 cf3a
000001f0: 4f76 bf3a 6cda a6bb 996f c537 aa96 c03b
00000200: 5487 6938 2235 5738 4f5b 67b7 6e66 133a
00000210: 699a d239 daea a8ba 3e82 27b5 d438 e036
00000220: b5f0 91b9 f58c 813b 2139 3bb9 efa2 52b8
00000230: b0b6 2438 9843 823a b27a 9ab7 9d7c 7eb9
00000240: 801b 2fb8 b4aa b6b8 9a21 8cb8 ad5d b33b
00000250: e2cb d43a b265 1e3a 93f4 e137 4d33 fb37
00000260: 2132 e7b7 d949 4f38 f111 3a37 f404 c43a
00000270: b02c 93ba b89d 0e39 cc55 853b e610 f3b5
00000280: ff8e ab37 46e9 18b5 7a35 3e36 e34b 29b6
00000290: 1c5a ccb7 be4a afb5 c0cc 41b9 388f 1923
000002a0: de8b 9926 3257 c136 bde7 1539 f6bb 4eb7
000002b0: a536 41b4 6b8b 7435 3c25 9837 e1d9 ddb5
000002c0: aec6 e7b8 adbd 3625 98d4 40b1 5ec8 3bb8
000002d0: 68e7 c138 3f0e 8e39 b5e5 26b9 c672 d8a1
000002e0: d15a e3b0 680d 44b0 fd9e a9ae adfd 4432
000002f0: 6716 adb7 032f 43b8 aaf0 5e38 44fa 1539
00000300: 2045 2922 1991 d734 d210 99a3 ef24 81a0
00000310: f712 8a21 f588 e6a3 3864 a8bc 9bea e4ba
00000320: 84d3 36bb a2d0 893a 47a1 37bc 8d51 b4bc
00000330: 8936 f53a cb8b 10bc 04e2 3cbd f843 87bc
00000340: a30f 5ebd 0c58 bcbc 8b2c b83c cd1d 38bc
00000350: ee75 54bc 71fb 863c 4a1a 2e3c 931e 213c
00000360: 92c2 273c 59ac 093d 0be8 523c 24be c73a
00000370: 7a40 163c 1963 32bc 614e 63bd f9fd 1a3c
00000380: aae7 cc3b e385 683a 8217 5f3c 4b05 673a
00000390: 1406 14ba 53f3 9a3a 1ac4 28bb c500 882f
000003a0: 78df 2132 be82 6a00 0cbd 4a01 047f 55b0
000003b0: 3fd1 c133 bb63 b12c c637 8cad d8f4 f0a3
000003c0: acdb 2c2b 08ec 1f23 a2fc dd29 f984 1e00
000003d0: dd68 0b22 4870 f3a5 26fe 1ab1 ee05 1034
000003e0: 48b8 0ab2 9a64 110e 2eac bd97 822f cea3
000003f0: af55 c0ab af4c c59d 6a2e d1b2 2a17 2a33
3.5282093e-09 2.7292877e-09 1.05648505e-26 4.6995394e-24 -3.9109463e-10 -2.8377923e-07 -1.1850558e-09 1.4288305e-08
-6.2065894e-11 7.8086835e-09 1.4370944e-11 -3.704823e-08 1.8472347e-25 4.7446425e-11 3.6143862e-11 -6.907585e-09
-1.3304111e-08 -1.3338604e-06 -4.705397e-16 9.493347e-13 -2.4247684e-11 3.5279477e-11 -6.7027234e-12 1.668542e-08
-2.0666974e-08 3.38658e-09 2.0270775e-07 1.6429891e-26 -4.7184745e-10 1.0292418e-27 -1.0018674e-26 -5.5225887e-27
-6.8946665e-26 0.00015266913 6.141792e-05 -2.817334e-26 -3.1641065e-11 7.519535e-05 -0.00018652242 9.1325655e-06
-1.1401215e-07 -3.2820246e-08 0.00011538602 4.66134e-07 -3.5293146e-05 -3.0934137e-11 6.8977834e-06 4.058991e-05
-6.25069e-05 -2.939555e-05 0.00017257308 -3.5560092e-12 7.623048e-08 -1.13520775e-08 1.8642368e-09 -2.4758603e-07
-0.00023796069 0.00037665266 -6.1948434e-05 -0.0010489812 -1.9420165e-27 2.0549585e-05 1.2515532e-26 -2.6770717e-27
2.7748905e-27 2.6284868e-21 -0.011272182 -0.0124040395 -5.2701404e-07 0.000702522 0.0015731574 0.024770912
0.00181379 0.0032398286 0.0004277269 0.0032501384 0.006121529 -0.004331902 5.5820747e-05 -0.01660995
-0.0059782313 -0.011616425 0.007649555 0.011625068 -0.0009202876 -0.0073210434 0.0006749188 0.0016439747
-0.009152811 0.021390345 -0.0014693108 -0.00481052 -0.0053402036 1.1972229e-05 0.0044762557 1.3216921e-05
-2.3649753e-05 -7.5965814e-05 -0.0007365256 -0.01108873 -0.003343158 0.0001841774 -0.0032511984 0.01872916
-0.0044956147 -0.001230766 -0.0012882113 0.0039654085 -0.0035287768 -0.002761093 0.002760281 0.00088634214
-0.0066519137 -0.0029641138 -0.0072952798 -0.004008595 -0.002292298 -0.0008296526 0.0034094292 -0.0036194941
0.00077123666 0.0057291784 -0.0062162713 0.0015800013 0.0014607402 -0.005091956 2.3536197e-05 0.0058773356
5.5677563e-05 5.130948e-05 -1.3789932e-05 0.0005622868 0.00040169366 -0.0012887374 -6.2401875e-07 6.682336e-06
-0.00027835896 0.003953571 -0.00017854992 -5.0219645e-05 3.9270788e-05 0.0009938357 -1.8415365e-05 -0.0002426975
-4.1748863e-05 -8.710232e-05 -6.681979e-05 0.0054738135 0.0016235078 0.00060423755 2.6935979e-05 2.994542e-05
-2.7560689e-05 4.9421422e-05 1.1090641e-05 0.001495509 -0.0011228528 0.0001360093 0.0040690657 -1.8109829e-06
2.0451376e-05 -5.696387e-07 2.8343334e-06 -2.5227134e-06 -2.4360656e-05 -1.3060269e-06 -0.0001848219 8.324474e-18
1.0654419e-15 5.761999e-06 0.00014296077 -1.232232e-05 -1.7994405e-07 9.1099963e-07 1.813715e-05 -1.6529194e-06
-0.00011051945 1.5850248e-16 -2.8060523e-09 -4.477088e-05 9.24606e-05 0.00027094965 -0.00015916566 -1.466711e-18
-1.6542235e-09 -7.1323436e-10 -7.713472e-11 1.1466381e-08 -2.0633639e-05 -4.6535406e-05 5.315306e-05 0.00014302979
2.2940365e-18 4.0152443e-07 -1.6595417e-17 -2.187789e-19 9.356264e-19 -2.4994654e-17 -0.0205556 -0.0017464937
-0.002789707 0.0010514448 -0.011207885 -0.022011543 0.0018708269 -0.008822392 -0.046113983 -0.016511902
-0.05421413 -0.022991203 0.022482177 -0.011237574 -0.01296757 0.016477318 0.010626385 0.00983395
0.01023926 0.03361163 0.012872706 0.0015239161 0.009170646 -0.010887885 -0.05549467 0.009459966
0.0062532024 0.00088700483 0.013616445 0.00088127394 -0.00056466577 0.0011821784 -0.0025751651 2.4738803e-10
9.422244e-09 9.781464e-39 3.7237175e-38 -7.766945e-10 9.0253245e-08 5.041715e-12 -1.5940926e-11 -2.6124548e-17
6.141153e-13 8.669389e-18 9.8581963e-14 2.802766e-39 1.8893527e-18 -4.2229865e-16 -2.2554416e-09 1.3413202e-07
-8.074558e-09 1.7921068e-30 -1.2257303e-24 -2.2354685e-17 -1.3666203e-12 -5.2224755e-21 -2.4351909e-08 3.9602277e-08

fcs1.bias f4 [400]
00000000: b580 4ab6 64c7 85bb b051 79bc 90ab 09ba
00000010: afd1 19bb ac2f 9eba 4ae8 53bd f788 e1b5
00000020: 8091 0d3d c731 06bb a083 263a 7e81 35ad
00000030: 57bc 6f2d 8c61 43bc 2fdb 00bc 4300 8cb6
00000040: b367 8d30 03a0 e6ae c323 3783 b99d 7bbc
00000050: d4f0 d5b6 22a1 e5bc d0e9 9829 199a adb8
00000060: a1fc b0bc 9aee 40bd 3c09 26bb f946 a6af
00000070: 03f7 8bbc 9899 0cbc 9905 babc a296 00b4
00000080: 0e5d 3ebd 4162 34bc ee2b 289b f408 753b
00000090: 3a0d 819f 01b3 3cbc ddfe ba3b 4dfa fdbc
000000a0: 0e2f 3cbd f64b fdbb 23f0 a0af 1560 37bd
000000b0: e306 1fbc f8b7 6b3a 3a93 2c3b baf1 90ba
000000c0: eab2 21bb 6c11 15b0 68f2 5abc f4e9 4dbb
000000d0: 38e3 5c39 fc58 8cba 15d9 a63c e4d9 003c
000000e0: 7def 92a7 bda0 b4a8 1641 3aba e8cf 2430
000000f0: 929e 50a9 edf5 53bd 64a2 209b 71c8 82bb
00000100: a446 c99b cde0 03ab fd09 15bd a4f9 15bd
00000110: b279 06bc 9c0f 602d 64df ad3b 6d98 1ab9
00000120: 0eed 9cb9 abf3 e1b7 094d 02bb c2b4 cea9
00000130: 58e9 4ebb ddad b3bb 8707 1d3a 8c3f ffbc
00000140: 62fe 98bd 4ce2 43b0 d4a4 abb7 6887 59bb
00000150: 4b75 c8bc 01c2 9bb7 9229 70a6 c0e2 a0bd
00000160: cf65 593a ed31 763c fb70 68b9 3628 4aaa
00000170: 62d4 7238 6871 00b7 b18a b9a6 c128 d1b8
00000180: 7561 5eb3 1b6c d0a4 bf04 fbba a7cb c3b7
00000190: 82f8 c6a3 4b27 09bd cdef 5799 c7e7 ac08
000001a0: 0c20 87bd 3992 613b 3b65 1bbc bf53 a83a
000001b0: 6e0b 6ab4 1b56 17b3 e7ca d6a6 6b6c c1b1
000001c0: 8cdd a59c 8cf0 7c98 1e9c 08a5 cba0 8db7
000001d0: f1c1 87bc 6803 a0bb bcb9 17ba cbaa d6b8
000001e0: bcd2 08b1 2126 0abd 2429 f4bc 725d 11b9
000001f0: 1db5 d2bb 5cf6 5496 55de bcbc 8ae0 44b8
00000200: 6e85 eebc 870e 919d d3aa f7bb ff71 c3ab
00000210: c20e a5b7 14ba 3ebc 15bb 84b7 ff80 95bc
00000220: 4ddb 4abd 96e2 8ca9 4c74 88a3 5d90 e6bc
00000230: 9dd3 26bb f856 0ea5 049d c53b 7d7c 92b9
00000240: 9aa6 22bd be1a b93b 62f8 3bbc bd94 80bc
00000250: c214 323c d67f 9f20 ac46 fabc bbff 9eba
00000260: 2119 083a 0deb f6b3 419d cb3b 0614 8a3d
00000270: 7dcb 4ab1 7ca7 b4a0 febe 41bd 90b6 e1af
00000280: 0ef6 9dba e655 9c3a 1b06 4c3b 5da5 25bc
00000290: e53e 8f3b d0ca 93b6 1cca f1b2 dba1 14bc
000002a0: e37f ad3a 0c6f e08e 435c d1bc 8b23 abba
000002b0: 6f94 c7bc 9bf0 72ae ee54 49b9 d059 8cb4
000002c0: 0901 723b d9fd af0a aaa3 3d3c bc4f a0b5
000002d0: 0705 41b9 3433 98b9 08bc 3bb1 ca28 68bd
000002e0: 5099 83bc 29da 30bd 9f03 02bb fc68 f5b1
000002f0: 73fa 9eba 980a 65bd b7b1 8606 9d24 42ad
00000300: 5d13 8fbc 41f5 cb3c 1b49 133c 6e14 54bb
00000310: 2fa3 cc8c 48dc 05bc 59a4 acbb c86e 823b
00000320: 6bc2 1da4 d6c7 eea7 4274 85b7 d75f 8fac
00000330: 38bd d33a 8010 7398 1a41 8ab7 ff3f aeb7
00000340: e031 07b2 263a b20a e22a 47bc 7575 62b5
00000350: 7736 a6bc 8734 3bb9 28db 62ab 6249 63bd
00000360: 0bb5 8639 708f 0a3b ef49 a33c 717b 833a
00000370: 0237 8bba a7f1 cb36 f785 873b 992d adbb
00000380: 870d b89a e35f 408d 8746 293c c2a1 c1bc
00000390: b567 873c 0d5e 7abc f1e3 93ac 5435 943c
000003a0: 6789 c8b3 a2c0 eeb8 fa06 c3ab a8c6 98aa
000003b0: b8e2 dabb 7e8e d73b 7181 11bc ad50 90a5
000003c0: 6a6e c1a9 47ab 82b5 4004 c6b4 da96 839a
000003d0: 95b4 3622 347c 21bc 1dc9 9fbc 55e4 55ba
000003e0: 96d9 a9bb 671b 93a7 436e 7291 e5a4 77ab
000003f0: b369 4bbd 1317 21bb 44df 5faa bf87 35a3
-3.0175263e-06 -0.004082607 -0.01521723 -0.00052517 -0.0023470928 -0.0012068651 -0.0517352 -1.6803668e-06
0.034562588 -0.0020476447 0.0006352011 -1.0317412e-11 1.3627397e-11 -0.011925112 -0.007864757 -4.1723556e-06
1.0288573e-09 -1.0487613e-10 -5.381992e-37 -0.015357428 -6.3759308e-06 -0.028030936 6.790716e-14 -8.277986e-05
-0.021604838 -0.04710255 -0.0025335094 -3.0245653e-10 -0.017085558 -0.0085815415 -0.022707747 -1.1975729e-07
-0.046475463 -0.011009754 -1.3910829e-22 0.003738937 -5.4655507e-20 -0.011517287 0.0057066516 -0.031003142
-0.045943312 -0.0077300025 -2.9274458e-10 -0.044769365 -0.009706232 0.0008991952 0.002633287 -0.0011058368
-0.0024673291 -5.423064e-10 -0.013363458 -0.0031419965 0.0002106548 -0.0010707672 0.020367185 0.007864449
-4.0782794e-15 -2.0053724e-14 -0.00071050355 5.9958305e-10 -4.6322816e-14 -0.051748205 -1.3287361e-22 -0.0039911796
-3.329831e-22 -4.6852523e-13 -0.03638648 -0.03661503 -0.008207725 1.2736392e-11 0.0053061713 -0.00014743368
-0.00029931258 -2.6935557e-05 -0.0019882342 -9.179594e-14 -0.003157219 -0.0054833726 0.00059901964 -0.031158231
-0.07470395 -7.1262174e-10 -2.0461543e-05 -0.003319228 -0.024469992 -1.856778e-05 -8.3323065e-16 -0.07855749
0.0008293064 0.015026552 -0.00022167333 -1.7955155e-13 5.7895093e-05 -7.655799e-06 -1.2874546e-15 -9.9734876e-05
-5.177704e-08 -9.038876e-17 -0.0019151195 -2.3340644e-05 -2.157245e-17 -0.03348474 -1.1163667e-23 1.0406364e-33
-0.06597909 0.003441943 -0.009484584 0.0012842341 -2.1797106e-07 -3.523574e-08 -1.490423e-15 -5.629365e-09
-1.0976053e-21 -3.2691682e-24 -1.1849014e-16 -1.6883385e-05 -0.01657197 -0.0048832186 -0.00057878694 -0.00010236128
-1.9910393e-09 -0.03372777 -0.029804774 -0.00013863089 -0.006430282 -1.7202961e-25 -0.023055235 -4.693916e-05
-0.029116359 -3.83962e-21 -0.0075582056 -1.3887224e-12 -1.9676405e-05 -0.011641044 -1.5822743e-05 -0.018249987
-0.049525548 -6.256555e-14 -1.4794403e-17 -0.02814501 -0.0025455721 -1.2346003e-16 0.0060306806 -0.0002794004
-0.039709665 0.00564894 -0.011472793 -0.015695924 0.010869207 2.7020242e-19 -0.030551277 -0.0012130657
0.0005191733 -1.1498023e-07 0.0062138145 0.067421004 -2.9510538e-09 -3.0604018e-19 -0.047301285 -4.105698e-10
-0.001205148 0.0011927455 0.0031131569 -0.010110226 0.0043715113 -4.404552e-06 -2.8148001e-08 -0.0090717925
0.0013236966 -5.5327198e-30 -0.02555669 -0.0013056857 -0.02436277 -5.523813e-11 -0.00019200493 -2.614238e-07
0.0036926887 1.6947374e-32 0.011574665 -1.1944135e-06 -0.00018407787 -0.00029029849 -2.7318965e-09 -0.056679524
-0.016064316 -0.043176804 -0.0019838584 -7.142374e-09 -0.0012129083 -0.055918306 5.0666326e-35 -1.1035753e-11
-0.017465288 0.02489722 0.008989598 -0.003236081 -3.152939e-31 -0.008170195 -0.005268615 0.0039804913
-3.4208627e-17 -6.6274933e-15 -1.5908972e-05 -4.074945e-12 0.0016154414 -3.1415344e-24 -1.6481197e-05 -2.0772217e-05
-7.8693745e-09 1.716265e-32 -0.01215622 -8.4362483e-07 -0.020289643 -0.00017853278 -8.059547e-13 -0.055489905
0.0002569336 0.0021142624 0.019932715 0.0010031295 -0.0010621252 6.0780035e-06 0.004135843 -0.0052849767
-7.612247e-23 -5.9279987e-31 0.010331756 -0.023636702 0.016528944 -0.0152812125 -4.203298e-12 0.018091835
-9.338219e-08 -0.00011384605 -1.385752e-12 -2.713847e-13 -0.006679859 0.0065782657 -0.008880959 -2.5034686e-16
-8.5900755e-14 -9.735603e-07 -3.6883466e-07 -5.4424044e-23 2.4761199e-18 -0.0098562725 -0.019505078 -0.00081593293
-0.005183409 -4.0830406e-15 -1.9124411e-28 -8.7980865e-13 -0.04966135 -0.0024580404 -1.988384e-13 -9.840775e-18

fcs1_batch.weight f4 [400]
00000000: 008d 0bb8 bca5 6b3b 5aba 6b3b 33ee afba
00000010: 62e5 10b9 2934 18ba 7c7b 5e3d 5a2e f6b5
00000020: 491c 3d3d 89af c93d c5dc 53bb 34bf 1f2f
00000030: f995 552d a7e9 6cbb 4abb 903b d460 51b5
00000040: 48b3 6a30 a26a a235 f3c0 9b83 f01f 92bb
00000050: 02c3 9438 f2c0 e63d 3ff5 94a9 c29e c137
00000060: 4637 8c3c 6123 bc3d e9c9 473d 7468 4634
00000070: ba44 8a3e b0b7 273b dab5 223c 13ba f0b6
00000080: 0543 ac3d 4252 633a 4603 1a9c ab6a 1d3e
00000090: f813 fe9d 98e2 323d b06e 073e 8b54 d03d
000000a0: a73e 753d d7c2 c0bb 79be 4932 783e 2bbd
000000b0: 8a78 b43b 4f98 6537 b41a 203a db6d 07b9
000000c0: c745 bf38 27b3 c22e 045a 1aba 6684 4e39
000000d0: bb30 4ab9 c210 2f3b e227 a13d 2224 963d
000000e0: 31bc c8a7 6e1e 48a8 55f4 b839 cf1a 7031
000000f0: 541c b221 5b71 a33d 24e3 8804 0c0c d1ba
00000100: 4592 3730 f2ae 472b 0c0d 4a3d f9f2 f43d
00000110: 2237 4337 c97d a9ad 3cbf 393e cd9a 723a
00000120: 6f57 1b3a 8ef1 0d39 b48c 1bba 971e 8ea9
00000130: 09b3 023e fe9c 793b 56cb 37b9 d89d 433e
00000140: 5c7b af3d e815 a632 f4c6 18b9 a3b6 0f3e
00000150: defe a33d 6386 34b9 bc98 fca1 f3c4 5f3d
00000160: 8ebe 6139 695d 203c b28a 0db9 0ffa 7427
00000170: 1c40 a437 8b9f e93a a9d9 3c25 7293 0b39
00000180: 116a c82e a915 6516 d6c4 0f3a 9028 103a
00000190: 7b64 04b2 e8d5 ba3c 79fc a8ae 1ae9 1789
000001a0: e7d4 9f3d 6087 c73b 423a 8a3d 6a2f 09ba
000001b0: f478 cf34 dd31 46b5 6c15 4e26 d940 2735
000001c0: ba43 dc2d 58db 6316 caca 4d24 7790 ddb6
000001d0: 3410 db3b 2628 9aba 345a c638 32ad ed39
000001e0: 05af 16b2 c5d8 543d 3ec9 473c 754c c137
000001f0: fc6f 553a e3fb 6225 d95b b73d 1162 832f
00000200: ae24 383c e33b 8632 5a38 73bb b7fb 54b5
00000210: b841 c432 873f 8b3d eda5 b4b8 a4a6 4f3e
00000220: 8aca af3d 46e6 65a8 fabb 4c12 4e55 8c3d
00000230: 5d3e c73a e37e a9a4 90ff 883c 293b 9b39
00000240: e715 ae3d ec07 e23d 711c 1b3c 019a 843d
00000250: 6e6e 4bbb 0e4c 9121 6427 283c 4269 5639
00000260: 2659 59bc b2d9 6035 da28 38ba 530d 243e
00000270: a68f 00b1 0f68 a6ac 244b c03d f4df 5b00
00000280: 57d5 9bba d999 1c3e 2c2c f5b9 c21b 85bb
00000290: d5c9 05bc 3dc0 8832 ad26 e8b7 c105 47bb
000002a0: 4081 673c 6f6d bc00 69a7 543d 4644 abb9
000002b0: 7bd9 c43c cf95 31af 8701 8739 b2f9 21b7
000002c0: 968d ac3c e0f5 5d8b 60c0 95bb 6016 ccb7
000002d0: efa5 423a fd94 92b8 8d9d 931d 8eff ae3d
000002e0: 248f 9c3d 15f9 863c 677a 9d3b a618 1e35
000002f0: d064 56b9 d57f f43c 700f 5c07 9b42 3ab5
00000300: a2a2 473d 95d7 e23d 5a8f 223e 139b 533a
00000310: 3b47 cd00 66ad 123d f544 49bb 9c42 44bb
00000320: 7bf0 6000 52db 4926 6731 7937 853c 742d
00000330: dead 2ebb eb75 9b97 4c5a 6438 d1e3 7fb8
00000340: 38a7 f632 c2bd 010c 5995 343d 2763 1937
00000350: 49c7 cb3d 5665 7b35 d5a0 282d acb1 2c3d
00000360: b111 bf38 b629 3b3e 6bed 913d 4ca8 2e3b
00000370: f20f 983a 2c53 3438 9458 b3ba 4486 a2ba
00000380: 3f83 81ad b101 9126 efcb eb3d 1e6f 923d
00000390: edb6 123d ae6a 933d 8575 d600 f4c9 333e
000003a0: bca3 b833 4d19 182a 378a 7eb3 4069 a8b1
000003b0: 35f6 eeb8 faf7 733d ebee fcbb 5f24 2b33
000003c0: 8ccf 3e2b 9ec2 19b6 4577 7235 9cb4 0f9a
000003d0: 5f00 c9a2 8eaa d43d 94a6 d13d f3f8 c63d
000003e0: bc0b 443d 31f7 ab28 547c d88e dcc3 6200
000003f0: 09d7 953d d512 643a 2e29 ee28 2992 f932
-3.32715e-05 0.003595694 0.0035969228 -0.0013422429 -0.00013818362 -0.00058061123 0.054316983 -1.8341918e-06
0.046169553 0.09847934 -0.0032327634 1.4528895e-10 1.2140949e-11 -0.003615001 0.004416858 -7.799947e-07
8.538348e-10 1.2100975e-06 -9.15438e-37 -0.0044593737 7.093513e-05 0.1126727 -6.615064e-14 2.308132e-05
0.0171162 0.091864355 0.04877654 1.8478187e-07 0.2700556 0.0025591664 0.009931052 -7.1742193e-06
0.084112205 0.000867162 -5.0958557e-22 0.15372722 -6.7253887e-21 0.043673128 0.13225818 0.10172375
0.059874203 -0.0058826017 1.1743048e-08 -0.04180762 0.0055075334 1.3684926e-05 0.00061074947 -0.00012915528
9.120587e-05 8.8539225e-11 -0.0005888047 0.00019695013 -0.00019282375 0.002671287 0.07868935 0.073311105
-5.571519e-15 -1.1108829e-14 0.00035277256 3.4939835e-09 1.2069248e-18 0.07980605 3.2182042e-36 -0.0015949025
6.6782874e-10 7.094179e-13 0.04932885 0.11960406 1.1635742e-05 -1.9268935e-11 0.18139356 0.00092546345
0.00059258094 0.00013536794 -0.0005933747 -6.311373e-14 0.12763609 0.003808796 -0.00017527989 0.19103181
0.08568451 1.9334905e-08 -0.00014569965 0.14034514 0.080075964 -0.000172162 -1.7116613e-18 0.054631185
0.00021528659 0.009787896 -0.00013498476 3.399736e-15 1.9580177e-05 0.0017824037 1.6380147e-16 0.00013311
9.113788e-11 1.8505307e-25 0.0005484348 0.00054992083 -7.706258e-09 0.022807077 -7.6846036e-11 -1.8285568e-33
0.0780428 0.006089136 0.06749393 -0.00052332005 3.864476e-07 -7.383331e-07 7.149964e-16 6.2306714e-07
2.5041181e-11 1.8406127e-25 4.4624058e-17 -6.603131e-06 0.006685281 -0.0011761233 9.4581774e-05 0.00045333203
-8.770944e-09 0.05196454 0.012193976 2.3042996e-05 0.0008141992 1.9687718e-16 0.089530654 2.3898442e-10
0.011239214 1.5626886e-08 -0.0037112446 -7.934245e-07 2.2847289e-08 0.06799226 -8.613975e-05 0.20278412
0.08583553 -1.2761986e-14 6.460275e-28 0.06852208 0.0015201081 -7.350702e-17 0.016723424 0.00029607982
0.08500271 0.11036667 0.00946723 0.064746864 -0.0031041163 9.845714e-19 0.010263298 0.00020447842
-0.013265884 8.376329e-07 -0.00070251303 0.16020708 -1.8708106e-09 -4.7295566e-12 0.09389332 8.43737e-39
-0.0011889142 0.15293063 -0.00046762952 -0.004062147 -0.008165796 1.5919904e-08 -2.7674565e-05 -0.003036842
0.014129937 1.730433e-38 0.051917467 -0.0003266653 0.024029484 -1.6151279e-10 0.00025750345 -9.6544845e-06
0.021063607 -4.2748028e-32 -0.004570052 -2.4329114e-05 0.0007425239 -6.989574e-05 3.907348e-21 0.08544837
0.076444894 0.016476193 0.0048058513 5.8895455e-07 -0.00020446186 0.029846111 1.6555497e-34 -6.9387323e-07
0.048739083 0.11076275 0.15874997 0.0008072119 1.885183e-38 0.035809897 -0.0030711268 -0.002994693
8.902476e-39 7.003312e-16 1.4853059e-05 1.3883232e-11 -0.0026653926 -1.0046407e-24 5.444353e-05 -6.100891e-05
2.8714211e-08 9.994902e-32 0.04408774 9.142596e-06 0.0995012 9.365225e-07 9.585406e-12 0.04216163
9.110885e-05 0.1827763 0.07125362 0.0026650606 0.0011601432 4.2992804e-05 -0.0013683015 -0.0012399633
-1.4723887e-11 1.0061855e-15 0.115135066 0.071501 0.035818983 0.07198082 1.9694954e-38 0.17557508
8.597951e-08 1.350909e-13 -5.926469e-08 -4.901409e-09 -0.00011394584 0.05956266 -0.007718911 3.984712e-08
6.778959e-13 -2.2912059e-06 9.0325585e-07 -2.9717602e-23 -5.4481552e-18 0.10384093 0.102368504 0.09715452
0.047862753 1.9092016e-14 -5.3367835e-30 9.07014e-39 0.07316405 0.0008700316 2.6441167e-14 2.9053881e-08

fcs1_batch.bias f4 [400]
00000000: a0d2 21bb d659 ce39 5203 013b 7f98 9a3b
00000010: 5ede 643a 9698 1cba 84fb f93b d178 553b
00000020: 8f68 09bc 760d 7e3c a0e4 dd3a a944 b5b9
00000030: 4082 5d39 2ee3 d9b8 e0d5 213b 3a02 d839
00000040: 2036 81b9 f964 0ebb 8788 0d39 8aa5 d9b9
00000050: 21d1 a039 eee8 5d3c 3d0c a338 ffc5 4bba
00000060: b612 86bb dfd6 91bb 7607 8b3c 21f9 f9ba
00000070: 0d1a 533d 858c 3339 f1f4 1d3a 5bff 74b8
00000080: a30b c1bb dfed 37bb df63 043a d8bc 2d3d
00000090: 3f0c 903b b4f3 d73b 5819 20bd 59ea bf3c
000000a0: 0b08 8d3b 38da 693b 31bd 7939 8d85 14ba
000000b0: cf9c 7e39 2fb4 7ab9 c0ad 113b 2733 39bb
000000c0: 6dbb b5b9 8ae5 4bbb 3fb0 1c39 4aa1 41ba
000000d0: 982b 493a b29c 4cbc 58ec 11bc 2eee 2f3b
000000e0: c04a 97b9 86c8 2c3a e08c 3239 b154 81ba
000000f0: 9828 8d39 92c3 5b3c dea9 cab9 2807 0e3b
00000100: d80a b2b9 38b9 01b9 d255 6b3c df77 1e3d
00000110: c62f 73bb 5dd4 d6b8 a868 f23c e820 ec38
00000120: 4970 91ba bc3d a0bb d7ca 9238 29de 4d3b
00000130: 5896 8e3c 88d4 0c3a 5411 9eba 95ba 153b
00000140: 07a6 8ebc 0e5e 2839 be47 7738 52ad 14bd
00000150: 2de9 133b b914 33bb e333 b83a 757e 943b
00000160: 1387 e13a d735 46bb 1da0 a739 5ffb b339
00000170: ab8d c63a c046 883a 0c5f b839 3a22 aeb9
00000180: 2f9d a7b8 21bc 1d3b 9d7a c7ba 9bf6 863b
00000190: 75bc b739 1cb4 723b 6d04 59b8 fcea 9739
000001a0: 12ef 20bc 79b5 96bb 8b57 853c 77a1 8ab9
000001b0: 405b 4a3a 8938 cc3a 2471 dd3a b693 ae39
000001c0: a2c8 b5b9 863c e339 db55 2ebb 3c3e 3f37
000001d0: ed7a 673b a180 bf39 52f2 293b fd70 2f3a
000001e0: b4e8 e03a 037a 5f3c 06ea 543b 321b 3e3b
000001f0: bb29 ed38 4b65 80b9 5b2f 353c 7cb4 71ba
00000200: fa0a 12bb f30b 7a3a b9b6 e83a 32e1 043b
00000210: c257 9eba 26b2 4d3c 3595 7abb a3ee 0c3d
00000220: 7ac6 2d3c 582d a639 4c59 ddb9 0aa8 be3c
00000230: 8694 a83a 450b b0b9 3ae6 c1bb 8557 5139
00000240: 244a 0b3d 5f4d 67bc 179f fab8 0117 903c
00000250: b579 cf3b c8f8 bf39 e8b9 db3a 1cfd 063b
00000260: baf3 443c 99b8 c9ba db56 8739 d6c9 0cbc
00000270: 6483 b2ba 876f 38b9 b018 9f3c 4e04 433b
00000280: 3df4 83b9 2974 cdbc 160b b139 0f16 5abb
00000290: 2804 2fbb d89a 0d3b 1253 a0ba 3d12 dcbb
000002a0: 50dc 9abb ae77 3738 b415 32bc cdec a23a
000002b0: 21d1 54bb 3870 d83a a00e b738 6812 3f39
000002c0: 6edc 253c cae7 1e3b 754b d839 dd20 a0b9
000002d0: f54f 87b9 e63e ccb9 fb0c 3dba a5a3 863c
000002e0: 5338 af3c c5a3 153b 5cc8 2f3a 01e3 e839
000002f0: 15b2 88b9 b3ba 763a 5c06 9238 f97d 5f3b
00000300: 0cad 0b38 305f 0abb 82db 2abd 4089 4338
00000310: 776f 8738 f5cc 38bb 7dc0 58bb c739 d43b
00000320: e740 7e3a 66e8 97b9 9ade f6b7 9558 e2b9
00000330: 77f7 c2b8 eb1a edb9 f652 8a3b b69d c339
00000340: 1f87 2938 9760 0137 9217 3a3c 4c7b 7cb8
00000350: a6f2 053d 3658 c339 2fe1 fbb9 66f7 2339
00000360: 340e 8db8 6836 0d3d de02 6d3c 07e4 e13a
00000370: a566 c43a 6230 2cb9 5ef4 f6b9 7e60 14ba
00000380: 5072 1f3b 5a26 d0ba 3711 5fbb 7bf7 1b3c
00000390: de68 903b 29c7 933c 10e7 b4ba 4e02 273d
000003a0: 8755 7b3a 2ad0 b539 48a9 aa39 50e3 b3b9
000003b0: 891d 91ba 4f22 03bb b8f1 2cb9 68f8 a9bb
000003c0: e72d 16bb 6db9 3a3a 3c94 b139 9107 00ba
000003d0: 8d91 21ba 64e5 d13c d207 e83c a9b9 ccbc
000003e0: a4db c83a b386 7cb9 66a0 bd39 5eda b5b9
000003f0: 2acc 9c3c edfc 3939 0c1d 26b9 dda4 fbb9
-0.0024692193 0.00039358315 0.0019685817 0.004717886 0.0008730645 -0.0005973665 0.00762886 0.0032573233
-0.008386745 0.015506139 0.0016929097 -0.00034574166 0.00021124724 -0.00010389682 0.002469413 0.0004120039
-0.00024645124 -0.0021727665 0.00013497668 -0.00041512802 0.0003067339 0.013544304 7.774725e-05 -0.0007773339
-0.004091586 -0.0044506635 0.016971331 -0.0019071439 0.051538516 0.00017123118 0.0006025574 -5.841195e-05
-0.00589128 -0.0028065366 0.00050502823 0.042416424 0.004395991 0.006590331 -0.03908667 0.023427175
0.0043039373 0.0035683047 0.0002381697 -0.00056656526 0.00024281743 -0.00023908982 0.0022228807 -0.002825925
-0.00034662653 -0.0031112158 0.00014942976 -0.00073863997 0.00076740375 -0.012488531 -0.008906446 0.0026844847
-0.00028856657 0.00065911596 0.00017027883 -0.0009867159 0.0002692386 0.013413327 -0.00038655003 0.0021671746
-0.00033958885 -0.00012371398 0.014363723 0.038688537 -0.0037107333 -0.00010243871 0.02959092 0.00011259486
-0.0011096086 -0.004890172 6.9996044e-05 0.0031412935 0.017405674 0.0005372246 -0.0012059608 0.0022846807
-0.017413152 0.00016056767 5.8956204e-05 -0.036298104 0.0022569404 -0.0027325584 0.0014053549 0.0045316764
0.0017206393 -0.0030244493 0.00031972016 0.00034328827 0.0015148422 0.0010397062 0.0003516603 -0.00033213367
-7.992458e-05 0.0024068432 -0.0015219037 0.004118753 0.0003504489 0.0037033623 -5.1740953e-05 0.0002897604
-0.009822624 -0.00459927 0.016277095 -0.00026441712 0.0007719286 0.0015580814 0.001689468 0.0003329792
-0.00034672493 0.00043341907 -0.0026601467 1.1398977e-05 0.0035321072 0.00036526195 0.0025931788 0.0006692557
0.0017159195 0.01363993 0.0032488122 0.002900791 0.000113088136 -0.00024489532 0.011058654 -0.00092203147
-0.0022284375 0.0009538524 0.0017754651 0.0020275828 -0.0012080597 0.012554681 -0.0038235907 0.03440727
0.0106064025 0.0003169577 -0.00042218936 0.023273487 0.0012861646 -0.00033577732 -0.0059173377 0.00019964397
0.034006253 -0.014117568 -0.00011950562 0.017589094 0.0063316473 0.00036615715 0.0016763778 0.0020597642
0.012021 -0.0015390097 0.0002581392 -0.008593043 -0.001361948 -0.00017589155 0.019420952 0.0029757204
-0.0002516824 -0.025079804 0.0003376833 -0.0033277308 -0.0026705358 0.0021607187 -0.0012231788 -0.0067160414
-0.0047259703 4.374206e-05 -0.010869432 0.0012430191 -0.0032473283 0.0016512936 8.728844e-05 0.00018222036
0.010123355 0.0024247044 0.0004125495 -0.00030542063 -0.0002580878 -0.00038956775 -0.0007211712 0.016435454
0.021389162 0.002283321 0.0006705576 0.0004441962 -0.00026072623 0.00094119756 6.963007e-05 0.0034102185
3.3301345e-05 -0.0021113865 -0.041713245 4.6619447e-05 6.4580636e-05 -0.0028198336 -0.0033073716 0.006476614
0.0009699002 -0.00028974115 -2.9429142e-05 -0.00043172078 -9.296735e-05 -0.00045224218 0.0042213155 0.00037310802
4.041858e-05 7.711488e-06 0.011358159 -6.019631e-05 0.03270211 0.0003725902 -0.00048042226 0.00015637054
-6.7260495e-05 0.034475714 0.014466016 0.0017234095 0.0014984204 -0.00016421222 -0.00047102844 -0.00056601304
0.002432961 -0.001588057 -0.003403736 0.009519453 0.0044070324 0.018039303 -0.0013801772 0.040773682
0.00095876347 0.00034678105 0.0003255105 -0.00034310902 -0.0011071424 -0.0020009463 -0.00016493245 -0.005187083
-0.0022915544 0.00071229675 0.00033870514 -0.000488394 -0.00061633514 0.025622077 0.028324042 -0.024990873
0.0015324247 -0.00024082772 0.00036168395 -0.00034685706 0.019140322 0.00017737197 -0.00015841814 -0.00047997283

fcs1_batch.running_mean f4 [400]
00000000: 0400 0000 0400 0000 7032 443b dfe7 463b
00000010: 2aaa 093a 0400 0000 4090 a93a 0400 0000
00000020: 31a1 1d3d a834 843c 1bcf 843b 0400 0000
00000030: f77d aa2d 0400 0000 26d6 3b3a 0400 0000
00000040: d57c d430 0400 0000 f219 d601 5483 5835
00000050: f153 a329 24bf 103c f6c9 ce29 0400 0000
00000060: 46ce 713b 6267 993b 1bef 463c 0400 0000
00000070: 1269 413c 0400 0000 0400 0000 0400 0000
00000080: 1235 173b 3bcb 553a 4e4a 9419 7bbe de3c
00000090: 9536 661a e1cd e13b cf6f c13c 3da2 103c
000000a0: 6923 0e3a e04f 823b 0400 0000 cae1 6b38
000000b0: 7c06 4537 1be1 be3a 6fa9 533b 9ac0 e034
000000c0: 76ab f03a 5342 be2b 6010 223a 0610 903a
000000d0: 3778 6839 598e 113c ffc0 fb3c 7ec4 9e3c
000000e0: cd88 3720 e289 0925 8538 b238 44fe bf2f
000000f0: 0400 0000 d580 633b 0400 0000 3e77 1339
00000100: 0400 0000 0400 0000 f0ea 553b 1731 633c
00000110: 8239 9539 6d8b 232d 1666 d93c 0400 0000
00000120: 9700 283a 0400 0000 8c3d cc39 d66b 1800
00000130: 2c34 9e3c 69cf c63b d81d 7839 7423 3d3c
00000140: e8c9 3238 0400 0000 0400 0000 514c 913c
00000150: 4924 9b3b 0400 0000 4245 7307 bbe3 bb3a
00000160: 6a6e 6d3a c850 8a3c 6a61 a636 d665 3325
00000170: 8a4f 8038 8857 5c3b 0400 0000 1e41 f338
00000180: 0400 0000 0400 0000 46af 1d3b 0400 0000
00000190: 0400 0000 0785 8939 0400 0000 7e8a 9508
000001a0: 579f 4539 06c8 ec3b aa3d 743c 61c7 e33a
000001b0: 0400 0000 0400 0000 76d7 9122 ae3d 0400
000001c0: 0400 0000 21f0 4d0f f2ad fb22 fa95 1734
000001d0: 82f8 083b 3db2 d419 0400 0000 eb2f 8639
000001e0: e71f 111b 49f7 873b 0400 0000 8c70 a515
000001f0: c7b6 fd35 0400 0000 9677 e23b 0400 0000
00000200: e943 1238 0400 0000 fe68 322a 0400 0000
00000210: 0400 0000 4a71 743c 1e00 3329 b907 933c
00000220: ebcb 933a add4 4526 0400 0000 163a 403b
00000230: 8e8a 633a 18a0 e021 9209 4f3c 48ea d738
00000240: b3ec 703b 578e b23c 90a7 f43a b71a 163c
00000250: 693b 5c3c 4612 2220 1aff ec03 0400 0000
00000260: 6a7c 023c 0400 0000 5084 d53b 2894 8e3d
00000270: 0400 0000 0400 0000 f94d e23a 0400 0000
00000280: f542 a33a 6a90 b13c 40ae 533b d73d 4a3b
00000290: e322 793b 0400 0000 0400 0000 6625 923a
000002a0: e873 2e3c 0400 0000 880d dc3b c5f1 7137
000002b0: f35b 023b 7ef6 a626 79ca b037 ac95 b72c
000002c0: 50c2 1b3c 66a2 5d0a bfb4 5e3c 0400 0000
000002d0: 717a 8627 0400 0000 0400 0000 3a89 543b
000002e0: d085 503c 2aaf 9921 f0ae 693b 0400 0000
000002f0: 2ab7 9d32 0400 0000 b764 b606 0400 0000
00000300: e92c a33b b576 093d 7a00 db3c 0400 0000
00000310: 0400 0000 f467 e23b 0400 0000 ed4d cb3b
00000320: 0400 0000 0400 0000 0400 0000 0400 0000
00000330: 888f a63b 0e54 de11 0400 0000 f68e 1238
00000340: 0400 0000 d976 d40a 319c 2b3c 0400 0000
00000350: d1bf 273c 0400 0000 0400 0000 0400 0000
00000360: 063d b239 bc85 e53c 182e f53c 3d5d a23b
00000370: 6334 2539 8a5f a537 892f b43b 998b 093b
00000380: 0400 0000 0400 0000 cf97 c63c cebb 0b3c
00000390: 5a55 be3c f947 3f3c 0400 0000 2ea4 0e3d
000003a0: 0400 0000 0400 0000 0400 0000 0400 0000
000003b0: 5093 7738 7605 9f3c 3786 3a3b 0400 0000
000003c0: f659 821c 0400 0000 76ab 1535 2e90 ed04
000003d0: 247d df21 c05a 853c 607a 513c 8c05 aa3c
000003e0: 0ebd 323c 40b1 181e 781d 690d 0400 0000
000003f0: 7564 9d3b 0400 0000 d9fd c329 0400 0000
6e-45 6e-45 0.002993729 0.0030350608 0.00052514917 6e-45 0.0012936667 6e-45
0.038483802 0.01613839 0.004053009 6e-45 1.9382702e-11 6e-45 0.00071653945 6e-45
1.546051e-09 6e-45 7.8648414e-38 8.065738e-07 7.2532156e-14 0.008834634 9.1832724e-14 6e-45
0.003689663 0.0046815136 0.012141968 6e-45 0.011804836 6e-45 6e-45 6e-45
0.0023072404 0.0008155589 1.5332853e-23 0.027190438 4.7606976e-23 0.0068909978 0.023612885 0.008827743
0.00054221466 0.003976807 6e-45 5.623865e-05 1.1743625e-05 0.0014562936 0.0032297035 4.1863387e-07
0.0018361646 1.3518721e-12 0.00061822496 0.0010991103 0.00022170028 0.008884036 0.030731676 0.019380804
1.5545967e-19 1.1929572e-16 8.498229e-05 3.4923364e-10 6e-45 0.003471424 6e-45 0.00014063434
6e-45 6e-45 0.0032641254 0.013866684 0.0002846234 9.296436e-12 0.026537936 6e-45
0.00064087793 6e-45 0.00038955768 2.242736e-39 0.019311987 0.0060672057 0.0002366224 0.011544097
4.2626547e-05 6e-45 6e-45 0.017736586 0.00473455 6e-45 1.8301641e-34 0.0014334837
0.00090572855 0.016884223 4.958526e-06 1.5560278e-16 6.118331e-05 0.0033621509 6e-45 0.00011599272
6e-45 6e-45 0.002406077 6e-45 6e-45 0.0002622979 6e-45 9.000171e-34
0.00018846743 0.007225993 0.01490728 0.0017378145 6e-45 6e-45 3.9530457e-18 3.89468e-40
6e-45 1.01535275e-29 6.821786e-18 1.4117532e-07 0.0020900075 2.1992276e-23 6e-45 0.00025594173
1.2004427e-22 0.0041493517 6e-45 6.682054e-26 1.8903164e-06 6e-45 0.0069112284 6e-45
3.487236e-05 6e-45 1.5846002e-13 6e-45 6e-45 0.014919588 3.9746086e-14 0.017948018
0.0011275982 6.8636334e-16 6e-45 0.0029331497 0.0008680009 1.5221207e-18 0.012636559 0.00010295637
0.0036762177 0.021796389 0.001866566 0.009161643 0.013441899 1.372798e-19 1.3929402e-36 6e-45
0.007964233 6e-45 0.006516017 0.06961852 6e-45 6e-45 0.0017265669 6e-45
0.0012455868 0.021675307 0.0032299906 0.0030859613 0.003801518 6e-45 6e-45 0.0011150062
0.010647751 6e-45 0.0067154802 1.4421011e-05 0.0019891232 1.1585376e-15 2.1075119e-05 5.2177897e-12
0.009506777 1.0671307e-32 0.013592898 6e-45 3.7325223e-15 6e-45 6e-45 0.0032430426
0.012727216 1.0414049e-18 0.003565725 6e-45 1.8360499e-08 6e-45 6.860878e-35 6e-45
0.004979719 0.033560473 0.026733626 6e-45 6e-45 0.006909365 6e-45 0.006204358
6e-45 6e-45 6e-45 6e-45 0.005083028 3.5077227e-28 6e-45 3.4942255e-05
6e-45 2.0459563e-32 0.010474251 6e-45 0.010238604 6e-45 6e-45 6e-45
0.00033996272 0.028017871 0.029929206 0.0049549625 0.00015755142 1.9714022e-05 0.0054988307 0.0020987748
6e-45 6e-45 0.02424231 0.008528663 0.023234058 0.011674874 6e-45 0.034824543
6e-45 6e-45 6e-45 6e-45 5.9026584e-05 0.019411784 0.0028461346 6e-45
8.625933e-22 6e-45 5.5756334e-07 5.585084e-36 1.5144192e-18 0.016278625 0.012785524 0.020754598
0.010909332 8.0834674e-21 7.183414e-31 6e-45 0.004803235 6e-45 8.703775e-14 6e-45

fcs1_batch.running_var f4 [400]
00000000: 0400 0000 0400 0000 5f01 7938 8c59 f837
00000010: f7de e335 0400 0000 603e 3638 0400 0000
00000020: 0fb5 6f3a bd4d 363a 8d66 1b38 0400 0000
00000030: c36a bc1b 0400 0000 4115 e736 0400 0000
00000040: 890a e921 0400 0000 0400 0000 3497 1b30
00000050: e0fb 4a23 b12a 653a d62f 2514 0400 0000
00000060: 3e43 eb38 a5bb 2a39 d95d 8039 0400 0000
00000070: 9b45 003a 0400 0000 0400 0000 0400 0000
00000080: 88ce ba38 1373 ee36 0400 0000 5746 4e3a
00000090: 0d01 0000 a04c 5539 f588 a23a 0541 c839
000000a0: 47fa 2737 0da0 b638 0400 0000 2f30 d634
000000b0: aaae 6a32 44a5 1536 ac91 4737 b3be 662f
000000c0: 2cf6 1e37 0aed ec1a cb20 ae36 7eac cf36
000000d0: c571 ba32 50b0 3a39 1402 573a 2832 213a
000000e0: 38c0 6a09 4f3c 940d 36f3 4933 65b1 b620
000000f0: 0400 0000 7e0a 2a39 0400 0000 94bf a934
00000100: 0400 0000 0400 0000 edeb c038 66a0 1d3a
00000110: f4a2 a335 61ad 191b cb05 d33a 0400 0000
00000120: afda 4935 0400 0000 1da9 8935 0400 0000
00000130: 5211 9c3a 9219 0e39 4201 8f33 2e7d 293a
00000140: 9796 8735 0400 0000 0400 0000 1f6a 403a
00000150: d1a7 0e39 0400 0000 0400 0000 67bd 8738
00000160: 3fa5 cd34 471c 5239 33b5 aa2f 6b23 ab0e
00000170: 91b0 6031 c39b 8737 0400 0000 1553 2b33
00000180: 0400 0000 0400 0000 e903 5037 0400 0000
00000190: 0400 0000 9624 4e36 0400 0000 0400 0000
000001a0: d2fd f435 a18a 9338 2f11 223a 5953 7236
000001b0: 0400 0000 0400 0000 0e6a 3b09 0400 0000
000001c0: 0400 0000 0400 0000 ac5d ff07 9c02 912b
000001d0: 31fc 2738 75c4 ab13 0400 0000 16f9 5f34
000001e0: 9fb0 9f0b 7e34 2339 0400 0000 7a3d 2d10
000001f0: 46e9 2a31 0400 0000 d2f3 a539 0400 0000
00000200: 0749 1a34 0400 0000 bd49 b624 0400 0000
00000210: 0400 0000 2be1 1d3a 019f 3720 c04d 7d3a
00000220: 6a9d 1738 9bc8 0910 0400 0000 f860 5d38
00000230: 575c 4f36 7319 3807 cc1a 7039 2c4a 5433
00000240: 1373 c738 80d9 443a d97c 1138 bcba 7339
00000250: dbf9 7d39 5ce4 1501 39a4 6600 0400 0000
00000260: 3d23 0a39 0400 0000 82be b337 d118 2b3b
00000270: 0400 0000 0400 0000 b361 3e38 0400 0000
00000280: 4e99 9336 b9f7 713a 5aa4 4636 e208 1138
00000290: 0f30 d937 0400 0000 0400 0000 ea3c 4e37
000002a0: 783d 8039 0400 0000 54cb 6439 3050 e731
000002b0: 95b2 3638 c590 a617 e4ff 4531 4700 9420
000002c0: ef9c 4f39 0400 0000 50a9 0c39 0400 0000
000002d0: ccb4 9a1e 0400 0000 0400 0000 737e 0d39
000002e0: e794 0b3a 4221 731d ff22 4b38 0400 0000
000002f0: 82b9 3b2b 0400 0000 0400 0000 0400 0000
00000300: 21e7 0039 f52d 933a 7d63 d93a 0400 0000
00000310: 0400 0000 6459 6939 0400 0000 1ffc 4838
00000320: 0400 0000 0400 0000 0400 0000 0400 0000
00000330: 62ce 3938 0400 0000 0400 0000 1fb9 6131
00000340: 0400 0000 0400 0000 1cfe 9239 0400 0000
00000350: 9136 d539 0400 0000 0400 0000 0400 0000
00000360: 6e8e a133 39b0 9d3a 0141 373a 3744 0a38
00000370: 9156 0234 dcd3 3930 b03a c237 d36a 9d37
00000380: 0400 0000 0400 0000 fcdf be3a 7c05 ed39
00000390: 6aa5 bf39 d53c 083a 0400 0000 1f81 923a
000003a0: 0400 0000 0400 0000 0400 0000 0400 0000
000003b0: 5df5 0534 64fa 1b3a 13d3 2c38 0400 0000
000003c0: b732 f108 0400 0000 bcf6 9f2b 0400 0000
000003d0: f429 4d04 f3ce 2a3a 3088 0a3a faea 8d3a
000003e0: ca3d 0c3a 5143 0505 0400 0000 0400 0000
000003f0: a07a 8d39 0400 0000 59be ec14 0400 0000
6e-45 6e-45 5.9367503e-05 2.9605602e-05 1.6977709e-06 6e-45 4.3450273e-05 6e-45
0.00091441063 0.0006954333 3.7050388e-05 6e-45 3.1170984e-22 6e-45 6.8868108e-06 6e-45
1.5791483e-18 6e-45 6e-45 5.6603544e-10 1.10037785e-17 0.0008742018 8.339805e-27 6e-45
0.00011218198 0.00016282366 0.00024483984 6e-45 0.00048931845 6e-45 6e-45 6e-45
8.9076406e-05 7.106349e-06 6e-45 0.0007868758 3.77e-43 0.00020341808 0.0012400436 0.00038195416
1.0012248e-05 8.708248e-05 6e-45 3.9895664e-07 1.3660307e-08 2.2298927e-06 1.1895241e-05 2.0986128e-10
9.47485e-06 9.799027e-23 5.1894217e-06 6.1891615e-06 2.1704986e-08 0.00017804024 0.0008201909 0.00061491365
2.8257106e-33 9.135723e-31 4.702016e-08 3.094939e-19 6e-45 0.00016216372 6e-45 3.1618094e-07
6e-45 6e-45 9.199218e-05 0.0006012976 1.2191872e-06 1.2711885e-22 0.0016099749 6e-45
7.519656e-07 6e-45 1.0256514e-06 6e-45 0.0011907017 0.00013551701 6.659185e-08 0.00064654916
1.0102111e-06 6e-45 6e-45 0.0007340032 0.00013604692 6e-45 6e-45 6.4725806e-05
3.8304458e-07 0.00020037695 3.105157e-10 4.218886e-30 3.2696656e-09 1.6165786e-05 6e-45 3.9889603e-08
6e-45 6e-45 1.23986765e-05 6e-45 6e-45 3.0717688e-06 6e-45 6e-45
1.8253288e-06 7.035328e-05 0.000618237 3.6109325e-06 6e-45 6e-45 2.2559173e-33 6e-45
6e-45 6e-45 3.842319e-34 1.0303594e-12 4.0050774e-05 4.336019e-27 6e-45 2.085911e-07
6.151032e-32 0.00015564446 6e-45 3.4165594e-29 2.4870856e-09 6e-45 0.00031652913 6e-45
1.4368935e-07 6e-45 7.9054836e-17 6e-45 6e-45 0.00060226273 1.5553313e-19 0.000966277
3.614781e-05 2.7173027e-29 6e-45 5.2780815e-05 3.0899153e-06 1.38501e-34 0.00022898166 4.9427555e-08
9.510494e-05 0.00075092167 3.4686967e-05 0.0002324385 0.00024221039 2.7530818e-38 9.426133e-39 6e-45
0.00013173833 6e-45 2.1427175e-05 0.002610732 6e-45 6e-45 4.539052e-05 6e-45
4.3987884e-06 0.0009230334 2.9599964e-06 3.4578967e-05 2.5890795e-05 6e-45 6e-45 1.22927395e-05
0.0002445986 6e-45 0.0002181952 6.732101e-09 4.35585e-05 1.0764044e-24 2.881273e-09 2.507236e-19
0.0001979952 6e-45 0.00013414514 6e-45 1.638016e-20 6e-45 6e-45 0.00013493914
0.00053246174 3.2177976e-21 4.8431564e-05 6e-45 6.669319e-13 6e-45 6e-45 6e-45
0.00012293133 0.0011228906 0.0016585436 6e-45 6e-45 0.00022253912 6e-45 4.7918522e-05
6e-45 6e-45 6e-45 6e-45 4.4299646e-05 6e-45 6e-45 3.2847038e-09
6e-45 6e-45 0.00028036616 6e-45 0.0004066718 6e-45 6e-45 6e-45
7.5230545e-08 0.0012030668 0.00069905823 3.2965294e-05 1.2138686e-07 6.760368e-10 2.315393e-05 1.8765602e-05
6e-45 6e-45 0.0014562602 0.0004520825 0.00036553602 0.0005197053 6e-45 0.0011177397
6e-45 6e-45 6e-45 6e-45 1.2475853e-07 0.0005950092 4.1204574e-05 6e-45
1.4516583e-33 6e-45 1.1366112e-12 6e-45 2.4116898e-36 0.0006515823 0.0005284576 0.0010827475
0.00053497835 6.265994e-36 6e-45 6e-45 0.00026984978 6e-45 2.3904989e-26 6e-45

fc2.weight f4 [300, 404]
00000000: 2427 4600 5b65 9e00 c49c 1680 f214 a380
00000010: a6ed 3b00 d33a 9400 789d 2800 eb0f 5780
00000020: 1707 2580 38fc ec00 089a 4980 26c0 1200
00000030: 1b14 0b80 9ef3 4e80 54b9 3c80 c9f9 0080
00000040: 727f 0e80 f476 3601 1d75 0f80 70be 9a80
00000050: e017 f980 53e3 6800 a395 0980 b582 1800
00000060: e546 1980 74e1 3800 ce98 4b80 f456 6c01
00000070: 0164 2100 a20b c080 b6aa 5380 9d09 e400
00000080: f1a1 d580 4b87 3380 9d72 3080 207e d900
00000090: f894 6080 35d2 6180 0380 9080 8120 ff80
000000a0: 9424 c200 ca67 e980 7a18 9a80 0cf3 e880
000000b0: a05f 2480 9452 8101 2466 ef00 69fe 6f80
000000c0: df70 6c80 f1ca 7d80 aed7 6900 2154 3380
000000d0: f431 b600 8484 4a00 f61e 1b00 a9c0 1400
000000e0: c8ef 3580 6a3c 6600 dcde e280 d81b 7300
000000f0: 70fd 3080 6af7 9200 f563 9200 57a2 0980
00000100: 38db a801 8adc 6d00 7f18 1e80 af9c b980
00000110: 3cab 3c80 8a63 de80 7058 5000 deef 9680
00000120: d22f 2d80 2132 2b80 b8dd 4e80 083b 6180
00000130: be0f 3b00 b51f cf00 8013 0100 d62b 0a00
00000140: 62c5 c400 9ef7 2f80 f6b7 7d00 ca11 0380
00000150: 691a 9980 a6ec 4601 5bf1 c800 a92b 0800
00000160: a0ec 0700 8e90 d480 b9c3 a180 ae04 1280
00000170: 0991 5a00 e93e d980 1a2a e380 1e12 4280
00000180: 023a 2b00 b1f5 1100 5927 2380 10cb c880
00000190: e420 c980 b32e 3e00 20cc a000 49fe 9880
000001a0: 282f 9000 61ab 5100 b91a b700 4998 cb00
000001b0: 86b0 4880 b6c8 4500 f5e6 0b00 3088 7880
000001c0: a043 5980 88b7 6980 ee79 6700 b9bb 8001
000001d0: 55d3 f600 d6a1 6301 3d9f 8e00 397c 3f80
000001e0: 8445 7581 444b c100 96af 4600 5846 4d80
000001f0: 2a90 8181 81f4 6480 5527 1080 f09b 1300
00000200: e866 6e80 a607 9f80 0d8e 0000 dbeb 9080
00000210: 43a1 aa80 cf03 5b00 3027 f380 6d0b 3300
00000220: 45d9 9080 c08a 6d00 800d 0780 d3f0 2980
00000230: 7439 2400 8897 ad80 3e71 6280 cec9 0c00
00000240: 5b08 8380 bf47 7680 c5f4 2180 6d62 0680
00000250: 60eb 6280 337a 9080 204c 0d80 fbb9 0280
00000260: 6dba 3b80 24b0 3080 88ff 1580 223c 4580
00000270: 1c8d 8600 f846 7180 312a 5180 ffb1 6700
00000280: 3a9a c300 9aab f800 517f a000 edd6 3480
00000290: d03c 5100 b86b 0b00 a03f 3500 b484 c280
000002a0: 1e55 6700 9dd3 af00 1b1d 2e00 c27b ed00
000002b0: 4033 b080 4800 4300 fa80 cd80 02e3 a980
000002c0: af50 2100 a064 8700 4ecc c680 9544 2900
000002d0: 106f cc00 d498 9300 4ef6 d780 7a8b 2400
000002e0: 265e d600 d2c1 5100 3a0d 3a00 104d 3501
000002f0: 79f7 6300 2012 c880 0f13 9a80 d80f 5d80
00000300: 1041 1600 ded2 f200 f79a 2d00 4762 6f80
00000310: 82ab ab00 da47 ae00 f25b fc80 3b74 ee80
00000320: 3f1e 2d80 7ecb cf80 7a05 0980 f58b bd00
00000330: 2498 5100 25ec 0e00 7abf 7f00 2e69 a180
00000340: 16bb 6780 0a33 de00 8125 2080 0822 0c81
00000350: 7fb0 3180 94d4 d380 5077 5b00 57bd 8000
00000360: d49b 8700 c7c4 e480 c546 3d00 fdf2 9880
00000370: bb1a 8500 13d3 5180 4e21 df00 c8fc d680
00000380: 78f8 7280 e4b9 8600 5ae1 b480 f6b2 4d00
00000390: 8ae3 3500 e3b7 ea80 ce59 3780 8f96 0380
000003a0: 0820 9e00 8320 cc80 5090 3b00 5a46 2680
000003b0: 388f 5480 c4a8 7200 3c09 6080 fe06 4500
000003c0: 0a93 8180 ecb2 8400 a023 7100 0218 8b80
000003d0: 0a86 0500 752d 8f80 2c81 7b00 05a5 4680
000003e0: e046 0100 37a2 1e00 97b5 cd00 9bfe 0b80
000003f0: b59e b580 1bd8 8580 6dad 8600 88a0 b900
6.442526e-39 1.4546368e-38 -2.076618e-39 -1.49767e-38 5.503546e-39 1.3612756e-38 3.729909e-39 -7.995398e-39
-3.400457e-39 2.1763656e-38 -6.759247e-39 1.721969e-39 -1.017403e-39 -7.250562e-39 -5.576613e-39 -8.9606e-41
-1.331416e-39 3.3513465e-38 -1.419545e-39 -1.4210983e-38 -2.2875603e-38 9.63244e-39 -8.80199e-40 2.250941e-39
-2.32132e-39 5.223665e-39 -6.942478e-39 4.340874e-38 3.066446e-39 -1.7636588e-38 -7.683586e-39 2.0941942e-38
-1.9619054e-38 -4.732144e-39 -4.44922e-39 1.9973548e-38 -8.869648e-39 -8.983451e-39 -1.3270233e-38 -2.3429712e-38
1.7829208e-38 -2.1434903e-38 -1.4151447e-38 -2.1393024e-38 -3.340382e-39 4.750561e-38 2.1985325e-38 -1.0285005e-38
-9.958724e-39 -1.1552239e-38 9.720098e-39 -4.71379e-39 1.673198e-38 6.843364e-39 2.490665e-39 1.905823e-39
-4.953299e-39 9.388893e-39 -2.0834769e-38 1.057107e-38 -4.49902e-39 1.3496738e-38 1.344384e-38 -8.84756e-40
6.2028017e-38 1.0089184e-38 -2.763852e-39 -1.7045774e-38 -5.571557e-39 -2.0423188e-38 7.378565e-39 -1.3861373e-38
-4.149752e-39 -3.966909e-39 -7.242706e-39 -8.92922e-39 5.423942e-39 1.9021322e-38 9.8831e-41 9.3408e-40
1.8070565e-38 -4.405097e-39 1.154543e-38 -2.81888e-40 -1.4060305e-38 3.6536643e-38 1.8453681e-38 7.50346e-40
7.27734e-40 -1.9520982e-38 -1.4855727e-38 -1.654718e-39 8.317223e-39 -1.995087e-38 -2.0861761e-38 -6.067642e-39
3.969736e-39 1.649341e-39 -3.228358e-39 -1.8439944e-38 -1.8470734e-38 5.710553e-39 1.4766906e-38 -1.4050216e-38
1.3241228e-38 7.500154e-39 1.6815482e-38 1.8697235e-38 -6.67548e-39 6.408651e-39 1.093042e-39 -1.1069114e-38
-8.197618e-39 -9.708566e-39 9.502796e-39 4.7289143e-38 2.2667344e-38 4.1809427e-38 1.3097764e-38 -5.830199e-39
-4.5049268e-38 1.7751251e-38 6.491473e-39 -7.096568e-39 -4.759398e-38 -9.271261e-39 -1.483478e-39 1.800814e-39
-1.013882e-38 -1.4604588e-38 5.0958e-41 -1.330892e-38 -1.5669884e-38 8.358396e-39 -2.2330083e-38 4.687709e-39
-1.3302253e-38 1.0059843e-38 -6.47691e-40 -3.851647e-39 3.326688e-39 -1.59419e-38 -9.040502e-39 1.17442e-39
-1.2033447e-38 -1.0862326e-38 -3.118378e-39 -5.86321e-40 -9.084315e-39 -1.3268148e-38 -1.22117e-39 -2.50388e-40
-5.485171e-39 -4.471291e-39 -2.020213e-39 -6.358221e-39 1.2356577e-38 -1.040287e-38 -7.45381e-39 9.522909e-39
1.7963248e-38 2.2836762e-38 1.4739352e-38 -4.852547e-39 7.46049e-39 1.048833e-39 4.890106e-39 -1.7863691e-38
9.48959e-39 1.6147124e-38 4.234874e-39 2.1809409e-38 -1.6181432e-38 6.153079e-39 -1.8872545e-38 -1.5601634e-38
3.059515e-39 1.243389e-38 -1.8256719e-38 3.789858e-39 1.8774283e-38 1.3554642e-38 -1.9832989e-38 3.356113e-39
1.968657e-38 7.508205e-39 5.331204e-39 3.329974e-38 9.18049e-39 -1.8373601e-38 -1.4149503e-38 -8.546385e-39
2.043721e-39 2.2299835e-38 4.188188e-39 -1.0228995e-38 1.5765395e-38 1.6005152e-38 -2.3175529e-38 -2.1898544e-38
-4.143448e-39 -1.9082947e-38 -8.28484e-40 1.7407116e-38 7.493253e-39 1.37041e-39 1.1731797e-38 -1.4823246e-38
-9.52617e-39 2.040579e-38 -2.95219e-39 -2.5738355e-38 -4.563254e-39 -1.9453548e-38 8.399831e-39 1.1822866e-38
1.2453693e-38 -2.1009084e-38 5.627353e-39 -1.4046163e-38 1.222371e-38 -7.514394e-39 2.0491263e-38 -1.9743477e-38
-1.055838e-38 1.2372641e-38 -1.661123e-38 7.135532e-39 4.948907e-39 -2.1555472e-38 -5.083168e-39 -3.29517e-40
1.4521499e-38 -1.8746104e-38 5.470064e-39 -3.514986e-39 -7.765559e-39 1.0529788e-38 -8.81952e-39 6.339158e-39
-1.1899527e-38 1.218647e-38 1.0390191e-38 -1.2773746e-38 5.07262e-40 -1.3148783e-38 1.1342104e-38 -6.487683e-39
1.1726e-40 2.813257e-39 1.8891419e-38 -1.101526e-39 -1.6679158e-38 -1.2291645e-38 1.236817e-38 1.7047155e-38
