ContinuousControl/checkpoint_critic_target.pth (torch_old, 556095 bytes, 17 tensors)

fcs0_batch.weight f4 [33]
0	0x3e94a814	0.29034483
1	0x3eede7e0	0.4646597
2	0x3ce9d47b	0.028543701
3	0x3e235417	0.15950046
4	0x3e86e625	0.2634746
5	0x3f081c8d	0.53168565
6	0x3eb03dcd	0.3442215
7	0x3efc577f	0.49285504
8	0x3e9f179d	0.31072703
9	0x3ebb3d11	0.36570027
10	0x3e64d59c	0.2234711
11	0x3e8ca15a	0.2746685
12	0x3d1b36e7	0.037894156
13	0x3e07ea47	0.13272963
14	0x3e3941a7	0.1809145
15	0x3ece44ce	0.4028687
16	0x3eecf6c2	0.4628201
17	0x3ef6ebd0	0.48226786
18	0x3dd6b017	0.10482805
19	0x3e4d84d1	0.20070197
20	0x3ea5276c	0.3225664
21	0x3ec717c2	0.38885313
22	0x3e82ca42	0.25544935
23	0x3f08adf6	0.53390443
24	0x3ea439a9	0.3207524
25	0x3e9c32a7	0.30507395
26	0x3f10efe3	0.5661604
27	0x3825a3b5	3.949153e-05
28	0x3e5593ad	0.20857115
29	0x3a944ec7	0.0011314981
30	0x3a40c0cc	0.0007352948
31	0x3cadb613	0.021204984
32	0x3d8bc752	0.06825127

fcs0_batch.bias f4 [33]
0	0x3c0d3894	0.008619446
1	0xbb496759	-0.0030731766
2	0x3a904cb9	0.0011009193
3	0xbb2762b0	-0.0025541
4	0xba8b7673	-0.0010640159
5	0xbcb2708a	-0.021782178
6	0xbb20a313	-0.0024511262
7	0x3b6175b0	0.0034402423
8	0x3ba3f704	0.005003812
9	0x3c3be091	0.011467115
10	0x3b468c1a	0.003029591
11	0x3bf8a731	0.00758829
12	0xbc1d3848	-0.009595938
13	0xbaf515e4	-0.001869854
14	0x3a8a59d1	0.0010555332
15	0xbbbe84ff	-0.005814194
16	0x3b531e15	0.0032213975
17	0x3986fe9e	0.00025748176
18	0xbb7203f6	-0.003692863
19	0x3bcadba1	0.0061907326
20	0xbb9429a8	-0.0045215674
21	0x3c0c9c43	0.008582178
22	0xbb46311a	-0.003024167
23	0x3bda3e7b	0.0066602803
24	0x3a681569	0.0008853288
25	0xbc22e4c5	-0.009942238
26	0xbc222c38	-0.009898238
27	0xb809bd7f	-3.2839827e-05
28	0xbbaf97b4	-0.0053586606
29	0x3a547e49	0.0008105976
30	0x3766d898	1.3759498e-05
31	0xba3264ee	-0.0006805201
32	0x3b2f66a7	0.0026764066

fcs0_batch.running_mean f4 [33]
0	0x3fa4342d	1.2828423
1	0xbf3a388e	-0.72742546
2	0xbf7bf3b3	-0.9841873
3	0xbc3820a8	-0.011238255
4	0x3c488ac8	0.012240119
5	0x3d7104e4	0.058842555
6	0x3d26372a	0.040579952
7	0x3f0a1f14	0.5395367
8	0xbd6dd6cd	-0.058066178
9	0x3eb10c97	0.34579918
10	0x3e266df1	0.16252877
11	0xbda2bdd6	-0.079463646
12	0x3dd876e3	0.10569551
13	0x403906b2	2.8910336
14	0xbfe0ab00	-1.7552185
15	0xbfec7a2d	-1.8474785
16	0x3c2f0674	0.010682691
17	0x3d36c257	0.04461893
18	0x3d7529bd	0.059854258
19	0xbda3a14d	-0.0798975
20	0x3f2daa1e	0.67837703
21	0xbe32bbaf	-0.17454408
22	0x3f9c2720	1.219944
23	0x3e8aec2d	0.27133313
24	0x3ec19f9d	0.37817088
25	0x3f0044c6	0.5010494
26	0xbe088061	-0.13330223
27	0xbf7ffffc	-0.99999976
28	0xbf403dee	-0.750945
29	0x00000000	0.0
30	0x3f7ffffc	0.99999976
31	0x00000000	0.0
32	0xbeb92b3a	-0.36165792

fcs0_batch.running_var f4 [33]
0	0x40a7ead7	5.247417
1	0x4079a5e8	3.900751
2	0x407d2a3a	3.9557023
3	0x3e7765bc	0.24159902
4	0x3e564be8	0.20927393
5	0x3eb2e15e	0.34937567
6	0x3e3827dd	0.17983957
7	0x4098cbe2	4.774888
8	0x3ec460a6	0.38354987
9	0x3f20a879	0.6275707
10	0x412d1ef2	10.820055
11	0x4196e7cb	18.86318
12	0x413428f7	11.260001
13	0x418a946e	17.322475
14	0x41765e18	15.397972
15	0x417f5042	15.957094
16	0x3e95d5b2	0.292646
17	0x3e4a927d	0.19782443
18	0x3e8ee9ce	0.27912754
19	0x3e5bba82	0.21457866
20	0x40df85cb	6.985082
21	0x407017f5	3.7514622
22	0x40a0c5bc	5.0241375
23	0x421b7b58	38.870453
24	0x4267aff5	57.921833
25	0x422bf8ca	42.992958
26	0x41fdf13a	31.742786
27	0x00000004	6e-45
28	0x41fe79b8	31.809433
29	0x00000004	6e-45
30	0x00000004	6e-45
31	0x00000004	6e-45
32	0x3ac80861	0.0015261286

fcs1.weight f4 [400, 33]
0	0xb8a86244	-8.029168e-05
1	0xb8d73b04	-0.000102629914
2	0xb8331264	-4.2694053e-05
3	0x38755a6e	5.849677e-05
4	0x38c97a38	9.607192e-05
5	0x38f601b1	0.00011730509
6	0xb8723b71	-5.7752655e-05
7	0xb8b2a3fc	-8.518246e-05
8	0x38b05e21	8.409867e-05
9	0xb93a663e	-0.0001777643
10	0x38daa52b	0.00010425815
11	0xb8347559	-4.3024633e-05
12	0x3867fc76	5.5309814e-05
13	0x37dffdac	2.6701797e-05
14	0xb7060afc	-7.98958e-06
15	0x384152ca	4.609189e-05
16	0xb8059bf8	-3.185493e-05
17	0x38f513f3	0.00011686226
18	0x37cf1033	2.4683866e-05
19	0xb884e871	-6.337546e-05
20	0xb864e5be	-5.45734e-05
21	0xb958f4f1	-0.00020690613
22	0xb8f1dc93	-0.00011532861
23	0xb92240fc	-0.00015473732
24	0xb8f068f6	-0.00011463642
25	0x38b72d02	8.734503e-05
26	0xb90dc651	-0.00013520686
27	0x379ec6d0	1.8927647e-05
28	0xb6eda81b	-7.0827205e-06
29	0x380e8216	3.397659e-05
30	0xb833bfec	-4.2855667e-05
31	0x37cd5511	2.4477516e-05
32	0xb81e8b63	-3.779995e-05
33	0xba7f118a	-0.00097300916
34	0xbafc4f77	-0.0019249757
35	0x38c6b5c7	9.4752344e-05
36	0xb9372299	-0.00017465129
37	0x3a60b2fb	0.0008571592
38	0xba6840d9	-0.0008859761
39	0x3a925276	0.0011163491
40	0x3b19699e	0.00234089
41	0xb7afa1d2	-2.093698e-05
42	0xbb2aa2ab	-0.00260369
43	0x398fa1d6	0.00027395663
44	0xbaae0f43	-0.0013279695
45	0xb881a2c5	-6.1815175e-05
46	0xb9bf0eda	-0.00036441424
47	0xba01ab1c	-0.0004946457
48	0x3aa0826d	0.0012245901
49	0x3aa34feb	0.001245973
50	0xb8d6d3b1	-0.00010243746
51	0xb95e88db	-0.00021222552
52	0x39d78f5f	0.00041114815
53	0xbb69650f	-0.0035613214
54	0xbb5edf1e	-0.00340075
55	0x3a79cf5d	0.0009529496
56	0x3b4daba3	0.003138282
57	0x39ff5462	0.0004870026
58	0x3aa24d2d	0.0012382619
59	0x3b12255f	0.0022300107
60	0xb82f28a0	-4.1761086e-05
61	0x3991ab36	0.00027784117
62	0x3812705c	3.4913755e-05
63	0xb61ac1b7	-2.3060545e-06
64	0xb808d445	-3.2622618e-05
65	0x3887739e	6.458837e-05
66	0xb82b01c9	-4.077124e-05
67	0xb96c71b1	-0.00022549067
68	0x385a8898	5.2102463e-05
69	0xb866bcff	-5.501229e-05
70	0x38a9dd62	8.099784e-05
71	0xb9e3c818	-0.00043445895
72	0x39add66a	0.00033156882
73	0x3a0d6d3a	0.0005394999
74	0xb9f94992	-0.00047547795
75	0xb804af91	-3.163476e-05
76	0x3628b3bf	2.5138577e-06
77	0x388b3b9a	6.639138e-05
78	0xb7d797d8	-2.5700705e-05
79	0xb7211359	-9.6008525e-06
80	0xb5066bf9	-5.007601e-07
81	0xb9970ec0	-0.00028811954
82	0x3a012ed5	0.0004927938
83	0x3837cd3c	4.382174e-05
84	0x3905a2b7	0.00012744484
85	0x37775e5a	1.4744315e-05
86	0x39b0314d	0.00033606068
87	0x38fd8e39	0.00012090471
88	0x395c735c	0.0002102381
89	0xba8dbec8	-0.0010814304
90	0x395fd709	0.00021347044
91	0xb9ff755f	-0.00048724838
92	0xba28773d	-0.00064264593
93	0x3816eb17	3.598173e-05
94	0xb812997c	-3.4952056e-05
95	0xb73ac49e	-1.1132242e-05
96	0x3861ba26	5.3817545e-05
97	0x37877fe6	1.6152811e-05
98	0xb7b05b89	-2.102346e-05
99	0xbaa049df	-0.0012229047
100	0xb69fb2a9	-4.759368e-06
101	0xb84f700a	-4.945699e-05
102	0x3919bc75	0.00014661423
103	0x3a80924c	0.0009809225
104	0x38ac31c2	8.210867e-05
105	0xb9506d49	-0.00019877138
106	0x3bfbb215	0.007681141
107	0x3a9efefe	0.0012130437
108	0x3b16ad45	0.002299146
109	0xba79dc0c	-0.0009531386
110	0x390cef51	0.00013440593
111	0x3886463c	6.4027e-05
112	0xb8dccd39	-0.00010528643
113	0xb99f521c	-0.0003038802
114	0x3a83b760	0.0010049157
115	0x3abe9451	0.0014540051
116	0x3aa25e20	0.001238767
117	0x3959cfe2	0.00020772175
118	0xb90e03d5	-0.00013543603
119	0xbaba7190	-0.0014224518
120	0x3a7041f1	0.00091650995
121	0x3a9ec8b3	0.0012114256
122	0xba442524	-0.0007482341
123	0x38c81788	9.541126e-05
124	0xbafb6d11	-0.0019182285
125	0xbab6fa46	-0.0013960085
126	0xb5c89a74	-1.4946113e-06
127	0x38a75608	7.979205e-05
128	0xb71f9d98	-9.513831e-06
129	0x38525393	5.0145736e-05
130	0xb6c58b49	-5.8872724e-06
131	0x361542cb	2.2241609e-06
132	0x3c2a13f1	0.010380731
133	0x3c592402	0.013253214
134	0x399ef072	0.00030315254
135	0xbc385735	-0.0112512605
136	0x3c289290	0.0102888495
137	0x39d7e49f	0.00041178332
138	0xbc9310cb	-0.017952343
139	0xbc9d005b	-0.019165209
140	0x3cb550ac	0.022133194
141	0x3c8fb5ae	0.017542686
142	0x3ba3da26	0.0050003706
143	0x3c603d6a	0.013686517
144	0x39b0d2d4	0.00033726415
145	0x3b6aaf91	0.0035810212
146	0x3b8b93c3	0.004259558
147	0xbc641cc6	-0.013922876
148	0xbbbbd45d	-0.005732103
149	0x3c01af83	0.00791538
150	0x39146c51	0.00014154731
151	0xbbdbe4ba	-0.006710616
152	0xbb375b14	-0.002797787
153	0xbc4e6e40	-0.012599528
154	0xb74a681c	-1.2064378e-05
155	0x3c3b0945	0.011415784
156	0x39ecf60c	0.00045196747
157	0x3b7af4d6	0.0038292906
158	0xbc4a1cd0	-0.012335971
159	0xb6c9a309	-6.0092466e-06
160	0x39ab9ff8	0.00032734848
161	0x383b151c	4.4603934e-05
162	0x365678b0	3.1958734e-06
163	0x365bb3f8	3.2738299e-06
164	0xbac02805	-0.0014660364
165	0x3bb31a8a	0.00546581
166	0xbb26351b	-0.0025361243
167	0x3927e274	0.00016010721
168	0x3873978f	5.8076865e-05
169	0x3b264c5a	0.00253751
170	0x3ac8687b	0.0015289927
171	0xbbdef3f6	-0.0068039848
172	0x3b96b489	0.004599158
173	0x3a9c5626	0.001192753
174	0x3a83e061	0.0010061377
175	0xbb876b2e	-0.00413265
176	0xbb9a5aec	-0.0047105458
177	0x39305eed	0.0001682003
178	0xba474db2	-0.0007602825
179	0x3a20e1ab	0.0006137143
180	0x3bcea772	0.006306582
181	0xbbdac6fc	-0.006676553
182	0xbbeb0afd	-0.0071729408
183	0x3a2d558b	0.0006612173
184	0x3b07b1d6	0.0020705364
185	0x3b27e9e2	0.0025621583
186	0xbbe7bfcf	-0.007072426
187	0x3a4845bd	0.00076397863
188	0xbb1c4579	-0.002384512
189	0xbbfc55e9	-0.007700671
190	0x3b686d2c	0.0035465462
191	0x3c049fe9	0.008094766
192	0xb80013c5	-3.053599e-05
193	0xbb1e7e07	-0.0024184005
194	0xb7ca0e86	-2.408704e-05
195	0x38073144	3.223239e-05
196	0x38240ed3	3.9114453e-05
197	0xb94e709e	-0.00019687644
198	0xbaf6c241	-0.0018826203
199	0xbb95cf2b	-0.0045718155
200	0xb8f53014	-0.000116914656
201	0xb9a4f8a3	-0.00031465766
202	0x3a971a99	0.0011528312
203	0xbaab8787	-0.0013086655
204	0x3aa3065a	0.0012437806
205	0x3a578c9a	0.00082225504
206	0x3b39046c	0.0028231395
207	0x3ae31a2b	0.0017326524
208	0x3a315f63	0.0006766228
209	0xb8f72266	-0.00011784285
210	0x36ba7db0	5.557864e-06
211	0xba371285	-0.00069836556
212	0xba49221d	-0.0007672625
213	0x3ab7c0f5	0.0014019298
214	0x3b829832	0.0039854283
215	0x3b606f9c	0.0034246212
216	0x39491e75	0.000191802
217	0xb9020362	-0.00012399026
218	0xbad4fd42	-0.0016249793
219	0xbbb873e8	-0.0056290515
220	0xb98b4532	-0.000265637
221	0x3b5d671d	0.0033783384
222	0x3b07c511	0.0020716826
223	0x3b10de04	0.0022104988
224	0x3bcc09e6	0.006226766
225	0xb70eff8b	-8.523358e-06
226	0xb9b6b00e	-0.00034844916
227	0xb8709795	-5.736163e-05
228	0xb850eb08	-4.9809954e-05
229	0x37afe326	2.09674e-05
230	0xb92980e9	-0.00016165119
231	0xbbae802f	-0.0053253393
232	0xbbd407a6	-0.0064706383
233	0xb98a37bd	-0.0002636294
234	0x3a71a7b8	0.00092184125
235	0x3b628dd9	0.003456941
236	0xbacdbc3a	-0.0015696355
237	0x3b24c4eb	0.0025141786
238	0xbc33c392	-0.010971921
239	0xbacc5c99	-0.0015591561
240	0x3b449c9f	0.003000058
241	0xbb08da57	-0.0020882094
242	0xbb467ab3	-0.0030285537
243	0x3817e56f	3.6214882e-05
244	0xb8a73f2b	-7.9749465e-05
245	0xba8c9c3b	-0.0010727713
246	0xbbbcf2ce	-0.0057662493
247	0xbbc2f01c	-0.0059490334
248	0xba6be194	-0.00089981523
249	0x39849b66	0.00025292783
250	0x3a943e27	0.0011310027
251	0x39dae1a3	0.00041748313
252	0xbb898891	-0.004197188
253	0xbb226a73	-0.0024782687
254	0xbc1859bf	-0.009298741
255	0xba1c4a21	-0.0005961974

fcs1.bias f4 [400]
0	0xb9b8cc3d	-0.00035247384
1	0x3a17e160	0.00057937764
2	0xb9f474d6	-0.00046626356
3	0xbc5d63b8	-0.013512544
4	0x39b4ed4b	0.00034509072
5	0x3b58492e	0.0033002603
6	0xb9555218	-0.00020343845
7	0x3ac8aceb	0.0015310323
8	0x3cc13a47	0.02358736
9	0x3c903e82	0.017607931
10	0x3905cff7	0.00012761341
11	0xbbb0885c	-0.005387349
12	0x3a440379	0.0007477324
13	0x3b87664a	0.004132067
14	0x3a92d44f	0.0011202189
15	0x3a656b28	0.0008751624
16	0xbc0d28a8	-0.00861565
17	0xb9b9dcc2	-0.00035450427
18	0x39b82837	0.00035125177
19	0x3ad422ac	0.001618465
20	0x394381d7	0.00018645018
21	0xbd2fbcee	-0.042904787
22	0x3a35d9da	0.00069370645
23	0x3aa15597	0.0012308833
24	0xbd71b2a6	-0.059008263
25	0xbc45339c	-0.01203623
26	0x3c8a5e60	0.016890705
27	0xbbeed88c	-0.007288998
28	0xbc8efa18	-0.017453238
29	0x3bd86457	0.0066037583
30	0xbc4323fe	-0.011910437
31	0xbbc2dbde	-0.0059466204
32	0xbca7ddcf	-0.020491509
33	0x3a4dac83	0.00078458356
34	0xbd8a53b2	-0.06754245
35	0x3c25d1ad	0.010120791
36	0x3c60a71d	0.013711718
37	0x3cefa640	0.029254079
38	0xbbf80c55	-0.0075698295
39	0x3c36e83d	0.011163768
40	0xbc4fdec3	-0.012687388
41	0x3c4b0c4f	0.012393071
42	0x3b676010	0.003530506
43	0xba8838c5	-0.0010392895
44	0xbc2e6229	-0.01064352
45	0x3950215d	0.00019848855
46	0xbc186655	-0.009301742
47	0xbcb9d265	-0.022683332
48	0xbba267f5	-0.0049562403
49	0xbcb9d8fa	-0.02268647
50	0xbaa49662	-0.0012557025
51	0xb9839272	-0.00025095377
52	0x39710460	0.00022985181
53	0x3a389025	0.0007040522
54	0x3d8c87cc	0.06861839
55	0x3d39442a	0.045231022
56	0xb9b22794	-0.00033980294
57	0xbd18bf00	-0.037291527
58	0xbcf3e173	-0.029770589
59	0x39c4c294	0.00037529005
60	0xbbf9b131	-0.00762
61	0xbd04085e	-0.032234542
62	0xbd39f756	-0.045401894
63	0x3a56ea6f	0.00081983855
64	0x3984ee41	0.00025354515
65	0x388c027c	6.676183e-05
66	0x3c48a41d	0.012246159
67	0xbd4a13fe	-0.049335472
68	0x3d042830	0.03226489
69	0xbc6c60bb	-0.014427359
70	0x3d0912b4	0.033465102
71	0x38ab98b6	8.18236e-05
72	0x3cf1cbfa	0.029516209
73	0x3bbe6674	0.005810553
74	0xbaaf67f0	-0.0013382416
75	0xbabfa933	-0.0014622569
76	0xbcf5d648	-0.030009404
77	0x3a04a7e2	0.0005060417
78	0xb90e572c	-0.0001357465
79	0xbcce2129	-0.025162296
80	0xbd5dfae8	-0.05419436
81	0x3c9ddb34	0.019269563
82	0x3a346dc5	0.0006882812
83	0x3c936680	0.017993212
84	0x3c129f80	0.008949161
85	0xbb157b1b	-0.0022808972
86	0xbd85963d	-0.06522796
87	0xbdc31584	-0.09525588
88	0xbbddb6b2	-0.0067661637
89	0xbd3a9650	-0.045553505
90	0x3ab65a5e	0.001391243
91	0xbdac0419	-0.08399219
92	0x3c9a7fa5	0.018859694
93	0x3ca4118d	0.0200279
94	0x39f41e3e	0.0004656184
95	0x3cded28e	0.02720001
96	0x3cd0b48f	0.025476722
97	0xbdc0188c	-0.09379682
98	0x3ca4dc9a	0.020124722
99	0x39abe47d	0.000327859
100	0x39da4bdf	0.0004163673
101	0xbce0f729	-0.027461605
102	0x39a220cc	0.00030923483
103	0xbc99bbc3	-0.01876629
104	0xbab6bde3	-0.0013942089
105	0x3c9494ae	0.018137302
106	0x3ac8da2f	0.0015323813
107	0x3a8e2cb8	0.0010847067
108	0xbaa38683	-0.0012476001
109	0xbd7dfbce	-0.062007718
110	0xbce7ad29	-0.028280811
111	0xb98ec936	-0.00027234264
112	0x389ec7b5	7.5712254e-05
113	0xbc130c48	-0.008975096
114	0xbb61c651	-0.0034450481
115	0xbc5453ab	-0.012959401
116	0xbd3b69a4	-0.045755044
117	0xba6a2492	-0.0008931841
118	0x3b77d2ec	0.0037814928
119	0x3cbd893c	0.023136728
120	0xbc9dbb0e	-0.019254234
121	0xbd37740d	-0.04478841
122	0xbc4bd5e8	-0.012441136
123	0x39fec3bd	0.00048592492
124	0xb7f0854d	-2.8672303e-05
125	0xb9fa5b99	-0.0004775196
126	0xbcc3efa1	-0.023917975
127	0xbd980cb0	-0.07424295
128	0x39ac80b9	0.00032902302
129	0x39d8c683	0.00041346633
130	0x3b834c79	0.004006919
131	0x3abc4daa	0.0014366407
132	0xbd8b94e5	-0.06815509
133	0x3b8bf5a5	0.0042712265
134	0x3a817af4	0.0009878562
135	0xbce124cb	-0.027483365
136	0x3ca20467	0.01977749
137	0x38d0fc6b	9.9652294e-05
138	0xbda2df3e	-0.07952736
139	0x3b8ac626	0.004235047
140	0xbb41d3f8	-0.0029575806
141	0xbd5ec035	-0.05438252
142	0x3d0aaed5	0.03385814
143	0xbce116b6	-0.02747665
144	0xbd20e768	-0.039283186
145	0x3d670c5f	0.056408282
146	0x3c912edd	0.017722541
147	0x3cb7d6bb	0.022441259
148	0x39781673	0.00023659486
149	0xbd638ebb	-0.05555604
150	0x3b63c3f3	0.0034754246
151	0xbba6f040	-0.005094558
152	0xbd9b60e8	-0.07586843
153	0xbc3406d5	-0.010987957
154	0xb9fb6ece	-0.00047957007
155	0x3d8a7005	0.06759647
156	0x39a2eb81	0.00031074512
157	0x38a0c21e	7.665552e-05
158	0xbd98f108	-0.07467848
159	0xbda13a0f	-0.07872402
160	0x3b922fc7	0.004461262
161	0x3c83655b	0.016039541
162	0x3b0ac956	0.0021177134
163	0xbc9ee1d5	-0.019394794
164	0xbd4d94e5	-0.050190825
165	0x3b6fa4f1	0.0036566819
166	0xb8c27307	-9.2720664e-05
167	0xb8b50149	-8.630992e-05
168	0xbcbfe48b	-0.023424407
169	0xbd176015	-0.036956865
170	0xbd79d601	-0.060995106
171	0xbc99b8b2	-0.018764827
172	0x39b6c49d	0.00034860233
173	0x3841434c	4.607746e-05
174	0xbc9c5e3d	-0.019087905
175	0x378922a8	1.634781e-05
176	0x3c3f5ae4	0.011679385
177	0xb9a0b768	-0.00030654226
178	0x3c04d82f	0.008108183
179	0x39537553	0.00020166235
180	0xb9505339	-0.00019867429
181	0x3c61afaf	0.013774796
182	0xbcf18f96	-0.029487412
183	0xbd8f3bdd	-0.0699384
184	0xbcef028e	-0.029176023
185	0xbc220bf9	-0.00989055
186	0x3c25ad8e	0.010112179
187	0xbac59071	-0.0015072954
188	0xbbd29811	-0.006426819
189	0xbd6db865	-0.05803718
190	0xbd0f7aa9	-0.035029087
191	0x3b71162f	0.0036786904
192	0x3c295e5e	0.01033744
193	0x3d3f81aa	0.046754517
194	0x3cba4e88	0.022742525
195	0x3aea95f4	0.0017897473
196	0xbd3b23f8	-0.0456886
197	0x3ccd0569	0.025026994
198	0x3ba1f030	0.0049419627
199	0x3b04dc74	0.0020273002
200	0xbdabd652	-0.08390488
201	0xbce3b8b7	-0.02779804
202	0x3a4aa083	0.00077296066
203	0xbce4c8b4	-0.027927734
204	0xbbcf49d2	-0.0063259387
205	0xbc698c34	-0.014254618
206	0xb92e1f3c	-0.00016605569
207	0x3ced232a	0.028947432
208	0xbb43cdcc	-0.0029877303
209	0x3b170ba4	0.002304771
210	0x3abd4a00	0.0014441609
211	0xb9dd4bb4	-0.00042208808
212	0xbcc374f3	-0.023859477
213	0xbc06aa25	-0.008219277
214	0x397615eb	0.00023468553
215	0xbd1b602d	-0.037933517
216	0xbdb78aa8	-0.089619935
217	0x3cc7fe82	0.024413351
218	0x3d0f0ac1	0.034922365
219	0xbcc21a2f	-0.023694126
220	0xbd2d53cc	-0.042316243
221	0x3a8b667c	0.0010635401
222	0x3a91a7c0	0.0011112615
223	0xba9f5cb5	-0.0012158366
224	0x3756dcb1	1.2806778e-05
225	0xba0db2b2	-0.0005405351
226	0x3cc7fe2f	0.024413196
227	0x3cc8067a	0.02441715
228	0x3c362614	0.011117477
229	0xbcd24d8f	-0.025671748
230	0xbd8a7cd8	-0.06762093
231	0x3d06585c	0.03279911
232	0x3aa840f9	0.0012836746
233	0xbbc65a6d	-0.00605326
234	0x39f87845	0.00047391854
235	0x39520be6	0.00020031593
236	0xbdb4cf79	-0.08828635
237	0xbc97d9b9	-0.018536435
238	0xbc414512	-0.011796253
239	0xbbbcb789	-0.005759184
240	0xb884a567	-6.325059e-05
241	0x37887025	1.6264685e-05
242	0x3a5e80f6	0.00084878446
243	0x3c88c033	0.01669321
244	0xbbb63bcc	-0.0055613276
245	0xbd26182d	-0.0405504
246	0xbd2c6959	-0.042092655
247	0x3cb63fe7	0.022247268
248	0xbc0dc25a	-0.008652294
249	0x3c6ed3a2	0.014576824
250	0xbd5bffba	-0.053710677
251	0xbdc2323a	-0.09482236
252	0xbd447e60	-0.047972083
253	0x3c1a584f	0.0094204685
254	0x399d86a1	0.0003004568
255	0xb997d5e4	-0.00028960325

fcs1_batch.weight f4 [400]
0	0x395cb2bd	0.0002104742
1	0x3b7a527a	0.0038196133
2	0x39fc84f2	0.00048164238
3	0x3ae18650	0.0017206166
4	0x3d29f786	0.041495822
5	0x3c76d257	0.015064797
6	0x3c13267b	0.008981342
7	0x3c5b54c3	0.013386908
8	0x3e56a9a0	0.20963144
9	0x3dcbca37	0.09950679
10	0x393500c2	0.00017261787
11	0x3d484571	0.04889435
12	0x3b13c061	0.0022545087
13	0x3c251c0d	0.010077489
14	0x3b8ce30b	0.0042995266
15	0x3b102f5a	0.002200088
16	0x3af2e15f	0.0018530301
17	0xb827513a	-3.989155e-05
18	0x3b9fa839	0.0048723486
19	0x3bc69383	0.0060600652
20	0x39249605	0.00015696145
21	0x3e50efb1	0.20403935
22	0x3b54c4d1	0.0032465945
23	0x3bd89fcc	0.006610846
24	0x3d123114	0.035691336
25	0x3e620d66	0.22075424
26	0x3d8eb92a	0.06968911
27	0x39f007a5	0.00045782063
28	0x3e88758e	0.26652187
29	0x3c7e8fe3	0.015537235
30	0x3dd6b191	0.10483087
31	0x3b16d1e8	0.0023013297
32	0x3e157eff	0.14599226
33	0x3ad9f604	0.0016629105
34	0x3c914d26	0.017736983
35	0x3e25d998	0.16196287
36	0x3d4df782	0.05028487
37	0x3e16325b	0.14667647
38	0x3e490184	0.19629484
39	0x3d04e313	0.032443117
40	0x3d95fc4f	0.07323515
41	0x3d4d79f5	0.050165135
42	0x3c1ae338	0.009453587
43	0x3973128e	0.00023181198
44	0x3dabcc43	0.08388569
45	0x38e0321a	0.000106904845
46	0x3da65925	0.08122472
47	0x3d1b6f89	0.037948165
48	0x3da8f0fb	0.082490884
49	0x3d161000	0.036636353
50	0x3b05ed19	0.002043551
51	0x3ba222f9	0.0049480167
52	0x39764b55	0.00023488452
53	0x3b917c29	0.00443985
54	0x3e6df563	0.23238139
55	0x3e3cf094	0.18451148
56	0x3912b070	0.00013989373
57	0x3bc61d95	0.006046007
58	0x3d7f593d	0.062340964
59	0x3b1af8d9	0.002364686
60	0x3d6974c1	0.05699611
61	0x3c1a9d3e	0.0094369035
62	0x3bf707b4	0.00753876
63	0x3b5d2096	0.0033741347
64	0x39a411f7	0.00031293902
65	0x3ce68d8a	0.028143663
66	0x3dbb0f47	0.09133773
67	0x3de2fbe1	0.11083198
68	0x3e10518e	0.1409361
69	0x3b3b4183	0.0028572984
70	0x3e439b1e	0.19102141
71	0x3b942e12	0.0045220936
72	0x3dd37866	0.103256986
73	0x3cedf071	0.029045315
74	0x3af0bc9c	0.0018366757
75	0x3bef8c42	0.007310421
76	0x3e5fa661	0.21840812
77	0x3b8b7309	0.0042556566
78	0x37919a63	1.7357239e-05
79	0x3e665bc1	0.22495939
80	0x3ce11173	0.02747414
81	0x3e1e5478	0.1546191
82	0x3b49449d	0.0030711063
83	0x3e4f8795	0.20266564
84	0x3e1e5e20	0.15465593
85	0x39991db4	0.00029204565
86	0x3c10c40e	0.008835806
87	0x3dbae635	0.0912594
88	0x3a487d45	0.0007648061
89	0x3c58c050	0.013229445
90	0x3b9a8341	0.0047153537
91	0x3cfc430a	0.030793685
92	0x3ddba3ae	0.10724579
93	0x3df0255f	0.11725878
94	0x3c2acddb	0.010425056
95	0x3e74ee1c	0.23918957
96	0x3d953c6e	0.07286917
97	0x3d034230	0.032045543
98	0x3dd08775	0.101820864
99	0x3a234263	0.0006227849
100	0x3ac2e3d7	0.0014868927
101	0x3dacf957	0.08445995
102	0x3a23e283	0.00062517094
103	0x3d2c21d4	0.04202445
104	0x3defb26f	0.117039554
105	0x3e304341	0.17213155
106	0x3c05a8ff	0.008157968
107	0x3bbc5993	0.0057479828
108	0x3abdfafc	0.0014494355
109	0x3df2d693	0.11857333
110	0x3d76b891	0.06023461
111	0x3bdf6c12	0.006818303
112	0x39e7da4c	0.00044222397
113	0x3d25922d	0.040422607
114	0x3b99b7ac	0.004691085
115	0x3b7baf15	0.0038403918
116	0x3dbb2712	0.091383114
117	0x39a6106b	0.0003167422
118	0x3cc8b282	0.024499182
119	0x3dc7592e	0.097338066
120	0x3a5b822a	0.0008373583
121	0x3dbd7195	0.0925018
122	0x3ae8da09	0.0017765175
123	0x3a8f6014	0.0010938668
124	0x3aecea3b	0.0018075177
125	0x3af2b8d7	0.0018518221
126	0x3dcba1a6	0.09942941
127	0x3d77079a	0.060309984
128	0x3a7688f6	0.0009404564
129	0x3ab0605f	0.0013456455
130	0x3c321740	0.010869801
131	0x3c5cc898	0.01347556
132	0x3e0cead2	0.13761452
133	0x3e1fb2e6	0.15595588
134	0x3b594a37	0.0033155808
135	0x3e570628	0.20998442
136	0x3e0cceab	0.13750713
137	0x3a3e3195	0.0007255313
138	0x3c92b04b	0.017906329
139	0x3e62f057	0.22161995
140	0x3c8736de	0.016505655
141	0x3cd0ca4f	0.025487093
142	0x3e419815	0.18905671
143	0x3bca6521	0.0061766063
144	0x3dc14cad	0.09438453
145	0x3e68d8cc	0.22738951
146	0x3dbc54f0	0.09195888
147	0x3e14504f	0.1448376
148	0x3adebbc0	0.001699321
149	0x3c46c536	0.01213198
150	0x3c53ee22	0.012935193
151	0x3be34937	0.006936218
152	0x3df67325	0.12033681
153	0x3ac00456	0.001464973
154	0x3ab2bba1	0.001363624
155	0x3e6efd52	0.23338822
156	0x3a480093	0.000762948
157	0x397fa982	0.00024381842
158	0x3dcd3146	0.10019164
159	0x3e0ebcff	0.13939284
160	0x3d5cb823	0.053886544
161	0x3e4cc1a2	0.1999574
162	0x3da49153	0.08035531
163	0x3b7998e7	0.0038085522
164	0x3d4984d0	0.049198925
165	0x3ccd5758	0.025066063
166	0x39de2fb3	0.00042378678
167	0x39a55786	0.00031536462
168	0x3b29ae1c	0.002589113
169	0x3ce45b47	0.027875556
170	0x3dbd8f39	0.09255833
171	0x3ac3e029	0.0014944124
172	0x3a1cfc6a	0.00059885404
173	0x3994fe09	0.0002841803
174	0x3d175621	0.036947373
175	0x3b424fa0	0.002964951
176	0x3d8d2afc	0.06892964
177	0x3b0f8114	0.0021897005
178	0x3d2e1714	0.042502478
179	0x3b91a300	0.00444448
180	0x3868c7b9	5.5499117e-05
181	0x3d6b4981	0.057443146
182	0x3ca0771c	0.019588046
183	0x3d3385f9	0.04382894
184	0x3e0b52e8	0.13605845
185	0x3dca00e8	0.09863454
186	0x3d90bbd6	0.07067077
187	0x3ac4f1c3	0.0015025664
188	0x3caeab7f	0.02132201
189	0x3cde3cfe	0.027128693
190	0x3c690a00	0.014223576
191	0x3c7083dd	0.014679876
192	0x3e178bc8	0.14799416
193	0x3e15d61b	0.14632456
194	0x3e661332	0.2246826
195	0x3b974fd5	0.004617671
196	0x3d3d9cc9	0.0462921
197	0x3d86405d	0.06555245
198	0x3c8c7a87	0.01714827
199	0x3c3e7910	0.011625543
200	0x3dfb86b8	0.12281555
201	0x3d9327fe	0.07185362
202	0x3b1cb3b7	0.002391083
203	0x3d34a744	0.04410483
204	0x3a6ce44c	0.00090367044
205	0x3b1eacd2	0.0024211896
206	0x3a37dfea	0.0007014262
207	0x3df54dc9	0.11977727
208	0x3b742eb0	0.0037259273
209	0x3c8318e4	0.01600308
210	0x3e0702dd	0.13184686
211	0x38ea41f2	0.00011170273
212	0x3d9d4dce	0.07680856
213	0x3c0f11f7	0.0087323105
214	0x3a8f2d27	0.0010923491
215	0x3dcebbd5	0.1009442
216	0x3e11fade	0.14255854
217	0x3e43bf97	0.19116054
218	0x3e5c8543	0.2153521
219	0x3e014e88	0.12627614
220	0x3bbdde04	0.0057942886
221	0x3b50c643	0.0031856454
222	0x3b8d434d	0.0043110014
223	0x38fdfa7f	0.000121106386
224	0x3982086f	0.00024801816
225	0x3a61b158	0.0008609495
226	0x3e2cdd73	0.16881351
227	0x3dbd4c47	0.092430644
228	0x3e1e14f8	0.15437686
229	0x3e0fa910	0.14029336
230	0x3e017007	0.12640391
231	0x3e7c4993	0.24637441
232	0x3dc16791	0.09443582
233	0x3dfe6a67	0.124226384
234	0x3ab2251c	0.0013591382
235	0x3a430dba	0.0007440705
236	0x3d934f5b	0.0719287
237	0x3e13db3a	0.14439097
238	0x3bc88b86	0.006120148
239	0x3c8e21ff	0.017350195
240	0x3aa75bc5	0.0012768438
241	0x3a8269af	0.0009949709
242	0x3b9be2b4	0.0047572497
243	0x3d304ac8	0.043040067
244	0x3cfe2825	0.031025002
245	0x3de230a0	0.11044431
246	0x3e041742	0.12899497
247	0x3dc53e8f	0.09631073
248	0x3e22ec2f	0.1591041
249	0x3d49ae77	0.04923865
250	0x3be21c1e	0.0069003245
251	0x3d004fdb	0.031326156
252	0x3d873e48	0.06603676
253	0x3d945700	0.072431564
254	0x3c58bf60	0.013229221
255	0xb8bbb88c	-8.9512294e-05

fcs1_batch.bias f4 [400]
0	0x39931673	0.0002805475
1	0x3868baed	5.54872e-05
2	0x376153d5	1.3430564e-05
3	0xb73e50fb	-1.1343737e-05
4	0xba857ba9	-0.0010183948
5	0xb9509119	-0.00019890479
6	0x3932933c	0.00017030252
7	0x3a90b12c	0.001103913
8	0x38d3b793	0.000100954574
9	0xb986b7ff	-0.0002569556
10	0x36e92f18	6.9494236e-06
11	0x3b66a8c7	0.0035195814
12	0x3783ac9e	1.5696798e-05
13	0xb94e0834	-0.00019648747
14	0x3802a633	3.11492e-05
15	0xb783d007	-1.5713287e-05
16	0xb6f24310	-7.219969e-06
17	0x38314d5a	4.2272128e-05
18	0x394b2685	0.00019373938
19	0xb80785a5	-3.2310974e-05
20	0xb5f70b08	-1.8406145e-06
21	0x3b154811	0.002277855
22	0xb9031931	-0.00012502518
23	0x39b5373c	0.00034564163
24	0x3a8ce31a	0.0010748834
25	0x3b5c1e08	0.0033587236
26	0xb9c99aa5	-0.00038452927
27	0x39a04143	0.00030566202
28	0x3b057a3d	0.002036705
29	0xba2142cc	-0.0006151616
30	0xbad8ced4	-0.0016541132
31	0xb780b9ab	-1.5345247e-05
32	0x3b19e875	0.0023484502
33	0x3839bed2	4.4285152e-05
34	0x39333b2b	0.00017092812
35	0x3a035a9b	0.00050107547
36	0x3b1740e1	0.0023079442
37	0x3a8a9526	0.0010573014
38	0xbc17a71f	-0.009256153
39	0xba52c4e4	-0.0008040203
40	0x3962ae2b	0.00021617922
41	0x3a95ec2c	0.0011438183
42	0xb7eeb390	-2.8455426e-05
43	0x39a5542f	0.00031533974
44	0xba90bed1	-0.0011043196
45	0xb9583f4d	-0.00020622947
46	0xba0cef9a	-0.00053762796
47	0xb91ac941	-0.00014761557
48	0xbb7f5698	-0.0038961526
49	0x398f1560	0.0002729101
50	0x37fe2de2	3.0300525e-05
51	0x38049591	3.1610547e-05
52	0x3848ec4d	4.7903788e-05
53	0x389f68c1	7.601223e-05
54	0xbac075ed	-0.0014683582
55	0xba653076	-0.0008742878
56	0xb8b4d953	-8.623549e-05
57	0xb877bf1d	-5.9067377e-05
58	0xb96b7d43	-0.0002245801
59	0xb7c456c5	-2.3405426e-05
60	0xbaf9e2f8	-0.0019064834
61	0xb83ff8f5	-4.5769808e-05
62	0x390e185f	0.00013551254
63	0xb8400e47	-4.5789664e-05
64	0x372f80f0	1.0460833e-05
65	0x3a6d62ea	0.0009055572
66	0xbad4c4a9	-0.0016232926
67	0x3a98aac1	0.0011647568
68	0xbb21d911	-0.0024696032
69	0x370f7dd8	8.5527645e-06
70	0x3a88839b	0.0010415198
71	0xb9509251	-0.00019890933
72	0x3aac37ac	0.001313915
73	0xb951ef7d	-0.0002002101
74	0x38a11954	7.681796e-05
75	0xb83285e2	-4.2563195e-05
76	0xba430eed	-0.0007440884
77	0x3867634d	5.5167173e-05
78	0xb833b5ea	-4.2846346e-05
79	0x3b7ee2c6	0.0038892492
80	0xbaa10957	-0.0012286109
81	0x38b61d1d	8.683859e-05
82	0x3698dd45	4.555712e-06
83	0xbc11eef0	-0.008907065
84	0xbb1ea356	-0.0024206243
85	0xb62b2fc5	-2.5508791e-06
86	0xb80ae0e4	-3.311121e-05
87	0xbaaeca52	-0.0013335443
88	0xb71ee41d	-9.470646e-06
89	0xb923e919	-0.00015631727
90	0x38f1fe32	0.00011539123
91	0xb86fcd74	-5.7173384e-05
92	0xba64c994	-0.0008727547
93	0xb9f54494	-0.00046781136
94	0x3899e982	7.339103e-05
95	0x3bce5b35	0.006297494
96	0xbb7dcc3d	-0.0038726472
97	0x382945c4	4.0357714e-05
98	0xba21a231	-0.0006165831
99	0x373e0c34	1.1327724e-05
100	0x36fff8a3	7.6285373e-06
101	0xb9df54ce	-0.0004259706
102	0xb683da9c	-3.9295537e-06
103	0x3b38f329	0.0028221107
104	0x3b99bbbd	0.0046915696
105	0xbc061d36	-0.008185675
106	0x396b725f	0.00022453953
107	0xb84a263d	-4.8196165e-05
108	0x373f6417	1.1407791e-05
109	0x3b3b9711	0.0028623978
110	0xba40221d	-0.0007329302
111	0xb917edbc	-0.00014489045
112	0x370675f2	8.014484e-06
113	0x3a067230	0.00051287096
114	0x389ac766	7.380433e-05
115	0x370682e3	8.017497e-06
116	0x3aaeea62	0.0013344998
117	0xb8536b16	-5.040605e-05
118	0xb6963daa	-4.477527e-06
119	0x3b3499d8	0.0027557518
120	0x374ed1a5	1.23273685e-05
121	0x3b04100d	0.0020151169
122	0x360e4827	2.1201647e-06
123	0xb7f2510f	-2.8886394e-05
124	0xb7471048	-1.1865115e-05
125	0x37f26501	2.8895682e-05
126	0xbaa87e4c	-0.0012855022
127	0xba41fd10	-0.0007400075
128	0x37bf5115	2.2806731e-05
129	0xb79702a2	-1.8001829e-05
130	0xb88b863d	-6.65304e-05
131	0x3a121971	0.0005573249
132	0x3ab720ce	0.0013971569
133	0xbb84399a	-0.004035187
134	0xb8ca3beb	-9.643271e-05
135	0x3a732729	0.00092755497
136	0x3b5a9670	0.0033353828
137	0xb743d0ad	-1.1671492e-05
138	0xb99b0dfe	-0.0002957433
139	0xba42f635	-0.00074372004
140	0x3a174978	0.00057711406
141	0xb84b5802	-4.8480935e-05
142	0xbb8f075c	-0.004364891
143	0x37951f47	1.7776749e-05
144	0x3ac53cac	0.0015047989
145	0xbb8d2f0a	-0.004308586
146	0xba62d4ea	-0.00086529425
147	0xba9239fe	-0.0011156199
148	0x38993dfa	7.3071526e-05
149	0xb9993d57	-0.00029228136
150	0xb9e9aa84	-0.00044568267
151	0x38afd0df	8.3835555e-05
152	0x3a555764	0.00081383274
153	0xb56225e4	-8.42467e-07
154	0x37aa8700	2.0328443e-05
155	0x3afbce08	0.0019211182
156	0xb68e2eff	-4.237401e-06
157	0x359dd3ab	1.1759015e-06
158	0x3b42861b	0.0029681984
159	0x3a501a96	0.0007938532
160	0xb9713510	-0.00023003318
161	0x3abc6fe2	0.0014376605
162	0x38e87d7c	0.00011085995
163	0x3911ec04	0.000139162
164	0x3b82ea7f	0.0039952393
165	0x38b6c7cf	8.7156535e-05
166	0xb78b0008	-1.6570106e-05
167	0xb9a62f2b	-0.0003169713
168	0x37a71a9b	1.992034e-05
169	0xb92e96b5	-0.00016650076
170	0xbadc411d	-0.0016804073
171	0xb7d82b4e	-2.5769372e-05
172	0x37e9e525	2.7882468e-05
173	0x397426fa	0.00023284173
174	0xb9dcff11	-0.0004215171
175	0x38d378b6	0.00010083748
176	0xba888851	-0.0010416602
177	0x38143e65	3.534406e-05
178	0xbb2fcfe6	-0.0026826798
179	0x38f4ae51	0.000116672956
180	0x38b9a078	8.851377e-05
181	0xbac6dfc4	-0.0015172889
182	0xb9d5aaad	-0.0004075369
183	0xbb1c3901	-0.0023837688
184	0x3ac2a5c5	0.0014850429
185	0xbbed4d91	-0.0072419127
186	0x3b155f38	0.002279235
187	0xb901b611	-0.00012370224
188	0x3a5b3406	0.0008361939
189	0x3929c8ec	0.00016191945
190	0x39bb21fa	0.00035692734
191	0xbaba2cf4	-0.0014204071
192	0x3b854055	0.004066507
193	0xbb98726c	-0.004652312
194	0x3898c3a5	7.2843664e-05
195	0x391d823b	0.00015021201
196	0x3a769a7c	0.0009407175
197	0xb889222a	-6.5390326e-05
198	0x3a8e2c3b	0.0010846922
199	0xb90e57be	-0.00013574862
200	0x3b2e0f66	0.002655947
201	0xbb9307cb	-0.004487013
202	0xb713439c	-8.777624e-06
203	0xbb2fde58	-0.0026835408
204	0xb61e53cb	-2.3592609e-06
205	0x38677e07	5.5192064e-05
206	0x36a892ca	5.0238787e-06
207	0xbb2985bf	-0.0025867072
208	0x37b0bdac	2.1069158e-05
209	0xb8df8f0b	-0.000106601125
210	0x3b3607c9	0.0027775636
211	0x394f9343	0.00019795918
212	0x3ac00276	0.0014649171
213	0x388df2cb	6.768628e-05
214	0x37d6e38f	2.5616753e-05
215	0xbb00be64	-0.0019644732
216	0xbb4a3703	-0.0030855543
217	0x3b92754a	0.0044695484
218	0x3b31aa68	0.0027109627
219	0xba9fb0ac	-0.001218339
220	0xb8e73506	-0.00011024815
221	0xb87fed3b	-6.1017676e-05
222	0xb92b1a5e	-0.00016317653
223	0x3979a3f1	0.00023807563
224	0xb78e01fe	-1.6928647e-05
225	0xb7bc8a8c	-2.2475862e-05
226	0xb9d26aa8	-0.00040133786
227	0xb9b8a1d3	-0.00035215783
228	0xbaae1670	-0.0013281833
229	0x3b909325	0.0044120722
230	0x3b3db548	0.0028947163
231	0x3b506a1c	0.0031801527
232	0x39c19e76	0.0003692989
233	0xbb3c2826	-0.0028710454
234	0x375e336a	1.3244202e-05
235	0x37bc620b	2.2457001e-05
236	0x3a85a94e	0.0010197551
237	0xbab1ee95	-0.0013575131
238	0xb950fe20	-0.00019931095
239	0xba90a81b	-0.0011036427
240	0x37f1e52e	2.8836159e-05
241	0xb6a87ef7	-5.021571e-06
242	0x38be6ad5	9.079805e-05
243	0xbacb7b37	-0.0015524392
244	0xba6d40d0	-0.00090504903
245	0x3a952490	0.0011378694
246	0x3b2b34a8	0.0026123915
247	0x3a8792b7	0.0010343407
248	0x3a631c50	0.00086635817
249	0x3b993316	0.0046752794
250	0x35f251b9	1.805419e-06
251	0x398af213	0.0002650177
252	0x3b888e80	0.004167378
253	0x3a4f06c4	0.00078974315
254	0x39c94bb5	0.00038394114
255	0x388d520d	6.738687e-05

fcs1_batch.running_mean f4 [400]
0	0x360e7d15	2.1232456e-06
1	0x3ad03728	0.0015885578
2	0x393298bd	0.00017032302
3	0x368d5fb2	4.213268e-06
4	0x3c06486c	0.008195978
5	0x3bbdde5f	0.005794331
6	0x3b1464bf	0.0022643057
7	0x3b91e9d3	0.004452923
8	0x3d180c64	0.03712119
9	0x3cd2d4ca	0.025736231
10	0x391d92ba	0.00015027347
11	0x3bcbc82a	0.00621893
12	0x3a93b49a	0.0011269033
13	0x3babab3d	0.005238919
14	0x3b15dba8	0.002286652
15	0x3ab08b2d	0.0013469212
16	0x38b6a710	8.709554e-05
17	0x397092d3	0.0002294288
18	0x3aaad703	0.0013034049
19	0x3b1b74e7	0.0023720802
20	0x394f67f1	0.0001977978
21	0x3c1cb5e9	0.009564855
22	0x3a9fe88d	0.0012200043
23	0x3b18b7d4	0.002330293
24	0x382d3528	4.129592e-05
25	0x3c8e9878	0.017406687
26	0x3ca35fb3	0.019943094
27	0x00000004	6e-45
28	0x3c214158	0.009842239
29	0x3c0e0f02	0.00867057
30	0x3c289b00	0.010290861
31	0x399519ea	0.00028438802
32	0x3ba284a2	0.0049596587
33	0x3a5dd582	0.0008462296
34	0x00000004	6e-45
35	0x3ca36f44	0.019950517
36	0x3ca44af1	0.020055266
37	0x3d084b02	0.033274658
38	0x3ca4cb44	0.020116456
39	0x3c69690c	0.0142462365
40	0x3bc34d51	0.0059601446
41	0x3c8fb5a8	0.017542675
42	0x3bbd9c92	0.005786487
43	0x11e02c86	3.5368408e-28
44	0x3c21f815	0.0098858075
45	0x395308b4	0.0002012577
46	0x3bfa72ac	0.0076430645
47	0x3aa1c824	0.0012342972
48	0x3c3627c6	0.011117881
49	0x3b399156	0.0028315387
50	0x3909b541	0.0001313286
51	0x3aae1a30	0.0013282951
52	0x397300a6	0.00023174527
53	0x3afdff10	0.0019378383
54	0x3d94e324	0.07269886
55	0x3d41b961	0.04729593
56	0x34818fea	2.4132834e-07
57	0x379383c8	1.7585131e-05
58	0x3b2d80c8	0.0026474465
59	0x3a713670	0.0009201532
60	0x3c0154df	0.00789377
61	0x39397af3	0.00017688777
62	0x2a7f4520	2.2672532e-13
63	0x3b154d93	0.0022781834
64	0x3988d6cb	0.00026099975
65	0x3c0637ff	0.008192061
66	0x3c9c901d	0.019111687
67	0x3b486077	0.0030575076
68	0x3d131aea	0.03591434
69	0x00000004	6e-45
70	0x3d22efeb	0.039779585
71	0x3a989b7c	0.0011643018
72	0x3d093391	0.033496443
73	0x3c264b8c	0.010149848
74	0x3930a780	0.00016847067
75	0x3b0fbc44	0.0021932283
76	0x3c61175d	0.01373848
77	0x3ae5a691	0.0017520954
78	0x344a76e3	1.8855967e-07
79	0x3c3e5675	0.011617293
80	0x36cbd790	6.074966e-06
81	0x3cea052c	0.02856692
82	0x3a95bd97	0.00114243
83	0x3ccbe65a	0.024890114
84	0x3ca53036	0.02016459
85	0x1cf99ae0	1.6517472e-21
86	0x00000004	6e-45
87	0x3a266f81	0.0006349013
88	0x0e0517d5	1.640499e-30
89	0x30134092	5.357005e-10
90	0x3b10d055	0.0022096832
91	0x3095aee1	1.089088e-09
92	0x3cbfaee1	0.023398818
93	0x3cd3c4c3	0.02585066
94	0x3b76df88	0.0037669856
95	0x3d1ec3a2	0.03876079
96	0x3cebe15f	0.028793989
97	0x3502643a	4.857462e-07
98	0x3cd106d9	0.02551596
99	0x39b77094	0.00034988357
100	0x3a1441b1	0.0005655541
101	0x3bbcb701	0.0057591205
102	0x39dd1d6d	0.0004217433
103	0x3bfe1b19	0.007754695
104	0x3c8a75c5	0.01690186
105	0x3cd2d325	0.025735447
106	0x3b7ed1c1	0.0038882347
107	0x3b12f504	0.0022423873
108	0x38d3067e	0.00010062473
109	0x3b953062	0.004552887
110	0x3a8794ff	0.0010344087
111	0x381480d9	3.540595e-05
112	0x3928925f	0.00016076256
113	0x3ba90a22	0.0051586786
114	0x39a50b9d	0.00031479905
115	0x3760dfdd	1.3403563e-05
116	0x3ba710d1	0.00509844
117	0x3682473e	3.8825956e-06
118	0x3c0fb03b	0.008770044
119	0x3ced5f53	0.028976118
120	0x22eb3c39	6.376064e-18
121	0x3b11e1c3	0.0022259809
122	0x24b51d0e	7.854546e-17
123	0x3a1748d1	0.00057710434
124	0x39882c89	0.00025973123
125	0x3a17421b	0.00057700434
126	0x3b8fe25d	0.0043909983
127	0x38777e43	5.900698e-05
128	0x39d77e2a	0.00041101995
129	0x3a37ad6f	0.00070067396
130	0x3bb181ab	0.005417069
131	0x3b6ca603	0.0036109693
132	0x3b3a76fa	0.0028452263
133	0x3ca408d1	0.020023735
134	0x3aca4fd4	0.0015435168
135	0x3c0f357d	0.00874078
136	0x3ce6e0e3	0.028183406
137	0x398f4660	0.0002732752
138	0x00000004	6e-45
139	0x3c9ea27b	0.019364586
140	0x3b85b125	0.004079955
141	0x00000004	6e-45
142	0x3d276f41	0.040877584
143	0x37fe3ddc	3.0307965e-05
144	0x3b76b685	0.0037645411
145	0x3d7a23f5	0.061069448
146	0x3ccf293e	0.02528822
147	0x3ce8534f	0.028360037
148	0x3a163583	0.000573002
149	0x00000004	6e-45
150	0x3b847eec	0.0040434506
151	0x3b0863c3	0.0020811416
152	0x3b8de3d4	0.0043301377
153	0x35d8de56	1.6157962e-06
154	0x3959a901	0.00020757692
155	0x3d913e0d	0.07091913
156	0x39b71b48	0.00034924806
157	0x38f991ab	0.00011900378
158	0x3a9c6b2a	0.0011933793
159	0x3a66a37f	0.00087981665
160	0x3c4f843a	0.012665803
161	0x3cde1ae4	0.027112432
162	0x3c6a0a98	0.014284752
163	0x36690279	3.4721145e-06
164	0x3aa09307	0.0012250849
165	0x3c05acc7	0.008158869
166	0x384ce7c1	4.8853228e-05
167	0x38a1b319	7.710438e-05
168	0x27d34bc1	5.8646397e-15
169	0x39aaaa99	0.00032552032
170	0x3b18eaa4	0.0023333216
171	0x00000026	5.3e-44
172	0x39d6b3b3	0.00040951147
173	0x38e256d4	0.00010792693
174	0x3acad270	0.0015474092
175	0x3a3368b3	0.00068439095
176	0x3c8cd827	0.017192913
177	0x39b674ec	0.0003480086
178	0x3c50d622	0.012746366
179	0x3b07a57b	0.0020698
180	0x39a31f6b	0.0003111319
181	0x3c96cd4b	0.018408438
182	0x3a1504b4	0.00056846
183	0x3657b94b	3.2145351e-06
184	0x3bca9835	0.0061826953
185	0x3c106315	0.0088126855
186	0x3ca1dd4f	0.019758848
187	0x398aae50	0.00026451284
188	0x3a4f3355	0.00079040724
189	0x38c85678	9.552849e-05
190	0x37091305	8.170265e-06
191	0x3bb243c9	0.0054402095
192	0x3ca4f70b	0.02013733
193	0x3d4cb9e8	0.04998198
194	0x3d0d5bd6	0.03451141
195	0x3b232714	0.0024895119
196	0x396be9d2	0.00022498451
197	0x3cedcc28	0.029028013
198	0x3bdcad9f	0.0067345644
199	0x3b873593	0.0041262596
200	0x3b2b552b	0.0026143293
201	0x3be89dbc	0.0070988815
202	0x3a7b1c82	0.0009579138
203	0x39f87755	0.00047391155
204	0x3577a68a	9.2257017e-07
205	0x330c279f	3.2632325e-08
206	0x3871ec7b	5.7679117e-05
207	0x3d0242f7	0.031802144
208	0x39884033	0.00025987774
209	0x3ba113d7	0.004915695
210	0x3c906775	0.017627457
211	0x2a03996e	1.1688369e-13
212	0x3bab6832	0.005230927
213	0x390c180c	0.00013360399
214	0x39da1f6c	0.0004160361
215	0x3b15a834	0.0022835853
216	0x3aa70060	0.0012741201
217	0x3d00dfbe	0.031463377
218	0x3d2a1f07	0.041533496
219	0x3c1b9e4a	0.009498188
220	0x37a8e4ed	2.0133763e-05
221	0x3ac0db67	0.0014713824
222	0x3ad71cab	0.0016411742
223	0x00000004	6e-45
224	0x3890aeea	6.899035e-05
225	0x39229fb7	0.00015509022
226	0x3d079420	0.033100247
227	0x3cf1e274	0.029526927
228	0x3ca9dc46	0.020734917
229	0x3c06d6d6	0.008229932
230	0x3b68fc3a	0.003555073
231	0x3d237392	0.03990514
232	0x3c547574	0.012967456
233	0x3c70d3b5	0.014698912
234	0x3a1dbf46	0.00060175767
235	0x39a5050f	0.0003147502
236	0x3980223d	0.00024439572
237	0x3c08a10e	0.00833918
238	0x39ea9d81	0.00044749308
239	0x3b1b8c4f	0.0023734753
240	0x3995e694	0.0002859129
241	0x399a37b6	0.00029414677
242	0x3b0db9be	0.0021625604
243	0x3c97c919	0.018528508
244	0x3bb31e82	0.0054662833
245	0x3b7376e7	0.0037149729
246	0x3bd370a9	0.006452639
247	0x3cf96703	0.030444628
248	0x3c6bb592	0.014386551
249	0x3c93a76e	0.018024173
250	0x250af693	1.2053135e-16
251	0x138401c0	3.332321e-27
252	0x3ae13b89	0.001718388
253	0x3c80e3c1	0.015733602
254	0x3b35171d	0.0027632185
255	0x382f4ef8	4.1796797e-05

fcs1_batch.running_var f4 [400]
0	0x2fa36de4	2.972761e-10
1	0x36b87f88	5.498474e-06
2	0x34052041	1.2398324e-07
3	0x31e564ea	6.6762498e-09
4	0x39302bfa	0.0001680105
5	0x38423d68	4.6310393e-05
6	0x376d172a	1.4131694e-05
7	0x38115b88	3.465594e-05
8	0x3ab2f6a7	0.001365383
9	0x3a59b089	0.0008304199
10	0x32a111c6	1.875095e-08
11	0x38f62289	0.00011736627
12	0x35df0c4e	1.6618376e-06
13	0x3805f6e2	3.19396e-05
14	0x37077e8d	8.076092e-06
15	0x362d96ce	2.5866789e-06
16	0x35242327	6.1145914e-07
17	0x34868ee7	2.506342e-07
18	0x367ecabb	3.7966954e-06
19	0x36aec36b	5.2083537e-06
20	0x329e3ece	1.8422181e-08
21	0x3a1e724e	0.00060442544
22	0x35f7e4cd	1.8469524e-06
23	0x3713bc72	8.805759e-06
24	0x34cda15f	3.8301638e-07
25	0x3aa10c98	0.0012287078
26	0x39c8c37a	0.00038292614
27	0x00000004	6e-45
28	0x39b1b9b9	0.00033898445
29	0x3894f90d	7.103579e-05
30	0x39be9c31	0.00036355996
31	0x35c59203	1.4720139e-06
32	0x3916c58a	0.00014378704
33	0x35264378	6.1938e-07
34	0x00000004	6e-45
35	0x3a03c408	0.00050264644
36	0x39d2bc89	0.0004019479
37	0x3a843f25	0.0010089619
38	0x3a63bc66	0.00086874363
39	0x39853eb8	0.00025414466
40	0x39160165	0.00014305634
41	0x39b6511c	0.00034774176
42	0x38215a5f	3.8469556e-05
43	0x0c1d5b3f	1.2122298e-31
44	0x39971efe	0.00028824055
45	0x323fd2e4	1.1165614e-08
46	0x396fc6ba	0.00022866848
47	0x37805157	1.5296666e-05
48	0x39935427	0.00028100723
49	0x3881a56e	6.182013e-05
50	0x343b7749	1.7459128e-07
51	0x36b3ddb0	5.3604235e-06
52	0x328f2eea	1.6668725e-08
53	0x36ce069e	6.1400488e-06
54	0x3af3a623	0.0018588941
55	0x3ab59799	0.0013854384
56	0x2d3139c3	1.0074111e-11
57	0x3446c960	1.8513447e-07
58	0x38a90883	8.0601334e-05
59	0x35abd384	1.2802052e-06
60	0x3978617b	0.00023687437
61	0x3643c0b9	2.9169444e-06
62	0x26320d38	6.177407e-16
63	0x36feb7bd	7.59118e-06
64	0x332799ad	3.9022485e-08
65	0x391f5f4d	0.00015198924
66	0x3a04f10f	0.0005071321
67	0x389467d4	7.0765294e-05
68	0x3a819c0d	0.0009888426
69	0x00000004	6e-45
70	0x3ab5b472	0.0013862981
71	0x365229d9	3.1316797e-06
72	0x3a6b4019	0.000897409
73	0x3912f117	0.00014013458
74	0x344ee8b6	1.9269905e-07
75	0x3754b61c	1.2678585e-05
76	0x3a3d7867	0.0007227719
77	0x36e0b798	6.6970933e-06
78	0x2d0cde02	8.007374e-12
79	0x3a1934ec	0.0005844373
80	0x3348610a	4.6654385e-08
81	0x3a8a7317	0.0010562864
82	0x35f7cd5e	1.8462704e-06
83	0x3a3c423f	0.00071815023
84	0x3a424415	0.00074106577
85	0x13ed7e52	5.9951772e-27
86	0x00000004	6e-45
87	0x37b1bb76	2.1187338e-05
88	0x0953e80e	2.5507313e-33
89	0x2b83ed46	9.373966e-13
90	0x36ccd02c	6.103908e-06
91	0x2cc622bf	5.631356e-12
92	0x3a1ae972	0.000590942
93	0x3a1811fb	0.0005801019
94	0x381adbe1	3.692124e-05
95	0x3b013289	0.001971396
96	0x3a1fb4f4	0.0006092333
97	0x31062247	1.951905e-09
98	0x3a83c1dc	0.0010052281
99	0x339dd9be	7.350489e-08
100	0x34fc634e	4.7010911e-07
101	0x395edf82	0.00021254833
102	0x346aade4	2.1856209e-07
103	0x398e2399	0.00027110873
104	0x39eb3e79	0.0004486924
105	0x3a3eb1cf	0.00072744203
106	0x37cb1e06	2.4213467e-05
107	0x371cee72	9.353842e-06
108	0x33e057c4	1.0446777e-07
109	0x3970f4ed	0.00022979426
110	0x379d27d0	1.8734398e-05
111	0x3254329f	1.2351534e-08
112	0x331ec680	3.6967776e-08
113	0x38d9c58b	0.000103841616
114	0x35a3fde6	1.221834e-06
115	0x33043c9b	3.0788765e-08
116	0x39846fef	0.000252604
117	0x308068fe	9.343066e-10
118	0x3925a2e4	0.00015796308
119	0x3a35dcf0	0.00069375243
120	0x1f1f6bad	3.3758627e-20
121	0x389a8451	7.367938e-05
122	0x2054e962	1.8034318e-19
123	0x34e22e5b	4.2129508e-07
124	0x340984e7	1.2807469e-07
125	0x3576418d	9.173753e-07
126	0x38b38093	8.559334e-05
127	0x35982b95	1.1337567e-06
128	0x342c8915	1.6068618e-07
129	0x35575c46	8.0228017e-07
130	0x380811e5	3.2441592e-05
131	0x37c9fa3c	2.4077592e-05
132	0x39178757	0.000144509
133	0x3a7d6e15	0.00096675876
134	0x3638f241	2.7559147e-06
135	0x39ae6657	0.00033264115
136	0x3aac6b7d	0.0013154593
137	0x33f31d36	1.1320883e-07
138	0x00000004	6e-45
139	0x3a3539db	0.0006913223
140	0x38383401	4.391745e-05
141	0x00000004	6e-45
142	0x3aaa9272	0.0013013615
143	0x33e4d8d5	1.0656519e-07
144	0x390a12d6	0.00013167722
145	0x3b103fcc	0.0022010682
146	0x3a44085c	0.0007478052
147	0x3a520c0e	0.00080126605
148	0x353665dc	6.794851e-07
149	0x00000004	6e-45
150	0x377d9d4d	1.51166e-05
151	0x378d066c	1.68115e-05
152	0x399b790f	0.000296541
153	0x320a8015	8.06178e-09
154	0x347efb84	2.3747094e-07
155	0x3b229e43	0.002481357
156	0x34099f28	1.281702e-07
157	0x32979f0f	1.7651045e-08
158	0x382fe66e	4.1937856e-05
159	0x37d4d77d	2.5372714e-05
160	0x3993b8b7	0.00028175648
161	0x3a8d5975	0.0010784107
162	0x39e98dad	0.0004454678
163	0x323e4736	1.1075647e-08
164	0x382533ef	3.9387432e-05
165	0x38c20368	9.251275e-05
166	0x322aeccc	9.949144e-09
167	0x32847b3d	1.5422865e-08
168	0x23975372	1.6406793e-17
169	0x36b8d885	5.5088335e-06
170	0x38ae0018	8.296984e-05
171	0x00000004	6e-45
172	0x340a6eb3	1.2892524e-07
173	0x329df5bb	1.838895e-08
174	0x37bffec0	2.2887602e-05
175	0x35862d1b	9.996905e-07
176	0x39f17225	0.00046052146
177	0x34e2f5ec	4.2274712e-07
178	0x3936caee	0.0001743247
179	0x372a235b	1.0141021e-05
180	0x348cfe13	2.6261895e-07
181	0x39cfc1a6	0.00039626396
182	0x3724a99d	9.814653e-06
183	0x32f527a5	2.8539782e-08
184	0x396a9617	0.00022371892
185	0x3973090d	0.00023177658
186	0x3a319f3f	0.00067757437
187	0x34c14ebb	3.6006335e-07
188	0x36ae8028	5.2005234e-06
189	0x357a32eb	9.3206353e-07
190	0x32875c09	1.5757921e-08
191	0x381c1079	3.720864e-05
192	0x3a18e2d0	0.00058321375
193	0x3aae1c39	0.0013283557
194	0x3ab4749e	0.0013767665
195	0x36f4bbb9	7.2936205e-06
196	0x3673b25d	3.6313643e-06
197	0x3a024fc7	0.0004970994
198	0x385974bc	5.184555e-05
199	0x380b4833	3.3207423e-05
200	0x39193205	0.00014609851
201	0x398f65ff	0.00027351078
202	0x357dccfe	9.454815e-07
203	0x3709b966	8.209003e-06
204	0x304eb03b	7.51928e-10
205	0x2e299d26	3.8565727e-11
206	0x32a3c044	1.906313e-08
207	0x3a5e2723	0.000847446
208	0x34f384b0	4.535882e-07
209	0x38257466	3.944747e-05
210	0x3a79b625	0.0009525738
211	0x2221269d	2.184001e-18
212	0x392f2108	0.00016701606
213	0x35139418	5.497727e-07
214	0x3481eab9	2.4198906e-07
215	0x388feac8	6.862503e-05
216	0x385620b9	5.105205e-05
217	0x3a9a7a44	0.0011785706
218	0x3ac77348	0.0015216852
219	0x39adb266	0.00033130049
220	0x3388eb01	6.3757405e-08
221	0x36204453	2.3881628e-06
222	0x36743df8	3.6394904e-06
223	0x00000004	6e-45
224	0x322b6529	9.976511e-09
225	0x341556a4	1.3908226e-07
226	0x3ac27676	0.001483633
227	0x3a6515a1	0.00087388797
228	0x3a2a7f93	0.00065039954
229	0x39c69e21	0.00037883318
230	0x3956c3d9	0.0002048159
231	0x3b015ddf	0.001973979
232	0x39c64c39	0.00037822293
233	0x3a0cb28f	0.00053671835
234	0x34bbbb87	3.4967908e-07
235	0x33cc20d6	9.505463e-08
236	0x36b178a9	5.2890578e-06
237	0x399d554a	0.0003000892
238	0x366579f7	3.4194652e-06
239	0x37bbc277	2.2382692e-05
240	0x344d60fb	1.9127394e-07
241	0x3461673a	2.0992312e-07
242	0x36ffd72f	7.624643e-06
243	0x397d088a	0.00024131141
244	0x390280b0	0.00012445706
245	0x392abb92	0.00016282339
246	0x3989b348	0.0002626425
247	0x3a567def	0.0008182218
248	0x3a19a2f2	0.00058607676
249	0x39a0b372	0.00030651275
250	0x20faaf36	4.2467592e-19
251	0x0dd61cc7	1.3195696e-30
252	0x385eaad4	5.308802e-05
253	0x39b3e674	0.00034313241
254	0x3788dfec	1.6316735e-05
255	0x324dd6e2	1.1981429e-08
