ContinuousControl/checkpoint_actor_target.pth (torch_old, 554892 bytes, 18 tensors)

fc0_batch.weight f4 [33]
000000 29 b2 f7 3e 61 19 46 3f 71 4a dc 3d 28 b9 2c 3e
       0.48378113 0.77382475 0.10756386 0.16867507
000010 7e 32 aa 3e 0c 06 32 3f 0d 94 04 3f 62 12 5e 3f
       0.33241647 0.69540477 0.5178841 0.867468
000020 6b f0 ea 3e 1c 67 1f 3f 21 40 b5 3e 23 c2 ce 3e
       0.4588655 0.6226671 0.3540049 0.4038249
000030 e6 b0 d0 3c 7c f1 41 3e 11 ca 9e 3e ed 19 0d 3f
       0.025474977 0.18939775 0.3101354 0.55117685
000040 2c 01 30 3f 7a 1b 44 3f 77 c7 0a 3e 36 94 8c 3e
       0.6875179 0.76604426 0.13552652 0.27456826
000050 90 5f 21 3f 52 65 57 3f 66 47 cc 3e b5 b5 5d 3f
       0.6303644 0.8413898 0.39898223 0.8660539
000060 ea ce d8 3e 65 bc 07 3f ad 5c 70 3f 90 21 14 3d
       0.42345363 0.5302184 0.9389141 0.03616482
000070 23 af 3f 3e 90 30 bf 3e 12 36 9c 3e 94 97 6e 3f
       0.18719153 0.37341738 0.30510002 0.9320004
000080 2d 3f 0c 3e
       0.13695975

fc0_batch.bias f4 [33]
000000 dd 76 88 3b ff aa 86 3c 33 9c f0 bc 0d f7 41 bd
       0.00416456 0.01643896 -0.029371357 -0.047354747
000010 4f 27 29 bd 58 cb a3 bd 4d 0c 0f 3c 6e de 64 bc
       -0.041297253 -0.07997769 0.00873096 -0.013969047
000020 ad 0f e3 3c a5 5b 07 3d 47 20 57 bb 2a 38 7e 3d
       0.027717436 0.033046383 -0.0032825635 0.06206528
000030 1b 35 c0 3c 78 70 bb bb 1e 03 00 3d 02 02 5c bd
       0.023462823 -0.0057201944 0.031252973 -0.053712852
000040 1e 74 38 3c ce 13 c4 bb fe c8 c1 bc 5e 93 d7 bc
       0.011258153 -0.005983806 -0.02365541 -0.026315387
000050 65 5c 31 bd b8 73 15 bb 65 49 52 3d b7 87 c9 3c
       -0.043301005 -0.002280457 0.051339526 0.024600847
000060 fd 08 aa 3c 42 f4 10 3d 6a 76 3f 3c d4 db aa bc
       0.02075624 0.035389192 0.011685947 -0.020856775
000070 43 d4 0b bd 85 b5 98 3c 9b 41 51 bc 9f 58 c5 3c
       -0.034137975 0.018641243 -0.012771989 0.02409011
000080 ce fd 77 3b
       0.0037840488

fc0_batch.running_mean f4 [33]
000000 2d 34 a4 3f 8e 38 3a bf b3 f3 7b bf a8 20 38 bc
       1.2828423 -0.72742546 -0.9841873 -0.011238255
000010 c8 8a 48 3c e4 04 71 3d 2a 37 26 3d 14 1f 0a 3f
       0.012240119 0.058842555 0.040579952 0.5395367
000020 cd d6 6d bd 97 0c b1 3e f1 6d 26 3e d6 bd a2 bd
       -0.058066178 0.34579918 0.16252877 -0.079463646
000030 e3 76 d8 3d b2 06 39 40 00 ab e0 bf 2d 7a ec bf
       0.10569551 2.8910336 -1.7552185 -1.8474785
000040 74 06 2f 3c 57 c2 36 3d bd 29 75 3d 4d a1 a3 bd
       0.010682691 0.04461893 0.059854258 -0.0798975
000050 1e aa 2d 3f af bb 32 be 20 27 9c 3f 2d ec 8a 3e
       0.67837703 -0.17454408 1.219944 0.27133313
000060 9d 9f c1 3e c6 44 00 3f 61 80 08 be fc ff 7f bf
       0.37817088 0.5010494 -0.13330223 -0.99999976
000070 ee 3d 40 bf 00 00 00 00 fc ff 7f 3f 00 00 00 00
       -0.750945 0.0 0.99999976 0.0
000080 3a 2b b9 be
       -0.36165792

fc0_batch.running_var f4 [33]
000000 d7 ea a7 40 e8 a5 79 40 3a 2a 7d 40 bc 65 77 3e
       5.247417 3.900751 3.9557023 0.24159902
000010 e8 4b 56 3e 5e e1 b2 3e dd 27 38 3e e2 cb 98 40
       0.20927393 0.34937567 0.17983957 4.774888
000020 a6 60 c4 3e 79 a8 20 3f f2 1e 2d 41 cb e7 96 41
       0.38354987 0.6275707 10.820055 18.86318
000030 f7 28 34 41 6e 94 8a 41 18 5e 76 41 42 50 7f 41
       11.260001 17.322475 15.397972 15.957094
000040 b2 d5 95 3e 7d 92 4a 3e ce e9 8e 3e 82 ba 5b 3e
       0.292646 0.19782443 0.27912754 0.21457866
000050 cb 85 df 40 f5 17 70 40 bc c5 a0 40 58 7b 1b 42
       6.985082 3.7514622 5.0241375 38.870453
000060 f5 af 67 42 ca f8 2b 42 3a f1 fd 41 04 00 00 00
       57.921833 42.992958 31.742786 6e-45
000070 b8 79 fe 41 04 00 00 00 04 00 00 00 04 00 00 00
       31.809433 6e-45 6e-45 6e-45
000080 61 08 c8 3a
       0.0015261286

fc1.weight f4 [400, 33]
000000 1f eb ac bc 41 96 cb 3c ca 50 0c bb 18 1d c6 3c
       -0.021108208 0.02485192 -0.0021410459 0.024183795
000010 a7 14 13 bd 68 8d ea bc 90 fc 0a bc de 22 b5 3c
       -0.035908367 -0.02863188 -0.008483067 0.022111353
000020 a7 7e 8d 3b a0 e2 bf 3a a1 60 0a 3d 7c a0 dd bc
       0.0043180767 0.0014639683 0.03378356 -0.027054064
000030 6a 29 78 bc 96 69 18 3c 18 8a ce 3c e2 65 13 bd
       -0.015146593 0.009302517 0.025212333 -0.035985835
000040 fb f0 37 3d 05 f2 fe bb 8a d5 8f 3b ac 6f 01 bd
       0.04490755 -0.007780316 0.0043894695 -0.03160064
000050 43 77 93 3c 2f 9d f7 3b 2a 1e 1d bd 3b 03 1d bd
       0.018001204 0.0075565795 -0.038358845 -0.03833316
000060 4c b4 38 3d 82 34 52 3b 2c a9 dd 3c e1 21 35 3d
       0.04509382 0.0032074754 0.027058206 0.044221763
000070 e7 84 15 3c 67 bf b7 bc a8 b1 15 3d 35 8e 3c bd
       0.009125925 -0.022430135 0.03654638 -0.046034057
000080 65 d7 2f bd 9c 0b df 3c ff 76 90 3a 54 b3 d1 3c
       -0.042930026 0.027227215 0.0011021792 0.025598206
000090 a0 cf 60 bc 9f 74 ef bb 2a 5c 4e 3d 81 4a a4 3b
       -0.013721377 -0.0073076035 0.050380863 0.0050137644
0000a0 d1 36 ae bc 3a 0f c7 bc a9 05 02 bd 82 4d 03 3b
       -0.021266373 -0.024299253 -0.03174368 0.0020035212
0000b0 cb 99 ff bc 6c 34 0e 3d a2 e9 07 3d d0 ff 36 bb
       -0.031201264 0.034717962 0.033181794 -0.0027923472
0000c0 d3 6e 67 3d c0 00 17 3d b1 0e 23 bd c4 f9 f8 bb
       0.056502175 0.03686595 -0.039808933 -0.0075981338
0000d0 d2 fa d5 bc 18 40 88 bb e5 2b 55 3c cd b0 19 bd
       -0.026120577 -0.004158031 0.013010954 -0.037522126
0000e0 35 56 c8 bc f8 c0 e8 bc 9d 2c 0e 3d 64 31 2f 3a
       -0.02445517 -0.028412327 0.034710515 0.000668308
0000f0 1b 7a 45 3d f9 c2 91 bc a4 b2 e9 3c 04 2d f3 bc
       0.048212152 -0.017793166 0.028527565 -0.029684551
000100 f9 4b be bb 14 0c 26 bd 68 07 24 3d 78 19 f5 3c
       -0.0058073965 -0.040538862 0.040046126 0.029919371
000110 58 cd 03 3d 36 86 86 bc e2 3b eb 3c da 34 34 3d
       0.032178253 -0.016421419 0.028715078 0.043995716
000120 40 59 f8 3c 15 fe a6 3c 3f 30 61 3c c9 93 00 3d
       0.030315995 0.020384828 0.013744413 0.03139094
000130 2d 13 7f 3a e6 68 f6 b8 1b de aa bc 0d 4b 2f bc
       0.00097303354 -0.00011749733 -0.020857861 -0.010699046
000140 65 3c 1f bc f5 c4 58 3d 8f 88 8e 3c 1f d4 b7 bc
       -0.009718989 0.052922208 0.0173991 -0.022440014
000150 06 35 c9 3c 5b 91 2f bd cd 4b 9d 38 74 6f d1 3c
       0.024561416 -0.04286323 7.5004624e-05 0.02556584
000160 3f c5 b5 3b 10 7b 8c 3c fd db 1b 3d b9 cc e3 3c
       0.005547195 0.017148525 0.038051594 0.02780758
000170 05 6b 53 bc f4 85 09 bd be ca 46 3d 02 ca 21 3d
       -0.012903933 -0.033575013 0.048533194 0.03949929
000180 0c 37 d4 bb 39 8c 0e bc 32 59 e6 bc ad ea 86 3c
       -0.0064762887 -0.008700424 -0.028118704 0.016469324
000190 94 e6 a8 bc 5e 61 7e bc c3 da c2 3c 38 e1 83 3c
       -0.02061776 -0.015526144 0.023785954 0.016098604
0001a0 25 a9 59 bd f0 b9 c3 bc 81 de e3 bc 3e 37 41 bd
       -0.053139824 -0.023892373 -0.027816059 -0.047171824
0001b0 9a 65 4c bd 12 cb 3f bc 70 3b 17 3d 14 76 01 3d
       -0.049901582 -0.011706131 0.03692192 0.03160675
0001c0 92 03 95 3c 47 c1 e3 3c 9e 56 ee bc 24 24 3c 3d
       0.018190179 0.027802123 -0.029094037 0.045932904
0001d0 0e 8f 18 bd ac 45 24 3d 31 dc b9 bc 9f 77 1d 3d
       -0.037245803 0.040105507 -0.022688003 0.038444158
0001e0 80 93 42 3d d8 bf bc 3c 01 0a 49 bc 75 7d 86 bc
       0.04750395 0.023040697 -0.0122704515 -0.016417244
0001f0 62 d4 02 3d 9a dd 16 3d 37 b5 34 bb 5f 3c a6 bb
       0.031940825 0.03683243 -0.0027573833 -0.0050731148
000200 ba e1 2e 3c f6 23 11 bd f3 13 2f 3d b8 1a 83 3c
       0.010673935 -0.035434686 0.042743634 0.016003951
000210 2c 3a 3d 3d f4 ae 2c bd af 93 86 bc 65 00 51 3d
       0.046198055 -0.042159036 -0.016427843 0.051025767
000220 64 c9 5c bc 28 8f 72 3d 72 92 64 3d 58 7d 27 3d
       -0.01347575 0.059218556 0.055803724 0.04089102
000230 af ac 37 bc 7b fc d3 bb 7f e4 52 bd ec a5 e5 3c
       -0.011210605 -0.006469307 -0.051487442 0.02803322
000240 2e 60 c0 bc 25 ff 22 3d c2 91 2a bd b0 40 4f bc
       -0.023483362 0.039794106 -0.04164291 -0.0126497
000250 26 b1 0c 3b e3 76 bf 3b 58 1a e9 bc 7e 15 30 3d
       0.0021467893 0.00584303 -0.028454944 0.042989247
000260 82 6d ff 3c 6b f4 8f 3c d1 17 44 bc 35 94 2a bc
       0.031180147 0.017572602 -0.011968569 -0.010411312
000270 64 92 82 bc c2 63 1b 3d 9b be b2 3c ad bd 3e bc
       -0.015938945 0.037936933 0.021819403 -0.011641902
000280 97 9c 56 3d f7 52 cd bb 0e 9c 09 3d 2b bf 31 3d
       0.05239543 -0.0062659937 0.03359609 0.043395203
000290 cd 45 26 bd 86 a2 46 bb 61 75 fc bc 7a 7a 0b bd
       -0.04059391 -0.0030309274 -0.03081769 -0.03405235
0002a0 d5 6d 99 3c 65 60 15 bd e6 eb 0a bd 86 b3 a7 bc
       0.01872913 -0.036468882 -0.033916377 -0.020471346
0002b0 19 44 50 bc 14 1c a9 3c 64 b6 f3 3c dc 73 94 3c
       -0.012711548 0.020643272 0.029750057 0.018121652
0002c0 1b cd bb 3c e8 00 15 3d cc b5 e9 bb eb 2c ec b9
       0.02292495 0.036377817 -0.0071322676 -0.00045046894
0002d0 ad 6c 5a bd bc 93 06 bd 00 4b 4b 3c 51 6a 2f 3d
       -0.053326298 -0.032855734 0.012408018 0.042826
0002e0 26 3e 83 3b 92 cb 17 3c 08 31 27 bd 3d 5e 94 3b
       0.0040052114 0.009264844 -0.040818244 0.0045278356
0002f0 44 10 26 bc 86 96 fb 3c 72 bd 97 bc 58 fe 0b bd
       -0.010135714 0.030711424 -0.018522952 -0.034178108
000300 ce 9c 3a 3d 3d 79 33 bd c4 83 74 bb 74 e2 8c 3c
       0.045559697 -0.043816794 -0.0037309984 0.017197825
000310 52 bd 34 bc be a3 b1 3c cd a7 2c 3d 52 e3 44 bc
       -0.011031466 0.021684524 0.042152215 -0.012017088
000320 9b fc f8 bc 65 49 99 3c f2 56 4f bd 10 f1 0e 3d
       -0.03039389 0.018711755 -0.050620027 0.034897864
000330 fe 1e 58 bd 1b b4 e4 bc 37 9c 17 3d af 05 27 bc
       -0.05276393 -0.027917912 0.037014212 -0.010194226
000340 04 7f 29 bd ee e1 7e 3c ad 1a 37 3d 39 47 3d 3d
       -0.041380897 0.0155567955 0.044703174 0.0462105
000350 f1 1f 21 bd 1d ef 72 3a 2a 38 48 bd 57 aa 99 bc
       -0.039337102 0.0009267198 -0.048881687 -0.018757982
000360 8c 01 1b 3d 67 ac 03 3d fb ef ae 3c b9 dc e1 3c
       0.037843272 0.032146838 0.021354666 0.02757107
000370 06 a0 7f bb 77 7e 35 3d cb e1 c5 bc bf 0d 17 3d
       -0.0039005294 0.04431006 -0.024155518 0.036878344
000380 a9 35 4e 3c 48 98 22 bc 9c 87 ba 3c 99 c7 6d 3c
       0.012586036 -0.009924002 0.022769742 0.01451292
000390 95 62 87 bc e8 78 f9 bb ac 05 cb 3c a0 61 a2 3c
       -0.0165265 -0.00761329 0.024782978 0.019821942
0003a0 52 42 a1 3c a7 36 20 3c 6a 53 f1 bc 11 31 17 3c
       0.019684944 0.009778655 -0.02945872 0.009228007
0003b0 db f6 37 3c 03 77 a4 3b 61 2c bf bc cd 97 12 3d
       0.0112282885 0.00501907 -0.023336591 0.0357893
0003c0 74 3b e0 3c ed 04 c4 3c c8 12 ef bc b3 f3 f6 bc
       0.0273721 0.02392813 -0.02918376 -0.030145502
0003d0 33 21 18 3b 60 48 06 3d ee a2 8a 3a 38 be 2a bc
       0.0023213148 0.032783866 0.0010577121 -0.010421328
0003e0 2f d0 35 3d 05 fc a9 bc c3 ea 39 bd c6 86 53 3d
       0.044387992 -0.020750055 -0.0453899 0.0516422
0003f0 d3 d4 82 bc 46 25 69 3d 87 06 fb bc 74 47 73 3d
       -0.015970623 0.056920312 -0.03064276 0.059394315

fc1.bias f4 [400]
000000 d1 8f a9 bd d7 b7 ce 3c e3 4f 19 bd 75 6c df bd
       -0.08279384 0.025234146 -0.0374297 -0.109093584
000010 50 b9 12 3e a0 88 0d 3e 72 e2 98 3c b3 02 08 3e
       0.14328504 0.1382165 0.018662665 0.1328228
000020 20 04 28 3d a9 2b 6f 3d f7 3a 93 3d e6 fe a1 3d
       0.04101956 0.058391247 0.07188981 0.07909946
000030 1d 95 7a 3d e6 d6 ad 3d ae f8 1d 3e 6f 43 87 3d
       0.06117736 0.08488254 0.15426895 0.06604659
000040 6e 5a ee bd 4c ce 82 3d 19 56 32 3e 84 09 1b 3e
       -0.11638342 0.06387004 0.17415656 0.15140349
000050 0f 69 e1 3d 67 c8 92 bd 73 1f 31 3e 5b f1 02 3d
       0.110063665 -0.0716713 0.17297153 0.031968456
000060 3f 82 ac bd fa e5 e9 3c 82 e9 eb 3d 91 97 28 be
       -0.0842328 0.028552044 0.115191475 -0.16464068
000070 b8 c6 59 bd bd 50 0a 3e 3f eb 5f bd 8f 9f 90 bd
       -0.05316803 0.13507362 -0.054667708 -0.070616834
000080 47 f7 02 bd b3 7f 62 3d d6 13 0f be 1b 33 49 3d
       -0.031974103 0.055297565 -0.1397241 0.049121004
000090 52 ec cb 3c 8a 24 38 3d 3b 7e 88 3b dc 60 ab 3d
       0.02489296 0.04495672 0.0041654385 0.08368084
0000a0 03 a0 b2 3b a9 82 0a 3e 1c 89 df 3d 13 d9 f2 bd
       0.005451204 0.13526405 0.109148234 -0.1185781
0000b0 88 77 67 bc bb 71 0a 3e 93 13 22 bd 6a 61 29 bd
       -0.01412762 0.13519947 -0.03956945 -0.041352667
0000c0 27 27 0f bc 84 75 0f bd 59 98 8d bd d2 1e 49 3d
       -0.008737362 -0.03502418 -0.06913824 0.04910166
0000d0 b3 05 17 3e 10 7d cd 3c fd ef f9 3d b8 c0 16 3d
       0.14748268 0.025084049 0.12203977 0.036804885
0000e0 ff 54 ea bd 7d ef 0e be fd e7 38 bd 48 ef 59 3d
       -0.11441993 -0.13958545 -0.045143116 0.053206712
0000f0 72 26 8d bc b2 07 99 bd 5b ee 10 be 21 0c 87 3c
       -0.017230246 -0.07472171 -0.14153425 0.016485276
000100 a5 09 04 3e 16 63 2b bb 85 30 32 3e ba 0c b8 bd
       0.12894304 -0.002615159 0.17401321 -0.089868024
000110 2a 4a 2d 3e 46 a0 d8 bd 4d 14 13 3e d7 9e 99 3c
       0.16922823 -0.10577445 0.14363213 0.018752499
000120 4f d6 34 3e bf 41 2a 3e cd f2 5c bd 2b c0 f2 bc
       0.17659877 0.16626643 -0.05394249 -0.029632648
000130 b2 89 33 bd 58 fe 3e 3d 5e c8 ac bd fb 5f f6 bc
       -0.04383249 0.04662928 -0.084366545 -0.030075064
000140 e5 01 b6 bd cf 75 c4 3d d9 d7 09 3e b0 64 66 3d
       -0.0888708 0.09592783 0.13461246 0.056248367
000150 c0 4b 7a 3c 04 c8 01 be 0a b4 2a be 0b f5 0d be
       0.015276849 -0.12673956 -0.16670242 -0.13863008
000160 a0 c4 02 be 55 61 22 be ff 83 7c 3d 4b ca 0f be
       -0.12770319 -0.15857442 0.06164932 -0.14042012
000170 a2 38 a5 3d 87 72 fa 3d 78 45 12 bb ad a0 28 3d
       0.080674425 0.122288756 -0.0022319239 0.041168857
000180 03 90 f3 3d e2 10 17 be c1 c8 18 3e 4d e1 2d 3e
       0.118927024 -0.14752534 0.14920332 0.16980477
000190 9d e9 29 3e 7d e0 90 bd 59 60 dc 3d e0 e8 74 bd
       0.16593023 -0.07074068 0.10760564 -0.0597924
0001a0 ce b4 ed 3c 44 42 23 3e bc 4a 77 3d 9e df 26 3d
       0.029016878 0.15943247 0.060374007 0.0407406
0001b0 8c 4a 33 bd bd 18 a9 bd 8c cd 14 3e 71 43 25 be
       -0.043772265 -0.082566716 0.14531535 -0.16139008
0001c0 02 4a 04 3d dd a2 6c 3b f2 7c 54 bd 43 26 16 be
       0.03229714 0.0036107816 -0.05187697 -0.14663033
0001d0 df 22 ef bd b4 22 d1 bd 21 6d e1 3c e7 0e 87 3d
       -0.11676573 -0.10211697 0.027517857 0.06594639
0001e0 b1 c3 25 be ae fb 89 bd 07 f0 30 be 34 4f ef 3d
       -0.16187932 -0.06737457 -0.17279063 0.11685029
0001f0 04 8b 1d be eb 18 a0 bc cb 10 b7 bc 7b e0 e1 bd
       -0.15385062 -0.019543132 -0.022346875 -0.110291444
000200 5a 2b 00 3e a3 5e 9a 3d 8b b7 d2 3d 59 48 f5 3d
       0.12516537 0.07537582 0.10288914 0.1197669
000210 b2 65 c8 bd 5d d2 af 3d 76 84 0c 3e 41 a7 87 bd
       -0.09785022 0.085850455 0.13722405 -0.06623698
000220 dd eb 77 bc c2 da 96 3c 27 49 33 be e0 f7 38 3b
       -0.015131918 0.018414859 -0.17508374 0.0028223917
000230 1b f8 4e bc 7b bb f7 bd 22 df 07 3e 65 47 28 be
       -0.012632395 -0.12096306 0.13268712 -0.16433485
000240 3e 0e 64 bd 33 cd 15 3c 32 b0 ec 3c 36 1e 81 3c
       -0.055677645 0.009143162 0.02889261 0.015761476
000250 f5 7d 5f bb e5 54 16 be 72 b1 01 be d9 68 54 bd
       -0.0034102176 -0.14680822 -0.12665346 -0.051857803
000260 6e 76 e3 bd 19 12 f5 bd 28 4e 52 bd 80 52 32 3e
       -0.11106573 -0.119663425 -0.051344067 0.17414284
000270 c1 f2 08 3e 64 d4 0f 3d 6d 1b c1 bd 64 7a ca bd
       0.13373853 0.03511466 -0.09429059 -0.098866254
000280 ca f4 2a 3e 5a d6 b7 bb 90 cf e1 3c 82 3e d1 bd
       0.16694942 -0.0056102695 0.027564794 -0.102170005
000290 e9 55 af bd ec 95 b7 3d a1 44 58 bc 5b 07 61 bc
       -0.08561308 0.08964142 -0.013199956 -0.013734664
0002a0 4c 42 b5 bd 76 89 02 be 5f 93 0e be 79 90 24 be
       -0.08850536 -0.1274775 -0.13923405 -0.16070737
0002b0 90 08 23 3e 4e da c6 3c ad 9e 1a 3d a1 5b 07 3e
       0.15921235 0.024274018 0.03774898 0.13218547
0002c0 ae 18 93 3d 84 9b d5 bc 5c e7 01 3e 7c a1 81 3b
       0.07182442 -0.026075132 0.12685913 0.003956018
0002d0 b0 60 31 be b7 d4 fa 3d c3 de f2 bd 26 b0 07 be
       -0.1732204 0.122476034 -0.11858895 -0.13250789
0002e0 09 89 51 bd ae 29 15 3d 5e c5 1f 3e 7c cf 38 be
       -0.051156078 0.036416702 0.15602633 -0.18047899
0002f0 48 b0 2f be bd d6 e5 bd 9e db c0 bd 85 34 27 3e
       -0.1715709 -0.11222599 -0.09416889 0.16328628
000300 ea e7 fc 3c b0 4c 0c 3e b7 22 2a 3d d2 23 c6 3d
       0.030872304 0.13701129 0.041537013 0.09674801
000310 ed 4c ac bd d2 a4 94 3d ab 16 72 3d 07 f8 59 3d
       -0.0841311 0.072579995 0.05910365 0.053215053
000320 38 2d 02 be 4e 73 68 bd aa fa 0c 3e 86 12 10 bd
       -0.12712562 -0.056750588 0.13767496 -0.035173915
000330 3e 98 0d be ab 47 11 be 1c a6 0c bd 3c db 8d 3d
       -0.13827607 -0.14187495 -0.0343381 0.06926581
000340 53 ae 4c bd 21 be 10 3e 5a 75 27 3d 9c ca 0e be
       -0.049970936 0.14135028 0.0408834 -0.13944477
000350 01 eb 15 3c 5b a0 0f 3e ae a2 d3 3d 70 7a aa bd
       0.009150268 0.14026015 0.10333763 -0.08324134
000360 8d 09 0b be dd 18 3a 3d 1e 2a 06 bc 7a 63 1e bd
       -0.13577862 0.045433868 -0.008188752 -0.038669087
000370 9c b2 22 be 2b 95 2c 3e 74 01 bc 3d 0e 32 2e be
       -0.15888447 0.16853778 0.09179965 -0.17011282
000380 b5 fb 06 3c f3 3c 10 bd a1 3f 29 3e 68 7e c3 3d
       0.008238723 -0.035214376 0.16528179 0.095455945
000390 ce 17 28 3d 7c e5 01 bd f2 2e 00 be 1c 44 2d 3d
       0.041038327 -0.031712994 -0.12517908 0.042301282
0003a0 e0 61 94 3d ce 74 a6 3a 86 7d 1e 3e fd 06 cd 3d
       0.07245231 0.0012699605 0.15477571 0.100110985
0003b0 ef 67 2a be a3 6c e8 bb e6 1b 8e bd a7 fd 8b bc
       -0.1664121 -0.0070930286 -0.06938915 -0.017088724
0003c0 47 47 36 ba 74 43 91 3c 37 59 cf 3d ee c8 eb 3d
       -0.000695337 0.01773236 0.10124438 0.11512934
0003d0 88 e9 ba 3c 6d e3 87 bd 63 8e ca bd 1c 97 94 3d
       0.022816435 -0.06635175 -0.09890439 0.07255384
0003e0 1a 51 a5 3d 04 4a 1e 3e cf 77 20 be 63 21 f8 bd
       0.080721095 0.15457922 -0.15670703 -0.12115743
0003f0 66 39 df bd b6 67 a3 3d 01 9d 0e 3e 01 ad 64 bc
       -0.1089962 0.07978766 0.1392708 -0.013957263

fc1_batch.weight f4 [400]
000000 74 da 3f 3d 1d 5f 9b 3e 51 98 a4 3d ea 7e a6 3e
       0.046839193 0.30346003 0.080368645 0.32518703
000010 98 4c ec 3e 45 da e9 3e 77 73 da 3e 96 7a e3 3e
       0.46152186 0.4567434 0.42666218 0.44429463
000020 c2 6f 67 3f e3 a7 58 3f 03 3c 45 3d e0 0c 1c 3f
       0.90404904 0.84631175 0.048152935 0.60957146
000030 09 c1 78 3e be 27 cc 3e d6 f4 9b 3e 82 30 80 3e
       0.24292387 0.3987407 0.30460232 0.2503701
000040 da 38 67 3e c9 f2 93 3b 6c 45 9a 3e b0 c4 ca 3e
       0.22580281 0.004515026 0.3013109 0.39603186
000050 76 e8 0c 3d 0a 84 26 3f a6 5f 6c 3e 64 15 b2 3e
       0.03440138 0.65045226 0.23083362 0.34781945
000060 e8 bf 31 3f d3 25 7a 3f c3 2a 3a 3f cf f7 04 3e
       0.6943345 0.97713965 0.727215 0.12985156
000070 7c ef 5d 3f 9f 5d eb 3e 72 b5 2b 3f d5 32 44 3e
       0.8669355 0.45969865 0.6707374 0.19160016
000080 f6 30 76 3f 2c 55 3a 3e 99 c0 4f 3f d7 83 69 3f
       0.9616846 0.18196553 0.81153256 0.91216797
000090 18 e2 0a 3f f0 12 65 3f b8 b8 4a 3f b1 61 d5 3e
       0.5425124 0.8948202 0.7918811 0.41676095
0000a0 b1 c9 15 3f e8 02 02 3f dd c9 d5 3e 36 25 7b 3d
       0.5851088 0.50785685 0.41755572 0.061314784
0000b0 08 e0 49 3f 99 f4 d9 3c ff 8f 2f 3f 61 cc a5 3e
       0.7885747 0.026605891 0.68579096 0.3238249
0000c0 c8 28 06 3f 94 87 ca 3e ae d7 62 3e 47 54 a5 3e
       0.5240598 0.39556563 0.22152588 0.3229086
0000d0 ad 78 42 3d 79 84 44 3e 8f 1f 44 3f 73 2d 6a 3f
       0.047478367 0.1919116 0.76610655 0.914756
0000e0 70 77 a2 3c 47 c7 c3 3e 08 17 0f 3f d8 d2 67 3e
       0.019832343 0.38237974 0.5589452 0.22639024
0000f0 f4 db 14 3f cf fc e5 3e 19 4b 16 3f c7 f2 66 3e
       0.5814812 0.4491944 0.5870834 0.2255355
000100 1b e3 75 3d a6 76 e3 3e c2 83 57 3f c4 ef 70 3f
       0.060031038 0.4442646 0.8418542 0.94115853
000110 9f 35 68 3f f4 fb 03 3f 8f 74 5d 3f 71 b5 96 3e
       0.9070682 0.51556325 0.8650598 0.29435304
000120 0f 1e 5f 3f 83 c8 15 3f 84 e5 f9 3d ee 67 b0 3e
       0.8715524 0.5850908 0.1220198 0.34454292
000130 8d e6 71 3f cb b5 a3 3e 86 ae 2a 3c ea 06 7e 3f
       0.9449242 0.31974635 0.010417586 0.992293
000140 5c 25 25 3f 42 ff 1c 3f ea ed 8f 3e e9 2f 75 3f
       0.6451013 0.6132699 0.28111202 0.9577623
000150 2b 64 67 3f 4c 77 b0 3d 68 cc 37 3f a4 81 75 3f
       0.9038722 0.08616504 0.71796274 0.9590094
000160 53 1a fb 3d 1e 6e 23 3f 5c 11 94 3e b8 83 5d 3f
       0.1226088 0.638399 0.28919494 0.8652911
000170 bd fd 54 3f 4c 0f 42 3f 2a da b4 3e 05 c2 66 3f
       0.83199674 0.7580459 0.35322696 0.901398
000180 2a 24 c2 3e 65 bd 55 3f 2c ae 3b 3f d4 77 ab 3d
       0.37918216 0.8349212 0.7331264 0.08372465
000190 3f f1 38 3e 50 1d e5 3e 1e 0d b9 3d eb 6e bf 3e
       0.18060778 0.44748926 0.09035705 0.3738931
0001a0 98 60 45 3f ba 54 7b 3f 8e f1 ee 3e 20 64 c1 3e
       0.77100515 0.9817616 0.46668667 0.37771702
0001b0 8f 69 f5 3d 78 26 28 3f 48 2a 12 3f 6a 57 34 3f
       0.11983024 0.656837 0.57095766 0.70445883
0001c0 81 69 a9 3d 10 c7 07 3f 2d 4f 93 3e e8 6b 6e 3e
       0.082720764 0.5303812 0.28771344 0.2328335
0001d0 66 9b 3f 3f b8 87 b1 3d 56 b4 46 3e 22 8e 5b 3f
       0.74846494 0.086684644 0.1940473 0.8576375
0001e0 75 ea 30 3e 85 95 55 3f 36 45 a0 3e 33 ec 22 3e
       0.17276938 0.83431274 0.31302804 0.15910415
0001f0 88 20 f0 3e 18 65 3e 3e 76 e3 1f 3f 49 c9 58 3f
       0.4689982 0.18593252 0.6245645 0.84682137
000200 1e 78 f3 3d e0 3d 21 3e 80 30 d8 3e 9d 55 02 3f
       0.11888145 0.1574626 0.42224503 0.50911885
000210 fb 93 70 3f 9d e2 69 3f 52 87 6b 3e 28 13 50 3f
       0.939758 0.9136141 0.2300084 0.8127923
000220 98 9d 49 3f 87 ed ea 3d f2 0b 4f 3f 09 ee 7b 3f
       0.78756094 0.11471086 0.808776 0.9841009
000230 19 56 c8 3e 8b ad 6e 3f c2 3d 78 3f b8 5f 1f 3f
       0.39128187 0.93233556 0.96969235 0.6225543
000240 ed ff 01 3f 8b d7 6c 3f 3c c7 56 3f 5a 65 7a 3f
       0.50781137 0.9251639 0.8389776 0.978109
000250 da 9a 30 3e f1 8f 2b 3f 84 34 4b 3f a1 57 38 3e
       0.17246571 0.6701651 0.7937701 0.18002178
000260 20 17 15 3f d7 6d 65 3e ad c3 11 3e 4e 1f 7e 3f
       0.5823841 0.22405182 0.142348 0.9926652
000270 7b 6f ca 3d d0 0d 31 3d 34 e3 68 3f 11 17 4c 3f
       0.098845445 0.043226063 0.90971684 0.79722697
000280 66 3f 1e 3f ca 6c 5e 3f 70 80 02 3f 00 62 ab 3e
       0.6181549 0.8688475 0.5097723 0.33473206
000290 f0 5b d8 3e c6 c5 18 3f 9a 19 0b 3d 44 2a 1f 3d
       0.42257643 0.5967678 0.033959962 0.038858667
0002a0 75 ca a1 3e 6f df 10 3f 29 39 53 3f a0 cd 87 3e
       0.31599775 0.5659093 0.82509094 0.26524067
0002b0 dc a0 a3 3d 8c b8 4a 3d bd f6 f6 3e e1 e2 3d 3e
       0.07989666 0.049492404 0.4823512 0.18543579
0002c0 a5 86 c3 3e e1 3a 37 3e ac 58 38 3f fd e0 a7 3e
       0.38188663 0.17893554 0.720103 0.3278884
0002d0 32 aa 18 3e aa 51 2a 3f 56 f4 f4 3e b4 ef 4c 3f
       0.14908674 0.6653086 0.47842664 0.8005326
0002e0 bb e5 06 3f c0 aa 35 3f 45 42 2b 3f 88 b2 60 3e
       0.5269429 0.7096367 0.66897994 0.21943104
0002f0 62 f4 63 3f ef 40 19 3f bd ec d8 3e 2d 4f 13 3f
       0.89044774 0.59864706 0.42368117 0.5754269
000300 82 48 74 3f 5c dc 5d 3f 88 05 6a 3f 88 c0 57 3e
       0.9542314 0.86664367 0.9141469 0.21069539
000310 25 b5 c3 3e 7e ec 1c 3f 26 33 d8 3e c5 c8 d0 3e
       0.3822414 0.6129836 0.42226523 0.40778175
000320 3d d1 5e 3f 6d 36 70 3e 83 8e 8b 3e cd 32 12 3f
       0.8703802 0.23458262 0.27257165 0.57108766
000330 84 4f 89 3e 29 6f 58 3e bb 85 c4 3d c8 9c 58 3f
       0.26818478 0.21136154 0.095958196 0.8461423
000340 81 ba 80 3e 1e 66 e0 3e 6c de 52 3f 93 20 b2 3c
       0.2514229 0.4382791 0.8237064 0.021744048
000350 c7 f0 fe 3e f8 94 88 3e b2 86 0c 3e 13 43 12 3f
       0.49793074 0.26676154 0.13723257 0.571336
000360 8a 28 26 3f 6d 7e 4f 3f 87 de 7f 3f af 8f 27 3f
       0.6490561 0.81052285 0.99948925 0.6545362
000370 62 33 f9 3e 0e 15 73 3e fc ab b5 3e 7a f6 43 3d
       0.48672014 0.237385 0.35482776 0.04784248
000380 63 45 30 3d 33 04 e9 3d 26 36 57 3f ae 7a 38 3f
       0.043034922 0.11377754 0.84067 0.72062194
000390 a6 a2 73 3f 24 0a 58 3f 16 bb 57 3f 2c 10 1c 3f
       0.95170057 0.84390473 0.84269845 0.60962176
0003a0 32 e6 41 3f 7e 7c 2d 3f 8a 83 d1 3d 2d e2 d5 3d
       0.75741875 0.67768085 0.10230167 0.1044353
0003b0 10 79 65 3f d3 0e 52 3f db 6c be 3e 3d 1d 61 3e
       0.8963785 0.8205387 0.37192425 0.2198381
0003c0 b9 03 20 3e 94 59 03 3e f2 cd ad 3e 1d c0 0b 3f
       0.1562642 0.1282714 0.33946186 0.54590017
0003d0 dd 58 02 3f 0a 45 30 3f 8d 75 0d 3f 39 a0 1d 3f
       0.50916845 0.68855345 0.55257493 0.61572605
0003e0 56 84 60 3f 73 44 1a 3f ad 30 ef 3e 9e c8 3d 3f
       0.8770193 0.60260695 0.46716824 0.7413424
0003f0 bd f0 29 3f 72 dc 34 3f 12 fd bc 3e 47 f8 12 3c
       0.6638296 0.7064887 0.36911827 0.008970327

fc1_batch.bias f4 [400]
000000 26 75 1a ba 62 3c bf bc d1 a9 e8 bc db c5 84 3c
       -0.000589209 -0.023344222 -0.028401287 0.016207626
000010 7e 95 65 bd e0 91 b0 3b 5d 1c 7a bc 61 e0 d9 3c
       -0.05605077 0.0053884834 -0.015265551 0.02659625
000020 b9 b5 0c bd a0 31 87 bc 2c 56 0c 3b b0 ab ee 3c
       -0.03435299 -0.016503155 0.0021413667 0.029134601
000030 b2 d7 ad 3c 38 f3 dc 3c 61 02 4a bc 2e 27 96 3c
       0.021221016 0.026971444 -0.012329669 0.01832923
000040 18 30 c6 bc d1 3c d2 39 fd d6 fb 3b 90 75 e6 3c
       -0.024192855 0.00040099633 0.0076855407 0.02813223
000050 a2 e3 20 bc 13 88 cf bc f0 61 2f bc 2e a3 0c bc
       -0.009819897 -0.02533344 -0.010704502 -0.008583827
000060 d7 73 a1 3c b9 5a 27 3d 4d 2a 0c bd 30 b8 b6 3c
       0.019708557 0.040858004 -0.03422003 0.022304624
000070 6e de 12 3d 40 0c 8b 3d aa 5e 3c bb d9 0f 82 39
       0.035856657 0.06789446 -0.0028742948 0.0002480734
000080 ff 7f 88 3d cd ce e2 3b 19 e7 0e 3d 84 7c 1d ba
       0.06665038 0.006921625 0.03488836 -0.0006007629
000090 6d bf e3 bc 8e a9 b5 bc 24 bd 41 3d 0b a3 01 bc
       -0.02780124 -0.022175577 0.04729952 -0.007912408
0000a0 a4 a8 13 3d 51 2b b9 37 76 1c 71 bc 47 04 b2 bc
       0.0360495 2.207389e-05 -0.014716258 -0.021730555
0000b0 57 65 d7 3c e5 4c 84 bb d0 ef 4c 3d f9 fd 1b 3d
       0.02629344 -0.004037487 0.05003339 0.038084004
0000c0 ba b4 1e bd f7 a5 f7 3c cd d1 f0 bb 33 09 49 3d
       -0.038746573 0.030230505 -0.007349229 0.04908104
0000d0 ae 98 20 3b 98 56 f7 bb 81 9a 52 3d c4 7e 78 bd
       0.0024505067 -0.0075481646 0.051416878 -0.060667768
0000e0 a6 28 2f bc 30 18 ed bb 72 8c 58 bd e2 fe bd 3c
       -0.010690844 -0.0072355494 -0.052868314 0.023192827
0000f0 b7 ef 44 ba 97 2c 1b bd 77 fd 9d bc 05 6d 0e 3b
       -0.0007512527 -0.03788432 -0.0192859 0.0021732461
000100 64 f2 b4 3b 81 be 3a bd 0c f7 2e bc 48 ff 17 bd
       0.0055220593 -0.045591835 -0.010679018 -0.03710869
000110 56 5b 92 3d c1 60 05 3d 2b 24 78 bc 17 5d c4 bc
       0.07146327 0.032562975 -0.015145342 -0.02397017
000120 b0 77 85 3d 4c 50 1f 3c 45 5f 64 3c 2a fe 47 bb
       0.06516969 0.009723734 0.01393873 -0.0030516484
000130 11 8a 92 bc c2 7e 0a 3d 9b 66 5e bc 7a 00 eb 3c
       -0.0178881 0.033812292 -0.013574268 0.02868675
000140 1d df dd 3c 33 29 ba bc 23 4b ae 3c d4 ec c8 3c
       0.027083928 -0.022724723 0.021276062 0.024526991
000150 e9 03 6d bc 7e 84 08 3d 90 68 28 3c 47 ea ca bc
       -0.014466264 0.03332948 0.010278836 -0.024769915
000160 7b 14 c6 b9 6f ac 62 3b 7c 70 f9 3c 13 f2 2a bd
       -0.00037780762 0.0034587642 0.030449145 -0.041734766
000170 c2 83 88 bc 0e 8b 36 3d bf 75 af bc 26 7d 34 bd
       -0.01666439 0.044566207 -0.02141845 -0.044064663
000180 ec 4c b6 3c b3 21 c0 bc 86 49 a8 3c c0 02 4b 3d
       0.022253476 -0.023453569 0.020542871 0.04956317
000190 ed 04 03 3d b2 cf fa bc 21 ed 0d 3c 75 96 4b 3c
       0.03198712 -0.030616615 0.008662493 0.0124260085
0001a0 19 3d 9e bc 53 78 c6 3d ac 29 e5 3c ba a2 21 bc
       -0.019316243 0.09690919 0.027973972 -0.009865457
0001b0 28 df 2b bc a1 56 52 bd 47 30 bd 3b 50 b6 b2 bc
       -0.010490216 -0.051352147 0.0057735774 -0.021815449
0001c0 4c f9 a1 bc ce e3 06 3d 79 55 19 ba 47 ca 03 3b
       -0.019772194 0.032932095 -0.0005849223 0.002010958
0001d0 2c 0b c7 3a a8 d3 98 3b 5e ed 93 3c 53 bd 8f 3b
       0.0015185825 0.0046639033 0.018057521 0.004386583
0001e0 fa 36 b2 bc 4b 17 65 bd e0 40 85 3c 18 a5 15 3c
       -0.02175473 -0.055930417 0.016266286 0.0091336
0001f0 95 b6 f1 bc f5 97 53 3c 05 aa bb bc 90 59 23 39
       -0.029506007 0.012914647 -0.02290822 0.00015578256
000200 a6 a7 38 3b e0 22 9a 3c 5a 85 00 3d 91 63 b5 bc
       0.0028176098 0.018815458 0.031377174 -0.022142204
000210 11 0c 95 bd 9e 12 dc 3b 53 10 26 bc 82 8e 2e bd
       -0.07277692 0.0067160865 -0.010135728 -0.042616375
000220 e0 ba 14 3d fe 60 07 bc 45 a0 22 3c 0a 3b bf 3c
       0.03631103 -0.008262871 0.009925907 0.023343582
000230 d1 86 8a 3c 35 39 36 bd a6 24 aa bc 77 68 31 3b
       0.016909989 -0.04448815 -0.020769428 0.0027070323
000240 32 89 4b bc 8f f8 90 bd 93 1b 4c 3c 96 35 91 bd
       -0.012422847 -0.07078659 0.012457746 -0.07090299
000250 30 15 f8 3c 43 8e 11 3d 99 24 fa 3b 92 33 2e bc
       0.03028354 0.035536062 0.0076337573 -0.0106324125
000260 4c bb 39 3d 3d aa 69 bc 26 73 d7 3c 14 d5 84 3d
       0.045344636 -0.014261779 0.026300024 0.06485954
000270 99 aa 0d bc c8 46 f4 bb 17 38 2d 3d d2 13 5b bc
       -0.008646631 -0.007454727 0.04228982 -0.013371425
000280 0b 99 67 bd 5f f7 80 bd 55 6b 0c 3c 1c dc bc 3c
       -0.056542438 -0.06297182 0.008570512 0.023054175
000290 27 83 e6 bc b1 9d 95 bc 7a 12 e9 bb cd cf 1e 3c
       -0.02813871 -0.01826367 -0.0071127983 0.009693098
0002a0 3f bf 12 3d aa 48 37 bd fe 63 c1 bc 92 53 85 3b
       0.035826918 -0.044747032 -0.02360725 0.0040688002
0002b0 b1 d5 2b 3c 56 3a 97 3c a2 6f 8d 3c c8 c8 b3 3c
       0.01048796 0.018460434 0.017265145 0.021946326
0002c0 39 0a 74 bc 3f d2 9c 3c de 09 83 bb b4 84 52 b6
       -0.014895015 0.019143222 -0.003998979 -3.1369682e-06
0002d0 d0 40 bf 3a 73 5a 21 bd 92 1e c4 bc 09 c3 2a bb
       0.0014591459 -0.0393929 -0.023940358 -0.0026056191
0002e0 a1 15 ab bc 97 07 93 3b 46 b0 06 3d 19 96 b5 3c
       -0.020884337 0.0044869888 0.03288295 0.022166299
0002f0 ef 36 ab 3c 3d 07 0a bd 60 ed ce bc 07 05 94 bc
       0.020900218 -0.03369831 -0.025259674 -0.018068803
000300 e6 a9 43 3d 9c 1d 54 3c d1 91 a1 bc 74 a7 5d 3c
       0.04776945 0.012946513 -0.019722851 0.0135286935
000310 b8 5e db bb 3d 13 ca 3c b3 3c 2c 3d a6 df fb bc
       -0.006694641 0.024667377 0.042050075 -0.030746292
000320 60 f2 05 3d 46 4e 82 bc cb 82 b2 bc e4 6e 0d 3d
       0.03270185 -0.015906464 -0.021790883 0.03452958
000330 1b 6b 78 3b e4 9a d2 3a b4 8e 1a bc a9 a7 e2 bc
       0.0037905637 0.001606789 -0.009433437 -0.027667837
000340 9a 70 9a 3c 54 6d 3a 3c f1 fb 10 bd 61 56 00 3c
       0.01885252 0.011378605 -0.03539652 0.007833094
000350 de b1 4b bd 5a ad 12 bd 82 dc 31 bc 4e 87 57 bd
       -0.049730174 -0.035809852 -0.010855796 -0.05261927
000360 f2 00 a3 bc a9 72 09 3d a8 83 8d bd 1c 05 80 bc
       -0.019897912 0.033556614 -0.06909877 -0.015627436
000370 c6 55 e8 3c f7 33 1c ba 7f c9 df 3a 48 af 2c bb
       0.028361212 -0.0005958671 0.00170736 -0.0026349593
000380 95 64 a3 3c 11 ae 0f bc 54 0c 8e 3c 97 a8 82 3c
       0.019945422 -0.008769528 0.017339863 0.01594953
000390 1a 40 e2 bb 30 f8 17 3d a4 3f da bb c6 dd 5e bd
       -0.006904614 0.037101924 -0.0066604186 -0.05441072
0003a0 7b 9d 9a 3c 6f ee c1 3c 4d 0d e5 bb 8c 55 7c bb
       0.01887392 0.023673264 -0.006990111 -0.0038503138
0003b0 af ae 4f bc 4d 63 0d 3c 66 0c 37 3c 3d 91 07 3c
       -0.012675925 0.008629632 0.01117239 0.008274374
0003c0 c9 a1 19 bd 9d ad f5 bc 7b 3d b4 bc 02 c9 2a bd
       -0.037507806 -0.029990012 -0.022001972 -0.041695602
0003d0 55 e4 af bc cf ff 45 3d 75 14 aa bc 17 6e ad bc
       -0.021471182 0.04833966 -0.020761708 -0.021170659
0003e0 0e 6a 36 3d c6 0e 15 bc 4c 82 bf bc 72 90 26 bd
       0.044534735 -0.009097761 -0.02337756 -0.040665098
0003f0 eb 94 25 3d 63 4b 13 bd 15 39 96 3c b1 fd 71 3b
       0.040425222 -0.035960566 0.018337766 0.0036924894

fc1_batch.running_mean f4 [400]
000000 0c d4 8f 3b 08 0c 2f 3d 15 d2 3c 3c dd b7 dc 3b
       0.0043892916 0.042736083 0.011524697 0.0067357854
000010 c2 17 0b 3e 53 74 18 3e 69 5b 42 3d 7e a6 0e 3e
       0.13583282 0.14888124 0.047450457 0.13930699
000020 ac 58 55 3d 2d 60 82 3d 69 c5 9f 3d 64 41 b8 3d
       0.052086517 0.06366 0.07801325 0.08996847
000030 d6 b6 8d 3d 8d 17 d5 3d bc 33 1a 3e c0 7f a1 3d
       0.06919639 0.104048826 0.15058798 0.078856945
000040 4d d5 4e 3b ae 04 9f 3d c6 00 30 3e aa 25 22 3e
       0.0031560243 0.077645645 0.17187795 0.1583468
000050 a4 ed dc 3d c7 33 a4 3c a8 46 33 3e 5c c8 83 3d
       0.10787514 0.02004422 0.17507422 0.064347
000060 f1 95 30 3c a7 96 68 3d e8 33 d8 3d fa c3 46 34
       0.010777936 0.0567843 0.10556775 1.8511483e-07
000070 dc 27 0e 3c ae 14 19 3e 5a 2f 81 3c b4 5f 17 3c
       0.008676495 0.14949295 0.01576965 0.009239126
000080 22 e6 b0 3c 47 ce 93 3d 4d 47 db 3a 97 25 87 3d
       0.02159411 0.07217079 0.0016729623 0.065989666
000090 b1 8b 37 3d 32 1b 73 3d 49 bc d1 3c aa c2 b4 3d
       0.044810954 0.059352107 0.025602477 0.08826192
0000a0 db 19 51 3d 2a 95 02 3e e6 a7 db 3d 02 bb de 3a
       0.05105005 0.12752214 0.107253835 0.0016992989
0000b0 87 b3 1b 3d 88 1d 17 3e 27 b5 78 3c 47 f7 c1 3c
       0.038013007 0.14757359 0.015179909 0.023677481
0000c0 63 ab d3 3c 70 e0 38 3c 11 29 73 3c 11 16 92 3d
       0.02583856 0.011283979 0.014841334 0.07133115
0000d0 a0 7f 1e 3e 62 86 67 3d f0 f7 0a 3e a8 ba 46 3d
       0.15478373 0.05652464 0.13571143 0.048517853
0000e0 8b e9 f3 3a 81 e5 b0 38 c2 14 0a 3c a6 04 81 3d
       0.001860903 8.4350824e-05 0.008427801 0.06299715
0000f0 be 4b ca 3c f9 73 d4 3b 22 8f a6 39 78 7b 2c 3d
       0.02469432 0.0064835516 0.0003176863 0.042109936
000100 57 43 01 3e 5f c2 05 3d 6b 4d 2f 3e 53 98 1b 3c
       0.12623344 0.03265607 0.17119376 0.009496766
000110 2b 58 3a 3e 81 2a d0 3b ec b3 0c 3e 16 1a 0e 3d
       0.18197696 0.006352723 0.1374051 0.034692846
000120 ea 55 42 3e 8f 73 2e 3e 1d 45 73 3c 4b d1 3b 3c
       0.18978086 0.1703627 0.014848021 0.011463474
000130 d7 d9 6d 3c 35 dc 95 3d c8 92 0a 3b 46 15 aa 3c
       0.014517269 0.07317392 0.0021144617 0.020762097
000140 47 6b 21 3c e0 52 c7 3d d1 01 12 3e 8b f4 a5 3d
       0.009852237 0.09732604 0.14258505 0.081032835
000150 50 75 09 3d 81 18 4d 3b 25 62 a2 36 24 05 6b 39
       0.033559144 0.0031295123 4.8394018e-06 0.00022413261
000160 8f 9f d1 3b ac f7 80 39 c0 c6 9c 3d 95 ca b7 3b
       0.0063971947 0.00024598592 0.07655096 0.0056088665
000170 a9 7b b0 3d 16 30 03 3e 28 3a 03 3d db e6 75 3d
       0.08617336 0.12811312 0.032037884 0.060034614
000180 9d 0d 02 3e 42 e3 a6 3b 95 54 21 3e 36 9f 2c 3e
       0.12700506 0.005093009 0.15754922 0.16857609
000190 c1 0d 2c 3e 6f 75 5b 3b 8e 15 dc 3d 45 a0 8c 3c
       0.16802122 0.0033486744 0.10746299 0.017166266
0001a0 6d 52 50 3d 3c fd 37 3e 5c eb a8 3d 10 ae 5d 3d
       0.050859857 0.17967695 0.08248016 0.054121077
0001b0 a5 1e 8d 3c ae d8 60 3b 20 d9 1f 3e 95 70 87 39
       0.017226527 0.0034308839 0.1561017 0.00025833087
0001c0 4b ed 53 3d e2 02 2d 3d d7 8d 04 3c ce 9d e7 3b
       0.051739972 0.042239077 0.008090458 0.0070683723
0001d0 d4 72 34 3a 99 e8 86 3b ef 31 5b 3d 56 0f a5 3d
       0.0006883566 0.0041170833 0.053514417 0.08059566
0001e0 5e 83 39 37 77 56 58 3c 08 09 96 39 42 3e fb 3d
       1.1057446e-05 0.013204209 0.00028616958 0.12267734
0001f0 91 c2 67 3b db 96 f2 3c 32 af cb 3c a5 64 94 3a
       0.0035363773 0.02961295 0.024863813 0.0011321498
000200 bd 00 02 3e b8 b8 a6 3d 13 3e e0 3d 32 9a f7 3d
       0.12695594 0.08140701 0.1094934 0.12089957
000210 1e 3a d1 3a 39 fe c7 3d 92 03 0e 3e 62 e7 b5 3b
       0.0015962755 0.09765286 0.1386855 0.0055512646
000220 8a fa f9 3c 6f cf 18 3d 8c d7 3b 39 82 8d 0f 3d
       0.030514974 0.0373072 0.00017914007 0.03504706
000230 af 0b 0a 3d 3f 02 d6 3b 02 bd 0e 3e 4f 15 2d 2e
       0.03370255 0.0065310295 0.13939288 3.935457e-11
000240 d2 35 95 3c 48 b9 0a 3d d5 c1 45 3d b1 13 ff 3c
       0.01821414 0.033868104 0.048280556 0.03113732
000250 7f 5b e6 3c 63 c2 9f 3b 60 ff 7e 3a 72 5c a5 3c
       0.0281198 0.0048754676 0.0009727385 0.020185683
000260 76 db 91 3b 39 e5 bd 3b 4d a0 b7 3c a2 c9 45 3e
       0.0044512106 0.0057951477 0.022415305 0.19315198
000270 84 1a 08 3e 26 48 56 3d 32 b2 0d 3c b7 36 51 3b
       0.13291365 0.0523149 0.008648442 0.0031923482
000280 14 34 20 3e fb f2 9b 3c ab 96 45 3d 71 ec e2 3b
       0.15644866 0.01903676 0.04823939 0.0069251587
000290 9c 09 6b 3c 1d a8 c7 3d fc ad f4 3c e7 c5 c9 3c
       0.014345553 0.09748862 0.029868118 0.0246305
0002a0 8e 84 59 3b a3 d8 94 3b 53 93 4e 39 e4 f6 9b 3a
       0.003319058 0.0045424267 0.00019700573 0.0011899141
0002b0 31 ba 23 3e 49 5d 33 3d 43 7f 68 3d 2f 0b 0b 3e
       0.15988995 0.043790136 0.05676199 0.13578485
0002c0 a0 20 9b 3d b5 5e 53 3c 78 0e 14 3e d2 5d 1d 3d
       0.07574582 0.012900998 0.14458644 0.038419552
0002d0 52 58 eb 3a 03 b2 e3 3d 45 e3 79 3b d2 99 a5 3b
       0.0017955399 0.111179374 0.0038129848 0.005053737
0002e0 9e 7b a1 3c 76 56 43 3d 16 89 2c 3e 4b 86 83 36
       0.019712266 0.047689877 0.16849169 3.919738e-06
0002f0 28 ec 21 3b c6 0a 03 3c a9 76 17 3c fb 5f 2c 3e
       0.002470741 0.007998174 0.009244599 0.16833489
000300 99 b2 7a 3d 89 40 17 3e b8 90 5c 3d 38 9d e8 3d
       0.06120548 0.14770712 0.053848952 0.11358112
000310 e6 c2 e8 3b 7b 0f aa 3d f4 0f a9 3d d1 eb 96 3d
       0.007103312 0.08303734 0.08254996 0.07369197
000320 c5 ca 10 3b 3e ec 3f 3c 5d e7 16 3e d0 29 92 3c
       0.0022093516 0.011714039 0.14736696 0.017842203
000330 b8 43 e3 36 48 3b 5f 3a 2f fb d2 3c 5c ef 8e 3d
       6.7730107e-06 0.00085156085 0.02575454 0.06979248
000340 ff 92 6a 3c 10 3b 1b 3e e7 89 78 3d bd 3b cf 3a
       0.014317273 0.1515925 0.06067839 0.001581065
000350 fa cd 1f 3d c8 c0 09 3e f8 fe df 3d 3b 8f 24 3c
       0.039014794 0.13452446 0.10937303 0.010043914
000360 be c5 c7 39 f1 e6 87 3d 67 1c be 3c 73 db 5e 3c
       0.00038103567 0.066358455 0.023206903 0.013602125
000370 a6 30 f0 38 57 c8 27 3e b4 9b d0 3d 6c 10 30 3a
       0.00011453153 0.16385017 0.10185948 0.0006716314
000380 b6 05 07 3d 81 13 80 3c 5b 26 32 3e 28 b1 dc 3d
       0.03296443 0.0156343 0.17397444 0.107759774
000390 ce 8e 8c 3d c3 a7 13 3d 91 ce d4 3b 0d ba 80 3d
       0.06863175 0.036048662 0.006494351 0.06285486
0003a0 dc 64 ba 3d fe 91 23 3d 9d c6 24 3e 7d d3 de 3d
       0.09101269 0.03993415 0.1609139 0.10880182
0003b0 41 ca 06 37 6a 9e 05 3d f6 c5 f0 3b 31 81 06 3d
       8.034113e-06 0.03262178 0.0073478175 0.03283805
0003c0 58 8c d4 3c 17 c0 35 3d 8d df ce 3d af 08 db 3d
       0.025945827 0.044372644 0.10101233 0.10695016
0003d0 41 e8 4c 3d 89 54 19 3c 19 e2 90 3a 69 6b ae 3d
       0.050026182 0.009358534 0.001105371 0.085165806
0003e0 f9 4e d2 3d cd e1 20 3e 56 67 12 3b 35 2d c4 3b
       0.10268969 0.15711136 0.0022339425 0.0059868344
0003f0 1e 98 a5 3a 65 eb ae 3d 66 26 17 3e e1 c2 cc 3c
       0.0012633835 0.08540992 0.14760742 0.02499527

fc1_batch.running_var f4 [400]
000000 f5 54 6f 39 3d 37 3a 3b c2 8a 43 3a 6d 1a 02 3a
       0.00022824465 0.0028414272 0.0007459336 0.0004963044
000010 87 b5 b7 3b 4c 83 de 3b 12 5a 80 3b 78 92 0e 3c
       0.0056063565 0.006790554 0.003916987 0.008701913
000020 c7 2d 6d 3b da 07 d5 3b e3 5e 9a 3b ce 12 da 3b
       0.0036190616 0.00650118 0.0047110184 0.0066550737
000030 58 56 81 3b 41 64 bc 3b ed 13 c0 3b 93 57 c2 3b
       0.0039470606 0.005749256 0.0058617503 0.00593085
000040 6f 62 68 39 11 21 80 3b e7 00 17 3c 02 de d0 3b
       0.00022161914 0.003910192 0.009216524 0.0063741216
000050 53 83 80 3b 7e 5c 11 3b 42 29 ca 3b f5 2e c9 3b
       0.003921905 0.0022180374 0.006169469 0.006139631
000060 fe 7a 5b 3a 54 1b 7f 3b 6a ca cb 3b fb 6c 16 30
       0.0008372514 0.00389262 0.006219198 5.472455e-10
000070 ce fa 09 3a da 79 bb 3b b1 41 ae 3a e0 b6 45 3a
       0.0005263508 0.005721313 0.0013294724 0.0007542204
000080 d5 32 07 3b 6f 08 d5 3b 87 8a 15 39 62 b8 7f 3b
       0.0020629663 0.0065012495 0.00014261353 0.0039019813
000090 cc 05 4b 3b 4b 29 56 3b b8 b5 b9 3a 5d e8 91 3b
       0.0030978797 0.003267842 0.0014168536 0.0044527487
0000a0 dc 01 58 3b c7 51 95 3b fa 7b 47 3b 21 84 b4 38
       0.0032960093 0.0045568678 0.0030438886 8.60768e-05
0000b0 53 e7 47 3b ca 8c 0b 3c 39 8c 9b 3a 15 b6 15 3b
       0.003050287 0.008517453 0.0011867351 0.0022844125
0000c0 4d 0c 3d 3b 2d c4 18 3a 47 2b c1 3a 58 07 86 3b
       0.0028846443 0.00058275723 0.0014737629 0.004090231
0000d0 88 e7 d5 3b 14 cb 9a 3b 36 2a b9 3b 05 e2 98 3b
       0.006527845 0.004723916 0.005650784 0.0046656155
0000e0 a9 a5 ce 38 b9 1c 99 35 b8 22 f1 39 dc 00 44 3b
       9.853702e-05 1.1407748e-06 0.0004599297 0.0029907739
0000f0 65 2e fb 3a 97 c1 01 3a 17 f9 57 37 75 52 2e 3b
       0.0019163607 0.00049498066 1.2872994e-05 0.0026599441
000100 bd 3c 9e 3b db 30 18 3b db bb fd 3b e2 0f 71 3a
       0.004829018 0.002322248 0.0077433414 0.0009195787
000110 84 84 c3 3b bc c2 01 3a 2c 03 ce 3b 59 94 09 3b
       0.005966725 0.0004949977 0.006286999 0.0020992963
000120 60 ab ee 3b 33 b5 07 3c 2d 9c 91 3a 61 e1 42 3a
       0.007283613 0.008282947 0.0011109166 0.0007434097
000130 30 c6 59 3a 39 3d b6 3b ca a8 c4 38 da 26 ca 3a
       0.00083074253 0.0055614975 9.377448e-05 0.0015422956
000140 51 09 59 3a f3 9f bf 3b b4 50 04 3c a3 4e 99 3b
       0.00082792813 0.005847925 0.008075882 0.0046785637
000150 12 58 0f 3b f3 23 1e 39 c0 7d 9a 33 9a 83 af 36
       0.0021872562 0.00015081446 7.1940576e-08 5.230727e-06
000160 cf 64 55 3a 20 e6 24 37 9b b0 8b 3b 42 9b 14 3a
       0.0008140327 9.828742e-06 0.0042629964 0.0005668887
000170 22 1c 89 3b 6f 96 b4 3b 3e 2c 11 3b a7 cb ec 3b
       0.004184262 0.005511097 0.0022151615 0.0072264257
000180 ab f2 ae 3b 70 85 e9 39 dd af ef 3b 86 6d 26 3c
       0.005338987 0.00044540642 0.0073146657 0.010157948
000190 7d 6e c2 3b 3e 8d 09 39 55 25 85 3b 58 9d d4 3a
       0.0059335814 0.00013117955 0.004063288 0.0016221208
0001a0 9c e7 8b 3b 36 ec a3 3b 0d bc ac 3b fb 0e ba 3b
       0.0042695533 0.005002524 0.005271441 0.0056780553
0001b0 68 db ba 3a 86 41 73 39 f2 4b ca 3b f8 d5 18 37
       0.0014256062 0.00023198695 0.006173604 9.1097245e-06
0001c0 ce 77 65 3b dd de 53 3b c8 dc c0 39 e8 00 4f 3a
       0.0035014036 0.0032328882 0.0003678559 0.00078965584
0001d0 f2 fc 07 38 dc e9 94 39 7c 31 98 3b f7 9d bc 3b
       3.2422082e-05 0.00028403 0.004644571 0.0057561356
0001e0 69 6c 54 34 4e 20 71 3a 32 ee 82 37 f8 b9 d5 3b
       1.9783478e-07 0.0009198234 1.5608126e-05 0.0065224133
0001f0 33 56 94 39 d3 91 26 3b ec c8 0f 3b 71 6f 1d 38
       0.00028292983 0.0025416508 0.0021939827 3.7535505e-05
000200 63 6e b4 3b 9c f2 a4 3b 02 b7 aa 3b 99 3d b9 3b
       0.005506323 0.005033804 0.0052098045 0.005653095
000210 1a 48 ae 38 d9 44 92 3b fd 97 0b 3c 91 3b a3 39
       8.3103965e-05 0.0044637737 0.008520124 0.00031134163
000220 e5 87 22 3b 74 39 21 3b b6 1d c2 36 69 39 00 3b
       0.0024800238 0.0024600895 5.7851094e-06 0.001956547
000230 16 a7 45 3b 01 2b 0f 3a 81 18 e9 3b 91 8d fb 2b
       0.0030159405 0.0005461425 0.007113517 1.7873915e-12
000240 8b fe bd 3a d7 30 6d 3b 8e c9 7f 3b bc 17 37 3b
       0.0014495415 0.003619244 0.0039030048 0.002793773
000250 3d ae 05 3b a8 a3 de 39 ec 66 40 38 91 52 d6 3a
       0.0020398044 0.00042465073 4.587222e-05 0.0016351511
000260 7f 6d c5 39 05 9c d7 39 af c1 17 3b 42 43 d1 3b
       0.0003765635 0.0004112424 0.0023156216 0.0063861916
000270 09 e5 0c 3c b5 3f 82 3b f2 d5 5b 3a 89 76 4b 39
       0.008599528 0.0039748796 0.00083860673 0.00019403746
000280 b1 48 5f 3b 70 24 f9 3a a3 2f 7f 3b ef d9 11 3a
       0.0034070427 0.0019008052 0.0038938306 0.00055637857
000290 0a fb e7 3a d2 5a d1 3b e1 d6 08 3b a2 01 03 3b
       0.0017698717 0.0063890005 0.002088003 0.0019989987
0002a0 ff f5 56 39 30 fe fb 39 df 5c 75 36 57 9e c5 38
       0.00020500271 0.00048063835 3.6561903e-06 9.423185e-05
0002b0 d7 2f 12 3c 0b 97 64 3b 62 21 84 3b 58 4d c5 3b
       0.008922539 0.0034880068 0.0040323 0.006021183
0002c0 7f d4 c8 3b 03 04 81 3a b9 e2 03 3c 6e 09 48 3b
       0.006128847 0.0009843115 0.00804966 0.0030523199
0002d0 62 24 f5 38 4d 65 ec 3b 13 37 87 39 6e c4 e3 39
       0.00011689287 0.0072142244 0.0002579024 0.00043443165
0002e0 6b 7e c8 3a 52 3e 41 3b 34 ff ca 3b c1 12 02 32
       0.0015296465 0.0029486609 0.0061949734 7.57126e-09
0002f0 91 91 41 39 be bc 99 3a a3 1b 35 3a 87 ef 0d 3c
       0.00018460142 0.0011729223 0.000690872 0.008663065
000300 1e b3 9e 3b 0e 6d ce 3b cc 52 83 3b b3 24 22 3c
       0.00484313 0.0062996214 0.004007673 0.009896445
000310 9c e7 00 3a 47 45 c3 3b 3e 39 f8 3b 15 9d 86 3b
       0.0004917325 0.0059591862 0.007575183 0.004108081
000320 93 a5 86 39 80 ee 2e 3a 63 be 31 3c b3 7d 99 3a
       0.00025681834 0.00066731125 0.010848614 0.0011710435
000330 89 e8 30 33 7f 86 1d 38 d5 c0 0c 3b e3 46 ab 3b
       4.1189683e-08 3.7556976e-05 0.0021477242 0.005226956
000340 cf 32 b5 3a 5b 3b 0e 3c cd 92 d3 3b 3c 1c ca 38
       0.0013824346 0.008681144 0.006456709 9.63737e-05
000350 45 28 54 3b e8 fe 20 3c 89 d2 bf 3b 18 aa ac 3a
       0.0032372635 0.009826399 0.005853955 0.001317325
000360 f3 25 53 37 eb c8 a0 3b 85 35 f7 3a c1 9c 80 3a
       1.2585416e-05 0.004906764 0.0018860555 0.0009812341
000370 9e db 6e 36 11 73 e7 3b 14 e7 c3 3b 8d d4 05 38
       3.5592598e-06 0.0070632775 0.0059784744 3.1907624e-05
000380 48 88 f8 3a 31 43 91 3a 4f b3 f0 3b 7b d4 ef 3b
       0.0018961513 0.0011082647 0.007345594 0.007319031
000390 b0 7b fd 3b dc 68 ad 3b 4b 61 3e 3a 44 7e c3 3b
       0.007735692 0.005292041 0.00072624226 0.00596598
0003a0 f6 84 ae 3b 3a 4d 7f 3b 1a 1b 03 3c 8e a8 e1 3b
       0.005325909 0.0038955943 0.008002067 0.0068865484
0003b0 2d 60 04 34 d8 8c 1a 3b 7c b9 c3 39 73 34 51 3b
       1.2328447e-07 0.0023582485 0.00037331495 0.0031922131
0003c0 cb e4 1b 3b 8b f4 37 3b 00 63 d0 3b d1 a6 0c 3c
       0.0023787494 0.0028069343 0.006359458 0.008584694
0003d0 0c 79 6d 3b 9b 2e 16 3a d4 fa 29 38 57 61 a4 3b
       0.003623548 0.00057289907 4.052634e-05 0.0050164866
0003e0 8c bd bd 3b 66 27 c0 3b cc d9 09 39 ed 49 d0 39
       0.005790418 0.0058640717 0.00013146474 0.0003972793
0003f0 7c b6 38 38 48 8c c7 3b 7d 6a df 3b f5 48 cf 3a
       4.403897e-05 0.006089721 0.0068181143 0.001581459
