ContinuousControl/checkpoint_actor_target.pth (torch_old, 40808 bytes, 8 tensors)

fc0_batch.weight f4 [33]
00000000: 8448 fe3e afc5 443f 830a b63d af98 073e
00000010: ca94 9d3e 5d6d 223f 6629 fb3e 6795 653f
00000020: ad80 e93e b3f1 213f 9dcb b23e 7ad3 cd3e
00000030: 10e4 b63c 2816 2d3e c29f 963e 1cd6 043f
00000040: c5b8 323f 5ce6 4c3f f006 253e 5db5 903e
00000050: 9f97 2e3f ba66 6a3f fe83 cb3e e6d5 5f3f
00000060: c2ed d63e ae9c 0d3f 7d00 743f 9021 143d
00000070: b317 3e3e 9030 bf3e 1236 9c3e 9497 6e3f
00000080: 4f45 343e
0.496647 0.7686414 0.08888724 0.13241838 0.3077758 0.63448125 0.49055022 0.89681095
0.45605984 0.6325943 0.3492097 0.40200406 0.022325546 0.16902983 0.2941876 0.51889205
0.69813186 0.80039 0.16115928 0.2826337 0.68200105 0.91563 0.3974914 0.8743576
0.4197827 0.553172 0.95313245 0.03616482 0.18563728 0.37341738 0.30510002 0.9320004
0.17604564

fc0_batch.bias f4 [33]
00000000: 3624 9f39 0e99 c5b9 e9f7 3bb9 a00a c138
00000010: cf35 fbb8 44bf bf39 44d9 9838 1e1f 2338
00000020: 1e2a c839 09b1 1c39 9e70 c1b8 a1c9 7439
00000030: 0dba 8539 f8f4 9138 ecb2 d6b9 cbda e4b9
00000040: 4408 dab9 437d d7b9 49ee e539 0fd1 32b9
00000050: f6ba 5339 5acf db39 098b 8bb9 b3a0 7fb9
00000060: ae05 d539 1690 c739 48ab d439 7256 c4b9
00000070: 465c deb9 1f26 92b9 2cc2 aa39 0f7e d739
00000080: b186 82b9
0.00030353823 -0.00037688803 -0.00017926063 9.204936e-05 -0.00011978635 0.00036572863 7.288394e-05 3.889121e-05
0.00038178352 0.0001494327 -9.223934e-05 0.00023344766 0.00025506355 6.959768e-05 -0.00040950568 -0.00043650562
-0.0004158636 -0.00041101323 0.0004385582 -0.00017053283 0.00020192176 0.00041925424 -0.00026615735 -0.0002437856
0.00040630758 0.0003806359 0.00040563405 -0.0003744844 -0.0004241189 -0.00027875692 0.00032569596 0.00041101917
-0.00024895885

fc0_batch.running_mean f4 [33]
00000000: b4e6 6d3f 402d 13bf fa1f 24bf 4057 3d3d
00000010: 14bd c1bb 8831 273d 1e74 09bd a0cb eb3f
00000020: a361 52be a3e1 f73e 9e73 fdbb 944d 1b3e
00000030: cbcf b7bc c231 d43f f61e 73bf a8f6 b6bf
00000040: a7df d43b 31bb 673d a475 77bd 4633 523d
00000050: 0c5b 1740 7b14 d63b cc13 6f3f b416 c9bd
00000060: 64ca 073f 2f82 7f3e 2a19 fe3f b9fc 7fbf
00000070: a9a9 47c0 0000 0000 b9fc 7f3f 0000 0000
00000080: 68aa 95be
0.9293015 -0.5749092 -0.6411129 0.046225786 -0.0059124324 0.04081872 -0.033558004 1.8421516
-0.20545058 0.48414335 -0.00773473 0.15166312 -0.02243795 1.6577685 -0.9496912 -1.4294024
0.006496388 0.056575004 -0.060414925 0.05131843 2.364932 0.006533203 0.9338958 -0.098187834
0.530432 0.24952005 1.985143 -0.99995 -3.1197302 0.0 0.99995 0.0
-0.29231572

fc0_batch.running_var f4 [33]
00000000: 3a2a 4740 ad3f d040 b8d3 9d40 f3cf b53e
00000010: 2666 493e b4d1 5d3e 7b40 6a3e af2a 1040
00000020: dd6a b43e 4ccb 153f f46e 8641 9b02 2042
00000030: c140 e941 e921 5f41 13f9 0542 f3b4 d141
00000040: 1187 303e a346 b63e d513 a03e 1a92 193e
00000050: d1a0 3240 1c8d a03f 8c59 e33f 51ce cf42
00000060: 6d2d 8c43 1348 4b43 cf0a ae41 96a1 5138
00000070: 6237 e141 96a1 5138 96a1 5138 96a1 5138
00000080: c0d2 8a3d
3.1119523 6.507773 4.9320946 0.35510215 0.19667873 0.21662027 0.2287616 2.2526052
0.3523778 0.5851333 16.804176 40.002544 29.156618 13.945779 33.493237 26.213354
0.17239024 0.35600767 0.3126513 0.1499714 2.7910655 1.2543063 1.7761703 103.90296
280.3549 203.28154 21.755278 4.997997e-05 28.152042 4.997997e-05 4.997997e-05 4.997997e-05
0.067784786

fc1.weight f4 [256, 33]
00000000: cf0e c1bb a437 043d ce99 173d 907a a9bc
00000010: 7a39 f8bb c0a8 56bd 1431 23bd ee4f 88bc
00000020: ce6a 193d c210 743b c59b 063d c24a 56bd
00000030: e45f 523c c9f7 4ebd fed2 94bc 29e6 503d
00000040: 638f 163b 89fb 40bd d910 7cbd eb6c 9abc
00000050: 2828 cbbc c347 6ebd c9fb 0b3d 9de3 973a
00000060: e58e 1cbc 08bb 463d 5b43 73bd 125a a33c
00000070: 54de 3c3d 1ef9 5c3c 864c 093d f79b b5bc
00000080: 2ec5 70bd f695 6f3d dbb3 7fbd b945 d2bc
00000090: cfca 683d 0cfd f4bc 40b1 44bc 4fe7 04bd
000000a0: 38d3 4a3c 30fc b6bc 8ab6 bc3c 81e2 793d
000000b0: c47c 40bd 107e 273d fba6 7cbc 3e31 80bd
000000c0: 81a6 dc3c ac88 2cbd fe09 153d 0166 32bc
000000d0: 2e3a 19bd e84d 60bd 4948 633c 99e0 77bd
000000e0: bd03 0c3d 18a2 c63c 1cf0 58bd 9f8e 073d
000000f0: e01d 4abd 9250 c53b 5e16 94bc 5e70 2b3d
00000100: 6118 58bd df24 a0bc 8964 b4bc f4e4 b8bb
00000110: 3cd8 cb3b 6f3a 1fbd 4a95 0c3c 08ae 433b
00000120: 924b 03bd 8584 703c 52c0 3c3d e4ae 033d
00000130: 9a33 a63c 4d2c e0bc 1f3e 39bd 838b 193d
00000140: 0855 1c3c 3cd3 993b 6380 023d c3bb edbc
00000150: f700 7ebd e693 2fbd f91b 71bd 8eae 203d
00000160: 0c78 1b3d 6b17 ecbc 7bf7 60bc db5f 54bc
00000170: f28b cfbc edc4 2fbd dfc0 9f3c 3d92 b5bc
00000180: b19d 26bd bfac 403c 3da4 ccbc 1c11 4f3c
00000190: 7810 2ebb e6fe a23c aed9 283d 86fd 60bd
000001a0: 7d2b f2bc e8c7 7a3d f470 253b 1d67 24bc
000001b0: 0cbc 493d d10c 5f3d d369 b63c 6f8e 49bd
000001c0: 7744 753d 5051 68bd c13d 7fbd 4508 193c
000001d0: f79f 97bc 6790 6ebd 23ce 473d 8d3c f93b
000001e0: f833 08bd ce9a b13c 660c 3a3d fdf7 d0bb
000001f0: 12b7 3d3d 4999 1f3d f5c2 2c3c 69b6 08bd
00000200: 7204 44bd 122f 5dba f9f2 87bc bd0c 66bd
00000210: 2465 6fbd 7417 24bd 9389 703a 4ba5 e5bc
00000220: 7eef 56bd c6ac 2cbc 9ddc e3bc f403 7dbc
00000230: a436 1c3d 24cb 133d abc8 263d e353 803d
00000240: cdfb 8d3b 426c 07bd fffd dabb 691c 1e3c
00000250: 8f08 b8bc 950e 4b3d 5a3f 063d f8d5 38bd
00000260: 31eb bf3b c31f cc3b 16c7 9c3c cab4 2bbd
00000270: f617 7d3d ca59 afbc 2156 c33c c6f0 fdbc
00000280: f6b6 ab3c 44d8 b1bc 6d2c 07bd 33ad 64bd
00000290: db48 b53c 8cf4 0a3c 92b3 9c3c 554e 0dbd
000002a0: c7bc 5a3c a2af d2bc 99f2 903c 2fb5 6e3d
000002b0: dd47 58bd eb5d c73c 9cbe 26bd e670 9a3c
000002c0: 1807 64bc cf3b d13c 7272 3ebd cc07 333d
000002d0: 7a2a 0f3d 79b0 31bd 2f43 36bd 412d 0c3d
000002e0: aff3 47bd 8096 c93c 29ff febc e387 65bd
000002f0: 0975 a03c eb8d d6bc 8264 29bd 23a9 9b3c
00000300: b373 ec3c 702f 4e3d 673f 7a3d f56a b13c
00000310: 00ab 93bc 1118 2ebc 343b 413d ece6 47bd
00000320: 6ef1 363d 228c ee3c ecb0 c63c 822c a03c
00000330: 44dd 55bd 1de5 c93c 30ba 66bb 9c7d 123a
00000340: 861a edbc 5849 393d 9e27 2bbc aba1 1d3a
00000350: eb3d 5bbd 8ce9 423d 28a8 6dbd b9da 1c3d
00000360: a148 e03c bf50 203c 4447 79bd 8280 eabc
00000370: 888d 88bb df45 3dbd b9c6 a3bc 6105 67bc
00000380: 6761 9cbc cdf9 313d caf6 683d 1c7f e5bc
00000390: e250 043d 74be 813b b7d9 3b3d 08c9 5ebd
000003a0: a20a 00bd 9c61 50bc c0f2 763d 3374 4b3d
000003b0: 657e 88bc 833b 1fbd bd67 01bd 7c48 033c
000003c0: c97c 623c 6411 02bd 090d 8f3c 25f2 ebbb
000003d0: d83a 3f3d 56f7 c4bc ce31 11bd 37a3 183c
000003e0: 8444 403b 1b74 103d a7e4 7a3d fd27 d0bc
000003f0: 3d7a 6f3d f887 f03c b8cb 593d 7e44 9f3c
-0.005891658 0.032279626 0.037011914 -0.020688325 -0.007575211 -0.052407026 -0.039841726 -0.016639676
0.037455373 0.0037241434 0.032863397 -0.05231739 0.012840245 -0.050529275 -0.018167015 0.051000748
0.0022973649 -0.047114883 -0.061539505 -0.018850764 -0.024799421 -0.058173906 0.034175668 0.001158822
-0.009555553 0.04851821 -0.059390407 0.01994041 0.046110466 0.013487129 0.033520244 -0.022169096
-0.058781795 0.058492623 -0.062427383 -0.025668012 0.05683404 -0.029905818 -0.01200515 -0.032447156
0.01237946 -0.02233705 0.02303626 0.061007027 -0.046993986 0.040891707 -0.015420671 -0.06259392
0.026934864 -0.042122528 0.036386482 -0.010888577 -0.037409 -0.054761797 0.013872215 -0.060516927
0.034183253 0.024247214 -0.05296336 0.033095 -0.049344897 0.0060215676 -0.018077072 0.04185521
-0.052757625 -0.019548832 -0.022020595 -0.0056425277 0.0062208455 -0.038874086 0.008580515 0.002985837
-0.03205449 0.014680033 0.04608185 0.03214921 0.020288277 -0.027364874 -0.04522526 0.037486564
0.009541757 0.0046943706 0.03186072 -0.029020196 -0.06201264 -0.042865656 -0.058864567 0.03922897
0.037956282 -0.02881976 -0.013730879 -0.012962307 -0.025335286 -0.042912412 0.019501148 -0.022164458
-0.04067773 0.011759936 -0.024980659 0.012638357 -0.002656011 0.019896936 0.04122322 -0.05492928
-0.029561752 0.0612258 0.0025244327 -0.01003435 0.0492516 0.054455582 0.022267258 -0.0492081
0.059879746 -0.05671817 -0.062314752 0.0093403505 -0.018508894 -0.05824318 0.04878057 0.007606095
-0.033252686 0.021680262 0.04542198 -0.0063772188 0.046317168 0.038964543 0.010544528 -0.033377085
-0.047855802 -0.0008437495 -0.01659535 -0.056164492 -0.058446065 -0.04006143 0.00091757736 -0.02803292
-0.05247449 -0.010539239 -0.027815158 -0.015442837 0.038138047 0.036082402 0.040718716 0.06266
0.0043329955 -0.033062227 -0.0066831107 0.009650328 -0.022465019 0.049574453 0.03277526 -0.04512593
0.0058568944 0.006229372 0.0191379 -0.04192046 0.06179043 -0.02140512 0.02384478 -0.030998599
0.020961266 -0.021709569 -0.033001352 -0.05582924 0.022129467 0.008481156 0.019128595 -0.03449853
0.013350672 -0.025718514 0.017693805 0.05827826 -0.05280291 0.024336776 -0.040709123 0.018852662
-0.013917707 0.025541214 -0.046495862 0.043708608 0.03495262 -0.043381188 -0.044497665 0.034222845
-0.04881638 0.024607897 -0.03112753 -0.056037795 0.019587057 -0.026190719 -0.041355617 0.01900155
0.028863763 0.05033821 0.06109562 0.021657446 -0.018025875 -0.010625855 0.0471756 -0.04880421
0.04466384 0.029119555 0.024254285 0.019552473 -0.05221297 0.024645383 -0.0035206191 0.0005588175
-0.028943311 0.04523596 -0.010446457 0.0006013165 -0.053525846 0.04758601 -0.058021694 0.038294528
0.027378382 0.009784876 -0.06085898 -0.02862573 -0.0041672625 -0.046209212 -0.01999222 -0.0141004035
-0.019089414 0.04345112 0.05687598 -0.028014712 0.0323037 0.0039594714 0.045861926 -0.054390937
-0.03126014 -0.012718584 0.0602901 0.049671363 -0.016661832 -0.038875114 -0.031593073 0.008012887
0.013823696 -0.031754866 0.01746227 -0.0072004967 0.046686977 -0.02404372 -0.035447888 0.009316257
0.0029337713 0.035266977 0.061253216 -0.025409693 0.058466185 0.02936171 0.053172797 0.01944184

fc1.bias f4 [256]
00000000: 4da2 41bd f577 653d f4fc 9b3c b09a 2e3e
00000010: e994 f13d 51e6 a5bd b51e 003e e872 cabd
00000020: d8a1 70bd b364 043e eab9 02be 3eac 44bd
00000030: ad3a 12be 2a81 a53d cd2c 003e 2bcb 1c3e
00000040: 14e9 76bd 5ab9 03be abe3 bc3d 5315 e6bd
00000050: b184 6cbd 8f57 12be 224f 0b3e 14d1 8cbc
00000060: 487d bd3c 48c0 2d3c fe74 cb3c ea0c 9cbd
00000070: a6f9 2e3e 07ce 21be 58db b7bc d6ba cebd
00000080: d800 f2bd 847d c03d 2040 033e cd91 a83d
00000090: 569c 553d e4b0 ee3d 8a5f bf3d db52 4ebd
000000a0: 2b4a 96bd 112f 543d 87ab e03d dba9 ee3d
000000b0: 162b 893a 0c7f 323e 5e1d ffbd 6eb6 933d
000000c0: 8ddd 183e 7fc6 323c c80a d83d 28dd 1c3e
000000d0: 94a1 09be c38f e83d 6e37 a63d e915 bc3d
000000e0: 46db b33d fd3b d53d 3839 653d 8fcc c63d
000000f0: 776d 21be 1d9d 31be d633 be3d 72f3 313e
00000100: 0f46 53bd 7871 093e 26d9 99bc b138 b33d
00000110: e3cc 63bc 171e ae3d 6470 9abd 6f5e 12be
00000120: 1d50 be3d d3e1 94bd 2d69 053e 2529 c43c
00000130: 39d1 90bd 67c2 2b3e 157c 2a3e 7804 b8bd
00000140: 4af3 9e3d fd54 4e3d 531a dabd 1606 b83c
00000150: a009 1cbe 6df6 5e3c 564b 1abe 9788 183e
00000160: 5860 b33d aaab 0d3e 6a4c 0b3d 0be4 96bd
00000170: 71cf b63d 7bec 9d3d 8383 c43d b9f9 d6bc
00000180: d886 313e 1835 e3bd adff 1ebe b251 403d
00000190: 6935 213e 46e4 df3c 4034 4bbd 5407 18be
000001a0: fe4e ef3d 5705 2fbe f57e 92bd 8964 c63d
000001b0: 1539 c9bd d7b5 e8bd 98f5 b3bd 719a aa3d
000001c0: 3368 97bd da58 22bd a94f 2abd 7313 c23d
000001d0: d901 1d3e a04c 383c 0c05 933a 7b3d 90bc
000001e0: cba8 aa3d 3fac 003e 378c 2a3d d52f dd3d
000001f0: ed46 5ebd c1da 05bc c20a 14be a752 9b3d
00000200: 348f b6bd 3f7e d7bc ba3e 2ebe 5765 793c
00000210: 61f2 603d ad75 d83d f514 1bbd 406b 0e3c
00000220: ef06 283e de62 223b 8c98 003e d313 2f3e
00000230: 8f12 183e 4ea7 a23d 0a87 e43d 8822 233e
00000240: dc59 89bc 9770 0f3e 68b6 92bd 9813 60bd
00000250: 73d0 a03d d55a d6bd 315c 88bd 047b 1d3c
00000260: 43be 6e3c ba5b 103c 40aa bbbc 607e 643d
00000270: b360 2c3e 7cfa 6dbd 23bd c43d 5041 303d
00000280: ac31 e23d 65d1 113e e889 85bc 74c6 14bd
00000290: cd23 8cbd e8ea 43bd eeaa 96bd d0ba 2ebd
000002a0: 6fc7 d03d 00c1 573d c078 a7bd 1cfa c93d
000002b0: 4512 813c 1d50 ef3b c23f 893d bf68 c7bd
000002c0: ab1c 96bc 3639 083e 4ae1 e73d 87a7 c93d
000002d0: 7ac6 c4bc 202d 903c 063b e83d 2fe8 fa3c
000002e0: 8f18 c53d 5153 b43d 3843 9d3d f2bb a73d
000002f0: 0553 eebd c2b8 1cbe 9d5d 30be f4bf 0b3e
00000300: 186f c6bd 43c9 0bbe a4c0 b93c 2491 07bd
00000310: b607 633d dcb8 39bd 208a 0a3e e6d0 28be
00000320: 4f96 2fbe 84fc 193e e404 9abd c971 2e3d
00000330: 99dd 823d b190 df3c 3bbe e0bd b70c 9e3c
00000340: 14b8 e8bd fd60 163e 671e dc3c f3f2 003e
00000350: 49ff fb3d 0615 983d 4572 7d3d 35c7 c83d
00000360: 00f5 e2bd 80ae 063e 0704 18bd 3ee4 093e
00000370: dffc 3cbc dd49 a53d 60e9 033e 5e31 083d
00000380: 4688 08bd 7fe5 913d 3e95 31be bfd4 8fbc
00000390: b0ec 0fbd 862b 08be 48bf 02bc 49a9 273d
000003a0: a139 2dbe a016 123e adf9 c93d 6c1a 303e
000003b0: 6b91 98bd cf14 fcbd d742 da3d 0af9 273e
000003c0: 9f6b cfbd 85e1 d0bd 6454 50bc 22c4 173e
000003d0: 2702 dbbc e5ba 2abe 5b1d 93bd b851 ccbd
000003e0: 87cd 063e 0f3b 02be 2453 053e 0fee 853d
000003f0: 0dc6 7abc 6e2d 31bd 40b5 c53d 0a21 c9bd
-0.047273923 0.056022603 0.019041516 0.17051196 0.117959805 -0.0810057 0.12511714 -0.09885198
-0.058748096 0.12929039 -0.12766233 -0.048015825 -0.14280196 0.08081277 0.1251709 0.15311877
-0.060280874 -0.12863675 0.09223112 -0.11234536 -0.057743732 -0.14291213 0.13604406 -0.01718954
0.023131028 0.010604925 0.02483606 -0.07619651 0.17087421 -0.1580125 -0.022443458 -0.1009423
-0.11816567 0.0939894 0.1281743 0.08230934 0.052151047 0.11654833 0.093443945 -0.050371986
-0.07338365 0.0518027 0.10970216 0.11653491 0.0010465111 0.17431277 -0.12456773 0.0721253
0.14928265 0.010911583 0.10548931 0.1531874 -0.13440543 0.11355545 0.08116041 0.091838665
0.087820575 0.104118325 0.05596277 0.09706985 -0.15764414 -0.1734509 0.09287231 0.17378023
-0.051580485 0.13422191 -0.018780302 0.087510474 -0.013903829 0.08501833 -0.07540968 -0.14293836
0.09292624 -0.07269635 0.13028403 0.0239454 -0.07071156 0.16773377 0.16648896 -0.08985227
0.077612475 0.05037402 -0.10649552 0.02246384 -0.15238047 0.013608557 -0.15067801 0.14895855
0.087586105 0.13835016 0.03400842 -0.073677145 0.08926285 0.07711121 0.09595396 -0.026242124
0.17336595 -0.11094111 -0.1552722 0.04695291 0.1574303 0.027330529 -0.049610376 -0.14846545
0.116849884 -0.1709188 -0.071531214 0.09687144 -0.09825341 -0.11362808 -0.08787078 0.083302386
-0.07392921 -0.039635517 -0.041579876 0.09476366 0.15332736 0.011248738 0.0011216714 -0.017607441
0.08332976 0.12565707 0.041637626 0.10800139 -0.05426686 -0.008169831 -0.14457229 0.07584124
-0.089140326 -0.026305316 -0.17016116 0.015221915 0.05491865 0.1056932 -0.037861783 0.008692563
0.16408895 0.0024778168 0.12558192 0.17097406 0.1485083 0.07942067 0.11158569 0.15931141
-0.016766481 0.14007793 -0.071636975 -0.054706186 0.078522585 -0.104665436 -0.06658209 0.009611849
0.014571729 0.008810932 -0.02290833 0.055784583 0.16833763 -0.05810021 0.096063875 0.043031037
0.110446304 0.14240034 -0.01630111 -0.036322072 -0.06842766 -0.047831446 -0.07356821 -0.042658627
0.10194289 0.052674294 -0.08177328 0.09862158 0.015755782 0.0073032514 0.06701614 -0.097367756
-0.018324217 0.13303074 0.11322267 0.098464064 -0.024020422 0.017599642 0.11339383 0.030628292
0.09623825 0.08804954 0.076788366 0.081901446 -0.116369285 -0.15304855 -0.1722321 0.13647443
-0.09689158 -0.13650994 0.022674866 -0.0330974 0.055427276 -0.04534231 0.13529253 -0.16485938
-0.17147182 0.15037733 -0.07520464 0.042588983 0.06389923 0.027290674 -0.109737836 0.019293172
-0.11363235 0.14685436 0.026869966 0.12592678 0.12304551 0.07425885 0.061876554 0.09803621
-0.11081886 0.13152504 -0.037113216 0.13465974 -0.011534899 0.08070729 0.12881994 0.033250205
-0.033333085 0.07123851 -0.17342088 -0.0175575 -0.035137832 -0.13297853 -0.007980175 0.040932927
-0.16916515 0.14266443 0.09862075 0.17197579 -0.07449611 -0.123086564 0.1065728 0.16403595
-0.10127949 -0.101992644 -0.012715433 0.14820912 -0.026734425 -0.16672857 -0.071833335 -0.09976524
0.1316434 -0.12717842 0.13019997 0.06539547 -0.015306008 -0.043256216 0.09653711 -0.09820755

fc2.weight f4 [4, 256]
00000000: baa2 143b 460b 7a39 b7bf 78ba 4bc2 2fba
00000010: 6890 3e3a 26c6 313b 4ba8 16bb 2b19 593a
00000020: 6c06 13bb b877 07bb 0a84 b8ba 1499 263b
00000030: 3f8a 67b9 d885 483a 29f2 ca3a 4db9 4f3a
00000040: 9274 c73a 6a64 a6ba 90e7 9d3a eda7 2a3b
00000050: 4581 22bb c412 003b dd83 a0b9 77c5 033b
00000060: 8b7e d6b9 014b 963a 811a fdba ec35 f8b9
00000070: 4b18 81ba 5069 07bb 7177 963a caa8 523b
00000080: d801 f0ba 755a 5d3b ec66 443a e1b5 21bb
00000090: 3e7d e9b9 eabb 183b 0636 0ebb 1985 fdb8
000000a0: e297 483b 9a19 1aba db56 0a3b 8e1f 5fb9
000000b0: aa59 c737 84b3 aeba 90a6 2c3b b3ab 14bb
000000c0: 5b74 ceba 6fe9 18bb 3371 593a e800 bbba
000000d0: fb7e 503b cb78 da3a 592b 193b 0011 363a
000000e0: d15b 363b 3365 a1ba c7af 17ba 22d3 403b
000000f0: 18dd c53a e08e ceba c0d9 9139 65ed d33a
00000100: 7e3f 683a e25e 5e3b 9f57 7eba e7af 25bb
00000110: 0d8e 093b 475c 1b3a 20da 0bbb 15b7 de37
00000120: 440a 1dbb 3b74 0c3b a8c5 4b3b 103e 993a
00000130: 75ee 533b 2102 b9ba 6a5b 26b9 a63e 6c3a
00000140: 8aa1 9839 6bd0 383b 2910 353b 4c3b b6b9
00000150: a70b 20bb e961 803a 4f65 0c3b 1400 393a
00000160: f786 48ba 9263 a23a face 1cbb 2a15 3f3b
00000170: a003 4a3a 254e 5a3b 5cba 413b 1c01 063b
00000180: 4200 40ba d728 abba fb3f cc39 cd3b 4f3b
00000190: 81b7 2ab8 70c6 2b3b 319a 6738 891c b13a
000001a0: 3ec5 a4ba 4653 d339 e626 3a3b 4a1a 09bb
000001b0: aa25 a2ba fa67 16b9 03a3 23bb e113 0fbb
000001c0: a55b d239 8c58 0338 265c 173b 9ce0 8938
000001d0: c3c3 233b f807 0a3b 23a7 2d3b 4fd5 90b9
000001e0: 2823 4e3a 5a11 14bb fcb8 0b3b 6bab d93a
000001f0: 56c6 833a 29e7 53b9 cb51 4c3b db55 0cbb
00000200: d519 043b 1190 403b 1c49 963a 6826 373b
00000210: e64b beba 6270 493b c0cb 2e3b e930 70ba
00000220: 42fb 423b f6cf 81ba 5a75 0cbb e335 533b
00000230: 178a ad3a e23e 073b 3662 8f3a d18b 563a
00000240: e0f0 b33a a72d c03a 7ecc d2ba a4cc 1c3b
00000250: 9b63 0f3a 8daf cc3a 687f 16bb 42e4 caba
00000260: 68cc 80ba 055d 06bb 1af2 2e3b 221e 553a
00000270: aa7c ebba a224 bbba 250a b2b9 f589 3a3b
00000280: e11f 67ba bc2c 493b 29e7 013b fef3 fdba
00000290: 4e03 18bb 1ade a83a b79a 223b 276c 72b9
000002a0: 58c5 11bb a3f5 c23a 01fa 2eba dbda 87ba
000002b0: 455f 2d3a 6e08 2c3b 5423 1dbb c8eb 823a
000002c0: e3bc 3e39 9d8b d9ba 5d9e 3e3b a088 34b8
000002d0: 82e5 523b 4802 e3ba 0524 1e3a c956 ddb9
000002e0: 32e8 833a 8e75 26bb 0d36 a53a 5521 a2ba
000002f0: 2631 0c3b dfa9 8aba 77e5 9739 f3e0 fdba
00000300: caec d7ba 211c e93a f13f 443b 4049 423b
00000310: 5d63 0abb d303 29ba 0767 203b 0383 c03a
00000320: 6ede ef3a 6316 4a3b c68f c9b9 5bd3 36ba
00000330: 3dd2 273a e023 18bb 2c6c 95b9 fa87 533b
00000340: e5ec e038 c834 42ba ab70 5bba c561 66b9
00000350: 3b25 c639 b0fc 12bb 10e0 2f3b d8bf 22bb
00000360: c3f1 a6ba 7b7c 06bb 3277 aeba 782c a63a
00000370: 919c c0ba 276d 5bba 557e ddba b354 4739
00000380: 0c24 483b ce90 d83a 3857 023b 0d43 00bb
00000390: 44cc 2dba 29c6 d93a e0a3 6c38 416e 313b
000003a0: a7c6 f7ba 9ccd 22bb de8f 00bb fcba 90ba
000003b0: 1196 1f3b 3ed8 3eba 8505 8cba c44c 9a39
000003c0: 565f 013b 6663 2ebb 1e73 b2b9 012d 3fba
000003d0: f3c2 cfba b5b6 1eba b006 f438 9977 1abb
000003e0: f574 303b 7c15 973a 5ea6 003a 7080 da39
000003f0: 5fa3 683a 0d82 543b f2ec 803a 319b 053a
0.002268 0.00023846058 -0.0009489017 -0.0006704672 0.0007269443 0.0027126162 -0.0022988494 0.00082816434
-0.0022434248 -0.0020670723 -0.0014077437 0.0025420832 -0.00022081377 0.0007649339 0.0015483546 0.00079240353
0.0015217236 -0.0012694721 0.001204716 0.0026040033 -0.002479629 0.0019542435 -0.00030615824 0.0020106712
-0.00040911543 0.0011466445 -0.0019310267 -0.0004734242 -0.0009849159 -0.0020662136 0.0011479688 0.0032144063
-0.0018311096 0.003377584 0.0007492143 -0.0024675059 -0.00044534536 0.0023305365 -0.002169968 -0.000120887715
0.0030608107 -0.0005878449 0.0021108899 -0.00021278692 2.3764402e-05 -0.0013328646 0.0026344396 -0.0022685349
-0.0015751229 -0.0023332497 0.0008294761 -0.0014267238 0.0031813968 0.0016668079 0.0023371784 0.0006945282
0.0027825723 -0.0012313485 -0.0005786386 0.002942272 0.0015095798 -0.0015759133 0.00027818792 0.0016168772
0.0008859559 0.0033931066 -0.00097023876 -0.0025281848 0.002098921 0.0005926531 -0.002133973 2.6549716e-05
-0.0023962418 0.0021431583 0.0031093154 0.001169147 0.0032338176 -0.0014115014 -0.00015865048 0.0009012021
0.00029112055 0.0028200399 0.002762804 -0.00034757925 -0.0024421008 0.0009794805 0.002142269 0.00070572016
-0.0007649506 0.0012389293 -0.0023927079 0.0029156902 0.00077062286 0.0033310738 0.0029560542 0.0020447439
-0.0007324257 -0.0013058436 0.0003895758 0.0031621337 -4.070206e-05 0.0026210807 5.5218294e-05 0.0013512532
-0.001257099 0.000403071 0.0028404533 -0.002092021 -0.0012370844 -0.00014343849 -0.0024968989 -0.0021831917
0.00040122602 3.13153e-05 0.0023095696 6.574506e-05 0.002498851 0.0021061879 0.0026497326 -0.00027624748
0.0007863515 -0.002259335 0.0021319976 0.0016606873 0.0010053616 -0.00020208642 0.0031176682 -0.0021413479
0.0020156999 0.0029382745 0.001146588 0.0027946476 -0.0014518469 0.0030737151 0.0026671737 -0.00091625616
0.0029751812 -0.0009903896 -0.0021432252 0.0032228164 0.0013240007 0.0020636846 0.0010939303 0.00081842864
0.0013728403 0.0014662043 -0.0016082672 0.0023925686 0.00054698595 0.0015616283 -0.0022964124 -0.0015479403
-0.0009826543 -0.0020502221 0.0026694597 0.00081297953 -0.001796623 -0.0014277885 -0.00033958364 0.0028463576
-0.0008816701 0.003069683 0.001982162 -0.0019375084 -0.002319533 0.0012883574 0.0024811456 -0.00023119208
-0.002224287 0.0014874231 -0.0006674827 -0.0010364907 0.00066136225 0.0026250142 -0.0023977356 0.0009988481
0.00018190178 -0.0016597394 0.002908609 -4.3042586e-05 0.0032180254 -0.0017319405 0.0006032589 -0.00042217065
0.0010063706 -0.0025399658 0.0012604609 -0.0012369553 0.00213916 -0.001057919 0.0002897193 -0.0019369408
-0.0016473767 0.0017784872 0.0029945339 0.0029645711 -0.0021116354 -0.0006447408 0.0024475472 0.0014687482
0.0018300542 0.0030836097 -0.00038444827 -0.00069742434 0.00064018724 -0.0023214743 -0.0002850009 0.0032277093
0.000107252774 -0.0007408378 -0.0008370976 -0.00021970931 0.00037793242 -0.0022428446 0.0026836433 -0.0024833586
-0.0012736846 -0.0020520973 -0.001331067 0.0012678048 -0.0014695098 -0.0008370452 -0.0016898612 0.00019009672
0.0030539064 0.0016522647 0.0019888412 -0.0019571215 -0.0006629864 0.0016614842 5.6419405e-05 0.0027073773
-0.0018903808 -0.002484179 -0.0019617002 -0.0011042054 0.002435092 -0.00072801474 -0.0010682797 0.00029430364
0.0019740663 -0.002660954 -0.00034036575 -0.0007292778 -0.0015850946 -0.0006054447 0.00011636072 -0.002356982
0.002692518 0.0011526789 0.0004907603 0.00041675894 0.0008874442 0.003242615 0.000983624 0.00050966727

fc2.bias f4 [4]
00000000: 73a7 c9bb 1b4e 5a3d 5222 103c 8c88 06bd
-0.0061539947 0.053297143 0.008797245 -0.032845065
