ContinuousControl/checkpoint_actor_local.pth (torch_old, 40808 bytes, 8 tensors)

fc0_batch.weight f4 [33]
00000000: 36ce 163f f700 633f 4d9e 173e e9b9 403e
00000010: 54ae 9f3e 4400 3c3f 481b 153f 0805 7e3f
00000020: 550d 123f a7c5 3e3f c170 f33e aea4 fe3e
00000030: f4a8 223e 9eb2 473e f203 d23e 03b7 1f3f
00000040: 04c6 483f 38e2 6a3f 3b7e 1d3d 5506 563e
00000050: ee89 473f d53d 823f 59c2 e93e 230f 803f
00000060: 4df5 023f b996 243f 24d8 873f 9021 143d
00000070: 1df6 b73d 9030 bf3e 1236 9c3e 9497 6e3f
00000080: 3ecc ff3d
0.589084 0.8867335 0.1480648 0.18820919 0.3118769 0.73437905 0.5824475 0.9922643
0.57051593 0.74520344 0.47546962 0.49735016 0.15884763 0.19501731 0.41018635 0.6238863
0.7842715 0.9175143 0.03845046 0.20900853 0.7794484 1.017512 0.45656088 1.0004619
0.5115555 0.64292485 1.0612836 0.03616482 0.08982489 0.37341738 0.30510002 0.9320004
0.12490128

fc0_batch.bias f4 [33]
00000000: c7d8 0c3e e01c 02be c948 6fbe 6085 683e
00000010: 6402 3d3e c905 fabd dbad 123e 4763 30bc
00000020: 89c7 c03c 237c 3e3e db3c 763e 0da9 303e
00000030: 818c 593e 2e01 5b3e 2456 48be 1295 5d3e
00000040: 6929 17be c801 aebb 9f44 583e 09e2 75be
00000050: e7d5 be3d 3836 b8bd 21ad 60be b5d5 dcbd
00000060: aaf6 4b3e 5b59 d8bc fbd9 97bd d726 783e
00000070: 65e3 65be 1361 52be 37af 533e 506a 533e
00000080: 1b6a 55be
0.13754569 -0.12706327 -0.23367609 0.22707129 0.18457943 -0.12208135 0.14324133 -0.010765857
0.023532646 0.18602042 0.24046652 0.17251988 0.21245004 0.21387169 -0.1956411 0.21638897
-0.1476189 -0.005310271 0.21119927 -0.24012007 0.093181424 -0.089947164 -0.21941043 -0.10782949
0.19918314 -0.026409796 -0.07414623 0.24233566 -0.22450025 -0.20544843 0.20672308 0.20646024
-0.20841257

fc0_batch.running_mean f4 [33]
00000000: e7c6 ddbe 8e35 483e 9806 3dbf eb77 083d
00000010: 8cad 5f3a 9c68 953b 18ec 2e3c c617 e03f
00000020: 4155 8e3e 68bf cf3d a8c5 6fbc 4ca5 b9be
00000030: aa63 be3d d111 acbe 0fa9 093e 9429 dfbf
00000040: fd0f 783c 96ec 14ba 6dcc 84bc 6579 dfba
00000050: cbb9 0e40 7a02 7b3d fda0 61bf 9ea1 1fbe
00000060: 8e1a 1cbf 15c1 df3d 12b6 ffbc fcff 7fbf
00000070: 7e42 c0be 0000 0000 fcff 7f3f 0000 0000
00000080: 4af1 86bb
-0.43315813 0.1955168 -0.73838186 0.033317488 0.00085326354 0.0045595895 0.010676406 1.7507255
0.2779942 0.1014393 -0.014634527 -0.36258924 0.09296353 -0.33607343 0.13443397 -1.7434564
0.015140531 -0.0005681006 -0.016210759 -0.0017049728 2.23009 0.06128166 -0.88136274 -0.15588996
-0.6097802 0.10925499 -0.031214748 -0.99999976 -0.3755073 0.0 0.99999976 0.0
-0.0041181194

fc0_batch.running_var f4 [33]
00000000: 1448 1740 252b e340 dc26 bf40 0c94 e23e
00000010: 81ad b03c 42d4 103d ca3d 003f c523 8340
00000020: 19ad fc3e 1fbb 2d3f bbd3 8841 c76a 5142
00000030: 4339 2342 370d c540 a6be 0942 f33e e841
00000040: c45e 993e bfb9 5b3e cd5d 6d3e c1a9 823e
00000050: 9f0d e640 2ce5 ee3f 0911 1440 8d46 8042
00000060: 9f24 9e43 2150 6843 5db4 fd41 0400 0000
00000070: 61b4 0042 0400 0000 0400 0000 0400 0000
00000080: e085 8d3e
2.3637743 7.0990167 5.9734936 0.44253576 0.021567108 0.035358675 0.5009428 4.0981164
0.49350813 0.6786365 17.103384 52.354275 40.80592 6.157863 34.43618 29.030737
0.29955113 0.21457575 0.23180313 0.25520137 7.1891627 1.8663688 2.3135397 64.137794
316.2861 232.313 31.713068 6e-45 32.17615 6e-45 6e-45 6e-45
0.276412

fc1.weight f4 [256, 33]
00000000: ec30 b1bc 1ff8 bf3d 07f3 e7bc 0f9b 78bc
00000010: e647 813b 90f1 dabd 67f5 bebc 30e2 4bbd
00000020: 20eb 083d 0262 363d b705 fa3d 7bcd 64bd
00000030: 27d6 d23d fa08 06bc 5cb7 de3c 62a8 983d
00000040: 1d83 3ebd c22e c2bd cab1 67bc 2531 92bd
00000050: 9431 88bd 770f d7bd 1469 163c 9183 693d
00000060: a6a5 56bc bdb3 903d 1789 e7bd a352 d93d
00000070: 57db f53c 3b7c 86bd 5a76 e73d 8864 6d3d
00000080: 9fe9 eebd 4e2a 063e 697f f5bd 00c2 07be
00000090: ae5e 1c3e 6ee4 163d e4e9 a2bd 34f7 abbd
000000a0: 34b8 573d 1bca 43bd 6398 c43d 55a1 183e
000000b0: 8f3d 66bd c41e 233e 5975 b13d a7ec 0ebe
000000c0: e455 cb3d f4aa 4abd c045 e63d 428e bf3d
000000d0: a2c0 00be 924a 38bc 55dc c2bc fc11 0cbe
000000e0: 757b 4f3d 3f11 fb3c 8759 29bc 40c3 c53d
000000f0: 3d28 9e3d b871 bdbd 9646 08be 0ede 203e
00000100: 0bd5 823d ee21 edbd 3587 b9bc d008 fb3c
00000110: d00f abbd bcbf 053c e39d 9e3c 66f8 07bd
00000120: ea1f afbb 0b55 83bc 1e97 e13d 0058 e83d
00000130: 4165 d43d 69e0 70bd 18a0 5c3d a037 c83d
00000140: 5da9 8c3c 29b6 16bc 8c73 653a a5ea 96bd
00000150: 190d c83b cb49 e2bd 5f1d cbbd 99e5 cd3d
00000160: c3b4 d23b ebce bfbc ba0b 0fbd 33fe 08bd
00000170: 1c13 9abd 8bd5 7b3d e764 82bc c953 f0bd
00000180: 5aa9 603d 6f6d dd3d ffef c6bd 1178 053d
00000190: 0a46 0439 662e f0bc 0f15 a43d df88 0bbd
000001a0: fbd5 84bd bfe1 c03d 9026 db3b 9990 dcbc
000001b0: 251e b03d 093d e53d e75e d53c 255e 2d3c
000001c0: 1208 d33d 4f96 9cbd 446f 0bbd e165 4dba
000001d0: 9119 18bd 7830 c8bc 2159 193d 4c52 b43c
000001e0: 16cd 80bd c02f 27bb 7f7f 9a3d 5759 7fbb
000001f0: 5efe 873d eeff 093d 2316 973d 9610 9bbd
00000200: 377c d3bd b8df 603d 4eea 1e3d eba3 c7bd
00000210: c3c6 adbd 1203 8abd 1fcc c7bd b0e3 283d
00000220: 0dc0 6dbc 1dd5 43bd 3d15 fe3b e12f cdbc
00000230: 071c 613d 5595 e13d eb41 303d 978b f23d
00000240: 054f ba3d ae67 d13c 66ea 64bd 48f2 7c3d
00000250: 815a 2bbd af63 d43d 809d d53d cadb e9bd
00000260: 4b8b 933c a97e 50bc c220 8bbc a8f3 d8bd
00000270: 9847 f33d 532b eebc 3286 a93c 19bc 803d
00000280: e064 3dbd d1d0 d7bd f8d0 503d 562d ee3c
00000290: d056 2abd 12f8 57bd d5b0 c93d c26c 10be
000002a0: 179f 1a3c 323e 22bd 2a09 123d d957 103e
000002b0: b985 eabd 345e a6bc bace 62bd 495f f23d
000002c0: 910f 6f3d 7516 103e 7267 a7bc c98e e33d
000002d0: c757 4e3d d61f ffbd cba7 02be 2764 033e
000002e0: 4c37 00be 7245 bcbc 3043 dfbd b621 01be
000002f0: 2f8e a93d 6720 273d 4c19 b0bd 29b7 4a3c
00000300: 97c1 113e 7c49 44ba b9fe 39bd 16a4 033e
00000310: a162 b63d eca9 8cbd bdc8 a93d 59d3 c2bd
00000320: b25f 58bd 7def ce3d dfb1 8f3d b2fc 94bc
00000330: b808 45bd 168c 9a3c 26fa bbbc 0baa 893d
00000340: a750 1fbd 5c8b a43d 239d a33d 3444 9a3d
00000350: 05a3 eabd 6498 ca3d d3f0 b0bd 36d9 c13d
00000360: 6b5f d53d f735 7dbd 558b 4bbd 1b72 88bd
00000370: 1598 b1bc 8f90 f3bd e31f a93c a1e9 66bc
00000380: 7724 4abd d6a2 113e 7c31 47bc 719b edbd
00000390: 4ce4 f63d 3b09 c03d 7d47 bdbc d055 aebd
000003a0: 31e3 a83d 963c 13be b472 143e 935f 0b3e
000003b0: 4f88 f2bd d44e d5bd 4c96 02be 7f2c 423d
000003c0: 48a4 f83d 3264 bf3d 7d36 bbbc 587c 143e
000003d0: 06f6 103e 9751 8f3d 0aba 9fbd 69a2 bdbd
000003e0: bf9c b13d bc7e 0a3e f9c7 dabc d512 ccbd
000003f0: 75ba 273e c502 0abd f21c 293e 629b d3bc
-0.021629773 0.09373497 -0.028314127 -0.015173688 0.0039453385 -0.10690606 -0.023310376 -0.049776256
0.033427358 0.04452706 0.12208121 -0.055860024 0.102947526 -0.008180851 0.027187042 0.074539915
-0.046511758 -0.094815746 -0.014141509 -0.0713828 -0.06650081 -0.105009966 0.009180326 0.057010237
-0.013101017 0.07065532 -0.11305445 0.10611465 0.030011816 -0.06566664 0.11301871 0.057957202
-0.116656534 0.13102075 -0.11987192 -0.13257599 0.15270492 0.03683894 -0.07954767 -0.0839676
0.052665904 -0.047800165 0.09599378 0.14905293 -0.05621105 0.15929705 0.086649604 -0.13957463
0.09928492 -0.04947944 0.112437725 0.093533054 -0.12573484 -0.011248248 -0.023786703 -0.13678735
0.050654847 0.030647872 -0.010336286 0.096563816 0.077225186 -0.09250206 -0.13308176 0.15709707
0.06388291 -0.11578737 -0.02264748 0.03064385 -0.08352625 0.008163389 0.019362396 -0.033195876
-0.0053443806 -0.016031763 0.110151514 0.1134491 0.10370875 -0.058807764 0.053863615 0.097762346
0.017170602 -0.009198704 0.00087528746 -0.07368974 0.006105077 -0.11049231 -0.099177115 0.10053558
0.00643024 -0.023414096 -0.034923293 -0.03344555 -0.07523176 0.061482947 -0.015917255 -0.11734731
0.054849006 0.108118884 -0.09713744 0.032585207 0.00012614593 -0.029319 0.08011829 -0.034066077
-0.06486126 0.09418058 0.0066879466 -0.026924418 0.085994996 0.11193282 0.02604623 0.010581528
0.10304274 -0.076458566 -0.034041658 -0.00078353105 -0.037133757 -0.024437174 0.037438516 0.022011898
-0.06289117 -0.002551064 0.07543849 -0.0038963163 0.066403136 0.03369134 0.07377269 -0.07571523
-0.103264265 0.054900855 0.03879767 -0.09748062 -0.084851764 -0.06738867 -0.0975573 0.041232765
-0.0145111205 -0.047810663 0.0077539966 -0.025047245 0.05495837 0.11014811 0.043031614 0.11843031
0.09097103 0.025562134 -0.055887602 0.061754495 -0.041834358 0.10370576 0.10430431 -0.114188746
0.018010756 -0.012725511 -0.016983394 -0.10593349 0.1187889 -0.029073393 0.020693872 0.06285877
-0.04623878 -0.105378754 0.050980538 0.029074352 -0.041586697 -0.052726813 0.09848181 -0.14103988
0.009437344 -0.039610095 0.03565327 0.14096011 -0.11451287 -0.020308591 -0.05537293 0.118345805
0.058364455 0.14071067 -0.020435069 0.111112185 0.05037668 -0.12457244 -0.1275932 0.12831174
-0.12521094 -0.022982333 -0.10901487 -0.12610516 0.082790725 0.040802386 -0.08598575 0.01237277
0.14234005 -0.00074877567 -0.045408938 0.12855563 0.08905531 -0.068683475 0.08290241 -0.095129676
-0.052825637 0.101042725 0.07016348 -0.0181869 -0.048104018 0.018865626 -0.022946429 0.06721886
-0.038895275 0.08034393 0.07988956 0.0753254 -0.11456875 0.098923475 -0.086396836 0.09465258
0.1041859 -0.061819043 -0.049693424 -0.06662389 -0.021678964 -0.11892807 0.020645088 -0.014093787
-0.04935118 0.14222273 -0.012157794 -0.11601914 0.12055263 0.093767606 -0.023105377 -0.08512461
0.08246458 -0.1437858 0.14496881 0.13610677 -0.11842405 -0.10415426 -0.12752646 0.047405716
0.12140709 0.093452826 -0.02285313 0.14500558 0.1415635 0.06997984 -0.07799156 -0.09259493
0.08672475 0.13524908 -0.026706683 -0.099645294 0.16379721 -0.033694047 0.16514948 -0.025830928

fc1.bias f4 [256]
00000000: 8bbe ec3c 6347 163e 1096 d23d d868 5e3e
00000010: fa3d 3c3e 3216 f73c 29d0 433e bc12 3c3d
00000020: e969 cb3b 1240 4a3e 0065 d3bc 2a8a bc3d
00000030: 56af 73bc b68a 133e 899b 4b3e a0b5 533e
00000040: c89c 8b3d 2c2c 6ebd 673b 2a3e e837 7bbb
00000050: c044 983d f8bd c9bd b291 503e c40c 9a3d
00000060: e50d cb3d 77c2 113e a6ca c13d b30b 693d
00000070: 043d 663e 6cc5 e8bc 522c b23d 8d8c 603d
00000080: 34f3 7abd 2d75 1d3e 09a6 473e cd07 2f3e
00000090: ba70 0c3e 147f 2b3e 4351 303e f58e aa3d
000000a0: 5e1b 823d b69b 1a3e 5984 3d3e 6b7e 443e
000000b0: a432 e93d 59bb 753e 0333 9cb9 cd32 133e
000000c0: d580 523e f371 ca3d c8ff 423e 4ae1 583e
000000d0: 5334 593c c14f 433e f294 2c3e 6b25 2b3e
000000e0: dfac 213e c978 163e 6b54 073e 1a83 403e
000000f0: f901 e4bc 6331 a839 16ef 163e b35a 753e
00000100: 354f 683d c0ba 5a3e 1589 8e3d 3339 1a3e
00000110: 1e3a c03d a8dd 253e 1683 b83c 2945 a5bb
00000120: af1a 283e a6e4 633d d436 5a3e 5a39 f43d
00000130: 675a 603d 3a35 623e 14d0 5e3e 05cb 433d
00000140: 4d0e 113e 9031 073e 7d85 133d d25c 013e
00000150: f561 4abc a39a ef3d 2b80 e6bd 1184 423e
00000160: 962c 1c3e 8b91 583e 0d6c 023e 07a9 7f3d
00000170: ace3 343e 2ad1 213e 1be5 3e3e d13f a43d
00000180: 3524 633e c66c 043c e31d 3a3c 3a9a 0e3e
00000190: b2e4 6d3e b341 e23d fcf9 a53d 5f68 07bc
000001a0: 3b6a 2e3e d2bd 3d3b 4309 623d 2582 243e
000001b0: 3229 90bc a556 603b 1eed 993c e4ca 203e
000001c0: b704 673d 88b7 b53d ad21 893d f17e 263e
000001d0: a303 753e 609d f93d e4c4 c73d eb14 dc3d
000001e0: 4b12 163e 5448 4e3e 7b07 0e3e b475 283e
000001f0: 204e 703d 4660 cc3d cb65 f7bb d47e 053e
00000200: 78b5 b33b 3e0c 903d e0b7 1dbd eaf7 de3d
00000210: 1e0d 143e 5d1d 3d3e e975 f03c b471 b53d
00000220: 3520 6f3e 8147 b53d 84e9 463e dd6f 673e
00000230: 09ed 5a3e a95a 2e3e 9127 413e 36d8 693e
00000240: c4d4 a03d c37b 643e 1c25 d63c b1a8 1f3d
00000250: fd5b 103e 3a44 073d da1e 8e3d e679 ba3d
00000260: 4d53 c23d 073a 003e 66c4 b53d fa23 193e
00000270: dcd4 613e 7fc4 993d b27f 253e 3573 1b3e
00000280: 2d4d 3b3e bdf7 5a3e 812b c43d 6fb4 833d
00000290: 9d28 9b3d abe2 d53d 0cb6 a73d cb65 a03d
000002a0: 5180 273e 49b1 143e 7390 543d fe6d 153e
000002b0: 9520 003e 1f50 dd3d 229d 173e 8139 623a
000002c0: c984 bc3d 1e73 423e bd1e 483e e99e 243e
000002d0: fb4d 3f3d f404 e03d 3e0a 393e 1beb f03d
000002e0: d0ec 1b3e b46b 0b3e 67f7 293e f283 133e
000002f0: 4a8f c7bc f2a6 dcbd f053 06bd d8a7 4e3e
00000300: e99d c23c de05 473d 9cd1 e73d b570 553d
00000310: dd0d 0e3e 046c ae3d 6cd8 493e f99a 70bd
00000320: a1bf ddbc 450f 663e a35c 7f3d 2c4a bc3d
00000330: d95e 0e3e 4a80 a63d b5d4 98bd dbd8 0b3e
00000340: f39b 833b 5c58 3d3e 6f76 da3d b907 373e
00000350: 4851 323e a249 193e 29a1 2c3e 03b5 2e3e
00000360: 44e7 99bd e97b 3e3e c4fd 333d cc2b 343e
00000370: 06a4 b63d 62d6 1c3e b289 3e3e b8ad 053e
00000380: bc9f ad3d 3607 2d3e 5721 ebbc 369d a33d
00000390: 3926 b73d 3013 123d edf5 c43d 1947 193e
000003a0: dc55 ffbd 1b77 433e 19e8 123e 9249 743e
000003b0: 6538 aa3d f251 7f3c d674 3f3e 7233 643e
000003c0: bb08 353d 7fcc 4a3d 30dc ae3d a14f 523e
000003d0: aade 8a3d c044 dbbc 45f0 143d 9daa 223b
000003e0: e648 553e 26f3 ac3b 47eb 4c3e 5812 103e
000003f0: 0411 a53d aa41 a23d 0cff 243e 8c60 5d3d
0.028899452 0.1467567 0.102825284 0.21719682 0.18383017 0.03016195 0.19122376 0.045916304
0.006207694 0.19751003 -0.025804996 0.0920604 -0.014873346 0.14408383 0.1988355 0.20674753
0.06817013 -0.058147594 0.16624223 -0.0038332883 0.07434988 -0.09850687 0.20368078 0.07521966
0.099147595 0.14234339 0.0946248 0.056895923 0.22484213 -0.02841445 0.0869986 0.05482154
-0.061267093 0.1537673 0.19496931 0.1709282 0.13714877 0.16747695 0.17218499 0.08328048
0.06352876 0.15098462 0.18507518 0.1918885 0.11386612 0.23997249 -0.00029792645 0.14374848
0.20556958 0.09885015 0.19042885 0.21179691 0.013257104 0.19073392 0.16853693 0.16713493
0.15788601 0.14694513 0.13215797 0.18800011 -0.027832972 0.00032080253 0.14739642 0.2396038
0.056716163 0.21360302 0.0695974 0.15060882 0.09386085 0.16197836 0.022523444 -0.005043645
0.16416429 0.055637978 0.21309978 0.119250014 0.054773714 0.22090617 0.21759063 0.047801036
0.14165612 0.132025 0.036015976 0.12633064 -0.012352456 0.116994165 -0.11254915 0.18995692
0.15251383 0.2114927 0.1273653 0.062417056 0.17664975 0.15802446 0.18642084 0.080199845
0.2218178 0.008082574 0.011359665 0.1392602 0.23231772 0.110476874 0.08104321 -0.00826463
0.17032711 0.0028952253 0.055184614 0.16065271 -0.017597768 0.0034231332 0.018789824 0.15702397
0.05640098 0.088728964 0.06695876 0.16259362 0.23927169 0.1218822 0.09754351 0.10746177
0.14655416 0.20144778 0.13870041 0.1645115 0.058668256 0.099793 -0.0075499765 0.13036662
0.0054842792 0.07033585 -0.038505435 0.108871296 0.14458129 0.18468232 0.029353099 0.08859578
0.2335213 0.08851529 0.19425017 0.22601266 0.21379484 0.17026772 0.1886275 0.22836384
0.07853082 0.22312836 0.026140742 0.038979236 0.1409759 0.03302405 0.06939478 0.091052815
0.094885446 0.12522136 0.08875351 0.1495513 0.22053856 0.07508182 0.16161993 0.15180667
0.18291159 0.21383567 0.0957861 0.06430899 0.07576106 0.10443624 0.081890196 0.078319155
0.16357543 0.14520754 0.05189557 0.1459274 0.12512429 0.108062975 0.14806035 0.00086297846
0.09205014 0.18989226 0.19542976 0.16076244 0.046705227 0.10938445 0.18070313 0.11763593
0.15227056 0.13615304 0.16598283 0.14405802 -0.024360318 -0.1077403 -0.032794893 0.20181215
0.023756938 0.04858958 0.11319277 0.05210944 0.13872476 0.08516696 0.19711465 -0.058741543
-0.027068915 0.22466762 0.062344205 0.09193835 0.13903369 0.08129938 -0.07462446 0.13656943
0.0040163933 0.18490738 0.10667121 0.1787404 0.17413819 0.14969495 0.16858353 0.17061238
-0.075148135 0.18601955 0.04394318 0.17594832 0.08918004 0.15316156 0.18607214 0.1305455
0.084777325 0.16897282 -0.028702421 0.0798897 0.08942837 0.03566283 0.09617219 0.14968528
-0.12467548 0.19088404 0.1434635 0.2385619 0.08311538 0.015583502 0.18696913 0.2228525
0.04419778 0.04951143 0.08538091 0.20538189 0.06780751 -0.026766181 0.03636195 0.0024820932
0.2082859 0.005278009 0.20011626 0.14069498 0.08059886 0.07922681 0.16112918 0.054047152

fc2.weight f4 [4, 256]
00000000: a7e6 003d 4e33 363d 421b 293d 5f3e a73c
00000010: 680e 043d ff4a 373d 6046 e43c b101 a63d
00000020: b89e f73c f592 f63c 5c5e 313d 0938 833d
00000030: 19d9 513d 7f05 fa3c d904 033d 649e b73c
00000040: 1295 973d ec5e f63c 747c 063d 733b 863d
00000050: 9a75 923d a6de b93c 1812 da3c a9de 333d
00000060: 64e9 0c3d d27f 8c3d 8579 f33c 4035 563d
00000070: d173 b43c 1f24 be3d 06ac 663d e140 8b3d
00000080: e15e ec3c afec ec3c 6d13 eb3c e07d 313d
00000090: 15c6 1c3d fa02 d23c c7d7 003d c9ad 9c3d
000000a0: 07cc 8b3d a426 403d 9cb3 ff3c ec5d 0d3d
000000b0: 60f4 623d cf25 de3c 2f5f 873d 57b7 033d
000000c0: aa4d bc3c f7d0 353d 4d7e 1a3d f812 bb3c
000000d0: 8b0a a53d f670 0b3d a296 2a3d fb63 033d
000000e0: 5b91 043d b60c 9f3c 37f7 093d 0fff 343d
000000f0: 6fb6 873d d6f0 ce3d b97e cf3c 63ff d73c
00000100: 0052 313d 7d1a 0f3d 5079 273d 2728 e63c
00000110: fea9 4d3d f399 123d 0842 683d f276 813d
00000120: 3aed fd3c 61db 8c3d dfee 083d 0c67 353d
00000130: 865b 8c3d eb66 af3c 6c78 b03c 23fa 7e3d
00000140: c33a 003d 3e33 253d c8ae 9c3d b4f4 473d
00000150: a1d8 d23d e767 5e3d 729c 703c f8be a73c
00000160: b6b2 f43c fc5d 033d 5b82 3d3d 6d92 993d
00000170: 0e7c 233d d899 023d 785f 263d 265f 313d
00000180: 8326 ad3c 58e9 843d ef08 be3d 4035 3e3d
00000190: 5d73 063d 297a 263d d1d2 903d 79d9 8d3d
000001a0: 608a b33c 6a79 c33d a275 853d facf d83c
000001b0: e04a fe3c 6405 653d d5a2 393d f6a5 f13c
000001c0: ad35 983d e3ef 813d 0ed7 353d 4cee fc3c
000001d0: cb1c 1b3d fd7c 4a3d a209 1f3d 6e43 7e3d
000001e0: fd80 e13c 3b7a 0f3d 933d 3b3d 0caa e23c
000001f0: 4d76 6e3d 7bb9 413d 722f b13d 15f2 c33c
00000200: 09d4 3f3d e67d 2e3d 46e7 9a3d 867a 413d
00000210: 8321 303d b7ea 153d b239 053d 34e0 1c3d
00000220: e522 043d 90ef 143d 3c4d ef3c d8e9 d23c
00000230: 8041 e23c dc1d 1d3d a1a3 0b3d 8c50 e43c
00000240: d5dc 513d 4e06 1a3d 8849 163d b341 273d
00000250: 8664 e03c 5998 7a3d 19d7 993d b6c1 e73c
00000260: 5ad5 153d 9d19 5a3d ca02 503d 4e81 323d
00000270: 9517 933c 99e7 843d 2544 d73c b76a 503d
00000280: 9388 123d 2240 f93c 219d 343d 9ab2 503d
00000290: 6fcd b03d 054e b03d e75b c63d b6af 6e3d
000002a0: b9fe d43c f794 313d a195 843d abc8 ae3c
000002b0: 11a9 773d 933a 233d b6bd 0d3d d9f8 583d
000002c0: a8d6 4c3d a85e be3c a5e9 233d 35a7 e43c
000002d0: d632 053d 2e5f 0f3d 70e7 ee3c 75d0 313d
000002e0: 2308 e43c 1cf1 a63c 840e 2d3d 870c eb3c
000002f0: 98f9 3a3d 5678 a33c c0ea 833d 6afa ca3c
00000300: aba2 453d f9d9 ce3d 041f 283d 45aa 213d
00000310: 9851 173d e5e1 933d 1785 f33c 119a 5b3d
00000320: 97f9 893d 2c49 063d c405 853d bfd2 c33c
00000330: 5b9d 1b3d 9c5d be3c 015c 543c 6683 7f3d
00000340: 2e10 663d cd94 8a3c 8fcd 273d 1721 b63c
00000350: 4ea6 c03c 8c93 083d 4e69 563d b6e5 df3c
00000360: f477 893c 2512 a63c e932 093d 3681 a93c
00000370: 64f3 443d ced0 eb3c 7eb3 b53c 275f 433d
00000380: cdc9 8a3d e550 303d 609d 963d 4f5f 3e3d
00000390: 2277 783d 404e ba3d 2c63 5f3d b73d 5d3d
000003a0: 28d1 d13c 8614 aa3c 6202 9d3c ae18 d43c
000003b0: c556 963d d1f3 803d 811c 143d 4e5b ce3c
000003c0: 0ed5 8d3d a857 a23d e641 4d3d 709c d73c
000003d0: 6f38 533d 1273 833d 9aaf 2a3d d131 1d3d
000003e0: c687 113d 5ed3 9f3d 13d0 003d c626 013d
000003f0: e958 2a3d 3ceb 893d 8cc4 f63c 6b6e 993d
0.031469967 0.04448252 0.04128576 0.020415483 0.0322403 0.044749256 0.027865589 0.08105791
0.03022705 0.030099371 0.04330288 0.06407172 0.05123243 0.030520199 0.031987045 0.022414394
0.0740148 0.03007456 0.03283353 0.06554308 0.07151337 0.022689175 0.026619956 0.043913517
0.034402266 0.06860317 0.029721031 0.052296877 0.022027882 0.09284233 0.056316398 0.06799484
0.028853836 0.028921453 0.028695786 0.043332934 0.038274843 0.025636185 0.03145578 0.076503344
0.068260245 0.04691185 0.031213574 0.0345134 0.055408835 0.027117638 0.06609952 0.03215727
0.022986252 0.044388738 0.037718106 0.022836193 0.080586515 0.034043275 0.04164756 0.03207777
0.032365184 0.01941524 0.033683028 0.044188555 0.06626593 0.101045296 0.02532898 0.026366895
0.043291092 0.03493737 0.040887177 0.028095318 0.050210945 0.03579135 0.056703597 0.06321515
0.030996908 0.06877781 0.03343093 0.044287726 0.06853394 0.02141138 0.021541797 0.062250268
0.03130604 0.04033207 0.076505244 0.04881735 0.10295225 0.054298308 0.014685737 0.020476803
0.029870372 0.032072052 0.046266895 0.074986316 0.03991323 0.031884998 0.04061839 0.04330363
0.021136528 0.06489819 0.09279048 0.046437502 0.032824863 0.040643845 0.0707146 0.06926245
0.021916568 0.09544642 0.06516577 0.026466358 0.031041563 0.055913344 0.045321304 0.029498082
0.07432113 0.06344583 0.044394545 0.030875348 0.037869256 0.049435604 0.038827546 0.062076025
0.027527327 0.035028677 0.04571302 0.027668975 0.05821829 0.04729603 0.086516276 0.023919145
0.04683307 0.042600535 0.07563643 0.047235988 0.04300071 0.036600795 0.032525726 0.038299754
0.03225984 0.036361277 0.029211633 0.025746271 0.027619123 0.038358554 0.034091596 0.027870439
0.051235992 0.03760367 0.03669122 0.04083414 0.027391683 0.061180446 0.0751173 0.02829061
0.03658042 0.053247083 0.05078391 0.043580346 0.01795558 0.06489486 0.026277611 0.05088302
0.03577478 0.030426089 0.044095162 0.050951578 0.08632933 0.08608631 0.09685498 0.05827304
0.026000367 0.043354955 0.06473852 0.02133592 0.06046397 0.039850783 0.03460475 0.052971695
0.0500094 0.023238495 0.040017743 0.027911762 0.032519184 0.03500288 0.029163092 0.04341169
0.027835911 0.020378642 0.04225017 0.028692497 0.045648187 0.019954842 0.064412594 0.02477761
0.048250835 0.10100169 0.041045204 0.039469022 0.03694305 0.0722082 0.029726548 0.053613726
0.067370586 0.032784626 0.0649524 0.023904203 0.037991863 0.023237996 0.012961389 0.06238117
0.056167774 0.016916657 0.04096752 0.022232575 0.0235168 0.033343837 0.05234652 0.027331214
0.01678083 0.020272324 0.033495817 0.020691495 0.048083678 0.02878609 0.022180315 0.047698166
0.06776772 0.043045897 0.07354236 0.046477612 0.06066049 0.09096956 0.054537937 0.054013934
0.025612429 0.02076174 0.019166175 0.025890674 0.07340769 0.06296504 0.036159996 0.025190022
0.069254026 0.07926875 0.050111674 0.026319712 0.05156749 0.06418432 0.041671373 0.038377587
0.035529874 0.07803987 0.031448435 0.031531118 0.041588698 0.067343205 0.030123018 0.07491764

fc2.bias f4 [4]
00000000: 2893 3e3c 614d 8e3d 8f4e 033d d55c 77bd
0.0116317645 0.069483526 0.03205734 -0.060391266
