ContinuousControl/checkpoint_critic_target.pth (torch_old, 556095 bytes, 17 tensors)

fcs0_batch.weight f4 [33]
0.28608853 0.3332775 -0.0050552185 0.07190101 0.22210732 0.45911404 0.23543343 0.25556132
0.14102665 0.24137591 0.19149266 0.24403058 0.07493651 0.17872715 0.26105535 0.3823784
0.29081425 0.32569838 0.06828198 0.10843568 0.1143288 0.10402361 0.13872372 0.37117204
0.34929463 0.29619217 0.525698 1.4382091e-08 0.26771966 4.1207176e-07 2.6778088e-07 7.730833e-06
0.05781444
00000000: 327a 923e 59a3 aa3e 3fa6 a5bb d640 933d
00000010: 1a70 633e ff10 eb3e 7615 713e efd8 823e
00000020: 4a69 103e 3f2b 773e a716 443e 27e3 793e
00000030: 5078 993d 4004 373e 0ca9 853e 1ac7 c33e
00000040: 9be5 943e f0c1 a63e 6cd7 8b3d 8713 de3d
00000050: 3825 ea3d 550a d53d 970d 0e3e 430a be3e
00000060: bfd6 b23e 80a6 973e 2594 063f 1b15 7732
00000070: 8d12 893e b63a dd34 86c3 8f34 adb3 0137
00000080: d6ce 6c3d

fcs0_batch.bias f4 [33]
-0.0048481007 0.019492878 -0.0012453492 0.005079133 0.0032136096 -0.010838066 0.007750315 -0.013290435
0.0055959476 0.004009002 -0.0011176931 0.0010243653 -0.012684114 0.0023761438 0.00086136715 0.009754764
0.0155294845 -1.0600984e-06 -0.01172273 0.0074167857 -0.007515735 -0.00026081884 0.005473977 0.019602897
0.0028465197 -0.0044095544 -0.040004104 6.346989e-05 0.024079159 -0.00011280689 -0.0008398625 0.0005269058
0.0032387893
00000000: d1dc 9ebb 87af 9f3c fc3a a3ba db6e a63b
00000010: 6c9b 523b 2592 31bc 5bf6 fd3b 20c0 59bc
00000020: 365e b73b f25d 833b 8f7f 92ba ff43 863a
00000030: 08d1 4fbc 14b9 1b3b 5fcd 613a 72d2 1f3c
00000040: 616f 7e3c b448 8eb5 b110 40bc 8208 f33b
00000050: 8e46 f6bb 83be 88b9 0c5f b33b 4196 a03c
00000060: ad8c 3a3b 067e 90bb 58db 23bd 231b 8538
00000070: a841 c53c bd92 ecb8 382a 5cba 0d20 0a3a
00000080: de41 543b

fcs0_batch.running_mean f4 [33]
2.1892264 -1.209522 -1.2632555 -0.031845905 -0.03317471 -0.29793066 0.19654469 0.5256087
-0.04750871 0.11392954 0.008309047 0.023964373 -0.013215616 3.8198204 -2.1418526 -3.9172533
0.071533136 0.18426552 -0.120245405 0.04592773 0.80730295 0.20954686 1.4036406 -0.3690404
-0.03357105 0.02703384 -0.33142453 -0.99999976 -0.29247123 0.0 0.99999976 0.0
-0.36832118
00000000: 491c 0c40 9ed1 9abf 5bb2 a1bf da70 02bd
00000010: 34e2 07bd 5e8a 98be 0343 493e 4b8e 063f
00000020: 7e98 42bd e453 e93d ab22 083c ef50 c43c
00000030: 5086 58bc f077 7440 1d14 09c0 47b4 7ac0
00000040: f77f 923d 1ab0 3c3e 3943 f6bd b71e 3c3d
00000050: 68ab 4e3f 7493 563e 7faa b33f ddf2 bcbe
00000060: cc81 09bd 1276 dd3c 7ab0 a9be fcff 7fbf
00000070: cabe 95be 0000 0000 fcff 7f3f 0000 0000
00000080: 9894 bcbe

fcs0_batch.running_var f4 [33]
3.6324914 1.7056617 2.8173542 0.19165392 0.19339742 0.3666769 0.110685565 4.06626
0.20495158 0.25551835 4.3246026 5.6460605 5.536297 12.304073 6.756274 8.683549
0.257292 0.20439298 0.21313716 0.25634003 3.6614008 1.8947064 4.891163 18.20707
19.073023 18.189232 31.118988 6e-45 33.19607 6e-45 6e-45 6e-45
0.010885287
00000000: bd7a 6840 1f53 da3f 884f 3440 ed40 443e
00000010: f909 463e 13bd bb3e 1daf e23d cd1e 8240
00000020: d4de 513e 4dd3 823e 2563 8a40 87ac b440
00000030: 5829 b140 7cdd 4441 6633 d840 d1ef 0a41
00000040: c7bb 833e 654c 513e a140 5a3e 003f 833e
00000050: 6454 6a40 bd85 f23f 6884 9c40 14a8 9141
00000060: 8d95 9841 8c83 9141 b0f3 f841 0400 0000
00000070: c7c8 0442 0400 0000 0400 0000 0400 0000
00000080: 3458 323c

fcs1.weight f4 [400, 33]
4.3991924e-05 -0.00012492697 6.910399e-06 -7.493699e-05 -0.0002523558 -0.0009731766 0.00013354703 -0.00025981083
-0.00025298365 0.00025086864 0.0002518997 -0.00053095643 -2.2118396e-05 4.5141518e-05 2.2080134e-05 -0.00020013608
-0.00010766065 -0.00027764714 2.6589905e-05 8.4106985e-05 -0.00033479935 -0.00017390585 -5.97454e-05 -6.039364e-06
-2.2372144e-05 -9.674045e-05 0.0008677429 -1.007169e-07 -6.112193e-05 2.8616396e-08 1.8955315e-07 3.542734e-07
4.3097472e-05 0.0014789314 0.001299313 -7.159388e-05 -0.0008988284 0.0012846775 -0.0006292981 0.00033774565
-0.0006437321 0.00051419716 0.0012807768 0.00026786115 -0.0007094673 -0.00031221868 0.0006062731 0.0016648174
-0.0004456802 5.4702065e-05 0.0021447747 -0.00033718618 0.0006521039 -0.00029975385 4.364995e-05 0.000173086
-0.0015141182 0.002485581 -0.00133471 -0.0057294117 -3.6436359e-06 0.0017276715 -8.917845e-06 -1.9328438e-06
3.5433181e-06 0.00024632755 -0.008285241 -0.009026948 7.541038e-05 0.0015249935 0.004156119 0.0153743
0.002436195 0.0044487305 0.00021896516 0.0025271864 0.006447506 -0.005464188 -0.00029312645 -0.016719101
-0.0052088206 -0.010566288 0.008462573 0.008166664 5.638413e-05 -0.0129972305 -0.0014852787 0.0039873277
-0.011178153 0.018515246 -0.0015580023 -0.0061929114 -0.0016139027 -0.0001145137 0.005957649 -0.0002115739
4.04414e-05 -4.6904395e-05 -0.0007709661 -0.002411668 -0.00117289 3.225084e-06 8.3481675e-05 0.0046208464
0.00031408115 -0.00064965064 0.0005104016 -0.00012498807 -0.00093833456 0.00045014423 0.00074924825 -0.00031666932
-0.0015599316 -0.0011451811 -0.0017927211 -0.0004902181 -0.0006890921 -0.00037698573 0.0007016168 -0.0015845534
0.0005487348 0.0016742673 -0.0015896275 0.0014047793 0.00011998767 -7.203319e-05 -2.767019e-06 0.000489921
-2.997706e-06 1.7701639e-07 -3.1129384e-06 -0.00018994321 0.0029592153 -0.0026931926 -0.00011928104 0.00014114114
-0.0026833198 0.009363905 -0.0034195327 -0.00018071034 -0.001678979 0.006210924 0.00073871 -0.0009763124
-0.00026200776 0.0027251292 0.00023828898 0.012218553 0.006388789 0.00031073415 0.00051227084 -0.0015255148
-0.000904442 -0.00021593466 0.00033086978 0.004230942 -0.001907948 0.0011965109 0.0067161573 -1.0091644e-06
0.0006455125 1.7788912e-07 1.9786572e-07 -1.13693055e-07 -0.00031218893 -0.00048585283 -0.0016296722 -2.9366736e-05
3.6618087e-05 0.0010697626 0.0013082004 -0.00056078256 0.0002783142 0.00114331 0.0006600925 -0.00078370137
-0.0022270482 0.00020711763 -0.00028036983 -0.0012713209 0.0010816944 0.002158931 -0.0023226023 0.0001457604
-0.00046044018 -0.00049163436 0.00042097692 0.0004543264 -0.00022727711 -0.0012953437 0.0005429055 0.0004017692
-1.3465445e-05 -0.00028795685 -6.8148292e-06 7.870235e-06 -5.669655e-06 0.00016533061 -0.02907351 -0.010045248
-0.0025307306 0.004733853 -0.0044799075 -0.020142168 0.005901079 -0.011246283 -0.03001214 -0.020421164
-0.051647164 -0.0311065 0.015803777 -0.025069335 -0.015173247 0.0066003 0.012822984 0.010480867
0.010254348 0.037033983 0.010513365 0.003325021 0.018459503 -0.005277708 -0.049087588 0.013687481
0.0029048247 0.00028790566 0.017973566 0.00019287092 -0.00029649094 0.00032763407 -0.0007894149 0.00018537551
0.0003914248 -4.3383006e-06 -5.4846045e-05 -0.00029402965 9.56743e-05 0.00039671265 -0.00020664198 0.00010444055
3.9534058e-05 7.3261515e-05 0.00017137028 2.1390242e-05 5.019539e-05 0.00027533987 -0.0002678041 0.00048548772
-8.094193e-05 -8.793525e-05 9.266354e-07 -2.6638158e-06 -0.00019624803 -2.0728858e-06 -0.00011897231 0.00044838613
00000000: f883 3838 d4fe 02b9 e0df e736 7d27 9db8
00000010: 9f4e 84b9 c71c 7fba c208 0c39 3837 88b9
00000020: e4a2 84b9 0587 8339 6811 8439 e22f 0bba
00000030: e58a b9b7 5656 3d38 ba38 b937 9fdb 51b9
00000040: dfc7 e1b8 2b91 91b9 630d df37 9862 b038
00000050: 0288 afb9 7f5a 36b9 2397 7ab8 bea5 cab6
00000060: d0ab bbb7 22e1 cab8 3e79 633a b449 d8b3
00000070: 962e 80b8 1fd0 f532 f987 4b34 f732 be34
00000080: 8fc3 3438 b4d8 c13a b64d aa3a ac24 96b8
00000090: 5a9f 6bba a062 a83a 7bf7 24ba 7413 b139
000000a0: 21c0 28ba 30cb 063a bddf a73a b76f 8c39
000000b0: 8bfb 39ba 48b1 a3b9 4dee 1e3a 0136 da3a
000000c0: 2faa e9b9 e56f 6538 598f 0c3b 5dc8 b0b9
000000d0: f4f1 2a3a 4828 9db9 c714 3738 6b7e 3539
000000e0: 6075 c6ba 21e5 223b 70f1 aeba cabd bbbb
000000f0: 3085 74b6 0973 e23a da9d 15b7 01b6 01b6
00000100: bec9 6d36 8625 8139 d2be 07bc c4e5 13bc
00000110: a425 9e38 4ae2 c73a 0e30 883b 7de4 7b3c
00000120: 92a8 1f3b a8c6 913b 039a 6539 279f 253b
00000130: 9a45 d33b ee0c b3bb c4ae 99b9 7ff6 88bc
00000140: c1ae aabb 391e 2dbc 9ba6 0a3c 79cd 053c
00000150: 007e 6c38 56f2 54bc afad c2ba 21a8 823b
00000160: 9224 37bc 49ad 973c e235 ccba e8ed cabb
00000170: 9789 d3ba 1327 f0b8 6238 c33b f0d9 5db9
00000180: 9f9f 2938 36bb 44b8 a91a 4aba 130d 1ebb
00000190: a8bb 99ba 856e 5836 e212 af38 786a 973b
000001a0: 42ab a439 514d 2aba 79cc 053a 3b0f 03b9
000001b0: 91fa 75ba 5601 ec39 3369 443a a306 a6b9
000001c0: 9e76 ccba e719 96ba bdf9 eaba fb81 00ba
000001d0: 30a4 34ba 2ba6 c5b9 b5ec 373a cab0 cfba
000001e0: f8d8 0f3a 1773 db3a 0c5b d0ba 9220 b83a
000001f0: e4a1 fb38 8610 97b8 06b1 39b6 0b6e 003a
00000200: 322c 49b6 e511 3e34 e0e7 50b6 7e2b 47b9
00000210: 65ef 413b 4680 30bb 8526 fab8 49ff 1339
00000220: a3da 2fbb 106b 193c 3d1a 60bb 107d 3db9
00000230: 3011 dcba 0285 cb3b fda5 413a 37ef 7fba
00000240: 165e 89b9 1598 323b 36dd 7939 5330 483c
00000250: 0c59 d13b 08ea a239 ea49 063a c8f3 c7ba
00000260: 1318 6dba 856c 62b9 9778 ad39 b7a3 8a3b
00000270: 1d14 faba 3ed4 9c3a 3613 dc3b a072 87b5
00000280: 9c37 293a ca01 3f34 ea74 5434 6b27 f4b3
00000290: 4aad a3b9 10ba feb9 ba9a d5ba 9658 f6b7
000002a0: 5f96 1938 4737 8c3a ec77 ab3a 7b01 13ba
000002b0: b3ea 9139 1edb 953a 0f0a 2d3a 4f71 4dba
000002c0: abf3 11bb b72d 5939 9afe 92b9 73a2 a6ba
000002d0: a4c7 8d3a da7c 0d3b cd36 18bb 42d7 1839
000002e0: 3c67 f1b9 06e1 00ba 91b6 dc39 a832 ee39
000002f0: 3c51 6eb9 86c8 a9ba c551 0e3a 8da4 d239
00000300: a5e9 61b7 eaf8 96b9 f0aa e4b6 670a 0437
00000310: f73d beb6 995c 2d39 922b eebc d394 24bc
00000320: 9dda 25bb 701e 9b3b 30cc 92bb 3001 a5bc
00000330: d75d c13b 5442 38bc 05dc f5bc 494a a7bc
00000340: fa8b 53bd 0fd3 febc ec76 813c 355e cdbc
00000350: 3699 78bc 5447 d83b 7e17 523c f1b7 2b3c
00000360: da01 283c f2b0 173d 4040 2c3c 98e8 593b
00000370: 6238 973c a0f0 acbb 1110 49bd 7541 603c
00000380: df5e 3e3b 0bf2 9639 4d3d 933c 653d 4a39
00000390: 5772 9bb9 4dc6 ab39 bdf0 4eba 5c61 4239
000003a0: 2638 cd39 b891 91b6 7e0a 66b8 fe27 9ab9
000003b0: c0a4 c838 dffd cf39 09ae 58b9 1807 db38
000003c0: 5fd1 2538 faa3 9938 dcb1 3339 326f b337
000003d0: e488 5238 7e5b 9039 0f68 8cb9 0f89 fe39
000003e0: 5ebf a9b8 e169 b8b8 e6bd 7835 02c4 32b6
000003f0: eec7 4db9 e81b 0bb6 c680 f9b8 5e15 eb39

fcs1.bias f4 [400]
-0.00046862516 -0.008029725 -0.013527445 9.115794e-05 -0.0037993386 -0.003963933 -0.050639763 -0.0006728012
0.036501825 -0.010208137 -0.001215545 -0.00028309747 -2.1494043e-05 -0.011781866 -0.0065969597 -0.00081843353
-9.723237e-06 0.00041113418 -2.2099712e-05 0.00059061765 -0.00012623682 -0.02355184 -4.9634466e-05 -0.00013061172
-0.01914048 -0.04999989 -0.0061123203 -0.0002472693 -0.014788055 -0.015830189 -0.025950503 -0.0002253058
-0.047432963 -0.005452284 -0.0001196014 0.009531102 -6.5654745e-06 -0.011341883 -2.814079e-05 -0.026082195
-0.042255998 -0.009435275 -0.00024328865 -0.04146604 -0.010705229 0.002905228 0.0032900556 -5.2756503e-05
-0.00022189571 -0.00010141384 -0.004162562 -0.00351574 0.0005803975 0.00042034895 0.01762067 0.007877585
-6.0821236e-05 -3.3527274e-05 -0.0015087725 2.214169e-05 -0.00014066989 -0.051329207 -0.00013523715 -0.005012423
1.0623646e-06 -0.000101579535 -0.030257802 -0.03786228 -0.001772813 -1.2472895e-05 0.0038676644 -0.0019780076
-0.00037765145 -0.00075457885 0.004160536 -5.1153356e-06 -0.001269759 -0.003238563 -2.9863068e-05 -0.030185292
-0.07549691 0.00013606313 -0.0014557195 -0.001432484 -0.025732795 -0.000586942 -0.00016349941 -0.0813666
0.0029056866 0.006021365 -0.00051220215 -0.00021217878 0.0016589038 0.0007964856 -5.2036878e-05 0.00016909027
-0.0004735738 -0.00016009819 0.0041730525 -0.0013232557 -7.94939e-05 -0.03283261 -6.635177e-05 -2.0783022e-05
-0.059539687 0.0048793056 -0.0057839314 0.006267328 -0.00077831565 -7.560458e-05 -1.0151025e-05 0.00017985557
-3.9545655e-05 -1.1006698e-06 -1.1962744e-05 -3.0539883e-05 -0.018214064 -0.008594194 -0.0028102354 0.0004164846
-6.368896e-05 -0.034561023 -0.015721248 3.7628577e-06 -0.005878636 -5.5722736e-05 -0.02395935 -0.0025042396
-0.01812971 -0.00011585667 -0.002656614 -0.00035593548 -0.002132441 -0.010027943 -1.9772195e-05 -0.018202519
-0.03393063 -1.919911e-06 -0.0002624879 -0.019997368 0.00091997534 -0.00026757704 0.012904681 -0.001203824
-0.03608594 0.014548417 -0.012096885 -0.013436957 0.004407015 -6.540209e-05 -0.01975185 -0.0059212376
-0.0048750383 -0.0006900596 0.013278094 0.06236528 -0.00051190564 -4.1415668e-05 -0.046198223 -0.000622051
-0.0026021476 0.010337808 0.0042916993 -0.0051908614 8.788044e-06 -0.0008922211 -5.103816e-05 0.0018365637
-0.0016305463 -7.183597e-05 -0.033636898 -0.0022541794 -0.008156037 -1.3135992e-05 -0.0007607566 0.00024393231
0.0044613425 -4.4519496e-05 0.004753805 -0.0012001309 -0.00062081113 -0.0026023448 -0.00071151694 -0.057975266
-0.0275515 -0.048356596 -0.0040178387 -5.9190526e-05 -0.0045348154 -0.05994278 -4.290164e-05 -0.00034903426
-0.020883037 0.026864426 0.008229359 -0.0061478084 -5.4818796e-05 -0.009187044 -0.012454704 -3.6514884e-05
-0.00026336414 -3.5297242e-05 -0.0017343893 -8.3451014e-05 0.005652198 -3.414144e-05 0.00020081342 3.8808525e-05
-0.0002233786 -1.4205331e-05 -0.0034646185 -5.282859e-05 -0.013810423 -0.0029274826 5.1120936e-05 -0.054989565
0.002493866 0.0014051833 0.021484435 0.0014374303 -3.2310116e-05 8.0277205e-05 0.009431792 -0.002892933
-3.0433406e-05 -5.435239e-05 0.006407399 -0.024500428 0.018246181 -0.0028556776 -0.00042249996 0.023514673
-0.00010357237 -0.0033078901 -4.088981e-05 -0.00017834605 -0.0016355232 -0.002639216 -0.00012681882 -5.1002597e-05
-1.8991055e-05 -0.0008640931 -0.0004934086 -1.3406053e-05 4.6140397e-07 -0.009345427 -0.028572321 0.0005600519
-0.0025181004 -4.188538e-05 -3.635329e-05 -0.00045995173 -0.039683387 -0.0068739518 -5.005949e-06 -4.4040607e-05
00000000: ceb1 f5b9 1c8f 03bc 37a2 5dbc 0c2c bf38
00000010: 53fe 78bb e1e3 81bb a46b 4fbd ed5e 30ba
00000020: f082 153d 0840 27bc ec52 9fba b36c 94b9
00000030: 1b4e b4b7 ba08 41bc 4f2b d8bb 258c 56ba
00000040: fc20 23b7 7f8d d739 c562 b9b7 aed3 1a3a
00000050: 705e 04b9 caef c0bc 9a2e 50b8 d1f4 08b9
00000060: 7fcc 9cbc afcc 4cbd dc49 c8bb eca3 81b9
00000070: 9949 72bc 50ae 81bc 2696 d4bc 1140 6cb9
00000080: 1149 42bd 13a9 b2bb 83d2 fab8 5728 1c3c
00000090: ff4c dcb6 4ed3 39bc e30f ecb7 54aa d5bc
000000a0: a014 2dbd 6996 1abc 4d1b 7fb9 4bd8 29bd
000000b0: fc64 2fbc a365 3e3b f99d 573b dd46 5db8
000000c0: adac 68b9 24ae d4b8 1a66 88bb 5468 66bb
000000d0: d125 183a 4862 dc39 3959 903c fc10 013c
000000e0: 4e1a 7fb8 a39f 0cb8 01c2 c5ba ebbc b937
000000f0: c980 13b9 933e 52bd 72ce 0db9 403f a4bb
00000100: 9296 8e35 1907 d5b8 36df f7bc 7a15 1bbd
00000110: bc5d e8ba ad42 51b7 a478 7d3b 76a1 01bb
00000120: 85ff c5b9 eece 45ba 1b55 883b 66a4 abb6
00000130: 0b6e a6ba 123e 54bb 7382 fab7 2547 f7bc
00000140: 209e 9abd 2bac 0e39 d7cd beba 30c2 bbba
00000150: 95cd d2bc 03dd 19ba 0a71 2bb9 88a3 a6bd
00000160: 556d 3e3b df4e c53b 4e45 06ba 4f7c 5eb9
00000170: 936f d93a 3ecb 503a 2c42 5ab8 d34d 3139
00000180: 004a f8b9 08e0 27b9 1abe 883b 1871 adba
00000190: f6b5 a6b8 7d7b 06bd 5626 8bb8 3357 aeb7
000001a0: e3df 73bd 95e2 9f3b 2287 bdbb 285e cd3b
000001b0: e107 4cba e68d 9eb8 524e 2ab7 9d97 3c39
000001c0: d3dd 25b8 baba 93b5 98b3 48b7 f317 00b8
000001d0: a935 95bc aace 0cbc ed2b 38bb 9e5b da39
000001e0: c090 85b8 dc8f 0dbd d9c9 80bc 6785 7c36
000001f0: 93a1 c0bb d5b7 69b8 6646 c4bc 2b1e 24bb
00000200: c284 94bc 13f8 f2b8 961a 2ebb da9c bab9
00000210: 6cc0 0bbb 3e4c 24bc 77dc a5b7 731d 95bc
00000220: d8fa 0abd d2d7 00b6 889e 89b9 85d1 a3bc
00000230: 802a 713a 9549 8cb9 286e 533c a1c9 9dba
00000240: dace 13bd 7c5c 6e3c 0332 46bc af26 5cbc
00000250: b968 903b 7b28 89b8 a2ce a1bc f106 c2bb
00000260: c9be 9fbb 1ee5 34ba 5d8c 593c bc72 7f3d
00000270: 6831 06ba bcb5 2db8 593a 3dbd 2311 23ba
00000280: cb88 2abb e95f 293c 62a1 8c3b 1a18 aabb
00000290: 5d70 1337 f2e3 69ba cf11 56b8 dab8 f03a
000002a0: 0eb8 d5ba a5a6 96b8 d8c6 09bd dbba 13bb
000002b0: e6a0 05bc a862 5cb7 836d 47ba 15c8 7f39
000002c0: 7430 923b 72ba 3ab8 cfc5 9b3b b64d 9dba
000002d0: eebd 22ba 1a8c 2abb 1885 3aba 7977 6dbd
000002e0: afb3 e1bc 9111 46bd 13a8 83bb 5843 78b8
000002f0: ca98 94bb 8f86 75bd 49f1 33b8 96fe b6b9
00000300: e712 abbc c912 dc3c 6fd4 063c 8e73 c9bb
00000310: 3ced 65b8 4185 16bc d10e 4cbc 8f27 19b8
00000320: 2314 8ab9 200c 14b8 7354 e3ba 6c02 afb8
00000330: 1336 b93b 1833 0fb8 7191 5239 56c6 2238
00000340: bd3a 6ab9 6f53 6eb7 a70e 63bb 4494 5db8
00000350: 1d45 62bc 02db 3fbb b06a 5638 bd3c 61bd
00000360: 2170 233b 212e b83a 2000 b03c 2868 bc3a
00000370: b984 07b8 7f5a a838 ce87 1a3c 5d97 3dbb
00000380: 3e4b ffb7 6ff8 63b8 29f5 d13b 1fb5 c8bc
00000390: 0479 953c 5226 3bbb fc82 ddb9 d8a1 c03c
000003a0: fe34 d9b8 30c9 58bb 1981 2bb8 6702 3bb9
000003b0: 0d5f d6ba b2f6 2cbb abfa 04b9 9feb 55b8
000003c0: fb4e 9fb7 4e84 62ba 1758 01ba 8fea 60b7
000003d0: e1b6 f734 901d 19bc 8010 eabc 72d0 123a
000003e0: b706 25bb 16ae 2fb8 0c7a 18b8 ad25 f1b9
000003f0: 0c8b 22bd e33e e1bb c6f8 a7b6 3eb8 38b8

fcs1_batch.weight f4 [400]
-0.00020024211 0.0041330755 0.0061054146 0.00014875576 0.0002466691 -0.00024239197 0.05615463 -7.286665e-05
0.06048139 0.09618316 -0.002184346 0.00019839888 8.980171e-06 -0.0041011497 0.004459239 -0.0001898567
-3.2697174e-06 -1.37775005e-05 1.3271433e-05 -0.00096172054 5.8094083e-05 0.09759291 -1.4076911e-05 -5.8160995e-06
0.019258736 0.09598032 0.0454258 -4.712905e-05 0.2712455 0.006753051 0.013126806 -9.068396e-05
0.080841914 -0.0018677731 8.737365e-06 0.15823312 2.8153134e-05 0.038268074 0.13455118 0.09524658
0.055757742 -0.006395618 0.00022654106 -0.043982934 0.008185322 0.00047355198 0.0047481474 1.9841896e-06
0.0068277423 3.5839963e-05 0.000561805 0.0003412106 -0.0003037217 0.0031500836 0.08243645 0.07745641
-5.6162386e-05 2.05067e-06 0.0017954168 -1.817557e-05 6.936158e-05 0.079589926 8.219746e-06 -0.000756723
8.834917e-06 7.528041e-05 0.04926066 0.119581774 0.010045346 1.425446e-06 0.1844206 0.0007951027
0.0021973127 0.00076277007 -0.00047431086 1.9354906e-05 0.13493028 0.0050719534 -4.8214447e-06 0.19254942
0.08754815 0.00012183417 -0.00036761383 0.14012954 0.08260654 -0.00083030225 7.217493e-06 0.060242083
-0.00022972925 0.0027889223 3.3073964e-05 1.3609567e-05 0.0007173873 0.0069695003 4.348874e-05 0.001727173
0.00016564385 1.0130996e-05 -0.0013665473 0.0013681016 -6.990674e-05 0.025907204 -8.102012e-05 9.731566e-06
0.07128019 0.015576001 0.06591461 -0.0017466682 0.00024534884 4.7944577e-05 1.7175877e-05 1.2874913e-05
1.7595697e-05 1.1628317e-05 2.0088356e-07 -4.507391e-05 0.013332242 -4.3655087e-05 0.000914803 0.0018573087
-4.2657152e-06 0.055905316 0.0062179817 2.7253554e-06 0.0015961177 3.1533797e-05 0.08791253 0.00037303366
0.009248921 0.00020640902 -0.0013193215 -0.00024356646 0.0003820515 0.075016566 -9.335932e-05 0.20970818
0.084271915 2.3915095e-06 1.7536348e-05 0.076313205 -0.0007521604 1.572132e-05 0.026539395 -0.00027920815
0.08604305 0.11909579 0.013868729 0.06407798 -0.009482822 6.247679e-06 0.0068728044 0.002561987
-0.013384754 0.0002588204 0.0005536953 0.17044355 -0.0002313612 -6.9617477e-06 0.09496865 3.600135e-05
-0.00058747485 0.15923649 0.000247445 -0.0014086639 -6.1698076e-05 0.00029185892 -7.295616e-05 -0.0031315603
0.0061001265 1.8125236e-05 0.049997352 0.00034460088 0.008290541 -2.5308067e-05 0.0014388047 -0.00016977896
0.030027732 7.2687635e-06 -0.0012434563 -0.0002627887 0.00094145 -0.00035998723 5.6876135e-05 0.08526626
0.078061216 0.02956336 0.01049399 -5.883762e-05 -0.000816423 0.03950645 6.426599e-06 -1.9454268e-05
0.051765867 0.11096654 0.15749751 -3.8274986e-05 7.514294e-06 0.04090394 -0.0054929033 -0.0003028846
1.4347129e-05 2.5906877e-05 0.0002866098 7.7319375e-05 -0.003430991 7.9962165e-06 -9.922664e-05 0.0005201562
0.00015835022 1.256841e-05 0.04805391 -4.0488518e-05 0.09673773 0.00018038801 -3.954753e-05 0.04783356
-0.00020696198 0.18636523 0.083189204 0.008265551 3.5150078e-06 5.0307535e-05 -0.0019540354 -0.0028284513
1.5328871e-05 3.0041725e-05 0.114942215 0.07292758 0.049514443 0.07235774 3.4266734e-05 0.1769027
0.00014633058 0.00041051823 1.0510879e-05 -6.6888344e-05 0.00012100853 0.0662173 -0.00018244462 7.3946794e-05
-5.1074653e-06 -0.0004679804 -0.00030255687 2.2470522e-05 1.4522834e-05 0.101271644 0.10011327 0.100532964
0.052341007 6.297268e-05 3.647284e-06 1.3532737e-05 0.07678241 0.0032158678 8.163567e-06 5.3173e-05
00000000: 15f8 51b9 c06e 873b ee0f c83b 52fb 1b39
00000010: 5e53 8139 992a 7eb9 6602 663d fccf 98b8
00000020: 56bb 773d adfb c43d 3f27 0fbb 4b09 5039
00000030: 8aa9 1637 f062 86bb cf1e 923b 4514 47b9
00000040: 516d 5bb6 ea25 67b7 5fa8 5e37 f91b 7cba
00000050: 0caa 7338 cbde c73d df2b 6cb7 ea27 c3b6
00000060: 7fc4 9d3c 5491 c43d 6710 3a3d 6fac 45b8
00000070: b1e0 8a3e b348 dd3b d111 573c 952d beb8
00000080: 7290 a53d 11d0 f4ba b296 1237 dd07 223e
00000090: 652a ec37 fcbe 1c3d c9c7 093e a410 c33d
000000a0: 3b62 643d 5592 d1bb a78b 6d39 7327 34bd
000000b0: bb1b 063c 1247 f839 5996 9b3b 1e28 0536
000000c0: 41bb df3b de52 1638 1846 133a 83e4 b239
000000d0: d63c 9fb9 a271 4e3b 71d4 a83d 77a1 9e3d
000000e0: e78f 6bb8 3e9e 0936 3154 eb3a bd77 98b7
000000f0: 3776 9138 0b00 a33d 8ae7 0937 d25e 46ba
00000100: ae39 1437 dddf 9d38 8cc5 493d 4ae7 f43d
00000110: 3c95 243c f451 bf35 c1d8 3c3e 706e 503a
00000120: ca00 103b a2f4 473a edac f8b9 585c a237
00000130: 2a2b 0a3e a132 a63b e5c7 a1b6 ad2b 453e
00000140: 724c b33d 3981 ff38 4bbc c0b9 1e7e 0f3e
00000150: 9e2d a93d a4a8 59ba cb2d f236 67c0 763d
00000160: 7ae3 70b9 5ac6 363b e6b8 0a38 a554 6437
00000170: 0c0f 3c3a 6860 e43b ae67 3638 4f62 e23a
00000180: afb0 2d39 4cf8 2937 b81d b3ba df51 b33a
00000190: e59a 92b8 583b d43c 59e9 a9b8 c244 2337
000001a0: 59fb 913d 7c32 7f3c 3dfe 863d 76f0 e4ba
000001b0: 2aa2 8039 1918 4938 ea14 9037 5501 5837
000001c0: 799a 9337 3e17 4337 74b2 5734 be0d 3db8
000001d0: 7a6f 5a3c 4b1a 37b8 64cf 6f3a f070 f33a
000001e0: 3722 8fb6 f9fc 643d 36c0 cb3b 40e5 3636
000001f0: d334 d13a 2843 0438 7c0b b43d bb93 c339
00000200: c988 173c 806f 5839 15ed acba e065 7fb9
00000210: 164e c839 49a2 993d e7c9 c3b8 bebd 563e
00000220: c196 ac3d d27d 2036 051b 9337 194a 9c3d
00000230: a12c 45ba 47e1 8337 2569 d93c af62 92b9
00000240: 5737 b03d 7ee8 f33d aa39 633c 513b 833d
00000250: d75d 1bbc 27a3 d136 4335 e13b 02e7 273b
00000260: ba4b 5bbc 49b2 8739 dd25 113a c188 2e3e
00000270: 8d99 72b9 f598 e9b6 ec7e c23d 2800 1738
00000280: c500 1aba e40e 233e 81bb 8139 eba2 b8ba
00000290: e763 81b8 a404 9939 0a00 99b8 dd3a 4dbb
000002a0: 92e3 c73b a60b 9837 06ca 4c3d 8cab b439
000002b0: 0dd5 073c a94c d4b7 4696 bc3a b106 32b9
000002c0: b8fc f53c 34e6 f336 78fb a2ba e7c6 89b9
000002d0: a4cb 763a abbc bcb9 498e 6e38 14a0 ae3d
000002e0: 8fde 9f3d dc2e f23c fcee 2b3c 6ac8 76b8
000002f0: 3805 56ba 84d1 213d 11a4 d736 b931 a3b7
00000300: 7208 543d 6d42 e33d 0747 213e 7489 20b8
00000310: 4b23 fc36 e48a 273d d0fd b3bb 7ccc 9eb9
00000320: 73b4 7037 9852 d937 1e44 9639 8626 a238
00000330: 7ada 60bb 7d27 0637 e617 d0b8 175b 083a
00000340: d00a 2639 e9dc 5237 2dd4 443d 37d2 29b8
00000350: 6e1e c63d 8a26 3d39 d6df 25b8 1fed 433d
00000360: ef03 59b9 87d6 3e3e 1a5f aa3d 3c6c 073c
00000370: 60e3 6b36 4e01 5338 460f 00bb 8a5d 39bb
00000380: 8096 8037 1d02 fc37 d366 eb3d 0e5b 953d
00000390: a8cf 4a3d 4b30 943d a0b9 0f38 fb25 353e
000003a0: 5170 1939 d33a d739 e257 3037 6846 8cb8
000003b0: f6c5 fd38 f09c 873d 9b4e 3fb9 e213 9b38
000003c0: cb60 abb6 445b f5b9 7fa0 9eb9 147f bc37
000003d0: 19a7 7337 8267 cf3d 3008 cd3d 3ae4 cd3d
000003e0: 8663 563d 3310 8438 ddc3 7436 aa0a 6337
000003f0: 1940 9d3d 4fc1 523b 41f6 0837 1306 5f38

fcs1_batch.bias f4 [400]
0.00063627725 0.0003813731 0.004550484 -4.6966277e-05 0.0014745625 0.00021838375 0.0031669582 0.00016376616
-0.0074365195 0.018519687 0.004025298 -0.00034359592 9.6489704e-05 -0.00054415467 0.0015177412 -0.000205408
-0.0006942377 0.00042872617 -2.3209352e-06 0.00025478014 -0.0010933937 0.016051417 0.00048600687 -0.00010363388
-0.0068255747 -0.0006259775 0.02115233 2.846075e-07 0.055033345 -0.0002802282 0.0009809459 -0.0009098386
-0.011214857 0.00015862228 0.00016087326 0.044922452 -0.00020411331 0.009506996 -0.04205585 0.026933251
-0.00025629593 -0.0021474992 7.5853573e-06 -9.18565e-06 -0.00030716453 -0.00018386751 0.0013003795 0.00016370954
-0.0004922344 0.00014024672 0.0005432293 0.00037834194 0.00019639746 -0.0020767176 -0.009287639 -0.0015456153
6.837211e-05 -2.1299154e-05 0.00046620576 -0.0006004831 0.000113871305 0.015118858 -0.0005106346 0.001632656
-0.0004610139 -0.00023929882 0.015832392 0.040011466 -0.0064382125 0.00036854148 0.03346252 0.00042900798
-0.000119594806 -1.2145723e-05 -0.00092981325 -9.9650824e-05 0.016159305 -0.0012878109 0.00031722433 0.004606796
-0.022116236 0.00012441847 0.00031296315 -0.039164454 0.0035816815 7.347064e-05 6.5555537e-07 0.010268802
-0.00036322576 0.0010376087 0.00060793053 0.00069248746 -0.00023547647 0.005116694 0.00052313844 -0.0004424874
-0.00022933807 3.399846e-05 -0.0030355977 -8.7755114e-05 -0.00030579098 -0.00079447456 -0.00021924007 0.00072815985
-0.008696062 -0.007147522 0.020536955 0.00042565196 9.077447e-05 -6.9461305e-05 9.501942e-05 2.6715996e-05
-0.00048732216 0.0007535653 -6.6909806e-06 0.000537515 0.0073458273 0.00063089206 3.414347e-05 -0.00048154485
-5.6756086e-05 0.019246891 -0.00055707135 -0.00030628048 -0.000215596 -4.0064595e-05 0.014186422 0.000114518145
-0.001534553 0.00010355515 0.00026139247 -0.00019027526 -9.515529e-05 0.015239249 0.00020777201 0.036620196
0.00766669 6.313906e-05 -1.5691621e-05 0.021762388 0.0005398168 -0.00061611406 -0.0086498875 9.776675e-05
0.038362913 -0.01544442 0.004464907 0.019717745 0.005736068 0.0005380248 -0.0014402716 0.000391626
0.014897825 -6.8368834e-05 -6.96118e-05 -0.007206352 -0.00011309718 0.00042830894 0.019875538 -0.00026382675
0.0012262531 -0.028252559 0.0009505738 0.00028950468 4.958488e-07 -0.00017260211 -4.94892e-05 -0.010109059
-0.0010167916 0.00016199904 -0.009745317 9.030608e-05 -0.0005223002 0.000114677234 0.00070563453 -1.725653e-05
0.01158517 -0.00022246836 0.0013053432 -0.0004467065 -6.5533284e-05 -0.0007657329 0.0011503602 0.01939661
0.024876975 -0.0014195972 0.004837013 0.00040136295 3.1302316e-05 -0.0009396569 0.00016418408 -0.00023395412
0.0058945916 -0.0049176193 -0.045286287 0.00019621398 4.112464e-05 -0.0039053212 8.644134e-05 -0.00033097333
-9.761221e-05 -0.00060182804 0.00017289285 -0.000100556164 0.00091721903 4.0227056e-05 -1.055905e-05 -0.00037626794
0.00020061464 0.00014165418 0.01267342 3.688879e-05 0.037229925 0.00047666795 0.0008395156 -0.0026842633
4.564815e-05 0.034134254 0.017316142 0.0046026343 -0.0008303624 0.00020835272 0.0012419918 -0.0021114876
-0.00026614062 0.00027646794 -0.0022927185 0.008899395 0.0071272533 0.019724065 0.00077910966 0.041212715
-7.297568e-05 0.000615832 0.000573547 -0.0006783104 -6.40915e-06 0.0028256008 0.00050989666 0.00012443698
0.00010830713 -5.9727114e-05 0.00068599696 -0.00014008666 -1.0096886e-05 0.029062852 0.0323738 -0.025037287
0.0026535995 0.00014364537 -0.00031542304 -0.00061197084 0.023175966 0.00015997766 -0.00026117137 -0.0009435652
00000000: d8cb 263a 08f3 c739 3a1c 953b a8fd 44b8
00000010: 1b46 c13a f1fd 6439 be8c 4f3b a5b8 2b39
00000020: 0cae f3bb 99b6 973c a6e6 833b aa24 b4b9
00000030: 845a ca38 9aa5 0eba f2ee c63a ca62 57b9
00000040: 81fd 35ba a7c6 e039 5dc1 1bb6 0394 8539
00000050: 3450 8fba 437e 833c bdce fe39 0456 d9b8
00000060: 12a9 dfbb a418 24ba a747 ad3c 28cc 9834
00000070: a56a 613d 98eb 92b9 1593 803a 3c82 6eba
00000080: 85be 37bc d853 2639 16b0 2839 9b00 383d
00000090: 4007 56b9 3bc3 1b3c c142 2cbd 1fa3 dc3c
000000a0: 755f 86b9 0fbd 0cbb b985 fe36 111c 1ab7
000000b0: ed0a a1b9 8fcc 40b9 7f71 aa3a 72a9 2b39
000000c0: 4b09 01ba 310f 1339 8067 0e3a 325c c639
000000d0: 0bf0 4d39 8a19 08bb 2e2b 18bc 3e96 caba
000000e0: ff62 8f38 96ab b2b7 146d f439 bd69 1dba
000000f0: 31ce ee38 16b5 773c 1cdc 05ba d8fe d53a
00000100: 3db4 f1b9 4aec 7ab9 efb2 813c 10e3 233d
00000110: a4f7 d2bb cd38 c139 ff0f 093d 7aec e039
00000120: f9ce fab8 7cc5 4bb7 b6be 73ba a1fb d0b8
00000130: 8560 843c c3cb a8ba 2151 a639 9bf4 963b
00000140: 1c2d b5bc 5476 0239 3415 a439 e86a 20bd
00000150: a5ba 6a3b 4014 9a38 6cf9 2f35 7a3e 283c
00000160: 566f beb9 5f00 883a 875d 1f3a 0c88 353a
00000170: 3cea 76b9 f1a9 a73b 3a23 093a a7fd e7b9
00000180: 787a 70b9 9299 0e38 e1f0 46bb 2b09 b8b8
00000190: 9252 a0b9 4944 50ba cfe3 65b9 fbe1 3e3a
000001a0: ed79 0ebc c335 eabb 1e3d a83c 0a2a df39
000001b0: 2c5e be38 c1ab 91b8 2a45 c738 2a1c e037
000001c0: 467f ffb9 e98a 453a 1683 e0b6 05e8 0c3a
000001d0: 44b5 f03b 7362 253a 4635 0f38 db77 fcb9
000001e0: 620d 6eb8 a8ab 9d3c 6d08 12ba 4594 a0b9
000001f0: 9c11 62b9 080b 28b8 2b6e 683c 7629 f038
00000200: 0e23 c9ba bf2b d938 810b 8939 a084 47b9
00000210: 1b8e c7b8 0bae 793c 60dd 5939 0fff 153d
00000220: db38 fb3b 8669 8438 80a1 83b7 0947 b23c
00000230: 7e82 0d3a b782 21ba 42b8 0dbc 2008 cd38
00000240: 6e22 1d3d 980a 7dbc 5b4e 923b 1c87 a13c
00000250: a0f5 bb3b 3c0a 0d3a 7fc7 bcba 2753 cd39
00000260: 0216 743c 3d61 8fb8 8dfc 91b8 4323 ecbb
00000270: 962e edb8 a78e e039 06d2 a23c 3a52 8ab9
00000280: 3aba a03a e971 e7bc ee2f 793a a9c8 9739
00000290: 781a 0535 87fc 34b9 a092 4fb8 77a0 25bc
000002a0: dd45 85ba 49de 2939 d2aa 1fbc b562 bd38
000002b0: f9ea 08ba df7e f038 55fa 383a 1ec2 90b7
000002c0: bacf 3d3c 6546 69b9 0d18 ab3a ee33 eab9
000002d0: ea6e 89b8 77bb 48ba afc7 963a a4e5 9e3c
000002e0: ccca cb3c c711 baba ce7f 9e3b 066e d239
000002f0: 9b4a 0338 4f53 76ba d428 2c39 9551 75b9
00000300: 6b27 c13b fb23 a1bb 1d7e 39bd cabe 4d39
00000310: 3f7d 2c38 6bf0 7fbb d747 b538 7d86 adb9
00000320: 28b5 ccb8 ffc3 1dba 924a 3539 aee1 d2b8
00000330: 8771 703a 79b9 2838 c626 31b7 d445 c5b9
00000340: 155c 5239 0189 1439 2da4 4f3c 09b9 1a38
00000350: 687e 183d 4ae9 f939 f012 5c3a 77ea 2fbb
00000360: 5476 3f38 5cd0 0b3d 95da 8d3c b2d1 963b
00000370: adac 59ba 4279 5a39 54ca a23a e260 0abb
00000380: ca88 8bb9 e6f2 9039 6f41 16bb c5ce 113c
00000390: bc8b e93b 5d94 a13c 2a3d 4c3a aace 283d
000003a0: 850a 99b8 c96f 213a 165a 163a a4d0 31ba
000003b0: 2e0e d7b6 b72d 393b 96aa 053a 4c7b 0239
000003c0: f322 e338 8083 7ab8 7ad4 333a 3ae4 12b9
000003d0: cc65 29b7 3815 ee3c 649a 043d ff1a cdbc
000003e0: 03e8 2d3b 839f 1639 5d5f a5b9 ab6c 20ba
000003f0: 86db bd3c adbf 2739 d4ed 88b9 9759 77ba

fcs1_batch.running_mean f4 [400]
8.539233e-05 3.785083e-09 0.0020407035 0.000722236 0.001856843 2.13918e-05 0.0011909398 1.17514555e-05
0.040027387 0.010598373 0.0038627388 1.0812808e-29 1.0904635e-06 2.5556378e-07 0.0021924947 5.2355937e-15
3.8908446e-08 0.00043226173 4.7858183e-11 0.0019391497 6.5871094e-21 0.008375619 1.1676467e-06 6.793184e-05
0.0020906508 0.0032973753 0.008585868 6.432755e-05 0.013558622 3.154715e-06 1.4609467e-21 4.7802278e-06
0.0016532264 0.00126513 6e-45 0.02754608 9.791182e-06 0.0064964644 0.019052856 0.009803054
0.000729049 0.001973074 9.7045174e-08 4.2782092e-05 0.00012827553 0.0046660276 0.0056235325 7.401641e-09
0.0048188656 2.492092e-06 0.0007927821 0.002439361 0.0011118067 0.0035854888 0.028252508 0.02063187
1.2884304e-33 6e-45 0.000917477 2.6192407e-05 1.1826781e-25 0.0030566414 6e-45 0.00070150883
2.4229283e-05 1.4844857e-06 0.0044040796 0.011847248 0.0030282598 6e-45 0.02575447 2.649266e-26
0.0023710593 2.42962e-06 0.004280899 7.891902e-06 0.02055962 0.004034412 4.520612e-14 0.01222117
8.662093e-05 0.00016464177 5.923949e-28 0.019048123 0.0049236757 0.00011752314 6e-45 0.0016413883
0.003330904 0.006128208 0.00079413265 6e-45 0.0017405857 0.006158177 3.2247385e-06 0.0012665985
6e-45 6e-45 0.0067199543 1.8269928e-05 1.1163564e-06 0.00023493593 2.2990682e-06 5.873951e-08
0.00025965576 0.010566232 0.015608699 0.0070244977 6e-45 7.5459684e-05 1.3878541e-06 0.00021312952
3.4431748e-06 2.9000614e-06 6.818015e-31 3.6557337e-06 0.0022926512 0.0001522153 2.597163e-05 0.0015171084
1.503174e-05 0.004251393 4.949403e-09 0.00012628511 0.00031758085 2.3678528e-08 0.006267817 6e-45
0.00024435844 6e-45 7.159203e-05 4.6388764e-09 6e-45 0.015980292 6.257222e-05 0.015123112
0.0046535204 5.5257124e-06 6e-45 0.0053255125 0.0027259933 6e-45 0.017524984 0.00081329275
0.0040987264 0.026324859 0.0027589288 0.00890702 0.009695515 6e-45 1.360159e-11 6e-45
0.00586514 8.785885e-07 0.013858713 0.06598711 6e-45 1.1544043e-05 0.0030351125 6e-45
0.0024530038 0.026160836 0.0050394214 0.00047957423 6.7845795e-06 3.0783583e-23 0.00010389239 0.005016507
0.002354119 1.413539e-29 0.0038421531 0.00063231133 0.00071794295 5.6713657e-07 0.0005964695 0.00039783044
0.011820153 6e-45 0.005120967 3.3697138e-08 0.0004333842 6e-45 6e-45 0.003565109
0.006645857 1.8778106e-08 0.0050333827 2.0256843e-05 0.00014510714 2.2239205e-05 6e-45 4.797214e-06
0.0022343262 0.034502022 0.024874603 0.00015563765 6e-45 0.0076210643 2.5773885e-15 0.00087696593
6e-45 2.197542e-06 6e-45 9.840628e-07 0.008923972 6e-45 0.0006204118 0.0008267421
1.3724384e-07 2.024667e-06 0.011162838 5.925279e-05 0.012157429 6e-45 6.94144e-05 4.860311e-06
0.0028387199 0.02793744 0.030272417 0.0075893146 6e-45 0.0007063687 0.01038078 0.0038893155
8.895516e-06 1.16755054e-07 0.020531295 0.008457785 0.024685657 0.017692404 8.517736e-13 0.038724754
6.401577e-05 6e-45 3.667671e-05 8.7732865e-08 0.00014434302 0.0128974505 1.5391754e-05 5.3692997e-06
2.3104703e-07 1.0669006e-21 1.6196688e-10 1.0018413e-06 3.9611105e-06 0.015530245 0.0080525875 0.021041214
0.010533208 8.423961e-06 2.0377165e-23 6e-45 0.0071476297 1.3798244e-29 1.0356832e-07 1.5860685e-06
00000000: a814 b338 f10d 8231 53bd 053b 7054 3d3a
00000010: 5061 f33a 8a72 b337 4f19 9c3a 1e28 4537
00000020: c2f3 233d cca4 2d3c 0126 7d3b 4f4f 5b0f
00000030: 0a5c 9235 6b34 8934 f5af 0f3b d4a1 bc27
00000040: 4a1c 2733 30a1 e239 867b 522e 112b fe3a
00000050: 9dda f81d e439 093c 09b8 9c35 a176 8e38
00000060: 4d03 093b c718 583b beab 0c3c 97e7 8638
00000070: fc24 5e3c 97b5 5336 a3c5 dc1c d865 a036
00000080: 13b1 d83a b8d2 a53a 0400 0000 51a8 e13c
00000090: ce44 2437 4be0 d43b bc14 9c3c fd9c 203c
000000a0: a61d 3f3a b04e 013b 2667 d033 ec70 3338
000000b0: b381 0639 7ae5 983b 9c45 b83b 8651 fe31
000000c0: 93e7 9d3b d13d 2736 b5d2 4f3a b0dd 1f3b
000000d0: 0bba 913a 85fa 6a3b ce71 e73c 2b04 a93c
000000e0: c513 d608 0400 0000 d782 703a c4b7 db37
000000f0: 9168 1216 ef51 483b 0400 0000 76e5 373a
00000100: fd3f cb37 8a3e c735 1950 903b f61a 423c
00000110: c575 463b 0400 0000 0afb d23c 702f 0315
00000120: c663 1b3b 8e0c 2336 c946 8c3b 7667 0437
00000130: a66c a83c 1a33 843b 1c97 4b29 4d3b 483c
00000140: 42a8 b538 b0a3 2c39 c9bc 3b12 cf0a 9c3c
00000150: c956 a13b c176 f638 0400 0000 da23 d73a
00000160: 4c4b 5a3b 22cf c83b 572d 503a 0400 0000
00000170: 5d24 e43a 88ca c93b 9668 5836 fe03 a63a
00000180: 0400 0000 0400 0000 1033 dc3b 5f42 9937
00000190: b7d5 9535 2259 7639 b149 1a36 c648 7c33
000001a0: 6822 8839 fd1d 2d3c a1bb 7f3c c22d e63b
000001b0: 0400 0000 1c40 9e38 4e46 ba35 857b 5f39
000001c0: 4b11 6736 ad9e 4236 da41 5d0d 0755 7536
000001d0: 4e40 163b fc9b 1f39 a7dd d937 b6d9 c63a
000001e0: d530 7c37 454f 8b3b 690f aa31 676b 0439
000001f0: fb80 a639 a265 cb32 4362 cd3b 0400 0000
00000200: 3c1d 8039 0400 0000 ae23 9638 fd63 9f31
00000210: 0400 0000 1ae9 823c 3439 8338 eec6 773c
00000220: 8f7c 983b 8269 b936 0400 0000 a381 ae3b
00000230: 94a6 323b 0400 0000 8e90 8f3c 2733 553a
00000240: 9c4e 863b 3ba7 d73c 25cf 343b c0ee 113c
00000250: f0d9 1e3c 0400 0000 1e48 6f2d 0400 0000
00000260: 5c30 c03b 24d8 6b35 a80f 633c 4024 873d
00000270: 0400 0000 4aad 4137 bde8 463b 0400 0000
00000280: 93c2 203b 404f d63c bb21 a53b 5d6f fb39
00000290: 18a7 e336 3bdc 141a cde0 d938 8361 a43b
000002a0: 9047 1a3b 9259 8f0f a2cc 7b3b b2c1 253a
000002b0: 5634 3c3a 543d 1835 645c 1c3a e693 d039
000002c0: 51a9 413c 0400 0000 c9cd a73b 65ba 1033
000002d0: d837 e339 0400 0000 0400 0000 9ba4 693b
000002e0: 7dc5 d93b 7e4d a132 13ef a43b 3ded a937
000002f0: e727 1839 548e ba37 0400 0000 c1f7 a036
00000300: c66d 123b fe51 0d3d d3c5 cb3c aa32 2339
00000310: 0400 0000 1fba f93b 6db8 3927 30e4 653a
00000320: 0400 0000 7c79 1336 0400 0000 2414 8435
00000330: da35 123c 0400 0000 22a3 223a b9b9 583a
00000340: 4d5d 1334 84df 0736 56e4 363c 3386 7838
00000350: f42f 473c 0400 0000 9292 9138 c115 a336
00000360: d109 3a3b 0fdd e43c dcfd f73c c9af f83b
00000370: 0400 0000 9a2b 393a 2614 2a3c e3e3 7e3b
00000380: f33d 1537 c5ba fa33 3f31 a83c 8592 0a3c
00000390: 9339 ca3c a9ef 903c c2c0 6f2b d99d 1e3d
000003a0: 3440 8638 0400 0000 51d5 1938 a767 bc33
000003b0: c95a 1739 d44f 533c 8a1d 8137 ef29 b436
000003c0: b915 7834 b839 a11c a015 322f 0177 8635
000003d0: aee9 8436 9272 7e3c 00ef 033c a05e ac3c
000003e0: 7a93 2c3c a354 0d37 6b13 c519 0400 0000
000003f0: aa36 ea3b 4aee 8b0f 4969 de33 e6e0 d435

fcs1_batch.running_var f4 [400]
4.3793523e-08 3.1397467e-12 3.1606985e-05 1.1075589e-06 1.51853255e-05 3.1971496e-08 3.0061025e-05 2.591684e-09
0.00089847186 0.0005328434 4.457093e-05 1.7417575e-34 2.5786097e-11 3.0613312e-10 2.5495552e-05 2.1612495e-19
7.22487e-14 8.814715e-08 2.2683086e-17 6.318057e-06 8.1634784e-26 0.00067947933 2.851021e-11 2.1437488e-08
4.3401975e-05 8.614803e-05 0.00016857832 2.0252363e-08 0.00058019627 2.4626887e-09 2.0788339e-24 7.5701345e-10
5.452099e-05 9.423609e-06 6e-45 0.00073827134 2.7183578e-10 0.00018850264 0.0009488899 0.0004152181
1.8249702e-05 2.7990063e-05 3.0616106e-12 2.4217158e-07 5.2477105e-07 2.1648517e-05 4.677185e-05 3.0084686e-14
3.936569e-05 1.0341569e-10 3.8251214e-06 2.3072354e-05 2.1387705e-06 2.5148984e-05 0.0006986352 0.0006783941
2.33061e-39 6e-45 2.7491058e-06 8.608953e-10 1.1912935e-30 0.0001253397 6e-45 3.0236645e-06
8.711814e-10 7.885557e-11 0.000120196695 0.00052738783 3.318096e-05 6e-45 0.0015275057 1.23079615e-29
1.0134357e-05 6.1782035e-10 6.653422e-06 1.7966388e-10 0.0012571433 5.308836e-05 6.483044e-20 0.00075847004
1.1524538e-06 2.1323208e-08 4.999834e-32 0.00071865815 0.00012171956 8.5105754e-08 6e-45 8.450725e-05
6.8601453e-06 2.1184218e-05 1.225785e-06 6e-45 1.4835085e-06 4.9131355e-05 1.563378e-10 2.9077605e-06
6e-45 6e-45 5.4387707e-05 9.159876e-09 3.7026476e-11 2.864195e-06 1.346523e-10 3.2389114e-13
5.470912e-06 0.00014266152 0.00059938856 4.6236826e-05 6e-45 1.4456348e-08 2.9905127e-11 2.7857801e-08
1.12432834e-10 2.3913739e-11 7.694558e-37 1.1910922e-10 5.2096428e-05 7.144283e-07 1.837836e-08 5.272834e-06
1.1680529e-09 0.0001610268 5.6182806e-12 4.1909168e-08 1.3591376e-06 3.666409e-13 0.00028397946 6e-45
1.6564967e-06 6e-45 1.1586353e-07 2.3102107e-13 6e-45 0.0006615782 9.1851415e-09 0.0007731308
0.00019310812 7.607219e-11 6e-45 0.00012640766 1.37968045e-05 6e-45 0.00033361255 2.5467164e-06
0.00010216238 0.0009163885 4.6827387e-05 0.00018036524 0.00021603619 6e-45 6.7691083e-15 6e-45
9.2103546e-05 1.2218093e-10 7.5791366e-05 0.0026285974 6e-45 5.36368e-10 9.390191e-05 6e-45
1.8185145e-05 0.0010402175 1.5671874e-05 1.8354154e-06 2.4069e-10 1.4305974e-27 2.4675634e-08 5.341365e-05
1.8894994e-05 1.9884107e-34 0.00012419793 2.9470414e-06 5.287903e-06 6.344716e-12 1.5034545e-06 2.400737e-07
0.0002747791 6e-45 2.545872e-05 8.342974e-12 5.3910287e-07 6e-45 6e-45 0.00014182781
0.00024044696 2.4288219e-11 9.3945724e-05 2.2613413e-09 4.994725e-07 2.456981e-07 6e-45 6.6235695e-10
3.8841135e-05 0.0011058474 0.0013922922 4.7254176e-07 6e-45 0.0001921212 2.3248933e-18 1.661586e-06
6e-45 5.441936e-11 6e-45 3.7751923e-11 0.00010153784 6e-45 6.150696e-07 1.92725e-06
4.5363878e-12 2.630755e-11 0.00024637187 1.5460103e-08 0.00045210362 6e-45 6.4238996e-09 4.3061476e-08
5.304641e-06 0.0011634905 0.00067591324 7.115159e-05 6e-45 9.1513624e-07 5.170795e-05 4.101935e-05
4.5844942e-10 1.595505e-12 0.0011510242 0.000370347 0.0003674003 0.0008494037 2.098597e-17 0.0012525022
1.5243259e-08 6e-45 2.6683542e-09 1.8487646e-12 1.5374965e-07 0.00038008558 1.6995351e-09 2.5018257e-10
1.4959887e-12 1.7133408e-25 8.440423e-15 1.43267976e-11 3.5547332e-11 0.0005750708 0.00031633017 0.0009848214
0.0004584065 6.177939e-10 4.7850608e-29 6e-45 0.00044092292 3.830629e-33 2.3080114e-13 5.7834477e-11
00000000: 7d17 3c33 a6f0 5c2c be91 0438 6fa7 9435
00000010: 7ac4 7e37 0851 0933 8f2b fc37 6319 3231
00000020: 6d87 6b3a 84ae 0b3a acf1 3a38 f084 6707
00000030: 21d1 e22d 684c a82f 48df d537 c227 7f20
00000040: 8ab0 a229 684b bd33 ec36 d123 b2ff d336
00000050: 311e ca15 161f 323a 49c7 fa2d 8925 b832
00000060: 840a 3638 5faa b438 66c4 3039 6bf7 ad32
00000070: 5018 183a 143c 2931 8cd7 2018 1616 5030
00000080: 78ad 6438 181a 1e37 0400 0000 8d88 413a
00000090: 7c71 952f cba8 4539 ecbe 783a a1b1 d939
000000a0: f016 9937 34cc ea37 1371 572c cf03 8234
000000b0: fedd 0c35 d699 b537 e42c 4438 487d 0729
000000c0: 961c 2538 dc69 e32e 8b59 8036 818b c137
000000d0: cc87 0f36 08f7 d237 9d24 373a 42d6 313a
000000e0: cb60 1900 0400 0000 477d 3836 1fa4 6c30
000000f0: 654c c10d 9f6d 0339 0400 0000 29ea 4a36
00000100: f177 6f30 bd67 ad2e 1c12 fc38 6640 0a3a
00000110: c92b 0b38 0400 0000 9636 c83a 97a2 790f
00000120: bb06 2a37 3ed3 2930 7640 df36 e38a 452f
00000130: bbc6 a43a 31ab 5e38 9913 991f 10d4 463a
00000140: 03ae 9a35 3b2a b732 99cd 810b 5564 3c3a
00000150: b143 ff38 62c3 b633 0400 0000 7c39 b138
00000160: 3330 e636 c3b4 b137 a785 a435 0400 0000
00000170: f71c c735 6412 4e38 2ee5 2b2f f222 4336
00000180: 0400 0000 0400 0000 5b1e 6438 905d 1d32
00000190: 1bd8 222e 7f36 4036 410d 142f a255 b62a
000001a0: c792 b736 6997 1539 4920 1d3a 6aee 4138
000001b0: 0400 0000 b15b 7832 2e86 032e f44b ef32
000001c0: 0f3e f72e f458 d22d 87ea 8203 44f6 022f
000001d0: 1d82 5a38 24c7 3f35 71de 9d32 4ded b036
000001e0: 3589 a030 4dd9 2839 f9ac c52c 9eff 3333
000001f0: 9d6b b635 8666 ce2a 14e3 9439 0400 0000
00000200: cb54 de35 0400 0000 a6d0 f833 a50d 822a
00000210: 0400 0000 c36d 2d3a aecc 1d32 eeab 4a3a
00000220: 117d 4a39 d648 a72e 0400 0000 4c8c 0439
00000230: d378 6737 0400 0000 b8e8 ae39 41e8 2a36
00000240: 0340 d638 cb39 703a 8668 4438 6d20 3d39
00000250: c687 6239 0400 0000 01e2 f327 0400 0000
00000260: b727 c138 e056 062f 2ef2 9e38 8c44 2c3b
00000270: 0400 0000 8b6f 1330 34ed c438 0400 0000
00000280: 4d8c 9837 e857 883a 1877 8337 6558 f635
00000290: 1b52 842f edaf e212 4bf6 d332 7808 6038
000002a0: b180 9e37 0e27 8407 213b 0239 c9c5 4536
000002b0: be6e b136 1f3c df2c 4eca c935 7ae3 8034
000002c0: 3a10 9039 0400 0000 2f90 d537 6ac5 122d
000002d0: deb6 1035 0400 0000 0400 0000 9db7 1439
000002e0: 7d20 7c39 35a4 d52d ba04 c538 f065 1b31
000002f0: 7d13 0635 7de8 8334 0400 0000 3a11 3630
00000300: 5ae9 2238 15f2 903a 937d b63a a5b1 fd34
00000310: 0400 0000 2474 4939 fe8b 2b22 a903 df35
00000320: 0400 0000 c156 6f2e 0400 0000 e308 262e
00000330: b6f0 d438 0400 0000 431b 2535 e755 0136
00000340: 269c 9f2c 5667 e72d 792b 8139 20cd 8432
00000350: 5208 ed39 0400 0000 38b9 dc31 98f2 3833
00000360: 85fe b136 4380 983a c52f 313a 3837 9538
00000370: 0400 0000 afa7 7535 fde0 5838 310c 2c38
00000380: 0509 fc2f 208c e02b f7dd 963a 222b c239
00000390: a29f c039 84aa 5e3a b88f c123 002b a43a
000003a0: 48f0 8232 0400 0000 2f5e 3731 6218 022c
000003b0: 6216 2534 3946 c739 1395 e930 118a 892f
000003c0: ac8a d22b f019 5416 950c 1828 290a 7c2d
000003d0: bd56 1c2e 59c0 163a 1ed9 a539 1f15 813a
000003e0: 4756 f039 62d1 2930 a4a1 7210 0400 0000
000003f0: ac2b e739 3c1e 9f09 f3ed 812a d55b 7e2e

fc2.weight f4 [300, 404]
2.310437e-08 9.1136165e-09 1.3219301e-08 -7.880772e-09 5.3172435e-08 1.6377584e-07 2.4411386e-07 5.501137e-08
-2.1970743e-07 -2.9259525e-07 -1.8029837e-08 -9.400243e-08 -7.519632e-08 -1.814933e-07 1.0936464e-07 -3.6241044e-08
-1.1725472e-08 -1.723413e-08 -2.0634394e-08 -1.2143485e-07 -7.1046276e-09 -9.698203e-07 -2.4007274e-08 2.9167442e-08
-1.3734404e-08 4.2899347e-07 -6.713519e-07 2.2786558e-08 3.3964392e-07 1.2768587e-08 4.362129e-07 1.8543709e-08
1.15781006e-07 2.1281348e-08 -2.6053053e-08 -4.7573644e-07 8.107295e-08 -9.841441e-07 1.700099e-06 1.192894e-07
-3.8862828e-07 -1.5576387e-07 8.667604e-08 -1.7483767e-08 -1.866458e-08 6.975284e-09 -2.6647848e-07 -1.29048505e-08
1.6893951e-07 2.0881716e-07 -1.9643654e-08 2.878107e-08 -1.8702977e-08 2.257476e-08 6.592608e-07 -8.22881e-07
2.1635257e-08 1.4568001e-08 -1.1785433e-07 5.22009e-09 6.340402e-08 6.04575e-08 6.780544e-08 8.785543e-08
9.72519e-09 1.63365e-07 -3.1474252e-07 -3.4703564e-07 8.9696215e-08 -1.4116405e-08 5.877075e-07 9.018683e-08
5.849015e-07 -7.0654664e-08 -5.4208375e-08 7.0591093e-09 -1.6255568e-06 -2.383192e-08 1.0568428e-08 3.0777355e-07
-1.9812994e-07 -5.930275e-08 -4.849221e-08 -3.1227802e-07 -7.243719e-08 -1.16290995e-08 2.5326631e-08 2.8264716e-07
-1.4457423e-08 1.5615187e-08 -2.0938732e-08 -2.8927658e-07 1.0219472e-06 2.3837579e-07 -6.2496133e-09 -1.1905005e-06
1.8213463e-07 -1.1374705e-08 -3.0811626e-07 -3.3621037e-09 1.663553e-08 1.2825729e-09 -1.6120417e-08 1.5603979e-08
-2.1616712e-07 6.361402e-07 3.6135395e-07 2.0264496e-07 1.2025223e-08 2.709441e-08 -2.217612e-07 -2.0331706e-08
-1.5645554e-08 1.1555282e-08 -8.0443165e-08 7.637543e-09 2.885113e-07 -2.3033989e-08 1.4115025e-07 -1.2282302e-07
-2.1411601e-08 -2.3824418e-07 2.5562765e-09 -1.3889325e-08 -7.867602e-09 2.1003135e-08 9.5500745e-08 4.925294e-07
2.2616543e-08 -3.8623494e-08 6.438812e-08 -1.98389e-07 3.0390737e-07 -1.0629345e-07 2.2909262e-08 6.401311e-07
-2.6042747e-07 2.3525365e-08 -2.3956508e-08 -9.382695e-07 -4.001555e-08 -5.1531124e-08 2.760461e-07 -9.622756e-08
-4.6102718e-07 3.9752516e-07 1.07693566e-07 -2.1460535e-07 2.6549408e-08 9.390016e-08 5.4260862e-08 -1.0709437e-07
-1.8825645e-07 -1.4639244e-08 4.2791207e-08 6.998963e-07 1.4830982e-08 -1.8889004e-08 2.0765533e-07 -2.3158545e-07
-2.8559388e-08 4.023413e-07 8.085814e-08 -6.4919995e-08 7.270857e-08 6.252736e-08 3.0458789e-09 2.193139e-08
1.5619424e-08 -1.2606396e-08 2.6666976e-07 -1.0525149e-08 1.0650201e-08 -2.178768e-08 -2.522429e-07 -2.547616e-08
-8.323733e-08 -1.4553949e-08 6.88634e-07 8.99551e-08 -7.0626e-09 -5.5292514e-07 2.2829553e-08 4.3621284e-09
-1.3195458e-07 -2.5374996e-07 -1.17887055e-07 1.1184428e-08 7.596861e-08 3.2863719e-07 -8.254025e-08 1.03650066e-07
4.4772437e-07 -4.2374094e-07 9.1635535e-08 3.9042618e-08 -1.8146588e-08 -1.01201785e-07 9.564501e-08 1.2999189e-07
2.1599569e-09 1.0078682e-07 -3.8118124e-08 2.053204e-08 -2.5580215e-08 -8.57592e-09 -2.2764631e-08 -4.1216444e-07
-8.9504006e-08 -7.562629e-08 -1.6046552e-07 2.2658607e-08 1.4626477e-07 2.7365848e-08 2.418259e-08 1.8855185e-07
-2.9051328e-08 -6.299076e-07 -1.7024881e-06 -1.3411514e-07 3.842386e-08 -1.8757461e-08 -8.611409e-08 -9.59963e-09
-1.1681591e-08 4.3306006e-08 2.0277058e-07 -3.8583376e-08 6.13609e-07 4.9436853e-08 2.578347e-07 -1.385165e-06
-1.5375097e-07 3.4444034e-07 2.5076307e-08 -2.1472847e-08 -5.54913e-08 -2.389897e-07 -8.560912e-08 7.64351e-08
1.4670573e-08 2.5781478e-08 -3.978001e-08 -3.1504346e-08 -8.6003894e-08 -1.4756829e-07 -2.0681078e-07 4.779835e-07
1.8231712e-07 -2.0896825e-07 -1.3515528e-07 2.1397517e-07 -6.435459e-08 -3.0933165e-07 -5.9511656e-08 -9.775882e-09
00000000: 0c77 c632 1c92 1c32 1a1b 6332 0064 07b2
00000010: b65f 6433 5cda 2f34 c10e 8334 a445 6c33
00000020: b8e8 6bb4 fc15 9db4 08e0 9ab2 62de c9b3
00000030: 9d7b a1b3 80e0 42b4 d9db ea33 73a7 1bb3
00000040: 2c71 49b2 410a 94b2 833f b1b2 c263 02b4
00000050: f71c f4b1 c62a 82b5 8e38 ceb2 e28b fa32
00000060: 8cf4 6bb2 6a50 e634 f436 34b5 2cbc c332
00000070: 4e58 b634 d75c 5b32 a530 ea34 0c4a 9f32
00000080: 48a3 f833 2ece b632 45cb dfb2 b868 ffb4
00000090: 531a ae33 ef16 84b5 f52e e435 0516 0034
000000a0: aaa4 d0b4 0c40 27b4 a822 ba33 362f 96b2
000000b0: d853 a0b2 3fab ef31 8610 8fb4 22b4 5db2
000000c0: bd65 3534 3937 6034 dabc a8b2 3e3a f732
000000d0: 48a8 a0b2 6cea c132 0ff8 3035 f4e3 5cb5
000000e0: 6fd8 b932 bf46 7a32 1a17 fdb3 665c b331
000000f0: bb28 8833 ddd4 8133 6f9c 9133 09ab bc33
00000100: d713 2732 6e69 2f34 e2f9 a8b4 3750 bab4
00000110: 049f c033 9b84 72b2 f4c2 1d35 bcac c133
00000120: 2002 1d35 d0ba 97b3 bdd2 68b3 958c f231
00000130: b52d dab5 f2b6 ccb2 7090 3532 133c a534
00000140: 8bbd 54b4 10b4 7eb3 c045 50b3 2aa7 a7b4
00000150: c48e 9bb3 52c9 47b2 da8d d932 bbbe 9734
00000160: 6b60 78b2 2922 8632 c2dc b3b2 df4d 9bb4
00000170: d729 8935 3df4 7f34 2ebc d6b1 49c9 9fb5
00000180: c990 4334 7b6a 43b2 2d6b a5b4 c10a 67b1
00000190: ebe5 8e32 8646 b030 2c79 8ab2 8309 8632
000001a0: 911b 68b4 39c3 2a35 1c00 c234 9f96 5934
000001b0: 7d97 4e32 3dbd e832 411d 6eb4 e5a5 aeb2
000001c0: f064 86b2 ab84 4632 19c0 acb3 4536 0332
000001d0: b1e4 9a34 47dc c5b2 168f 1734 56e1 03b4
000001e0: 9cec b7b2 10d0 7fb4 7eaa 2f31 e69d 6eb2
000001f0: 142a 07b2 626a b432 1716 cd33 5d36 0435
00000200: 4e46 c232 fbe2 25b3 be45 8a33 c104 55b4
00000210: b628 a334 7143 e4b3 00ca c432 79d5 2b35
00000220: e1d0 8bb4 d314 ca32 ebc8 cdb2 64dd 7bb5
00000230: 90dd 2bb3 1253 5db3 7d33 9434 a9a5 ceb3
00000240: 1883 f7b4 716b d534 2a45 e733 456e 66b4
00000250: c40e e432 29a6 c933 730c 6933 c1fb e5b3
00000260: 8a23 4ab4 1380 7bb2 6ec9 3733 82e0 3b35
00000270: 59cb 7e32 5c41 a2b2 ddf7 5e34 b9a9 78b4
00000280: c252 f5b2 5e01 d834 3ca4 ad33 256a 8bb3
00000290: f623 9c33 c846 8633 ab4f 5131 a363 bc32
000002a0: 7a2b 8632 8493 58b2 d02a 8f34 18d2 34b2
000002b0: 14f8 3632 9d27 bbb2 006c 87b4 abd6 dab2
000002c0: 35c0 b2b3 f208 7ab2 91da 3835 572d c133
000002d0: 49ab f2b1 ba6c 14b5 b81a c432 b0e1 9531
000002e0: 66af 0db4 213b 88b4 1829 fdb3 a225 4032
000002f0: 2f24 a333 8d6f b034 fb40 b1b3 3a96 de33
00000300: c55e f034 837e e3b4 2bc9 c433 d0af 2733
00000310: c5e0 9bb2 4554 d9b3 6665 cd33 e693 0b34
00000320: 5d6e 1431 2470 d833 52b7 23b3 6f5e b032
00000330: 7dbb dbb2 4c55 13b2 f48b c3b2 7347 ddb4
00000340: 5935 c0b3 fe67 a2b3 6d4c 2cb4 cea2 c232
00000350: f40c 1d34 2312 eb32 14ba cf32 bd74 4a34
00000360: 8c8c f9b2 ec16 29b5 0c81 e4b5 4a01 10b4
00000370: 7b07 2533 1820 a1b2 b9ed b8b3 9feb 24b2
00000380: 2eb0 48b2 75ff 3933 27b9 5934 dfb6 25b3
00000390: e4b6 2435 6554 5433 886c 8a34 e8e9 b9b5
000003a0: bf16 25b4 85eb b834 6267 d732 4a73 b8b2
000003b0: 5455 6eb3 7f4e 80b4 1dd8 b7b3 a424 a433
000003c0: dd09 7c32 1276 dd32 95da 2ab3 654f 07b3
000003d0: 24b1 b8b3 4373 1eb4 b70f 5eb4 c74e 0035
000003e0: f3c2 4334 c160 60b4 331f 11b4 0cc1 6534
000003f0: 4f33 8ab3 3812 a6b4 c299 7fb3 c9f2 27b2
