ContinuousControl/checkpoint_actor_local.pth (torch_old, 554892 bytes, 18 tensors)

fc0_batch.weight f4 [33]
000000 fb c8 f7 3e 36 f9 44 3f 84 0a e3 3d e7 51 35 3e
       0.48395523 0.76942766 0.1108599 0.17707025
000010 95 e4 ad 3e 5f 0a 33 3f a7 71 06 3f 6f 1e 5d 3f
       0.33963457 0.699377 0.5251717 0.8637456
000020 7a 54 e7 3e 13 11 1e 3f 29 5f b7 3e 44 e8 ce 3e
       0.45181638 0.61744803 0.3581479 0.4041158
000030 b8 25 dc 3c 3e 4e 41 3e 00 70 9f 3e 74 26 0e 3f
       0.026873454 0.18877503 0.31140137 0.55527425
000040 ef 5f 2f 3f e9 5a 42 3f 90 a6 05 3e 78 10 8d 3e
       0.6850576 0.7591997 0.1305182 0.27551627
000050 12 4d 1d 3f 63 4a 54 3f b3 30 c9 3e ef 5a 5c 3f
       0.61445725 0.82926005 0.39294967 0.86076254
000060 a3 49 dc 3e 48 b6 07 3f c7 38 70 3f 90 21 14 3d
       0.4302493 0.53012514 0.93836635 0.03616482
000070 a7 bb 3f 3e 90 30 bf 3e 12 36 9c 3e 94 97 6e 3f
       0.18723927 0.37341738 0.30510002 0.9320004
000080 b6 f0 06 3e
       0.13177761

fc0_batch.bias f4 [33]
000000 6e 99 bb ba f6 00 a0 3c 7d 3d 1a bd 18 2d 58 bd
       -0.0014312693 0.019531708 -0.037656296 -0.05277738
000010 23 4f 3d bd 19 c2 c2 bd 33 f3 18 3c 9f 3d 52 bc
       -0.04621805 -0.095096774 0.009335327 -0.012832074
000020 ce fb 0e 3d d4 c7 15 3d 6b 74 47 bb 89 cf 92 3d
       0.03490811 0.036567524 -0.003043438 0.071684904
000030 6c 5d da 3c 4e 6d 80 bb 98 98 1a 3d fe be 86 bd
       0.026655875 -0.00391928 0.03774318 -0.065793976
000040 ab 7c 4b 3c 31 e7 73 bb 76 fa d1 bc 8a ca 0b bd
       0.01241986 -0.0037216658 -0.025632124 -0.034128703
000050 de bf 5a bd 89 ee b1 ba 08 6c 80 3d 3d 94 f0 3c
       -0.053405635 -0.0013575117 0.06270605 0.02936756
000060 a0 9a c9 3c 8e f9 0d 3d 33 22 ab 3c f5 c6 c1 bc
       0.024609864 0.034661822 0.02089033 -0.02365444
000070 fd 79 31 bd 54 24 b0 3c 54 8a 78 bc 3e ac fe 3c
       -0.043329228 0.021501698 -0.015169699 0.03108799
000080 42 df d8 3b
       0.0066184113

fc0_batch.running_mean f4 [33]
000000 1b 94 a2 3f 19 93 38 bf 89 3b 7f bf f6 9c 8a bc
       1.2701448 -0.72099453 -0.9970022 -0.016920548
000010 04 ae 34 3c 57 b0 79 3d fb 47 2a 3d f8 b8 06 3f
       0.011027817 0.060959186 0.041572552 0.5262599
000020 c2 48 48 bd 06 da bc 3e 7d 68 0a 3e 85 2f 06 be
       -0.048897512 0.3688509 0.13516422 -0.13104065
000030 04 bd 6f 3e 1b b0 37 40 83 58 e3 bf f6 32 f1 bf
       0.23411947 2.8701236 -1.7761387 -1.8843677
000040 7f 37 8c 3c 82 da 50 3d 8a 85 87 3d 44 06 aa bd
       0.017116306 0.050989635 0.066172674 -0.08301976
000050 47 83 04 3f d0 24 b8 bd c2 0d a3 3f 77 4c 8c 3e
       0.51762813 -0.089913964 1.2738574 0.27402088
000060 62 97 e6 3e 00 81 16 3f 38 fe 1b be fc ff 7f bf
       0.4503737 0.5879059 -0.15233696 -0.99999976
000070 f2 dc 3e bf 00 00 00 00 fc ff 7f 3f 00 00 00 00
       -0.74555886 0.0 0.99999976 0.0
000080 3a 2b b9 be
       -0.36165792

fc0_batch.running_var f4 [33]
000000 3c e8 a7 40 dc 3e 80 40 9d 48 77 40 ec ca 76 3e
       5.247099 4.0076733 3.863807 0.24100846
000010 71 28 57 3e 4a ee b2 3e 69 1c 39 3e d6 d8 8f 40
       0.21011521 0.34947425 0.18077244 4.495219
000020 a7 34 cb 3e e7 15 37 3f 91 5d 3c 41 4e b1 92 41
       0.39688608 0.71517795 11.772843 18.336575
000030 87 f9 43 41 7e 26 8c 41 9a 85 77 41 ed 35 7a 41
       12.24842 17.518795 15.470118 15.638165
000040 ec c1 97 3e 27 26 45 3e 17 b5 8e 3e 42 3e 5c 3e
       0.29640138 0.19252835 0.27872536 0.21508124
000050 a8 88 bf 40 57 51 55 40 08 46 96 40 44 de 19 42
       5.9854317 3.3330896 4.6960487 38.467056
000060 da 17 68 42 1a aa 37 42 51 be fe 41 04 00 00 00
       58.023293 45.916115 31.842928 6e-45
000070 e0 ba fd 41 04 00 00 00 04 00 00 00 04 00 00 00
       31.716248 6e-45 6e-45 6e-45
000080 61 08 c8 3a
       0.0015261286

fc1.weight f4 [400, 33]
000000 6b e3 a2 bc 5c 7f e1 3c 96 89 0e bb 9d 17 ca 3c
       -0.019883832 0.02752655 -0.0021749488 0.024669463
000010 97 74 14 bd af 4f d6 bc d6 7c 24 bc c8 0f c0 3c
       -0.036244 -0.026161043 -0.010039529 0.023445025
000020 5a 19 8e 3b d4 8a 93 3a e2 1e 0a 3d 06 59 d0 bc
       0.0043365182 0.0011256584 0.03372086 -0.025433075
000030 9a 2a 75 bc 58 cc 25 3c 00 4b da 3c a3 08 12 bd
       -0.01496377 0.01011952 0.02664709 -0.035652768
000040 93 8b 38 3d 3b f2 0f bc 0e e7 9a 3b 31 82 02 bd
       0.045054983 -0.00878578 0.004727251 -0.03186244
000050 be 9a 9a 3c b3 65 f8 3b 0f 18 1b bd 58 d7 22 bd
       0.018872615 0.007580483 -0.03786474 -0.03975615
000060 cf 7c 3e 3d 4b c9 af 3b a0 e1 db 3c 55 d7 34 3d
       0.046505746 0.005364572 0.026840985 0.04415067
000070 28 cc 0d 3c 11 4b b7 bc c7 83 15 3d 62 3a 3c bd
       0.008654632 -0.022374662 0.036502626 -0.045954116
000080 24 85 31 bd 9b 71 ef 3c 58 45 a3 3a e6 28 dc 3c
       -0.043339863 0.029228976 0.0012456579 0.02687497
000090 6b 7f 12 bc ff 6e c0 b9 50 ed 62 3d df 8a 67 3c
       -0.008941512 -0.00036703792 0.0554021 0.014132231
0000a0 8b 27 a2 bc 7f 2f be bc 9c bc ec bc d8 af c3 3a
       -0.019794246 -0.023216007 -0.02889853 0.0014929725
0000b0 75 a1 f6 bc 39 8b 10 3d 87 34 0b 3d 23 2d 3c bb
       -0.030106286 0.035289023 0.03398564 -0.0028713427
0000c0 b8 a6 7b 3d 1e c0 04 3d ff 73 20 bd aa 44 1e bc
       0.061438292 0.03240978 -0.039173122 -0.0096599255
0000d0 f9 87 b9 bc 46 db a3 bb 22 72 49 3c 07 55 06 bd
       -0.022647845 -0.0050005047 0.012295278 -0.032795932
0000e0 e2 86 d7 bc 43 84 00 bd 43 0b 17 3d b8 a8 3e bb
       -0.026309434 -0.031376135 0.036875974 -0.0029092263
0000f0 01 c1 46 3d 21 a8 a2 bc a5 49 e7 3c f7 b0 f1 bc
       0.048523907 -0.01985556 0.028233359 -0.029503329
000100 66 45 c9 bb 9a 09 2f bd 6d d9 27 3d 02 3b ec 3c
       -0.006142306 -0.042733766 0.040978838 0.02883673
000110 ea ab 05 3d 21 36 62 bc 0a 25 0a 3d b0 15 36 3d
       0.032634653 -0.013806851 0.03372673 0.044454277
000120 e2 88 fb 3c 9e a0 9e 3c 5c 4b 62 3c f7 8f e7 3c
       0.03070492 0.019363698 0.013811912 0.02826689
000130 6c 15 1d 3a b3 18 a1 ba c4 46 ad bc f6 45 28 bc
       0.0005992267 -0.0012290686 -0.021151908 -0.010270586
000140 10 de 2b bc 8b 9f 5f 3d d9 08 7a 3c 6d 86 cb bc
       -0.010489956 0.05459551 0.0152608985 -0.024844373
000150 8a 6f c5 3c f0 ee 27 bd cd 7f 24 3b 47 20 a3 3c
       0.024101038 -0.040999353 0.002510059 0.019912852
000160 61 2c b8 3b 0e 86 85 3c 28 2c 1b 3d 3b 36 ec 3c
       0.0056205248 0.016299274 0.037883908 0.028834453
000170 a6 86 31 bc 62 4e 08 bd 76 e6 40 3d c0 bc 20 3d
       -0.010835325 -0.033277877 0.047094785 0.039242506
000180 a7 2e ce bb 5f 4c 14 bc ea 68 e5 bc 1d 08 87 3c
       -0.0062921825 -0.009051411 -0.028004128 0.01648336
000190 b9 cc ae bc eb c0 88 bc 6f e9 bf 3c a1 8c 8c 3c
       -0.021337854 -0.016693553 0.02342674 0.0171569
0001a0 34 cb 6a bd ab 07 c8 bc a0 08 cf bc 45 53 50 bd
       -0.057322696 -0.024417719 -0.025272667 -0.050860662
0001b0 1d 1d 51 bd 16 0e 16 bc 31 e8 1e 3d 2d 4d 03 3d
       -0.051053155 -0.009158632 0.038795654 0.032056022
0001c0 1b 19 9b 3c 89 b1 e0 3c 61 45 02 bd a3 2a 41 3d
       0.01893287 0.027428405 -0.031804446 0.047159802
0001d0 ab 1a 22 bd a3 92 22 3d c1 e3 bf bc 6b 54 12 3d
       -0.039576214 0.039690625 -0.023424031 0.03572504
0001e0 88 df 34 3d 16 71 bb 3c 84 a7 24 bc 78 10 4f bc
       0.04415849 0.022881072 -0.010049704 -0.012638204
0001f0 60 0c 07 3d a4 e3 22 3d 96 fe 48 bb 26 b4 01 bc
       0.032970786 0.039767876 -0.0030669323 -0.007916486
000200 fa 1c 33 3c 6b e4 11 bd 4f 7b 30 3d 4f bf 8b 3c
       0.0109322015 -0.035618227 0.043086346 0.017058996
000210 30 72 4b 3d 7f 9d 26 bd 7c e8 99 bc 8e 58 52 3d
       0.049669445 -0.040677544 -0.018787615 0.051353984
000220 d6 4d 1a bc 91 3a 7e 3d f3 9a 6c 3d 0c a8 22 3d
       -0.009417972 0.062067572 0.05776496 0.039711043
000230 0d 8f 24 bc f4 7f 04 bb 8c 44 4b bd 86 e9 0a 3d
       -0.010043872 -0.0020217868 -0.04962592 0.03391411
000240 61 20 b4 bc c5 ef 30 3d b8 a7 26 bd 19 a5 6a bc
       -0.021988096 0.043197412 -0.040687293 -0.014321589
000250 29 f7 3d bb 7d 10 d5 3b a5 dd e1 bc 11 42 32 3d
       -0.002898643 0.0065022097 -0.027571509 0.043520037
000260 f2 0a ef 3c 11 68 8c 3c 88 0c 25 bc 29 5f 2e bc
       0.029180024 0.017139466 -0.010073788 -0.010642805
000270 b0 f6 3f bc b9 8b 26 3d f1 34 9a 3c e8 1e 40 bc
       -0.01171653 0.040660594 0.018824073 -0.011726119
000280 3d 08 47 3d 3e c6 ca bb f6 6a 09 3d 38 28 32 3d
       0.04859184 -0.006188183 0.03354927 0.043495387
000290 e9 0d 38 bd 9a 16 d7 ba 2f 61 c7 bc 5f 36 12 bd
       -0.04493514 -0.0016409934 -0.024338333 -0.035696384
0002a0 1b 21 a0 3c 86 78 1a bd 9b d8 0a bd 29 96 c5 bc
       0.019547036 -0.037712596 -0.033897977 -0.024119454
0002b0 cc c8 7d bc 83 fe 96 3c 92 e2 17 3d a2 a8 ca 3c
       -0.015489768 0.018431908 0.03708131 0.024738614
0002c0 d7 9f cd 3c 78 1f 14 3d 39 44 b1 bb 00 e9 8c 3b
       0.025100632 0.036162823 -0.005409744 0.0043002367
0002d0 dc 10 68 bd 7b 38 fb bc f9 31 93 3c 5a 1b 2f 3d
       -0.056656703 -0.03066658 0.017968165 0.042750694
0002e0 fb 0d e7 ba d7 d0 00 3c e2 0e 18 bd 22 be 91 3b
       -0.0017628068 0.007862291 -0.03712357 0.0044477144
0002f0 6d c7 fb bb fe 33 09 3d c4 2c bd bc 15 37 fb bc
       -0.0076836855 0.03349685 -0.023092635 -0.030665914
000300 5a 8a 3a 3d 9e 09 41 bd a5 3e 73 bb 9a c8 8c 3c
       0.0455421 -0.047128312 -0.0037116196 0.017185498
000310 6c 5c 34 bc 5c 61 98 3c 20 a9 27 3d 05 cc 5a bc
       -0.011008363 0.018601112 0.040932775 -0.013354306
000320 6f 73 04 bd f1 cd 83 3c 58 f3 59 bd 91 49 03 3d
       -0.03233665 0.016089411 -0.053210586 0.03205258
000330 61 99 44 bd 58 7d ff bc c0 11 0b 3d df ed 4c bc
       -0.047997836 -0.031187698 0.033952475 -0.012507885
000340 3d a7 18 bd 15 07 35 3c e8 08 35 3d 5e 53 3c 3d
       -0.037268866 0.011049052 0.044197947 0.045977943
000350 ab 28 2c bd d8 4c a8 ba a5 f1 58 bd 74 73 97 bc
       -0.04203097 -0.0012840284 -0.052964825 -0.01848767
000360 c4 f0 1a 3d ad 71 e9 3c cf 0a c1 3c 14 6c d5 3c
       0.03782727 0.028496588 0.023564724 0.026052512
000370 9e ad 01 bc ef 2b 54 3d d2 ac e9 bc f0 a2 0a 3d
       -0.007914929 0.05179971 -0.02852479 0.033846796
000380 19 0b 47 3c 02 be 1e bc 96 76 d3 3c 49 73 6a 3c
       0.012148642 -0.009688856 0.025813382 0.014309713
000390 66 40 86 bc e5 15 01 bc 8e 85 c3 3c a6 a1 94 3c
       -0.01638813 -0.007878755 0.023867395 0.018143486
0003a0 ee 30 d2 3c b2 b7 32 3c db 9a e0 bc e9 8e 15 3c
       0.025658097 0.010908054 -0.02741759 0.009128311
0003b0 8c fd d9 3b fa a4 ed 3b b7 c5 be bc a9 5b 14 3d
       0.0066525396 0.0072523328 -0.023287637 0.036220226
0003c0 5b 2a c1 3c a1 3f ad 3c d6 d9 fc bc 32 dc f5 bc
       0.023579767 0.021148505 -0.030865591 -0.030012224
0003d0 e9 db e6 3a 24 4e 1e 3d 86 3a 69 3b 0a 92 56 bc
       0.0017613146 0.03864874 0.0035587861 -0.013096342
0003e0 68 0e 2a 3d 59 f2 ac bc 38 fc 3a bd 13 cc 4d 3d
       0.041517645 -0.021111654 -0.04565069 0.05024345
0003f0 d4 ca 7e bc 3b 35 6d 3d cc fd 10 bd bc fe 72 3d
       -0.015551288 0.057912093 -0.03539829 0.059324965

fc1.bias f4 [400]
000000 8d d4 a5 bd e7 f6 a5 3c b0 ef 33 bd b4 9b d8 bd
       -0.080971815 0.020259334 -0.043929756 -0.10576573
000010 39 b6 13 3e af f8 0d 3e 8b 95 84 3c ab 88 04 3e
       0.14424981 0.13864397 0.016184589 0.1294276
000020 60 54 02 3d 54 69 73 3d 5d fe 92 3d df 6f a5 3d
       0.031818748 0.05942662 0.07177422 0.08077978
000030 cf 3a 7c 3d 87 e8 a5 3d e6 03 1f 3e 5b 8e 88 3d
       0.06157952 0.08100992 0.15528831 0.06667777
000040 c7 56 f5 bd 3d b6 82 3d 85 d4 31 3e 4e 2d 1a 3e
       -0.11979442 0.063824154 0.17366226 0.15056345
000050 0f e1 e0 3d 12 1a 90 bd 21 c7 30 3e 47 c8 01 3d
       0.109804265 -0.070362225 0.17263462 0.03168514
000060 a7 e0 ac bd 03 1c 02 3d f8 9d e7 3d 04 dc 2a be
       -0.084412865 0.031764995 0.11309427 -0.16685492
000070 89 7d 6a bd 58 55 0c 3e 2d dd 5b bd 2f 4a 90 bd
       -0.057248626 0.13704431 -0.053677727 -0.070453994
000080 39 51 f9 bc 3b 1d 62 3d b4 b0 0a be d6 e9 4c 3d
       -0.030434238 0.055203658 -0.1354397 0.05002769
000090 d7 70 9b 3c 16 74 28 3d c6 fa b4 3b 87 a3 a9 3d
       0.018974705 0.041126333 0.0055230586 0.082831435
0000a0 8b b7 01 3c a2 ac 0b 3e 20 bb dc 3d 5f f5 f3 bd
       0.007917295 0.13640073 0.10777879 -0.11912035
0000b0 84 d9 4f bc 38 5d 0a 3e d8 34 2b bd 86 6c 1b bd
       -0.012686137 0.13512123 -0.041798443 -0.037945293
0000c0 44 ea 82 bc b7 7d 1e bd f8 8c 8e bd c9 42 45 3d
       -0.015980847 -0.03869411 -0.069604814 0.048159394
0000d0 42 e4 16 3e fe 58 d0 3c 44 86 fa 3d fc 0e a6 3c
       0.14735511 0.02543306 0.122326404 0.020270817
0000e0 bd 8b e9 bd da 0a 11 be 1f 4e 4b bd b0 72 4a 3d
       -0.11403606 -0.14164296 -0.04963505 0.04942578
0000f0 c8 6e 95 bc e6 4e a4 bd 04 1f 17 be 70 ef 8b 3c
       -0.018241301 -0.08022861 -0.14757925 0.017081946
000100 eb f4 03 3e f4 31 50 b9 52 28 37 3e 02 62 c2 bd
       0.12886398 -0.00019855035 0.17886475 -0.0949135
000110 49 67 2f 3e 31 45 d3 bd 07 5e 18 3e e7 6c 97 3c
       0.17129244 -0.103159316 0.14879619 0.018484546
000120 80 33 30 3e da 48 2c 3e 2e 6c 4d bd b6 91 30 bd
       0.17207146 0.16824666 -0.050151996 -0.04310771
000130 fe ba 34 bd de c3 39 3d a1 86 aa bd 0c e4 09 bd
       -0.044123642 0.04535281 -0.0832646 -0.033664748
000140 1a 0f aa bd 20 f2 be 3d 43 fe 08 3e 6e a9 5f 3d
       -0.08303662 0.093235254 0.13378243 0.05460494
000150 dc 64 1b 3c 0a f4 fb bd 0c fd 2d be b4 9c 0c be
       0.009484496 -0.12302406 -0.16991061 -0.13731652
000160 d2 a8 02 be 62 8b 20 be 1a 47 73 3d e2 7e 11 be
       -0.12759712 -0.1567817 0.05939398 -0.14208558
000170 6a 04 a1 3d 2d ea fb 3d cb 5e 4a bb d9 bf 2f 3d
       0.0786217 0.12300525 -0.0030879255 0.04290757
000180 0b 8f f1 3d 3b 6b 1d be 30 b9 19 3e 7f 77 2d 3e
       0.117948614 -0.15372936 0.1501205 0.16940115
000190 1f cb 29 3e 86 00 97 bd 6a 04 dd 3d 8e 8c 6c bd
       0.16581391 -0.07373147 0.107918575 -0.05775123
0001a0 00 cb 99 3c 80 33 25 3e 28 81 87 3d ec 3b 1c 3d
       0.018773556 0.16132927 0.066164315 0.038143083
0001b0 e1 b9 31 bd ea 82 a6 bd 9e 74 13 3e 39 5a 27 be
       -0.04339016 -0.081304386 0.14399955 -0.16343011
0001c0 26 cd 02 3d eb 65 26 3b 92 43 52 bd 74 5e 15 be
       0.031933926 0.0025390338 -0.05133397 -0.14586812
0001d0 96 c5 ef bd cd ea d8 bd 50 87 e1 3c b9 f5 93 3d
       -0.117076084 -0.1059166 0.027530342 0.07224602
0001e0 6e 2e 26 be 5e 38 88 bd 71 20 30 be a4 b6 ed 3d
       -0.16228649 -0.06651376 -0.17199875 0.116071016
0001f0 52 82 17 be 4f 19 a9 bc 01 34 b1 bc 27 94 e7 bd
       -0.14795807 -0.02064195 -0.021631243 -0.11307555
000200 f2 19 00 3e e2 5d 9e 3d 89 61 db 3d bc 94 f3 3d
       0.12509897 0.077327505 0.10711963 0.11893603
000210 e4 2b cd bd 99 ba b8 3d 49 d8 0d 3e 25 20 86 bd
       -0.10018137 0.09019966 0.13852037 -0.065491
000220 f6 a3 75 bc 32 c0 93 3c bc 00 32 be 12 34 20 3b
       -0.014992705 0.018035982 -0.17383093 0.0024445099
000230 3f 16 17 bc 46 20 03 be af 48 05 3e 99 f0 2a be
       -0.0092216125 -0.1280528 0.13016008 -0.16693343
000240 d5 3d 5f bd c1 9b ca ba 2e 10 94 3c c4 f4 ec 3b
       -0.054502327 -0.0015457795 0.018074121 0.007231327
000250 f8 b0 d9 bb 9c 3d 1a be 17 0d 01 be 18 ea 53 bd
       -0.006643411 -0.15062565 -0.1260265 -0.05173692
000260 42 31 d9 bd e2 c0 f2 bd 6b b4 50 bd ea 09 35 3e
       -0.10605098 -0.11853196 -0.05095331 0.17679563
000270 21 ca 08 3e 64 29 12 3d df 26 bb bd f1 01 c0 bd
       0.13358356 0.035684004 -0.091382734 -0.0937537
000280 20 0c 2b 3e e9 db 16 bc f8 ee de 3c a3 46 c9 bd
       0.16703844 -0.009207704 0.027213559 -0.09827926
000290 4c eb ae bd 95 60 b8 3d 4a 0b 50 bc 0b 92 4f bc
       -0.08540973 0.090027966 -0.012698004 -0.012669097
0002a0 e1 e1 b2 bd 18 5f 01 be 2f c3 0b be 20 d1 23 be
       -0.08734489 -0.12633932 -0.13648675 -0.15997744
0002b0 e7 ab 22 3e 5b d2 c6 3c e1 fc 2e 3d a0 1b 07 3e
       0.15885888 0.024270227 0.042721633 0.13194132
0002c0 85 39 8b 3d e0 ea d3 bc 47 cb 07 3e 83 72 f1 3a
       0.0679808 -0.025868833 0.13261138 0.0018420968
0002d0 27 0d 34 be 7a fb ec 3d 6d 3d f9 bd bc 2a 05 be
       -0.17583142 0.11571403 -0.12169919 -0.13004583
0002e0 ad 15 73 bd 08 36 10 3d 50 1d 25 3e 79 4f 3a be
       -0.059346844 0.03520778 0.16124463 -0.18194379
0002f0 4d 50 30 be df 81 f0 bd 37 e3 bf bd 80 54 27 3e
       -0.17218132 -0.11743521 -0.0936951 0.16340828
000300 06 b2 07 3d d1 ca 0f 3e f0 c6 0f 3d ae 90 c5 3d
       0.03312876 0.14042212 0.03510183 0.09646736
000310 25 cf a5 bd 87 4d 8c 3d b0 dd 73 3d 16 ea 56 3d
       -0.0809615 0.06850725 0.05953759 0.052469335
000320 0e 3e 00 be fa ef 5e bd 8d b8 0b 3e e6 03 1f bd
       -0.12523672 -0.05442808 0.1364462 -0.038822077
000330 ff 8a 0c be 5e 1d 0e be e0 e8 06 bd c8 d5 86 3d
       -0.13724898 -0.1387839 -0.03293693 0.06583744
000340 93 9b 52 bd 08 7b 13 3e ea b0 2d 3d c0 93 0e be
       -0.0514179 0.14402401 0.042405047 -0.1392355
000350 34 eb 17 3c d1 e7 0c 3e c8 00 d5 3d 55 d2 b1 bd
       0.009272385 0.13760306 0.1040054 -0.08682696
000360 2e c6 09 be 3d 5f 46 3d da 47 a1 bc 8e 8b 28 bd
       -0.13454506 0.04843067 -0.019687582 -0.041148715
000370 e0 89 24 be 7a a1 2b 3e 99 d0 be 3d a4 38 2f be
       -0.1606822 0.16760817 0.093171306 -0.1711145
000380 15 75 16 3c 5b 25 09 bd 0d 78 2c 3e a5 9c c8 3d
       0.009183188 -0.03348289 0.1684267 0.097955026
000390 33 de 1e 3d 8d 23 ef bc ac a8 fe bd 7a d2 16 3d
       0.038786124 -0.029191757 -0.12434515 0.03682182
0003a0 b5 50 93 3d b8 f0 16 ba 1a 79 20 3e dc 13 cd 3d
       0.07193128 -0.0005757916 0.15671197 0.100135535
0003b0 44 fd 2b be 15 bc 31 bc ee e1 88 bd a0 a6 b1 bc
       -0.16795832 -0.010848065 -0.06683718 -0.021685898
0003c0 3b 4f 52 bb 90 ac 7f 3c 28 46 c9 3d fe ba e9 3d
       -0.0032090682 0.015605107 0.09827834 0.11412619
0003d0 20 1e bb 3c ea d2 88 bd ae 54 ca bd 1f 16 92 3d
       0.022841513 -0.06680854 -0.098794326 0.071331255
0003e0 70 9c a9 3d 49 dc 1e 3e fb 87 1f be 01 c1 f9 bd
       0.08281791 0.1551372 -0.15579216 -0.12195016
0003f0 98 c6 e2 bd 94 7f ab 3d 25 72 0f 3e 6b 76 66 bc
       -0.11073035 0.08373943 0.14008386 -0.014066319

fc1_batch.weight f4 [400]
000000 95 93 40 3d 15 f5 9c 3e 21 31 a7 3d ae 21 a6 3e
       0.047015745 0.30655733 0.081636675 0.3244757
000010 fd 91 eb 3e 67 cf e9 3e 24 e1 d9 3e 85 d1 e2 3e
       0.46009818 0.45666048 0.4255458 0.44300476
000020 3f ff 66 3f bc c6 58 3f 69 cc 57 3d 87 fc 1b 3f
       0.90233225 0.84678245 0.052685175 0.609322
000030 c8 d2 7b 3e 07 33 ca 3e 17 9a 9b 3e bb 48 81 3e
       0.24592125 0.39492056 0.30391 0.252508
000040 eb 3f 66 3e d9 a1 d5 3b 0c d0 9a 3e b5 33 c9 3e
       0.2248532 0.006519538 0.30236852 0.39297262
000050 c0 d6 04 3d 1e aa 26 3f 96 f2 6b 3e b6 43 b1 3e
       0.032431364 0.6510333 0.23041758 0.34621972
000060 7b 0b 31 3f 35 a1 79 3f 8c 62 39 3f 23 b3 04 3e
       0.6915814 0.9751161 0.72415996 0.1295896
000070 f8 af 5c 3f b8 27 ec 3e 8f 40 2c 3f e9 0f 45 3e
       0.86206007 0.46124053 0.6728601 0.1924435
000080 a1 ef 75 3f 06 9d 39 3e 73 db 4f 3f ce 06 69 3f
       0.9606877 0.18126306 0.8119423 0.9102601
000090 58 67 0b 3f cb ef 64 3f 58 1b 4a 3f 21 e6 d1 3e
       0.54454565 0.89428395 0.78947973 0.40995887
0000a0 94 17 17 3f 53 60 02 3f 08 88 d5 3e 9e ac 7b 3d
       0.5902035 0.5092823 0.41705346 0.061443917
0000b0 7b 7d 49 3f cd 4c dd 3c 63 4b 2e 3f a3 d6 a6 3e
       0.78707093 0.02701416 0.6808378 0.3258563
0000c0 42 03 06 3f 3e 2a c9 3e 36 0d 61 3e f5 89 a4 3e
       0.5234872 0.3929004 0.21977696 0.32136503
0000d0 2c 0a 36 3d 54 9d 44 3e ae b6 44 3f 35 db 69 3f
       0.044443294 0.19200641 0.7684125 0.9135011
0000e0 eb bc aa 3c b7 63 c3 3e 3d 8d 0e 3f 04 f2 6a 3e
       0.020842036 0.38162014 0.5568426 0.22943884
0000f0 10 66 14 3f c1 42 e5 3e 52 a0 15 3f 51 85 66 3e
       0.57968235 0.44777492 0.58447754 0.22511794
000100 54 29 76 3d 22 6f e0 3e 22 e8 56 3f fb 13 71 3f
       0.060098007 0.43834788 0.83947957 0.9417111
000110 2b 38 68 3f e7 b7 03 3f 05 43 5d 3f 9e 17 96 3e
       0.90710706 0.5145249 0.8643039 0.29314893
000120 b6 7d 5f 3f a0 2e 15 3f 67 6d f9 3d 4b a9 b3 3e
       0.87301195 0.5827427 0.1217907 0.35090098
000130 72 52 72 3f cd 7a a2 3e 0f fd 50 3c fe 3e 80 3f
       0.9465705 0.31734315 0.012755646 1.0019224
000140 28 53 25 3f 86 3b 1d 3f e0 b6 8f 3e a0 dd 74 3f
       0.6458001 0.6141895 0.2806921 0.9565067
000150 bc 5e 68 3f cf c6 ad 3d 36 c4 37 3f f6 fc 74 3f
       0.90769553 0.08485185 0.7178377 0.9569849
000160 63 94 f5 3d 1f 43 23 3f 80 af 93 3e aa 6a 5f 3f
       0.11991193 0.63774294 0.28844833 0.8727213
000170 d9 67 54 3f 7f ba 42 3f 72 c6 b2 3e 33 42 67 3f
       0.8297096 0.7606582 0.34917027 0.90335387
000180 43 ac c1 3e 16 b5 55 3f a4 1a 3b 3f fc c0 ac 3d
       0.37826738 0.8347944 0.73087525 0.08435246
000190 f0 8f 38 3e d0 7a e3 3e 26 ae ba 3d db 81 bf 3e
       0.18023658 0.44429636 0.091152474 0.3740376
0001a0 2a 6a 45 3f b3 72 7d 3f df fb ee 3e d5 44 bf 3e
       0.7711512 0.9900314 0.46676537 0.37357202
0001b0 2d ef f8 3d 54 7d 27 3f 44 95 12 3f 92 e0 33 3f
       0.12154994 0.6542561 0.5725901 0.7026454
0001c0 7f 7a ad 3d 9e 96 06 3f f7 81 91 3e 38 ab 70 3e
       0.0847063 0.52573574 0.28419468 0.23502815
0001d0 cc 1a 40 3f a8 75 b0 3d fa 71 47 3e 4f 52 5c 3f
       0.7504089 0.08616191 0.19477072 0.8606309
0001e0 0f e9 30 3e 8a 37 55 3f a5 e5 9f 3e 06 00 21 3e
       0.17276405 0.8328787 0.31229892 0.15722665
0001f0 2b eb f2 3e 25 4e 3a 3e 0b f5 1f 3f 54 7e 58 3f
       0.47445044 0.18193872 0.6248328 0.8456776
000200 69 d6 f1 3d 56 11 1f 3e b3 73 d7 3e fc 59 02 3f
       0.118084736 0.15533957 0.4208046 0.50918555
000210 31 5f 6f 3f 36 4f 69 3f c6 38 6b 3e f2 ca 4f 3f
       0.93504626 0.9113649 0.22970876 0.81169045
000220 22 3b 49 3f 6f d9 f4 3d 40 15 4f 3f c1 4a 7b 3f
       0.78605855 0.11955535 0.808918 0.9816094
000230 05 c1 c7 3e 20 2e 6e 3f 85 95 77 3f 72 42 1f 3f
       0.3901445 0.9303913 0.96712524 0.6221076
000240 90 0e 02 3f c4 51 6c 3f 02 4e 57 3f a5 93 79 3f
       0.5080347 0.92312264 0.84103405 0.9749091
000250 4b 98 2f 3e 98 33 2b 3f 60 d8 4a 3f 13 20 38 3e
       0.17147939 0.668756 0.7923641 0.17980985
000260 78 52 14 3f 92 5d 65 3e 34 dd 11 3e 13 d1 7d 3f
       0.5793834 0.22398975 0.14244539 0.99147147
000270 8d c8 c6 3d 83 50 2b 3d bf e2 68 3f 69 d3 4d 3f
       0.09706221 0.04182483 0.9097099 0.8040071
000280 1f 9e 1e 3f e8 ed 5e 3f 54 3e 02 3f da 3c ac 3e
       0.61960024 0.87081766 0.50876355 0.33640176
000290 8f c0 d9 3e c0 a8 18 3f 23 ba 12 3d ca f2 1c 3d
       0.42529723 0.5963249 0.035822045 0.03831748
0002a0 cb 2c a2 3e b6 48 12 3f ab 19 53 3f f1 8f 87 3e
       0.316748 0.571422 0.8246104 0.26477006
0002b0 a4 fc 9f 3d bc 94 44 3d 7b 16 f7 3e e9 75 3d 3e
       0.07811859 0.047993407 0.4825934 0.1850201
0002c0 42 a5 c2 3e f5 f8 37 3e 13 7f 37 3f 2a 36 a6 3e
       0.38016707 0.17966063 0.71678275 0.324632
0002d0 2d f4 16 3e 43 81 2a 3f 31 14 f5 3e fd 71 4b 3f
       0.14741583 0.6660349 0.47866967 0.7947081
0002e0 96 a4 08 3f 5b 9f 35 3f de 23 2b 3f 17 95 60 3e
       0.5337614 0.7094628 0.66851604 0.21931873
0002f0 ad 72 63 3f cc a5 1a 3f 5e 09 d8 3e 83 1b 13 3f
       0.88846856 0.60409236 0.42194647 0.57463855
000300 3c b9 74 3f 74 81 5d 3f 57 a2 69 3f 02 a6 58 3e
       0.95595145 0.86525655 0.91263336 0.21157077
000310 0c f2 c4 3e 11 48 1c 3f 9e 11 d7 3e 24 61 d0 3e
       0.38465917 0.61047465 0.42005628 0.40699112
000320 29 0d 5f 3f 6a d3 6f 3e 21 a5 8c 3e dc 91 11 3f
       0.87129456 0.23420492 0.27469733 0.5686319
000330 7d 7c 89 3e 9a 8b 59 3e e8 d1 c4 3d e1 83 59 3f
       0.2685279 0.2124466 0.09610349 0.84966856
000340 f7 c9 80 3e c7 01 df 3e c1 3e 53 3f bd 25 aa 3c
       0.25154087 0.43556044 0.8251763 0.020769948
000350 1a b9 ff 3e 6a 70 87 3e 6c f4 09 3e aa 15 13 3f
       0.4994591 0.26452953 0.13472146 0.5745493
000360 71 00 26 3f 20 12 4e 3f a1 92 7e 3f a7 db 26 3f
       0.64844424 0.80496407 0.9944249 0.6517891
000370 27 07 f9 3e d2 fc 74 3e da e5 b4 3e ba f9 42 3d
       0.4863827 0.23924568 0.35331613 0.04760144
000380 01 36 2e 3d eb c0 e0 3d e8 cf 56 3f 35 e7 38 3f
       0.04253197 0.10974296 0.8391099 0.72227794
000390 1f 36 74 3f af 6a 57 3f bc 18 58 3f 10 29 1d 3f
       0.9539508 0.8414716 0.8441274 0.6139078
0003a0 dc 9b 42 3f 12 eb 2c 3f 6a b0 d9 3d 4a 31 d1 3d
       0.7601907 0.6754619 0.106293514 0.10214479
0003b0 22 70 65 3f f3 80 52 3f 26 b6 bd 3e 58 f1 61 3e
       0.89624226 0.8222801 0.3705303 0.22064722
0003c0 c8 48 20 3e 3e 7d 05 3e 42 cb ab 3e 1c d2 0a 3f
       0.15652764 0.13036057 0.3355351 0.5422685
0003d0 ac 93 01 3f ee 3f 30 3f 49 ba 0c 3f f2 c2 1c 3f
       0.50615954 0.6884755 0.5497175 0.6123496
0003e0 9d 2a 62 3f be 72 1a 3f 3e 60 f0 3e d5 23 3e 3f
       0.8834627 0.6033133 0.46948427 0.74273425
0003f0 db 12 29 3f 80 d2 33 3f 5c 89 bb 3e 9c 0f d8 3b
       0.66044396 0.7024307 0.36628234 0.0065936577

fc1_batch.bias f4 [400]
000000 c5 a9 36 3b a4 98 02 bd a1 08 1e bd c6 ee aa 3c
       0.0027872187 -0.03188385 -0.038582448 0.02086581
000010 78 93 8a bd 6c 54 12 3c cd 9f a1 bc 08 52 c7 3c
       -0.06766409 0.008931261 -0.01972952 0.024331108
000020 e9 04 32 bd 70 20 99 bc e6 00 bd 3a b3 bd 1a 3d
       -0.043461714 -0.018692225 0.0014419823 0.037778568
000030 1b 59 e2 3c a4 fe fd 3c ce 87 9f bc 70 22 c4 3c
       0.02763038 0.031005211 -0.019473936 0.023942202
000040 22 d9 f9 bc b3 af 24 ba fe 8c 51 3c 94 23 0e 3d
       -0.030499045 -0.0006282285 0.012789963 0.0347019
000050 3d 89 2e bc d5 a7 03 bd 24 bb 75 bc 50 54 1f bc
       -0.010652837 -0.03214248 -0.014998231 -0.0097246915
000060 89 d8 d4 3c 58 15 33 3d 96 0d 37 bd 1b f7 dc 3c
       0.025982158 0.043721527 -0.04469069 0.026973298
000070 c5 3a 17 3d 98 5b ac 3d e4 6a 29 bb 02 80 d7 3a
       0.03692128 0.084159076 -0.0025851065 0.0016441348
000080 28 5e a9 3d ec 78 3c 3c ca 46 2b 3d c8 43 90 b9
       0.08269912 0.011503439 0.041815557 -0.0002751632
000090 2c 2f 09 bd 83 32 df bc d6 70 5c 3d 9a b4 3c bc
       -0.033492252 -0.027245766 0.053818546 -0.011517668
0000a0 99 37 3f 3d 10 7f 36 ba 94 48 b2 bc c4 09 de bc
       0.04668388 -0.0006961683 -0.021763124 -0.027104266
0000b0 e5 f9 05 3d 04 22 90 ba 55 93 70 3d 12 76 42 3d
       0.03270902 -0.0010996466 0.058734257 0.047475882
0000c0 b5 9b 4c bd a3 59 23 3d 6c 38 25 bc 52 e3 7e 3d
       -0.04995318 0.039880406 -0.010084253 0.06222851
0000d0 35 78 81 3a 5b 28 2e bc 0a 24 79 3d 0b 00 96 bd
       0.0009877743 -0.010629739 0.060825385 -0.07324227
0000e0 f1 47 48 bc f3 64 2c bc 97 b6 8a bd ef 5b f3 3c
       -0.012224183 -0.010522115 -0.067731075 0.029706923
0000f0 e5 df 0b ba 3b 4b 52 bd 92 42 60 bc 46 8a b2 3a
       -0.0005335792 -0.051341277 -0.013687747 0.0013621531
000100 29 6a 0b 3c e3 ff 4e bd 0f c3 6b bc e0 b0 50 bd
       0.008509197 -0.050537 -0.014389767 -0.05094993
000110 e8 e2 ab 3d fc 17 2e 3d 72 b5 a6 bc 07 ca ca bc
       0.08392888 0.042503342 -0.020350192 -0.024754537
000120 9f 50 9c 3d 94 4e 5e 3c 0f bb 83 3c 1e 3c de bb
       0.07632565 0.013568539 0.016080407 -0.006782069
000130 48 10 9c bc f8 14 30 3d a6 fb 92 bc 39 00 15 3d
       -0.019050732 0.042988747 -0.017942261 0.036377165
000140 56 74 14 3d 85 81 f1 bc 76 dd fd 3c 1e 82 03 3d
       0.03624376 -0.029480705 0.03098939 0.03210651
000150 54 a6 b1 bc 13 65 21 3d b3 64 57 3c 4e 2b ba bc
       -0.021685757 0.039403033 0.013146567 -0.022725727
000160 2e 87 ac ba c7 b3 cc 3b 38 e8 19 3d 11 a0 64 bd
       -0.0013162845 0.006247017 0.037574977 -0.055816714
000170 56 5e b9 bc 29 60 5a 3d 58 94 cf bc eb 92 61 bd
       -0.02262799 0.05331436 -0.02533929 -0.055071753
000180 65 08 cb 3c f7 1e fe bc f5 55 ef 3c 5e 1a 7c 3d
       0.024784276 -0.031020625 0.029215792 0.061548583
000190 1f 12 1d 3d a4 da 08 bd 09 48 57 3c 71 f6 86 3c
       0.03834736 -0.033411637 0.013139733 0.016474934
0001a0 2e f8 d7 bc f8 3a f7 3d d1 ab 1e 3d 77 6c 21 bc
       -0.026363458 0.12071794 0.038738076 -0.00985252
0001b0 35 c3 40 bc a5 21 77 bd 48 00 03 3c cd b2 b8 bc
       -0.011765291 -0.06033482 0.0079956725 -0.022546196
0001c0 aa 9c c1 bc 1e 86 41 3d 7c 95 d5 3b 22 4a 97 3b
       -0.023634274 0.047247045 0.006518064 0.0046169916
0001d0 33 1a a1 3b 02 6c e9 3b 3a d8 d0 3c 27 73 36 3c
       0.0049164533 0.0071234712 0.02549373 0.011135853
0001e0 7f 37 c1 bc 33 da 7d bd 3c e8 8e 3c 4a 90 01 3c
       -0.023586033 -0.06197567 0.017444722 0.007907936
0001f0 25 a1 1f bd 5f 71 90 3c 0f 64 c2 bc 47 06 3b 3b
       -0.03897204 0.017632185 -0.023729352 0.0028537677
000200 4c de 9e b8 eb ea bd 3c de ff 36 3d cb 53 f4 bc
       -7.575433e-05 0.023183307 0.044677608 -0.029825112
000210 e7 7f a6 bd 4f d7 34 3c 2b e7 61 bc 4e fd 41 bd
       -0.08129864 0.011037662 -0.013788025 -0.04736071
000220 02 1c 39 3d ae dd 74 bc db 3d 15 3c f5 4d 0e 3d
       0.045192726 -0.014945431 0.009108986 0.034742314
000230 39 7a a7 3c 76 80 67 bd 2b 75 be bc c8 e0 58 3b
       0.020444022 -0.056518994 -0.02324923 0.0033092964
000240 d0 74 3a bc 3c 95 ae bd b9 1f 9c 3c 29 89 b0 bd
       -0.011380389 -0.08524558 0.019058095 -0.08619911
000250 e1 4e 1f 3d a0 7b 26 3d 6e fb 65 3c 6b a2 12 bc
       0.038893584 0.04064524 0.014036996 -0.008949856
000260 41 53 64 3d 63 80 5e bc 79 39 0f 3d 1f 83 a4 3d
       0.05574346 -0.0135804145 0.03496692 0.08032822
000270 21 d2 30 bc 02 81 f0 bb a0 e5 5d 3d 5d c2 87 bc
       -0.010792286 -0.0073395977 0.054174066 -0.016572172
000280 38 5b 95 bd 9e 37 9f bd bb ba 30 3c eb 59 e2 3c
       -0.07292789 -0.0777428 0.0107867075 0.027630767
000290 04 b3 15 bd 63 d5 b4 bc 03 8a 07 bc 36 fe 6d 3c
       -0.036547676 -0.022074407 -0.008272651 0.014525941
0002a0 2f de 2f 3d 7f ec 5b bd 07 35 f7 bc 12 e0 24 3c
       0.0429365 -0.053692337 -0.030176653 0.010063188
0002b0 08 50 56 3c 23 2f b7 3c 8a 18 ae 3c 5b 95 ce 3c
       0.013080604 0.022361344 0.021251936 0.025217703
0002c0 55 cb 9c bc 99 52 9b 3c fe f6 97 bb c6 14 ed ba
       -0.019139925 0.018960284 -0.004637598 -0.0018087856
0002d0 7e 5d 6b 3b fb de 3e bd 9d ba 0a bd 1c bc 07 bb
       0.003591388 -0.04659937 -0.033869375 -0.0020711487
0002e0 60 d9 d9 bc d9 16 93 3b e1 63 3a 3d 38 89 f0 3c
       -0.02659291 0.0044888076 0.04550541 0.029362306
0002f0 7c 8d c5 3c b3 f2 33 bd a6 14 f4 bc 19 91 8a bc
       0.024115317 -0.043932628 -0.029795002 -0.016914891
000300 4f 3f 89 3d 32 07 d2 3c 5c b4 dd bc e2 03 59 3c
       0.06701528 0.025638197 -0.027063541 0.013245555
000310 96 1e c7 bb ea d3 f1 3c 75 8e 46 3d 40 d2 10 bd
       -0.006076644 0.029519994 0.0484757 -0.03535676
000320 f3 53 37 3d 7f 90 9a bc d6 a6 c0 bc b3 a1 25 3d
       0.044757795 -0.01886773 -0.023517054 0.04043741
000330 17 fe 64 3b 74 71 ad bb 66 c4 34 bc ae 77 00 bd
       0.0034941488 -0.0052930657 -0.011033153 -0.031364135
000340 77 c3 b0 3c a8 ef 9c 3c f1 ec 2f bd d9 4e 3d 3c
       0.02157758 0.019157246 -0.042950574 0.011554443
000350 69 61 6b bd ad 33 29 bd 0c e2 28 bc 31 9b 80 bd
       -0.057465944 -0.041309047 -0.0103078 -0.062796004
000360 9b e3 ac bc 0a 8c 16 3d f6 78 af bd 42 bb 79 bc
       -0.021104624 0.036754645 -0.08567993 -0.0152424
000370 6c c3 13 3d fe 5b 91 bb 3b 2d c0 3a 27 de b4 bb
       0.03607504 -0.004436015 0.0014661917 -0.0055196467
000380 d1 c8 cc 3c 50 35 db bb b5 c4 a2 3c 8f 29 94 3c
       0.0249981 -0.006689705 0.019869188 0.018086223
000390 24 df bd bb 35 55 26 3d b0 3f fa bb af 4d 8e bd
       -0.0057944227 0.040608604 -0.0076369867 -0.06948411
0003a0 dc 9f b1 3c e6 47 dd 3c 6f da 29 bc 82 3a 96 bb
       0.021682672 0.027011823 -0.01036702 -0.0045846114
0003b0 a1 74 93 bc 5b 17 5f 3c fb 3e 60 3c fc 9a 3f 3c
       -0.017999949 0.013616408 0.013686891 0.011694666
0003c0 eb 86 48 bd 29 34 0f bd f2 dc f7 bc 3d 84 4d bd
       -0.048956793 -0.034961853 -0.030256722 -0.05017494
0003d0 28 33 e6 bc 6b d3 61 3d 9a 9a ef bc 5b c2 d1 bc
       -0.028100565 0.055133265 -0.029248524 -0.025605371
0003e0 82 05 66 3d 2c d3 80 bc b5 0d 02 bd a4 a6 3a bd
       0.056157596 -0.015725695 -0.031751353 -0.045569077
0003f0 bd b5 43 3d 1a 08 33 bd 81 1d b8 3c b5 04 ab 3a
       0.04778074 -0.043708898 0.022475006 0.0013047667

fc1_batch.running_mean f4 [400]
000000 0d 39 b1 3b 12 20 19 3d 46 76 21 3c 62 25 f1 3b
       0.0054084123 0.0373841 0.009854859 0.0073591927
000010 a5 19 0c 3e 18 44 1c 3e ea 9c 40 3d d6 5e 0c 3e
       0.13681658 0.1526035 0.047024645 0.13708052
000020 8c bf 3c 3d 3b 54 83 3d ca 22 9f 3d a1 9e c1 3d
       0.04608111 0.0641255 0.07770307 0.09454084
000030 0c cb 8f 3d 82 3f d3 3d dd ae 19 3e e7 b7 a4 3d
       0.0702115 0.103148475 0.15008111 0.08042889
000040 bd ce f1 3a 80 e4 a1 3d 04 9b 2d 3e 4b f5 22 3e
       0.0018448454 0.07904911 0.16953665 0.15913884
000050 be 2d d9 3d 25 f1 b0 3c eb 55 34 3e 46 28 8a 3d
       0.10604428 0.021599362 0.176109 0.06745963
000060 a1 a3 32 3c 4c 7a 75 3d 2d e3 d1 3d d4 fb 70 36
       0.01090327 0.059931085 0.102484085 3.590937e-06
000070 09 79 06 3c 6a 81 1e 3e e4 a6 68 3c f4 64 31 3c
       0.008207568 0.15479055 0.014199946 0.010827292
000080 7f 90 bf 3c 70 a7 93 3d 13 b9 3b 3b d5 0f 8d 3d
       0.02338433 0.072096705 0.0028644248 0.06887785
000090 6d ef 21 3d 2c d1 69 3d 8b e3 ce 3c 9d 81 b2 3d
       0.039534975 0.057084247 0.025254985 0.08716128
0000a0 74 67 5f 3d 13 34 03 3e 08 de d4 3d 53 b9 d5 3a
       0.05454202 0.12812833 0.103939116 0.0016305841
0000b0 49 f9 1e 3d 41 58 17 3e 9f 12 6b 3c d9 aa bf 3c
       0.038811956 0.1477976 0.014347701 0.023396896
0000c0 80 db c3 3c aa b7 1f 3c a0 91 5e 3c 23 d9 92 3d
       0.023908377 0.009748379 0.013584524 0.07170322
0000d0 ba 77 20 3e ba f5 6c 3d 7d bf 0d 3e 46 5c 21 3d
       0.15670672 0.05785153 0.13842578 0.03939464
0000e0 f0 74 f2 3a f1 2d d1 37 4e 75 e1 3b ea a0 80 3d
       0.0018497985 2.4936135e-05 0.006880439 0.06280692
0000f0 a9 be be 3c 4f f9 9b 3b 7d 35 03 38 47 9f 33 3d
       0.023284273 0.0047599445 3.128265e-05 0.04385307
000100 37 b5 00 3e 0f 60 0d 3d 62 da 32 3e bd f6 e3 3b
       0.12569128 0.034515437 0.17466119 0.0069569037
000110 39 72 3e 3e b9 54 e6 3b a6 e9 10 3e a1 c3 10 3d
       0.1859826 0.0070291427 0.1415163 0.035342816
000120 b5 57 42 3e 97 b6 31 3e 9a 47 85 3c 88 9f fc 3b
       0.1897877 0.17354809 0.016269494 0.0077094473
000130 c0 f0 5f 3c 62 7e 97 3d 38 ff 19 3b ed 01 a5 3c
       0.013668239 0.073971525 0.002349807 0.02014252
000140 70 c9 59 3c fc 10 bf 3d 08 87 12 3e ec a5 ae 3d
       0.013292655 0.093294114 0.14309323 0.08527741
000150 1c 72 f2 3c e8 39 8a 3b 67 5a 8c 38 3b 6c 79 39
       0.029595427 0.0042183287 6.692559e-05 0.0002378681
000160 a3 c2 ae 3b b1 a1 88 39 46 c3 98 3d 21 f8 ba 3b
       0.005333261 0.0002606041 0.074591205 0.005705849
000170 22 fd b2 3d 4e b1 04 3e 7d 40 00 3d d3 2d 6e 3d
       0.087396875 0.12958261 0.0313115 0.05814917
000180 27 f7 02 3e 35 6e 2d 3b ec d7 24 3e 24 e4 2b 3e
       0.12789594 0.0026463394 0.16097993 0.16786247
000190 3e bd 2c 3e 1f 85 79 3b b2 8d dc 3d 03 e2 86 3c
       0.16869065 0.003807373 0.10769214 0.016465193
0001a0 50 ca 31 3d 69 5c 3e 3e e8 1d ba 3d 1e e2 5b 3d
       0.04340583 0.18589939 0.090877354 0.05368244
0001b0 80 57 8d 3c 6f 4b 5a 3b a1 8a 23 3e 0f 27 61 38
       0.017253637 0.0033309122 0.15970851 5.3680556e-05
0001c0 fb ac 4a 3d f8 49 32 3d 52 4a 1b 3c 3b e3 e9 3b
       0.049481373 0.043527573 0.009478169 0.0071376837
0001d0 b7 c4 81 3a ae 36 27 3b 34 7e 59 3d c9 4b af 3d
       0.0009900545 0.002551477 0.053098872 0.08559377
0001e0 f1 54 35 37 7e 1f 5f 3c 8a 6a af 39 99 65 f8 3d
       1.0808218e-05 0.013618348 0.0003345798 0.12128753
0001f0 24 97 9a 3b 84 81 ed 3c 84 7e ce 3c 4e 2c 36 3a
       0.0047177244 0.028992422 0.025206812 0.0006949351
000200 d2 02 01 3e e2 a8 a4 3d f9 f4 e9 3d 17 81 f0 3d
       0.12598732 0.08040024 0.11423678 0.11743372
000210 83 7e 94 3a 48 f6 d8 3d 5c 63 0d 3e 49 30 e8 3b
       0.0011329207 0.105938494 0.13807434 0.007085834
000220 a0 4f 02 3d a2 a3 0f 3d a9 cf 68 37 9e 18 1a 3d
       0.031814218 0.03506816 1.3876627e-05 0.037621133
000230 28 be 11 3d 48 b7 93 3b 32 01 0f 3e a2 03 94 2d
       0.035581738 0.004507933 0.139653 1.6827265e-11
000240 e9 26 a3 3c 99 d2 dc 3c 7e e8 33 3d 73 3f d6 3c
       0.019916015 0.02695589 0.043922894 0.026153302
000250 34 32 d7 3c fe b7 5b 3b 7e dd 3a 3a bc 3f b3 3c
       0.026269056 0.0033526416 0.0007128342 0.021880977
000260 55 be ce 3b 88 a2 da 3b a9 32 b7 3c 7c 2c 4d 3e
       0.0063093104 0.0066722073 0.022363024 0.200365
000270 7a 79 08 3e 23 cb 59 3d cc ad 19 3c de 50 be 3b
       0.1332759 0.053172242 0.009379815 0.00580798
000280 42 9d 1c 3e c3 e6 85 3c 70 ea 42 3d 20 52 02 3c
       0.15294364 0.016345387 0.04758686 0.00795415
000290 ea 0f 6a 3c 76 45 c7 3d 16 77 f2 3c e8 6d cc 3c
       0.014286021 0.097300455 0.0295978 0.024954751
0002a0 d3 51 63 3b c6 2e 9f 3b f1 bc 0c 3a 78 e9 7e 3a
       0.0034686222 0.0048578708 0.00053687306 0.00097241206
0002b0 04 ea 23 3e bb 28 31 3d 51 a2 77 3d 9e e9 0a 3e
       0.16007239 0.043251734 0.06045753 0.1356568
0002c0 fe 04 92 3d e4 ca 54 3c a8 b6 1d 3e 1b 93 19 3d
       0.071298584 0.012987826 0.15401709 0.037493806
0002d0 6f d3 89 3a 64 19 d4 3d 8b 4c 6f 3b bc 51 c2 3b
       0.0010515283 0.103564054 0.003651413 0.0059301537
0002e0 46 b7 99 3c 04 2d 43 3d 2c b8 34 3e 7f d1 3f 30
       0.01876415 0.047650352 0.17648381 6.9783107e-10
0002f0 25 02 0b 3b 48 31 d8 3b 41 7a 1b 3c f7 2e 2c 3e
       0.0021210995 0.0065976717 0.009489597 0.1681479
000300 ed 05 85 3d d0 53 1d 3e 1c 11 4a 3d dc 1a e9 3d
       0.06495271 0.15364003 0.049332723 0.11382076
000310 b9 05 f6 3b 6e ee a5 3d 9a 99 ad 3d ca 2f 9a 3d
       0.0075080064 0.081021175 0.08476563 0.07528646
000320 56 85 29 3b 06 78 6e 3c b4 9e 17 3e e8 1b 8c 3c
       0.0025866828 0.014554983 0.14806634 0.01710315
000330 7b de bc 38 75 5b 8a 3a 81 5b e8 3c f2 c2 88 3d
       9.005979e-05 0.0010555821 0.028363945 0.06677808
000340 de d7 56 3c bc f4 20 3e f4 f4 7b 3d cc c2 c1 3a
       0.01311299 0.15718359 0.061512902 0.0014782785
000350 e8 4c 1d 3d a8 f9 05 3e 77 7c e1 3d 79 66 18 3c
       0.03840342 0.13083518 0.11010068 0.009301775
000360 13 79 1b 3a 04 fb 8c 3d 64 47 8e 3c 1a 4b 56 3c
       0.0005930822 0.06883815 0.017368026 0.013079429
000370 f2 5c e9 38 7a 8e 25 3e 37 7a d4 3d 85 4e 1d 3a
       0.00011127618 0.16167632 0.10374873 0.0006000775
000380 d0 4b 06 3d 09 85 86 3c bb 57 34 3e 3e d2 dd 3d
       0.032787144 0.016420858 0.17611592 0.10831116
000390 84 f0 88 3d d4 97 1e 3d a8 5e ff 3b 87 0f 6a 3d
       0.066865 0.038719013 0.0077932663 0.057143714
0003a0 e6 0d c1 3d de 1f 1b 3d 67 22 26 3e ba f7 df 3d
       0.09426479 0.037872188 0.16224061 0.10935922
0003b0 9a 29 54 26 78 d5 f1 3c 3a 23 27 3c 9a 40 fb 3c
       7.3608656e-16 0.029520735 0.01020127 0.030670453
0003c0 f2 f4 c1 3c 53 41 35 3d 27 e9 c3 3d 4f 16 d3 3d
       0.02367637 0.04425175 0.09565955 0.103069894
0003d0 61 fe 4f 3d 2a 5d 26 3c f5 90 c3 3a db c2 aa 3d
       0.050779704 0.010154048 0.001492052 0.08337947
0003e0 7b 33 e0 3d 88 69 20 3e 01 36 4b 3b 5f 03 bb 3b
       0.10947319 0.15665257 0.003100753 0.005707189
0003f0 37 7f cf 3a 1e 10 b2 3d d9 2a 1a 3e c1 19 cc 3c
       0.001583076 0.0869448 0.15055408 0.024914624

fc1_batch.running_var f4 [400]
000000 be 72 9e 39 61 40 28 3b 40 4d 27 3a be 96 05 3a
       0.00030221598 0.0025673138 0.00063820556 0.00050960097
000010 e2 0c bd 3b cc 26 d6 3b 7b f4 89 3b eb a7 0d 3c
       0.005769358 0.0065353867 0.0042100525 0.008645992
000020 86 18 57 3b 6c e9 e7 3b 27 02 97 3b 7d e9 dd 3b
       0.0032821014 0.0070773866 0.004608411 0.0067722187
000030 ad 7c 77 3b fa 23 bc 3b 73 fd bf 3b fb 60 c6 3b
       0.0037763522 0.0057415934 0.005859071 0.0060540414
000040 ba 30 0e 39 9b 55 85 3b d2 f3 14 3c 41 c8 d5 3b
       0.00013560327 0.004069043 0.009091334 0.0065241163
000050 ef cc 80 3b c7 a3 38 3b 96 98 cd 3b a4 ef f1 3b
       0.00393068 0.002817379 0.006274293 0.0073833037
000060 7b 03 7f 3a 06 68 80 3b ef e9 c9 3b b0 b5 ba 33
       0.00097279967 0.0039186506 0.0061619203 8.694349e-08
000070 7d 44 02 3a 8a de b3 3b 46 a9 86 3a b4 c8 5d 3a
       0.0004969312 0.005489175 0.0010273836 0.0008460388
000080 9d 53 00 3b 70 b0 d5 3b 97 f1 7a 39 b3 b1 7e 3b
       0.0019581087 0.006521277 0.00023931857 0.0038863241
000090 cf 2a 2e 3b c2 80 5e 3b 97 c8 bb 3a 1a 9f 9c 3b
       0.002657581 0.0033951257 0.0014326748 0.0047797086
0000a0 65 4a 78 3b 37 9e a7 3b 9c 94 52 3b fe 7a b5 38
       0.003788614 0.005115296 0.0032132035 8.653662e-05
0000b0 41 84 49 3b ad cf 05 3c 5a 1f a6 3a 6e 62 15 3b
       0.0030748995 0.00816719 0.0012674138 0.0022794264
0000c0 01 dc 50 3b 64 3a 0d 3a 2c 07 a2 3a 86 5c 8a 3b
       0.0031869414 0.0005387424 0.0012361757 0.0042224554
0000d0 07 db d1 3b cd 73 a8 3b 81 6e b7 3b ad 26 73 3b
       0.006404284 0.0051407577 0.00559789 0.003710191
0000e0 21 9c de 38 7d 4a 9e 34 32 94 bd 39 39 ce 4f 3b
       0.00010614866 2.948399e-07 0.00036159303 0.0031708612
0000f0 a9 33 de 3a 5f 1c b7 39 96 61 b3 34 93 62 37 3b
       0.0016952652 0.00034925618 3.341235e-07 0.0027982339
000100 8d b7 a3 3b d5 24 27 3b 09 2f 0e 3c 48 70 33 3a
       0.004996246 0.0025504131 0.008678206 0.00068450393
000110 8f 51 bf 3b ae a0 10 3a 9e ff d0 3b a8 9e 08 3b
       0.00583858 0.0005517107 0.006378128 0.002084652
000120 7e e2 f1 3b ed 6f 10 3c aa 55 bf 3a fe 38 06 3a
       0.0073817363 0.008815748 0.0014597673 0.0005120187
000130 cd 99 6e 3a 26 5e b4 3b ba a8 ca 38 77 08 cd 3a
       0.00091018976 0.0055043874 9.6635384e-05 0.0015642782
000140 7c 79 a5 3a 2f 13 b5 3b 8e a8 02 3c 43 c0 a3 3b
       0.0012624706 0.0055259685 0.007974757 0.0049972846
000150 6b f5 11 3b a0 56 77 39 ff 55 16 36 05 e5 e4 36
       0.0022271525 0.00023588026 2.2401798e-06 6.821591e-06
000160 b9 bf 0b 3a af 8b 3d 37 4f b3 89 3b 2d 02 19 3a
       0.0005330998 1.12978005e-05 0.0042022835 0.0005836811
000170 08 35 9a 3b 8a 91 c6 3b 3e 64 0d 3b 63 ce dc 3b
       0.004706029 0.00605983 0.0021574642 0.0067384704
000180 d6 da ae 3b f5 25 31 39 bf 85 de 3b b9 a9 31 3c
       0.005336146 0.00016894175 0.006790846 0.010843688
000190 d8 c3 b4 3b 9c cc 4a 39 b5 a5 82 3b de 85 cf 3a
       0.0055165105 0.00019340444 0.003987039 0.0015832742
0001a0 0c 4d 75 3b e4 85 99 3b 7e c9 ae 3b e6 c7 c2 3b
       0.0037429957 0.0046851505 0.0053340783 0.00594424
0001b0 e9 34 c5 3a c4 16 7a 39 cb c0 d1 3b 94 0b 5c 35
       0.0015045676 0.00023850339 0.0064011565 8.1973235e-07
0001c0 06 6e 59 3b 27 53 64 3b cf b4 d8 39 89 25 35 3a
       0.0033177151 0.0034839602 0.00041333443 0.0006910195
0001d0 b9 88 7e 38 60 10 10 39 8c 5a 92 3b 51 1a b2 3b
       6.0685652e-05 0.0001373901 0.0044663604 0.005435266
0001e0 3b 22 c2 34 ca 58 83 3a 96 f2 86 37 c7 23 cc 3b
       3.6160222e-07 0.0010020968 1.6087008e-05 0.006229851
0001f0 a3 b4 bc 39 e1 44 13 3b e2 8b 12 3b b0 4e a2 37
       0.0003599274 0.0022471475 0.0022361209 1.9348547e-05
000200 1b b4 aa 3b 19 14 a4 3b 46 86 af 3b df e5 ce 3b
       0.0052094585 0.0050072786 0.005356583 0.006314024
000210 ff c5 3c 38 fb fb 9f 3b d1 ce 06 3c 9d 31 0e 3a
       4.500709e-05 0.0048823333 0.00822802 0.0005424263
000220 c1 8a 2d 3b a1 b2 10 3b 06 e3 27 35 95 62 12 3b
       0.002648041 0.0022079127 6.254271e-07 0.0022336592
000230 6f ff 45 3b c6 87 ae 39 68 cb f7 3b f3 9f dd 2a
       0.0030212065 0.00033289025 0.0075620897 3.9368473e-13
000240 0a b5 d9 3a 22 f6 3d 3b b1 2a 8d 3b 54 e7 1c 3b
       0.001660974 0.0028985818 0.0043080677 0.0023941593
000250 45 7b e2 3a cf 8c 79 39 23 0b 04 38 22 6a ef 3a
       0.0017279169 0.00023798946 3.1481624e-05 0.0018265883
000260 cc 27 5e 3a 47 a5 07 3a fb a3 14 3b 54 ad be 3b
       0.0008474558 0.00051744696 0.0022680748 0.005819002
000270 c5 ac 0b 3c a0 9b 75 3b 7a 11 79 3a 69 f8 d5 39
       0.008525078 0.0037476793 0.00095012004 0.00040811606
000280 8c f7 4f 3b c0 48 cc 3a 42 65 7c 3b 93 cd 45 3a
       0.0031733243 0.0015585646 0.0038512503 0.00075455866
000290 c5 b1 cc 3a 95 fc dc 3b b9 04 0a 3b e2 04 04 3b
       0.0015616944 0.0067439773 0.0021059944 0.0020144512
0002a0 f6 75 69 39 fc d1 0f 3a d6 cf 8a 37 6a 64 6f 38
       0.00022264555 0.0005486307 1.6547663e-05 5.707556e-05
0002b0 66 5c 0c 3c 72 52 6e 3b 02 ba 8c 3b d0 25 ca 3b
       0.008566951 0.003636506 0.004294635 0.0061690584
0002c0 e9 85 bc 3b 0a ff 83 3a 9c b6 05 3c 04 5d 44 3b
       0.005753268 0.0010070514 0.008161213 0.0029962668
0002d0 9f f7 70 38 32 45 f4 3b 55 97 88 39 b4 98 10 3a
       5.7451074e-05 0.007454538 0.00026052693 0.00055159186
0002e0 d2 c8 c2 3a b3 30 4d 3b 81 e7 bd 3b cf 49 29 2c
       0.0014860875 0.0031309545 0.0057954197 2.4057316e-12
0002f0 07 02 31 39 75 a5 83 3a c5 4b 35 3a f4 9e 1d 3c
       0.0001688079 0.0010043817 0.00069158926 0.009620417
000300 46 14 ac 3b 94 87 e7 3b b8 b1 6d 3b 89 fc 1f 3c
       0.00525144 0.0070657227 0.0036269259 0.009764799
000310 ba a3 ff 39 29 55 c1 3b 4e 54 f5 3b a0 43 97 3b
       0.00048759376 0.0059000445 0.0074868565 0.004616216
000320 d1 cc 66 39 41 57 70 3a c6 8c 37 3c da de 8e 3a
       0.0002201081 0.0009168275 0.011202997 0.0010900155
000330 1f 4c 51 36 64 42 57 38 9c 96 1e 3b f4 05 a4 3b
       3.1187735e-06 5.1321826e-05 0.0024198657 0.0050055925
000340 ec 54 ab 3a 53 16 0f 3c 78 d0 d5 3b 8d c8 a9 38
       0.0013071573 0.00873335 0.0065250956 8.0959035e-05
000350 7c 0f 54 3b ec c4 20 3c a0 35 ba 3b ea 3a 98 3a
       0.0032357862 0.009812575 0.005682662 0.0011614237
000360 d9 60 a3 37 0e ca a5 3b 9f bd bd 3a 95 68 6f 3a
       1.9476212e-05 0.005059487 0.0014476067 0.00091327104
000370 6f 1a 63 36 36 3a f0 3b b3 57 d9 3b a2 dd d0 37
       3.3841022e-06 0.007331158 0.006632769 2.4898738e-05
000380 78 98 ef 3a af 42 a0 3a a4 bb f5 3b 75 04 fd 3b
       0.0018279692 0.0012226905 0.007499175 0.0077214786
000390 c8 04 fd 3b da ed bb 3b 61 9d a2 3a 32 07 a7 3b
       0.0077215172 0.005735141 0.0012406522 0.0050972933
0003a0 38 d1 bc 3b 09 3c 60 3b 96 02 03 3c 1e 34 e3 3b
       0.0057622455 0.0034215471 0.007996222 0.006933703
0003b0 42 80 58 22 2b f6 01 3b 75 3d 31 3a 2f 34 36 3b
       2.9341358e-18 0.0019830565 0.0006761172 0.00278021
0003c0 a9 53 13 3b 73 1e 39 3b 79 b1 cd 3b d7 a5 0e 3c
       0.0022480285 0.002824691 0.00627726 0.0087065315
0003d0 fe 9e 87 3b 32 8a 5f 3a 68 ef a0 38 b2 5e a4 3b
       0.0041388264 0.00085273676 7.6739874e-05 0.0050161714
0003e0 7d ce bc 3b 41 a9 c1 3b 7e 06 62 39 2a 35 c0 39
       0.00576192 0.005910069 0.00021555458 0.00036660704
0003f0 bf 5b 5c 38 bc 7b c8 3b 56 db e0 3b 19 f2 d4 3a
       5.2537533e-05 0.006118266 0.0068620844 0.0016246467
