ContinuousControl/checkpoint_critic_local.pth (torch_old, 436517 bytes, 11 tensors)

fcs0_batch.weight f4 [33]
00000000: 6e9b fa3e 2fd0 433f a338 bd3d 9a15 273e
00000010: a425 a13e d490 223f f620 003f 39d7 5f3f
00000020: 3ac5 e43e f6fd 1d3f 5ce6 af3e 8f50 c53e
00000030: 5cd1 023d 9846 243e 3896 963e b49d 063f
00000040: 5424 343f f6a2 4b3f 9e26 173e dbeb 913e
00000050: b01e 273f 6c30 6a3f 052e c63e 0abd 5a3f
00000060: ca35 d43e 2b79 0f3f b669 713f cfd2 533c
00000070: f8f4 563e 84f5 b03e 3f07 8e3e 006a 673f
00000080: cbb9 363e
0.48946708 0.7648954 0.09239318 0.16316834 0.3147403 0.6350224 0.50050294 0.8743778
0.44681722 0.6171564 0.34355438 0.38538024 0.031937942 0.16042554 0.29411483 0.52584386
0.7036793 0.79545534 0.14760825 0.28500256 0.652812 0.91480136 0.38706985 0.854447
0.41447288 0.5604426 0.9430193 0.012928679 0.20991886 0.34562314 0.27739903 0.9039612
0.17844312

fcs0_batch.bias f4 [33]
00000000: 768d 493b b317 f43a 6a65 1bbc 4c54 92bb
00000010: b293 1a3a ed1d f3bb 9d5e f43a 1e57 a73c
00000020: 19b2 a93a 18b0 0c3b a06c 8c3b be75 163c
00000030: 2dca d13a 6991 05bc 7d33 d4b8 2887 ccb8
00000040: 4f04 a63b 2d8a bcbb 92b3 903b ca25 fc3a
00000050: 0574 a83b cef7 46bb 939e 8e3b d4f7 ffbb
00000060: 617a 9ab9 90f3 b83a e2b6 61ba b64f 1abc
00000070: 79b9 843b 7f3c fbbb ef94 b33b 2292 f9bb
00000080: 73a3 31bc
0.0030754483 0.0018622786 -0.009484628 -0.0044656154 0.0005896642 -0.007419339 0.001864392 0.020427283
0.0012946754 0.0021467265 0.00428541 0.009183345 0.0016005688 -0.008152344 -0.00010118538 -9.752653e-05
0.0050664316 -0.0057537765 0.0044159377 0.0019237336 0.0051407837 -0.0030360105 0.0043523996 -0.007811526
-0.00029464348 0.0014110673 -0.00086103205 -0.009418419 0.0040504304 -0.007667124 0.0054804008 -0.0076162973
-0.010842192

fcs0_batch.running_mean f4 [33]
00000000: 424f 623f 5ae6 0fbf 853a 1cbf cd0b 5a3d
00000010: 37cc 14bc f7e9 0a3d 4680 dbbc 650a f13f
00000020: a766 5ebe 9479 f93e 77aa e53c f0b1 233e
00000030: f977 f2bd 0822 d03f 80c2 71bf 3e76 b1bf
00000040: a870 223c 91f6 5f3d f0ea 81bd e6d5 383d
00000050: c5c4 1340 8355 3fbd b4f8 6e3f 0d11 8cbc
00000060: ea5b 4d3f f6e1 643c a9b0 0c40 fcff 7fbf
00000070: d410 57c0 0000 0000 fcff 7f3f 0000 0000
00000080: b8c3 8bbe
0.8840219 -0.56210864 -0.61026794 0.05323391 -0.009081892 0.033914533 -0.026794564 1.8831297
-0.21718846 0.4872557 0.028035386 0.15985847 -0.11839289 1.6260386 -0.9443741 -1.386421
0.009914555 0.054678503 -0.06343639 0.045125864 2.3088849 -0.04671241 0.9334824 -0.017097974
0.80218375 0.013969889 2.1982825 -0.99999976 -3.360402 0.0 0.99999976 0.0
-0.2729776

fcs0_batch.running_var f4 [33]
00000000: 227d 4540 63b6 d040 275c a340 ae1c bc3e
00000010: 31a6 3d3e 59ad 4f3e 732d 783e 5222 1440
00000020: df01 b03e 2e56 133f 57f8 8541 10d4 2942
00000030: 1206 f141 f6b9 5e41 9de2 0842 a789 db41
00000040: 13d7 283e 37d2 ba3e f437 a53e 9a88 0e3e
00000050: 7743 3c40 669b 9a3f c959 dc3f 11e6 d542
00000060: 95ac 9643 c20d 5c43 2cfc a641 3ba9 2b31
00000070: e0bc d741 3ba9 2b31 3ba9 2b31 3ba9 2b31
00000080: 94eb 8e3d
3.0857625 6.522264 5.104999 0.3674063 0.18520428 0.2028097 0.24236088 2.3145947
0.34376428 0.57553375 16.74626 42.457092 30.127964 13.920401 34.221302 27.442213
0.16488294 0.36488506 0.3226925 0.13919297 2.9416177 1.2078674 1.72149 106.94935
301.3483 220.05374 20.87313 2.4979971e-09 26.967224 2.4979971e-09 2.4979971e-09 2.4979971e-09
0.06978527

fcs1.weight f4 [256, 33]
00000000: 2e56 023d a5cc 403c 65b4 a93c 78f1 08bd
00000010: 0458 6ebc 4b45 0f3b f4dd 4f3a 1f9f 233d
00000020: 3e87 ecbb f0ae b8bc 433b ab3c b5dd a53c
00000030: 830f 8dbc f296 3abb 70ca dcb9 f968 b23c
00000040: 96d1 1ebd 2f32 673d e946 843b 4c38 aabc
00000050: 514e af3c c59a 5eba 58dd 0c3c 92f1 c0bc
00000060: 74fa 0cbd 4437 02bc 003a 40bd ff11 dbb9
00000070: 5ab2 073d 2fe8 a33c d754 e0ba 9ff9 66bc
00000080: a8de 28ba 664e 6d3d 997f 0f3c 12c4 b0bc
00000090: a4f9 40bd 65c4 2abd fe83 3a3d 37d7 06bd
000000a0: dc45 d3ba 3250 74bc 87f0 323c 6428 bdbc
000000b0: 7aab f3bc 357f 863c 0040 003d 165d f2bc
000000c0: 85fa f43c 8031 2d3d 9932 363c f31f 21bd
000000d0: 5529 0fbd 3419 0bbb 0ddd 2c3d 6d26 73bc
000000e0: f6a1 e3bc 288e b13c 5b60 2dbd 8bc6 4e3d
000000f0: 99f7 38bc 3b38 5fbc cf5e 3d3c 8ef3 1bbc
00000100: 7dd6 133d 1c62 9d3c 0c76 6bbc 3c51 853d
00000110: 603e 59ba a8fc 90bd 08c3 d1bc eaec 79bb
00000120: 96ca debc f3be 00bd 7ce0 2f3d 6996 8d3b
00000130: f4c2 f73c 6a2e b0bc f61f 083d d7ea 693c
00000140: c0e4 ca3c a871 063d 3283 e23b bedd 193d
00000150: eab5 883a cfee 683d f698 fc3c 6f57 053d
00000160: 6518 663d 1aa7 553d 75fa 72bc 6a9c 343d
00000170: 500b 803d 640b 123c 8e44 a33d bbc6 0a3d
00000180: 10b3 f4b9 f625 d33b 7f3a 153d 905f 03bd
00000190: 5a8a 033c 2650 76bd 72ae 3c3c 7b65 203c
000001a0: 9472 333d 7f31 4bbc 824b 43bd d302 923b
000001b0: a2e2 37bd b350 4fbb d55b 4ebc 5ab9 31bc
000001c0: f68e a5bb 6b1a 83bc b52d 003b 8d1b 48bd
000001d0: 7c8e f0bc 4872 3cbd 1b27 50bc 3d50 263c
000001e0: ea57 b93a 504c 3d3d d555 c0bc e978 f23c
000001f0: 2f6a 803d 8e89 863d 65b5 1abc 3811 69bd
00000200: eb37 caba d0ca 4ebc 4f08 ebbb 2863 53bb
00000210: 33b1 60bd c740 34bd 1703 e63c 6809 cebc
00000220: 3215 1c3c 4e19 aa3c 95ac 883c 1138 60bd
00000230: 1dd5 b4bc f7b1 523d 65ee 0a3d b780 04bc
00000240: e394 b13b 3c8e 3fbd 8176 593c 2fdf 87bd
00000250: a689 533d c3cc fb3c 693a b33b 8beb 553c
00000260: face c43c 4eed 19bd ffc1 5a3b 2c55 2d3d
00000270: 135c 263d fd0e 233d c9e5 0dbd 43c2 953c
00000280: 25f4 7abd ed03 a5bb ece4 7eba 5321 013d
00000290: 2e6a 8b3c 6126 7dbc efde 3fbb 6bd6 083d
000002a0: 4095 5e3b 51b3 8e3b a79c 363d 51c9 8c3c
000002b0: 03db 42bc e44d 6ebc fb65 2c3d 53ae b53b
000002c0: 6354 273d 074c f4ba 871a 453c fe60 ae3c
000002d0: e9cf 283c 5b85 07bc 7242 b03b c470 ccbc
000002e0: 2313 54bc c7da 083b 25df 183b 3ee8 4e3b
000002f0: e4d6 22bc 334a 1dbd f3d5 55bb 322c b4bc
00000300: 75c5 093d 5117 32bc b941 a23a 1a35 cabb
00000310: 71fb 243b d722 bbba 2490 83bc 0d7a 573c
00000320: 5cfd 13bc f8b9 e83b 2d07 6c3d a794 d63c
00000330: 44f7 f43c 7eb1 2d3c 0e21 d63b f6aa 37bd
00000340: acab 773b 3961 133d 2557 153d 7d1d 3e3d
00000350: cd25 eb3a 5068 f53c a5d9 7bbb 0710 d7bb
00000360: 27b1 17bc c642 773d e956 81bc 0eb8 ca3c
00000370: ec5b 9fbc b90f 393d 0b88 423d e3fc 30bd
00000380: 56ee 543d f251 12bd 2304 26bb 8abf d9bc
00000390: 8e0f 6abc 86f5 c23c 5514 8b3c cf30 c43c
000003a0: e6e8 cd3c 20f4 8dba 3cb5 433d 9f1a 4abc
000003b0: 93cb 36bd 119b 5ebd f33e 3bbd 4afc dfbc
000003c0: 6082 253d 7155 633a e0b5 3dbb 48bc c1bb
000003d0: d5c9 c23c c437 f7bc 1561 6cbd 8d59 443d
000003e0: 9cba 6bbd f956 dd3a fe71 053c 3967 a5bc
000003f0: e7a1 2a3d 8dfc 3a3a 105e 873b b27c cd3c
0.03182047 0.011767541 0.020715902 -0.033433408 -0.014547352 0.002186137 0.0007929497 0.03994667
-0.0072182706 -0.022544354 0.020902282 0.02024732 -0.01721931 -0.0028471318 -0.00042112498 0.02177857
-0.038774095 0.056444343 0.0040367735 -0.020778798 0.021399649 -0.00084916904 0.008597694 -0.02355269
-0.03441854 -0.007947747 -0.046930313 -0.00041784343 0.033129074 0.020008175 -0.0017115128 -0.0140976
-0.000644187 0.057936095 0.008758449 -0.021577869 -0.047113076 -0.041691203 0.045536034 -0.03292009
-0.0016118842 -0.014911698 0.010921604 -0.023090549 -0.029744852 0.016418079 0.031311035 -0.029585402
0.029904613 0.042283535 0.011120462 -0.03933711 -0.034951527 -0.002122474 0.042202998 -0.014840704
-0.02778719 0.02167423 -0.04232822 0.050482314 -0.011289501 -0.013624246 0.011558249 -0.009518517
0.036093224 0.019211821 -0.014371406 0.06509635 -0.00082871877 -0.0707944 -0.025605693 -0.0038135597
-0.02719621 -0.031432103 0.042938694 0.004320909 0.030244328 -0.021506507 0.033233605 0.014277182
0.02476728 0.032823235 0.0069126124 0.037564985 0.0010430191 0.05686837 0.030834656 0.032554086
0.05617561 0.052161314 -0.014830221 0.04409448 0.06252158 0.008913849 0.0797206 0.03388093
-0.0004667272 0.0064437343 0.03643274 -0.032073557 0.008028591 -0.06013503 0.0115162 0.00978982
0.043810442 -0.0124019375 -0.04767943 0.004455903 -0.04489387 -0.0031633794 -0.012595137 -0.010847414
-0.0050524427 -0.016003808 0.0019558494 -0.0488544 -0.029364817 -0.046007425 -0.012704636 0.010150966
0.001414058 0.046215355 -0.023478428 0.02959867 0.06270253 0.06569205 -0.009442662 -0.056901187
-0.0015428042 -0.012621596 -0.0071726213 -0.0032255147 -0.05485649 -0.04400709 0.028077645 -0.02515097
0.009526538 0.02076402 0.016683856 -0.05474097 -0.022074277 0.05143925 0.033918757 -0.008087329
0.00541936 -0.046766505 0.013272882 -0.06634366 0.051644944 0.030737286 0.0054696095 0.013056646
0.024024475 -0.037579827 0.003337979 0.042317554 0.040615153 0.039809216 -0.03464297 0.018281108
-0.06126799 -0.0050358684 -0.0009723443 0.03152592 0.017018404 -0.015451045 -0.0029277166 0.03340761
0.0033963472 0.0043548723 0.04458299 0.017185839 -0.011893037 -0.014544938 0.042089444 0.0055444627
0.04085196 -0.001863838 0.01203025 0.021286484 0.010303476 -0.0082715405 0.0053790146 -0.024956115
-0.012944016 0.0020882355 0.0023326364 0.0031571533 -0.009938929 -0.03840084 -0.0032628744 -0.02199373
0.033635575 -0.010869817 0.0012379206 -0.006170881 0.0025174285 -0.0014277351 -0.016059943 0.013151658
-0.009032574 0.0071022473 0.05762403 0.02619393 0.029903062 0.0106013995 0.006534702 -0.044840775
0.0037791533 0.03598139 0.03646006 0.04641484 0.0017940343 0.029956967 -0.0038429287 -0.00656319
-0.009258545 0.060366414 -0.015788512 0.024745967 -0.019453011 0.04518101 0.047493022 -0.04320992
0.051985107 -0.03572268 -0.0025332056 -0.02658059 -0.014285935 0.023798715 0.016977469 0.023949055
0.025135469 -0.0010830201 0.04778026 -0.0123354485 -0.044627737 -0.0543471 -0.04571433 -0.02734198
0.04040754 0.00086720946 -0.0028947517 -0.0059123375 0.023777882 -0.030177958 -0.057709772 0.047936965
-0.05755101 0.0016886882 0.008144854 -0.020190822 0.04165831 0.000713297 0.004131086 0.025083873

fcs1.bias f4 [256]
00000000: 5307 39bd 092d 683d 9c09 b23c 2de7 283e
00000010: d5c9 f73d fd5a 8bbd 3e18 f73d 2c80 b9bd
00000020: f87e 55bd 6613 f63d e9ff d4bd 2026 51bd
00000030: 2c98 e7bd 2d22 a43d 17dd fb3d 7b3e 193e
00000040: eb18 51bd c193 f8bd 30b7 be3d 9698 d5bd
00000050: e9a2 27bd aaea efbd 20b9 073e a7ef 36bc
00000060: 7635 1a3d d836 813c 3015 e93c 52b7 78bd
00000070: 4d7c 293e 6bae 0fbe f7aa 48bc b891 afbd
00000080: 192e eebd dc97 c13d 3d6a f73d 47a0 ab3d
00000090: 4eb8 593d d6fe e63d d071 af3d 3850 74bd
000000a0: 4064 87bd e8a0 703d f14b d73d 8a6c fc3d
000000b0: b482 e9ba 7d76 303e 3d76 d0bd e5e3 8b3d
000000c0: 0474 173e 9427 a53c f7e0 cc3d 2f09 213e
000000d0: 1464 e7bd e838 e53d 4b38 913d ea41 b73d
000000e0: 39f6 aa3d 1908 d53d ebe1 7a3d 3bb8 e43d
000000f0: d0ca 05be 1908 16be ab75 a03d 7814 323e
00000100: 3064 24bd 39bd 093e 9b43 15bc 9ed2 b33d
00000110: 3e56 77bb 27e1 a13d 25f6 6abd 0e26 fabd
00000120: dcc4 b13d 6e2f 87bd 9dd4 053e 3c9f 9d3c
00000130: 9a60 7dbd ad5f 1e3e 4532 203e a6d8 99bd
00000140: 930f b43d 4e88 233d 0a62 d4bd d8fe f93c
00000150: e12a 11be 1113 9a3c ffa3 06be 38be 163e
00000160: 3803 ab3d c958 073e 416f 193d 3539 80bd
00000170: 83d7 ad3d 68c2 9a3d 2ceb a73d bce6 91bc
00000180: 0f5b 2c3e 2267 c7bd 67a8 04be 912e 303d
00000190: adc3 1a3e 740c be3c cc79 02bd dbce 08be
000001a0: e128 e63d 4bcf 12be 4297 73bd 85ff c03d
000001b0: f4ff 90bd 8a47 d7bd f467 a0bd eb4e 9f3d
000001c0: b739 8bbd 3c27 19bd 86a2 2dbd a0fe b33d
000001d0: b96a 203e 1859 9c3b fa2e 6a3b 46a2 93bc
000001e0: 2c37 aa3d 5651 fc3d 362f 253d 8b74 e13d
000001f0: 221e 2bbd 0e99 0bbc eb5e 05be 291a 9b3d
00000200: bad4 9fbd d93a b6bc f811 15be 30c9 733c
00000210: d551 583d 603a df3d e879 10bd bae9 a73b
00000220: 6ea6 233e 78dd 5a3a 32c2 0a3e 4bc0 293e
00000230: dd30 133e 5af5 a13d 9f2f db3d 9d84 1f3e
00000240: e785 55bc 53f8 053e 1751 87bd d5fd 41bd
00000250: abe8 9c3d f606 abbd 3f28 35bd 41b6 df3c
00000260: 8e7a fe3b 35f8 9b3c ea62 adbc 1e0c 633d
00000270: 1248 263e b092 4abd 80b9 ca3d 1815 243d
00000280: 8680 d83d 411d 0e3e d97e 1bbb a78b c9bc
00000290: 1a2d 65bd 7f1e 0ebd 7852 84bd 453f ebbc
000002a0: 0827 da3d fc10 3d3d d541 8dbd 6ecd c43d
000002b0: c8f9 403c d36e 233c 76b9 8b3d 118a a2bd
000002c0: bd86 9bbc 0c27 003e 4fa5 d93d b5a9 cf3d
000002d0: d20d d6bc e040 f73c 4c7b da3d 77f0 143d
000002e0: 4e1d c13d b984 ad3d 5123 9c3d 5add 973d
000002f0: 2707 b6bd 03cd 0cbe a67d 1fbe 21bf 093e
00000300: dca4 9dbd 0cfd eabd d67e bd3c febe 5dbc
00000310: 4aaa 4a3d baee 57bd d0ac 043e e68d 0ebe
00000320: e9fa 29be 6926 163e 0d0b a3bd ecfb 1d3d
00000330: 038a 873d 85e4 c73c 2792 afbd f0cb 943c
00000340: fd90 e4bd 87e0 123e d514 ef3c b7db f83d
00000350: cdad f03d d32c 9e3d 7131 643d 0433 be3d
00000360: deb5 c7bd 6c4f f63d 1032 10bd 20b3 063e
00000370: 5f39 4cbb 1ce9 9d3d 5100 fe3d fd01 003d
00000380: 62d1 cbbc f168 8a3d ac86 26be 2f41 8ebc
00000390: 9b60 15bd c2f0 dcbd 8160 313b c1dd 253d
000003a0: e26d 11be 2bba 0d3e 1640 c33d 44da 2d3e
000003b0: f0d9 7dbd ed19 d5bd 96f8 dc3d 5b85 223e
000003c0: c9a7 aabd 153d a3bd eb5f 4dbc 0355 143e
000003d0: 1258 b9bc fd36 13be 182b 8abd 5161 a4bd
000003e0: a2d1 043e 8d7e f5bd 748a 043e 8eec 8e3d
000003f0: bd41 b6bc 1f05 00bd 9e61 ba3d 2824 b8bd
-0.045173 0.056683574 0.021733098 0.16494437 0.12099043 -0.06804464 0.12065171 -0.0905765
-0.05212304 0.12015419 -0.104003735 -0.05106175 -0.11308321 0.08014331 0.12298029 0.1496524
-0.051049154 -0.12137557 0.09312284 -0.10429494 -0.040926848 -0.117146805 0.13254213 -0.011165536
0.03764864 0.015773222 0.028452486 -0.060721703 0.16551323 -0.14031379 -0.012247792 -0.085727155
-0.11629886 0.09452793 0.1208081 0.0838018 0.053154282 0.11279075 0.0856663 -0.059646815
-0.06610918 0.058747202 0.105125315 0.1232539 -0.0017815442 0.172327 -0.10178802 0.06830577
0.1479035 0.020160474 0.10003846 0.1572616 -0.11298385 0.11192495 0.07090815 0.08948119
0.083477445 0.10401935 0.06125061 0.11167952 -0.13065648 -0.14651527 0.078349434 0.1739062
-0.04013461 0.13451089 -0.009110357 0.087804064 -0.0037740613 0.079042725 -0.057363648 -0.122142896
0.08680126 -0.06600843 0.13069387 0.019240968 -0.061859705 0.15466185 0.15644176 -0.075120255
0.08792033 0.039924912 -0.10370262 0.030517027 -0.14176513 0.01880792 -0.13148497 0.14721
0.08350223 0.13217463 0.037459616 -0.062609114 0.08488371 0.07556611 0.08199152 -0.017810218
0.16831611 -0.09736468 -0.12954865 0.04301316 0.15113707 0.023199297 -0.031854436 -0.13360159
0.11238266 -0.14336888 -0.059470423 0.094237365 -0.07080069 -0.10511692 -0.078323275 0.07778724
-0.067981176 -0.037390932 -0.042391323 0.087888 0.15665711 0.004771363 0.0035733567 -0.018021714
0.083113045 0.12320201 0.040328227 0.11008557 -0.041776784 -0.008520378 -0.1302449 0.07573349
-0.07804246 -0.022244858 -0.14557636 0.01487951 0.052812416 0.10899806 -0.03527251 0.005124298
0.15981457 0.00083490415 0.13550642 0.1657726 0.14374109 0.07908125 0.107024424 0.15577932
-0.013032413 0.1308301 -0.066072635 -0.047361214 0.076615654 -0.08350937 -0.044227835 0.027308585
0.0077660745 0.019039253 -0.02116533 0.055431478 0.1623843 -0.0494563 0.098986626 0.04005918
0.10571389 0.13878347 -0.002372673 -0.024602724 -0.055951215 -0.034697052 -0.06461042 -0.028716693
0.10651976 0.046158776 -0.06897322 0.09609495 0.0117783025 0.009975153 0.06822483 -0.0793649
-0.018985147 0.12514895 0.10627233 0.10139791 -0.026129637 0.030182302 0.10668048 0.036362138
0.094294176 0.084725805 0.076239236 0.07415266 -0.08888083 -0.13750081 -0.15575275 0.13451816
-0.0769746 -0.11474046 0.02313177 -0.013534306 0.049478807 -0.0527179 0.12956548 -0.13921317
-0.16599621 0.1466309 -0.07961092 0.03857033 0.066181205 0.024400959 -0.08572798 0.018163651
-0.11160467 0.14343463 0.029184738 0.12151282 0.117519 0.07723393 0.055711213 0.09287074
-0.09751485 0.12026867 -0.035203993 0.13154268 -0.0031162126 0.07710478 0.12402404 0.031251896
-0.024880115 0.06758297 -0.1626231 -0.017365066 -0.036469083 -0.107881084 0.0027065577 0.040494684
-0.14202073 0.13840549 0.09533708 0.16977793 -0.06197542 -0.104053356 0.107896015 0.15871184
-0.08332784 -0.07970635 -0.012535076 0.14485554 -0.022625003 -0.14376445 -0.06746501 -0.08026374
0.12970594 -0.11987028 0.1294344 0.06978713 -0.022248143 -0.031254884 0.0910065 -0.08991271

fc2.weight f4 [256, 260]
00000000: b8b1 3c3d 2580 e73a 72a3 2bbd 58a4 11bd
00000010: de03 e83c 07f5 e53b 06fd 4d3d e724 2ebc
00000020: 9835 4f3d 5441 473d f810 023d 3075 1fbd
00000030: 773c 79bc fe55 863d 5020 91bb 4f69 853d
00000040: 25bd e5bc 29f2 74bc 1b39 74bc c708 ffbc
00000050: 850e 853d fc35 7d3c 33cf e1bc 1ed3 053c
00000060: 7165 7b3d 7ca1 b13c 206a 7a3d 67b9 2ebd
00000070: d420 ba3c 9540 8f3c 6e53 6d3d 4ba4 203d
00000080: 27c2 95bc 9ac6 dfbc b599 afbb 2b6d a03c
00000090: 2f9d 6e3d 7fbe 213d aacf 763d 938a ff3c
000000a0: b41c 1abd 1c25 043d 75de c43b 804d c23c
000000b0: 7fe6 1dbd 2af7 b3bc 9f30 16bd 1b01 823d
000000c0: 61a8 48bd a461 5c3d 2ca1 9bbc 030b 90ba
000000d0: 61ce 10bd f14b 41bd 6426 1cbd 4066 4abc
000000e0: e508 ab3c e56a 7b3c 1236 7abc e504 203d
000000f0: 7750 2d3a 547c d3bc 5497 70ba cdc4 083d
00000100: 8696 ae3b 3962 513d 0afb d5ba 9343 29bd
00000110: 353c 8fbc badd 693d 094a 3d3d a0d5 bfbc
00000120: 3b5a 4a3d e302 b2bb 7678 6b3d 1de2 d53c
00000130: b0f0 47bc e63c 423d 4e99 8d39 0015 4fbc
00000140: 14f6 1b3d 1393 32bd 327a bb3b 68dd bcbb
00000150: 97d5 933c 3c87 87bc 5aff ebbc 580d 6c3d
00000160: 1cc9 c1bc 8881 bfba 0b35 163d f7ca f93c
00000170: 4c02 cdbc 1869 233d 6711 033d b2a5 e13c
00000180: 3863 97ba 5670 da3c 992f 4fbc 8811 e7bc
00000190: f738 69bd 73d6 5d3d f6cd 3fbd a062 a9bc
000001a0: 0de3 373c da00 e0ba f2fa 583b eb44 32bd
000001b0: a00b 8f3c 1a24 2c3a 6fe6 3dbc a6d1 253c
000001c0: 3a5b 25bd bce4 34ba 725d 143d 1d2c 0abc
000001d0: 53cb 293d 5e4d d8bb e11f 19bd 04d3 fb3b
000001e0: ad4d 05bc 01d6 303c bbb5 413d ed61 5c3d
000001f0: fdaa 9cbb cc57 e3bc 8b84 38bd 6659 e13b
00000200: 0b24 f53c 8960 e63c 174e 9abb 0940 db3c
00000210: 3972 1ebd 0829 2abd 706d 42bd 2255 c93c
00000220: 4e6a 7fbc 4211 18bc 248c 823d 3ca7 323d
00000230: ece3 163d 9a36 183d 5ff3 77bd d7cf 02bd
00000240: cf8c 4f3d a646 223d 3176 f9bc daac 143d
00000250: f66e 6c3d e0a0 d7bc 24cf d9bc 7ec7 853d
00000260: 121d 3bbd 4332 80bc 48ca b23c 8226 c6bc
00000270: a7e0 20bd 5e6c c83b 456e 49bd 61ce eb3c
00000280: c65d 6a3d cf92 a3bc 68b1 df3c cd29 3bbd
00000290: 3392 b03c 4875 263d 4072 06bd 1d93 ec3c
000002a0: 38cd 02bd ac43 45bd 1560 013d cb79 04bd
000002b0: 83e3 3ebd 8b17 183d 0a7c cabc 78c3 42bd
000002c0: fc7b 33bd 50c8 b03c cfbd 24bd 503f f63c
000002d0: 07f4 693c 2c85 673c c3a4 173c af68 c13a
000002e0: a2e7 43bd e393 0cbd 84b7 a33c 8a0e 00bd
000002f0: 8023 f43c 22a4 173d d91d d53b c862 8c3c
00000300: bbd5 cbbc 025b a83c 91c7 043d 96fb 1c3d
00000310: 2f19 4ebd dac4 43bc 9310 a43b 323a d63c
00000320: 69d5 193d 87e1 3f3c c975 923c d688 633d
00000330: 757a 563b 3902 203d 4d69 c63b 6b19 763d
00000340: 0119 9b3b 269c 8a3d 8595 213d 1fa3 053d
00000350: a7f0 273d a302 2fbd b910 923c 1b17 153a
00000360: ab8f a8bc c5fa c3bc 23dc d9bc 7ae4 2bbc
00000370: 6ed8 6a3d 1380 33bd 67c6 ca3c e525 af3c
00000380: dd62 0fbd 8e40 eaba 1ee4 2eba fd12 eebc
00000390: cd1b cc3b ff21 b3bc 3980 793c 040a a13b
000003a0: f5b9 04bd 5fa3 01bd a3ce babb 272b 85ba
000003b0: 432b 89bc abdd 2b3d 83c8 dc3c ab6e 353d
000003c0: bfc8 513c d624 533c 94a3 a6bc e8f1 e7bb
000003d0: 4c7e 443d d062 2f3b 013b 3dbd 5d34 45bc
000003e0: 0706 95bc 551e 063d 87e9 973c 0f04 2b3d
000003f0: 6aa4 aa3c 9569 15bd 1931 393d 5126 95ba
0.046067923 0.0017662091 -0.04190392 -0.03555712 0.028322157 0.007017735 0.05029013 -0.010628915
0.05058822 0.048646286 0.031754464 -0.038930118 -0.01521217 0.065593705 -0.004428901 0.06514227
-0.028044293 -0.014950314 -0.014906193 -0.031132115 0.0649691 0.015454765 -0.02756462 0.00816801
0.06137604 0.021683447 0.061136365 -0.042657282 0.022720732 0.01748685 0.057940893 0.039219182
-0.018281056 -0.02731638 -0.0053588995 0.019583305 0.05825537 0.03948831 0.060256638 0.031194007
-0.03762503 0.032261953 0.0060079643 0.023718596 -0.038549896 -0.021968443 -0.036667462 0.06347867
-0.048988704 0.053804055 -0.018997751 -0.001098961 -0.03535307 -0.047191564 -0.03812255 -0.01235348
0.020878265 0.01534531 -0.01527168 0.039067168 0.00066114165 -0.02581612 -0.0009177823 0.03339081
0.0053280024 0.051119063 -0.0016325426 -0.04132421 -0.017484764 0.05709622 0.046213184 -0.023417294
0.049402457 -0.005432473 0.057487927 0.026108796 -0.01220338 0.04742136 0.00027007837 -0.012639284
0.038076475 -0.043597292 0.005721354 -0.0057636984 0.018046184 -0.016543977 -0.028808285 0.057629913
-0.023655467 -0.0014610747 0.03667168 0.030492289 -0.02502551 0.039895147 0.031999018 0.02754483
-0.0011549955 0.026664894 -0.0126456255 -0.028206602 -0.05693909 0.054159593 -0.04682728 -0.02067691
0.011223567 -0.0017090098 0.003310856 -0.043522757 0.017461598 0.0006566659 -0.011590584 0.010120785
-0.040370204 -0.0006900539 0.03622193 -0.008433369 0.04145367 -0.0066010198 -0.037383918 0.007685067
-0.008136195 0.01079321 0.047292452 0.053804327 -0.0047811256 -0.027751826 -0.045048278 0.006877112
0.029924413 0.028122203 -0.004709016 0.026763933 -0.03868315 -0.041543037 -0.04746765 0.024576727
-0.01558931 -0.009281458 0.06374386 0.04361652 0.036838457 0.037161447 -0.06053483 -0.031936493
0.050671395 0.039618157 -0.030451866 0.036297657 0.057723008 -0.026321828 -0.02658803 0.06532191
-0.04568202 -0.015648967 0.02182497 -0.024188284 -0.039276745 0.006116434 -0.049177427 0.028784933
0.057218336 -0.019967465 0.027306274 -0.04569416 0.021554088 0.040639192 -0.0328238 0.028878743
-0.031933993 -0.04816024 0.03158577 -0.032342713 -0.04660369 0.037131827 -0.02471735 -0.047549695
-0.043819413 0.021579891 -0.040220078 0.030059487 0.014279372 0.014130872 0.009255591 0.001475593
-0.047828324 -0.034320723 0.019984968 -0.031263866 0.029802084 0.037021764 0.0065038023 0.017136946
-0.024882188 0.020551208 0.032416884 0.03832587 -0.050316986 -0.011948789 0.0050068586 0.026150797
0.03755704 0.011711485 0.01787843 0.05555042 0.0032726799 0.03906462 0.0060550333 0.060082834
0.0047332053 0.06768064 0.039449234 0.032626268 0.04100099 -0.042727124 0.01783024 0.0005687342
-0.020576319 -0.023923287 -0.026594227 -0.010491485 0.05733531 -0.043823313 0.024752809 0.021380374
-0.035006393 -0.0017872022 -0.00066715654 -0.029061789 0.0062289 -0.021866797 0.015228325 0.004914524
-0.032403905 -0.031649943 -0.0057009025 -0.0010159955 -0.016744262 0.041959446 0.02695108 0.044294994
0.012804209 0.0128872 -0.020341672 -0.007078398 0.04797201 0.0026761778 -0.04619885 -0.01203641
-0.01819135 0.03274377 0.018543972 0.041751917 0.020830352 -0.036477644 0.04521284 -0.0011379217

fc2.bias f4 [256]
00000000: fba8 95bc a59b 133d 05ac a53c d502 1ebd
00000010: 8e77 dc3c a5da 753d 03f6 803c b4b6 c63a
00000020: 2459 f7bc e266 b03c 463f 233d b597 06bd
00000030: 37f5 cfbc 2b82 38bb 914f a039 1a53 0f3d
00000040: c428 3a3d 1cf5 92bc 45a8 07bd 28f0 58bd
00000050: a2fc d93c f517 2dbd 356a 173d 1d72 19bd
00000060: f7ce 5fbc 92c3 4c3d 7894 593d 95ea 09bd
00000070: 88c2 6bbd 38f6 2b3d c6ab 70bc 0a68 143d
00000080: 7b14 543d a171 06bd ad81 0e3d 6e74 2b3d
00000090: 008d c7bc 6cef 1e3d a217 1bbb 07a8 0cbd
000000a0: c169 4a3c d408 bb3c 7afe 5dbd 67eb 6a3d
000000b0: 24ff a0bc e773 2c3d ef1f 06bd b32f 313d
000000c0: da54 5e3d 7038 5e3d 4529 be3c ec02 38bc
000000d0: 9ce2 3c3d a56b 493d be06 b83c 1fed 4c3d
000000e0: 1d4b 7b3d 43f9 313d 374d 5abc a9d1 d0bc
000000f0: 044b 3abd ab22 383d 185a 433d f600 f1bc
00000100: 83f1 063d 8c5f 663c b7d9 d33c 06bf 82bc
00000110: a4e3 523d 3f7a c73c e7ae 12bd 53e6 babc
00000120: 077b 303d 97cd 64bc 3272 eb3c 7215 1dbd
00000130: 96b4 b5bb 1007 023d 511f 7b3d e50e bfbc
00000140: c5b3 d13c 9eb9 0e3c dc2a 26bd 1b08 1cbd
00000150: 3f13 4fbd 9b48 753d 90e0 693d 2b26 783d
00000160: ebf8 a2bb d7d7 b9bc 9437 4cbd 84f8 35bc
00000170: a04e 46bd 14f6 d6bc c0b4 433d b6f4 26bd
00000180: 46a7 503d 87d8 44bd 857a 293d f7f6 7cbc
00000190: ad20 713d 9e6b 72bd 97a8 27bd f87d 103d
000001a0: e4e3 53bd d598 733c 60c8 4dbd 178c 9bbb
000001b0: f5b1 3f3c 2f14 1c3d d8fc 273c 3c56 0e3d
000001c0: 55bd 2fbd 0295 63bd 327b aabb 480f fe3c
000001d0: 5848 83bc ea4d c2bc 7362 dbbb fe5d 5ebd
000001e0: c941 cabb 3f7a 1ebd 34ea 293d b6ba 173d
000001f0: ba81 22bd ea8a 8fbc 8198 b63c 26df 2abc
00000200: 5f4d 963c fd7f 27bc e48b 34bd a68d 56bd
00000210: f544 3c3d 76b0 6abd f393 40bd be3f ebbc
00000220: e34d 423c 3e45 733d db08 c7bc 06f0 473d
00000230: 56a0 39bd 7e9d 90bc ddc2 2dbd 30de 9ebc
00000240: b149 8d3c 65c1 d83c 2ee9 33bd dbd5 563d
00000250: 2356 36bd c71d 193d 1cab ba3b aa6b 2cbd
00000260: 54c1 21bd 103d e6bc da0e 5c3d ea27 0fbb
00000270: d0ae d7bc 3275 3d3d cfa0 c9bb 7b63 f03c
00000280: 5acb 493d 0bba 5f3d f03a 55ba 40c9 66bc
00000290: 4937 06bc 6ef5 1bbd e022 4d3d 7743 173d
000002a0: 7c60 48bd 2fe8 c6bc e4ed 18bd c95e 41bd
000002b0: a271 4bbd 9b10 dbbc fbd5 3bbc 485f 823c
000002c0: ec78 8339 b62d 633c ee91 1f3d ecbb 47bd
000002d0: bf33 e4bc 1945 1dbd 05f3 0fbc 1dea fe3b
000002e0: fe0d 2e3c 6002 983c 39b0 52bd 95fe 503c
000002f0: ef8a 7dbb c7a4 573d 6a85 4e3c 09d8 803d
00000300: c97c 003c 17e6 2ebc 7391 36bc 875e fabc
00000310: 75fa 1c3d d52a 393d c3d3 233d d4db 2e3d
00000320: 5cd0 063d 5833 a3bc 576e 30bd 4e66 443d
00000330: 2950 df3a b62c aebb 3121 1f3d 136f 5c3d
00000340: a235 693c 85cc 863b 3912 a6bc a1f4 313d
00000350: 4a84 1fba 01f5 6c3d 34f8 73bd 14ed 06bb
00000360: 7a1f 6e3d 9e54 a63c 13e2 e43c 0d4c f4bc
00000370: f17f 6dbd 56b5 343d bb4c bf3b 5757 ccbc
00000380: 8264 46bd 680d 403d 8067 743c 1f15 23bd
00000390: 2002 793d 9c36 4cbb 769a 423d c7a5 033d
000003a0: 5894 5bbd 7081 03bd d575 39bd 51e9 6a3d
000003b0: 4a7c 5e3d 7eaa 94bc 50d1 ac3c f7c3 1b3d
000003c0: 7e3c 4b3d 82ec f3bb 807e 64bd f617 363d
000003d0: 78a7 96bc aa6f 093d 545e ea3c b63a 743c
000003e0: a7d8 6c3d 3826 03bd d6fa 56bd aa20 97bc
000003f0: 1eb0 c0bc 01de 31bc 104a 473d ffe8 a1ba
-0.018269053 0.036037106 0.020223627 -0.03857692 0.026912477 0.06002297 0.015742308 0.0015160651
-0.030193873 0.021533433 0.039855264 -0.032859523 -0.025385482 -0.0028153758 0.0003057686 0.03499136
0.045449033 -0.017939143 -0.03311946 -0.052963406 0.026609723 -0.042259175 0.03696652 -0.037462343
-0.013660184 0.049991198 0.053120106 -0.03367098 -0.057558566 0.04198286 -0.0146893915 0.036232032
0.051777344 -0.03282321 0.034791637 0.041859083 -0.024359226 0.03880255 -0.002366521 -0.03433993
0.012354315 0.022831358 -0.054197766 0.057353403 -0.01965291 0.04210272 -0.032745298 0.04325838
0.05428014 0.05425304 0.023213038 -0.011231165 0.04611455 0.049174923 0.022464152 0.050030824
0.06135093 0.043450605 -0.0133240735 -0.025490599 -0.045481697 0.044954937 0.047693342 -0.029419404
0.032945167 0.014060866 0.02586065 -0.015960228 0.051486626 0.024350284 -0.03581133 -0.022814905
0.043086078 -0.013965032 0.028740976 -0.03835053 -0.005545209 0.031745017 0.061309163 -0.023322532
0.025598416 0.008711247 -0.040568218 -0.038093667 -0.050555464 0.059883695 0.057098925 0.060583275
-0.004973521 -0.022685928 -0.04985769 -0.011106614 -0.048414826 -0.026240386 0.0477798 -0.04076072
0.050940774 -0.04805806 0.04137661 -0.01543974 0.058869053 -0.059184663 -0.040932264 0.035276383
-0.051731005 0.014867981 -0.05023992 -0.0047469246 0.011700143 0.038105186 0.010253154 0.03475021
-0.04290517 -0.055562027 -0.0052026743 0.031013146 -0.016025707 -0.023718793 -0.0066950857 -0.054288857
-0.006172393 -0.0386908 0.04148312 0.037043296 -0.0396745 -0.017522294 0.022289516 -0.010429179
0.01834744 -0.010223386 -0.044078723 -0.05238118 0.0459642 -0.057297193 -0.047016095 -0.028716918
0.01185939 0.059392206 -0.024296215 0.04881289 -0.045318924 -0.017653223 -0.042422164 -0.019393057
0.017247053 0.026459405 -0.04392355 0.052450042 -0.04451574 0.037381914 0.0056966674 -0.042094864
-0.039491013 -0.028105289 0.0537251 -0.002184386 -0.026328474 0.046254344 -0.006153203 0.029344311
0.049266197 0.054620784 -0.00081340875 -0.014086068 -0.008191892 -0.038075857 0.050082088 0.036929574
-0.04892014 -0.024280636 -0.037336245 -0.047209535 -0.049668916 -0.026741317 -0.011464591 0.015914574
0.0002507636 0.013865879 0.03895753 -0.0487632 -0.027856706 -0.038395975 -0.008785968 0.0077793733
0.010623453 0.01855582 -0.05143759 0.01275601 -0.0038687547 0.05264738 0.012605051 0.062912054
0.007842251 -0.010674975 -0.011143076 -0.030562652 0.038324792 0.045206863 0.039996874 0.042690113
0.03291355 -0.019921944 -0.04307398 0.047949128 0.0017037439 -0.0053153886 0.038850013 0.053816866
0.014233978 0.004113736 -0.020272361 0.043446187 -0.0006085081 0.05785084 -0.059562877 -0.0020588087
0.058135487 0.02030402 0.027939832 -0.02982142 -0.057983343 0.044118248 0.0058380044 -0.02494399
-0.048435695 0.046887785 0.014917254 -0.039815065 0.060793042 -0.003116048 0.047510587 0.03214052
-0.05360827 -0.032105863 -0.04527839 0.057351414 0.05431775 -0.018147703 0.021095902 0.038028684
0.049618237 -0.0074439654 -0.055784702 0.044456445 -0.018390402 0.033553757 0.028609432 0.014906576
0.057823803 -0.03201887 -0.05248531 -0.018448193 -0.02352148 -0.0108561525 0.048654616 -0.0012352763

fc3.weight f4 [128, 256]
00000000: a2b5 08bd df5e e73c 3ed7 883b 73d1 9b3d
00000010: 7f8b ee3c e5f8 b13d d844 923d 0007 163d
00000020: 20d2 f5bc 47a0 adbd 03d2 243d 4c30 353d
00000030: 27e8 5bbc ff6f 9f3d 911e 543d 56fb 51bd
00000040: 04f4 d63b ea21 943c ce1c 3cbd 9496 1bbc
00000050: 54e6 99bb e257 583d 61bf ae3d c14f e73c
00000060: 3d01 8a3d 3197 8d3d fbe1 2abd 91d3 48bd
00000070: 78ad 363d a669 13bd 36cd 203d ce76 413d
00000080: a3c0 86bd a62d b4bc 0fc4 82bd a65b 343d
00000090: 8b05 de3c 0b7a 34bd ef12 a23d 158f 4f3d
000000a0: 3bdc 85bd 9605 98bc 478e a1bd d2a1 363b
000000b0: cd57 ecbc d2cc a2bd 41f7 2dbd a9c9 55bc
000000c0: a378 23bc 10fb e53c 6a35 14bc 0af4 3ebd
000000d0: 17db 393d c1ac 6f3c 2458 ea3c 03c4 4f3c
000000e0: c772 c4bc e183 00bd 1130 49bd 4232 74bc
000000f0: f9ec 02ba 4cb6 aebb 539c b4bc 3295 b5bc
00000100: 2923 c3bd 7984 113d 883e 5bbd 4ffa 823c
00000110: 4324 9f3c 0427 92bd 9752 79bd d9ba 9d3a
00000120: f9fb 77bd 5e32 4ebd e5ab 483b fbc7 3c3d
00000130: 4dc2 bcbb 26f9 753d 9306 41bd 0c57 cabb
00000140: 65dd 403d 98cb 0b3c f12d fd3c 8555 723d
00000150: cb08 e8bb 6ee7 89bd 1bca 88bd db39 583c
00000160: e97d 153d 80f7 233d a016 77bd c881 5c3d
00000170: 067f 5fbd 22aa 173c 3d72 64bd 4c88 de3c
00000180: d5d0 6f3d dcc2 c73c a860 6d3d 1657 d3bc
00000190: c1c0 9abd bbb2 1fbc 0abb 54bd c875 8dbd
000001a0: 2535 48bd 970f 18bc 36d1 933d 1e30 51bc
000001b0: 9556 9c3d 3bf0 4f3d c4a3 833d b8e1 8abd
000001c0: fec1 5e3d a558 43bd eba1 0bbc bf0d a2bd
000001d0: da63 183d 4d2f 31b9 78e1 87bd a3e8 42bd
000001e0: 344b a4bc 1c02 263d b69a 96bb d8c5 78bd
000001f0: 18c2 11bd f3f3 813c 6105 033c 1185 0e3d
00000200: 56cb e4bc 69cc 03bc dedf ba3c a55d 5abc
00000210: 2fa0 20bd 72d3 7dbc 0cba 8c3b 31da 18bd
00000220: 7b28 d1bc f035 a83d c185 83bd 136d 263d
00000230: 6ba3 c73c 22aa 15bc b84e 8a3d 953f e6ba
00000240: 75aa a33d 95f4 823d 5b52 d33a 0daf 8d3d
00000250: fe8c 89bd f0ee 793b e2e5 02bd 2555 7a3d
00000260: 1900 18bc dbb4 ed3c 2fe3 883b e1d3 8abd
00000270: f94c 983d ee85 18bd 9334 49bd 64b8 08bd
00000280: 5fb6 7ebd 9f5c d33c 865b 803b c536 883c
00000290: b2b3 d7bc 19fc 6f3c d394 a1bd e20e 3dbd
000002a0: 7eac 05bd fdd7 a33d a9cc 663c a67e 2e3d
000002b0: 5cfb 1aba f9bb abbd 711d 92bc fcd8 3c3c
000002c0: 7bb2 383d e954 bebc 6fed 653d fae5 ad3c
000002d0: 3ae0 abbc 0a85 433d 8047 913d abe5 8f3d
000002e0: 3a19 013c c4f0 733c b5c8 64bd 5f4d 2cbc
000002f0: f17f f4bc 9567 563d 61a4 3cbd cfb2 8fbc
00000300: 2d16 86bb 84a7 d1bc da64 03bd 86c0 b63c
00000310: 8511 3abd a04d 63bd bce5 9bbd 2707 d2bc
00000320: 307b 0e3b 2dfe b7bb 278c ec3c 6700 bdbb
00000330: ce8b a83d 18af a63d 632b 4a3d ec45 6abd
00000340: 4e2b e1bc 43a3 753d f337 f4bc d23d 5d3d
00000350: b447 31bd 44e0 a43d 5a67 a7bc bf61 94bd
00000360: e110 0ebd 9b01 813d 0f04 983d 57d3 f0b7
00000370: ebdf ea3c 756b 863d bcba d23b 531e 63bd
00000380: c9f7 233d 203b e93c 0b1f 4f3d 70ce 9abc
00000390: 4f3f 803d 0431 1e3d ac1f 343d 6b0d 26bd
000003a0: c6f4 f2bc b047 8a3d f1c2 acba bc70 a53d
000003b0: 2710 313d 5ff4 3cbd dff3 843d 9042 1b3d
000003c0: 1583 143c 0974 aa3c f9b2 c63c 5e85 b5bb
000003d0: 109f 453d 026b 82bc a971 aabd cbc7 9e3a
000003e0: 4c13 153c 79af cabb 6a6e 0fbc 93d4 743c
000003f0: d747 76bd 9f5a 3dbd 6f0b 35bd da50 453b
-0.033376344 0.02824348 0.0041760495 0.07608309 0.029119251 0.08690051 0.07142037 0.03662777
-0.030007422 -0.08477836 0.040239345 0.044235513 -0.013422049 0.077850334 0.051786963 -0.051265083
0.0065598506 0.018082578 -0.045925908 -0.00949635 -0.0046966467 0.052818187 0.085325964 0.028236272
0.067385174 0.06913603 -0.041719418 -0.04902989 0.044599026 -0.035989426 0.039258204 0.04723244
-0.06579711 -0.021994423 -0.063850515 0.044032715 0.027102252 -0.0440617 0.079137675 0.050673563
-0.06536146 -0.018557351 -0.078884654 0.0027867449 -0.02885046 -0.079492226 -0.042472128 -0.013048568
-0.0099774925 0.028073817 -0.009045938 -0.046619453 0.045374956 0.01462859 0.028606482 0.01268101
-0.023980511 -0.03137577 -0.049118105 -0.0149045605 -0.0004994418 -0.00533179 -0.022047197 -0.022165868
-0.09528191 0.035526726 -0.05352643 0.015988497 0.01942647 -0.07136348 -0.06086978 0.0012033834
-0.060543034 -0.050341003 0.0030620035 0.046089154 -0.005760467 0.06005206 -0.04712541 -0.0061749276
0.04708614 0.008532427 0.030905696 0.05916359 -0.0070811263 -0.06733595 -0.066791736 0.013197388
0.03649703 0.040030956 -0.06032431 0.053834707 -0.0545645 0.009256871 -0.05577301 0.0271646
0.058548767 0.024384908 0.057953507 -0.025798362 -0.07556296 -0.0097472025 -0.051936187 -0.069072306
-0.048878808 -0.009281061 0.07217638 -0.01276782 0.07633702 0.05076621 0.0642772 -0.06781334
0.054384224 -0.04769196 -0.008522491 -0.07912778 0.0372046 -0.00016897656 -0.066348016 -0.04758514
-0.02005539 0.040529355 -0.0045960797 -0.060735554 -0.035585493 0.015863394 0.007996888 0.03479487
-0.02792899 -0.008044341 0.022811826 -0.013327991 -0.039215263 -0.015492307 0.0042946395 -0.03731746
-0.025531998 0.08213413 -0.06421996 0.040631365 0.024369916 -0.009134801 0.06753296 -0.0017566556
0.079914965 0.063943066 0.0016122566 0.06918154 -0.06716345 0.0038136803 -0.031957515 0.061116356
-0.009277367 0.029016903 0.004177473 -0.06778694 0.07436556 -0.0372371 -0.049122404 -0.033378974
-0.06218564 0.025801001 0.0039171604 0.016627679 -0.026330803 0.014647507 -0.07889714 -0.04615677
-0.032635204 0.08000181 0.014086881 0.04260125 -0.0005912089 -0.08385462 -0.017836304 0.0115263425
0.045092087 -0.023233848 0.056134637 0.021227825 -0.020980943 0.047734298 0.07093716 0.070262276
0.00787955 0.014888946 -0.05585547 -0.010516494 -0.029846163 0.052344877 -0.0460552 -0.017541317
-0.004091999 -0.025592573 -0.0320786 0.0223086 -0.045426864 -0.05549395 -0.07612178 -0.025638176
0.0021740906 -0.005615017 0.028875424 -0.00576787 0.08229791 0.08138865 0.049357783 -0.05719559
-0.02748647 0.05997015 -0.029811835 0.054014035 -0.043281272 0.08050588 -0.020435024 -0.07245206
-0.034684066 0.06299134 0.07422649 -2.8708642e-05 0.028671226 0.065634646 0.006430952 -0.05544884
0.04003123 0.028470576 0.050566714 -0.018897265 0.06262075 0.038620964 0.043975517 -0.04054014
-0.029657733 0.067519546 -0.0013180656 0.08078143 0.043228295 -0.046131488 0.06491827 0.037905276
0.0090644555 0.020807283 0.024255263 -0.0055395802 0.048247397 -0.015920166 -0.0832246 0.0012113986
0.009098839 -0.0061854688 -0.008754352 0.01494326 -0.060127106 -0.046229 -0.044200357 0.0030108006

fc3.bias f4 [128]
00000000: 101d 8bbb 123d c43c 1929 67ba b234 173d
00000010: c9bb 113c fe33 3c3d 3066 c8bc 5780 53bd
00000020: b978 9a3c 595d 34bd 34ef 6d3d 9e10 0abd
00000030: e199 193d 9d15 483d 1fd4 9dbc 80df 63bb
00000040: e22c 283c ff06 23bd bf90 493c f2f9 c9b9
00000050: 3d68 7e3d 06b6 333d 9b54 9a3b 7fc3 233d
00000060: e929 d5bc b477 59bd 4ae1 043d 6173 153d
00000070: d2b7 a3bb 7b46 10bd 4cbc 313c f86e 2dbc
00000080: 6714 aebc 7be1 463c d417 d9bc 4c6e 433d
00000090: 38d3 f63c b1c1 00bd 8e47 443d 6637 d0bb
000000a0: c21b 3bbd c830 2bbd 5a37 463d e058 0fbd
000000b0: 109c db3b 3a70 7a3d 1c1f 43bd c275 cdbc
000000c0: d94f 0e3d 3543 4e3d b1ff b5bc b492 e6bc
000000d0: 6044 6f3c f217 20bd 444a cb3c fb21 9a3b
000000e0: 82b4 84bd e4eb f23c ea80 b2bc 5823 0b3d
000000f0: b140 cbbb 1ee1 273b 0d05 dbbc 9e67 e9bc
00000100: 4bf2 10bb 314b aebc 3586 263d 2975 273d
00000110: a56f c63b 36a6 d0bb 26c8 0b3b 1d49 4ebd
00000120: 8831 20bb 23ad 643d 0bb5 32bd 38bd c13a
00000130: 206c 1a3d fb09 c13c 50ac c93c 3d65 dcbc
00000140: 7124 f9bb 08a0 403d 9186 14bd 637a 18bd
00000150: 6119 1e3d f5d2 393d 2206 d63c a9b1 303c
00000160: 7d15 2abc 860b 5dbd bf58 563d 981a 9e3b
00000170: a7bf 253d ce9b 703d cad5 d8ba 05a9 10bd
00000180: 9c69 95bc 1e6d dbbc a725 53bd 9d86 913a
00000190: be11 493d bb6c 5a3c 9c12 28bc 584a ab3c
000001a0: 47dc 6bbd 5a81 063d 35f6 f9bc f04a 5abc
000001b0: 2fc4 813d a8c4 efbb 5e1b f6bc a6b7 513b
000001c0: 8a19 cc3b 7977 0f3d f9b5 febc b766 3f3d
000001d0: 4bdb 39bd 3f4b 643d eaac 533d 35a5 123d
000001e0: 9f2c 493d af5b fbbb 1edf 583d 928c b3bc
000001f0: 8c83 0e3c 3b42 953c 6cd7 3b3d 3ac3 acbc
-0.004245408 0.023954902 -0.0008818075 0.03691549 0.008894869 0.04594802 -0.02446279 -0.051636066
0.018856393 -0.044034336 0.05808945 -0.033707254 0.037500266 0.048848737 -0.019266186 -0.0034770668
0.010264607 -0.039801594 0.012302577 -0.0003852393 0.062111128 0.043874763 0.004709793 0.03998136
-0.02602096 -0.053092673 0.032441415 0.036486987 -0.0049962783 -0.035223465 0.010848116 -0.010585539
-0.021249963 0.01213872 -0.02650062 0.04771261 0.030130014 -0.03143472 0.047919802 -0.0063542603
-0.04568077 -0.04179457 0.04839263 -0.034996867 0.0067019537 0.061142184 -0.04763709 -0.025080565
0.034744117 0.050357062 -0.02221665 -0.028146125 0.014603704 -0.039085336 0.024815686 0.004703758
-0.06479742 0.029653497 -0.021789987 0.033969253 -0.00620278 0.0025616358 -0.026735807 -0.028491791
-0.0022117074 -0.021276088 0.040655334 0.040883217 0.0060557895 -0.00636747 0.0021329015 -0.050362695
-0.0024443585 0.05582918 -0.043629687 0.0014781123 0.037700772 0.02356433 0.024618298 -0.026903743
-0.007603221 0.047027618 -0.036261145 -0.037226092 0.038598422 0.0453672 0.026125971 0.010784545
-0.0103811 -0.053966068 0.05233073 0.0048249476 0.040465977 0.058742337 -0.0016543206 -0.03531744
-0.018238835 -0.02678543 -0.05154958 0.001110274 0.049089186 0.013331587 -0.010258343 0.020909473
-0.05758312 0.032838203 -0.030512908 -0.013323531 0.06336247 -0.0073171444 -0.030042347 0.0032000332
0.0062286304 0.035026047 -0.03109263 0.046728816 -0.04537515 0.055735823 0.051678576 0.035802085
0.04911482 -0.0076708416 0.052947156 -0.021917615 0.008698355 0.018220058 0.04585974 -0.021089185

fc4.weight f4 [1, 128]
00000000: 937e 8b3c a2f6 2d39 4a40 593c ff01 fdba
00000010: 0646 b0ba f44f 213c 11eb 2e3c 2b5f 22bc
00000020: 3ea4 ee39 0b7c a73b d421 3f3c d3f7 67bc
00000030: 32b9 80bb f09e d13b 0289 e23a 2dbf 82bb
00000040: f681 febb dce3 ae3a d98d d2bb 8e14 1a3b
00000050: 64c4 203c 47ac 783c 1e0f 653c be1e a4bb
00000060: e49a 40bc 71ee 68bb 2ef8 fe3b 956e 163c
00000070: e98d 5e3c d57f 2d3c 3d93 f4b9 a657 373b
00000080: 6bcb 9ebb fc3f 57ba 63dc 7dbb 7293 d237
00000090: 64e1 0bba ce88 97ba 8600 11bc c464 4dbb
000000a0: c8da 9eba 1281 fdba 657f 10bb 0e4b ecba
000000b0: 3db2 9d3b d949 2b3c 491d f0bb 2644 8ab9
000000c0: 6430 35bb 3457 16bc 83e0 22bc 7198 413b
000000d0: 5cda 333a b2ea 9cbb 3202 3e3c d613 8ebb
000000e0: 56b9 52bb 2a86 773b 08dc e03b 630e 7e3b
000000f0: 4197 2bba 5c1f 6abb 2217 0ebc b864 aebb
00000100: 0943 f3bb 0767 9a3a af42 8dbb 1aac 403c
00000110: 85da 15bb e04e 573b e5bd 463b dda3 30bc
00000120: e05e 803b bdee 073c dc18 713a c33e 793c
00000130: 69e6 f43a c370 28bb c136 b23b 1b53 4abc
00000140: 23e7 203b 4614 73ba af07 063c 628d 2dbb
00000150: 8460 023c 4c44 a03a 25c8 b1bb 57a4 85bb
00000160: 8168 e7b8 1dd8 863c b8f5 0e3a c9ce ef3a
00000170: 803c c83b 5db0 863c 2cf8 26ba 5b94 4d3a
00000180: 8be5 85ba f44e b2bb 331d 63bb fee2 923c
00000190: a59a 1d3b 3cf2 683c 6d11 753c 5df1 a93b
000001a0: 5322 313c 7292 0b3c d639 b5ba 54fb b6bb
000001b0: 909a 1fbc 5d84 e23b 4801 1dbb e778 a4bb
000001c0: 357a 17bc ece0 6039 29d7 0ebb 92b2 33bb
000001d0: c801 8d3c 06bc af3b 1d2c 9c3b 4009 a03b
000001e0: bb91 43bb f903 203b b705 0bba f44e e63a
000001f0: cc5a f7bb aef8 10bb b1c5 82bb 5ae3 9e3c
0.017028129 0.00016590444 0.013259957 -0.0019302963 -0.0013448603 0.0098457225 0.010676161 -0.009910385
0.00045517267 0.0051112226 0.01166578 -0.014158207 -0.003928327 0.0063971207 0.0017283263 -0.003990075
-0.0077669574 0.0013343054 -0.006425601 0.0023510787 0.009812448 0.015177793 0.013980655 -0.0050085476
-0.011755679 -0.0035542513 0.00778105 0.009181638 0.013583639 0.01058956 -0.00046649008 0.0027975827
-0.0048460267 -0.00082111335 -0.0038736097 2.510261e-05 -0.0005336015 -0.0011561157 -0.008850222 -0.0031340579
-0.0012119645 -0.0019340834 -0.002204859 -0.0018027739 0.0048125074 0.010454618 -0.00732771 -0.00026372186
-0.0027647251 -0.009176064 -0.009941223 0.0029540325 0.0006860846 -0.00478872 0.011597203 -0.0043358607
-0.0032153926 0.0037769177 0.0068621673 0.00387659 -0.0006545671 -0.0035724258 -0.0086725075 -0.005322065
-0.0074237627 0.0011779972 -0.004310928 0.011759782 -0.0022865843 0.003285341 0.0030325588 -0.010781256
0.00391756 0.008296666 0.0009197125 0.0152127175 0.001868439 -0.0025701977 0.005438656 -0.012348915
0.002455183 -0.00092727353 0.008180543 -0.0026481976 0.007957581 0.0012227385 -0.0054254704 -0.0040784287
-0.00011034404 0.016460473 0.0005453485 0.001829588 0.006110728 0.016441518 -0.0006369378 0.0007842236
-0.0010215504 -0.005441541 -0.0034654855 0.017930504 0.0024048474 0.014217909 0.014957768 0.0051862434
0.010811406 0.008518802 -0.001382644 -0.00558416 -0.00974144 0.0069127516 -0.0023957063 -0.0050192955
-0.009245445 0.00021446095 -0.0021795726 -0.0027419669 0.017212763 0.0053629903 0.004766001 0.004883915
-0.00298415 0.002441643 -0.0005303281 0.0017571137 -0.0075486656 -0.002212088 -0.003990852 0.019395519
