ContinuousControl/checkpoint_actor_local.pth (torch_old, 40808 bytes, 8 tensors)

fc0_batch.weight f4 [33]
0.5057186 0.7789435 0.100002006 0.14321351 0.31569743 0.6437047 0.5010974 0.90702087
0.46663344 0.6399705 0.35538745 0.4074953 0.019182062 0.17524603 0.3029673 0.52916694
0.70968145 0.8095912 0.16133212 0.29289886 0.6918687 0.9255596 0.4067698 0.8759467
0.42863008 0.5575872 0.962589 0.03616482 0.19590704 0.37341738 0.30510002 0.9320004
0.18175271
00000000: c676 013f d768 473f dacd cc3d 90a6 123e
00000010: 18a3 a13e d5c9 243f eb47 003f 8532 683f
00000020: 94ea ee3e 1bd5 233f 58f5 b53e 39a3 d03e
00000030: b323 9d3c b273 333e 881e 9b3e 7c77 073f
00000040: afad 353f 5e41 4f3f 3f34 253e d7f6 953e
00000050: 4f1e 313f 79f1 6c3f 2244 d03e 0b3e 603f
00000060: 6775 db3e 09be 0e3f 3c6c 763f 9021 143d
00000070: db9b 483e 9030 bf3e 1236 9c3e 9497 6e3f
00000080: 621d 3a3e

fc0_batch.bias f4 [33]
0.009529727 -0.010848721 -0.008061692 0.0064313323 0.0010388506 0.010044307 -0.0037108217 -0.003924748
0.010449328 -0.00062960555 -0.005911751 0.008463243 0.008500732 0.004311337 -0.010940011 -0.0109285535
-0.010930177 -0.010805457 0.010385242 0.0015938331 0.00043489586 0.010280334 -0.0077870977 -0.0073417737
0.010261146 0.008608251 0.010479883 -0.009391658 -0.011066284 -0.008847509 0.009279952 0.009693436
-0.0028936488
00000000: 9222 1c3c d5be 31bc 3015 04bc edbd d23b
00000010: 0b2a 883a e190 243c 4231 73bb 2c9b 80bb
00000020: a933 2b3c 1d0c 25ba 5db7 c1bb 6aa9 0a3c
00000030: a746 0b3c 1e46 8d3b bb3d 33bc ad0d 33bc
00000040: 7c14 33bc 5f09 31bc dd26 2a3c 2ae8 d03a
00000050: bc02 e439 d96e 283c e92a ffbb 4393 f0bb
00000060: 5e1e 283c 9f09 0d3c d1b3 2b3c 78df 19bc
00000070: 5c4f 35bc 24f5 10bc f10a 183c 38d1 1e3c
00000080: 5fa3 3dbb

fc0_batch.running_mean f4 [33]
0.9294666 -0.5858525 -0.63708246 0.04735942 -0.006649379 0.04115837 -0.03140296 1.8075931
-0.2086055 0.47690153 0.019273806 0.1273857 -0.03449046 1.6615864 -0.9820587 -1.4365363
0.0075387815 0.054814838 -0.06092136 0.050482206 2.3068023 -0.032950673 0.9515784 -0.034956034
0.5545504 0.14570366 1.9747562 -0.99995 -3.1227617 0.0 0.99995 0.0
-0.292425
00000000: 86f1 6d3f 6efa 15bf d617 23bf f4fb 413d
00000010: 09e3 d9bb ae95 283d 64a0 00bd 365f e73f
00000020: ae9c 55be 702c f43e 1ae4 9d3c 6671 023e
00000030: de45 0dbd ddae d43f 3368 7bbf 6ce0 b7bf
00000040: e207 f73b 8685 603d ad88 79bd 6ec6 4e3d
00000050: a6a2 1340 49f7 06bd a49a 733f 0f2e 0fbd
00000060: 04f7 0d3f 5733 153e d0c4 fc3f b9fc 7fbf
00000070: 54db 47c0 0000 0000 b9fc 7f3f 0000 0000
00000080: bbb8 95be

fc0_batch.running_var f4 [33]
3.1123922 6.463879 4.9688387 0.35710463 0.19743945 0.21591355 0.22668788 2.2860565
0.34114885 0.5758241 16.446692 39.78975 28.204515 13.963601 33.380466 26.205746
0.1723697 0.35396838 0.31506148 0.15017235 2.965583 1.2265795 1.7704909 104.291626
280.50537 203.38527 21.75246 4.997997e-05 28.166557 4.997997e-05 4.997997e-05 4.997997e-05
0.067807384
00000000: 6f31 4740 19d8 ce40 ba00 9f40 6bd6 b63e
00000010: 912d 4a3e 7118 5d3e de20 683e c04e 1240
00000020: 10ab ae3e 3569 133f d392 8341 b428 1f42
00000030: d9a2 e141 e96a 5f41 9985 0542 5ea5 d141
00000040: af81 303e 583b b53e bd4f a13e c8c6 193e
00000050: 1dcc 3d40 8f00 9d3f 729f e23f 5095 d042
00000060: b040 8c43 a162 4b43 0a05 ae41 96a1 5138
00000070: 1c55 e141 96a1 5138 96a1 5138 96a1 5138
00000080: 99de 8a3d

fc1.weight f4 [256, 33]
-0.002154808 0.031780675 0.035990287 -0.01814842 -0.0061439844 -0.054126024 -0.04317733 -0.021717776
0.043135058 -0.0010839886 0.03141303 -0.05391695 0.013390194 -0.048822526 -0.018025404 0.047841627
-0.0052906484 -0.0536151 -0.060542084 -0.016280165 -0.031466596 -0.059275016 0.033359926 0.0008544253
-0.0068124356 0.05178702 -0.060973022 0.019698948 0.040870503 0.013409667 0.0336648 -0.021892024
-0.055864744 0.06381099 -0.072057605 -0.032804694 0.0642849 -0.02645709 -0.0032347017 -0.042330973
0.0018295568 -0.015118656 0.013922622 0.06065051 -0.046525735 0.041767176 -0.0069690966 -0.07044445
0.018379815 -0.051850043 0.027381293 -0.012989266 -0.028289402 -0.06380933 0.02360866 -0.06662731
0.029894887 0.032928634 -0.04968972 0.04330059 -0.0527021 -0.0028803314 -0.020766389 0.04487803
-0.049200904 -0.014542436 -0.016100325 -0.013729783 0.000684015 -0.03153921 0.0123695275 0.008481307
-0.041193444 0.00719696 0.052352514 0.027620964 0.02456725 -0.022559639 -0.04401055 0.042867415
0.0050238664 -0.0026018643 0.027818883 -0.035471417 -0.062046476 -0.03903433 -0.06799343 0.048154145
0.038240653 -0.032200802 -0.0065980563 -0.00986305 -0.019693961 -0.044719864 0.0125851175 -0.023617925
-0.039045155 0.0136901075 -0.019976335 0.020551274 -0.012086838 0.011727423 0.046682872 -0.051222883
-0.023212021 0.055545334 -0.0066338517 -0.002061568 0.04234645 0.05451131 0.028604714 -0.04795729
0.067908555 -0.06305531 -0.07126121 0.0021719635 -0.024971727 -0.061264403 0.056334693 0.0045302394
-0.024737658 0.016499214 0.043470558 0.0010793814 0.050260976 0.047332916 0.007828126 -0.040902067
-0.050020255 0.0015958886 -0.013703937 -0.050915226 -0.053535353 -0.050328255 -0.0074791145 -0.02013736
-0.048113976 -0.0031494158 -0.036425494 -0.025880218 0.047274303 0.02869525 0.038901247 0.06917467
0.0057610767 -0.026419107 -0.0126672955 -2.771293e-05 -0.030138645 0.04236808 0.030645296 -0.037686303
0.0009940783 0.01528976 0.013564723 -0.04691864 0.06980494 -0.016240986 0.032986045 -0.033823304
0.012490969 -0.023930067 -0.030480586 -0.052821632 0.027269842 0.008794643 0.011748084 -0.040994335
0.017362485 -0.028060481 0.025692256 0.053219724 -0.06362985 0.03356192 -0.050679084 0.012160923
-0.019580744 0.02676816 -0.040580753 0.035987798 0.02522238 -0.054024354 -0.053896926 0.036840726
-0.04131436 0.025862629 -0.03510182 -0.05972016 0.022615356 -0.021408785 -0.041216172 0.028487012
0.027330106 0.044191312 0.059807714 0.023076989 -0.016385574 -0.0068907235 0.050955508 -0.05709825
0.037193898 0.037477214 0.03137224 0.024722146 -0.061042633 0.0148602845 0.0046854303 -0.008045921
-0.027582493 0.048144814 -0.010134021 0.0059403246 -0.05978369 0.0370451 -0.06787901 0.029174503
0.026051024 0.018051423 -0.07050077 -0.021773914 -0.0071186055 -0.04386343 -0.012902845 -0.013331453
-0.008838522 0.04154753 0.048973862 -0.029701091 0.03411588 0.0059576705 0.05040443 -0.048809957
-0.040248785 -0.0197916 0.068458684 0.05667939 -0.009934685 -0.048275407 -0.042222574 0.01721668
0.0044689425 -0.036240153 0.014993993 -0.0053890315 0.05328422 -0.030864187 -0.04544606 0.00011103229
-0.0045583765 0.033393785 0.06933927 -0.033456173 0.067699425 0.02821075 0.049253218 0.02614289
00000000: ae37 0dbb 742c 023d 8d6a 133d ffab 94bc
00000010: 7a53 c9bb 40b3 5dbd b6da 30bd 7ae9 b1bc
00000020: 63ae 303d 9f14 8eba f3aa 003d 05d8 5cbd
00000030: 8b62 5b3c 21fa 47bd 03aa 93bc 95f5 433d
00000040: 2d5d adbb 829b 5bbd fafa 77bd fb5d 85bc
00000050: 1ee3 00bd 5cca 72bd 6ba4 083d 83fb 5f3a
00000060: da3a dfbb a01e 543d d9be 79bd b05f a13c
00000070: d467 273d 38b4 5b3c 1ae4 093d e756 b3bc
00000080: 6ed2 64bd 56af 823d f092 93bd 375e 06bd
00000090: cda7 833d 8abc d8bc 4afd 53bb 3e63 2dbd
000000a0: bdcd ef3a 3db4 77bc b61b 643c ab6c 783d
000000b0: c591 3ebd 0f14 2b3d 055d e4bb 2e45 90bd
000000c0: 4491 963c b660 54bd bc4e e03c eed0 54bc
000000d0: 2dbf e7bc 77ae 82bd f366 c13c e673 88bd
000000e0: 1fe6 f43c 2de0 063d 7387 4bbd f65b 313d
000000f0: 28de 57bd f1c3 3cbb 461e aabc 06d2 373d
00000100: e386 49bd 6643 6ebc d4e4 83bc e2f2 60bc
00000110: 784f 333a 422f 01bd 8fa9 4a3c 2ef5 0a3c
00000120: 75ba 28bd 7ad4 eb3b 976f 563d 5c45 e23c
00000130: 4241 c93c fece b8bc 6844 34bd be95 2f3d
00000140: 3f9f a43b 0a84 2abb 6de4 e33c 7a4a 11bd
00000150: 7224 7ebd 76e2 1fbd 2440 8bbd 483d 453d
00000160: 3ba2 1c3d fde4 03bd 8234 d8bb a198 21bc
00000170: 3b55 a1bc 2d2c 37bd cf31 4e3c 617a c1bc
00000180: d0ed 1fbd 794c 603c 69a5 a3bc 255b a83c
00000190: df07 46bc 6124 403c 8a36 3f3d 16cf 51bd
000001a0: 2327 bebc 8183 633d c860 d9bb 5f1b 07bb
000001b0: 7973 2d3d 4047 5f3d 6f54 ea3c dd6e 44bd
000001c0: a413 8b3d 2423 81bd 66f1 91bd 8057 0e3b
000001d0: 8291 ccbc 62f0 7abd 35bf 663d 6772 943b
000001e0: a1a6 cabc 5c29 873c 2f0e 323d 087a 8d3a
000001f0: 74de 4d3d 29e0 413d 8a41 003c ed88 27bd
00000200: 0ae2 4cbd 232d d13a 7a86 60bc 7c8c 50bd
00000210: e347 5bbd 0025 4ebd 5c13 f5bb 1bf7 a4bc
00000220: 2913 45bd 6e66 4ebb e632 15bd c002 d4bc
00000230: b3a2 413d 4d12 eb3c ea56 1f3d 73ab 8d3d
00000240: 6ac7 bc3b e26c d8bc 7d8a 4fbc 1079 e8b7
00000250: 52e5 f6bc 278a 2d3d d80b fb3c f45c 1abd
00000260: bc4b 823a e781 7a3c 923e 5e3c c32d 40bd
00000270: e4f5 8e3d d10b 85bc 601c 073d 4e8a 0abd
00000280: eca6 4c3c fd08 c4bc 6cb2 f9bc 7f5b 58bd
00000290: 0165 df3c 6817 103c 097b 403c ade9 27bd
000002a0: c53b 8e3c 18df e5bc 9178 d23c edfc 593d
000002b0: 5e50 82bd 3978 093d df94 4fbd 9c3e 473c
000002c0: cc67 a0bc e648 db3c 0138 26bd f167 133d
000002d0: 2a9f ce3c a448 5dbd 06c3 5cbd 4de6 163d
000002e0: 3f39 29bd dddd d33c edc6 0fbd 209d 74bd
000002f0: d743 b93c 7a61 afbc 4ad2 28bd 985d e93c
00000300: 63e3 df3c f301 353d eff8 743d f40b bd3c
00000310: 0a3b 86bc 94cb e1bb b9b6 503d dbdf 69bd
00000320: a158 183d b581 193d 2e80 003d 1986 ca3c
00000330: d707 7abd 8d78 733c 3d88 993b 0ad3 03bc
00000340: aef4 e1bc 7f33 453d 2a09 26bc 0ea7 c23b
00000350: bedf 74bd 9abc 173d 2704 8bbd 5eff ee3c
00000360: f568 d53c 94e0 933c b562 90bd 355f b2bc
00000370: 3143 e9bb 24aa 33bd 7466 53bc 2b6c 5abc
00000380: 73cf 10bc be2d 2a3d d198 483d b44f f3bc
00000390: 18bd 0b3d 9038 c33b e074 4e3d f3ec 47bd
000003a0: e9db 24bd fe21 a2bc 1134 8c3d a628 683d
000003b0: 17c5 22bc 6fbc 45bd 94f1 2cbd ff09 8d3c
000003c0: 3570 923b 8e70 14bd 5da9 753c 7996 b0bb
000003d0: 8e40 5a3d e4d6 fcbc a625 3abd 02da e838
000003e0: 6f5e 95bb ecc7 083d bf01 8e3d 5709 09bd
000003f0: ffa5 8a3d 3b1a e73c bebd 493d 9d29 d63c

fc1.bias f4 [256]
-0.04296562 0.06491424 0.02667016 0.17906241 0.12668447 -0.07060465 0.13057002 -0.08837783
-0.053948134 0.13692659 -0.11827187 -0.040121395 -0.13545597 0.08456168 0.13449521 0.15804316
-0.050975602 -0.12778483 0.100782916 -0.108285606 -0.049514346 -0.13558485 0.143999 -0.011871955
0.024598086 0.020669356 0.027934175 -0.07094436 0.17881979 -0.16010644 -0.013602178 -0.09201146
-0.10864604 0.10416055 0.13739052 0.085529976 0.056147736 0.12551256 0.10004899 -0.04497529
-0.06943804 0.057569668 0.11906173 0.12455543 0.01034758 0.18201739 -0.11435153 0.073234975
0.15652795 0.014509813 0.1139642 0.16054644 -0.12475551 0.122236975 0.09122295 0.10012214
0.09733169 0.1073812 0.065021254 0.10676816 -0.1530087 -0.17528428 0.10181705 0.18320392
-0.041956652 0.1427116 -0.013674848 0.09453003 -0.00580347 0.09359441 -0.07195645 -0.13800874
0.09632309 -0.06549939 0.13907133 0.033005316 -0.06813594 0.174715 0.17399217 -0.07941191
0.08519568 0.059757117 -0.095971875 0.03179182 -0.14785215 0.020782406 -0.14456041 0.15397641
0.09408954 0.14792424 0.04209189 -0.06352506 0.097691834 0.08667901 0.105190136 -0.01637462
0.17736122 -0.1099645 -0.1537608 0.05409966 0.16314687 0.037845593 -0.04052321 -0.14899784
0.12034576 -0.16486259 -0.06892801 0.10390436 -0.09461054 -0.10464907 -0.086406864 0.09055978
-0.0673093 -0.0360811 -0.03504371 0.10306021 0.16185597 0.019850371 0.009062164 -0.011927522
0.09315183 0.13014229 0.050511796 0.11765635 -0.04363534 0.0019224162 -0.13464706 0.081568345
-0.07808944 -0.017454125 -0.16601372 0.021687556 0.06081066 0.1147837 -0.026869481 0.016256701
0.17311178 0.0099311285 0.13306169 0.18018328 0.1575133 0.08930156 0.12034793 0.16856973
-0.00939159 0.14889266 -0.06733997 -0.044161078 0.08661935 -0.10269462 -0.06204945 0.017279893
0.02116702 0.013201273 -0.013959202 0.063668214 0.17519327 -0.049733106 0.10434446 0.05128581
0.11843651 0.15115857 -0.009722626 -0.036519155 -0.060142048 -0.03793385 -0.06401926 -0.034811538
0.10911855 0.06130547 -0.07240152 0.105636805 0.022390302 0.017096395 0.065632805 -0.0919623
-0.013504934 0.14077413 0.12274267 0.10729099 -0.016426904 0.022735005 0.12228754 0.03903458
0.104859285 0.088441275 0.08617123 0.08574559 -0.1078773 -0.1526846 -0.16750544 0.14144064
-0.09592582 -0.12947066 0.031813655 -0.023017151 0.06214655 -0.040131163 0.14426151 -0.16008684
-0.16982114 0.15942004 -0.065425485 0.04337833 0.07402302 0.03132057 -0.10191732 0.028341768
-0.105646975 0.1499176 0.030487793 0.13217236 0.12785262 0.08142463 0.07056346 0.09881218
-0.10780169 0.13855578 -0.028804166 0.13985203 -0.004783344 0.08528979 0.13670874 0.039008133
-0.02384229 0.078640506 -0.174772 -0.008455001 -0.027863525 -0.12515631 0.0003471155 0.050151523
-0.16614193 0.14834255 0.103049174 0.17964998 -0.06905332 -0.11520955 0.114959255 0.17360409
-0.09942605 -0.0975302 -0.007220362 0.15521762 -0.019717319 -0.16344722 -0.06474844 -0.10003195
0.13972703 -0.12538534 0.13814414 0.07403311 -0.00708905 -0.03287196 0.10520796 -0.089133866
00000000: b8fc 2fbd c2f1 843d 617b da3c 235c 373e
00000010: 93b9 013e 2c99 90bd 26b4 053e 70ff b4bd
00000020: b8f8 5cbd 7c36 0c3e 8638 f2bd 5556 24bd
00000030: f8b4 0abe ad2e ad3d 1db9 093e 11d6 213e
00000040: cbcb 50bd 07da 02be 4667 ce3d d8c4 ddbd
00000050: 8ecf 4abd c1d6 0abe 7974 133e 9782 42bc
00000060: ed81 c93c c852 a93c 36d6 e43c 474b 91bd
00000070: 891c 373e f1f2 23be abdb 5ebc 8170 bcbd
00000080: d181 debd 2052 d53d 1ab0 0c3e 572a af3d
00000090: 2bfb 653d 5d86 003e 7ce6 cc3d 0238 38bd
000000a0: 8835 8ebd 2cce 6b3d a3d6 f33d eb16 ff3d
000000b0: e588 293c c462 3a3e 2331 eabd 38fc 953d
000000c0: dd48 203e 91ba 6d3c 1066 e93d 4966 243e
000000d0: d17f ffbd 6157 fa3d 19d3 ba3d d60c cd3d
000000e0: d655 c73d adea db3d dd29 853d 44a9 da3d
000000f0: 50ae 1cbe b97d 33be 7585 d03d cf99 3b3e
00000100: bdda 2bbd fd22 123e 780c 60bc f698 c13d
00000110: 092b bebb 6dae bf3d e75d 93bd 2a52 0dbe
00000120: 0a45 c53d 8b24 86bd b768 0e3e 9530 073d
00000130: db8a 8bbd 7de8 323e 012b 323e b6a2 a2bd
00000140: 137b ae3d e1c3 743d e78c c4bd 2438 023d
00000150: 8e66 17be dd3f aa3c a507 14be feab 1d3e
00000160: 04b2 c03d 7479 173e 8c68 2c3d 6d19 82bd
00000170: a812 c83d c484 b13d ed6d d73d 1124 86bc
00000180: 2e9e 353e 1135 e1bd 7973 1dbe 9b97 5d3d
00000190: f90f 273e fb03 1b3d aafb 25bd e492 18be
000001a0: d677 f63d bdd1 28be 212a 8dbd cfcb d43d
000001b0: 2cc3 c1bd 4052 d6bd 15f6 b0bd 6877 b93d
000001c0: 75d9 89bd c7c9 13bd fe89 0fbd 3b11 d33d
000001d0: 92bd 253e 3f9d a23c 7979 143c a76b 43bc
000001e0: 63c6 be3d 0544 053e 75e5 4e3d d0f5 f03d
000001f0: f8ba 32bd 95f9 fb3a ebe0 09be 4e0d a73d
00000200: 5bed 9fbd f4fb 8ebc 80ff 29be 1aaa b13c
00000210: 9914 793d b713 eb3d 631d dcbc c62c 853c
00000220: 3744 313e 2cb6 223c 5341 083e f781 383e
00000230: 2b4b 213e bce3 b63d fa78 f63d 8b9d 2c3e
00000240: 2fdf 19bc 5177 183e 8ae9 89bd 3fe2 34bd
00000250: 7c65 b13d 8f51 d2bd 9027 7ebd 908e 8d3c
00000260: 7566 ad3c 274a 583c 23b5 64bc 7b64 823d
00000270: dd65 333e f1b4 4bbd 8cb2 d53d 1211 523d
00000280: d78e f23d 50c9 1a3e a64b 1fbc 1c95 15bd
00000290: 8257 76bd 8660 1bbd 881c 83bd 8b96 0ebd
000002a0: 8c79 df3d 721b 7b3d 4047 94bd 1c58 d83d
000002b0: de6b b73c bd0d 8c3c 7e6a 863d bb56 bcbd
000002c0: cc43 5dbc 1827 103e 8260 fb3d 61bb db3d
000002d0: b791 86bc c33e ba3c e471 fa3d b9e2 1f3d
000002e0: 77c0 d63d b320 b53d 8b7a b03d 629b af3d
000002f0: c6ee dcbd 5a59 1cbe 8c86 2bbe d1d5 103e
00000300: c274 c4bd f593 04be 094f 023d 778e bcbc
00000310: 618d 7e3d 9360 24bd 4ab9 133e ceed 23be
00000320: 98e5 2dbe 023f 233e ccfd 85bd 7aad 313d
00000330: 6299 973d ff49 003d 07ba d0bd ff2c e83c
00000340: 715d d8bd 0084 193e 89c1 f93c 3158 073e
00000350: cceb 023e f5c1 a63d 9383 903d 0a5e ca3d
00000360: 22c7 dcbd 91e1 0d3e b7f6 ebbc 5f35 0f3e
00000370: 99bd 9cbb 6aac ae3d 60fd 0b3e fec6 1f3d
00000380: e850 c3bc 460e a13d 6ef7 32be d886 0abc
00000390: 0c42 e4bc fa28 00be 0efd b539 af6b 4d3d
000003a0: 1c21 2abe 1ce7 173e 720b d33d 2af6 373e
000003b0: d46b 8dbd fcf2 ebbd c26f eb3d 45c5 313e
000003c0: e39f cbbd eabd c7bd c998 ecbb 5ef1 1e3e
000003d0: 3786 a1bc b55e 27be d59a 84bd 8ddd ccbd
000003e0: 9a14 0f3e 0465 00be a875 0d3e ac9e 973d
000003f0: 434b e8bb c0a4 06bd 4577 d73d d18b b6bd

fc2.weight f4 [4, 256]
0.0052323416 0.007965611 0.0047659534 0.0059604314 0.0081199175 0.010127045 0.00497817 0.010631204
0.0060377326 0.0062765214 0.007595845 0.007026523 0.0054596853 0.008491666 0.008546816 0.0078013134
0.008023194 0.001918236 0.008331504 0.005627301 0.0062537314 0.006934001 0.006918232 0.005303501
0.0031640409 0.008880897 0.004666763 0.0056324457 0.006577923 0.0010260534 0.006945073 0.011343019
0.0064912755 0.011208627 0.008340366 0.0053787916 0.0070037856 0.008422207 0.004362966 0.0052637225
0.005075307 0.00440407 0.007406694 0.006304796 0.008299419 0.00504025 0.010818338 0.004264216
0.0057339706 0.0028487267 0.009272327 0.005243744 0.012499267 0.009347524 0.010763423 0.00668295
0.008540091 0.004893267 0.0075587807 0.010573127 0.00586277 0.0019492871 0.0063010454 0.0074603464
0.008478651 0.011102103 0.0018535325 0.0048622703 0.010018151 0.007348207 0.0020718882 0.0007150408
0.0013642862 0.008067879 0.009942131 0.008564045 0.006349846 0.0041839937 0.0063354596 0.008329751
0.00863368 0.00987757 0.010689826 0.0071752146 0.0016437281 0.00637402 0.005485988 0.0062175044
0.003413099 0.009188762 0.005516323 0.011265102 0.006992497 0.011255569 0.010276276 0.007806441
0.0050276807 -0.00030505034 0.0008117918 0.008563579 0.0062968708 0.010480071 0.006165612 0.0032876844
0.0056330846 0.0053228103 0.005257188 0.0034892752 0.0007270756 0.007784226 0.0018409912 0.005302113
0.005172485 0.0072187036 0.0072211297 0.0069902497 0.00956606 0.009365421 0.0069731656 0.0051193065
0.008904836 0.0034772647 0.00970991 0.008837224 0.008424925 0.008592232 0.011235544 0.0030095535
0.01144572 0.0076150647 1.5932972e-05 0.007554861 0.0052830135 0.009848091 0.012462452 0.0042731334
0.010569709 0.0054748016 0.0047493274 0.011010865 0.008251585 0.008950788 0.0069774534 0.0076610004
0.007915921 0.006943704 0.0062576463 0.011232129 0.005919967 0.0044244146 0.0024656756 0.003049777
0.004865108 0.005487365 0.0077605434 0.0059741763 0.0055722203 0.006872256 0.005355943 0.0070813713
0.0048640585 0.009027372 0.0068204547 -0.0005624033 0.005292732 0.009723924 0.010850318 0.0059552556
0.00528549 0.0075740684 0.004313152 0.0057370556 0.00828191 0.009886889 0.0012698645 0.0063397465
0.004658819 0.00556892 0.009873954 0.0076808687 0.008495111 0.0056712376 0.008604774 0.005740967
0.0075248606 0.0029836034 0.007259082 0.0045761713 0.011986028 0.0020025785 0.0043848883 0.0048631276
0.0016271503 0.0068655447 0.0077196397 0.012598719 0.003593245 0.0044509023 0.009220375 0.0074658473
0.0013350913 0.008984388 0.008967209 0.0034815518 0.008089477 0.0054992605 0.0064111147 0.009965628
0.0061975527 0.0052297227 0.0044800225 0.0062894938 0.0073974472 0.0051031774 0.010020085 0.005442777
-4.209605e-05 0.0054540066 0.0067967945 0.007564366 0.0056172586 0.004459155 0.006205711 0.004459867
0.009311348 0.008523363 0.0028197349 0.0063077337 0.0048111225 0.005695358 0.0055761053 0.009127551
0.0016778221 0.004655324 0.0042816857 0.0062172855 0.0067986622 0.0035279314 0.0063769235 0.008024936
0.00574668 0.0026679267 0.004988136 0.0056559136 0.0039759553 0.0045148167 0.007926553 0.002212871
0.007850221 0.001721489 0.0071715717 0.008664858 0.00866168 0.012992628 0.008438456 0.008502341
00000000: 1074 ab3b 3282 023c b72b 9c3b b94f c33b
00000010: 6709 053c e8eb 253c eb1f a33b 802e 2e3c
00000020: 2cd8 c53b 47ab cd3b 91e6 f83b bf3e e63b
00000030: 29e7 b23b a120 0b3c f207 0c3c 29a2 ff3b
00000040: b773 033c 526d fb3a dc80 083c 3965 b83b
00000050: 1aec cc3b 9e36 e33b 56b2 e23b fec8 ad3b
00000060: cc5b 4f3b 2f81 113c a5eb 983b 6190 b83b
00000070: 9e8b d73b a47c 863a 7f93 e33b 12d8 393c
00000080: c4b4 d43b 64a4 373c 08a6 083c 9340 b03b
00000090: 0380 e53b 4cfd 093c 36f7 8e3b 4e7b ac3b
000000a0: c34e a63b 0450 903b dab3 f23b 7698 ce3b
000000b0: 49fa 073c ae28 a53b 663f 313c d6ba 8b3b
000000c0: 08e4 bb3b b4b1 3a3b f5ea 173c b6d3 ab3b
000000d0: bac9 4c3c 5b26 193c 1159 303c a6fc da3b
000000e0: bdeb 0b3c b357 a03b a6af f73b e93a 2d3c
000000f0: 7b1c c03b 397f ff3a 0079 ce3b ec75 f43b
00000100: 0aea 0a3c 98e5 353c 3bf2 f23a ae53 9f3b
00000110: 2c23 243c 3ac9 f03b 84c8 073b 9371 3b3a
00000120: d9d1 b23a 232f 043c 52e4 223c 3550 0c3c
00000130: 5e12 d03b e219 893b b099 cf3b 8279 083c
00000140: 4774 0d3c 88d5 213c 6124 2f3c 101e eb3b
00000150: 5d72 d73a 28dd d03b cec3 b33b 35bc cb3b
00000160: 4dae 5f3b 768c 163c 45c2 b43b 4391 383c
00000170: 5121 e53b 4769 383c d35d 283c 2ccd ff3b
00000180: 3ebf a43b 2aef 9fb9 6dce 543a 414e 0c3c
00000190: fb55 ce3b 9bb4 2b3c e708 ca3b 3176 573b
000001a0: bd95 b83b f86a ae3b 7d44 ac3b 53ac 643b
000001b0: 3899 3e3a d212 ff3b 6a4d f13a 59bd ad3b
000001c0: f37d a93b e08a ec3b 3a9f ec3b 770e e53b
000001d0: f7ba 1c3c 6c71 193c 277f e43b dbbf a73b
000001e0: 97e5 113c d2e2 633b 5016 1f3c 01ca 103c
000001f0: b208 0a3c 6fc6 0c3c 4a15 383c ee3b 453b
00000200: d486 3b3c cb87 f93b cca7 8537 c48e f73b
00000210: 211d ad3b e359 213c 502f 4c3c a405 8c3b
00000220: 932c 2d3c f765 b33b 3fa0 9b3b ea66 343c
00000230: a831 073c 53a6 123c 1fa3 e43b 2109 fb3b
00000240: c7b1 013c 0388 e33b f10c cd3b f706 383c
00000250: 48fc c13b aefa 903b 2c97 213b c4de 473b
00000260: 7c6b 9f3b 5bcf b33b 284c fe3b 06c3 c33b
00000270: 2c97 b63b a930 e13b e880 af3b d90a e83b
00000280: ae62 9f3b 8be7 133c 1f7e df3b 3f6e 13ba
00000290: a76e ad3b 1851 1f3c 88c5 313c 4e24 c33b
000002a0: e731 ad3b e42f f83b 5755 8d3b e9fd bb3b
000002b0: d9b0 073c 9efc 213c 9571 a63a a6bd cf3b
000002c0: 02a9 983b 7d7b b63b 5dc6 213c ccaf fb3b
000002d0: 142f 0b3c cad5 b93b 0afb 0c3c b91e bc3b
000002e0: 1b93 f63b 8f88 433b 98dd ed3b b5f3 953b
000002f0: 0c61 443c b13d 033b 1caf 8f3b df5a 9f3b
00000300: 1b46 d53a 5df8 e03b 08f5 fc3b dc6a 4e3c
00000310: a67c 6b3b e0d8 913b 0e11 173c 11a4 f43b
00000320: 3bfe ae3a 4133 133c 33eb 123c bf2a 643b
00000330: ba89 043c 2433 b43b 5414 d23b e046 233c
00000340: d714 cb3b 185e ab3b 27cd 923b 1918 ce3b
00000350: 4966 f23b 8e38 a73b 482b 243c 5359 b23b
00000360: 4a90 30b8 86b7 b23b a5b7 de3b 80de f73b
00000370: fb10 b83b 1a1e 923b 4759 cb3b 1324 923b
00000380: a08e 183c 93a5 0b3c 4dcb 383b 1bb1 ce3b
00000390: 9fa6 9d3b 20a0 ba3b c3b7 b63b b98b 153c
000003a0: 5eea db3a b08b 983b 624d 8c3b 5fba cb3b
000003b0: 50c7 de3b de34 673b 83f5 d03b 057b 033c
000003c0: a54e bc3b 62d8 2e3b 8473 a33b 3e55 b93b
000003d0: bb48 823b 07f1 933b 5fde 013c d105 113b
000003e0: 379e 003c 96a3 e13a 81ff ea3b 0cf7 0d3c
000003f0: b8e9 0d3c 08df 543c 7341 0a3c 674d 0b3c

fc2.bias f4 [4]
0.00038106725 0.048267398 0.011299221 -0.038662795
00000000: fbc9 c739 09b4 453d 5e20 393c e15c 1ebd
