ContinuousControl/critic.pth (torch_old, 556095 bytes, 17 tensors)

fcs0_batch.weight f4 [33]
0	0x3e8d54dc	0.27603805
1	0x3e9c9745	0.3058416
2	0x3a1e29e1	0.0006033462
3	0x3d912652	0.07087387
4	0x3e5c832e	0.21534416
5	0x3ee6a0ef	0.45044658
6	0x3e675f53	0.22594957
7	0x3e78b3e6	0.24287376
8	0x3e14d2d0	0.14533544
9	0x3e63a008	0.22229016
10	0x3e455c39	0.19273461
11	0x3e7706de	0.24123713
12	0x3d9a3a0d	0.075306036
13	0x3e3cb8a8	0.18429816
14	0x3e896ff2	0.2684322
15	0x3ec39fea	0.38207942
16	0x3e8a4185	0.27003112
17	0x3e9c7778	0.30559897
18	0x3d9dbf86	0.07702546
19	0x3de2bbae	0.11070953
20	0x3ddc4100	0.10754585
21	0x3dda898e	0.10670768
22	0x3e004531	0.12526394
23	0x3ebb24c5	0.3655149
24	0x3eafa9c7	0.34309217
25	0x3e91a006	0.284424
26	0x3f0412c2	0.5159112
27	0x009b66b4	1.4271345e-38
28	0x3e8ef6aa	0.27922565
29	0x002e57d9	4.255947e-39
30	0x800b933c	-1.063008e-39
31	0x00519fc4	7.495988e-39
32	0x3d6c94d8	0.057759136

fcs0_batch.bias f4 [33]
0	0xbb7e01b1	-0.0038758332
1	0x3c251df9	0.010077947
2	0xba8aef52	-0.0010599887
3	0x3a93da9e	0.0011280363
4	0xbbdfae7c	-0.00682622
5	0xbc770f1c	-0.015079286
6	0x3ba9241e	0.005161776
7	0xbc0514cd	-0.008122635
8	0x3b96d4dd	0.004603012
9	0xbab862d0	-0.0014067534
10	0xbba92638	-0.0051620267
11	0xba7958e9	-0.0009511845
12	0xbcb09576	-0.021555644
13	0x3a93bec4	0.0011272063
14	0xbc0b3eab	-0.008498828
15	0x3b75cda4	0.0037506605
16	0x3c9b3ee2	0.018950883
17	0xbbfc1115	-0.007692466
18	0xbc9d867b	-0.019229164
19	0x3c293c80	0.010329366
20	0xbc57eb7a	-0.013178701
21	0x3a950b49	0.0011371161
22	0x3bb73471	0.0055909683
23	0x3cb3be99	0.02194147
24	0x3b847b64	0.0040430296
25	0xbc79ce9d	-0.015247014
26	0xbd104a22	-0.03522695
27	0xbb717ac0	-0.0036846846
28	0x3d0024af	0.031284984
29	0xbb7af436	-0.0038292534
30	0xbaffa101	-0.0019502939
31	0xbb429e11	-0.0029696266
32	0x3bb1a34e	0.0054210788

fcs0_batch.running_mean f4 [33]
0	0x3fe213b4	1.7662263
1	0xbf375421	-0.71612746
2	0xbf9c7276	-1.2222431
3	0x3cd4ba87	0.02596785
4	0x3c8e0727	0.017337395
5	0xbeade4bf	-0.33963582
6	0x3dfd91c9	0.12381322
7	0x3ee7d6f9	0.452812
8	0xbdc1efe2	-0.09469582
9	0x3d438803	0.047737133
10	0x3d21d435	0.039509017
11	0x3d876c5a	0.06612463
12	0xbe1dfb82	-0.15427974
13	0x40545205	3.317506
14	0xbfaacf2b	-1.3344473
15	0xc04f814c	-3.2422667
16	0x3dad9349	0.08475358
17	0xbdb96c63	-0.09053876
18	0x3ca6be9e	0.020354565
19	0xbce1e800	-0.027576447
20	0x3f434069	0.7627016
21	0x3e056d48	0.13029969
22	0x3fc9a293	1.5752739
23	0x3eac01a0	0.3359499
24	0x3f2e0c67	0.67987674
25	0xbdbc8cf4	-0.09206572
26	0x3f5fb11b	0.87379616
27	0xbf7ffffc	-0.99999976
28	0x3e3af1de	0.18256328
29	0x00000000	0.0
30	0x3f7ffffc	0.99999976
31	0x00000000	0.0
32	0xbf18048c	-0.5938194

fcs0_batch.running_var f4 [33]
0	0x409e7d94	4.9528294
1	0x4049aae3	3.151055
2	0x4039d04d	2.9033387
3	0x3e01fa12	0.1269305
4	0x3e8f31fc	0.27967823
5	0x3eb03638	0.34416366
6	0x3de745e0	0.112926245
7	0x408849da	4.259015
8	0x3eb9b4dc	0.36270797
9	0x3ee9a8d0	0.45636606
10	0x40f60570	7.6881638
11	0x412321b9	10.195733
12	0x41173e57	9.45272
13	0x418c7680	17.557861
14	0x414055dc	12.020962
15	0x41241de6	10.257299
16	0x3e8454e4	0.25846016
17	0x3e837d6b	0.25681624
18	0x3e79d7d8	0.24398744
19	0x3e65a807	0.22427379
20	0x40d2ac30	6.583519
21	0x40433d49	3.0506155
22	0x40859742	4.174714
23	0x421a9c4a	38.652626
24	0x42084157	34.06381
25	0x42127830	36.61737
26	0x42076caf	33.856136
27	0x00000004	6e-45
28	0x41f0c423	30.09577
29	0x00000004	6e-45
30	0x00000004	6e-45
31	0x00000004	6e-45
32	0x396c73f8	0.00022549916

fcs1.weight f4 [400, 33]
0	0x30522a8a	7.6458007e-10
1	0x300cdb5c	5.124343e-10
2	0x8c66c3da	-1.7777492e-31
3	0x108cbc12	5.551003e-29
4	0xadbaf86d	-2.1256075e-11
5	0xb3a270d5	-7.564237e-08
6	0xaf324284	-1.6212637e-10
7	0x31336542	2.6105487e-09
8	0xac70435b	-3.4143441e-12
9	0x30c04a08	1.399088e-09
10	0x2b21ead8	5.75246e-13
11	0xb2068f90	-7.832469e-09
12	0x0f659952	1.13201e-29
13	0x2bea6a08	1.665613e-12
14	0x2bbad38c	1.3274811e-12
15	0xb0f6b345	-1.7949807e-09
16	0xb12e06ee	-2.5324272e-09
17	0xb5099441	-5.1252215e-07
18	0xa045df44	-1.6760421e-19
19	0x28349a4c	1.0025465e-14
20	0xab2a98c0	-6.0608116e-13
21	0x2b91289d	1.0314142e-12
22	0xaa311129	-1.5726712e-13
23	0x319acfaa	4.5055986e-09
24	0xb192b6f9	-4.269961e-09
25	0x302d4004	6.3028005e-10
26	0x3355be27	4.976587e-08
27	0x0c518b20	1.6142641e-31
28	0xae5f08e6	-5.0712233e-11
29	0x0a7dee88	1.222637e-32
30	0x0cea7d34	3.6128762e-31
31	0x8c8600e6	-2.064651e-31
32	0x8dcaadd4	-1.2491059e-30
33	0x38719f7a	5.76074e-05
34	0x37ca79f7	2.413707e-05
35	0x0d0c30bb	4.319949e-31
36	0xaa183c02	-1.3521131e-13
37	0x37b02670	2.0998734e-05
38	0xb8e5b78a	-0.00010953758
39	0x36004747	1.9114975e-06
40	0xb3269229	-3.878282e-08
41	0xb0f188e4	-1.7573965e-09
42	0x3840dd5a	4.5982517e-05
43	0x33af2d74	8.1573404e-08
44	0xb74b5df9	-1.2121623e-05
45	0xaa8cc96e	-2.5008766e-13
46	0x35b86478	1.3738309e-06
47	0x37640dd5	1.35930795e-05
48	0xb7e87dd8	-2.7715156e-05
49	0xb744042a	-1.168348e-05
50	0x386fc83e	5.716853e-05
51	0xa8845360	-1.4691102e-14
52	0x31bf60cc	5.569836e-09
53	0xafe4b67e	-4.1602627e-10
54	0x2e19c5b9	3.4963785e-11
55	0xb2c1f079	-2.2577511e-08
56	0xb8e8579d	-0.00011078941
57	0x393021ad	0.00016797213
58	0xb7c4abd2	-2.344503e-05
59	0xba14d260	-0.00056771
60	0x8c99bf0c	-2.3688365e-31
61	0x36c96735	6.0022817e-06
62	0x0c66d020	1.7781186e-31
63	0x8b9e7086	-6.102869e-32
64	0x8b888cdf	-5.2597254e-32
65	0x14a95206	1.7096992e-26
66	0xbc1be7b0	-0.009515688
67	0xbc2654d4	-0.010152061
68	0xb639b21f	-2.7670828e-06
69	0x3783ebd9	1.5726242e-05
70	0x3af00d15	0.0018314446
71	0x3cbd43c3	0.0231036
72	0x3ae662cc	0.0017577051
73	0x3b48b9d4	0.003062834
74	0x3a9174ed	0.0011097469
75	0x3b2d759e	0.002646781
76	0x3b8c13b9	0.004274812
77	0xbb5fcf18	-0.0034150537
78	0xb9792ce1	-0.00023763209
79	0xbc557074	-0.013027299
80	0xbb9a790c	-0.004714137
81	0xbc28ea28	-0.010309733
82	0x3bd88aff	0.0066083665
83	0x3c2f82cd	0.010712338
84	0xba4a5bdc	-0.00077193766
85	0xbb9795dd	-0.0046260194
86	0x3a5a1cef	0.00083203515
87	0x3abc431d	0.0014363263
88	0xbbde1cac	-0.0067783203
89	0x3ca037ee	0.01955792
90	0xbaeccfe9	-0.0018067333
91	0xbb9ae066	-0.0047264574
92	0xbbaa9a22	-0.0052063623
93	0x35cd25e3	1.5284717e-06
94	0x3b78101d	0.00378514
95	0x36035a02	1.9572913e-06
96	0x36d6a6f8	6.3971347e-06
97	0x369e258b	4.7131375e-06
98	0xba1f5119	-0.0006077453
99	0xba9184f8	-0.001110225
100	0xbb982c89	-0.004643981
101	0xb80f5ff2	-3.4183213e-05
102	0x3aa278cc	0.0012395619
103	0x3bc049f6	0.005868192
104	0xbb81f723	-0.0039662286
105	0xbb40112a	-0.0029307106
106	0x3b196e4f	0.0023411696
107	0x3b02d2d9	0.00199621
108	0xbb92cb83	-0.004479827
109	0xbb8af8f8	-0.004241105
110	0x3bc97c4f	0.006148852
111	0xbaf21852	-0.0018470383
112	0xba12f8ea	-0.0005606549
113	0xbb9bd197	-0.0047552097
114	0xbc18680a	-0.009302149
115	0x3ba1489d	0.0049219863
116	0x3735c74c	1.0834843e-05
117	0xbb0f2c58	-0.00218465
118	0x3ac08f10	0.0014691073
119	0x3a99edfd	0.00117439
120	0x3ba61672	0.0050685937
121	0x39b2bd3d	0.000340918
122	0xbbadcf9e	-0.005304291
123	0x3be00633	0.0068366765
124	0xbad38cd5	-0.0016139994
125	0xb9f73fdf	-0.000471591
126	0xb996d920	-0.00028772
127	0x3bac607e	0.005260526
128	0xb9a7182b	-0.0003187073
129	0xb908fefa	-0.00013064957
130	0xb940f287	-0.00018400895
131	0x39a44ac5	0.00031336225
132	0x39c9269d	0.00038366477
133	0xba456c71	-0.00075311126
134	0x36c3307b	5.8170967e-06
135	0xb8caf4b4	-9.67769e-05
136	0xb97c2892	-0.00024047706
137	0x3b2c4645	0.0026287
138	0x3807b727	3.2357082e-05
139	0x37ac4bc7	2.0539284e-05
140	0x382840ac	4.011455e-05
141	0x3a282d83	0.0006415473
142	0xb8c6d1b8	-9.480439e-05
143	0xb8b26477	-8.5064145e-05
144	0x38706e34	5.7323094e-05
145	0x3906007e	0.00012779419
146	0x37878d4f	1.6159056e-05
147	0x3b76c3a4	0.0037653232
148	0x3a5677a4	0.000818128
149	0x39b74893	0.00034958552
150	0xb824c6af	-3.9285685e-05
151	0x390fede0	0.00013726158
152	0xb91bb34d	-0.00014848747
153	0xb93130d0	-0.0001689822
154	0x371f883f	9.508861e-06
155	0x3a94627e	0.0011320857
156	0xba4a0c67	-0.00077075366
157	0x390c6582	0.00013389255
158	0x3b562289	0.0032674393
159	0x382646cb	3.9643415e-05
160	0xb6a7c28e	-4.999637e-06
161	0x383adfb1	4.4554185e-05
162	0x37a16fa0	1.9244675e-05
163	0x37d6df10	2.561466e-05
164	0x370f812f	8.553542e-06
165	0xb374fc04	-5.7039884e-08
166	0xb83754b4	-4.3709486e-05
167	0x1cefd243	1.5870045e-21
168	0x1f80cb48	5.454641e-20
169	0x34e0983e	4.1834022e-07
170	0x38165807	3.584477e-05
171	0xb5ea3664	-1.7450188e-06
172	0xb1f53f87	-7.1376607e-09
173	0x32e98e4c	2.718948e-08
174	0x360740a6	2.0154198e-06
175	0xb3c54936	-9.186844e-08
176	0xb79b467c	-1.8510262e-05
177	0x1b6d24bc	1.961605e-22
178	0xacff64a5	-7.2587097e-12
179	0xb6d70561	-6.4081255e-06
180	0x379c33c4	1.8620754e-05
181	0x388b004a	6.62809e-05
182	0xb8043e98	-3.1529547e-05
183	0x1b49e7f5	1.670128e-22
184	0xacf2ace8	-6.89725e-12
185	0xabc16778	-1.3742193e-12
186	0xa8e7c70c	-2.5732475e-14
187	0x2eab0d2c	7.7785195e-11
188	0xb6a42795	-4.892189e-06
189	0xb6f5450a	-7.309606e-06
190	0x3727fc15	1.0012668e-05
191	0x3860eb6a	5.3625008e-05
192	0x19343628	9.316719e-24
193	0x32fedefb	2.9670892e-08
194	0x9bcfdedc	-3.4389297e-22
195	0x99862d87	-1.3873664e-23
196	0x199cd38c	1.6215465e-23
197	0x9d2e23d4	-2.304723e-21
198	0xbcc87ba0	-0.024473011
199	0xbada0bbe	-0.001663558
200	0xbaed9a4b	-0.0018127648
201	0x3b2fe1da	0.00268375
202	0xbc66d3f8	-0.014088623
203	0xbca1bcc5	-0.019743333
204	0x3b05541e	0.0020344327
205	0xbbb58bf5	-0.005540366
206	0xbd2b3e2e	-0.041807346
207	0xbc9d5f57	-0.0192105
208	0xbd58c119	-0.052918527
209	0xbcdc4ddd	-0.026892597
210	0x3cd97536	0.026545148
211	0xbc7bcb06	-0.015368229
212	0xbc8bc36c	-0.017060958
213	0x3c8dd7ec	0.017314874
214	0x3c6dd4e0	0.014516085
215	0x3bd55c48	0.006511245
216	0x3c2702f2	0.010193573
217	0x3cf4bbcf	0.02987471
218	0x3c53d2ea	0.012928704
219	0x3bd96d3e	0.006635337
220	0x3bcda8c9	0.0062762243
221	0xbc23958d	-0.009984386
222	0xbd725686	-0.059164546
223	0x3c4e0a53	0.012575704
224	0x3b37400e	0.0027961764
225	0x36e60eac	6.856242e-06
226	0x3c6822cc	0.0141684525
227	0x38d81f52	0.000103055165
228	0x3ad78fb8	0.001644603
229	0xba5d1876	-0.0008434126
230	0xbc153a7a	-0.00910818
231	0x2dfc0a90	2.8653774e-11
232	0x30e0bda4	1.6352044e-09
233	0x006a82be	9.781464e-39
234	0x803ae67b	-5.40914e-39
235	0xaedab8d2	-9.946323e-11
236	0x32e2d5c8	2.640708e-08
237	0x2aa84756	2.9892294e-13
238	0xabb0b911	-1.2556918e-12
239	0xa07f2ca6	-2.1614113e-19
240	0x2935a758	4.033522e-14
241	0x1f60e889	4.7626194e-20
242	0x27896c93	3.8142855e-15
243	0x001e84f9	2.802766e-39
244	0x1e3b9abf	9.931698e-21
245	0xa2f6d2d1	-6.6901644e-18
246	0xafb9c21d	-3.378923e-10
247	0x330d1e59	3.2856722e-08
248	0xb0efb8f8	-1.744211e-09
249	0x06dfd44f	8.4195236e-35
250	0x90a71c3c	-6.591339e-29
251	0xa05039a2	-1.7637354e-19
252	0xa9ac43ab	-7.650073e-14
253	0x99106648	-7.465281e-24
254	0xb1c3f7e0	-5.703427e-09
255	0x320d4f08	8.22525e-09

fcs1.bias f4 [400]
0	0xb598fbd8	-1.1398179e-06
1	0xbb2fd006	-0.0026826872
2	0xbc6e63a5	-0.014550124
3	0xbbbc16b6	-0.005740012
4	0xbaf21258	-0.0018468602
5	0xb9e34a3e	-0.0004335213
6	0xbd3f8684	-0.046759143
7	0xb5157c58	-5.568777e-07
8	0x3d0c2bb3	0.034221362
9	0xbc297593	-0.010342973
10	0x3a6f8116	0.0009136362
11	0xaa10a7f4	-1.284804e-13
12	0xafb759ec	-3.33514e-10
13	0xbc2085f1	-0.009797559
14	0xbc18dcdf	-0.0093300035
15	0xb5d182d0	-1.5609785e-06
16	0x362a4579	2.5372412e-06
17	0xaccbe5ca	-5.7951187e-12
18	0x8191c062	-5.3540644e-38
19	0xbc29c88e	-0.010362757
20	0x3a353fdd	0.00069141184
21	0xbce90056	-0.028442543
22	0x2937d6b2	4.082038e-14
23	0xb7c83866	-2.386812e-05
24	0xbcd4ad12	-0.025961433
25	0xbd4e672b	-0.050391357
26	0xbb576ba0	-0.0032870546
27	0xadc3be17	-2.225335e-11
28	0xbc8ebfdf	-0.017425476
29	0xbbec4756	-0.0072106523
30	0xbcab8bf2	-0.020940755
31	0xb253d143	-1.2329397e-08
32	0xbd463e04	-0.048398986
33	0xbc14b55c	-0.009076443
34	0x9802d0b7	-1.690748e-24
35	0x3c265162	0.010151239
36	0x9b335b37	-1.4836006e-22
37	0xbbdb561b	-0.006693614
38	0x3af4d2f9	0.0018678597
39	0xbd0870e3	-0.033310782
40	0xbd3b0c55	-0.045666058
41	0xbc02d461	-0.007985205
42	0xae177fa0	-3.444678e-11
43	0xbd2ab0a6	-0.04167237
44	0xbc212302	-0.009835007
45	0x3a25c52a	0.000632363
46	0x3aed9997	0.0018127438
47	0xbaafc45e	-0.0013409962
48	0xbb1478cc	-0.0022655008
49	0xaebf79f4	-8.7073376e-11
50	0xbc385f32	-0.011253165
51	0xbb310ab2	-0.0027014432
52	0xb98259a2	-0.00024862314
53	0xbb61d8e0	-0.0034461543
54	0x3c8d73a0	0.017267048
55	0x3c110632	0.008851575
56	0x300ebfea	5.1932025e-10
57	0xbbd8a19b	-0.0066110617
58	0xba166fd0	-0.0005738707
59	0x30808d49	9.353381e-10
60	0xa704f006	-1.8448797e-15
61	0xbd57acdd	-0.05265509
62	0x96073a2c	-1.0923569e-25
63	0xbb313ce7	-0.0027044357
64	0x968e19fb	-2.2957733e-25
65	0xa8ee02a0	-2.6424446e-14
66	0xbd04ddcf	-0.032438096
67	0xbd260802	-0.04053498
68	0xbc1a1c3a	-0.009406144
69	0xbc202afb	-0.009775872
70	0x3beaf580	0.007170379
71	0xb74f92ea	-1.2372368e-05
72	0xb8bb7271	-8.938171e-05
73	0xb76038be	-1.3364652e-05
74	0xba802d54	-0.0009779134
75	0xa60e5e6f	-4.939413e-16
76	0xbb65f943	-0.0035091199
77	0xbb42445d	-0.0029642798
78	0x3bf0697c	0.0073367935
79	0xbce45c11	-0.027875932
80	0xbd9584bb	-0.07300707
81	0xb26fbf02	-1.3955061e-08
82	0xb6aa9b84	-5.084499e-06
83	0x3b67a391	0.0035345296
84	0xbcc9e2f2	-0.024644349
85	0xb70f905e	-8.557077e-06
86	0xa185facc	-9.078816e-19
87	0xbda4f172	-0.080538645
88	0xbb32b194	-0.002726649
89	0x3c2f0172	0.010681497
90	0xb883b920	-6.281049e-05
91	0xa7b59d62	-5.0408227e-15
92	0xba9252cf	-0.0011163595
93	0xb6e63c29	-6.8615377e-06
94	0xa42745c2	-3.627144e-17
95	0xb89a28dc	-7.350903e-05
96	0xb2460f74	-1.15286305e-08
97	0x9fc946d1	-8.524397e-20
98	0xbaf9e4e7	-0.0019065411
99	0xb70a00b5	-8.225606e-06
100	0xa0a5d7d9	-2.8094923e-19
101	0xbd02827f	-0.031862732
102	0x94693ae0	-1.1775105e-26
103	0x0c0c3fd6	1.0804418e-31
104	0xbd765364	-0.06013812
105	0x3b0af7b5	0.0021204774
106	0xbc47b250	-0.012188509
107	0x3a3421ce	0.00068714924
108	0xb3699325	-5.4383367e-08
109	0xb20d4591	-8.223098e-09
110	0xad7defcd	-1.44346314e-11
111	0xafe3839e	-4.138458e-10
112	0x98812696	-3.338468e-24
113	0x956a2f03	-4.729301e-26
114	0xbc0ae6bf	-0.008477866
115	0xb47534bb	-2.2836586e-07
116	0xbc86b3a2	-0.016443077
117	0xbb7b984d	-0.003839034
118	0xb9cfaeb6	-0.00039612286
119	0xb9233e81	-0.00015568176
120	0xb314c819	-3.4640923e-08
121	0xbd0c5a5b	-0.034265857
122	0xbccbe326	-0.024888586
123	0xb742c62c	-1.1609442e-05
124	0xbba22f2b	-0.0049494705
125	0x90a61642	-6.550975e-29
126	0xbca1756c	-0.019709311
127	0xb7b4975e	-2.1528158e-05
128	0xbced63e9	-0.028978305
129	0x9963ebee	-1.17832706e-23
130	0xbb750a8a	-0.0037390315
131	0xa9101679	-3.1993915e-14
132	0xb70856c7	-8.126436e-06
133	0xbc2c6d33	-0.010524082
134	0xb95091c2	-0.00019890725
135	0xbc748580	-0.014924407
136	0xbd5495aa	-0.051900543
137	0xb162ad38	-3.2985792e-09
138	0xa04b2b49	-1.7209091e-19
139	0xbcaffe68	-0.021483615
140	0xbb9614cc	-0.004580116
141	0xa70c57be	-1.9476468e-15
142	0x3b844d14	0.0040375087
143	0xb947d0bc	-0.00019055879
144	0xbd157b2a	-0.03649441
145	0x3bd0edec	0.0063760187
146	0xbc76e942	-0.015070261
147	0xbc762197	-0.015022657
148	0x3c2a12c4	0.010380451
149	0xa6391443	-6.421223e-16
150	0xbce06a03	-0.0273943
151	0xba58c7a8	-0.0008269497
152	0x3a5d0ebb	0.0008432676
153	0xb2e025ef	-2.6094282e-08
154	0x3b869639	0.0041072634
155	0x3d899eff	0.06719779
156	0xafefe30a	-4.3635168e-10
157	0x9d1d624c	-2.0829595e-21
158	0xbd1d8838	-0.038459986
159	0xae4dbbbd	-4.677835e-11
160	0xbaaad6cd	-0.0013033986
161	0xbb7b2f2b	-0.0038327675
162	0x3b0b94f3	0.0021298497
163	0xbc295e81	-0.010337473
164	0x3d007075	0.031357247
165	0xb5dd5195	-1.6489527e-06
166	0xb86fb2c4	-5.714853e-05
167	0xbbdfebd3	-0.0068335324
168	0x3ae096e6	0.0017134815
169	0x06a4c124	6.197374e-35
170	0xbcac7020	-0.02104956
171	0xba5d3f08	-0.00084398733
172	0xbce3e58d	-0.02781942
173	0xb9911c82	-0.00027677795
174	0xb90d3fe2	-0.00013470606
175	0xb77e7e30	-1.516896e-05
176	0x3c025ce3	0.007956716
177	0x94ec13bf	-2.3837699e-26
178	0x3be92962	0.007115529
179	0xb3f2683c	-1.1287963e-07
180	0xb8a3eb32	-7.816254e-05
181	0xb90f145a	-0.00013645124
182	0xaddd2ece	-2.5145577e-11
183	0xbd6c8b6a	-0.057750143
184	0xbc6a6710	-0.014306799
185	0xbd29fbff	-0.041500088
186	0x376e73ee	1.4212897e-05
187	0xb056823f	-7.803784e-10
188	0xba5986e3	-0.0008297993
189	0xbd5f8d66	-0.054578207
190	0x83da247e	-1.2821267e-36
191	0xaaf87038	-4.4131517e-13
192	0xbc6ce3c9	-0.014458605
193	0x3c4e85a3	0.012605104
194	0x3c5bda04	0.013418678
195	0xbb21cb9f	-0.0024688018
196	0x06be0a94	7.14856e-35
197	0xbc3acfcd	-0.011402083
198	0xbb84e24f	-0.0040552984
199	0xbb8139b8	-0.003943648
200	0xa1054233	-4.5149767e-19
201	0xa54f0d7a	-1.7958954e-16
202	0xb688aabb	-4.0729915e-06
203	0xaabd59cd	-3.3635456e-13
204	0x3a006dba	0.0004899163
205	0x9bab9875	-2.83881e-22
206	0xb6ee1703	-7.0956316e-06
207	0xb7203998	-9.550153e-06
208	0xb0ce804e	-1.5024939e-09
209	0x83880e9b	-7.996715e-37
210	0xbc1ef3a4	-0.009701643
211	0xb41b9f5d	-1.4493476e-07
212	0xbca039e1	-0.019558849
213	0xb893334a	-7.0190596e-05
214	0xa9460a5d	-4.397382e-14
215	0xbd5f3bf4	-0.054500535
216	0x38d48e4a	0.00010135451
217	0xba218b10	-0.00061623845
218	0x3c9f00a7	0.01940949
219	0x39550066	0.00020313411
220	0x3c824c26	0.015905451
221	0xb823c4a1	-3.9045353e-05
222	0x3af4e080	0.0018682629
223	0xbb36aef4	-0.0027875276
224	0x960412ab	-1.0668766e-25
225	0xb22514b1	-9.608969e-09
226	0x3c1e7fe4	0.009674046
227	0xbcb08966	-0.021549892
228	0x3c54f6bc	0.012998279
229	0xbcce3fb0	-0.025176853
230	0xaa99e225	-2.733518e-13
231	0x3cadb5e9	0.021204906
232	0xb2d15905	-2.4371284e-08
233	0xb8705941	-5.7303583e-05
234	0x322381b4	9.51734e-09
235	0xa86e3e05	-1.3225102e-14
236	0xbb793ca9	-0.003803054
237	0x3c0cb721	0.008588583
238	0xbbdfc083	-0.006828369
239	0xa2a83a47	-4.5598195e-18
240	0x319b50c5	4.520276e-09
241	0xb49f4dc1	-2.967263e-07
242	0xb37c0ae1	-5.8683217e-08
243	0x9eff5890	-2.7035804e-20
244	0xab188f45	-5.4200074e-13
245	0xbc2b048f	-0.010438099
246	0xbcccdb84	-0.025007017
247	0x3ac36a16	0.0014908935
248	0xbc2c7354	-0.010525543
249	0xabfe6c69	-1.8077875e-12
250	0x8fed1ae3	-2.338036e-29
251	0xa94df3d2	-4.5730624e-14
252	0xbd52eaad	-0.051493336
253	0xbaf27aa6	-0.0018499687
254	0xac82e11e	-3.7198153e-12
255	0xa008053a	-1.1521377e-19

fcs1_batch.weight f4 [400]
0	0xb7c77266	-2.377592e-05
1	0x3b44ec9c	0.0030048257
2	0x3a941d16	0.0011300172
3	0x3b508e65	0.0031823155
4	0xba014b7d	-0.0004932208
5	0xb9f957e4	-0.00047558465
6	0x3d439e83	0.04775859
7	0xb58a4e48	-1.0304584e-06
8	0x3d385833	0.04500599
9	0x3dcf0cd3	0.10109868
10	0xb8344931	-4.298351e-05
11	0x2caefc5d	4.9733954e-12
12	0x30af5a59	1.2758604e-09
13	0xbb4b81eb	-0.003105278
14	0x3ac65fe0	0.0015134774
15	0xb49aa54c	-2.8805005e-07
16	0xb4a8894a	-3.139233e-07
17	0x351c323d	5.8187635e-07
18	0x01378058	3.3703874e-38
19	0xbb85843e	-0.0040746024
20	0x39eaa1c4	0.00044752483
21	0x3de6a8d0	0.11262667
22	0x28a8a41e	1.8722921e-14
23	0x374f8459	1.2368976e-05
24	0x3c86b612	0.01644424
25	0x3dc86cc4	0.097863704
26	0x3d44f209	0.048082385
27	0x33b3a2b5	8.364933e-08
28	0x3e8a8636	0.2705552
29	0x3b025edc	0.0019892966
30	0x3c13cc90	0.0090209395
31	0xb61a5b44	-2.3000912e-06
32	0x3d9ca2d7	0.07648247
33	0x39955970	0.0002848613
34	0x150de0d8	2.8652094e-26
35	0x3e21979b	0.15780489
36	0x9b20a314	-1.3287583e-22
37	0x3d11bd00	0.035580635
38	0x3e062aa9	0.13102211
39	0x3dd954ce	0.10611878
40	0x3d6c8508	0.057744056
41	0xbb16a125	-0.0022984233
42	0x3123b5cf	2.3822968e-09
43	0xbd272010	-0.04080206
44	0x3b92b155	0.004476706
45	0xb8ba268c	-8.876351e-05
46	0xbaa670bc	-0.0012698392
47	0xbba88f62	-0.0051440457
48	0x39afbfeb	0.0003352159
49	0xae03ce53	-2.9969204e-11
50	0xbade6665	-0.0016967772
51	0x36c183fc	5.767213e-06
52	0x38c5ea5c	9.437345e-05
53	0xbb93ec9d	-0.0045142905
54	0x3da56c2b	0.08077272
55	0x3d931a18	0.07182711
56	0x307c0838	9.1688745e-10
57	0x3c4858c5	0.012228196
58	0x398ddeb3	0.0002705954
59	0xb0e450f8	-1.6612196e-09
60	0x1e606eeb	1.18813986e-20
61	0x3dabc3b7	0.08386939
62	0x8015127e	-1.935179e-39
63	0xbaff9928	-0.00195006
64	0x2f2ffe23	1.6006445e-10
65	0x295740ec	4.77959e-14
66	0x3d5c9e33	0.053861808
67	0x3df574f6	0.11985199
68	0x3b07abcf	0.002070177
69	0xbc33f45d	-0.010983554
70	0x3e3d4666	0.18483886
71	0x39dd6b57	0.0004223238
72	0x3a4c46a3	0.0007792508
73	0x38bf80b1	9.1315604e-05
74	0xb935268a	-0.00017275862
75	0xa622d81f	-5.649794e-16
76	0x3dfda4ab	0.123849235
77	0x3b2986e0	0.0025867745
78	0x3bf519ad	0.0074798674
79	0x3e402ec4	0.1876784
80	0x3dac3780	0.08409023
81	0x335c3835	5.127386e-08
82	0xb8b581ff	-8.654966e-05
83	0x3e0a9803	0.1353455
84	0x3da08c8b	0.078393064
85	0xb8fd41bc	-0.00012076224
86	0xa0377bfd	-1.5541727e-19
87	0x3d4573d2	0.048206158
88	0x3b50b356	0.0031845174
89	0x3a9fac06	0.0012182004
90	0xb8f63482	-0.000117399744
91	0xa4ee1f3e	-1.0326897e-16
92	0x3a1d8344	0.0006008635
93	0x3aa4799d	0.0012548451
94	0x228a94d1	3.756254e-18
95	0x38e4e5e7	0.0001091471
96	0x2d337d31	1.020277e-11
97	0x0ec43b33	4.8374737e-30
98	0x3a929303	0.0011182729
99	0x39dadccf	0.00041744715
100	0xb0f34474	-1.7700033e-09
101	0x3c92a381	0.01790023
102	0xad1d2db9	-8.934569e-12
103	0x0cd2a857	3.245694e-31
104	0x3d9e941b	0.077430926
105	0x3bf1b005	0.0073757195
106	0x3d8b9021	0.068146
107	0x38d70920	0.000102536986
108	0x3406060b	1.2481921e-07
109	0xb49f1293	-2.9629572e-07
110	0x2d6393b5	1.2936254e-11
111	0x34b9b4e1	3.4590542e-07
112	0x2c63cd44	3.2372586e-12
113	0x14f3ca72	2.461658e-26
114	0x3b3b84ae	0.0028613019
115	0xb592549a	-1.090247e-06
116	0x3b04b252	0.0020247889
117	0xba883e9b	-0.0010394634
118	0x387adb94	5.9809143e-05
119	0x398638ef	0.0002560089
120	0x32d3e58c	2.4668019e-08
121	0x3d5b0545	0.053471822
122	0x3c39e817	0.011346838
123	0x372b26b1	1.0201403e-05
124	0x3a424fd0	0.00074124057
125	0x229a3c5c	4.180569e-18
126	0x3dba79c3	0.091052555
127	0x2df17396	2.7449858e-11
128	0x3c1d98bf	0.009618937
129	0x31625fff	3.2941896e-09
130	0xbb50b7a1	-0.0031847733
131	0xb46adb18	-2.1872654e-07
132	0x31a58944	4.8177373e-09
133	0x3d9a0805	0.07521061
134	0x3843e38f	4.6703553e-05
135	0x3e4c9703	0.19979481
136	0x3dafb00c	0.085785
137	0x31614da2	3.2785938e-09
138	0x0a291327	8.140656e-33
139	0x3d98aa13	0.07454314
140	0x3af09ba8	0.0018356936
141	0xa505d961	-1.1609562e-16
142	0x3c95bdd1	0.018278988
143	0x399db105	0.00030077263
144	0x3db41253	0.087925576
145	0x3dd8819a	0.105715945
146	0x3bfa7eb6	0.0076444997
147	0x3d85754c	0.06516513
148	0xbb73ad36	-0.00371821
149	0xa6822601	-9.030863e-16
150	0x3c1c11e9	0.0095257545
151	0x38f73edb	0.000117895856
152	0xbc49083d	-0.012270031
153	0x349ef40e	2.9607367e-07
154	0xb91dd14a	-0.00015050653
155	0x3e241570	0.16023803
156	0xaf9ec5f5	-2.888069e-10
157	0xab11159f	-5.1544354e-13
158	0x3dc591fe	0.096469864
159	0x005bdff4	8.43737e-39
160	0xb92d5318	-0.0001652952
161	0x3e1e6ced	0.1547124
162	0xb9030478	-0.00012494798
163	0x3b1b8ea7	0.002373615
164	0xbb2b68b7	-0.0026154944
165	0x316129d8	3.2765595e-09
166	0xb76725c9	-1.37774705e-05
167	0xbb368be3	-0.0027854375
168	0x3c2f40a1	0.010696561
169	0x8195e03c	-5.5055716e-38
170	0x3d5315d3	0.051534485
171	0xb98e0ab5	-0.00027092328
172	0x3ccc23e6	0.024919461
173	0xb9acd022	-0.00032961468
174	0x394db49d	0.00019617607
175	0xb69cd9e3	-4.6745276e-06
176	0x3cb039e0	0.021511972
177	0x92e65dd2	-1.4538169e-27
178	0x3b12a4c2	0.0022376035
179	0xb71abf1e	-9.223613e-06
180	0x3a2915f0	0.00064501073
181	0xb818f0a1	-3.6463727e-05
182	0x97fc092c	-1.6287434e-24
183	0x3db05297	0.08609503
184	0x3d96932d	0.0735229
185	0x3c67c33e	0.01414567
186	0xb98278ef	-0.00024885635
187	0x34912c38	2.7040528e-07
188	0xb9341301	-0.00017173217
189	0x3cdfff86	0.027343523
190	0x02e4bfc6	3.3611662e-37
191	0xb4ab6319	-3.1923335e-07
192	0x3d321a68	0.043482214
193	0x3dded3fd	0.10880277
194	0x3e1dcf2e	0.15411064
195	0x3a376b54	0.0006996889
196	0x8799383c	-2.3053933e-34
197	0x3d054fab	0.03254668
198	0xbb27b84a	-0.0025592023
199	0x3bc266bc	0.005932657
200	0x0060f07b	8.902476e-39
201	0x23a1f3f8	1.755898e-17
202	0x36cecfc1	6.163464e-06
203	0x2bc5ab18	1.404518e-12
204	0x3ac75ec8	0.0015210742
205	0x9a8bd299	-5.782929e-23
206	0x3837d77a	4.3831278e-05
207	0xb79c17c4	-1.8607716e-05
208	0x31ef8e1c	6.9719714e-09
209	0x04bfa751	4.505754e-36
210	0x3d2a79bb	0.041619997
211	0x369702a5	4.5004585e-06
212	0x3dc613e6	0.09671764
213	0x348c070e	2.6082165e-07
214	0x2c4c3e63	2.9024775e-12
215	0x3d2596b4	0.040426925
216	0x3884f674	6.340156e-05
217	0x3e37d534	0.17952424
218	0x3d985b7a	0.07439323
219	0x3ac5abe0	0.001508113
220	0xbb853537	-0.0040651816
221	0x38988d7f	7.2742805e-05
222	0x395e5583	0.00021203425
223	0xbb186055	-0.0023250778
224	0xabe227fd	-1.6069365e-12
225	0xb1994f77	-4.46192e-09
226	0x3dec081e	0.11524986
227	0x3d8dde65	0.06927184
228	0x3d19eeb8	0.037581176
229	0x3d95a744	0.07307294
230	0x00d67585	1.9694954e-38
231	0x3e324912	0.17410687
232	0x32f773ec	2.88073e-08
233	0x27c6e659	5.5205783e-15
234	0xb35f977c	-5.2059008e-08
235	0xb08fac85	-1.0453652e-09
236	0xb8ebe884	-0.000112489826
237	0x3d7a2430	0.061069667
238	0xb8d92cb3	-0.00010355692
239	0x32391f06	1.0775471e-08
240	0xb289b4ac	-1.603106e-08
241	0xb567986b	-8.6276003e-07
242	0x339e8941	7.382415e-08
243	0x9f5b5c67	-4.6451487e-20
244	0xa80c2c45	-7.781161e-15
245	0x3dd608e0	0.104509115
246	0x3dc3f8b1	0.095689185
247	0x3dccbdc5	0.09997133
248	0x3d42022a	0.047365345
249	0xaa997667	-2.7260418e-13
250	0x0facefda	1.7052897e-29
251	0x0062c3dc	9.07014e-39
252	0x3d9d2031	0.07672156
253	0x3a2682e0	0.00063518994
254	0xab7eb990	-9.0496447e-13
255	0x32062013	7.807119e-09

fcs1_batch.bias f4 [400]
0	0x3afbcd04	0.001921088
1	0xba195c9d	-0.0005850287
2	0x3b3c15de	0.0028699557
3	0xb95d7e12	-0.00021123167
4	0xb9b64d8d	-0.00034771525
5	0xba4a6e20	-0.00077220984
6	0x3bbaea89	0.0057042283
7	0xbb2c2751	-0.0026268552
8	0xbc25d5af	-0.010121747
9	0x3c91f9b7	0.017819269
10	0x3b19f601	0.0023492577
11	0xb9d732a6	-0.00041045732
12	0x3a59beda	0.0008306332
13	0x39963b1e	0.00028654275
14	0x3af7169f	0.0018851346
15	0x3ad50b63	0.0016254004
16	0x39b5fb22	0.0003471012
17	0x3ae33032	0.0017333089
18	0x3a032d9d	0.00050040503
19	0xb9f2d140	-0.0004631374
20	0x39aa5409	0.00032487538
21	0x3c85b127	0.016319824
22	0xb8a63e38	-7.927086e-05
23	0xbacae872	-0.0015480651
24	0xbbe7a8a4	-0.007069664
25	0xbae6ad51	-0.001759926
26	0x3c909415	0.017648736
27	0x3aa2b905	0.0012414759
28	0x3d5aa9d7	0.05338463
29	0xba299855	-0.00064695376
30	0x38c57b82	9.416697e-05
31	0x39868b82	0.00025662413
32	0xbb66bcff	-0.0035207865
33	0xb982c371	-0.00024941147
34	0x3ab749bf	0.001398377
35	0x3d26cf1f	0.04072487
36	0xbb9c42fa	-0.0047687264
37	0x3b205952	0.0024467302
38	0xbd22b807	-0.039726283
39	0x3cb0e1d1	0.021592053
40	0x3bb62428	0.0055585094
41	0xbae7a5b9	-0.001767329
42	0x3a6efeb7	0.0009116935
43	0xbb31e204	-0.0027142772
44	0xbacb613c	-0.0015516649
45	0xba09824a	-0.000524555
46	0x3a659cda	0.00087590294
47	0xbb81ae07	-0.0039575133
48	0xbad5736e	-0.0016285011
49	0x3b4752a4	0.0030414248
50	0xb9860eda	-0.00025569537
51	0x39eb96cc	0.00044935045
52	0x3999bf15	0.000293248
53	0xbba5f5b3	-0.00506469
54	0xbbff9077	-0.007799204
55	0x3a47423b	0.00076011167
56	0xbaffc31a	-0.0019513101
57	0xbb595ce2	-0.0033166935
58	0xb846e314	-4.741836e-05
59	0xb94cf4fd	-0.00019546221
60	0x3a8dc1a0	0.0010815151
61	0x3c29fdef	0.010375484
62	0x38c9a87b	9.615809e-05
63	0xbab84862	-0.0014059658
64	0xb70edb3a	-8.514902e-06
65	0xb9a692a0	-0.0003177123
66	0x3c89c045	0.016815314
67	0x3d20975f	0.03920686
68	0xbb0701fc	-0.0020600548
69	0x3a47584e	0.0007604406
70	0x3ced97bb	0.029003015
71	0x376a2dde	1.3958166e-05
72	0x39ea51cc	0.000446929
73	0x3b8d62a7	0.004314739
74	0x378d60f2	1.6853654e-05
75	0xbb6aac2c	-0.003580819
76	0x3ca1f54a	0.019770283
77	0xbabceaf9	-0.0014413289
78	0x3ac8293c	0.0015271078
79	0x3b657f5e	0.0035018544
80	0xbc6a5c79	-0.014304274
81	0x39b8a77f	0.0003522001
82	0x388e0d77	6.773596e-05
83	0xbd1cdd58	-0.038297027
84	0x3b392da6	0.0028255968
85	0x3af9bbc6	0.0019053153
86	0xb9b93098	-0.00035322155
87	0x3c05478c	0.008134734
88	0xbacaaa29	-0.0015462089
89	0xbb148f7d	-0.0022668533
90	0xb9cba97b	-0.0003884545
91	0xb9cfa076	-0.0003960167
92	0x3a5899a2	0.0008262639
93	0x39cff6b7	0.00039665934
94	0xb906cc7d	-0.00012855414
95	0x37d9f0a3	2.5980471e-05
96	0xba0b4244	-0.00053123035
97	0xbb09e51c	-0.00210411
98	0xb963d2ef	-0.00021726986
99	0xbb67a523	-0.0035346232
100	0x3aba8300	0.0014229715
101	0x3a954ed2	0.0011391288
102	0xb9350de4	-0.0001726668
103	0xb9dae030	-0.00041747233
104	0xbc081f26	-0.008308208
105	0xbbb43e7c	-0.005500613
106	0x3c65b89c	0.014021065
107	0x385141d0	4.9890776e-05
108	0x3a20e903	0.0006138237
109	0xb94c0dfc	-0.00019460166
110	0xba379f01	-0.00070045894
111	0x3a551c26	0.00081294996
112	0x38417ae0	4.6129222e-05
113	0xba0411fa	-0.0005038079
114	0x3b85bbeb	0.0040812395
115	0xb920fa31	-0.00015351993
116	0x3b94450d	0.004524833
117	0xb965cb08	-0.00021914777
118	0xbae7088f	-0.0017626452
119	0xb9801900	-0.0002443269
120	0xbb15a73a	-0.002283527
121	0x3c76fd1b	0.0150749935
122	0xba90504d	-0.001101026
123	0xbb11abe4	-0.00222277
124	0x389a13ef	7.347005e-05
125	0xba8b16a2	-0.0010611604
126	0x3c6470fc	0.013942953
127	0xbac3fade	-0.0014952084
128	0xbac98bf1	-0.0015376789
129	0x39b6837c	0.0003481171
130	0xbad1dbb7	-0.0016010915
131	0xbafeec8f	-0.0019449162
132	0xb9a82299	-0.00032069234
133	0x3c2afc17	0.010436079
134	0x3b7a3208	0.0038176794
135	0x3d16b245	0.036791105
136	0x3c170aaf	0.009218856
137	0x3aa5e8dd	0.00126579
138	0xbb2a72c7	-0.0026008354
139	0x3ca07538	0.019587144
140	0xb9005ffd	-0.0001224279
141	0x39928f11	0.00027953883
142	0xbb5f0f58	-0.0034036245
143	0x3910fb83	0.00013826606
144	0x3d099978	0.033593625
145	0xbc562fe1	-0.013072939
146	0xba3ce81b	-0.0007206217
147	0x3c666d3f	0.014064132
148	0x3b9c0fbc	0.004762618
149	0xb9261650	-0.00015839306
150	0xba078f0f	-0.00051711587
151	0xba0513d3	-0.00050765014
152	0x3c42ab9f	0.011881738
153	0x39570a49	0.0002050783
154	0x3a131b03	0.000561163
155	0xbba342f5	-0.004982347
156	0xb8caace2	-9.6643125e-05
157	0xb80150db	-3.08313e-05
158	0x3c8abc07	0.016935362
159	0xbb6b2ab9	-0.003588362
160	0xb9fa2ed5	-0.00047718608
161	0xbcd0e48b	-0.025499603
162	0xba10da20	-0.0005525667
163	0x3a867753	0.001025895
164	0x3bc52b04	0.0060170908
165	0xbad3c6a8	-0.0016157227
166	0xb978334d	-0.00023670234
167	0xbb7657ec	-0.0037589027
168	0xbb2ad3fe	-0.0026066299
169	0x3947afaa	0.00019043559
170	0xbc290c2f	-0.010317846
171	0xb989a963	-0.0002625688
172	0xbb2f23bd	-0.0026724183
173	0xba4043d2	-0.0007334325
174	0xb8be92da	-9.087259e-05
175	0x3a499702	0.00076900434
176	0x3bf5b5be	0.007498472
177	0xbb0bae31	-0.0021313543
178	0x3b4b5e32	0.0031031487
179	0x393ad975	0.00017819351
180	0xb923c302	-0.00015617537
181	0x39dfd347	0.00042691288
182	0xb88ca92e	-6.7072324e-05
183	0x3c8c94c1	0.017160775
184	0x3cc747d8	0.02432625
185	0xb9dafb47	-0.00041767416
186	0x3bc7d11c	0.006097926
187	0x390cbd11	0.00013421873
188	0xb993b74e	-0.00028174598
189	0xba118351	-0.00055508787
190	0x397e1b13	0.00024233414
191	0xbb875898	-0.0041304342
192	0x3b14da69	0.002271319
193	0xbb828491	-0.0039830883
194	0xbd3008be	-0.042977087
195	0xb8190d4e	-3.6490434e-05
196	0x3964c5df	0.00021817487
197	0xbb1ca424	-0.0023901546
198	0x3bb1fc2d	0.005431673
199	0x3add4a0a	0.0016883027
200	0x3a3506c2	0.0006905609
201	0x39893e8b	0.00026177274
202	0xb8cfdf9a	-9.912178e-05
203	0xba151861	-0.00056875317
204	0xbae8d775	-0.0017764407
205	0xba946ecc	-0.0011324524
206	0xbb5d919f	-0.003380872
207	0x399d5ca0	0.00030014385
208	0x390d66ba	0.00013485076
209	0x38276ad1	3.9915383e-05
210	0x3c6a9a96	0.014319083
211	0xb8f647ae	-0.000117435455
212	0x3d0e0fd2	0.034683056
213	0x3507e1da	5.0620076e-07
214	0xb8a9f8c7	-8.1048864e-05
215	0xba62d315	-0.00086526695
216	0x3903a0ab	0.00012552987
217	0x3d0da42f	0.034580406
218	0x3c7e8262	0.015534015
219	0xbaa0813e	-0.0012245548
220	0x3c0926d0	0.00837107
221	0xb9f0df7a	-0.0004594287
222	0x3a8d890c	0.001079829
223	0xb91e93e4	-0.00015123148
224	0xbb2a11f6	-0.0025950647
225	0x3a232601	0.00062236196
226	0x39d9e454	0.00041559583
227	0x3c58617e	0.013206838
228	0x3bccb350	0.0062469617
229	0x3caae377	0.020860417
230	0x3a937f2a	0.0011253108
231	0x3d25a538	0.040440768
232	0x3a431da7	0.0007443078
233	0xb99840ee	-0.00029040076
234	0xb94ae116	-0.00019348072
235	0x39c6b601	0.00037901106
236	0x3a260c83	0.0006334262
237	0x3b22f579	0.0024865551
238	0x3af51c30	0.0018700417
239	0x3bc90803	0.0061349883
240	0x3b048c07	0.0020225064
241	0x3ae01467	0.0017095924
242	0xb9c8a1c6	-0.00038267503
243	0xbaa8d462	-0.0012880678
244	0xb9ec2299	-0.00045039205
245	0x3cdcbf95	0.026946822
246	0x3ce7e14e	0.028305676
247	0xbcc9eb2a	-0.024648268
248	0x3b8ef508	0.004362706
249	0xbaa9399a	-0.0012910843
250	0x3ab12088	0.0013513723
251	0x39933baa	0.00028082478
252	0x3ca06e56	0.019583862
253	0x399eb9d2	0.00030274555
254	0xb99d7ead	-0.00030039754
255	0x3a3d1b3f	0.0007213838

fcs1_batch.running_mean f4 [400]
0	0x00000004	6e-45
1	0x00000004	6e-45
2	0x3ad62b7e	0.0016339866
3	0x3a83b25a	0.001004766
4	0x39e61bc7	0.00043889714
5	0x00000004	6e-45
6	0x3b1f68e1	0.0024323987
7	0x00000004	6e-45
8	0x3d1dad49	0.038495336
9	0x3c6e05a4	0.014527712
10	0x3b4f8f43	0.0031671084
11	0x00000004	6e-45
12	0x30271693	6.0786326e-10
13	0x00000004	6e-45
14	0x39ab6daf	0.00032697382
15	0x00000004	6e-45
16	0x36617f8c	3.3601855e-06
17	0x00000004	6e-45
18	0x000e33cc	1.304278e-39
19	0x1d6c2845	3.1255159e-21
20	0x3a0c7968	0.0005358667
21	0x3c0e49f9	0.008684629
22	0x290a3d82	3.0695505e-14
23	0x00000004	6e-45
24	0x3b3d70c8	0.0028906334
25	0x3b24fa64	0.0025173659
26	0x3c498d7e	0.012301801
27	0x00000004	6e-45
28	0x3ca1756d	0.019709313
29	0x00000004	6e-45
30	0x00000004	6e-45
31	0x00000004	6e-45
32	0x3ae776f2	0.001765935
33	0x3a53ee04	0.00080844783
34	0x0001d3c2	1.678e-40
35	0x3ce9c37d	0.028535599
36	0x113876ca	1.4551645e-28
37	0x3c08d13d	0.008350668
38	0x3cc1ab05	0.023641119
39	0x3b8d8a33	0.004319453
40	0x3a44f004	0.0007512572
41	0x3b61fdeb	0.0034483622
42	0x00000004	6e-45
43	0x38d4e92c	0.000101523794
44	0x284fc5a3	1.1533664e-14
45	0x3a7d586b	0.00096643594
46	0x3b196cd9	0.0023410826
47	0x3bfcaae8	0.0077108033
48	0x3aaae481	0.001303807
49	0x17d8199a	1.3965136e-24
50	0x394d8b91	0.00019602316
51	0x3a215cdd	0.00061555003
52	0x35826664	9.715554e-07
53	0x3b944ea1	0.004525975
54	0x3cda6b43	0.026662474
55	0x3ca6517c	0.020302527
56	0x2fb7c56d	3.3427786e-10
57	0x3b67f468	0.003539348
58	0x37551b89	1.27022e-05
59	0x2ffd7b97	4.6108248e-10
60	0x00000004	6e-45
61	0x3b01b8eb	0.0019794058
62	0x00000004	6e-45
63	0x3953c461	0.00020195685
64	0x00000004	6e-45
65	0x00000004	6e-45
66	0x3b897e0b	0.0041959337
67	0x3c5e1896	0.013555666
68	0x3974b5e0	0.00023337407
69	0x3b1b1579	0.0023663922
70	0x3ce94688	0.028476015
71	0x00000004	6e-45
72	0x3a1f7c50	0.00060838927
73	0x00000004	6e-45
74	0x36f09a04	7.170487e-06
75	0x00000004	6e-45
76	0x3c8930d4	0.016746916
77	0x3b95d444	0.004572423
78	0x3c6fd60e	0.014638437
79	0x3c546418	0.012963317
80	0x25219971	1.4016512e-16
81	0x32a2a257	1.8933106e-08
82	0x00000004	6e-45
83	0x3cac1538	0.021006212
84	0x3c0382ae	0.008026762
85	0x00000004	6e-45
86	0x1c534f5c	6.9916613e-22
87	0x38ad9068	8.2761806e-05
88	0x3aba1349	0.0014196421
89	0x3c560854	0.013063509
90	0x378f0caa	1.7052826e-05
91	0x15152780	3.012147e-26
92	0x39bf7292	0.0003651572
93	0x3b39622f	0.0028287282
94	0x00000004	6e-45
95	0x38da00c0	0.0001039519
96	0x00000004	6e-45
97	0x00000004	6e-45
98	0x3add39d1	0.0016878193
99	0x00000004	6e-45
100	0x00000004	6e-45
101	0x398b7d57	0.00026605531
102	0x00000004	6e-45
103	0x0c394db2	1.4275262e-31
104	0x3a344e68	0.00068781385
105	0x3bb045c0	0.0053794086
106	0x3c38ff74	0.0112913735
107	0x3a907e5a	0.0011023984
108	0x00000004	6e-45
109	0x00000004	6e-45
110	0x238c9b48	1.5244595e-17
111	0x00000004	6e-45
112	0x00000004	6e-45
113	0x0d20134d	4.932704e-31
114	0x3b6b71cd	0.0035925985
115	0x299a4eaf	6.852623e-14
116	0x3b115256	0.002217432
117	0x000018b8	8.867e-42
118	0x00000004	6e-45
119	0x3905a17e	0.00012744029
120	0x29125e4b	3.25003e-14
121	0x3bdfbe07	0.006828073
122	0x00000004	6e-45
123	0x00000013	2.7e-44
124	0x33080105	3.1665895e-08
125	0x00000004	6e-45
126	0x3c499b0e	0.012305034
127	0x00000004	6e-45
128	0x371c1fcb	9.305727e-06
129	0x00000004	6e-45
130	0x0ba5dbca	6.388639e-32
131	0x00000004	6e-45
132	0x00000004	6e-45
133	0x3c5b9882	0.01340306
134	0x2f882bdd	2.4769423e-10
135	0x3c792980	0.015207648
136	0x3b4a4c75	0.0030868326
137	0x2e53b93a	4.814036e-11
138	0x00000004	6e-45
139	0x3bdbfe8e	0.006713695
140	0x3889a813	6.563975e-05
141	0x1b3390a7	1.4853273e-22
142	0x3c1e9d5b	0.009681071
143	0x3890c50a	6.9031565e-05
144	0x3b9dbf7a	0.0048140856
145	0x3cb5044e	0.02209678
146	0x3a00c64a	0.000491236
147	0x3bf5dd64	0.0075031985
148	0x3c50da08	0.012747295
149	0x24b67806	7.9133246e-17
150	0x00000004	6e-45
151	0x00000004	6e-45
152	0x3bfe0382	0.007751883
153	0x00000004	6e-45
154	0x3b8a9eec	0.0042303707
155	0x3d8f1e8b	0.069882475
156	0x00000004	6e-45
157	0x00000004	6e-45
158	0x3b8d358e	0.0043093627
159	0x00000004	6e-45
160	0x3a3f6ade	0.0007301996
161	0x3cb6bcdf	0.022306858
162	0x3b105215	0.002202158
163	0x3ac7bcc6	0.0015238754
164	0x3cf4d74a	0.029887814
165	0x00000004	6e-45
166	0x33982161	7.084123e-08
167	0x3ae3c09d	0.0017376129
168	0x3c1d0aa0	0.009585053
169	0x06a5f695	6.242842e-35
170	0x3c1dda55	0.009634574
171	0x3351e6ff	4.8871694e-08
172	0x3aed4c97	0.0018104491
173	0x2fde3e54	4.0425852e-10
174	0x368b8ffa	4.159284e-06
175	0x356c375e	8.799742e-07
176	0x3c3d3988	0.011549361
177	0x0b6d9e4e	4.5763635e-32
178	0x3c13d333	0.009022522
179	0x00000004	6e-45
180	0x08fa08f5	1.50484335e-33
181	0x00000004	6e-45
182	0x00000004	6e-45
183	0x3bb6e253	0.005581179
184	0x3c2e3946	0.010633772
185	0x030edf4b	4.1986377e-37
186	0x3b4b20b0	0.0030994825
187	0x00000004	6e-45
188	0x14129eb9	7.402419e-27
189	0x00000004	6e-45
190	0x013d2035	3.4736925e-38
191	0x00000004	6e-45
192	0x3bc088ba	0.005875674
193	0x3cd26467	0.025682641
194	0x3cf4b744	0.029872544
195	0x00000004	6e-45
196	0x0655bc40	4.0199152e-35
197	0x3bd73756	0.006567876
198	0x00000004	6e-45
199	0x3b7a8a10	0.0038229264
200	0x00000004	6e-45
201	0x00000004	6e-45
202	0x00000004	6e-45
203	0x00000004	6e-45
204	0x3b6f1bec	0.0036485149
205	0x15585f58	4.3696066e-26
206	0x00000004	6e-45
207	0x37cd5912	2.4479381e-05
208	0x00000004	6e-45
209	0x0382cd14	7.687797e-37
210	0x3c4445de	0.011979548
211	0x00000004	6e-45
212	0x3c3c28ea	0.011484364
213	0x00000004	6e-45
214	0x00000004	6e-45
215	0x00000004	6e-45
216	0x391daf92	0.00015038092
217	0x3cc3877d	0.023868317
218	0x3ce58373	0.028016781
219	0x3b5d7ccc	0.0033796309
220	0x3c92b478	0.01790832
221	0x3807cbeb	3.237642e-05
222	0x3b497c4c	0.0030744253
223	0x3b1b5a74	0.0023705037
224	0x00000004	6e-45
225	0x2f92324d	2.6592986e-10
226	0x3ccd0f71	0.025031777
227	0x3c230626	0.009950196
228	0x3ca8d3e9	0.02060886
229	0x3c09d02a	0.008411447
230	0x00000004	6e-45
231	0x3d117550	0.03551227
232	0x00000004	6e-45
233	0x00000004	6e-45
234	0x3339e2ab	4.3279822e-08
235	0x00000004	6e-45
236	0x36a4a489	4.9067353e-06
237	0x3ca1b116	0.019737761
238	0x3b046b24	0.0020205462
239	0x00000004	6e-45
240	0x31c76149	5.8027223e-09
241	0x00000004	6e-45
242	0x30d21049	1.528414e-09
243	0x15322737	3.597775e-26
244	0x223026a5	2.3872906e-18
245	0x3ca0d5ab	0.019633135
246	0x3c2d7c94	0.010588784
247	0x3cad2f49	0.021140711
248	0x3bfac661	0.007653043
249	0x264bef8d	7.0754425e-16
250	0x0cb00295	2.7118648e-31
251	0x00000004	6e-45
252	0x3b44365a	0.0029939623
253	0x00000004	6e-45
254	0x29a73d2a	7.4269e-14
255	0x00000004	6e-45

fcs1_batch.running_var f4 [400]
0	0x00000004	6e-45
1	0x00000004	6e-45
2	0x37c4274f	2.3383325e-05
3	0x36c460ef	5.8525397e-06
4	0x35532796	7.866123e-07
5	0x00000004	6e-45
6	0x3897f2c0	7.245457e-05
7	0x00000004	6e-45
8	0x3a278ee0	0.00063918345
9	0x3a581111	0.0008242289
10	0x379e262b	1.8852841e-05
11	0x00000004	6e-45
12	0x21368ae8	6.184784e-19
13	0x00000004	6e-45
14	0x35f5cd6c	1.8313708e-06
15	0x00000004	6e-45
16	0x2d804143	1.4580897e-11
17	0x00000004	6e-45
18	0x00000004	6e-45
19	0x188f99ae	3.711981e-24
20	0x34ab1954	3.186966e-07
21	0x39f44db2	0.00046597194
22	0x1278d4ca	7.8517285e-28
23	0x00000004	6e-45
24	0x388f4ab5	6.8326866e-05
25	0x38c6f729	9.487413e-05
26	0x39a5aac0	0.0003159847
27	0x00000004	6e-45
28	0x3a846392	0.0010100475
29	0x00000004	6e-45
30	0x00000004	6e-45
31	0x00000004	6e-45
32	0x3893fe3e	7.0568625e-05
33	0x369ebfbb	4.7310873e-06
34	0x00000004	6e-45
35	0x3a891828	0.001045947
36	0x00000004	6e-45
37	0x395ce0b3	0.00021064542
38	0x3a761095	0.0009386626
39	0x38f82052	0.00011831582
40	0x37b84ab9	2.1969305e-05
41	0x38327a63	4.255249e-05
42	0x00000004	6e-45
43	0x36010527	1.9225497e-06
44	0x24290731	3.6652125e-17
45	0x35ad16b8	1.2896116e-06
46	0x36caf163	6.0481702e-06
47	0x39328078	0.00017023261
48	0x36a08a5e	4.7844796e-06
49	0x073493c9	1.3585125e-34
50	0x35771061	9.2038505e-07
51	0x35efd60a	1.7869181e-06
52	0x2e99b850	6.990375e-11
53	0x3860af07	5.356877e-05
54	0x3a2150a5	0.00061536796
55	0x3a5e3126	0.00084759516
56	0x20b4741a	3.0570016e-19
57	0x383ed191	4.5494704e-05
58	0x315eebd6	3.243931e-09
59	0x215d5f66	7.500397e-19
60	0x00000004	6e-45
61	0x3896655b	7.171436e-05
62	0x00000004	6e-45
63	0x351cdf21	5.8439224e-07
64	0x00000004	6e-45
65	0x00000004	6e-45
66	0x391cf09a	0.0001496695
67	0x3a21a71d	0.00061665644
68	0x3573942a	9.074016e-07
69	0x37c8fa4f	2.3958417e-05
70	0x3ae1851c	0.0017205807
71	0x00000004	6e-45
72	0x35309d91	6.57944e-07
73	0x00000004	6e-45
74	0x3113e103	2.151922e-09
75	0x00000004	6e-45
76	0x3a89c88a	0.0010512036
77	0x38a12e2d	7.685679e-05
78	0x39be73c3	0.00036325873
79	0x3a196328	0.0005851262
80	0x212896c2	5.712014e-19
81	0x26804a38	8.901901e-16
82	0x00000004	6e-45
83	0x3a7d93d1	0.00096732104
84	0x39775f8d	0.00023591351
85	0x00000004	6e-45
86	0x00010fe6	9.7539e-41
87	0x35811117	9.616223e-07
88	0x36c27ac4	5.7959423e-06
89	0x39162c7f	0.00014321691
90	0x30ca38f9	1.4713627e-09
91	0x0006a49d	6.10065e-40
92	0x3520c64d	5.989321e-07
93	0x3788b55b	1.6296914e-05
94	0x00000004	6e-45
95	0x3300266d	2.983727e-08
96	0x00000004	6e-45
97	0x00000004	6e-45
98	0x3701ce3c	7.737017e-06
99	0x00000004	6e-45
100	0x00000004	6e-45
101	0x36446da9	2.9270107e-06
102	0x00000004	6e-45
103	0x00000004	6e-45
104	0x378e5c86	1.6970804e-05
105	0x384924ce	4.795641e-05
106	0x39ea7ff5	0.00044727293
107	0x35c6a2fa	1.4799582e-06
108	0x00000004	6e-45
109	0x00000004	6e-45
110	0x1044d6ea	3.8819748e-29
111	0x00000004	6e-45
112	0x00000004	6e-45
113	0x00000004	6e-45
114	0x38a2002c	7.724794e-05
115	0x1ec4dc5c	2.0843446e-20
116	0x38204ed3	3.8220383e-05
117	0x00000004	6e-45
118	0x00000004	6e-45
119	0x33a3b959	7.6239935e-08
120	0x1c04e788	4.3974383e-22
121	0x3974ca08	0.00023344916
122	0x00000004	6e-45
123	0x00000004	6e-45
124	0x2de18ec0	2.5642932e-11
125	0x00000004	6e-45
126	0x3a19b89c	0.0005863996
127	0x00000004	6e-45
128	0x333db928	4.417339e-08
129	0x00000004	6e-45
130	0x062976ae	3.187256e-35
131	0x00000004	6e-45
132	0x00000004	6e-45
133	0x3a43551d	0.00074513425
134	0x28c27bf0	2.1592076e-14
135	0x3a45fade	0.0007552336
136	0x391c2c69	0.00014893863
137	0x203febf6	1.6256402e-19
138	0x00000004	6e-45
139	0x396336b2	0.00021668783
140	0x3410cd94	1.3485834e-07
141	0x02dc3a1a	3.2359443e-37
142	0x3937f8e8	0.00017544965
143	0x32949297	1.7296129e-08
144	0x391ee494	0.00015153206
145	0x3a74c067	0.00093365315
146	0x36d4e33b	6.3445455e-06
147	0x39558c60	0.00020365557
148	0x3913783d	0.00014063805
149	0x0abb1a48	1.8017331e-32
150	0x00000004	6e-45
151	0x00000004	6e-45
152	0x390fba25	0.00013706887
153	0x00000004	6e-45
154	0x37250e1e	9.838053e-06
155	0x3b2c5155	0.0026293595
156	0x00000004	6e-45
157	0x00000004	6e-45
158	0x3939178b	0.00017651745
159	0x00000004	6e-45
160	0x35cf0217	1.542331e-06
161	0x3a736295	0.0009284404
162	0x359a7d2d	1.1510325e-06
163	0x377c052e	1.50215765e-05
164	0x398fc10b	0.00027418914
165	0x00000004	6e-45
166	0x2ad610b4	3.8025626e-13
167	0x37a45723	1.95909e-05
168	0x394b4846	0.00019386513
169	0x00000004	6e-45
170	0x39abe191	0.00032783722
171	0x2bbf12e3	1.3576608e-12
172	0x384df6a0	4.9105496e-05
173	0x2b0351f1	4.6654266e-13
174	0x2f9a7945	2.8098604e-10
175	0x2d1742b8	8.598171e-12
176	0x39a37b39	0.0003118159
177	0x00000004	6e-45
178	0x3893ea5e	7.0531605e-05
179	0x00000004	6e-45
180	0x0047e93e	6.603992e-39
181	0x00000004	6e-45
182	0x00000004	6e-45
183	0x3953bf2e	0.00020193748
184	0x39a53674	0.00031511823
185	0x000e2067	1.297321e-39
186	0x37c5cc5f	2.3579398e-05
187	0x00000004	6e-45
188	0x0cae8491	2.688873e-31
189	0x00000004	6e-45
190	0x00000004	6e-45
191	0x00000004	6e-45
192	0x390997d5	0.000131219
193	0x3a655e02	0.0008749665
194	0x3aa2e60f	0.0012428182
195	0x00000004	6e-45
196	0x00000004	6e-45
197	0x391ec517	0.00015141476
198	0x00000004	6e-45
199	0x38462490	4.724093e-05
200	0x00000004	6e-45
201	0x00000004	6e-45
202	0x00000004	6e-45
203	0x00000004	6e-45
204	0x37ba615f	2.221827e-05
205	0x00000004	6e-45
206	0x00000004	6e-45
207	0x309a7800	1.1239081e-09
208	0x00000004	6e-45
209	0x00000004	6e-45
210	0x39b3c043	0.00034284787
211	0x00000004	6e-45
212	0x3a0b765c	0.0005320066
213	0x00000004	6e-45
214	0x00000004	6e-45
215	0x00000004	6e-45
216	0x3284bc57	1.545247e-08
217	0x3aa47971	0.0012548399
218	0x3a2d60bd	0.00066138414
219	0x37a84a7e	2.0061849e-05
220	0x39bb215c	0.00035692274
221	0x3168affc	3.3860479e-09
222	0x3751e3b1	1.2510384e-05
223	0x37809d3a	1.5332003e-05
224	0x00000004	6e-45
225	0x210e7a55	4.8273376e-19
226	0x3ab0c1d9	0.0013485505
227	0x3a13dd0b	0.0005640543
228	0x39bee775	0.00036412073
229	0x39c274e1	0.00037089645
230	0x00000004	6e-45
231	0x3ad937d7	0.0016572428
232	0x00000004	6e-45
233	0x00000004	6e-45
234	0x2765439f	3.1816792e-15
235	0x00000004	6e-45
236	0x31636bc8	3.3094114e-09
237	0x3a2c2589	0.00065668725
238	0x37b93f6f	2.2083257e-05
239	0x00000004	6e-45
240	0x24c16614	8.3873335e-17
241	0x00000004	6e-45
242	0x24841fdd	5.729985e-17
243	0x00000004	6e-45
244	0x0de37ad7	1.4019528e-30
245	0x3a58d614	0.0008271646
246	0x39fbcafe	0.00048025692
247	0x3a67e443	0.00088459643
248	0x3952719b	0.00020069482
249	0x125ed8ca	7.031806e-28
250	0x00000004	6e-45
251	0x00000004	6e-45
252	0x38cff350	9.91585e-05
253	0x00000004	6e-45
254	0x164709e8	1.6078218e-25
255	0x00000004	6e-45
