ContinuousControl/critic.pth (torch_old, 556095 bytes, 17 tensors)

fcs0_batch.weight f4 [33]
0	0x3e9e2749	0.30889347
1	0x3f021d83	0.5082628
2	0x3d23c689	0.03998426
3	0x3e1bd22e	0.15216896
4	0x3e87867f	0.264698
5	0x3f0c23a3	0.5474188
6	0x3eb5411e	0.35401243
7	0x3f0a73c8	0.5408292
8	0x3ea9129e	0.33022016
9	0x3ecb245f	0.39676186
10	0x3e6d43a3	0.23170333
11	0x3e910903	0.28327188
12	0xba08a421	-0.00052124454
13	0x3dff1c72	0.124565974
14	0x3e41148f	0.18855499
15	0x3ed3ab53	0.41341648
16	0x3efd277d	0.4944419
17	0x3f03a244	0.5141947
18	0x3de04772	0.10951127
19	0x3e5c60d7	0.21521316
20	0x3ebebd20	0.37253666
21	0x3ee98251	0.45607236
22	0x3e8d06e6	0.27544326
23	0x3f12423f	0.57132334
24	0x3ea5e8a8	0.32404065
25	0x3ea9044b	0.33011088
26	0x3f199777	0.5999674
27	0x009b66b4	1.4271345e-38
28	0x3e551445	0.20808513
29	0x30102370	5.2437255e-10
30	0x2927e37f	3.727877e-14
31	0x3ccb4279	0.02481197
32	0x3da212a2	0.0791371

fcs0_batch.bias f4 [33]
0	0x3b29136b	0.0025798928
1	0xbc317a25	-0.010832344
2	0x3ba4b059	0.005025905
3	0xb90d67b9	-0.00013485448
4	0xbb997f1a	-0.004684341
5	0xbcb04cd6	-0.021521013
6	0xbb7e8133	-0.0038834333
7	0x3bc20302	0.0059207687
8	0x3bec5b4e	0.007213033
9	0x3c30e862	0.010797592
10	0xba3608fa	-0.00069440866
11	0x3b922dbc	0.0044610184
12	0xba4538a4	-0.0007523394
13	0xbbe934e7	-0.007116902
14	0xbc0152e9	-0.0078933025
15	0x39b66fe8	0.00034797122
16	0x3bc90a73	0.006135279
17	0xbb32918a	-0.0027247393
18	0xba8596e2	-0.0010192061
19	0x3bb832cf	0.005621291
20	0xbc035ef5	-0.008018245
21	0x3c2d74be	0.010586916
22	0x381e94e0	3.7808786e-05
23	0x3c7816e8	0.01514218
24	0xbbeb5a08	-0.0071823634
25	0xbc0913ca	-0.0083665345
26	0xbc476c93	-0.012171882
27	0xb6adb5a0	-5.1769457e-06
28	0xbaae5dbc	-0.0013303082
29	0xb5b456aa	-1.3436268e-06
30	0x3990414f	0.0002751448
31	0xb1075515	-1.969345e-09
32	0x3c3ded51	0.011592225

fcs0_batch.running_mean f4 [33]
0	0x3fb83b04	1.439301
1	0xbfb0757e	-1.3785856
2	0xbf19dd1e	-0.60103023
3	0x3e699e93	0.22814398
4	0x3d299ba6	0.041408204
5	0x3eb4f389	0.35342053
6	0x3b01b849	0.001979368
7	0xbec88e49	-0.39171055
8	0x3da03a2f	0.07823598
9	0x3ed346b6	0.41264886
10	0x3def713b	0.11691519
11	0xbe8e2c8c	-0.27768362
12	0x3ead0334	0.33791506
13	0x40444706	3.066835
14	0xc0353c8f	-2.8318212
15	0xbfbf6fc0	-1.4955978
16	0xbd23954d	-0.039937306
17	0x3d474cd9	0.048657272
18	0x3e163bcb	0.14671247
19	0xbd11e7ba	-0.035621382
20	0x3e8023c2	0.2502728
21	0x3d8caec7	0.06869274
22	0x3fe740a5	1.8066603
23	0x3ee12764	0.43975365
24	0x3e0a2e74	0.13494283
25	0xbd78acbe	-0.060711615
26	0x3ea12e56	0.31480664
27	0xbf7ffffc	-0.99999976
28	0xbe48cf3e	-0.19610307
29	0x00000000	0.0
30	0x3f7ffffc	0.99999976
31	0x00000000	0.0
32	0x3ee121c7	0.43971083

fcs0_batch.running_var f4 [33]
0	0x40b4320f	5.6311107
1	0x403749d7	2.8638818
2	0x404a5617	3.1615045
3	0x3e50aa14	0.2037738
4	0x3e2aaddb	0.16667883
5	0x3e968203	0.29396066
6	0x3e1bebff	0.15226744
7	0x40971b48	4.72208
8	0x3f104797	0.5635924
9	0x3f79a522	0.975176
10	0x4181c15c	16.219414
11	0x417f48d4	15.95528
12	0x4152b8c3	13.170108
13	0x41911141	18.133425
14	0x41551b0d	13.319104
15	0x415b8b73	13.721545
16	0x3e70737c	0.23481554
17	0x3e3f52ce	0.18683931
18	0x3e9b0230	0.30275106
19	0x3e7323bd	0.23744102
20	0x40d61ab5	6.69076
21	0x404edded	3.2322953
22	0x4089e469	4.309132
23	0x428f9591	71.79212
24	0x42947be6	74.24199
25	0x421596a3	37.397106
26	0x42069a20	33.650513
27	0x00000004	6e-45
28	0x41f94855	31.160318
29	0x00000004	6e-45
30	0x00000004	6e-45
31	0x00000004	6e-45
32	0x3dce335f	0.10068392

fcs1.weight f4 [400, 33]
0	0xacfd349a	-7.1965324e-12
1	0xaecec172	-9.402158e-11
2	0x28341002	9.995478e-15
3	0xa96fcbfd	-5.3245592e-14
4	0x296c4f3d	5.2471255e-14
5	0x31bb0ccd	5.4438716e-09
6	0xac87ed54	-3.8632795e-12
7	0xb57b2943	-9.356483e-07
8	0x2ced9471	6.7524254e-12
9	0xae566f77	-4.8756967e-11
10	0x28fbb822	2.7946453e-14
11	0x290e45ef	3.159099e-14
12	0xa56f00f8	-2.0730274e-16
13	0x2816642c	8.348394e-15
14	0xa7b625b8	-5.0556042e-15
15	0x2d696940	1.3267887e-11
16	0x2e341878	4.0948994e-11
17	0x333aa960	4.3460545e-08
18	0xa934fbba	-4.0186367e-14
19	0x28ccb4ec	2.2727012e-14
20	0xb2830b25	-1.5255475e-08
21	0xb19a1eca	-4.48549e-09
22	0xa861b00a	-1.2528181e-14
23	0xaef67ffa	-1.1209518e-10
24	0xa81c13f0	-8.664063e-15
25	0x294a08ea	4.4860742e-14
26	0xb435c7e7	-1.6929663e-07
27	0x253f15ae	1.6573955e-16
28	0x294532c8	4.3786833e-14
29	0xa2d4d4ed	-5.768816e-18
30	0xa53ec226	-1.6545653e-16
31	0x1d5d9d18	2.9330322e-21
32	0xa55b5761	-1.9024827e-16
33	0xba888e11	-0.0010418316
34	0xbb5463dc	-0.0032408154
35	0x38b05ced	8.409643e-05
36	0xb8cfcc3a	-9.908569e-05
37	0x39c7a93d	0.0003808233
38	0xbacb2473	-0.0015498534
39	0x3a99be8e	0.0011729763
40	0x3b94c787	0.004540387
41	0x39c39bab	0.0003730928
42	0xbb95ab70	-0.004567556
43	0x3979e119	0.00023830346
44	0xba7fb570	-0.00097545143
45	0xb6a4b5b0	-4.908732e-06
46	0xb89e9e78	-7.563544e-05
47	0x37530309	1.2577287e-05
48	0x3b119a94	0.002221738
49	0x3b17ca8c	0.0023161499
50	0xb9f31f23	-0.0004637177
51	0xb8790091	-5.9366754e-05
52	0xba5c4a8d	-0.0008403443
53	0xbbd39d3b	-0.0064579523
54	0xbbd72595	-0.0065657594
55	0x39f0f976	0.0004596223
56	0x3bd10159	0.0063783345
57	0x39bf7720	0.00036519114
58	0x3aebc7d9	0.0017988636
59	0x3b884faf	0.0041598896
60	0x3546b3a6	7.402217e-07
61	0xb93bb022	-0.00017899324
62	0xb0ea3fd0	-1.7043877e-09
63	0x36147bf7	2.2125876e-06
64	0x2cbbb396	5.3347977e-12
65	0x37d0bfd7	2.4884865e-05
66	0xb4161fee	-1.3981455e-07
67	0xb840b93e	-4.5948887e-05
68	0xab9aee6d	-1.1008535e-12
69	0xac13f20f	-2.1024326e-12
70	0x336ca1cb	5.509518e-08
71	0xb84cd3b1	-4.8834543e-05
72	0x3708ad35	8.14656e-06
73	0x39254066	0.00015759617
74	0xb7c65eec	-2.364764e-05
75	0xb5f57e02	-1.8290596e-06
76	0x336e2e28	5.5455672e-08
77	0x355d1d26	8.237133e-07
78	0x296035c7	4.9784636e-14
79	0x2ca910aa	4.805119e-12
80	0xb0845f01	-9.631266e-10
81	0xb7b1603b	-2.1144855e-05
82	0x38b04bcd	8.406453e-05
83	0x37df68bf	2.6632448e-05
84	0x2c491590	2.8575788e-12
85	0x3189eb72	4.013992e-09
86	0x374854ee	1.1940703e-05
87	0x391b277a	0.00014796658
88	0x3523d101	6.102637e-07
89	0xba4b378f	-0.00077521143
90	0x365c8a46	3.286304e-06
91	0xb82f6267	-4.1814896e-05
92	0xb989fe87	-0.00026320314
93	0xa9d8d942	-9.630015e-14
94	0xadd94590	-2.4700936e-11
95	0x2645a9e6	6.857836e-16
96	0x28d13ca7	2.3229965e-14
97	0x1f15d95c	3.1731773e-20
98	0xabdf5ddc	-1.5871154e-12
99	0xbb0a7802	-0.002112866
100	0x37c132b8	2.303101e-05
101	0xae81bc5d	-5.899701e-11
102	0x370b2114	8.292747e-06
103	0x3ac2968b	0.0014845891
104	0x38ff0142	0.00012159582
105	0xb894934d	-7.084627e-05
106	0x3c660da7	0.014041341
107	0x3af2c90c	0.0018523051
108	0x3b8e52ba	0.004343358
109	0xba1f0584	-0.00060661905
110	0x395c13a4	0.00020988152
111	0xab3556ff	-6.442485e-13
112	0xb73fe077	-1.1436749e-05
113	0xb894fa97	-7.103866e-05
114	0x3aae0fee	0.0013279894
115	0x3b352bc1	0.0027644488
116	0x3b1952f6	0.0023395396
117	0x3580e994	9.604723e-07
118	0xb699d6cb	-4.5847605e-06
119	0xbb25cee9	-0.002530033
120	0x3add1794	0.0016867989
121	0x3acf2557	0.0015803975
122	0xbab55b42	-0.0013836401
123	0x390ab1fc	0.0001322701
124	0xbb464c2a	-0.00302578
125	0xbb2d56ea	-0.002644951
126	0xac45dda9	-2.811843e-12
127	0x35e2d221	1.6899468e-06
128	0xa59d6b78	-2.7307982e-16
129	0x29dc36fc	9.779501e-14
130	0x2287a266	3.676377e-18
131	0xb0953e53	-1.085889e-09
132	0x3bd45423	0.0064797564
133	0x3c0dd7e0	0.008657426
134	0xbb921136	-0.004457618
135	0xbc6a52b3	-0.014301944
136	0x3c1c664a	0.009545872
137	0x3b24b126	0.0025130003
138	0xbc5a17da	-0.013311351
139	0xbcc37a46	-0.023862015
140	0x3cca5cdc	0.024702482
141	0x3cab85f5	0.0209379
142	0x3c903077	0.017601235
143	0x3c97ae2d	0.01851567
144	0xb9758712	-0.00023415338
145	0x39bd1f20	0.0003607208
146	0x3b598289	0.0033189377
147	0xbcad9bc8	-0.021192446
148	0xbbd1e11f	-0.0064050104
149	0x3c11a633	0.008889723
150	0xbad23826	-0.0016038462
151	0x3a136c61	0.00056237547
152	0xbc1f1d35	-0.009711553
153	0xbc756171	-0.014976845
154	0x3b5b80d5	0.0033493538
155	0x3c968854	0.018375553
156	0xb8778b72	-5.9019258e-05
157	0x3bf9f67e	0.007628261
158	0xbc6931f6	-0.014233103
159	0x3a85aa23	0.00101978
160	0xbc017740	-0.007901967
161	0x36fd8915	7.555946e-06
162	0xb950d902	-0.00019917267
163	0x30f423dc	1.7763528e-09
164	0xbb00720c	-0.0019599227
165	0x3c54c3d4	0.012986142
166	0xbbbb9124	-0.005724089
167	0x39f7936b	0.00047221346
168	0x398edef6	0.0002725047
169	0x3b5d97b7	0.0033812353
170	0x3baff564	0.005369829
171	0xbc01bc81	-0.007918478
172	0x3c0bd069	0.008533576
173	0xba044699	-0.000504592
174	0x3aca3bb8	0.0015429175
175	0xbc0e148c	-0.008671891
176	0xbc0d83aa	-0.008637348
177	0xb87fe1d1	-6.1007046e-05
178	0xb9a63410	-0.00031700777
179	0xba60c726	-0.00085745973
180	0x3c54f09a	0.012996817
181	0xbc40b89d	-0.011762765
182	0xbc0066f0	-0.007837042
183	0x3b26429e	0.0025369297
184	0x3b9702d8	0.0046084933
185	0x3c079fc1	0.008277834
186	0xbc1d54be	-0.009602724
187	0xb8f0010e	-0.00011444288
188	0xbb5cc0a4	-0.0033684159
189	0xbc7b28fb	-0.015329595
190	0x3be6c688	0.0070427097
191	0x3c49f304	0.012326006
192	0x37b86e4c	2.198587e-05
193	0xbb5eea77	-0.0034014264
194	0x346dd685	2.2150387e-07
195	0x38397bea	4.422284e-05
196	0xaf51e987	-1.9091405e-10
197	0x3a3cbd8a	0.00071998744
198	0xbb7c96f8	-0.0038542133
199	0xbc17006c	-0.009216409
200	0xb94acd55	-0.00019340713
201	0xbab74feb	-0.0013985609
202	0x3ae9eff0	0.0017847996
203	0xbb2b1c40	-0.0026109368
204	0x3b620d1c	0.0034492677
205	0x3b18f3cc	0.0023338674
206	0x3bb99070	0.0056629702
207	0x3b134a66	0.0022474765
208	0x3a30eba9	0.0006748983
209	0xbac6996c	-0.0015151924
210	0xb589a99e	-1.025666e-06
211	0xba189bf5	-0.0005821579
212	0xba1daa16	-0.00060144195
213	0x3ae08408	0.0017129192
214	0x3be1582e	0.006876967
215	0x3bbda72e	0.0057877516
216	0x39bc5fa2	0.00035929406
217	0xba2a11c7	-0.00064876344
218	0xbad67fde	-0.0016365012
219	0xbc273a6a	-0.010206798
220	0xbaab1690	-0.0013052989
221	0x3bfb8a9b	0.007676435
222	0x3b0fe8e7	0.002195889
223	0x3b28ab29	0.0025736785
224	0x3c3c4c04	0.011492733
225	0xb8e76854	-0.00011034371
226	0xba81c732	-0.0009901284
227	0x348ed470	2.660413e-07
228	0x36995e1e	4.570712e-06
229	0x2f21de8e	1.4721932e-10
230	0xba281bea	-0.0006412851
231	0xbc1a329d	-0.009411481
232	0xbc2fb5c4	-0.010724489
233	0x39e93c48	0.00044486136
234	0x39fdb7e1	0.0004839292
235	0x3c388aca	0.011263559
236	0xbbe2d470	-0.006922297
237	0x3bb465c4	0.0055052955
238	0xbc8b4ea4	-0.017005272
239	0xbb844a00	-0.004037142
240	0x3bc895f6	0.0061213924
241	0xbb2584bf	-0.0025256125
242	0xbb93b7cd	-0.0045079947
243	0xb83bb4a0	-4.4752494e-05
244	0x348ceb80	2.624838e-07
245	0xb98ab03e	-0.00026452722
246	0xbbee9bcc	-0.007281756
247	0xbc367aa5	-0.011137639
248	0xbad38456	-0.0016137462
249	0x3b3d5ee3	0.0028895668
250	0x3a507f39	0.0007953528
251	0xba58c0b7	-0.0008268463
252	0xbc2527cc	-0.010080289
253	0xba31bb8b	-0.000677996
254	0xbc783eee	-0.015151722
255	0xbb724c1c	-0.0036971634

fcs1.bias f4 [400]
0	0xb1d43585	-6.1760965e-09
1	0x3a83a173	0.0010042622
2	0xb880d80c	-6.1437575e-05
3	0xbcd30a76	-0.025761824
4	0x3c2dce11	0.010608212
5	0x3b71eb13	0.0036913797
6	0xb9b1ae45	-0.00033889912
7	0x3b6e2bde	0.0036342065
8	0x3d038fb3	0.032119464
9	0x3cf5b23e	0.029992219
10	0x2555a6d4	1.8531329e-16
11	0xbbef1819	-0.007296574
12	0x382521a4	3.9370396e-05
13	0x3c07e559	0.008294427
14	0xb8d1ee60	-0.000100102974
15	0x395d1d30	0.00021087076
16	0xbc831346	-0.016000401
17	0x2dcc681a	2.3238345e-11
18	0xbb016e96	-0.0019749752
19	0x3a21df36	0.00061749236
20	0x2292133b	3.959374e-18
21	0xbd2893c6	-0.041156553
22	0x39a5cbd5	0.0003162312
23	0x3b4bcc06	0.003109695
24	0xbd9a484f	-0.07533323
25	0xbc8bec70	-0.017080516
26	0x3cc48dd3	0.023993408
27	0xbc325ef5	-0.010886897
28	0xbcb1c6d7	-0.02170126
29	0x3c1f7734	0.00973301
30	0xbc5036e5	-0.0127084
31	0xbc37e8da	-0.01122495
32	0xbcb09d01	-0.02155924
33	0x39146f8a	0.00014155931
34	0xbdbad284	-0.09122184
35	0x3c9b760e	0.018977191
36	0x3c2fe230	0.01073508
37	0x3cd6b5dc	0.026209764
38	0xbbf95911	-0.0076094945
39	0x3c900e55	0.017584959
40	0xbc65bb7a	-0.014021749
41	0x3cbf5614	0.023356475
42	0x3bf52053	0.00748066
43	0xb7e9e852	-2.7883947e-05
44	0xbc182e2a	-0.00928835
45	0xa2c70c12	-5.395184e-18
46	0xbc45afda	-0.012065852
47	0xbcbee9d8	-0.023304865
48	0xbba90523	-0.005158083
49	0xbce50620	-0.027957022
50	0xba9ac384	-0.0011807536
51	0xba8a5e35	-0.001055664
52	0xa949d6a6	-4.4817143e-14
53	0xba6ec93f	-0.00091089675
54	0x3d92fb3c	0.071768254
55	0x3d6f3160	0.058396697
56	0xab54895a	-7.5508144e-13
57	0xbd722624	-0.059118405
58	0xbd1ba957	-0.038003292
59	0xb98175fe	-0.00024692708
60	0xbbc40e48	-0.005983148
61	0xbd3e9530	-0.046528995
62	0xbd855098	-0.06509513
63	0x3ac4c4e9	0.0015012297
64	0xa643dadb	-6.795082e-16
65	0xba8b7990	-0.0010641087
66	0x3cc51fb9	0.024062978
67	0xbd7723a7	-0.060336735
68	0x3d3618a8	0.044457108
69	0xbce08b77	-0.027410252
70	0x3d55476f	0.052070078
71	0xba1d8a0e	-0.00060096465
72	0x3d07fb1d	0.033198465
73	0x3bb79848	0.00560287
74	0xbab4b9d8	-0.0013788296
75	0xbb801e6d	-0.003909877
76	0xbd01eae4	-0.03171815
77	0xb96385e1	-0.00021698281
78	0xac11b8d0	-2.070833e-12
79	0xbc9c9a8e	-0.019116666
80	0xbd8e4ef1	-0.06948651
81	0x3c6585ae	0.0140089225
82	0xb984ee53	-0.00025354567
83	0x3c3712f5	0.011173953
84	0x39e5e9de	0.00043852528
85	0xba7bda45	-0.0009607415
86	0xbdc417db	-0.095748626
87	0xbdd0a2ea	-0.101873234
88	0xbc3260a9	-0.010887303
89	0xbd8ba491	-0.06818498
90	0x39eaafd9	0.00044762975
91	0xbdd33c5a	-0.103142455
92	0x3cb4a033	0.022049045
93	0x3caac0fd	0.020843977
94	0x39f764fb	0.00047186748
95	0x3d05aa46	0.03263309
96	0x3c7c4127	0.015396393
97	0xbde1054a	-0.10987337
98	0x3cb4bf4e	0.022063877
99	0x2f0355d4	1.1944873e-10
100	0xb693181b	-4.3837476e-06
101	0xbd08ab6f	-0.033366617
102	0xb23d3502	-1.10133005e-08
103	0xbcf740ad	-0.030182207
104	0xbbcfcfd5	-0.006341914
105	0x3caad5a3	0.020853823
106	0x3ace912c	0.0015759817
107	0x395f97e5	0.00021323522
108	0xba9b732b	-0.0011859884
109	0xbd878707	-0.06617551
110	0xbcad35e6	-0.021143865
111	0xb70499b2	-7.903598e-06
112	0xb0d70fb0	-1.5647768e-09
113	0xbc35ba5c	-0.011091795
114	0xbbddd6af	-0.006769977
115	0xbcc7db37	-0.024396522
116	0xbd4efac7	-0.05053213
117	0xb80bc825	-3.332658e-05
118	0x3989c3c5	0.00026276536
119	0x3d11cc2a	0.035595097
120	0xbd15ab12	-0.0365401
121	0xbd357a37	-0.044306006
122	0xbcbda4c5	-0.023149857
123	0x35dd6749	1.6495843e-06
124	0x3b612054	0.0034351544
125	0xb9aa2ef3	-0.00032459907
126	0xbc87589c	-0.016521744
127	0xbda5ad36	-0.08089678
128	0xb49b5784	-2.8934676e-07
129	0x358f50fe	1.0677902e-06
130	0x3b98e4cc	0.0046659466
131	0x3b684dfe	0.0035446878
132	0xbd8e054f	-0.06934606
133	0xbb82e83c	-0.0039949697
134	0x3a8d17f2	0.0010764583
135	0xbcb298eb	-0.021801433
136	0x3cfe7503	0.031061655
137	0x33a8a3f9	7.852936e-08
138	0xbde2f131	-0.1108116
139	0x3c172fb2	0.00922768
140	0xbbc00520	-0.005859986
141	0xbda1cc6f	-0.07900321
142	0x3d33083e	0.043709032
143	0xbd4cdafa	-0.05001352
144	0xbd2c72b1	-0.042101566
145	0x3d84dea7	0.0648778
146	0x3c93e35e	0.018052753
147	0x3ca1d465	0.019754598
148	0x374e351e	1.2290924e-05
149	0xbdb1f6b2	-0.086896315
150	0x3c0a3722	0.008435996
151	0xbbee5c49	-0.007274185
152	0xbda6790a	-0.08128555
153	0xbcabb160	-0.020958602
154	0xb8144888	-3.53535e-05
155	0x3da3c105	0.079958
156	0xb33ee761	-4.444826e-08
157	0x2c465e06	2.8189686e-12
158	0xbd9ada27	-0.075611405
159	0xbdac910d	-0.08426104
160	0x3c7e3205	0.015514855
161	0x3c845066	0.016151618
162	0x3a66f74c	0.0008810654
163	0xbd11dc78	-0.035610646
164	0xbd7ab4af	-0.06120747
165	0x3bb80d9b	0.0056168563
166	0xb24c0b8e	-1.187699e-08
167	0xb103a407	-1.9156248e-09
168	0xbd1e5161	-0.038651828
169	0xbd64d548	-0.055867463
170	0xbd95d315	-0.07315651
171	0xbd121dd4	-0.035672978
172	0xb1a797a4	-4.8775792e-09
173	0xac954df6	-4.24349e-12
174	0xbc81f0ec	-0.01586195
175	0xbb6aa0e2	-0.003580146
176	0x3b682a51	0.0035425613
177	0xb9025380	-0.00012428872
178	0x3cb5ad92	0.022177491
179	0xb90ab8c2	-0.00013229533
180	0x3573151a	9.055526e-07
181	0x3cad0f06	0.021125328
182	0xbd22617f	-0.03964376
183	0xbd9bea53	-0.07613053
184	0xbce9147a	-0.028452147
185	0x3baf75c1	0.0053546135
186	0x3c897ff9	0.016784655
187	0xbc1a937c	-0.009434577
188	0xbc400239	-0.01171928
189	0xbd977a63	-0.0739639
190	0xbd4093f6	-0.047016107
191	0x3bef51b5	0.0073034414
192	0x3bd3a8d6	0.006459336
193	0x3d4f7aa4	0.05065407
194	0x3c4832c1	0.012219132
195	0x3b1c5e9e	0.0023860107
196	0xbd0330aa	-0.03202883
197	0x3ccb22f8	0.024796948
198	0x3c56906d	0.013095957
199	0x3b30b360	0.0026962385
200	0xbdb5270a	-0.08845337
201	0xbcca6cac	-0.024710022
202	0x385ecc4a	5.3119184e-05
203	0xbcaf39e8	-0.021389917
204	0xbc200d07	-0.009768731
205	0xbcdd6282	-0.027024511
206	0xb443c016	-1.823067e-07
207	0x3d01348a	0.031544246
208	0xbba2c7f8	-0.004967686
209	0x3b964ed0	0.004587032
210	0x3cb2893d	0.021793956
211	0xab8ad797	-9.865328e-13
212	0xbc91b385	-0.017785797
213	0xbc9d6f3e	-0.019218083
214	0xb6c32f35	-5.8169485e-06
215	0xbd21fa04	-0.039545074
216	0xbdbf075f	-0.09327578
217	0x3d0fb6f1	0.035086576
218	0x3d1634bb	0.03667138
219	0xbcc05593	-0.023478305
220	0xbd89196b	-0.06694301
221	0xb9f4b1f2	-0.00046671886
222	0x3a8efbc6	0.0010908775
223	0xb7042e5f	-7.87861e-06
224	0x27228533	2.2554224e-15
225	0xb88b1510	-6.63196e-05
226	0x3d053f60	0.032531142
227	0x3cb88c63	0.02252788
228	0x3cf998aa	0.030468304
229	0xbcfa8d52	-0.030584965
230	0xbdaed2f9	-0.085363336
231	0x3cf861ca	0.030320067
232	0x3b38b4df	0.002818398
233	0xbb18ee83	-0.0023335523
234	0xb793a864	-1.7602179e-05
235	0xb397886d	-7.056301e-08
236	0xbdc84140	-0.097780704
237	0xbc663c7e	-0.014052508
238	0xbcac0606	-0.020998966
239	0xbc25275a	-0.010080183
240	0xb89d4f26	-7.501086e-05
241	0xb6aaaf7a	-5.086823e-06
242	0xb9fe7d93	-0.00048540215
243	0x3cd2894c	0.025700234
244	0xbc040f8e	-0.008060349
245	0xbd190a01	-0.037363056
246	0xbd594672	-0.053045698
247	0x3ce23089	0.027611034
248	0xbadef631	-0.0017010627
249	0x3ca4b2e8	0.02010484
250	0xbda51cfd	-0.0806217
251	0xbde1e92f	-0.11030804
252	0xbd490dca	-0.049085416
253	0x3c0eca7d	0.008715269
254	0xbc22f390	-0.009945765
255	0xbbd9ca23	-0.006646411

fcs1_batch.weight f4 [400]
0	0x32c9bd74	2.3485633e-08
1	0x3b2d56fb	0.002644955
2	0x34ca198f	3.7644028e-07
3	0x36135711	2.1955386e-06
4	0x3d5751d2	0.052568264
5	0x3ca8ef67	0.020621968
6	0x3c2181b5	0.009857585
7	0x3c9c87b6	0.01910768
8	0x3e7ce6c1	0.246974
9	0x3e0002ae	0.12501022
10	0x32b29c00	2.0792868e-08
11	0x3d7f7055	0.062362988
12	0x390f91ea	0.000136919
13	0x3c7e347e	0.015515445
14	0x3993f697	0.0002822175
15	0xb93b0973	-0.0001783723
16	0x391412b0	0.00014121342
17	0x2eb2bacd	8.127685e-11
18	0x3b795174	0.0038042935
19	0x3b6f5984	0.0036521861
20	0x32a712d6	1.9449924e-08
21	0x3e69ba93	0.22825079
22	0x3aecca0f	0.0018065589
23	0x3bd90608	0.0066230334
24	0x3d730e39	0.059339736
25	0x3e79a894	0.24380714
26	0x3dc49f18	0.09600657
27	0x2ee4c2be	1.0402833e-10
28	0x3e99e787	0.30059454
29	0x3ca193bc	0.019723766
30	0x3e0347c2	0.12820342
31	0x399efc8e	0.00030324276
32	0x3e392771	0.18081452
33	0x38be48fa	9.073499e-05
34	0x3c99b1f9	0.018761622
35	0x3e4cc7a7	0.19998036
36	0x3d883a35	0.06651727
37	0x3e38f538	0.18062294
38	0x3e62cc13	0.2214816
39	0x3d40a24e	0.047029786
40	0x3dabea19	0.0839426
41	0x3d7dbad8	0.061945766
42	0x3c611a89	0.013739237
43	0x30fbe2fc	1.8327166e-09
44	0x3de1cc70	0.110253215
45	0x3410c497	1.3482564e-07
46	0x3db6e2d7	0.08929985
47	0x3d325c78	0.043545216
48	0x3dbfb583	0.093607925
49	0x3d1ee8a8	0.038796097
50	0x39f3ae19	0.00046478285
51	0x3b06b461	0.0020554292
52	0x34369a41	1.7006188e-07
53	0x3b66ad44	0.003519849
54	0x3e828a7f	0.2549629
55	0x3e5fa11f	0.21838807
56	0x33b639ba	8.485536e-08
57	0x3bb125ee	0.005406133
58	0x3d7a7d67	0.06115475
59	0x37e5f1f3	2.7411594e-05
60	0x3d864052	0.06555237
61	0x3c16a17b	0.009193773
62	0x3bb5df0d	0.0055502714
63	0x3bc1669e	0.0059021255
64	0x33bd8c0e	8.826474e-08
65	0x3d29100b	0.041275065
66	0x3de6c832	0.11268653
67	0x3e0fc3d4	0.14039546
68	0x3e3264b2	0.17421225
69	0x3793ec47	1.763379e-05
70	0x3e6215bb	0.22078602
71	0x3b89bf0f	0.004203684
72	0x3e0637cb	0.13107221
73	0x3d2b0d42	0.04176069
74	0x3a3fe16f	0.0007319664
75	0x3c0b85c6	0.008515781
76	0x3e7c0608	0.24611676
77	0xb94fef0a	-0.00019830107
78	0xab61c7b5	-8.0213207e-13
79	0x3e7bd3c7	0.24592505
80	0x3d4a5c69	0.049404535
81	0x3e2c2842	0.16812232
82	0x3a6f8e94	0.0009138372
83	0x3e6f50e5	0.23370703
84	0x3e41b982	0.18918422
85	0x2b17cff9	5.3934597e-13
86	0x3b63458a	0.00346789
87	0x3e02ee26	0.12786159
88	0x3660bbfd	3.3488025e-06
89	0x3c52a0fb	0.012855764
90	0x3b4bf8ca	0.0031123632
91	0x3d451c32	0.048122592
92	0x3e053bb6	0.13011059
93	0x3e094fca	0.13409343
94	0x3c78967a	0.015172595
95	0x3e861f1f	0.2619562
96	0x3db24a0e	0.08705531
97	0x3d551846	0.052025102
98	0x3e051d2c	0.1299941
99	0x373b8e61	1.1179219e-05
100	0x38f32a54	0.00011595027
101	0x3db98017	0.09057634
102	0x37102298	8.591123e-06
103	0x3d533d4a	0.05157212
104	0x3e0f4fe4	0.1399532
105	0x3e52c0f2	0.20581415
106	0x3bea80fb	0.007156489
107	0x3b85215a	0.0040628137
108	0x397e2ec3	0.00024240748
109	0x3e0beed0	0.13665318
110	0x3d8326a9	0.06403858
111	0x3860793f	5.351868e-05
112	0x35f7764d	1.8437364e-06
113	0x3d5044b2	0.050846763
114	0x3bb6f29b	0.00558312
115	0x3b83e443	0.0040250137
116	0x3dba681a	0.09101887
117	0x31510064	3.0413725e-09
118	0x3d204ca5	0.039135594
119	0x3e027132	0.12738493
120	0x341ea58e	1.4775125e-07
121	0x3de4db57	0.11174648
122	0x38519dfe	4.9976625e-05
123	0x3887e0dd	6.479186e-05
124	0xb92fdc70	-0.0001677142
125	0x39c724a1	0.00037983528
126	0x3de44e17	0.11147707
127	0x3dc2404a	0.094849184
128	0x37ec01f9	2.8134311e-05
129	0xb675bc0a	-3.6617298e-06
130	0x3c35261f	0.011056452
131	0x3ca685de	0.020327505
132	0x3e1e1da1	0.1544099
133	0x3e390780	0.18069267
134	0x3ab6472d	0.001390671
135	0x3e7b1359	0.245191
136	0x3e268905	0.16263206
137	0x36489795	2.9890555e-06
138	0x3c9a4b39	0.018834697
139	0x3e778f78	0.24175823
140	0x3cd43dc1	0.025908353
141	0x3d0cc88f	0.034370955
142	0x3e6306ca	0.22170559
143	0x3a8ac8b0	0.0010588374
144	0x3dca5456	0.09879367
145	0x3e8467bc	0.25860393
146	0x3de31722	0.110883966
147	0x3e2d03b5	0.16895945
148	0x39389e1a	0.00017606505
149	0x3c11e20b	0.0089039905
150	0x3c48934f	0.012242152
151	0x3c06deda	0.008231843
152	0x3e0fa3a6	0.1402727
153	0x3785b124	1.5937323e-05
154	0x38a9f29b	8.103737e-05
155	0x3e8c33c1	0.27383235
156	0x380aaa59	3.3060413e-05
157	0x358777cb	1.0093148e-06
158	0x3e0261bf	0.127326
159	0x3e2e79cb	0.17038648
160	0x3d970ea9	0.07375843
161	0x3e6d4f0d	0.23174687
162	0x3db8c952	0.09022774
163	0x3a330cd1	0.0006830218
164	0x3d6a845e	0.05725514
165	0x3d07fbfa	0.033199288
166	0x39906e3d	0.00027547954
167	0x363817e5	2.7432045e-06
168	0x399c16e0	0.00029771682
169	0x3cdd6df5	0.02702997
170	0x3e0be523	0.13661627
171	0x36319c59	2.6466062e-06
172	0x375c6fe4	1.3139073e-05
173	0x358f5c2d	1.0681157e-06
174	0x3d29e8ef	0.04148191
175	0x3b41acd6	0.002955248
176	0x3db73e5f	0.08947443
177	0x39ec2b74	0.00045045803
178	0x3d73df1c	0.059538946
179	0x3b03bb72	0.002010074
180	0x357feab5	9.5336446e-07
181	0x3d8be789	0.06831271
182	0x3ccb848a	0.024843473
183	0x3d54bd7e	0.051938526
184	0x3e1048f2	0.14090326
185	0x3de05b1f	0.1095488
186	0x3dbde333	0.092718504
187	0x3b5f67d5	0.0034088988
188	0x3ca2e2ee	0.0198836
189	0x3d33189b	0.043724637
190	0x3cb6172d	0.022227848
191	0x3ca90993	0.020634448
192	0x3e2e85db	0.1704325
193	0x3e374a7e	0.1789951
194	0x3e75bc11	0.23997523
195	0x3b6ad8b1	0.0035834725
196	0x3d35862a	0.044317402
197	0x3db649dd	0.08900807
198	0x3cdad24e	0.02671161
199	0x3c7df748	0.015500851
200	0x3e18ad14	0.14909774
201	0x3d841468	0.06449205
202	0x39aeaecd	0.00033318103
203	0x3d35f19e	0.044419877
204	0xb34fef51	-4.84136e-08
205	0x3991e6be	0.00027828472
206	0x37261935	9.90024e-06
207	0x3e182fa2	0.1486192
208	0x3b182259	0.0023213832
209	0x3c956f4c	0.018241547
210	0x3e21a03b	0.1578378
211	0x32910c22	1.6885739e-08
212	0x3d959d1f	0.07305359
213	0x3c5844de	0.013200013
214	0x38912feb	6.923064e-05
215	0x3dcee0be	0.1010146
216	0x3e21063c	0.15725034
217	0x3e61f867	0.22067414
218	0x3e7b90c2	0.2456694
219	0x3e13fadc	0.14451164
220	0x3b0d729f	0.0021583212
221	0x3acc2622	0.0015575329
222	0x3a52f102	0.0008046777
223	0x2ab78b34	3.2603922e-13
224	0x3621b59c	2.409658e-06
225	0x36c930e2	5.9959575e-06
226	0x3e43041f	0.19044541
227	0x3dea43ef	0.114387386
228	0x3e3a1253	0.18171053
229	0x3e3337bf	0.17501734
230	0x3e1292f2	0.14313868
231	0x3e88f0df	0.2674627
232	0x3dec5df2	0.11541356
233	0x3e1193de	0.14216563
234	0x39abb10e	0.00032747578
235	0x37ab002e	2.0384872e-05
236	0x3da829ef	0.08211123
237	0x3e1d32ee	0.1535146
238	0x3b9ca811	0.0047807773
239	0x3cd6678c	0.026172422
240	0x38bcb15f	8.9975765e-05
241	0x37eee29c	2.8477334e-05
242	0x3b7ec65f	0.0038875563
243	0x3d836fc4	0.06417802
244	0x3d25b942	0.04045988
245	0x3df556d0	0.11979449
246	0x3e151bd7	0.14561401
247	0x3ddc5492	0.10758318
248	0x3e39d700	0.18148422
249	0x3d80afaa	0.06283505
250	0x3b450ede	0.0030068676
251	0x3d5b3f89	0.05352739
252	0x3da78a09	0.08180625
253	0x3dc38b15	0.09548012
254	0x3c89ce21	0.016821923
255	0xbad13d17	-0.0015963641

fcs1_batch.bias f4 [400]
0	0xb1803249	-3.731007e-09
1	0xba88f7a4	-0.0010449779
2	0x329ea360	1.8467915e-08
3	0x370d95c0	8.439121e-06
4	0xbab0cd9d	-0.0013489012
5	0x3b5a8d60	0.0033348426
6	0xbb1b723f	-0.002371922
7	0x3ba0ac1f	0.004903331
8	0x3b151ae6	0.0022751628
9	0xb99efa0e	-0.00030322414
10	0xad7e43d9	-1.4453294e-11
11	0x3b266d13	0.0025394603
12	0xb9385c08	-0.00017581892
13	0x3a962866	0.0011456131
14	0x3a50196c	0.00079383585
15	0xb90bd44a	-0.00013335157
16	0x390baa6a	0.00013319557
17	0xba02bed3	-0.00049875415
18	0xb9c03b18	-0.00036665122
19	0x39c23ad4	0.00037046394
20	0x2ae2e04a	4.0301296e-13
21	0xbb93814a	-0.0045014964
22	0x39c40a8b	0.00037391888
23	0xb973a480	-0.00023235567
24	0x3a3fc580	0.00073155016
25	0x3c2999fc	0.010351654
26	0x3bc4e7ee	0.0060090935
27	0xae87f0b7	-6.181849e-11
28	0x3bd27229	0.0064223004
29	0xbb2611da	-0.002534023
30	0xbb82ef5c	-0.003995819
31	0xb91a72b4	-0.00014729315
32	0x3ab7428f	0.0013981628
33	0x37c02de2	2.290955e-05
34	0x3ad80409	0.0016480695
35	0x3c03066c	0.007997137
36	0x3b3d0798	0.0028843638
37	0x3b9856f5	0.004649038
38	0xbc5a1070	-0.013309583
39	0x39d65ea0	0.00040887762
40	0x3adcebcf	0.0016854944
41	0x3b8f7370	0.004377775
42	0xba4414dc	-0.0007479915
43	0xaf04494b	-1.2031369e-10
44	0xb9d68532	-0.000409165
45	0x28be1ccf	2.1106731e-14
46	0xbb15f86e	-0.0022883671
47	0xb90e87d8	-0.00013592781
48	0xbc25436c	-0.010086875
49	0xbac8ca68	-0.0015319111
50	0x38abc0c2	8.189819e-05
51	0xbacdacea	-0.0015691791
52	0x300d69c8	5.1445825e-10
53	0x3a171024	0.0005762598
54	0xbbf7215d	-0.007541819
55	0x396d2400	0.00022615492
56	0xadc3c0aa	-2.2254493e-11
57	0xba832aaf	-0.0010007228
58	0x3b9d1490	0.004793711
59	0x393335ad	0.00017090766
60	0x3a98fed5	0.0011672626
61	0xb9f5337e	-0.00046768406
62	0xba6dfa0d	-0.0009078093
63	0xb9f43a3e	-0.000465827
64	0x2f05188d	1.2105002e-10
65	0x3b10823a	0.0022050277
66	0xbc0d9ffa	-0.008644098
67	0x39d101ce	0.0003986493
68	0xbb765d42	-0.0037592207
69	0x331bdf06	3.629159e-08
70	0x3af5be6a	0.0018748764
71	0xbb4091c3	-0.0029383756
72	0xbb3524a0	-0.0027640238
73	0xbbb451e6	-0.005502927
74	0x36b54f3a	5.4034435e-06
75	0xba86d7f9	-0.0010287754
76	0x3aee0aa5	0.0018161131
77	0xba5caa9d	-0.00084177573
78	0x3bdc1057	0.006715815
79	0x3bd01b5e	0.0063509187
80	0xbb45f6e5	-0.0030206975
81	0x3b498b2c	0.003075312
82	0xb9e328fb	-0.00043327347
83	0xbc6de557	-0.014520011
84	0xb9de22a5	-0.00042368952
85	0xad964d91	-1.7087472e-11
86	0x37b61f4e	2.1710668e-05
87	0xbaf438e5	-0.0018632679
88	0x356dc007	8.8568817e-07
89	0xb9bf5074	-0.000364903
90	0xba6eff17	-0.0009116991
91	0x3a1ac3cb	0.0005903809
92	0xbb4dac0b	-0.0031383063
93	0x3b3c8cf6	0.0028770543
94	0xbb1f5070	-0.002430942
95	0x3c24fec5	0.010070507
96	0xbbecc11f	-0.0072251703
97	0xb9685b60	-0.00022159284
98	0xbb79c874	-0.0038113864
99	0x3312b670	3.41592e-08
100	0x37b7b1bf	2.189807e-05
101	0xbbc8671f	-0.0061158086
102	0x3533716e	6.684776e-07
103	0x3b55ac3e	0.0032603885
104	0x3b90887e	0.0044108024
105	0xbc13f581	-0.009030701
106	0xba182bc5	-0.0005804862
107	0xbb0a9c87	-0.0021150426
108	0xb943cad9	-0.00018672216
109	0x3b4930b4	0.0030699195
110	0xbb20f6eb	-0.0024561237
111	0xb6241259	-2.4448584e-06
112	0x3251b11a	1.2205669e-08
113	0xb9e1bbd0	-0.00043055275
114	0x3a15518b	0.000569605
115	0x39c356d0	0.0003725798
116	0x3b0f95dd	0.0021909394
117	0xb0ce7b3c	-1.5023498e-09
118	0xb8c3dc34	-9.3393406e-05
119	0x3b9cef33	0.004789257
120	0xb471cdb9	-2.2519716e-07
121	0x3b87718a	0.004133408
122	0xb58f2ac5	-1.0666778e-06
123	0x365feb99	3.3366725e-06
124	0xba3b0445	-0.000713412
125	0x388b7d44	6.651369e-05
126	0x3b542f7d	0.0032376938
127	0xbbdf6732	-0.0068177218
128	0xb3ce1fe4	-9.5984234e-08
129	0xb7829daa	-1.5570626e-05
130	0xba0588c3	-0.00050939264
131	0x3bfb5de7	0.007671106
132	0xbbeda994	-0.0072528813
133	0xb96e0942	-0.00022700898
134	0x3a4a0fd8	0.00077080494
135	0x3bf0e923	0.007352011
136	0x3c594941	0.013262094
137	0xb504e4ba	-4.9506673e-07
138	0xba8c3d7f	-0.001069948
139	0x3bd26146	0.0064202873
140	0x3ab73854	0.0013978579
141	0xba457d94	-0.0007533666
142	0xbbe9c463	-0.007134007
143	0x37746563	1.4567139e-05
144	0xba8b3029	-0.0010619211
145	0xbc0b802b	-0.008514444
146	0x3af4d591	0.001867937
147	0xbb1cecff	-0.0023944972
148	0xb83ea0db	-4.544934e-05
149	0x3a130d1f	0.000560956
150	0xbb76afe9	-0.0037641472
151	0xba3a6216	-0.0007109953
152	0x3a8e619d	0.0010862831
153	0x3679f138	3.72443e-06
154	0xb70f1d45	-8.530279e-06
155	0x3b0ef1db	0.0021811638
156	0xb535c989	-6.7721027e-07
157	0x311ce7f3	2.2832836e-09
158	0x3c1cae6e	0.009563072
159	0x3bb0aae9	0.005391468
160	0x3b8c4553	0.004280725
161	0xba52749e	-0.00080282416
162	0x3ae44d02	0.001741797
163	0x39910035	0.0002765671
164	0x3b980a76	0.004639919
165	0xba832724	-0.0010006172
166	0x342331c1	1.5198658e-07
167	0xb2e599d3	-2.672906e-08
168	0x38a3d7c3	7.8126344e-05
169	0xbb55137b	-0.0032512832
170	0x3b6d287d	0.0036187463
171	0x37134f70	8.780378e-06
172	0x3409ec7d	1.2845153e-07
173	0xb1720d9b	-3.5223369e-09
174	0x3afb241f	0.0019160545
175	0xbaae4455	-0.0013295511
176	0x3bd5c3f6	0.0065236045
177	0xb9135463	-0.00014050449
178	0xbba5ec2f	-0.0050635557
179	0xba3da29d	-0.0007234009
180	0x3a36cd20	0.0006973315
181	0xbb1f7154	-0.0024329023
182	0xbab36e32	-0.0013689457
183	0xbbc17a3a	-0.005904463
184	0x3bcfabe5	0.00633763
185	0xbb9ace37	-0.0047242898
186	0x3b42ef15	0.0029744555
187	0xba861274	-0.0010228888
188	0x3b6aaa89	0.0035807213
189	0xbb34ab2c	-0.0027567847
190	0x3b031b53	0.00200053
191	0xbb55150b	-0.0032513763
192	0x3c2b6e23	0.01046327
193	0xbc18d00c	-0.009326946
194	0xbb5b77a7	-0.0033488066
195	0x38aa6662	8.125302e-05
196	0x3b01be6a	0.0019797334
197	0xbb368d12	-0.002785508
198	0x3b02636b	0.0019895684
199	0xbaa31761	-0.001244288
200	0x3bfb7533	0.0076738833
201	0xbbdfebf9	-0.00683355
202	0x39afca15	0.00033529164
203	0xbb5d2d3d	-0.0033748888
204	0xb3c7a6b2	-9.296981e-08
205	0xb71adb44	-9.230167e-06
206	0xb45141d7	-1.9488594e-07
207	0xbbe9953e	-0.0071283868
208	0x3a95de3f	0.0011434032
209	0x39c193b6	0.00036921882
210	0x3bda47c7	0.0066613886
211	0xb09644bb	-1.0933471e-09
212	0x3a8e9e84	0.0010880982
213	0xb970649d	-0.00022925665
214	0x36b5e35b	5.420688e-06
215	0x3979f463	0.00023837532
216	0xbbbda28b	-0.005787199
217	0x3bdf1a37	0.006808545
218	0xb9ee6c4a	-0.0004547558
219	0xbc1649c7	-0.009172863
220	0xb9c4f5f8	-0.00037567294
221	0x39a91706	0.00032251346
222	0xb9cbd093	-0.00038874577
223	0xaccb3042	-5.7749647e-12
224	0x2c72f566	3.4526492e-12
225	0xb4beb90e	-3.5524903e-07
226	0xbbb96063	-0.005657242
227	0xbc0295c6	-0.007970279
228	0xbb927d80	-0.004470527
229	0x3b3836f9	0.0028108938
230	0x3be8c367	0.007103372
231	0x3bf43123	0.0074521466
232	0xbbd07c10	-0.0063624457
233	0xbb8e9fd5	-0.0043525496
234	0x3714cade	8.868721e-06
235	0x33caa258	9.435888e-08
236	0xba94c7ca	-0.0011351046
237	0xbb9e0e59	-0.0048234877
238	0xbb1e05f7	-0.0024112442
239	0x3ac243c9	0.0014821227
240	0x375921fb	1.294212e-05
241	0x364c62d6	3.04559e-06
242	0x3ab2e0ca	0.0013647315
243	0xbb9252a1	-0.0044654165
244	0xbb2d8d4a	-0.002648192
245	0x3b8a859a	0.0042273523
246	0x3bc7f656	0.0061023636
247	0xbb082237	-0.0020772347
248	0xbb8cd14f	-0.0042974125
249	0x3bcef933	0.006316328
250	0xb8fcd464	-0.00012055857
251	0x3b3c5fe8	0.0028743688
252	0x3c28b1f1	0.010296331
253	0x3a9b98a6	0.0011871054
254	0xba4af3b5	-0.00077420037
255	0x3b57efd9	0.0032949357

fcs1_batch.running_mean f4 [400]
0	0x344eb338	1.9250444e-07
1	0x3b4d4c6a	0.0031326064
2	0x39330a04	0.00017074501
3	0x3059bf81	7.9216284e-10
4	0x3ca02885	0.019550571
5	0x3c09a182	0.008400323
6	0x3ba2c355	0.004967133
7	0x3c18d406	0.009327894
8	0x3d1e8622	0.038702138
9	0x3d0e0d6d	0.034680773
10	0x2fbd99c8	3.4488168e-10
11	0x3c18608d	0.009300363
12	0x3a5e3425	0.0008476398
13	0x3c22d50c	0.00993849
14	0x3b53b658	0.003230473
15	0x3abc36be	0.0014359576
16	0x39100980	0.00013736449
17	0x2e9b501d	7.062815e-11
18	0x3affbbb1	0.0019510892
19	0x3b4b87b0	0.0031056218
20	0x2ba1132b	1.1445058e-12
21	0x3c25ab22	0.010111602
22	0x3ae48209	0.0017433773
23	0x3bb8324e	0.005621231
24	0x376267c2	1.3494808e-05
25	0x3c6a0a14	0.014284629
26	0x3cebc445	0.028780112
27	0x0374a4b9	7.1894248e-37
28	0x3c602ef9	0.013683074
29	0x3c6a2b1d	0.014292506
30	0x3c8125ee	0.015765157
31	0x3a86da2a	0.0010288407
32	0x3be58276	0.0070040775
33	0x3a44c17b	0.00075056375
34	0x001d9d74	2.719713e-39
35	0x3cf877fd	0.030330652
36	0x3cb2ac44	0.021810658
37	0x3d0e5d8b	0.03475718
38	0x3c834324	0.016023226
39	0x3ca78e4b	0.020453593
40	0x3c190e78	0.0093418285
41	0x3ce90643	0.028445369
42	0x3c39e7d3	0.011346775
43	0x34d79644	4.0156203e-07
44	0x3c925816	0.017864268
45	0x25d8c6f9	3.7604856e-16
46	0x3c339da0	0.010962874
47	0x3b17591d	0.0023093887
48	0x3c468be0	0.01211831
49	0x3b2a4734	0.0025982382
50	0x39d429f4	0.00040467049
51	0x3b12aceb	0.00223809
52	0x30adffae	1.2660075e-09
53	0x3b3aaa17	0.002848273
54	0x3d9929b9	0.07478661
55	0x3d80da41	0.06291629
56	0x2ffbf9e7	4.58342e-10
57	0x31a76dff	4.872845e-09
58	0x3a9d8186	0.001201675
59	0x3a38b95b	0.0007046663
60	0x3c301454	0.010747034
61	0x397738a0	0.0002357685
62	0x36103388	2.1487667e-06
63	0x3ba4a3c3	0.0050244047
64	0x312e854e	2.5396107e-09
65	0x3c14b119	0.0090754265
66	0x3cf72b4d	0.030172015
67	0x3abc718d	0.0014377102
68	0x3d47060c	0.04858975
69	0x00000004	6e-45
70	0x3d5f6c1a	0.054546453
71	0x3aff3f7f	0.0019473879
72	0x3d208ae7	0.039194968
73	0x3c694b3e	0.014239131
74	0x38bcbb2e	8.9994035e-05
75	0x3b98d62a	0.004664202
76	0x3c52c863	0.012865159
77	0x3b6730a0	0.0035276785
78	0x29371191	4.06494e-14
79	0x3c68aebe	0.014201818
80	0x32539132	1.231483e-08
81	0x3d003c81	0.0313077
82	0x3a7cba37	0.0009640785
83	0x3cb068f6	0.021534424
84	0x3c9116a2	0.017710987
85	0x34c81016	3.7264607e-07
86	0x00000004	6e-45
87	0x3ac446fd	0.001497477
88	0x11aec4ae	2.7573573e-28
89	0x363a0565	2.77193e-06
90	0x3b34b4a1	0.0027573484
91	0x378adacb	1.6552765e-05
92	0x3ce0233c	0.027360551
93	0x3cd85a94	0.026410379
94	0x3becdec0	0.0072287023
95	0x3d32d310	0.043658316
96	0x3cbca75a	0.023029018
97	0x36838180	3.91918e-06
98	0x3cf978c7	0.030453099
99	0x36621f35	3.369479e-06
100	0x394f4cd7	0.00019769683
101	0x3c0a99ae	0.008459492
102	0x389dc50b	7.5230455e-05
103	0x3bbab985	0.005698385
104	0x3c8bdbfa	0.017072666
105	0x3cf0ff5e	0.029418644
106	0x3bdc5bcc	0.00672481
107	0x3b61f2f3	0.0034477084
108	0x392d2438	0.00016512058
109	0x3b1d181d	0.0023970671
110	0x3bbeeea5	0.0058267885
111	0x38306a09	4.2060423e-05
112	0x35e2735f	1.687189e-06
113	0x3c09f3e0	0.008419961
114	0x3a902991	0.0010998716
115	0x341eaec6	1.4778479e-07
116	0x3be7d742	0.0070752213
117	0x37d18add	2.4979405e-05
118	0x3c23ec58	0.010005079
119	0x3d1eb4d8	0.038746685
120	0x0bb4d562	6.965454e-32
121	0x3ba500f4	0.005035514
122	0x00000004	6e-45
123	0x3907a74f	0.0001293693
124	0x3bdaa7ce	0.006672836
125	0x3a8cc306	0.0010739274
126	0x3c2d7163	0.0105861155
127	0x38da421e	0.00010407365
128	0x38130c3f	3.5058936e-05
129	0x3a021c41	0.00049633166
130	0x3c12e988	0.008966811
131	0x3c142ea2	0.009044321
132	0x3b8777da	0.0041341605
133	0x3c8a1756	0.01685683
134	0x3b1558ca	0.0022788518
135	0x3c80b1cb	0.015709778
136	0x3d122fed	0.035690237
137	0x38349863	4.3057265e-05
138	0x00000004	6e-45
139	0x3ccb5949	0.024822848
140	0x3bca4bfc	0.006173609
141	0x00000004	6e-45
142	0x3d56c6e3	0.052435767
143	0x373bf7bb	1.1203748e-05
144	0x3b294e65	0.002583408
145	0x3d8b533d	0.06802986
146	0x3ce1ed62	0.027579013
147	0x3cffba26	0.031216692
148	0x39fd8810	0.00048357295
149	0x00000004	6e-45
150	0x3c2e9404	0.010655407
151	0x3b20fcf8	0.0024564844
152	0x3b899183	0.0041982546
153	0x2f20d93a	1.462909e-10
154	0x39558d02	0.00020365792
155	0x3dab4860	0.08363414
156	0x37390302	1.102756e-05
157	0x328f76cd	1.6701415e-08
158	0x39536bee	0.00020162735
159	0x3a365538	0.00069554476
160	0x3cbae9c2	0.022816543
161	0x3cf022f9	0.029313551
162	0x3c870d48	0.016485825
163	0x2d96d5da	1.7147995e-11
164	0x3ab9f595	0.0014187569
165	0x3c457aba	0.012053186
166	0x343cae3e	1.7572253e-07
167	0x35036af2	4.895693e-07
168	0x0f7f3846	1.25833085e-29
169	0x38c5bdcc	9.4290444e-05
170	0x3b58b1aa	0.003306488
171	0x00000004	6e-45
172	0x36fd6f50	7.552946e-06
173	0x32bfb592	2.2317895e-08
174	0x3baf4885	0.005349221
175	0x39ac4e5e	0.00032864785
176	0x3c9d6f44	0.019218095
177	0x39f71bc7	0.00047132207
178	0x3cd38f86	0.025825273
179	0x3b846406	0.004040244
180	0x362b279f	2.5504048e-06
181	0x3ccac5a6	0.02475245
182	0x3acefc7a	0.0015791797
183	0x3acc21db	0.0015574055
184	0x3c282fd6	0.010265311
185	0x3c90420e	0.017609622
186	0x3d00d5ea	0.031454004
187	0x3b351399	0.002763009
188	0x3b970014	0.0046081636
189	0x3a1eae80	0.0006053224
190	0x39d607f7	0.00040823195
191	0x3c3356f2	0.010946022
192	0x3c9612ab	0.018319448
193	0x3d5b3954	0.05352147
194	0x3cf1cc37	0.029516323
195	0x3b9b6853	0.004742661
196	0x3b500488	0.0031740982
197	0x3cff5bbc	0.031171672
198	0x3c71f80f	0.014768614
199	0x3c1b46bf	0.009477316
200	0x3b74ae44	0.0037335316
201	0x3c1880f3	0.009308088
202	0x3a208257	0.0006122938
203	0x3bb842dd	0.005623205
204	0x3837a3ae	4.378304e-05
205	0x3469e07c	2.1781483e-07
206	0x35acb7ce	1.2868493e-06
207	0x3d133533	0.035939407
208	0x3a1b17da	0.0005916335
209	0x3c13aa1b	0.009012724
210	0x3ce22f7f	0.027610539
211	0x31451a19	2.8682108e-09
212	0x3c1af45b	0.009457673
213	0x38b7dc22	8.767123e-05
214	0x38e1a8c4	0.00010760271
215	0x3b631ece	0.0034655812
216	0x3ad8a61f	0.0016529
217	0x3d3967bf	0.045264956
218	0x3d32aa64	0.04361953
219	0x3c4307b2	0.01190369
220	0x38141fe0	3.5315636e-05
221	0x3a8bc6a3	0.0010664057
222	0x3b094aab	0.0020949047
223	0x35be82fc	1.4194225e-06
224	0x2f08456a	1.2393789e-10
225	0x397d8ca5	0.00024180354
226	0x3d2a06c7	0.04151037
227	0x3cf0c2ca	0.029389758
228	0x3d181696	0.037130915
229	0x3c01afbc	0.0079154335
230	0x3af5b2e7	0.0018745334
231	0x3d2221e2	0.039583094
232	0x3c8f2bda	0.017476965
233	0x3cb2bfbb	0.02181994
234	0x38a4ee5b	7.8645266e-05
235	0x377aa44a	1.4939413e-05
236	0x39eca91a	0.00045139418
237	0x3c4083da	0.011750186
238	0x3a9c4dc0	0.0011925027
239	0x3bb95cd9	0.0056568203
240	0x398553d2	0.00025430188
241	0x38a0f746	7.675453e-05
242	0x3b3eac9f	0.002909459
243	0x3ce8a68c	0.028399728
244	0x3c1671a2	0.009182366
245	0x3c0261c1	0.007957877
246	0x3b81a28a	0.0039561437
247	0x3d0ec63c	0.03485702
248	0x3ca9d1de	0.020729955
249	0x3cc608de	0.02417415
250	0x00000004	6e-45
251	0x3435429f	1.6881175e-07
252	0x3b86bd26	0.0041119037
253	0x3c90fc5b	0.017698457
254	0x3b00b6fa	0.0019640313
255	0x3af33eca	0.0018558141

fcs1_batch.running_var f4 [400]
0	0x29e81d78	1.0307982e-13
1	0x37a04281	1.9104455e-05
2	0x33b15cdc	8.259096e-08
3	0x2b2022e0	5.689182e-13
4	0x39eaa983	0.00044758254
5	0x38ea45b7	0.00011170975
6	0x387ac669	5.978943e-05
7	0x3912a394	0.00013984583
8	0x3ad6f44c	0.001639971
9	0x3a84075c	0.0010072994
10	0x2059bde9	1.8443451e-19
11	0x3981a9c7	0.0002473129
12	0x35cc1cd8	1.5207579e-06
13	0x38c42ea2	9.354694e-05
14	0x37a34974	1.9465318e-05
15	0x366e25c4	3.5486746e-06
16	0x3562580c	8.4319686e-07
17	0x1e676d56	1.2251648e-20
18	0x3788ebad	1.6322208e-05
19	0x37a9f329	2.02596e-05
20	0x188bd426	3.6144873e-24
21	0x3a162725	0.0005727879
22	0x36d2a9dd	6.2782624e-06
23	0x38353de7	4.3211414e-05
24	0x33dde1c6	1.03321824e-07
25	0x3a5c2173	0.00083973183
26	0x3a42457f	0.00074108684
27	0x00051112	4.65301e-40
28	0x3a50955f	0.00079568283
29	0x398ab55b	0.00026456531
30	0x3a5105c4	0.00079735764
31	0x37165bfe	8.962115e-06
32	0x39700576	0.00022890218
33	0x35a92fcd	1.2605393e-06
34	0x000044d2	2.4688e-41
35	0x3aadc2b9	0.0013256884
36	0x3a35c6b9	0.0006934214
37	0x3aca59dd	0.0015438158
38	0x3a4cbbb3	0.0007809952
39	0x39caa8ef	0.00038654308
40	0x39d7b380	0.00041141734
41	0x3a3834d1	0.0007026913
42	0x3952e18a	0.0002011118
43	0x2c3aa50e	2.6523814e-12
44	0x3a4a34c0	0.0007713549
45	0x0cd2aab5	3.2458364e-31
46	0x39c76c76	0.00038037047
47	0x3845d7b4	4.716935e-05
48	0x39c2a307	0.00037124028
49	0x38528965	5.019586e-05
50	0x355123cf	7.7910676e-07
51	0x377ef9a2	1.5197702e-05
52	0x22830f2d	3.552369e-18
53	0x3786c033	1.6063545e-05
54	0x3b131e6d	0.0022448555
55	0x3b0e344f	0.0021698659
56	0x210d43bc	4.7862304e-19
57	0x2edc773e	1.00256234e-10
58	0x37def537	2.657865e-05
59	0x35d38251	1.5758652e-06
60	0x39c231c6	0.00037039648
61	0x36351772	2.6984749e-06
62	0x30ecd311	1.7231249e-09
63	0x38387dcc	4.3986176e-05
64	0x239dc6c7	1.710616e-17
65	0x3950cb61	0.0001991219
66	0x3a4697f9	0.0007575746
67	0x3842d570	4.6451984e-05
68	0x3ac79514	0.0015226924
69	0x00000004	6e-45
70	0x3b085ad0	0.0020806082
71	0x37288b93	1.00460775e-05
72	0x3ab686b9	0.0013925649
73	0x39bca3ae	0.00035980105
74	0x33901b02	6.710435e-08
75	0x38a0ad82	7.661713e-05
76	0x3a0ffb7c	0.0005492491
77	0x37e6cdc8	2.7513961e-05
78	0x161511fb	1.2041798e-25
79	0x3a3358d1	0.0006841543
80	0x2d91fec6	1.6597734e-11
81	0x3ac372bc	0.0014911513
82	0x360b91b6	2.079743e-06
83	0x3a3c49ef	0.0007182648
84	0x3a3500a4	0.00069046975
85	0x2d7b1cbf	1.4274081e-11
86	0x00000004	6e-45
87	0x38870773	6.438689e-05
88	0x0aaed76e	1.6836626e-32
89	0x32ef90dd	2.7889138e-08
90	0x376c110c	1.4070665e-05
91	0x351356d9	5.488815e-07
92	0x3a6a333b	0.00089340255
93	0x3a1ea38b	0.00060515915
94	0x390a2338	0.00013173826
95	0x3b08f185	0.002089591
96	0x3a26ce4d	0.00063631387
97	0x3354d482	4.955337e-08
98	0x3a956a66	0.0011399507
99	0x2db14cf3	2.0156743e-11
100	0x33aa81ef	7.939877e-08
101	0x39cb8cc4	0.00038824056
102	0x328009fd	1.4905703e-08
103	0x39371dc2	0.00017463326
104	0x3a1f63f0	0.00060802605
105	0x3a8eb5c8	0.0010887915
106	0x38b9bd5a	8.856757e-05
107	0x37def17a	2.6576909e-05
108	0x34506176	1.9406966e-07
109	0x38c19403	9.2305265e-05
110	0x391cafcf	0.00014942813
111	0x31beaf49	5.5496554e-09
112	0x2d040e36	7.506487e-12
113	0x398849f7	0.0002599505
114	0x3742e736	1.1617134e-05
115	0x2dbae84d	2.1248914e-11
116	0x39bde9b9	0.00036223026
117	0x30f4d161	1.7812846e-09
118	0x395abbc0	0.00020860042
119	0x3a85c4f2	0.0010205789
120	0x04d1a647	4.9288365e-36
121	0x393594d4	0.00017316948
122	0x00000004	6e-45
123	0x332be73e	4.0024354e-08
124	0x388b72ae	6.649397e-05
125	0x362b0d9a	2.5488903e-06
126	0x39c1fab2	0.0003699861
127	0x35bfb57b	1.4283427e-06
128	0x3139bc34	2.7028024e-09
129	0x350aa3f2	5.164758e-07
130	0x38f8dafb	0.0001186635
131	0x391217e5	0.00013932546
132	0x392cafa0	0.00016468624
133	0x3a1b8b3c	0.00059335283
134	0x3716651e	8.96424e-06
135	0x3a620397	0.0008621751
136	0x3a88df82	0.0010442587
137	0x31a2e783	4.7411404e-09
138	0x00000004	6e-45
139	0x3a90741e	0.0011020934
140	0x39088f58	0.0001302337
141	0x00000004	6e-45
142	0x3b144148	0.0022621918
143	0x340dba61	1.3199453e-07
144	0x38887200	6.5062195e-05
145	0x3afdc17c	0.0019360031
146	0x3a857aa9	0.001018365
147	0x3ab05d4f	0.0013455543
148	0x35272d3a	6.227816e-07
149	0x00000004	6e-45
150	0x38d8fd34	0.000103468454
151	0x37a87389	2.008096e-05
152	0x39591208	0.0002070145
153	0x2b27c246	5.9599927e-13
154	0x33d3318e	9.834467e-08
155	0x3b3312e5	0.0027324494
156	0x2f977040	2.7546498e-10
157	0x265c4c40	7.643117e-16
158	0x3607b9a2	2.022462e-06
159	0x37d20628	2.5036818e-05
160	0x3a29ac82	0.0006472544
161	0x3aaf4688	0.001337246
162	0x3a28e93f	0.0006443448
163	0x2897cf48	1.6854262e-14
164	0x3888b04c	6.517823e-05
165	0x397b7a05	0.00023982681
166	0x29ab3833	7.6036745e-14
167	0x2af33acc	4.320627e-13
168	0x0c63db48	1.7553431e-31
169	0x35be3d3b	1.4173924e-06
170	0x3932213d	0.00016987785
171	0x00000004	6e-45
172	0x2ef7ea0c	1.12738346e-10
173	0x26624807	7.8507116e-16
174	0x392020e9	0.00015271049
175	0x3575656a	9.141719e-07
176	0x3a15cedc	0.00057147234
177	0x352c3e3f	6.4165573e-07
178	0x3a193b6e	0.00058453425
179	0x380bfae3	3.337384e-05
180	0x2da70383	1.8987261e-11
181	0x3a347ba7	0.0006884881
182	0x383a179e	4.436785e-05
183	0x38428c4c	4.6383866e-05
184	0x39da5643	0.0004164447
185	0x3a01f1c8	0.00049569877
186	0x3aa6adf0	0.0012716632
187	0x380bec52	3.3360273e-05
188	0x38da681d	0.00010414443
189	0x376e61cd	1.42086765e-05
190	0x372cf99f	1.0310118e-05
191	0x391b9325	0.00014836768
192	0x3a1a38ef	0.00058831176
193	0x3ae70025	0.0017623944
194	0x3ab57eef	0.0013847033
195	0x37fbbb04	3.0008618e-05
196	0x38b57e87	8.65432e-05
197	0x3a722db1	0.0009238376
198	0x393e6c50	0.00018160162
199	0x391a9c00	0.00014744699
200	0x3941ed21	0.00018494252
201	0x39b37996	0.0003423213
202	0x353a0a96	6.9305804e-07
203	0x39359743	0.00017317855
204	0x342a008b	1.5832681e-07
205	0x2ed1d824	9.542614e-11
206	0x2cb81de9	5.2329152e-12
207	0x3ab1ad85	0.0013555741
208	0x362b0a89	2.5487118e-06
209	0x390e862e	0.00013592161
210	0x3a797fad	0.00095176214
211	0x23d02aa9	2.2569472e-17
212	0x39caadc9	0.00038657922
213	0x34dca4f0	4.10982e-07
214	0x32f7f6aa	2.8866754e-08
215	0x393a8239	0.00017786854
216	0x384bf9e3	4.8631697e-05
217	0x3b0aaf48	0.0021161605
218	0x3b0b0729	0.0021213985
219	0x3a0a1e74	0.000526882
220	0x34c7ccdb	3.721569e-07
221	0x3649b732	3.0057968e-06
222	0x37116983	8.66724e-06
223	0x2d21de18	9.201105e-12
224	0x1f48d5d3	4.252852e-20
225	0x34207fae	1.4947611e-07
226	0x3ae42c53	0.0017408229
227	0x3a6dbdee	0.0009069134
228	0x3aba93b6	0.0014234695
229	0x398ee00c	0.00027251279
230	0x388a0cde	6.5827495e-05
231	0x3ad58105	0.0016289061
232	0x3a34fae8	0.0006903843
233	0x3a96557f	0.0011469572
234	0x32662fd7	1.33986395e-08
235	0x30142908	5.3900395e-10
236	0x378bd4fe	1.6669273e-05
237	0x3a038931	0.00050176965
238	0x376937e5	1.3900896e-05
239	0x39041e19	0.00012599713
240	0x342f4225	1.6322208e-07
241	0x32744484	1.4218248e-08
242	0x3790024d	1.7167209e-05
243	0x3a270ca5	0.00063724286
244	0x399ce9ef	0.00029928933
245	0x39ceef6a	0.0003946976
246	0x39273ceb	0.00015949055
247	0x3aba4792	0.0014212003
248	0x3a942a3d	0.0011304092
249	0x3a13285e	0.000561362
250	0x00000004	6e-45
251	0x30458307	7.1854384e-10
252	0x3949789b	0.00019213783
253	0x3a0310a0	0.0004999731
254	0x380665c5	3.204287e-05
255	0x376d7ec6	1.4155818e-05
