ContinuousControl/critic.pth (torch_old, 436517 bytes, 11 tensors)

fcs0_batch.weight f4 [33]
00000000: b006 be3e 9006 183f 5696 183e e8ba 183e
00000010: 5495 523e d390 9b3e 0009 823e a5cb 043f
00000020: fdba 7f3e ae3d 823e edaf 313e 3bfa 643e
00000030: 6a2e d13d 38ec e33e 227b f83e 8281 0e3f
00000040: 361a df3e 6933 d53e acdb 5d3e b996 6a3e
00000050: b5b3 c63e 9603 003f a98e a13e d330 163f
00000060: 83ba 093f 2869 083f 6f43 603f b466 9b00
00000070: 30bc cf3e d957 2e00 3c93 0b80 c49f 5100
00000080: 29b7 993e
0.37114477 0.59385014 0.14901099 0.14915049 0.20564777 0.3038393 0.2539749 0.51873237
0.24973674 0.25437683 0.17352267 0.2236108 0.10213931 0.44516158 0.48531443 0.55666363
0.43574685 0.41640785 0.2166583 0.22909059 0.3880898 0.5000547 0.31554154 0.5866825
0.5380022 0.53285456 0.87602895 1.4271345e-38 0.40573263 4.255947e-39 -1.063008e-39 7.495988e-39
0.30022553

fcs0_batch.bias f4 [33]
00000000: a0e4 bcbc c494 433b ff00 763d e298 5fba
00000010: 72d1 ddba c612 ce3b ae87 25ba c793 57bd
00000020: 3159 623c 23b8 27bc 25e3 723c 4320 f9bc
00000030: e925 f63c 2a71 f9bb ec32 82bc 1d56 5f3c
00000040: 8d3d fdbb 4e0b 8f3c 07a4 06bc 087d 2bbd
00000050: 7e80 903d 386e 0e3d 9973 abbc 0e0f 96bc
00000060: 4b4a 67bd 856e d9bc 60e4 a8bc c635 d93a
00000070: 8a0c 763c 3a45 963a 5169 9dba dd7c 96ba
00000080: 2efb cdb9
-0.023058236 0.002984331 0.060059544 -0.0008529556 -0.0016923381 0.006288859 -0.00063144683 -0.052631166
0.01381521 -0.010236773 0.014824663 -0.030410891 0.030047374 -0.007612367 -0.015893422 0.013631371
-0.0077282847 0.017461445 -0.008217818 -0.041867286 0.07055758 0.03477308 -0.020929145 -0.018317726
-0.056467336 -0.026541958 -0.02061671 0.0016571812 0.015017638 0.0011464723 -0.0012009536 -0.0011481304
-0.0003928779

fcs0_batch.running_mean f4 [33]
00000000: 340d ac3e 9143 e6bf 471b 233d 681a 2c3e
00000010: 79b8 673c 2843 b7bc ff28 f33b efb9 a33e
00000020: bfe1 203d 3748 14bd 7ee0 d0bd 3611 2a3e
00000030: ca71 6dbe 3916 393e 6f07 48c0 6257 46be
00000040: 4be8 2b3b 062e 543c fda4 42bb 210f 46bc
00000050: d075 1640 1458 bd3d 0f89 3dbe cc8f b3bc
00000060: 2bd0 a93e a8bb 9bbe 6657 b9bd fcff 7fbf
00000070: 4e8d 67be 0000 0000 fcff 7f3f 0000 0000
00000080: c1aa fabc
0.33603823 -1.798937 0.039820936 0.16806948 0.014143103 -0.02237089 0.0074206586 0.31977794
0.03927779 -0.036201682 -0.101990685 0.16608128 -0.23187938 0.18074884 -3.1254537 -0.19369271
0.0026230987 0.012950426 -0.0029700391 -0.012088568 2.3509407 0.09245315 -0.18509315 -0.021919154
0.33166632 -0.30416608 -0.09049873 -0.99999976 -0.22612497 0.0 0.99999976 0.0
-0.030599

fcs0_batch.running_var f4 [33]
00000000: 4c36 9e40 89e0 7340 96cb 8040 205f d03e
00000010: 4ba0 f73d b246 963e 64f2 1c3e b6e2 3b40
00000020: 7683 8c3e 4eb3 403f 8f5b 3e41 9887 6a41
00000030: 1f47 8241 105c 7c41 d499 6341 d23d 6041
00000040: e9eb 8a3e 96d2 713e a193 653e 3060 8a3e
00000050: 2c2c 4f40 e1d1 1840 a233 5840 1467 f741
00000060: b00f ad42 a7c4 a242 66ca fb41 0400 0000
00000070: 04bc 0142 0400 0000 0400 0000 0400 0000
00000080: d3b5 923e
4.944128 3.8105795 4.024852 0.40697575 0.1209112 0.2935081 0.1532684 2.9357123
0.27444047 0.752736 11.897353 14.658104 16.284727 15.772476 14.225056 14.015093
0.2713311 0.23615488 0.22419597 0.2702651 3.237071 2.38781 3.3781514 30.925331
86.53064 81.38409 31.473827 6e-45 32.43361 6e-45 6e-45 6e-45
0.28654346

fcs1.weight f4 [256, 33]
00000000: d70d d43d 9de1 04bd fc49 5cbc e440 96bd
00000010: 94ec aa3b 9a1a 98bc 9264 773d 1a85 013d
00000020: e9f4 52bc fcd0 9d3c 627b 89bc c196 80bc
00000030: 80de 79bc d5c6 83bd 25b3 363d 4fb8 153c
00000040: 81e5 d13b 6146 0c3d 5965 20bd 57e0 a33c
00000050: c2e2 b93c 124e 06bc a09d af3d f916 88bb
00000060: 8871 62bc f71b f13b cea1 e4bd d42f 65ba
00000070: 23f8 803c a026 38bb 83f7 233b 2279 2a3b
00000080: a430 1ebd ad2e b03b deb9 b73d 5989 6cbb
00000090: e5c8 823c 9ce7 76bc 29b8 8a3b 0abc b03c
000000a0: 6283 1d3d 5c75 78bc 4ffa 88bc 712c 59ba
000000b0: ea66 6e3d 3165 403b 33ce 80bb c81a d73b
000000c0: 6e2e ad3a bb19 b5bb 328a afbc bff7 ad3c
000000d0: 5b66 cdbc 35d2 99bd 9c4b 383c 9d17 66bc
000000e0: 4b0a 5d3c d968 f7bb 45b7 eebc 6efd 213b
000000f0: f45d 66bb a149 8cbb 2449 30bb e452 313b
00000100: 1987 323b 3016 a3bb 8b60 22bc b181 863d
00000110: 7269 97bc f9f2 1dbd ba54 0a3d aaff 7bbc
00000120: 7600 57bc 1a91 7dbc 403a 7a3d ac9d 5ebc
00000130: 27ed 20bd 0f31 56bd 5422 dfbc e1df 0ebe
00000140: e83b b03d 7d4f 62bc 2b1e b4bc 0c90 68bc
00000150: 0e19 073d 6b6a 8b3d d9e2 0b3b 1785 6f3b
00000160: 68bf 473c 5884 cabc 93b5 5e3d eb97 273d
00000170: 4596 963d 9bba 20bb 5cc2 313e d2e1 cbba
00000180: a774 ef3a fcda f53a f061 3e3b 5ac5 9b3a
00000190: e57c 00bd 0129 46bd 26e1 0b3c 378b 8bbc
000001a0: 3f7b 17bd d473 fd3c 3005 04bd 1906 44bd
000001b0: d0a5 bfbc 7b6b a8bb 86f0 1ebd 8fd8 263c
000001c0: f99d bd3c f027 0b3c d181 f63c b7a0 14ba
000001d0: 9f2c 9bbc 901a 89bc 3d28 873b 90f7 803d
000001e0: 84ea 093c ce4c b33b d59a 1ebd 7052 53bc
000001f0: 1f5d b23d d754 683d d322 bab9 6cd8 49bd
00000200: f907 9eb9 cb89 9a39 e4b7 9839 3df7 45bd
00000210: e732 063c 1ff0 5e3c 9880 243b c00a b2bb
00000220: 3879 9ebc 6776 c5bb 67a2 41bc 8966 2cbc
00000230: 1385 e9bc 30ea 553b 4770 ee3b 0ac6 bf3b
00000240: ecfa 67bc 1479 ce3c e877 623d 110d be3b
00000250: 780e 21bc 3583 ba3c 3169 36bc 9d1f 853c
00000260: 78a7 d13b 9cb4 713c 938a 70bc cfd7 493c
00000270: faa4 6338 1d00 313d e6b0 59bc b6f3 d339
00000280: dc96 ccbc 05b7 2e3a fc71 1cba 0256 1eba
00000290: 18ce 1abd 5554 7ab9 bcbc b0bb cf3f 7d38
000002a0: 358d 243a a364 65bb 9161 ddbb 2cfd bc3b
000002b0: 41f0 be3b c680 83bb 9366 ba3b c59c a23a
000002c0: 86d8 003b d8b0 89b9 4a7d dfba 2c6b 96ba
000002d0: 1d95 e13b e788 84bb 36ee 33bb 2069 f4b8
000002e0: a762 56ba 7296 46bb 0a05 2ebb 3b24 9aba
000002f0: 6004 91ba 1c6f c23b 0e60 413b cb8b b23a
00000300: bf74 a8b7 d90c 693b 2604 dbb6 22b2 1537
00000310: a4db f336 f4b3 90b9 e40d 74bb 27fd 813a
00000320: 59cd a9bd f12d 483c abd4 123a f604 4fba
00000330: b5e9 233c 3e8c f33c d3bf 0dbd a27a 883b
00000340: 02d9 8abc 6017 013d f6cc b1bc f2b4 93bc
00000350: fb90 783d 362f 3e3e b1ea 313c 80ec c53a
00000360: 7fb2 4fbc 6b22 3b3c fb7d a8bc d766 503c
00000370: f0a8 9dbc c030 f23b 89e0 0b3d 1fb7 dc3d
00000380: 6c67 59bb fcd4 1bbb c6ea fbbd c59e 22bb
00000390: a6af 003b af7b 103b 7830 84bc 905c 14bd
000003a0: 78b4 b23a 4cbf 873d c355 56bd 3d2c adbd
000003b0: 2662 f1bd dfc1 893b 2063 1ebd 0a83 51bd
000003c0: 27b6 2a3c 4013 ba3b c6eb 713c 21ea cabb
000003d0: db9f 1fbd d463 963b 18a3 32bd 7f6b 913d
000003e0: 0593 12be 4cc2 f33d 7b6e adbc 40bf 02bd
000003f0: 9ef2 883c bf7e ee3c c473 353b 3642 12bd
0.10354202 -0.032441724 -0.013445374 -0.07336596 0.0052161906 -0.018567372 0.060398646 0.031621076
-0.012875774 0.01926469 -0.016782466 -0.015696885 -0.015250802 -0.064344086 0.04460444 0.009138181
0.006405533 0.034246806 -0.039159153 0.020004435 0.022691134 -0.008197324 0.085749865 -0.004153129
-0.013821013 0.00735807 -0.11163674 -0.00087427837 0.01574332 -0.0028099194 0.0025019355 0.0026012142
-0.038620606 0.005376658 0.08970998 -0.0036092608 0.015964935 -0.015069868 0.0042333794 0.021574039
0.038455375 -0.015164699 -0.016720919 -0.00082845154 0.058203615 0.002935719 -0.003930831 0.006564472
0.001321269 -0.005526749 -0.021428201 0.021236299 -0.025073221 -0.07510797 0.011248495 -0.014043716
0.013491224 -0.0075503406 -0.029140124 0.0024717706 -0.0035151215 -0.004281238 -0.0026899064 0.0027057463
0.002724117 -0.00497701 -0.009910713 0.065677054 -0.018482897 -0.038561795 0.033772208 -0.015380779
-0.0131226685 -0.015476489 0.061090708 -0.013587397 -0.039288666 -0.05229288 -0.027238049 -0.1395259
0.08605176 -0.013812897 -0.021987041 -0.0141945 0.03298288 0.06807407 0.0021344929 0.0036547834
0.012191631 -0.02472131 0.05437238 0.040916365 0.073528804 -0.0024525288 0.17359298 -0.0015554971
0.0018269018 0.0018757279 0.0029050075 0.0011884377 -0.03136911 -0.048378948 0.008537566 -0.017034156
-0.03698277 0.03093902 -0.03223151 -0.047857378 -0.023394495 -0.005139766 -0.0388036 0.0101834675
0.023146616 0.008493409 0.030091198 -0.00056697003 -0.018942175 -0.016736299 0.00412467 0.06297219
0.008417729 0.0054718023 -0.038721878 -0.012898073 0.08709168 0.056721535 -0.0003550263 -0.04927866
-0.00030142048 0.00029475833 0.00029128708 -0.048331488 0.008190847 0.013607054 0.0025101062 -0.0054334104
-0.019344911 -0.0060260775 -0.011818505 -0.010522493 -0.028505838 0.0032640807 0.007276568 0.0058524655
-0.0141589455 0.025204219 0.055290133 0.0057998975 -0.00983011 0.022767643 -0.011133478 0.016250426
0.0063981377 0.014752533 -0.014681476 0.012319519 5.4274664e-05 0.043213 -0.013286805 0.00040426635
-0.02497428 0.0006664845 -0.0005967913 -0.0006040038 -0.037794203 -0.00023873274 -0.0053935926 6.0379327e-05
0.0006277145 -0.003500261 -0.0067560156 0.005767485 0.0058269803 -0.0040131537 0.0056884973 0.001240634
0.0019660308 -0.00026262435 -0.0017050889 -0.0011476032 0.0068842308 -0.0040446403 -0.0027455217 -0.00011654408
-0.00081781525 -0.0030302075 -0.0026553296 -0.0011760065 -0.0011063926 0.0059336554 0.0029506716 0.0013621984
-2.0081525e-05 0.0035560636 -6.5271915e-06 8.922567e-06 7.267534e-06 -0.00027599896 -0.0037239725 0.0009917364
-0.0829112 0.012217985 0.0005601148 -0.00078971626 0.010004451 0.029729959 -0.034606766 0.0041650096
-0.01694918 0.031516433 -0.021704178 -0.018030617 0.06068514 0.18572697 0.010859177 0.001510039
-0.012676834 0.01142178 -0.020567885 0.012719831 -0.019245595 0.0073910654 0.03414968 0.10777115
-0.0033173217 -0.0023778072 -0.12300639 -0.0024813872 0.0019635945 0.0022046377 -0.016136393 -0.036221087
0.0013634106 0.06628284 -0.052327882 -0.084557034 -0.117862985 0.0042040194 -0.03866875 -0.05115036
0.010419405 0.0056785643 0.014765685 -0.006192461 -0.03897081 0.004589537 -0.04361257 0.071005814
-0.14313896 0.119022936 -0.021170845 -0.03192067 0.016717251 0.029113172 0.002768741 -0.035707675

fcs1.bias f4 [256]
00000000: 19d6 2bbd 3f50 3abd 6ef1 213c 9bc3 693d
00000010: ca94 ecbc 40f1 babc 51b6 553d 4980 dbbd
00000020: dfba 42bd 1379 89bc ed68 2fbd 1286 86bd
00000030: cbad bfbd 53ef 03bd 1081 0bbd 054a 1d3d
00000040: 67ec 30bd 24b5 b6bc 059e a7bc 62bd 15bd
00000050: 4491 2dbd 4338 8ebc 927a 7d3d b271 22bd
00000060: ef8c 0c3d cbc0 07bd 38a1 3cbb ca57 2ebd
00000070: 2e3f 8d3d 93e1 45bd 813c b4bc 194a 9cbd
00000080: 2dd9 c8ba f15a 0e3a c59e 31bd c149 3b3d
00000090: 24cb 163d 5c4b 07bd 83a4 93ba e31e 52bd
000000a0: 073a 3dbd 37c8 823a 8960 ac3d ed62 f8bc
000000b0: 974c 30bd e3f2 523d 7ff3 4abd a9ac 70bd
000000c0: 188b 00b9 296c c03b 2ddd 19bd b6d8 913d
000000d0: 8227 9ebc bef2 87bd 60a5 11bd 6180 f13c
000000e0: 42d8 d33c 41fd c3ba 6248 8fbb 1ebe 013c
000000f0: 0f0f 4dbd e146 cabd 5456 21bd 1277 6c3d
00000100: 8451 5dbd 2425 0abb 3d1e 32bc d8e2 d7b9
00000110: 3f28 0fbc fb94 bcbc 6d59 13bd e3c4 56bd
00000120: 8e2f cbbb 06f7 e6bc 81af 883d 637d babc
00000130: 9509 2abd 017d 8abc aaab febc 2c1b adbd
00000140: f6b1 8c3d dae8 c33c 22b3 8dbd aba9 8dbc
00000150: 2202 91bd 4646 2cbc 6e13 03bd 5411 bb3d
00000160: ab7c 34bd e97e afbc a9dd c3bc 6478 5bbd
00000170: ce65 c7bc 94f6 11bd 3ebe 96bc b656 32bd
00000180: 298f 82b9 7b5c a6bd 23f3 febc 7872 e1bc
00000190: 3e6f 203c dc55 6b3c e827 18bd 8a17 f0bd
000001a0: 425b c6bc afc0 0cbd 9331 57bd b583 563d
000001b0: b149 3abd 46b3 48bb 4771 c3bc 225b 6abc
000001c0: 7ec4 e7bc b64b f9bc ae43 05bd 764d aa3c
000001d0: 53be 8d3d 0e9c dcbb a751 19bc 67cc 1cbb
000001e0: 2222 e43c 579c c53d 8c8d b4ba 5cb1 a83c
000001f0: e231 debb 9840 f5bc 2a05 afbd 7e03 cabc
00000200: b9bf 41bd 03ef efbb c1aa 1abd ac19 d13b
00000210: bd7a 22bd 06e2 89bc 6100 45b8 a229 29bd
00000220: 9c14 d6bc 1140 8cbc 3224 953d d42c 3cbd
00000230: b5e5 a1bc 8828 0ebd 7b1a 953c cfcd 87bc
00000240: 18e5 f7bc 4676 383d 7cbd 42bd 85e4 17bd
00000250: a416 13bd f06a 58b7 3d58 9dbc 077e 70bc
00000260: c7d2 0c3d 6195 d23a ee2e 55bd 4ecb 48bd
00000270: 65f7 aa3d 7e7c 83bd d4f3 6ebc ffda 44b9
00000280: bb4a 92bc 2f1b 9bba 2a67 bcbc 1b08 02bd
00000290: 8294 06bd 5198 0dbd 2187 b0bd b331 0dbc
000002a0: 1528 c1bb dc51 8d3d 603e 5ebd 1299 a6bc
000002b0: 2e66 48bd 71c0 0dbd c269 9bbc a921 67bd
000002c0: a32e 2bbd 02a4 38bd 3f50 89bb ce82 a6bc
000002d0: ebcc 43bd 6985 d4bb cb55 eebc 0682 65bc
000002e0: 26ec 3bbc 3d49 c9b4 341b 2dbd 248f 753d
000002f0: 12cb 6cbd 8c5a 8fba 225d 16bb d13d 753b
00000300: 6800 41bd c803 eeba ecee f2bb 430d 04bd
00000310: 8df7 043d 4fcd 20bd acf9 453d d6a9 5fbc
00000320: 0dd3 c6bd 19b1 a43d 4c60 39bd 73de 313d
00000330: 8e04 30bc 46a4 9c3c 5028 93bd 1877 58bc
00000340: ea27 6cb7 83d5 d83d 4fa3 81bc 0556 b0bc
00000350: b27f f1bb 353c 81bb fc96 013d e850 8e3c
00000360: 3561 70bd 7a52 6b3d bc8b 8cbc f228 05bd
00000370: 9d8a 05bc 8155 f6bb c0f3 e838 d761 b1bc
00000380: b98c d6bc 9fc7 07bd 1913 53bd 9775 2dbd
00000390: c90c 8bbd 8117 88bd cdc3 5cbc 381f a5bb
000003a0: 74e6 b5bd d8b7 9a3c e931 99bc 18a9 ffbc
000003b0: 90e8 abbc 08b0 7abd fab0 263d a69b 18bc
000003c0: 1bb5 2cbd f5b0 e6bc 162d 40bd 64a0 23bb
000003d0: 2745 b6bc a6d1 12bd f63b 71bd 8373 e8bc
000003e0: 16e6 0b3c b247 4ab6 3d77 56bc 46f3 a6bc
000003f0: 08e6 c7bc 6950 35bd f870 a5bc aa96 30bd
-0.041952226 -0.045486685 0.0098842215 0.05707131 -0.028879542 -0.022820115 0.052175824 -0.10717828
-0.047541495 -0.016781365 -0.042824674 -0.06568541 -0.0935932 -0.03221066 -0.03405863 0.03840067
-0.0431942 -0.022303171 -0.020461092 -0.036557563 -0.042374864 -0.017360812 0.06188447 -0.03965921
0.034314092 -0.033142846 -0.0028782617 -0.04256419 0.06896816 -0.048310827 -0.022001507 -0.076313205
-0.0015323512 0.00054304214 -0.043364305 0.045724634 0.036814824 -0.033030853 -0.0011264238 -0.051298987
-0.046197917 0.0009977882 0.0841685 -0.030320609 -0.04304179 0.051501166 -0.049548622 -0.05875841
-0.00012258848 0.0058722687 -0.037564445 0.071214125 -0.019305948 -0.06638096 -0.035558105 0.029480161
0.025859956 -0.0014952795 -0.0043726424 0.007918863 -0.05006319 -0.098768 -0.03938897 0.05773074
-0.054032817 -0.0021079266 -0.010871467 -0.00041177007 -0.008737623 -0.023020258 -0.035973955 -0.05243386
-0.0062007373 -0.028193962 0.066741 -0.022764867 -0.041513044 -0.01690531 -0.031087715 -0.08452448
0.06869881 0.023914743 -0.069189325 -0.017292818 -0.07080485 -0.010514801 -0.03200095 0.091341645
-0.044064205 -0.02142282 -0.023909407 -0.05358161 -0.024340536 -0.035635546 -0.018401261 -0.043539725
-0.00024902195 -0.08123108 -0.031121796 -0.027520403 0.009792147 0.014363732 -0.037147433 -0.1172324
-0.024213437 -0.034363445 -0.052537512 0.0523717 -0.045480434 -0.0030624433 -0.023857726 -0.014303954
-0.028291937 -0.03043161 -0.032535248 0.02078889 0.06921067 -0.0067324704 -0.009357846 -0.0023925544
0.027848307 0.0964896 -0.0013775094 0.020592384 -0.006780849 -0.029938027 -0.08545907 -0.024659868
-0.04730198 -0.0073221936 -0.0377605 0.006381234 -0.039667834 -0.01683141 -4.6968813e-05 -0.04129947
-0.026132874 -0.017120393 0.07282294 -0.04594119 -0.019762853 -0.034706622 0.018201103 -0.01657763
-0.030260608 0.04503467 -0.047543988 -0.037083168 -0.035910264 -1.2899502e-05 -0.019207114 -0.014678485
0.0343807 0.0016066247 -0.05204671 -0.04902201 0.08347968 -0.064202294 -0.0145845 -0.00018773599
-0.0178579 -0.0011833663 -0.022998411 -0.03174601 -0.03285647 -0.03456909 -0.08619524 -0.008617806
-0.0058946707 0.06900379 -0.054258704 -0.020336661 -0.04892557 -0.034607355 -0.018971328 -0.056428585
-0.041792523 -0.045078285 -0.0041904743 -0.020326044 -0.047802847 -0.0064856303 -0.029093644 -0.014008051
-0.011469876 -3.7492455e-07 -0.04226227 0.059950963 -0.05781085 -0.0010937019 -0.0022943695 0.0037420879
-0.047119528 -0.0018159086 -0.0074137356 -0.03223921 0.032462645 -0.039258298 0.04833381 -0.013651332
-0.097082235 0.08041591 -0.04525785 0.043425035 -0.010743273 0.0191213 -0.071854234 -0.013211988
-1.4075989e-05 0.10587599 -0.015824942 -0.021525392 -0.007369959 -0.003943945 0.03163813 0.017372563
-0.058686454 0.057451703 -0.017156474 -0.03250975 -0.008150724 -0.007517517 0.00011108024 -0.021653099
-0.026190149 -0.033149358 -0.051531885 -0.04234847 -0.06789548 -0.06645108 -0.013474417 -0.005039122
-0.08881846 0.018886492 -0.018700557 -0.03120856 -0.020984918 -0.061203033 0.04069612 -0.009314453
-0.042164903 -0.028160552 -0.046917997 -0.0024967426 -0.022249771 -0.035844468 -0.058895074 -0.028375393
0.0085387435 -3.0142078e-06 -0.013089952 -0.020379674 -0.02440168 -0.04426614 -0.02019547 -0.043112434

fc2.weight f4 [256, 260]
00000000: 9ad9 3fbc 38f8 b8bc f0fc 9dbb df8f d439
00000010: 476f 35bc dc42 89b9 d756 d33c c753 ffbc
00000020: 7c52 9c3b cc86 193a 9eaf 1bbd 3738 f3bb
00000030: 7c31 4bbc 4e25 58bb caea 3abb 6ff2 3c3c
00000040: 96d8 35bc 63cf 5db9 017a 50bb a998 033d
00000050: f477 873d 1af1 3eb9 7086 f5ba 7703 dc3c
00000060: 03d1 fabb 43c2 ba3c 57bb 0a3d e0d8 62bc
00000070: 9aed a83b b038 dbbc 481f 903c a65c 92bc
00000080: ecd1 8cb7 e352 edbc 7e0f ca3c 0cf5 773c
00000090: 6629 b03c eb51 1dba 4058 b03c e91a 39bc
000000a0: b1ad 67bd e18f a33d cb1d 063c 207d dabb
000000b0: 0783 22bb a921 ad3c eaae 13bd 3332 2cbc
000000c0: b670 1bb5 f790 be3c c39f babc f143 8bbb
000000d0: a3c9 acb9 7846 483c 8be0 84bc f670 03bc
000000e0: 6840 893c 3ebc 1cb7 352e 52bc c511 f6ba
000000f0: 04d6 8ebc fbdf 01bb 27fb 4dbc b763 043d
00000100: 8944 583c d2ac cc3c 996b 323d c7c1 47bc
00000110: e10c 8c3c b619 283a 44a6 e5bb c67d d4bb
00000120: f9e4 2e3c 5138 19bb 3606 2a3d 19f1 86b9
00000130: 1651 6a3d 83f5 02ba fdb6 a4bb 64bd 713d
00000140: eb85 d43a cf8d 79bb f2fa c6bc 39e7 363c
00000150: c955 173d 902c c33b 39ee 8dbc 4ab4 ec3b
00000160: 4a1e 12bb 5f64 c63c 9d7f 403b d8da c23b
00000170: 8f7e 84bc 2fe9 81bb bf79 47bc 4c10 9e3d
00000180: f318 1cb6 34e1 b93c d113 dcbb 55e7 b6bc
00000190: 8cae d1bb 2b41 bd3c e752 163b 446d 32bd
000001a0: ea27 99ba 47d1 24bb 7fdb b9bc bb43 d2bc
000001b0: a837 073d 112f a637 ec78 033c c8ba 283d
000001c0: 049a 0a3b d392 51bb 74bd 84ba 3c5e b2bc
000001d0: 9fcc 343c 8790 d5bb 0c22 1e3d eaa1 08b8
000001e0: 79bb 703c 14ae 26bb 1792 bfb7 2f03 553c
000001f0: 187d 893d 6f3b a7bc 1b28 0cbd a8ef 433c
00000200: e17f b5bc f901 933d 14a1 aebc 1bc6 5e3d
00000210: 81db ccbb c7ae 413a e862 4cb5 e1a9 8abc
00000220: 4051 57b4 628d ae3a b7e4 e93c cedb 033b
00000230: 79a7 40b8 019e 063a c973 dabc 9418 c8ba
00000240: a735 60bc e1f1 61bc 5604 ec3b 6757 76bb
00000250: 3dfd 5ebc a413 25b4 d475 113d 7537 4d3c
00000260: 1ebf fc3b d2fc 3c3c 8bbd e7bc abd0 0c3b
00000270: d12d bbbb 2cf6 d53b 162b 64b9 e8fe 95bb
00000280: adc1 f5bb aa9c 48bb 9488 4639 4bac 86bc
00000290: c260 1b3d e1a2 9bbb 9d88 19bd 0dad d73c
000002a0: f818 ebbb 0848 b9bc 1807 17bb 0a4b 593a
000002b0: f6c5 16bc 26fa abbc 580e e03d 5a8e 22bc
000002c0: 135a 88bc 0d42 40bc 4146 033d a0b8 99ba
000002d0: a1fd b1bc a7f4 cc3b 1ddd d5bb 5f2a c53c
000002e0: 8f5c 023c b8e2 fdb0 5ff0 10bc 65e5 bf3b
000002f0: 9c04 9bbc 8066 22b7 ae6c 04b8 6cfa 9d3a
00000300: 025e b13c 89c8 15b8 2143 993c e0d4 023d
00000310: e88f ca3c 217a a13b 4816 5e3c b473 a03b
00000320: 3b7c e93c 77c5 a13b 48e5 613b ce0c 7c3c
00000330: a67e 0f3a 897c 1bbc 8120 d53c 25d9 a63c
00000340: d2dc d3b4 3771 943c 787f 98bc 8e89 bf3b
00000350: f2d0 dabc 13c6 4bb8 a2ad a13b 03ba 863c
00000360: 8f2f 163d 25b8 9a3c 0217 32ba e089 c3bc
00000370: 5a6e 233d 3d69 06bb f776 363c 1b60 3cbc
00000380: b67a 86bc a9cb ecbc 00ed b8bc 664e bdbc
00000390: 6213 563d 125e 843c a24d 04bd ff2d 6abb
000003a0: 9918 013c 8d1e ed3a eace ccba 14d3 213c
000003b0: 6f8c e4bb 208a 2f3d e0e1 853c ab4b 1a3c
000003c0: 3f45 a6bc dfd6 92bc 47fd 09bd 824b 9f3c
000003d0: 6e42 5dbb 6b71 b3bc 49fb 43bc b51a b1bb
000003e0: 95f9 0ebc 407f 3a36 697a 093b 5675 a43c
000003f0: 8a92 ddb9 e255 dcbc 7b69 c73b 5080 c53b
-0.011709595 -0.022579297 -0.0048214123 0.00040542983 -0.011073894 -0.0002618049 0.025798244 -0.031167878
0.004770575 0.0005856573 -0.03800928 -0.007422473 -0.012401935 -0.003298122 -0.0028521293 0.01153241
-0.011099001 -0.0002115346 -0.0031811001 0.03212801 0.06614676 -0.0001820963 -0.0018732082 0.02685712
-0.0076543107 0.02279771 0.033870067 -0.013845652 0.0051552774 -0.02676043 0.017593041 -0.017866444
-1.6787053e-05 -0.028970188 0.02466559 0.015134107 0.021504115 -0.00060012814 0.021526456 -0.01129792
-0.05656213 0.07986427 0.008185814 -0.006667748 -0.0024797337 0.021134214 -0.036055483 -0.010510015
-5.7906016e-07 0.023262484 -0.022781258 -0.0042500426 -0.00032956628 0.012223832 -0.016220352 -0.008022537
0.016754344 -9.342153e-06 -0.012828399 -0.0018773606 -0.017436035 -0.001981734 -0.012572086 0.032321658
0.013199934 0.02498475 0.043559644 -0.012192196 0.017095985 0.00064125226 -0.007008346 -0.00648472
0.0106747085 -0.0023379514 0.04150983 -0.00025738103 0.057206236 -0.00049956905 -0.0050266967 0.059018508
0.0016214227 -0.003807891 -0.024289582 0.011163526 0.036947045 0.00595624 -0.017325507 0.0072236406
-0.0022295886 0.024217783 0.0029372938 0.0059464984 -0.01617363 -0.003964565 -0.012175023 0.07717952
-2.3260334e-06 0.022690393 -0.0067162295 -0.022327105 -0.0063989814 0.023102364 0.0022937597 -0.043561235
-0.0011684869 -0.0025149153 -0.022687672 -0.025667062 0.033012062 1.9810659e-05 0.0080244355 0.041193753
0.002114893 -0.0031978383 -0.0010127262 -0.02177345 0.011035114 -0.006517473 0.03860669 -3.257572e-05
0.014693134 -0.0025433348 -2.2837003e-05 0.013001247 0.06713313 -0.020414082 -0.034217935 0.011958994
-0.022155704 0.07178111 -0.021317042 0.054388147 -0.006251753 0.00073884096 -7.613985e-07 -0.016926708
-2.0052994e-07 0.0013317282 0.028551443 0.0020120027 -4.593234e-05 0.0005135239 -0.026666539 -0.0015266114
-0.013684667 -0.013790579 0.0072026653 -0.0037588717 -0.013610181 -1.5373968e-07 0.03551276 0.012525429
0.0077132126 0.011534886 -0.028288623 0.002148668 -0.005712249 0.00652959 -0.00021759825 -0.0045775063
-0.0074998946 -0.0030610957 0.00018933631 -0.016439578 0.037934072 -0.0047496413 -0.0374838 0.026327634
-0.0071746074 -0.022617355 -0.0023045 0.0008289075 -0.009202471 -0.020993304 0.10940236 -0.009921635
-0.016644513 -0.011734498 0.03204942 -0.0011727996 -0.021727385 0.006254751 -0.006526603 0.024068056
0.007956638 -1.847261e-09 -0.008846371 0.0058562034 -0.018923096 -9.679818e-06 -3.157247e-05 0.0012052781
0.021651272 -3.571113e-05 0.018708767 0.031941295 0.024726823 0.004927889 0.013555117 0.0048966054
0.02850162 0.0049368697 0.0034468938 0.015383912 0.0005473889 -0.009490141 0.026016476 0.020367214
-3.946248e-07 0.018120391 -0.01861547 0.005845255 -0.026710961 -4.8583443e-05 0.0049340287 0.01644612
0.03666645 0.018886635 -0.00067935896 -0.023869455 0.03990016 -0.0020509504 0.011136762 -0.011497523
-0.016415935 -0.028905706 -0.022573948 -0.023108672 0.05226458 0.016158137 -0.0323006 -0.0035732982
0.0078794 0.001809077 -0.001562563 0.009876985 -0.006974749 0.042856336 0.016343057 0.009417455
-0.020296691 -0.017924724 -0.03368881 0.019445185 -0.003376152 -0.021904668 -0.0119617665 -0.005404795
-0.008726497 2.779023e-06 0.0020977503 0.020075481 -0.00042261585 -0.02689642 0.0060855723 0.006027259

fc2.bias f4 [256]
00000000: ecbf 5dbc 2426 00bc d549 42bc a94d 8cbb
00000010: ab86 d23c d717 24bc 48ad bfbb 2e6a 3ebc
00000020: a6e8 cfb7 8dc3 413c 8bbb 27bc 1d9b bfba
00000030: 2ab3 33bc 2b8a 2cba 5362 66bc f1f7 9438
00000040: 7d8a 60bc bf2b 98bb 81cb 88bc ec64 19bd
00000050: 2492 d9bb 88e4 59bc 8cad 79bc 5e9f 20bc
00000060: 8362 d0bb 0083 423d f10a 13bb a4ff 18bd
00000070: 596e 40bc 53ce 16b9 e2af 56bc c68b 543b
00000080: 386a 39bc acd0 c7ba 4dc1 6abb 3c5e 33bb
00000090: 325e 56bc d8b6 9eb8 68b8 65bb c70d 28bb
000000a0: 14bf 34bb d4be 8dbc 95af f7b9 0cd7 73b9
000000b0: 894a 5bbc 45c1 93ba 6730 cfbc 7968 f7bb
000000c0: a7cd 153d c320 3fbc 6f48 dabb 2836 7bbc
000000d0: 0787 cdba 80a0 13bc 1da7 80bc fed4 0fbb
000000e0: 2dc9 d33c 41d1 48b9 0d66 86bc 0a67 d5bb
000000f0: 9e0c 99b9 96db 16bb 64f1 45bb d636 6ebc
00000100: b5d8 083d ee5d 90bc b884 70bc 3bf0 8fbb
00000110: 57cc 0abb 172b 53bb c63b abba 2083 383b
00000120: ac96 0dba 2df8 62bc 2dbd 20bc 5c0b 01bc
00000130: 773e 69bc c3d8 253d a97a 163d 7122 a2b8
00000140: c67d 15bc 0f22 9eb8 9d3c 66bc 93c8 0abc
00000150: f21f 53b9 346b 32bb 0353 443c 0161 45bb
00000160: 26e7 4f3b c431 36bb 556e 07bc 3a44 a1bc
00000170: 49e8 93bb c789 4dbc fa3a 1ebc 8026 dcb8
00000180: 9fd5 ad3c 90f6 19ba 8f7f 7db8 63f6 e0bb
00000190: dae7 89ba 1762 cfbb ed24 17bc 466d efbb
000001a0: 01d9 32bc a874 98b8 eb5b bfbc dfc0 01bc
000001b0: a3d1 133d 5e7f f13b 470c 91bb 65e6 9a3c
000001c0: 4aee 3bbb e1e8 8dbc ee1b 9eba 9890 88b9
000001d0: 0a1c b6bb 894c 11bc 8c92 2fbc 20ce 8ab9
000001e0: fea8 b239 6fac c4bb 20ea 013d 7a03 583c
000001f0: abcb 0fbc 51ad 35bb e72b e33b 6ef8 98bb
00000200: 0b48 aebb ae7c 62bc ddbd acbc ff5a cfb9
00000210: 429d 4ebc 268b 21bc 2acf b7bc b9f7 50bc
00000220: 86e0 98b7 3efb 273d 9c55 2abb 1454 433d
00000230: b92e a1ba ad12 9bbc 8c6f 9bbc c47b 96bc
00000240: 0346 0dbc b3f2 94bb 3c61 f3bb 8069 b23c
00000250: 5111 79bc 66cf 7fbc 9c53 3abb 92af 87bb
00000260: 9c41 cab9 b65e 45bc 0edd 88b9 8265 99b9
00000270: a917 e4b8 c57b bab6 a0f4 71bc d1f9 47bc
00000280: 8672 e6ba 5f17 58bc 9ab1 efbb 4902 4bba
00000290: 2960 0abb 53b0 cbba 60b5 5fb9 152e 51bc
000002a0: da71 e2bb 332a bcbb 781f ffbc b419 bcb6
000002b0: 3fd4 e8bb 8d31 9dba 74e8 2dbc 2629 70bb
000002c0: 7d38 23bc 80f9 9cb9 9adb 56bc 0366 4cbb
000002d0: bbf7 b9bc 9bee dcb8 0432 afbb c3c5 82bb
000002e0: a94d 7fbc 328a 6cbc e7f7 4abc 6561 87bc
000002f0: d7ff 65bc 88a6 70bc abb3 22bc 7dd7 5e3d
00000300: fa66 3eb9 1e33 86bc 018b 96bb 2f94 1bbb
00000310: d95e 76ba 70a4 b83c 313e 063d 8cd1 a9ba
00000320: 02a9 47bc 6712 16ba 6c37 d1b8 1b13 d93c
00000330: 251f 20bc 324b 98bc 9ee9 fdb8 a3a5 6bbc
00000340: ba0d e6b9 a3cf 62bc 2015 d2bb 9ad6 2b3d
00000350: 38f4 1fba 6535 713d d674 74bc f176 5cbc
00000360: 34a6 7dbc dede 3cbc f234 9ebc c021 6db9
00000370: a5a7 e2b7 de2c 01bc c6a8 21bc e7c3 abbc
00000380: 680f eeb9 6273 263b de08 98b9 f9c8 40bc
00000390: 03f2 ca3b 7e10 a2b9 beac ba3c 5aa2 25bc
000003a0: c469 55bc a0d8 6abc f050 d2bb f3a1 6f3d
000003b0: a1f4 f9b9 cc41 fbbb 8c9f 793b 2719 b1bb
000003c0: e409 8e3b cf78 43b9 9fcf 29bd 2664 5abc
000003d0: 376b 33ba 1448 ebb8 0944 9d3c 1906 06ba
000003e0: 58a5 c1bb 031e 9aba 25d4 07bd 2bb4 4cbc
000003f0: 2f0c febb 9d6f 0f3c d93d 49b9 7c35 76bc
-0.013534527 -0.007821593 -0.011858423 -0.0042817187 0.02569898 -0.0100154495 -0.005849514 -0.011621995
-2.4784658e-05 0.011826408 -0.010237585 -0.0014618371 -0.010968009 -0.0006581868 -0.014061528 7.1033726e-05
-0.013704893 -0.004643887 -0.0166986 -0.037449762 -0.006639736 -0.013299115 -0.015239131 -0.009803621
-0.0063593998 0.047488213 -0.0022436942 -0.037353173 -0.011745059 -0.00014381977 -0.013103457 0.0032431944
-0.011316828 -0.0015244684 -0.0035820783 -0.00273694 -0.013083981 -7.5680844e-05 -0.0035052542 -0.0025642978
-0.0027579712 -0.017302908 -0.0004724233 -0.00023254397 -0.01338447 -0.0011272809 -0.025291635 -0.007550296
0.03657308 -0.011665526 -0.006661467 -0.015332736 -0.00156805 -0.009010434 -0.015704686 -0.0021947022
0.025852764 -0.0001915144 -0.016406083 -0.0065125274 -0.00029191835 -0.0023019067 -0.0030203694 -0.014539441
0.033409793 -0.017622914 -0.01468008 -0.0043926514 -0.0021178925 -0.0032221728 -0.0013064079 0.0028154328
-0.0005401175 -0.013853115 -0.009810728 -0.007876243 -0.014236084 0.040489923 0.03673807 -7.731177e-05
-0.009124225 -7.540371e-05 -0.014052537 -0.008470672 -0.00020134429 -0.0027224543 0.011982682 -0.0030117633
0.0031723469 -0.0027800659 -0.008266051 -0.019685853 -0.0045137745 -0.012545056 -0.009657616 -0.00010497589
0.021220027 -0.00058732275 -6.04387e-05 -0.006865309 -0.0010521368 -0.006328832 -0.009225112 -0.0073067276
-0.010915996 -7.269654e-05 -0.02335926 -0.007919519 0.036088597 0.0073699197 -0.0044265124 0.018908689
-0.0028675967 -0.01732296 -0.0012062767 -0.00026047672 -0.0055575417 -0.008868345 -0.010716092 -0.00026474986
0.00034076715 -0.006002001 0.03171742 0.013184423 -0.008776586 -0.0027721713 0.006932724 -0.004668287
-0.005318647 -0.013823671 -0.021086628 -0.00039549914 -0.012610735 -0.009859836 -0.02243765 -0.012754374
-1.8224364e-05 0.041011088 -0.0025990969 0.047687605 -0.001229725 -0.018929804 -0.018974088 -0.018369563
-0.008622649 -0.0045455336 -0.0074273627 0.021778822 -0.015201882 -0.0156134125 -0.0028431183 -0.0041408027
-0.00038577325 -0.012046507 -0.0002610464 -0.00029258063 -0.00010876294 -5.5576406e-06 -0.014767796 -0.012205557
-0.0017581738 -0.013189166 -0.007314873 -0.0007744176 -0.0021114445 -0.001554022 -0.00021334505 -0.0127673345
-0.006910545 -0.005742335 -0.031142935 -5.605829e-06 -0.00710538 -0.0011992917 -0.010614503 -0.003664562
-0.009962198 -0.0002994053 -0.0131138805 -0.0031188733 -0.022701135 -0.00010534861 -0.0053465385 -0.00399086
-0.0155824805 -0.014437245 -0.012388206 -0.016525934 -0.014038048 -0.014688142 -0.0099305315 0.054404724
-0.00018158174 -0.016381796 -0.0045942073 -0.0023739447 -0.00093982887 0.022539347 0.032774154 -0.0012956127
-0.012186291 -0.0005724788 -9.97622e-05 0.026498368 -0.00977305 -0.018590543 -0.00012107495 -0.014382753
-0.00043879246 -0.01384345 -0.0064112097 0.041952707 -0.000610176 0.05888881 -0.014920434 -0.013456092
-0.01548152 -0.011527745 -0.019312356 -0.00022614654 -2.7019365e-05 -0.007884232 -0.009866899 -0.020967437
-0.00045406376 0.0025398363 -0.00028998306 -0.011766666 0.006193401 -0.00030911335 0.022787448 -0.010109508
-0.013025705 -0.014333874 -0.00641834 0.058504056 -0.00047675244 -0.0076677557 0.0038089482 -0.0054046097
0.004334675 -0.00018641654 -0.04145777 -0.013329541 -0.00068442844 -0.00011219099 0.01919748 -0.0005112603
-0.005909603 -0.0011758212 -0.0331613 -0.012494127 -0.0077529172 0.008754638 -0.00019191894 -0.0150274

fc3.weight f4 [128, 256]
00000000: bac5 05bd 773c 2f3b 18b2 c838 2259 8e3d
00000010: 38a1 d83c 543f 9639 58a1 4cbb 5ce3 f339
00000020: 166f 9cb4 d9dd 1bbd faa2 2c3b c332 af37
00000030: 1d29 8c39 426d c2b6 41a1 d23a 5ebe 1dbc
00000040: ba3b feb9 03aa da38 2588 103b 4e5c 7d3b
00000050: 77b8 d3b8 d484 9abd afd1 b238 8a0a a738
00000060: abbe 6539 c4df 723d dacd c2ba dd28 083b
00000070: f08c e339 3254 3137 e29d 7f3a 477e 1a3c
00000080: 6224 c739 1631 4438 84e4 8438 b5a7 61bc
00000090: 2070 9638 a70c 22b4 e0a5 6239 ea28 a538
000000a0: 9a17 9c38 ac98 a53a 2afb 4a37 af04 ebb4
000000b0: f5c0 7839 a99a d936 a1e1 16bc 61db 943a
000000c0: 3384 74bc 5765 41b9 3010 f738 237a 40ba
000000d0: 1a3b 0e38 b4d4 6239 5fc2 183b 4ac2 eb37
000000e0: f466 99bc a589 c838 8bef ebb9 dc3b 4639
000000f0: d58d a237 2352 0838 4106 1238 9317 12bb
00000100: 74a8 b3bd 96ce aebb 056a 28bb 98db 58bb
00000110: 2ff1 2538 8000 ac38 97eb 0738 c965 133d
00000120: 4812 15b6 2ad7 01bb 7e08 43bb e55a bd39
00000130: 497a c339 c648 8b3d 24e1 0a3d 48ff f035
00000140: 965e 2cbb 2a84 3cb4 1d5e babb 8fc4 ce38
00000150: d5f3 d9b4 52e3 b838 f724 2abc 6348 b538
00000160: bd8d 1f3d 02bc a4bd f84c 2b39 6b96 0abb
00000170: 825c c937 69b0 f8bb 8b61 e839 80ce 5c37
00000180: d659 a73c c813 6237 4a6e 89b4 b9bd ddb9
00000190: df4e 1e38 114b 1f39 6ca3 c6ba eef7 2b39
000001a0: d2db 023c 98eb ceb4 890f 733a 4c9d 53b8
000001b0: c91a 983d b016 39ba b2d6 b5ba 6afe 6abd
000001c0: 1fe8 b838 bb5f 9439 4864 d237 dc08 7e36
000001d0: 4f26 f437 66c7 b439 572a c2b8 e3a9 a736
000001e0: 5ee2 89bd be1e 0539 0a81 de3a 807f 0dbc
000001f0: e2e0 5bbb 9438 8538 03f5 aabc 1468 d1b9
00000200: d035 2838 b827 c839 094b 02bd 0810 de33
00000210: 8e19 8dba 41ca 6039 69ec 7bbb a787 093a
00000220: 192d 4b35 b4b6 113d 496d 5f38 f109 673d
00000230: 3f02 2738 cc69 1e3c 5d29 9b3b c02f 1cbd
00000240: 255d 223a 7ef3 a63b b4d7 d538 15b8 a53c
00000250: 819f c3b9 5282 47b8 dd38 e137 1842 5a37
00000260: 4e4d 9636 cf2a ab39 81b7 62b5 2047 26bd
00000270: 954a c3b5 eff4 9cb3 253c fc3a 6f42 80bb
00000280: c03d 9538 94ac 9f3a e28b 053a 3c2b 0e38
00000290: b972 1b38 437c c337 242c 7436 ed0a e8b7
000002a0: 26db 8039 d0ef c138 f977 e2bb cc0a 8d34
000002b0: d9f7 1f38 f0db b336 539e d839 f055 3d38
000002c0: e347 0a39 9ed5 4635 c0b5 0239 8158 d838
000002d0: 2a0e d8b9 22f6 5636 bcbe c638 e720 4437
000002e0: e752 0a3a 31df c7ba d208 823a 61cc da3a
000002f0: 613a 443a 54c9 c2b8 3966 103a f56b b73c
00000300: 8371 6e36 7ba8 e339 c4f0 5838 e941 4f3d
00000310: 1bb0 b137 3fcb 98bc af1b ffbc b90d 1b38
00000320: e22a 9639 b8f4 2737 b9d2 e8b4 c82c 733c
00000330: 182f 92b8 c31e c83b a2e1 b335 3fb7 d6bb
00000340: 7142 8837 c661 833b a541 1239 4fc4 273d
00000350: e546 1e37 0dda 9a3d 6a6c a9b9 3a03 b7b8
00000360: 857b d5ba b02e cf3a d646 0e3b b370 9836
00000370: b6d0 09b5 3a26 6a39 f3ab 80bb 68da a339
00000380: eaf1 1b37 48ff fbbc a8b8 0bb4 a7f4 bcbb
00000390: 849f 6c3c 7d56 1236 3ad5 203d 717d 03bb
000003a0: d9d8 93b9 9dc8 473b 7679 be39 c1a2 7e3d
000003b0: 230a 3537 c196 5638 4c20 063d c7fb 9038
000003c0: 2073 a73b d190 fe36 777a 043d 5c36 f7b9
000003d0: 1948 6637 20a2 0ab6 7ff4 88bd acf2 4037
000003e0: a7c2 c536 9a72 d937 c8bc 233d 8ac6 1d3c
000003f0: e29b ca39 7952 753d 4e69 4d34 f0e4 dc38
-0.03265927 0.002673892 9.569916e-05 0.069505945 0.026444063 0.00028657413 -0.0031224098 0.00046517968
-2.913809e-07 -0.038053367 0.0026342259 2.0885263e-05 0.00026733513 -5.79437e-06 0.0016069786 -0.009627907
-0.00048491155 0.00010426717 0.0022053805 0.0038659754 -0.00010095623 -0.07544866 8.526758e-05 7.9651436e-05
0.00021910171 0.05929543 -0.0014862374 0.002077631 0.0004340182 1.0569625e-05 0.00097510044 0.009429521
0.00037983345 4.6775756e-05 6.336815e-05 -0.013772895 7.173442e-05 -1.5092029e-07 0.00021614833 7.875434e-05
7.443056e-05 0.0012634001 1.2098617e-05 -4.377557e-07 0.00023723005 6.4851088e-06 -0.009209068 0.0011356884
-0.014924097 -0.00018443666 0.00011780893 -0.00073424185 3.391048e-05 0.00021632278 0.0023309214 2.8104656e-05
-0.01872585 9.5623815e-05 -0.00045001166 0.00018905051 1.937795e-05 3.2501423e-05 3.4814937e-05 -0.0022291883
-0.08772364 -0.0053346856 -0.0025697958 -0.0033089872 3.9563685e-05 8.201692e-05 3.240592e-05 0.03598574
-2.2213371e-06 -0.0019812086 -0.00297597 0.0003611661 0.00037284408 0.0680099 0.033906117 1.795569e-06
-0.0026301495 -1.7556945e-07 -0.0056874887 9.859457e-05 -4.059681e-07 8.8161454e-05 -0.01038479 8.644236e-05
0.03895353 -0.08043672 0.00016336504 -0.0021146785 2.4004145e-05 -0.007589389 0.00044323163 1.3161101e-05
0.02042858 1.3475255e-05 -2.5598484e-07 -0.0004229376 3.774359e-05 0.00015191386 -0.0015154905 0.00016400192
0.00798698 -3.8541907e-07 0.0009272029 -5.0452814e-05 0.07426984 -0.00070605706 -0.0013873188 -0.057371534
8.8170396e-05 0.00028300085 2.5080648e-05 3.7854106e-06 2.9104905e-05 0.0003448084 -9.258527e-05 4.9967653e-06
-0.06732629 0.00012695321 0.0016975712 -0.008636355 -0.0033550789 6.352473e-05 -0.020868784 -0.0003994113
4.0104438e-05 0.00038176565 -0.03180984 1.0340597e-07 -0.0010765062 0.0002143765 -0.0038440472 0.0005246349
7.568902e-07 0.03557463 5.3269123e-05 0.056405965 3.9817995e-05 0.009668779 0.0047351555 -0.038131475
0.0006193689 0.0050949445 0.00010196809 0.020229379 -0.00037312138 -4.7566667e-05 2.684857e-05 1.3009201e-05
4.479348e-06 0.00032647557 -8.4458594e-07 -0.040595174 -1.4550338e-06 -7.308869e-08 0.0019243999 -0.0039141695
7.1163755e-05 0.001218217 0.00050943915 3.3895703e-05 3.7061724e-05 2.3303675e-05 3.6384527e-06 -2.7661643e-05
0.0002457734 9.247626e-05 -0.0069112745 2.6271152e-07 3.813938e-05 5.36022e-06 0.0004131669 4.5141147e-05
0.00013187485 7.40716e-07 0.00012465473 0.00010316168 -0.00041209284 3.2031753e-06 9.476903e-05 1.1690171e-05
0.00052766356 -0.0015249011 0.0009920842 0.001669299 0.0007485506 -9.288141e-05 0.00055083964 0.022390345
3.5530836e-06 0.00043422342 5.1722644e-05 0.050599966 2.118205e-05 -0.018651603 -0.03114113 3.696766e-05
0.0002864218 1.0010954e-05 -4.3366688e-07 0.01484222 -6.9705944e-05 0.0061071827 1.3402207e-06 -0.0065526064
1.6243403e-05 0.0040094582 0.000139481 0.0409587 9.43404e-06 0.07561121 -0.00032314967 -8.726721e-05
-0.0016287422 0.0015806761 0.0021709702 4.543073e-06 -5.134019e-07 0.0002233022 -0.003926748 0.00031252508
9.295045e-06 -0.030761376 -1.3012561e-07 -0.0057664695 0.014442328 2.1806038e-06 0.03926585 -0.0020063783
-0.0002819959 0.0030484565 0.0003633012 0.062166933 1.0790801e-05 5.1161976e-05 0.032745644 6.913352e-05
0.0051101595 7.5866487e-06 0.032343354 -0.00047152012 1.3725855e-05 -2.0657972e-06 -0.06687259 1.1500593e-05
5.893718e-06 2.5921781e-05 0.039974958 0.009629855 0.00038644584 0.059893105 1.9130422e-07 0.000105330604

fc3.bias f4 [128]
00000000: 03df 823c 463a 2dba c1ec 393c fa5b 09ba
00000010: 9e3a 4bb8 1133 3f3d ea48 cdba 1c00 973a
00000020: 025b adbb 773e cebb 6c83 3c3d cf9b a3b9
00000030: 3aad 47bb 50b4 963c 9bec edba a0be 8fbb
00000040: 5fae 82bb bea0 1cba 7786 6abb 5182 03b5
00000050: 82f1 6f3d 21dd 323d 5212 9b3c 1dae 5cb6
00000060: dfe1 92b7 285c d039 5513 cc3c 0502 bb3c
00000070: 5cc5 503c 6cdc a5ba 066e 69b6 eaff 0ab3
00000080: 5dfa 27b3 555c 9dba a886 52b7 9dd2 83b4
00000090: f4bb a5b6 5643 b5ba b0e0 28bb 3539 0bba
000000a0: 8869 8db8 f6c2 fdb9 6ee7 98bb 1e2d 69bb
000000b0: d3da 483c 5990 4f3d 1b2a a3bb d781 3ebb
000000c0: 86e7 f0bb da19 eabb ffaa 02bc 5643 91ba
000000d0: 68e0 a6ba 79da 47b9 8929 c33c ef16 62bb
000000e0: d84f bab8 2423 39ba b35b 333c 4a90 033d
000000f0: ace8 ddba a126 ceb7 1ba4 96bb 3ce0 6cbb
00000100: f640 d4bb ceca f8bb 4fc9 c8ba a586 193d
00000110: 774e 83bb 6bc9 13bc f40e 9eba 5b39 5fbb
00000120: ac47 ccb9 9ad4 7e3d a09e 85ba 879f b43c
00000130: 086e b7b4 cadd 80bb 612c 8e3c 47b3 00bb
00000140: 0301 80b8 13fd 65ba 4be0 a0ba 5738 8ab8
00000150: 31da 4a3d c75b 8cb6 78b8 edba b831 d8bb
00000160: a3e4 99bb c50f 5cbb 197d 8db9 ae06 88b9
00000170: b09e 343d 0f4c 6a3d 59ce d0b9 1d75 b5bb
00000180: 2a9c a1bb 39ba 7bbb 583b 0cba c2b8 9e3c
00000190: bfb4 56bb f868 823c ae7e d03b a905 953c
000001a0: 6651 36bc 0040 163d 48f6 fbbb 4989 b23b
000001b0: 2fe2 93bb 164d 8a3c ac80 1abb b2f7 2cbb
000001c0: 863b eaba bc74 f8bb 369b e3bb abdd beb9
000001d0: 66a9 19ba 81be 263d 3c5d 493d 286c 883d
000001e0: e0af 2dbb 834b ddba 8f99 01bb a137 b9b7
000001f0: c8b6 58ba e8f4 9eba 155e 8bb3 7b0a 983b
0.01597548 -0.00066081097 0.01134795 -0.0005239841 -4.8453563e-05 0.04667956 -0.0015661989 0.0011520418
-0.00529039 -0.0062940675 0.04602377 -0.0003120587 -0.0030468241 0.018396527 -0.0018152179 -0.004386738
-0.003988072 -0.000597488 -0.0035785714 -4.899094e-07 0.05857993 0.043667916 0.018929634 -3.2883902e-06
-1.7509736e-05 0.00039741513 0.024911562 0.022828111 0.012742367 -0.0012654192 -3.4783748e-06 -3.236338e-08
-3.911042e-08 -0.0012005667 -1.25483275e-05 -2.4553893e-07 -4.939264e-06 -0.0013829272 -0.002576869 -0.0005310954
-6.743061e-05 -0.00048401178 -0.0046662604 -0.003557987 0.012259203 0.05067477 -0.0049793846 -0.002906909
-0.0073518185 -0.007144195 -0.007975339 -0.001108269 -0.0012731673 -0.00019059506 0.023823516 -0.0034498533
-8.884043e-05 -0.00070624263 0.010947156 0.032120027 -0.0016930304 -2.4575102e-05 -0.0045971996 -0.0036144396
-0.0064774705 -0.0075925356 -0.0015318784 0.037481923 -0.0040071565 -0.00902019 -0.00120589 -0.0034061286
-0.00038963312 0.06221447 -0.0010194369 0.022048725 -3.4166465e-07 -0.0039326893 0.017355146 -0.0019638108
-6.103704e-05 -0.0008773368 -0.0012273876 -6.590847e-05 0.04952449 -4.1830094e-06 -0.0018136641 -0.006597724
-0.004696445 -0.0033578735 -0.0002698682 -0.00025944918 0.04409665 0.05720144 -0.00039826593 -0.0055376426
-0.0049319463 -0.0038410558 -0.0005349419 0.019375209 -0.0032761542 0.015919194 0.0063627576 0.018191176
-0.011127805 0.03668213 -0.007689271 0.0054484946 -0.004513047 0.01688246 -0.002357523 -0.0026392755
-0.0017870523 -0.007582275 -0.006945993 -0.0003640478 -0.0005861729 0.040709022 0.04916118 0.06661254
-0.0026502535 -0.0016883466 -0.0019775366 -2.2079623e-05 -0.00082669826 -0.0012127431 -6.489805e-08 0.0046399212

fc4.weight f4 [1, 128]
00000000: ad5e 253e e558 f4ba 7c67 013e 5a7d 1d39
00000010: 9ac7 a8b8 c018 083e 61b6 ae3d b86c 7c39
00000020: b0af 0b3b b136 20bb d045 093e 293b 1b3a
00000030: 027d a93b 2ebb 9d3d c281 df39 8c74 ed3a
00000040: 2b59 643b eaf9 9a39 f0e0 cfbb efd8 d9b4
00000050: b467 e33d 3d16 0a3e 6f47 003e c4a7 adb5
00000060: 33f5 24b6 de20 0d39 7f45 cc3d a358 fe3d
00000070: 8413 1f3e fdc7 be3d 77b5 c834 8026 592d
00000080: a06c 1aae 51ca 19bb 6f48 4bb6 5fa3 d4b1
00000090: 0f6d d5b5 4656 92bb 643c a93b 86c4 7a39
000000a0: a5f3 beb8 6790 2f3a 9277 f6bb 593e f5bb
000000b0: 3ae6 273e 7655 f23d 4912 c73b 59c6 a1bb
000000c0: 7853 28bc 1dd6 34bc 2eb5 16bc 14c6 e7bb
000000d0: 195f a4bb ff68 0238 aa74 193e ff92 edbb
000000e0: 032c 49b8 03ff 723a f12b 5c3e e791 073e
000000f0: 0e3c ad39 4989 3c36 d073 ac3b f91c e7bb
00000100: f4fd 12bc 4589 25bc f016 84ba e73d 1a3e
00000110: 8841 e9bb 6205 0bbc 22ea f73a ba64 97bb
00000120: d3b1 d138 96ab f63d f3cb f63a 4458 103e
00000130: 2fb8 b2b1 991c d3bb 3c3b b13d 3d0c 0bba
00000140: e67f 3237 8337 6dba 970d 903d 546a 13b8
00000150: bf8a f93d 8e10 19b3 4443 71ba e870 0439
00000160: a7ea 97bb af7e 1a3e b3ed c3b9 c00f a6b9
00000170: 9bb7 f93d ffff 193e 0d7a a736 e3ca 253c
00000180: c28d b03b 99b2 993b 1a47 91ba 1465 1e3e
00000190: 094e 833b 1e8a 033e a0bc 133e b381 a83d
000001a0: b434 853b 3c16 ce3d ff16 2bbc 82ff adbb
000001b0: 8422 15bc 78e6 0f3e b8f4 dc3a e726 ce3b
000001c0: d56f b1bb d5c2 25bc 3194 2dbc b3e0 c039
000001d0: 293f ee3d 5688 b63d c7b7 b13d 51da f23d
000001e0: 41fe e4bb 6c0f 0f3c e365 cbbb f149 34b7
000001f0: ae55 12ba 60cf 90bb 6ae1 2cb2 8f61 273e
0.16149397 -0.0018642215 0.12637132 0.00015019384 -8.048043e-05 0.13290691 0.0853088 0.00024073094
0.0021314435 -0.002444666 0.13405538 0.00059215963 0.005172373 0.07701717 0.00042630552 0.0018116399
0.0034843187 0.0002955937 -0.0063439533 -4.057724e-07 0.11103764 0.13485046 0.1252725 -1.2938331e-06
-2.458063e-06 0.00013459052 0.09974193 0.1241925 0.15534788 0.093154885 3.7384936e-07 1.2343571e-11
-3.5112024e-11 -0.0023466537 -3.029152e-06 -6.188585e-09 -1.5901477e-06 -0.004465851 0.00516467 0.00023915069
-9.105288e-05 0.0006697238 -0.007521578 -0.007484239 0.16396418 0.11832707 0.006075178 -0.004936975
-0.010273807 -0.011037377 -0.00919847 -0.0070731733 -0.0050162193 3.10922e-05 0.1498591 -0.0072501893
-4.7963124e-05 0.0009269567 0.21501137 0.13239251 0.00033041876 2.8094094e-06 0.0052628294 -0.0070530144
-0.00897168 -0.010103528 -0.0010077637 0.15062676 -0.0071184076 -0.00848517 0.0018914382 -0.004620162
9.999019e-05 0.12044446 0.0018829092 0.1409617 -5.201421e-09 -0.006442618 0.08653876 -0.0005304253
1.0639405e-05 -0.00090491044 0.07033842 -3.5146557e-05 0.12184667 -3.5638145e-08 -0.0009203444 0.00012630562
-0.004636127 0.15087388 -0.00037370398 -0.00031673722 0.12193223 0.15039061 4.9911964e-06 0.010119173
0.0053879926 0.00469048 -0.0011083812 0.15468246 0.0040071052 0.12845656 0.14427423 0.08227863
0.0040651206 0.100628346 -0.010442494 -0.00531 -0.009102467 0.1405276 0.00168576 0.0062912586
-0.0054149427 -0.010117252 -0.010594414 0.00036788508 0.116331406 0.08912723 0.08677631 0.11858047
-0.0069883172 0.008731704 -0.006207214 -1.0746052e-05 -0.0005582225 -0.0044192523 -1.0062971e-08 0.1634581
