ContinuousControl/critic.pth (torch_old, 436517 bytes, 11 tensors)

fcs0_batch.weight f4 [33]
000000 97 58 48 00 7f d0 55 00 67 13 f8 00 92 22 4e 00
       6.643936e-39 7.880811e-39 2.2782163e-38 7.17557e-39
000010 7d 58 01 00 75 aa 49 00 c7 a6 49 00 63 53 55 00
       1.23579e-40 6.76514e-39 6.76382e-39 7.83593e-39
000020 23 70 35 00 8d ef 45 00 1d a9 1c 00 79 0d 33 00
       4.907508e-39 6.422584e-39 2.63206e-39 4.688443e-39
000030 7c 33 4b 80 15 dc 10 80 eb 62 00 00 d5 13 45 00
       -6.906131e-39 -1.548318e-39 3.5485e-41 6.343764e-39
000040 23 63 4b 00 ac ef 4e 00 81 0c 23 80 c0 7c 26 80
       6.923226e-39 7.249147e-39 -3.218728e-39 -3.534501e-39
000050 85 02 48 00 6b 55 57 00 bb 99 3d 00 68 38 5c 00
       6.61306e-39 8.02033e-39 5.657113e-39 8.4691e-39
000060 ec fc 2b 00 e4 ad 50 00 aa 33 4f 00 b4 66 9b 00
       4.039658e-39 7.40922e-39 7.273538e-39 1.4271345e-38
000070 bb 81 31 80 d9 57 2e 00 3c 93 0b 80 c4 9f 51 00
       -4.546478e-39 4.255947e-39 -1.063008e-39 7.495988e-39
000080 50 96 08 80
       -7.88606e-40

fcs0_batch.bias f4 [33]
000000 d8 e0 a4 00 00 a9 c6 00 24 ae 64 00 ff 78 31 80
       1.514168e-38 1.8244054e-38 9.24602e-39 -4.543345e-39
000010 67 3d 2a 80 26 f5 38 80 95 20 b1 80 50 4d cb 80
       -3.879118e-39 -5.23073e-39 -1.6266571e-38 -1.867034e-38
000020 ba 01 48 00 99 41 89 00 2a 3f 51 00 9c 3f 17 00
       6.612775e-39 1.2604995e-38 7.461334e-39 2.135035e-39
000030 dc 71 68 00 4f 6b b2 00 91 50 6e 00 f1 12 72 80
       9.591737e-39 1.6385213e-38 1.0130806e-38 -1.0476041e-38
000040 12 a9 a7 00 42 cc 83 00 bc 07 7d 00 1b eb 4e 80
       1.5397179e-38 1.2103724e-38 1.1482212e-38 -7.247509e-39
000050 72 70 5e 80 7b 1e 21 00 e3 c2 92 00 39 e5 04 00
       -8.672874e-39 3.041506e-39 1.3477895e-38 4.49572e-40
000060 d1 41 14 80 9e 76 45 00 59 2d 60 00 5d d3 57 00
       -1.86032e-39 6.379201e-39 8.832475e-39 8.065511e-39
000070 fc fb c6 80 3c c7 63 80 11 16 6a 80 99 97 2d 00
       -1.8273823e-38 -9.163186e-39 -9.742479e-39 4.18698e-39
000080 f5 61 0c 00
       1.137166e-39

fcs0_batch.running_mean f4 [33]
000000 53 0e db be 84 a4 6b 3e 1e 1a 72 bf 04 74 ae 3c
       -0.42784366 0.23011976 -0.945711 0.021295555
000010 7d a6 2f 3c 5a 3b 3f bb 6a b0 eb bc 73 db f1 3f
       0.010720846 -0.0029179663 -0.028770644 1.8895096
000020 cd 99 98 3e fa e5 71 3e f1 d4 16 be 1b d1 02 3e
       0.2980484 0.23622885 -0.14729668 0.1277508
000030 0a 14 dc ba 11 78 bc be 42 f8 88 3e 86 0d 0b c0
       -0.001679064 -0.36810353 0.26751906 -2.1727004
000040 9e 91 85 bb 80 2a 33 3c d9 71 fd ba e6 2b 4e bc
       -0.004076197 0.010935426 -0.0019336297 -0.012583708
000050 50 a2 1e 40 70 53 3d 3d c4 ea 3f bf d2 0a 09 be
       2.4786568 0.04622215 -0.749676 -0.13383034
000060 38 71 37 3f 98 17 1f be 81 35 b6 3d fc ff 7f bf
       0.71657133 -0.15536344 0.08896924 -0.99999976
000070 bd 93 0b be 00 00 00 00 fc ff 7f 3f 00 00 00 00
       -0.13630576 0.0 0.99999976 0.0
000080 a6 a5 65 bb
       -0.003504136

fcs0_batch.running_var f4 [33]
000000 b8 0e 13 40 bf c9 e2 40 e1 f4 b7 40 2e c6 e1 3e
       2.2977734 7.087127 5.7486424 0.44096512
000010 cd 2a af 3c b2 a8 09 3d 20 3d 01 3f 4b 77 2e 40
       0.021382714 0.033608146 0.50483894 2.726031
000020 90 b2 b3 3e 6a b5 14 3f 3c be 6f 41 23 86 32 42
       0.3509717 0.58089316 14.983944 44.630993
000030 64 48 15 42 42 af a9 40 f5 18 09 42 b8 34 df 41
       37.320694 5.302644 34.274372 27.900742
000040 08 73 95 3e 18 68 5c 3e 11 c4 69 3e 44 02 88 3e
       0.29189324 0.21524084 0.228287 0.2656423
000050 8f fb ba 40 8f 82 f0 3f d6 5f 15 40 4e ed 18 42
       5.843208 1.8789843 2.3339744 38.231743
000060 93 b6 78 43 b8 54 48 43 be 01 01 42 04 00 00 00
       248.71318 200.33093 32.2517 6e-45
000070 ce 3d fe 41 04 00 00 00 04 00 00 00 04 00 00 00
       31.780178 6e-45 6e-45 6e-45
000080 d0 c7 a3 3e
       0.31988382

fcs1.weight f4 [256, 33]
000000 6f c4 20 00 09 48 14 00 b7 fa ae 00 b4 37 9a 80
       3.009203e-39 1.862551e-39 1.6069316e-38 -1.4162649e-38
000010 3c f5 83 00 da 02 1d 00 82 28 bd 80 3a 56 20 80
       1.2118424e-38 2.664252e-39 -1.737144e-38 -2.969668e-39
000020 78 f8 31 80 b9 11 8c 00 3d 66 79 80 66 ea 99 00
       -4.589073e-39 1.2863327e-38 -1.1148771e-38 1.4134917e-38
000030 a4 8c 21 80 6d fa 4a 00 28 6b 2b 80 97 b4 b6 80
       -3.081024e-39 6.885663e-39 -3.987367e-39 -1.6778844e-38
000040 a6 99 70 80 b5 b7 6a 80 ce f1 e7 80 10 f8 0e 80
       -1.0340694e-38 -9.800464e-39 -2.1300743e-38 -1.374685e-39
000050 7e ba 11 80 20 a8 1a 00 6a 39 66 00 e9 64 b3 00
       -1.628104e-39 2.448035e-39 9.387817e-39 1.6474754e-38
000060 fb 93 92 00 ff f4 c5 80 06 1e 3a 00 9e 9a 48 00
       1.3461068e-38 -1.8179481e-38 5.337229e-39 6.667622e-39
000070 9f b4 50 00 9f 64 4f 80 ef 7f 79 80 03 9d 39 00
       7.411634e-39 -7.2911e-39 -1.1157989e-38 5.290948e-39
000080 c6 41 67 80 5f 85 27 80 d6 d4 37 00 d5 a2 ab 80
       -9.482651e-39 -3.629429e-39 5.127303e-39 -1.5762283e-38
000090 e1 b3 1e 80 17 d0 63 00 79 d7 13 00 b5 bc 48 80
       -2.819593e-39 9.166363e-39 1.822171e-39 -6.679851e-39
0000a0 6b 35 4b 00 5b db b3 80 c1 ac 6e 00 93 50 75 80
       6.906825e-39 -1.6517244e-38 1.0163877e-38 -1.0773658e-38
0000b0 92 f8 38 80 2f 75 e8 00 e3 80 85 00 93 25 5f 00
       -5.231958e-39 2.1347873e-38 1.2260357e-38 8.737851e-39
0000c0 42 35 4e 80 90 84 57 80 88 d5 b0 80 07 2a 1f 80
       -7.182274e-39 -8.037243e-39 -1.6239648e-38 -2.861977e-39
0000d0 37 bf 34 80 fb 87 e1 00 19 4f 82 80 a5 e6 94 00
       -4.844041e-39 2.0711767e-38 -1.196699e-38 1.3674393e-38
0000e0 10 4c 3c 80 b3 7f 68 00 a9 eb a0 00 78 35 ec 80
       -5.537416e-39 9.596701e-39 1.4778218e-38 -2.1692358e-38
0000f0 79 e5 b0 80 d7 bd 96 00 22 ff 2b 00 04 c5 13 00
       -1.6245367e-38 1.3843426e-38 4.040451e-39 1.81555e-39
000100 94 59 15 80 11 f6 d1 00 0b 26 31 00 ca b2 00 80
       -1.96068e-39 1.928189e-38 4.513587e-39 -6.4137e-41
000110 7c 50 26 00 59 0a a7 80 4a b8 4b 80 37 e0 10 80
       3.518621e-39 -1.534024e-38 -6.953773e-39 -1.549801e-39
000120 69 04 d6 00 0b fb 2c 00 20 33 19 00 2c 44 35 80
       1.9654378e-38 4.130819e-39 2.314228e-39 -4.891737e-39
000130 ad ed 2f 00 78 f3 ab 80 13 72 1e 80 6a 2f 5d 00
       4.40153e-39 -1.579121e-38 -2.795987e-39 8.55771e-39
000140 ec cf 76 00 69 25 28 00 58 57 de 00 23 d6 49 00
       1.0911177e-38 3.68684e-39 2.0418813e-38 6.780809e-39
000150 d0 84 7c 00 5d f7 ba 80 fc 82 38 80 b0 e8 10 00
       1.1435246e-38 -1.717014e-38 -5.189776e-39 1.55284e-39
000160 0e 52 e8 00 55 59 b6 80 3c 34 a6 00 fa 99 3e 00
       2.1335271e-38 -1.6746107e-38 1.526343e-38 5.749037e-39
000170 0f b3 42 00 ea ed f3 80 e8 3a aa 00 b5 4f 0d 00
       6.125377e-39 -2.2401373e-38 1.5633166e-38 1.222455e-39
000180 b2 de b7 00 91 c2 3d 00 59 ed 62 80 6e c5 a3 80
       1.6885784e-38 5.671763e-39 -9.085023e-39 -1.504001e-38
000190 e3 ee 7b 00 f1 ee 9c 80 ed 30 4e 80 e8 d2 d8 80
       1.1381462e-38 -1.4412053e-38 -7.18072e-39 -1.9912126e-38
0001a0 29 8b 23 80 72 d5 1e 80 99 3b 7d 00 81 73 b3 80
       -3.264164e-39 -2.831635e-39 1.1500817e-38 -1.6479989e-38
0001b0 a5 d3 4d 80 be c2 09 00 10 16 ad 80 1a 0f 2e 80
       -7.147257e-39 8.9638e-40 -1.5895455e-38 -4.22985e-39
0001c0 28 cc 31 00 00 d5 6a 80 a5 bd 65 80 83 ca 69 00
       4.573177e-39 -9.810973e-39 -9.343417e-39 9.715375e-39
0001d0 b9 de 1a 00 10 b9 77 80 55 ae cd 00 7e 33 46 00
       2.467621e-39 -1.0994812e-38 1.8888815e-38 6.446957e-39
0001e0 ee 6e 4e 80 9d 09 eb 80 a0 1d 15 00 c7 ac bb 00
       -7.202963e-39 -2.158479e-38 1.939173e-39 1.7235219e-38
0001f0 87 99 d0 00 44 c3 96 00 ad 04 1b 00 ea 8d 75 80
       1.9156858e-38 1.3845373e-38 2.481236e-39 -1.0795662e-38
000200 eb 60 40 80 57 c9 c1 00 53 0f 32 00 74 a6 45 80
       -5.91224e-39 1.7796478e-38 4.597272e-39 -6.396361e-39
000210 60 b4 f8 00 04 08 c3 80 4f 59 53 00 5c 69 b8 80
       2.283991e-38 -1.7910797e-38 7.654384e-39 -1.6935527e-38
000220 41 b5 86 80 67 ac 78 00 a5 e1 7e 00 79 37 e9 80
       -1.2370978e-38 1.1082106e-38 1.1652219e-38 -2.141757e-38
000230 83 b8 0c 80 e3 67 22 00 c9 80 21 00 3e 02 62 00
       -1.168216e-39 3.159674e-39 3.076771e-39 9.000683e-39
000240 36 99 54 00 74 ac 7f 00 46 ad ae 80 2d 25 1d 80
       7.769143e-39 1.1724973e-38 -1.6041535e-38 -2.676566e-39
000250 98 8a 84 80 a1 ae 52 00 47 57 a3 80 9c 03 29 80
       -1.2172004e-38 7.593156e-39 -1.5000495e-38 -3.76655e-39
000260 27 ae a9 00 68 b5 1b 00 17 b0 65 80 fa 11 41 00
       1.5582673e-38 2.544635e-39 -9.338554e-39 5.975756e-39
000270 fa 02 72 00 a9 5c 7f 80 ad 2f 5c 80 43 c5 1c 80
       1.0470314e-38 -1.1696348e-38 -8.465968e-39 -2.642158e-39
000280 02 97 20 80 a3 7b ac 80 4f ca 51 00 a8 b8 06 00
       -2.992907e-39 -1.5840058e-38 7.51125e-39 6.17255e-40
000290 a0 2f 35 80 2b 2c 78 00 dd e2 4e 80 30 84 36 00
       -4.884366e-39 1.1036104e-38 -7.244552e-39 5.006537e-39
0002a0 c6 4a d7 80 e2 d8 94 00 5e 3b 2d 80 d3 49 92 00
       -1.9771455e-38 1.3669456e-38 -4.153894e-39 1.3434466e-38
0002b0 5f 19 ca 00 2e 8a 05 80 e4 08 1d 80 b4 25 26 00
       1.8559872e-38 -5.08747e-40 -2.666419e-39 3.503274e-39
0002c0 fb 2b 83 80 f0 29 86 80 1f 10 d1 80 e4 e8 cd 00
       -1.2046227e-38 -1.2321001e-38 -1.9199402e-38 1.8909822e-38
0002d0 a7 c8 7a 80 50 5d de 80 c1 ce 40 80 eb f0 5e 80
       -1.1275911e-38 -2.0420954e-38 -5.951641e-39 -8.718962e-39
0002e0 c3 6b 5e 00 92 79 8d 00 78 28 39 00 1e 58 92 80
       8.671194e-39 1.2992416e-38 5.249141e-39 -1.3439593e-38
0002f0 8d 03 8d 00 21 8f 34 00 88 2f 36 00 44 08 d3 80
       1.2950079e-38 4.826791e-39 4.976168e-39 -1.9380255e-38
000300 25 d3 ec 00 b7 2c e8 00 39 d3 04 00 28 ac 66 80
       2.1748921e-38 2.1321876e-38 4.43114e-40 -9.428979e-39
000310 80 b9 53 00 1b d2 1d 80 3e 40 7c 80 c7 8f 2e 80
       7.688891e-39 -2.738601e-39 -1.1410647e-38 -4.27601e-39
000320 e5 6c 0f 00 8b 90 93 80 4d 32 79 00 7b 3d 0f 00
       1.416596e-39 -1.355167e-38 1.113014e-38 1.399587e-39
000330 21 83 b4 00 c4 60 8e 00 21 e2 f8 80 3d 89 96 00
       1.657743e-38 1.3075353e-38 -2.2856323e-38 1.3824556e-38
000340 f3 56 25 00 45 da 63 00 4e f8 7b 80 f2 04 7b 00
       3.429105e-39 9.170014e-39 -1.1384841e-38 1.129754e-38
000350 ab ee 30 80 44 8f 18 00 c1 a8 4b 80 02 28 71 00
       -4.493722e-39 2.255446e-39 -6.9482e-39 1.0391763e-38
000360 b2 c6 52 80 67 1f 9e 80 c6 c0 54 80 95 ae ae 80
       -7.601789e-39 -1.4521273e-38 -7.783336e-39 -1.6042005e-38
000370 12 38 06 80 ec a4 22 00 06 6b bc 80 82 a0 1f 80
       -5.71127e-40 3.18157e-39 -1.7303466e-38 -2.90448e-39
000380 c5 7c 42 80 5e a6 0d 00 75 5c 84 00 34 48 07 80
       -6.105902e-39 1.253543e-39 1.2155453e-38 -6.6875e-40
000390 e0 80 b6 00 00 e1 7a 00 cc 40 bb 80 f3 f3 a7 00
       1.6760292e-38 1.1284645e-38 -1.7196483e-38 1.542404e-38
0003a0 fc 47 9e 80 14 57 50 80 ae b6 88 00 bc 51 9a 00
       -1.4535832e-38 -7.378077e-39 1.255516e-38 1.4171987e-38
0003b0 10 6d 4c 00 b6 81 09 80 27 0f d9 80 d5 25 60 00
       7.018622e-39 -8.73051e-40 -1.9933738e-38 8.829779e-39
0003c0 da 90 37 80 e3 31 51 80 ba ec c6 00 d9 fe e1 80
       -5.102915e-39 -7.456571e-39 1.826835e-38 -2.0754409e-38
0003d0 e5 b3 12 80 2d be f8 00 54 9a 04 80 5e 79 37 00
       -1.717573e-39 2.2843425e-38 -4.22704e-40 5.09449e-39
0003e0 0a d1 48 80 0d 34 97 80 16 76 57 00 fe d0 5b 80
       -6.687145e-39 -1.3885832e-38 8.03205e-39 -8.432002e-39
0003f0 66 22 61 80 9b 28 e7 00 51 93 40 00 6e b2 9f 00
       -8.920383e-39 2.1228566e-38 5.930319e-39 1.4665852e-38

fcs1.bias f4 [256]
000000 7f b7 05 80 cc 44 96 80 6a 35 cc 80 23 5a 89 00
       -5.25003e-40 -1.3800004e-38 -1.8753603e-38 1.2613798e-38
000010 e0 8f cb 00 9c 7e e6 80 eb e0 93 80 26 96 d9 80
       1.8694218e-38 -2.1167583e-38 -1.3580503e-38 -1.9982166e-38
000020 1d 33 54 00 56 2c 33 80 5c 03 19 80 e4 ac 09 80
       7.732518e-39 -4.699515e-39 -2.297093e-39 -8.88541e-40
000030 7b d1 95 80 75 0e e6 80 3b 57 19 00 a9 f2 50 00
       -1.3758636e-38 -2.112735e-38 2.32718e-39 7.43389e-39
000040 2b 66 34 80 8d 03 57 80 7d c9 19 00 c6 dd 66 00
       -4.812097e-39 -7.990962e-39 2.368168e-39 9.446778e-39
000050 1b 30 6e 80 d3 ab 92 80 ed aa 80 00 84 03 68 00
       -1.0119162e-38 -1.3469621e-38 1.181626e-38 9.552153e-39
000060 11 ff c8 80 b5 39 45 80 0c a3 e3 80 7d 5a 26 80
       -1.84586e-38 -6.35735e-39 -2.0905148e-38 -3.52221e-39
000070 9d 97 8e 00 71 c3 5a 80 e6 85 0b 00 4d 6c 1c 80
       1.3095029e-38 -8.335306e-39 1.058224e-39 -2.610245e-39
000080 fc 45 a8 00 d9 a9 28 00 7d 45 d0 80 65 60 0e 00
       1.5453469e-38 3.73435e-39 -1.9126711e-38 1.320277e-39
000090 66 ad 5b 80 73 c6 8e 00 f6 fe 10 80 b8 45 78 00
       -8.419234e-39 1.311183e-38 -1.56083e-39 1.104527e-38
0000a0 8e d8 33 00 ec 69 2a 80 e9 69 69 00 57 f3 85 00
       4.761295e-39 -3.895088e-39 9.68072e-39 1.2301415e-38
0000b0 e2 19 e5 80 da 91 f8 80 61 11 f4 80 03 7e 83 00
       -2.1039614e-38 -2.2827525e-38 -2.2414095e-38 1.2075654e-38
0000c0 6d 46 b5 80 72 14 a3 80 9b 31 9a 00 42 cb 4f 80
       -1.6647489e-38 -1.497652e-38 1.4160461e-38 -7.32792e-39
0000d0 e4 18 53 00 5f f8 0f 80 fb 73 35 00 75 f7 c6 80
       7.631275e-39 -1.466631e-39 4.908887e-39 -1.8272199e-38
0000e0 fd cc c2 00 f3 12 c1 80 a4 bf 92 80 28 7e c2 80
       1.7889622e-38 -1.7731048e-38 -1.347673e-38 -1.7861343e-38
0000f0 e3 29 22 80 dd db 4d 00 2b 73 55 00 29 2b 65 80
       -3.137433e-39 7.150205e-39 7.847332e-39 -9.290868e-39
000100 fc 31 3a 80 14 db 2b 80 2a be 3e 80 6c 04 be 00
       -5.34439e-39 -4.027517e-39 -5.762019e-39 1.745033e-38
000110 26 61 a4 00 79 25 73 00 40 ef 21 00 34 fa 21 00
       1.5095872e-38 1.0574525e-38 3.116398e-39 3.120327e-39
000120 aa b8 9b 80 b6 98 21 00 e7 c3 0b 00 ca cc 5a 80
       -1.4300747e-38 3.085354e-39 1.080467e-39 -8.338659e-39
000130 82 54 0c 80 1c a3 1b 80 1b da 1e 80 92 08 d7 80
       -1.132342e-39 -2.538071e-39 -2.833306e-39 -1.9747706e-38
000140 99 a2 9d 00 5e 70 92 80 c0 4b 1c 80 ab dc cf 80
       1.4476502e-38 -1.3448292e-38 -2.598568e-39 -1.9089108e-38
000150 78 8f 23 00 5e 9c 2e 00 c8 ac 21 80 4e d1 64 80
       3.265709e-39 4.280527e-39 -3.092554e-39 -9.258634e-39
000160 c4 fc ce 80 6d 48 8b 80 3a 6e 67 00 bd 12 3d 00
       -1.9008787e-38 -1.2791115e-38 9.498598e-39 5.608687e-39
000170 42 73 e2 80 00 7c 20 80 55 95 b8 00 28 2e 90 80
       -2.0796169e-38 -2.983219e-39 1.6951302e-38 -1.3240869e-38
000180 19 77 84 80 d5 8c 04 00 94 6e 65 80 c9 31 dd 80
       -1.216501e-38 4.17863e-40 -9.315053e-39 -2.0313504e-38
000190 9d 9d 09 00 09 85 0a 00 12 64 98 80 4f 08 25 00
       8.8306e-40 9.66079e-40 -1.3994894e-38 3.400894e-39
0001a0 19 16 62 80 ed c2 bf 80 7a 23 43 00 86 7b 62 80
       -9.007806e-39 -1.7610506e-38 6.165705e-39 -9.04419e-39
0001b0 03 a4 29 80 70 99 b4 00 69 4e c4 80 fe 15 cc 00
       -3.824092e-39 1.6585432e-38 -1.8027886e-38 1.874233e-38
0001c0 ca 3e 56 00 01 7f 74 80 9a e5 a4 80 ae 1f d6 80
       7.920377e-39 -1.0698478e-38 -1.5143387e-38 -1.9664161e-38
0001d0 70 fc 9e 00 0c ee bc 00 60 6f 57 00 f1 9c d8 80
       1.4600566e-38 1.7350468e-38 8.029642e-39 -1.9892767e-38
0001e0 9b 56 90 80 53 97 7f 80 c6 f1 a0 00 fe ba 92 80
       -1.325538e-38 -1.1717393e-38 1.4780411e-38 -1.3475063e-38
0001f0 de 76 1f 80 d4 ee 02 80 ce cc 46 00 e7 a7 43 00
       -2.889542e-39 -2.69346e-40 6.501955e-39 6.21321e-39
000200 83 35 a6 80 2a bb 70 00 b6 9b f8 80 a7 6c 5d 00
       -1.5263889e-38 1.0352717e-38 -2.2831062e-38 8.579678e-39
000210 a6 98 9a 00 b6 1d 82 00 4d 53 5e 00 d7 33 2e 00
       1.4197426e-38 1.1949273e-38 8.66242e-39 4.24303e-39
000220 b2 6c 0e 00 83 f7 1e 00 bb d6 20 80 fc 6d 02 80
       1.32469e-39 2.843855e-39 -3.015767e-39 -2.23126e-40
000230 97 e0 af 00 5b da 87 80 93 15 89 00 be ec 1b 80
       1.615178e-38 -1.2476123e-38 1.2589202e-38 -2.564485e-39
000240 7e 03 87 00 15 f1 6f 80 e2 36 b9 00 8f f5 53 00
       1.2399045e-38 -1.0280224e-38 1.7009255e-38 7.710436e-39
000250 fe c3 31 80 f2 10 6d 80 26 bf 36 80 e2 a9 66 80
       -4.570248e-39 -1.0016148e-38 -5.027688e-39 -9.428163e-39
000260 a9 0c 28 80 cf ec 73 80 d9 c9 8a 00 8a 53 49 00
       -3.677961e-39 -1.0646033e-38 1.2745708e-38 6.73396e-39
000270 3c 27 9d 00 6b 65 1f 80 12 72 2f 80 2d d4 99 00
       1.4432248e-38 -2.883282e-39 -4.357189e-39 1.4126945e-38
000280 a5 be 1e 80 96 db 9b 80 35 1e 88 00 c8 93 59 80
       -2.823455e-39 -1.4313274e-38 1.2500464e-38 -8.226373e-39
000290 0c f5 69 80 68 5e 9d 00 dd ef 30 00 b6 64 15 80
       -9.730633e-39 1.445204e-38 4.49415e-39 -1.964674e-39
0002a0 58 76 4e 80 b7 b4 46 80 16 cd e1 80 47 b9 08 80
       -7.205622e-39 -6.493313e-39 -2.0736558e-38 -8.01149e-40
0002b0 eb e8 60 00 5f 61 08 00 9b 7d 84 80 e8 e8 6d 00
       8.899763e-39 7.69614e-40 -1.2167344e-38 1.009362e-38
0002c0 0d 79 4b 00 1c de aa 80 66 ee 26 80 50 09 62 00
       6.931087e-39 -1.5691712e-38 -3.57527e-39 9.00322e-39
0002d0 c6 1e 90 80 d4 93 5f 00 7e 1c 41 80 b7 aa 28 80
       -1.3235351e-38 8.777403e-39 -5.979528e-39 -3.734661e-39
0002e0 0e ab 8f 00 9d 0b 54 00 c3 e4 18 00 b3 dc 5c 80
       1.3193839e-38 7.718348e-39 2.286116e-39 -8.528038e-39
0002f0 15 2a 38 00 b8 3e 9f 80 37 04 4d 80 69 76 35 80
       5.157884e-39 -1.4624343e-38 -7.072845e-39 -4.909759e-39
000300 4e c6 b5 00 ef 4a d4 80 0a b5 cf 80 0c ac 7e 80
       1.6693363e-38 -1.9496006e-38 -1.9074892e-38 -1.1632991e-38
000310 12 b0 2d 00 f6 bf 29 80 7e 27 a0 80 fe 71 84 00
       4.19576e-39 -3.834118e-39 -1.4707847e-38 1.2163178e-38
000320 90 f0 eb 80 cd a7 94 00 34 11 50 00 df 3f 14 80
       -2.1667639e-38 1.3651849e-38 7.353011e-39 -1.859623e-39
000330 8b 47 62 80 e9 45 30 80 e3 2f 12 80 49 9b 11 80
       -9.025543e-39 -4.433183e-39 -1.670217e-39 -1.616909e-39
000340 db b9 7d 80 77 84 1a 00 2d 24 65 00 29 7b d1 80
       -1.154611e-38 2.435242e-39 9.288363e-39 -1.92378e-38
000350 a4 fe 83 00 f2 ae ef 80 7f a3 0f 80 10 f6 89 00
       1.2121798e-38 -2.2011442e-38 -1.436184e-39 1.2669734e-38
000360 00 4c e3 80 50 b7 c7 00 b3 6a b0 80 5a ae b8 80
       -2.0873921e-38 1.8341024e-38 -1.6201324e-38 -1.6960277e-38
000370 47 06 2a 00 23 93 2e 00 ef 98 52 80 9c 01 6e 80
       3.859343e-39 4.277216e-39 -7.585373e-39 -1.0102482e-38
000380 80 c2 2a 00 36 c7 cc 00 13 79 c2 80 29 59 03 00
       3.926864e-39 1.8805905e-38 -1.785952e-38 3.07491e-40
000390 a0 87 0a 80 55 51 cd 80 e9 da 0e 80 d6 8c 70 80
       -9.67008e-40 -1.8855453e-38 -1.364227e-39 -1.0336098e-38
0003a0 75 4c a1 80 ca 08 53 80 9d 7c 21 80 f1 48 ab 80
       -1.4812942e-38 -7.625499e-39 -3.075274e-39 -1.5730036e-38
0003b0 fd 69 85 00 a0 d8 0e 00 df 4e 1e 00 16 4a f2 80
       1.2252142e-38 1.363407e-39 2.783359e-39 -2.2250767e-38
0003c0 07 0f 0f 80 ec 96 ed 80 5c 6d 59 00 4c 1e b3 00
       -1.382923e-39 -2.1819153e-38 8.21259e-39 1.6449422e-38
0003d0 ce c9 00 00 32 af c0 80 16 eb 64 00 94 09 2c 00
       7.2394e-41 -1.7695263e-38 9.267883e-39 4.044198e-39
0003e0 b0 26 15 00 10 55 33 80 76 37 1c 00 ea 27 10 00
       1.942424e-39 -4.714125e-39 2.59129e-39 1.483686e-39
0003f0 2a 85 a8 00 fe 6b 66 80 7c 96 72 80 65 aa 63 00
       1.5476134e-38 -9.405961e-39 -1.052323e-38 9.15284e-39

fc2.weight f4 [256, 260]
000000 2c 91 a9 00 66 a3 93 80 18 27 71 80 2e eb 53 00
       1.5572277e-38 -1.3558434e-38 -1.0391435e-38 7.706713e-39
000010 e6 7a 56 80 ec 71 92 80 6b 04 0f 00 6c 1f b1 80
       -7.94194e-39 -1.344885e-38 1.379117e-39 -1.6266155e-38
000020 60 78 2c 80 63 5d ce 00 12 37 34 80 b2 f1 85 80
       -4.083944e-39 1.8951613e-38 -4.795201e-39 -1.2300825e-38
000030 ec e3 17 80 37 cf e1 00 27 0b 25 00 ed 01 e9 00
       -2.19398e-39 2.0737321e-38 3.401914e-39 2.1398361e-38
000040 1b f9 df 00 9d b2 a8 80 5b bd 97 00 62 8e 8d 00
       2.0568678e-38 -1.5492438e-38 1.3935088e-38 1.2999882e-38
000050 be 58 10 80 f8 d7 37 80 c4 2e e0 00 00 07 a9 00
       -1.501203e-39 -5.128427e-39 2.0587927e-38 1.552271e-38
000060 da 99 57 00 41 bf 9a 00 4e 0b 9a 80 02 6e e3 80
       8.04488e-39 1.4211275e-38 -1.4146722e-38 -2.0886121e-38
000070 2c 84 58 80 77 ca a7 80 17 5e 8a 00 df 9e 76 80
       -8.128938e-39 -1.5409159e-38 1.2707052e-38 -1.0893581e-38
000080 61 2e 27 00 c3 09 d4 00 fb c3 0e 00 d1 44 22 80
       3.598222e-39 1.9472627e-38 1.356001e-39 -3.147094e-39
000090 2c e9 00 80 9f c0 e8 80 c6 c2 bd 00 5d af ca 00
       -8.3646e-41 -2.1374935e-38 1.742678e-38 1.8613679e-38
0000a0 b1 3e 40 00 de 43 b2 00 b0 d0 22 00 d8 2a 6c 00
       5.899961e-39 1.6371064e-38 3.19727e-39 9.933603e-39
0000b0 b2 9e a6 80 6e 68 6e 00 bd a9 81 80 0c 6d 43 00
       -1.5301622e-38 1.0139367e-38 -1.190767e-38 6.192097e-39
0000c0 d7 57 dc 00 8a cc 86 00 66 1c 4f 00 26 25 ad 80
       2.023532e-38 1.2379331e-38 7.265192e-39 -1.5900867e-38
0000d0 07 ec cc 80 65 00 96 00 ba 06 87 00 12 29 c7 80
       -1.8819112e-38 1.3775466e-38 1.2400205e-38 -1.8289997e-38
0000e0 d6 e2 b4 00 74 dc 44 00 14 bd 35 80 8c c0 7e 00
       1.6611763e-38 6.323897e-39 -4.93511e-39 1.1640345e-38
0000f0 0c a3 45 00 82 75 94 80 36 e9 d3 80 83 94 e5 00
       6.39514e-39 -1.3633807e-38 -1.946095e-38 2.1083605e-38
000100 20 0b 2e 80 32 53 3a 80 4b 06 9b 00 b2 a0 2b 80
       -4.228424e-39 -5.356304e-39 1.423676e-38 -4.006573e-39
000110 83 d3 a1 80 90 99 20 00 42 71 72 00 f2 77 0f 80
       -1.4861391e-38 2.993824e-39 1.0509876e-38 -1.420561e-39
000120 4c 93 11 00 43 f6 b3 00 e6 81 a9 80 cd 5e 00 80
       1.614044e-39 1.6526896e-38 -1.5566798e-38 -3.4008e-41
000130 d0 87 3f 00 8d e6 32 80 7b 2a df 00 4c a8 02 00
       5.834357e-39 -4.674481e-39 2.0494555e-38 2.44045e-40
000140 a4 77 c5 00 af 28 09 80 9a 83 e7 00 ec c2 8e 80
       1.8134512e-38 -8.41114e-40 2.126121e-38 -1.3110565e-38
000150 20 4f 0e 80 28 47 b1 00 c2 c6 89 80 42 ea 92 00
       -1.314082e-39 1.6280409e-38 -1.2652764e-38 1.3492018e-38
000160 ab 88 b4 00 18 00 df 00 c8 0b c5 00 18 cc 0c 00
       1.6579417e-38 2.0479349e-38 1.8095819e-38 1.175241e-39
000170 3d 76 b5 00 d5 06 d1 80 41 17 93 00 90 96 3a 00
       1.6664641e-38 -1.919607e-38 1.350816e-38 5.38047e-39
000180 3a 23 4f 00 14 46 07 00 ff 79 8a 80 09 bf 7f 80
       7.267641e-39 6.67988e-40 -1.2717062e-38 -1.1731639e-38
000190 c8 ac a6 80 98 f9 f2 80 d8 34 37 00 b1 08 c8 00
       -1.5306675e-38 -2.2313727e-38 5.069909e-39 1.8370217e-38
0001a0 66 a3 c2 80 72 62 8f 00 ef d0 93 80 f5 68 76 80
       -1.7874703e-38 1.3167791e-38 -1.3574769e-38 -1.087424e-38
0001b0 32 d1 35 00 b2 92 9a 80 38 c6 2d 80 5f 98 9d 80
       4.942326e-39 -1.4195291e-38 -4.203705e-39 -1.4472833e-38
0001c0 fc 52 4f 80 2e d1 6a 80 d8 8b 98 80 06 a0 5e 80
       -7.284773e-39 -9.809602e-39 -1.4009162e-38 -8.689942e-39
0001d0 92 45 23 00 e1 76 d0 80 2b f6 4f 80 89 87 25 00
       3.2392e-39 -1.9144429e-38 -7.343313e-39 3.446534e-39
0001e0 50 3b 69 00 55 a1 84 80 b8 39 1b 00 11 0b 46 00
       9.664004e-39 -1.218016e-38 2.500264e-39 6.432455e-39
0001f0 07 a1 e4 00 28 b9 a2 00 89 9f 63 80 34 bd ac 80
       2.0996259e-38 1.4943772e-38 -9.148945e-39 -1.5863579e-38
000200 6f 28 e7 00 67 f8 1c 00 be 58 f0 00 04 94 a0 00
       2.1228504e-38 2.660504e-39 2.2072354e-38 1.4746777e-38
000210 49 dc 0b 00 f7 fc 69 00 3b b6 de 00 74 22 8b 80
       1.089214e-39 9.733474e-39 2.0452852e-38 -1.2777493e-38
000220 30 a3 c9 00 78 58 ad 80 d9 30 3c 00 a3 49 7a 80
       1.8517475e-38 -1.5919277e-38 5.527653e-39 -1.1230346e-38
000230 84 49 85 00 dc d7 25 80 af ee 28 00 39 ac 20 80
       1.2240493e-38 -3.475349e-39 3.759043e-39 -3.000518e-39
000240 84 9f 2e 80 d9 b9 02 80 41 9e 9b 80 5e 90 34 80
       -4.281656e-39 -2.5034e-40 -1.4291273e-38 -4.827235e-39
000250 9a 0c 69 80 15 b8 50 80 a4 f9 51 80 f6 e8 26 80
       -9.647248e-39 -7.412876e-39 -7.52823e-39 -3.57332e-39
000260 69 59 bd 00 3d 24 cb 80 0a e4 12 00 d1 29 b8 00
       1.7388983e-38 -1.8655606e-38 1.734844e-39 1.6912732e-38
000270 f3 46 24 80 4f 6b 50 00 25 9b d7 00 83 57 49 80
       -3.33153e-39 7.385335e-39 1.9800287e-38 -6.735385e-39
000280 11 b7 ed 00 93 64 a4 00 58 90 94 80 9a 3d af 00
       2.1830684e-38 1.50971e-38 -1.3643434e-38 1.609331e-38
000290 09 cd 9c 80 e5 95 2d 00 23 98 0d 00 9a ff 3a 80
       -1.439989e-38 4.18637e-39 1.248438e-39 -5.418151e-39
0002a0 e6 a1 06 00 30 59 c1 00 c6 fa b9 80 74 0e 29 80
       6.09091e-40 1.7756245e-38 -1.7079527e-38 -3.77044e-39
0002b0 c9 09 53 80 31 5b ef 00 93 31 43 80 76 fb 43 80
       -7.625856e-39 2.1981397e-38 -6.170762e-39 -6.243185e-39
0002c0 46 c6 45 00 3a 99 54 80 0c ad 6c 80 a1 13 be 80
       6.407776e-39 -7.769149e-39 -9.980311e-39 -1.7455786e-38
0002d0 c7 73 5e 80 be 7c c5 80 44 e9 67 00 75 9d 47 80
       -8.67407e-39 -1.8136342e-38 9.542736e-39 -6.576805e-39
0002e0 85 75 de 00 cc 7d 21 00 06 86 b2 80 d8 86 ee 00
       2.0429638e-38 3.075699e-39 -1.6394797e-38 2.1905221e-38
0002f0 bc 86 38 00 52 c3 48 80 0c bc c6 80 4c 19 5e 00
       5.191121e-39 -6.682223e-39 -1.8250887e-38 8.641611e-39
000300 e3 5b bb 00 e7 d4 31 80 45 98 98 80 3d 78 35 00
       1.72062e-38 -4.576314e-39 -1.401362e-38 4.910415e-39
000310 74 f4 18 00 4d f1 06 80 2f 3e 53 80 63 92 3e 80
       2.291745e-39 -6.37575e-40 -7.644653e-39 -5.746314e-39
000320 d6 34 08 80 c1 2e 55 80 e0 63 40 80 18 ac 12 80
       -7.53638e-40 -7.82279e-39 -5.9133e-39 -1.714775e-39
000330 42 3e 10 80 8f 85 a3 00 aa 4c 6f 80 af 21 90 00
       -1.491702e-39 1.5017098e-38 -1.0221242e-38 1.3236395e-38
000340 3c 06 bb 00 7a 28 b8 80 cc a1 1b 00 19 f8 19 80
       1.7175474e-38 -1.6912252e-38 2.5376e-39 -2.384888e-39
000350 db f1 32 80 c5 a1 d9 00 ad 17 55 00 cb fc ea 00
       -4.678536e-39 1.9986335e-38 7.81451e-39 2.1580191e-38
000360 c0 17 1b 80 91 e8 19 80 ee ef 14 00 7e a6 f4 00
       -2.488078e-39 -2.379317e-39 1.92278e-39 2.2467587e-38
000370 fa 12 83 80 66 cc ba 00 53 27 af 00 f8 cf 35 00
       -1.2037258e-38 1.7154727e-38 1.6085319e-38 4.941886e-39
000380 3d ca 97 80 53 20 12 00 a0 59 74 00 cd ba 07 00
       -1.393971e-38 1.664635e-39 1.0685069e-38 7.0986e-40
000390 8d 15 55 00 96 50 95 00 48 dd 38 80 03 f4 ba 80
       7.813748e-39 1.3712398e-38 -5.222169e-39 -1.7168937e-38
0003a0 1c 92 fa 80 59 ba 4f 80 46 56 17 00 9e e4 bc 00
       -2.3011288e-38 -7.321853e-39 2.143165e-39 1.7347086e-38
0003b0 81 ec d6 80 8f 5e 01 00 b1 b5 11 00 4f 08 71 80
       -1.9737638e-38 1.25757e-40 1.626382e-39 -1.0380392e-38
0003c0 fe c0 dd 00 f2 df d0 80 6f 1c 14 80 71 49 54 80
       2.0364877e-38 -1.918212e-38 -1.84691e-39 -7.740527e-39
0003d0 7d 0a 03 80 86 43 4a 80 60 b9 ab 00 1e 63 5f 00
       -2.79269e-40 -6.82005e-39 1.577037e-38 8.759929e-39
0003e0 95 41 af 00 c6 a6 59 00 0f dd e7 80 51 99 48 80
       1.6094738e-38 8.233186e-39 -2.12933e-38 -6.667155e-39
0003f0 c7 f5 05 80 bd 03 bb 00 46 c6 09 00 85 f6 52 00
       -5.47346e-40 1.7174579e-38 8.97647e-40 7.618945e-39

fc2.bias f4 [256]
000000 ca 46 15 ad 4e 33 1e a9 72 cd 41 00 96 3d 59 12
       -8.485388e-12 -3.5127547e-14 6.043007e-39 6.8549037e-28
000010 6c a4 f0 0c 5f 6a be 26 7a 67 7b 80 52 37 91 80
       3.7076813e-31 1.321273e-15 -1.1332886e-38 -1.3335992e-38
000020 ae 19 e3 80 b7 6d 28 80 33 e8 97 80 2a f9 74 80
       -2.085587e-38 -3.712778e-39 -1.3950457e-38 -1.0742301e-38
000030 95 d8 48 25 f4 c8 94 80 7e 14 3b a6 7a 87 9b 80
       1.7420616e-16 -1.3663742e-38 -6.490643e-16 -1.4283102e-38
000040 8b 68 c4 80 47 1c 9f 21 b5 4d 32 0a 02 71 fe 1c
       -1.803726e-38 1.0781744e-18 8.585003e-33 1.6837522e-21
000050 62 56 9b 80 a8 10 61 11 a0 55 c7 26 42 6a 17 23
       -1.426549e-38 1.7754503e-28 1.3831608e-15 8.208227e-18
000060 77 c6 57 80 de 33 87 14 56 4b a0 28 33 64 9c 1e
       -8.060884e-39 1.3651974e-26 1.779624e-14 1.6558584e-20
000070 a9 c0 4f 00 ca d1 4a 80 61 d2 c8 9e 22 2a fa 8c
       7.324118e-39 -6.871085e-39 -2.1262834e-20 -3.8543957e-31
000080 3e 16 c3 80 70 5e 54 80 23 48 e5 80 00 84 dc 80
       -1.7915901e-38 -7.74806e-39 -2.1056206e-38 -2.0251162e-38
000090 9b 48 06 2b 74 1f 78 80 4a 19 ba 2b 21 b3 3f 80
       4.7707124e-13 -1.1031543e-38 1.3223114e-12 -5.849896e-39
0000a0 a5 1e c7 80 9e 82 24 99 f3 b0 65 92 e4 f9 45 a8
       -1.8286257e-38 -8.504979e-24 -7.2477766e-28 -1.0989883e-14
0000b0 37 b0 03 9c ce fc 67 ad 4c 62 7e 81 5c 94 bc 80
       -4.3572016e-22 -1.3186964e-11 -4.6722957e-38 -1.7318295e-38
0000c0 2d e0 3b 80 af fb c9 26 f9 a0 84 28 00 ad bb 80
       -5.498713e-39 1.4015396e-15 1.4724755e-14 -1.7235298e-38
0000d0 d1 24 a9 a7 6d 63 c0 80 4f d8 59 80 3a 39 d4 80
       -4.694684e-15 -1.7668083e-38 -8.250956e-39 -1.9489654e-38
0000e0 ea 41 d5 a6 0b 81 b1 80 6d f1 0c 95 1a 66 60 97
       -1.479771e-15 -1.6301175e-38 -2.8463226e-26 -7.2507174e-25
0000f0 d4 fe 4e 26 f1 da 5d a2 fe e5 bb 14 d0 45 e3 a0
       7.1815964e-16 -3.0066992e-18 1.897289e-26 -3.8501494e-19
000100 ec 30 a8 80 06 14 53 80 e0 6b c8 80 15 30 2f 80
       -1.5445913e-38 -7.629529e-39 -1.8405797e-38 -4.333517e-39
000110 a8 c4 86 87 64 62 2f 80 46 f8 64 ad 0a b7 47 8f
       -2.0277663e-34 -4.351564e-39 -1.3015427e-11 -9.8467095e-30
000120 ae c8 13 90 18 27 11 90 16 73 1a 21 8c 4d d0 9b
       -2.9145236e-29 -2.8626325e-29 5.2329545e-19 -3.4460827e-22
000130 36 0a 09 1f 88 cb df 20 23 39 8a 80 66 bf 0c 0e
       2.9019325e-20 3.7912355e-19 -1.2693795e-38 1.7348487e-30
000140 09 06 48 80 8f b7 b7 b2 80 3b 6a a4 01 aa 87 2e
       -6.614321e-39 -2.1387477e-08 -5.079106e-17 6.169288e-11
000150 2f d9 fb 0c 0e 48 a5 97 d9 a1 c6 93 65 0a 58 80
       3.8803386e-31 -1.0681064e-24 -5.014182e-27 -8.085253e-39
000160 6a 65 8a ac 29 ce b0 80 b3 a0 9c 0a 27 61 bc a5
       -3.933455e-12 -1.6237004e-38 1.5082702e-32 -3.2678634e-16
000170 7f 72 ee 91 c4 7a 2c 80 8a cc 61 80 4c ff 22 a9
       -3.7620343e-28 -4.084802e-39 -8.981418e-39 -3.619266e-14
000180 89 1c 65 80 6a 3e 0c 27 6f 86 30 80 79 bc c5 2c
       -9.285622e-39 1.9462738e-15 -4.45633e-39 5.6200014e-12
000190 94 60 5f 80 e8 84 9f ad 6a 12 0f 34 d9 fc 8d 80
       -8.759018e-39 -1.813523e-11 1.3324612e-07 -1.303951e-38
0001a0 db f7 ac 80 3e f5 ea 1d f6 6b d3 1a a5 46 a1 80
       -1.5884619e-38 6.219286e-21 8.7441975e-23 -1.4810857e-38
0001b0 54 90 88 ac 02 d9 2e 80 55 fe cc 80 5d c3 8c 80
       -3.881376e-12 -4.30228e-39 -1.8825678e-38 -1.2927053e-38
0001c0 91 db 6e 8c 1b bc 54 80 8e 12 e1 9b e6 1d bf 80
       -1.8400926e-31 -7.781661e-39 -3.7235118e-22 -1.7551305e-38
0001d0 85 7f 15 9c 15 67 0a 9f 08 b0 98 97 6b 4c a1 05
       -4.946478e-22 -2.9307904e-20 -9.867206e-25 1.5168439e-35
0001e0 aa 51 d0 80 bc 46 4c 80 be f0 4f 80 a1 12 d5 80
       -1.9131079e-38 -7.004872e-39 -7.341366e-39 -1.9567643e-38
0001f0 c8 3b 37 25 fb 43 54 80 44 2a 89 80 12 b4 52 01
       1.5892974e-16 -7.738568e-39 -1.2596625e-38 3.8700102e-38
000200 11 06 63 80 44 0b 5a 2e 9d 7b 06 9f 7b 4b a3 05
       -9.09389e-39 4.9577467e-11 -2.8477854e-20 1.5356173e-35
000210 4e 63 ba 80 3f ce 94 80 da 2c 86 a8 5b 5e b4 80
       -1.7117026e-38 -1.366564e-38 -1.489644e-14 -1.6564238e-38
000220 65 c9 54 0b e7 40 ed 37 34 ce 46 a1 a1 eb 62 80
       4.0981227e-32 2.8282824e-05 -6.7357917e-19 -9.084406e-39
000230 48 1a 91 03 80 ab 7a a5 27 f7 ac 80 b2 20 a5 9b
       8.528368e-37 -2.174215e-16 -1.5884367e-38 -2.731809e-22
000240 7a 48 fc 23 e6 7a 34 80 1a 38 a9 80 e1 98 4e 80
       2.735259e-17 -4.819533e-39 -1.5540324e-38 -7.218011e-39
000250 23 76 c7 23 61 f5 89 80 df 37 eb 80 8d 4b 69 28
       2.1625656e-17 -1.2669488e-38 -2.1601384e-38 1.2950481e-14
000260 77 75 fe 8e 04 98 78 80 56 1c 94 87 fb c9 e1 82
       -6.272895e-30 -1.1074792e-38 -2.228522e-34 -3.317671e-37
000270 d3 cc 44 9b fa f1 a7 ac 7f a6 5c 80 d8 22 d6 25
       -1.6278922e-22 -4.7732903e-12 -8.508593e-39 3.7146693e-16
000280 ac 23 b0 80 c5 e1 b5 80 52 73 ea 22 d9 55 cd 80
       -1.6175844e-38 -1.6703216e-38 6.3547927e-18 -1.8857073e-38
000290 eb 9d 69 a2 55 42 aa 1b a4 26 89 ad e8 37 75 80
       -3.166099e-18 2.8167007e-22 -1.5592257e-11 -1.0764808e-38
0002a0 8f a5 ad 13 2f a6 a6 a0 30 c1 e9 a4 ce 76 2a 15
       4.3834593e-27 -2.8231465e-19 -1.01374915e-16 3.4424947e-26
0002b0 23 80 aa 80 a8 09 81 80 af 9a 1f 14 65 57 bc 80
       -1.5658001e-38 -1.1850243e-38 8.0579545e-27 -1.7296425e-38
0002c0 1d 7a 18 97 19 2e 67 80 85 e8 21 82 d2 49 13 2b
       -4.9267978e-25 -9.475593e-39 -1.1895142e-37 5.232734e-13
0002d0 86 e4 d2 8c b8 17 77 80 c2 ba e3 80 ae 29 b8 80
       -3.249316e-31 -1.0936933e-38 -2.0913654e-38 -1.6912683e-38
0002e0 6f 4f 78 80 c5 94 f7 a2 a4 7f ac 2d 1d 82 c7 80
       -1.1048755e-38 -6.7107e-18 1.961082e-11 -1.832194e-38
0002f0 9a b9 7a 80 23 d7 1f 80 ad 6c 6c 80 0e 31 6e 80
       -1.1270512e-38 -2.924077e-39 -9.957219e-39 -1.0119502e-38
000300 3f a4 3c 87 b5 ae 93 95 e4 35 96 a1 19 2b d6 a3
       -1.4191816e-34 -5.9648466e-26 -1.017866e-18 -2.3220179e-17
000310 ea b1 ba 80 c3 7c a6 80 c2 46 97 80 6f 09 54 02
       -1.7145226e-38 -1.5289448e-38 -1.3892543e-38 1.5578007e-37
000320 cd ac 7b 80 83 41 b9 06 f8 3a 14 09 d6 c7 0e aa
       -1.1357755e-38 6.9685526e-35 1.7842579e-33 -1.2681466e-13
000330 4d 70 8b 80 77 00 8d 0d 3a 5f c8 80 f8 d2 33 3a
       -1.280542e-38 8.689908e-31 -1.840126e-38 0.0006859745
000340 e7 2a 86 80 3c 7b eb 17 d4 f4 58 87 f4 92 f1 80
       -1.2321347e-38 1.5217628e-24 -1.6321982e-34 -2.2185071e-38
000350 cd d0 c2 80 4a 0b a5 80 50 b7 7d 80 b4 65 82 1c
       -1.789099e-38 -1.5156907e-38 -1.1545197e-38 8.628968e-22
000360 c4 e2 6c 81 da af ca 80 38 07 45 26 57 c7 a6 a6
       -4.350905e-38 -1.8613854e-38 6.835789e-16 -1.1572595e-15
000370 f6 ab 6f 29 5a 2b ed 80 b9 b3 1b 80 61 16 c7 80
       5.3217813e-14 -2.1780564e-38 -2.544031e-39 -1.8283292e-38
000380 b0 48 1a a2 67 33 21 0a eb 20 d2 80 18 4e 21 84
       -2.0909372e-18 7.761536e-33 -1.9297263e-38 -1.8961318e-36
000390 68 80 61 1c 74 21 56 80 db 45 e0 80 e0 e2 7f 80
       7.4612216e-22 -7.909853e-39 -2.059621e-38 -1.1744495e-38
0003a0 2e 96 82 80 72 7e b8 04 42 9c 85 23 fc 6d 85 80
       -1.1992489e-38 4.3374314e-36 1.4486067e-17 -1.2253576e-38
0003b0 30 42 96 80 20 d0 f3 91 50 fa 6a 2c 3c 4a 73 80
       -1.3799068e-38 -3.8466907e-28 3.3392351e-12 -1.0587712e-38
0003c0 11 6d eb b0 cd 02 4c 9b 10 38 e7 80 85 a3 2a 3a
       -1.7129499e-09 -1.687539e-22 -2.1234111e-38 0.00065093517
0003d0 77 cf 74 80 ce 57 b3 80 08 86 db 80 73 27 c3 80
       -1.0727342e-38 -1.6470052e-38 -2.0160055e-38 -1.7922073e-38
0003e0 49 a9 2b 27 cc b4 86 80 8c 81 70 1b 06 14 55 af
       2.3822787e-15 -1.2370814e-38 1.9894194e-22 -1.9379351e-10
0003f0 06 3f a2 80 4d 11 9a a0 ef 60 1f 96 e4 63 27 95
       -1.4899959e-38 -2.6100063e-19 -1.2874505e-25 -3.380418e-26

fc3.weight f4 [128, 256]
000000 f7 db a9 a6 f9 87 56 22 ae c9 f1 81 1d 59 31 8c
       -1.1786352e-15 2.9074391e-18 -8.8818814e-38 -1.36624e-31
000010 a0 2c 0c 86 78 f8 8b 1d 13 79 b3 80 44 a9 ea 80
       -2.636386e-35 3.7049904e-21 -1.6481987e-38 -2.1550227e-38
000020 5c 40 42 81 7e 5e ab 00 58 3c 75 01 47 67 2d 00
       -3.5678348e-38 1.5737767e-38 4.5042688e-38 4.169646e-39
000030 38 1a b1 9f 2f db 0c 00 6a 56 a0 1f 5c f4 57 00
       -7.500579e-20 1.180654e-39 6.7905596e-20 8.077348e-39
000040 ac af 4c 80 4a f8 2d 9b 90 3b d5 01 a4 0a 77 96
       -7.042517e-39 -1.4390451e-22 7.832931e-38 -1.9955859e-25
000050 66 d7 ea 00 c2 b6 8c 8a fc 28 08 a2 2a 2d 07 1b
       2.1566777e-38 -1.3550255e-32 -1.8453134e-18 1.1181532e-22
000060 b8 23 a3 01 6e ee 00 8e 60 97 8e a2 2c 8d 18 98
       5.9928e-38 -1.5892018e-30 -3.864945e-18 -1.9716813e-24
000070 fa 72 db 01 45 af 75 80 99 52 ea 17 34 29 bb 06
       8.061288e-38 -1.0807628e-38 1.5142746e-24 7.0402125e-35
000080 eb e4 af 00 d4 30 5e 00 21 06 38 00 fb 12 65 80
       1.6153332e-38 8.650053e-39 5.144986e-39 -9.282194e-39
000090 23 e3 a5 a4 7c b1 9d 80 d0 39 80 28 40 3b 13 00
       -7.194213e-17 -1.4481842e-38 1.4235927e-14 1.76613e-39
0000a0 31 1f 1d 80 84 84 13 13 ec 44 2e 8e 46 03 95 21
       -2.674419e-39 1.8619344e-27 -2.148034e-30 1.0097499e-18
0000b0 50 9a af 14 38 a3 65 a3 24 43 7b 81 2e b5 52 00
       1.773135e-26 -1.2448678e-17 -4.614959e-38 7.595506e-39
0000c0 f0 ef 75 00 77 fd 59 21 0c e5 55 a2 c4 fa d2 00
       1.0830826e-38 7.385792e-19 -2.898814e-18 1.9375412e-38
0000d0 cc d0 cd 1f 78 d2 6a 80 fa 6e 4e 80 fa c3 ba 81
       8.71663e-20 -9.810065e-39 -7.20298e-39 -6.860682e-38
0000e0 d4 a9 9e 1d d8 50 53 00 fb 45 40 90 1a 83 11 11
       4.199785e-21 7.651347e-39 -3.7919234e-29 1.1478882e-28
0000f0 86 54 f7 20 d4 f0 93 1b 97 3e 3f 8e 2c 0f 9d 9a
       4.189936e-19 2.4474742e-22 -2.3572704e-30 -6.495819e-23
000100 76 5e fc 80 af 2d 33 00 20 dc 89 00 c8 b1 17 80
       -2.3176431e-38 4.699998e-39 1.2660429e-38 -2.175992e-39
000110 68 41 fd 01 3e 06 09 80 31 62 f6 22 ae 15 87 88
       9.3031375e-38 -8.28759e-40 6.6782398e-18 -8.130114e-34
000120 f3 e5 2a 0a 4c 1b b6 89 b8 1d 40 1b 24 9f 56 95
       8.228451e-33 -4.3840576e-33 1.589147e-22 -4.3342496e-26
000130 03 f2 2b 99 7a cd b8 9c 38 d4 7a 80 79 f7 93 8a
       -8.889367e-24 -1.2229213e-21 -1.128006e-38 -1.4248674e-32
000140 28 91 f6 00 e0 24 72 2b 21 9c d4 1d cd 77 f0 a7
       2.2643604e-38 8.6026845e-13 5.6277366e-21 -6.674327e-15
000150 0e c4 60 87 cb 72 88 93 26 cf a3 0d a2 4d 0d 80
       -1.6909502e-34 -3.444442e-27 1.009552e-30 -1.221711e-39
000160 c6 47 c5 a6 74 d3 46 00 9b 88 50 84 0a d4 9d 9e
       -1.3689075e-15 6.50434e-39 -2.4513009e-36 -1.6710719e-20
000170 6e 7f 8e 0c 02 05 64 80 cc bf ac 80 13 41 a9 22
       2.1955258e-31 -9.185346e-39 -1.5864509e-38 4.587644e-18
000180 46 68 af 00 cc 4e d8 9f 44 97 3d 01 20 7f 5e a6
       1.6108618e-38 -9.160992e-20 3.4822345e-38 -7.719401e-16
000190 fd 87 dd 00 c0 e9 30 a7 27 a2 70 ad a6 b6 d2 80
       2.0344428e-38 -2.4551623e-15 -1.3678426e-11 -1.9350976e-38
0001a0 9d 84 ce 80 82 05 e3 97 64 20 f9 94 28 66 63 00
       -1.8965685e-38 -1.4670922e-24 -2.515535e-26 9.128361e-39
0001b0 bc 06 b1 a4 20 fc 5f 80 be 9e e1 80 46 85 23 80
       -7.677292e-17 -8.814818e-39 -2.0719933e-38 -3.262052e-39
0001c0 78 d2 3e 84 dd b1 d8 80 7b b2 b0 17 ea 21 47 80
       -2.2431035e-36 -1.9900272e-38 1.1418788e-24 -6.532486e-39
0001d0 ce e0 89 96 67 26 bb 98 4b 20 88 92 c4 5a d0 01
       -2.2275415e-25 -4.8377144e-24 -8.590767e-28 7.6537375e-38
0001e0 78 fd 1e 00 a7 d0 25 00 fd fe 27 00 20 83 1b 00
       2.845992e-39 3.472764e-39 3.673057e-39 2.526597e-39
0001f0 5b c9 d4 a0 48 ed 1d 80 92 ac 03 80 30 fd 7c 00
       -3.6047443e-19 -2.74835e-39 -3.37413e-40 1.1478428e-38
000200 74 c9 e4 00 b5 29 94 a9 cc 4f 8a 97 31 28 17 82
       2.1010761e-38 -6.579755e-14 -8.938185e-25 -1.1105262e-37
000210 1f 6a 29 00 13 d1 7f 80 c3 46 43 22 9b 9d 44 80
       3.803324e-39 -1.173811e-38 2.6464889e-18 -6.301352e-39
000220 2b ae 5b 85 02 5b 1b 31 bb 8a 3d 9c 38 50 1a 80
       -1.032932e-35 2.26072e-09 -6.271416e-22 -2.4165e-39
000230 d2 55 07 82 d0 14 af 1f 41 8c ad 01 a2 e6 30 17
       -9.942863e-38 7.4149814e-20 6.375142e-38 5.7159767e-25
000240 1c f2 6c 9f a1 7c 49 80 a2 8f 01 02 cd 83 af 00
       -5.0175212e-20 -6.7487e-39 9.518644e-38 1.6118493e-38
000250 28 0a 8a 9d cc 9f 39 00 81 69 0f 00 06 4e b4 a2
       -3.6538797e-21 5.291948e-39 1.41538e-39 -4.887171e-18
000260 9d d8 94 08 ae 54 bc 00 c0 6a 0d 00 70 cb 65 00
       8.9583515e-34 1.729545e-38 1.232156e-39 9.348365e-39
000270 29 1d 91 94 78 d9 a1 a3 2d bf 83 80 ab 39 c3 a0
       -1.465276e-26 -1.7547757e-17 -1.2099031e-38 -3.3072446e-19
000280 b4 21 00 00 21 f1 96 81 f8 c7 53 1d c0 6b 03 80
       1.209e-41 -5.54473e-38 2.8028999e-21 -3.1416e-40
000290 e4 11 05 9d 55 9d 2e 95 1f ae 41 a6 87 18 aa 80
       -1.7611653e-21 -3.5263133e-26 -6.7196304e-16 -1.5620833e-38
0002a0 c4 a2 21 0b 6c 1f 72 9c 74 0b 45 20 0a 0c b1 8e
       3.1129923e-32 -8.0111695e-22 1.6690339e-19 -4.3645462e-30
0002b0 c8 9b 40 01 08 de ad 01 00 e6 75 8c ac b3 e4 00
       3.5376598e-38 6.386876e-38 -1.8943327e-31 2.1002947e-38
0002c0 1a 14 29 10 e6 d8 de 00 cc 38 a3 81 98 6a 02 a4
       3.334486e-29 2.0465289e-38 -5.9958243e-38 -2.8279545e-17
0002d0 d6 99 88 85 28 e2 0a 00 e8 a8 17 00 82 91 76 80
       -1.2845889e-35 9.99485e-40 2.172809e-39 -1.0888787e-38
0002e0 98 37 45 01 82 9a ef 1c 00 43 37 25 0a 13 34 80
       3.6223072e-38 1.5855633e-21 1.589542e-16 -4.782276e-39
0002f0 68 8a 7b 00 68 59 37 81 8f 69 39 80 e8 78 22 00
       1.1345417e-38 -3.3675937e-38 -5.27249e-39 3.16578e-39
000300 d0 8d e8 00 3f c0 ba 0f ec f8 fe 17 85 e3 da 9d
       2.1356708e-38 1.8415067e-29 1.6477202e-24 -5.793937e-21
000310 4a b9 05 00 dc aa 0d 81 72 0d 8e 00 2c a3 34 81
       5.25647e-40 -2.6020196e-38 1.3045464e-38 -3.317785e-38
000320 b8 2e 7f 81 58 e3 85 02 c8 0f 6d 81 79 27 c7 a3
       -4.6869622e-38 1.9673082e-37 -4.3541348e-38 -2.159234e-17
000330 12 53 1c 00 38 8a d6 87 b7 e2 4e 80 ff 2d ae 31
       2.601194e-39 -3.228038e-34 -7.244499e-39 5.0692956e-09
000340 1d 29 12 02 42 d8 e3 91 a4 0c 04 81 31 cc 28 00
       1.0738185e-37 -3.5947564e-28 -2.425364e-38 3.74667e-39
000350 96 e2 19 00 d1 70 bd 80 be 0a 2e 80 be 36 91 96
       2.377171e-39 -1.739738e-38 -4.228286e-39 -2.346056e-25
000360 30 7d 02 81 f4 65 97 80 22 a8 f4 9e be 22 18 20
       -2.3967047e-38 -1.3903734e-38 -2.5904043e-20 1.2886396e-19
000370 76 33 03 23 1b 49 6c 00 34 47 8d 01 f4 62 9a 00
       7.1124215e-18 9.944459e-39 5.189739e-38 1.4178164e-38
000380 3f 15 ae 1b b9 db 78 04 5d 92 16 00 98 33 da 80
       2.8799615e-22 2.9253152e-36 2.072886e-39 -2.0038647e-38
000390 e7 37 39 96 08 4f 67 80 e6 88 65 00 e4 87 4a 80
       -1.4961821e-25 -9.487407e-39 9.324495e-39 -6.844575e-39
0003a0 40 71 c3 80 a8 b7 3e 80 ce 5e 58 1b 3d fa 07 00
       -1.7948548e-38 -5.759684e-39 1.7897734e-22 7.32617e-40
0003b0 66 da a6 81 c5 99 bf 8e 80 1b 85 a6 2c 4e c8 01
       -6.1292156e-38 -4.723321e-30 -9.236183e-16 7.358057e-38
0003c0 8c dd cf a8 5a 9a c5 14 03 80 ce 80 54 65 ad 31
       -2.3077697e-14 1.9952798e-26 -1.8964034e-38 5.0464823e-09
0003d0 98 e0 b0 80 28 11 3d 80 66 c5 4b 00 64 bb 83 01
       -1.6243616e-38 -5.60812e-39 6.958475e-39 4.839069e-38
0003e0 7e 0b 48 21 65 40 42 00 b7 8e c1 15 fd 26 e3 28
       6.7777846e-19 6.084243e-39 7.8177244e-26 2.5218971e-14
0003f0 f7 58 c9 80 9b 03 9a 18 80 c7 4f 8c f6 76 d0 0d
       -1.849085e-38 3.9811708e-24 -1.6006735e-31 1.28476285e-30

fc3.bias f4 [128]
000000 a7 6b 08 b4 e5 1c 5d 9c c6 ff cb a9 ca d1 7d b9
       -1.270515e-07 -7.316011e-22 -9.0593806e-14 -0.00024206113
000010 58 36 2f a7 02 78 1b bb f4 ad 1b 95 31 39 4f b8
       -2.4315588e-15 -0.0023722653 -3.1439226e-26 -4.940591e-05
000020 74 46 90 bb 6a 3e 58 ad a5 46 65 b4 ef 49 bf b8
       -0.00440293 -1.2292037e-11 -2.1352987e-07 -9.121361e-05
000030 a9 a3 09 ae 92 8b 09 ba 58 4a 15 bb 1b fd bb b5
       -3.1295553e-11 -0.0005246933 -0.0022779908 -1.4006249e-06
000040 90 09 96 39 aa a3 88 a5 6d 76 c4 ad 8f 4b 85 b9
       0.00028617354 -2.3703142e-16 -2.2335212e-11 -0.00025424032
000050 7f 95 54 ab 1d 60 ae b6 0e 37 5a ba e4 51 3b b3
       -7.5525e-13 -5.196793e-06 -0.0008324244 -4.361381e-08
000060 c1 11 e9 b6 3b 2a 7a ae 40 09 61 a6 fa 4c 51 b7
       -6.946008e-06 -5.6880927e-11 -7.807509e-16 -1.2475293e-05
000070 73 0c c3 ba 07 49 b1 b6 05 93 e5 b9 08 94 68 b7
       -0.001488103 -5.2835126e-06 -0.00043787822 -1.3862744e-05
000080 ca 61 b4 b0 d2 2d 6a 8a 5f 12 9a b3 90 e5 dc b9
       -1.3124517e-09 -1.1275308e-32 -7.1745255e-08 -0.00042132707
000090 b0 17 bc b5 ec e2 91 bb e2 31 09 bb f9 6a 35 13
       -1.4013985e-06 -0.0044521 -0.0020934273 2.2898153e-27
0000a0 83 e1 94 b9 a3 06 0b ba bf e1 a1 b5 80 1c 59 a9
       -0.0002839678 -0.0005303418 -1.2061136e-06 -4.82084e-14
0000b0 92 fd 94 b8 ea 9d c6 b9 f4 53 57 34 16 da 84 9b
       -7.104421e-05 -0.00037883158 2.0053977e-07 -2.1978503e-22
0000c0 e2 72 ff a0 d7 29 b6 a7 ab a9 8d a9 0e 64 58 bb
       -4.3274703e-19 -5.056051e-15 -6.2910906e-14 -0.0033018622
0000d0 54 44 0f a4 79 ac 85 b7 80 ff e1 b6 45 ca 53 bb
       -3.1066058e-17 -1.593515e-05 -6.7352667e-06 -0.0032316607
0000e0 6f a8 47 a8 41 72 e4 ba 11 d8 be b6 ef f5 05 b7
       -1.1083242e-14 -0.001742907 -5.6875947e-06 -7.984679e-06
0000f0 2e 87 fd 88 c1 f0 29 b3 d1 8a e8 a1 79 cf 7a af
       -1.5258664e-33 -3.9567343e-08 -1.5757676e-18 -2.2811077e-10
000100 17 a7 09 b8 99 fd 49 b9 dc 62 a6 99 0a e8 11 bb
       -3.281896e-05 -0.00019263326 -1.7203927e-23 -0.002226355
000110 e8 67 15 ac 90 fe 13 bb 49 23 07 bb fd df e9 9d
       -2.1231853e-12 -0.002258215 -0.0020620397 -6.1906185e-21
000120 63 1c 41 bb 7d 88 ae ac 5a 89 92 b9 21 af 6a b6
       -0.0029466383 -4.9605307e-12 -0.00027949625 -3.4970656e-06
000130 58 5f 8d b3 60 7c d7 b2 60 42 1a ba 22 3a a7 bb
       -6.583167e-08 -2.5085853e-08 -0.00058845244 -0.0051033655
000140 b0 2f 0c b1 46 69 d1 b9 e5 51 aa bb 1c b5 d1 a8
       -2.0399789e-09 -0.0003994202 -0.005197751 -2.3282205e-14
000150 82 d1 c4 ad 7d bd 00 ad cd cb 81 b3 7c 56 a9 b9
       -2.237566e-11 -7.3180325e-12 -6.044102e-08 -0.00032298628
000160 0c 76 52 97 a2 24 ba b5 97 87 db a9 fc cd bc b2
       -6.8003656e-25 -1.3868741e-06 -9.749075e-14 -2.1979751e-08
000170 71 68 00 b0 ec 10 26 b0 b9 66 9e b3 e4 08 8c 9b
       -4.671455e-10 -6.0414496e-10 -7.3761335e-08 -2.3166803e-22
000180 bc 43 51 b8 a4 82 4d aa 7e cf f7 ba b7 f2 1e b2
       -4.9892566e-05 -1.8252983e-13 -0.0018906442 -9.251997e-09
000190 74 5b b4 b7 b3 73 8a a7 64 60 ad a5 85 62 f0 b8
       -2.1500258e-05 -3.8428136e-15 -3.0076033e-16 -0.000114624425
0001a0 8e ff d3 b0 61 fe a2 bb e5 e7 c9 b7 b0 c3 82 b9
       -1.5424904e-09 -0.004974172 -2.4069052e-05 -0.0002494133
0001b0 4a 25 a3 b3 13 78 f6 ba 13 11 83 b6 38 e9 cc b6
       -7.597062e-08 -0.0018804095 -3.906092e-06 -6.106824e-06
0001c0 49 f1 c0 a2 6a 2b 05 b9 e7 8b 35 bb 88 55 6f b2
       -5.2297175e-18 -0.00012700041 -0.0027701796 -1.39310785e-08
0001d0 79 1d cc b8 50 74 b4 ba ef bf c1 ad f0 ab 2a ba
       -9.732968e-05 -0.0013767574 -2.2026795e-11 -0.0006510606
0001e0 07 57 09 b6 fa 5e 2a b1 af 1d 92 b8 b8 82 1c b9
       -2.0465247e-06 -2.4792244e-09 -6.9673515e-05 -0.00014926016
0001f0 7a 32 0a b9 7b 38 89 ba 65 56 4a ae 19 fa c9 b9
       -0.0001317951 -0.0010469103 -4.6006216e-11 -0.00038524045

fc4.weight f4 [1, 128]
000000 65 d4 73 b5 b0 16 21 99 ab f8 c2 a9 a7 5e ed 39
       -9.083363e-07 -8.328087e-24 -8.658468e-14 0.00045274684
000010 5c 44 dd 25 11 7c 26 3b f9 04 99 97 38 cd a7 38
       3.838371e-16 0.002540354 -9.888649e-25 8.0014055e-05
000020 56 8e 98 3b 07 fe cd 2d e0 76 90 33 83 64 1c b9
       0.0046556396 2.3418613e-11 6.727146e-08 -0.00014914763
000030 8d 10 2e 2d 8e d6 f6 37 87 18 32 3b 6c ff 3a 36
       9.89443e-12 2.9425395e-05 0.0027175264 2.7864835e-06
000040 c2 34 0a ba 72 7d f6 24 3c 11 a1 2e ff 18 83 b9
       -0.0005272144 1.06898006e-16 7.324494e-11 -0.0002500489
000050 32 54 46 2a 02 6c 35 37 1d ed 0d bb fb f7 d4 32
       1.7615144e-13 1.0813588e-05 -0.0021656223 2.4792817e-08
000060 bf 87 a3 b7 1a 4f 95 af 54 8e 91 a6 34 f8 a5 b7
       -1.9494326e-05 -2.7159147e-10 -1.0099974e-15 -1.9785111e-05
000070 10 9c ea 3a e6 d1 ad 35 7b f2 0f 3a d5 4b 7a 37
       0.0017899293 1.2950593e-06 0.00054911495 1.4918817e-05
000080 98 c4 82 b2 3f 54 c6 88 1a 1f a2 b3 06 da c8 b8
       -1.5223392e-08 -1.1936498e-33 -7.54937e-08 -9.577353e-05
000090 64 7a a7 35 b4 f7 93 bb 21 d6 41 3b f3 7a 94 12
       1.247809e-06 -0.0045156125 0.0029577094 9.370422e-28
0000a0 94 d3 c8 b9 ba 85 05 ba 25 f4 86 b6 ae d8 72 a8
       -0.0003830461 -0.0005093474 -4.0219334e-06 -1.34806835e-14
0000b0 eb 6c aa 38 ce d2 69 ba 27 1a bc b3 4d 6c 90 9d
       8.126519e-05 -0.0008919657 -8.759189e-08 -3.8228463e-21
0000c0 9a ae 23 20 26 30 39 27 41 1c 0d 29 da c5 4d 3b
       1.3864408e-19 2.5700009e-15 3.1332796e-14 0.0031398446
0000d0 f4 31 a1 a3 88 5a f9 37 ee 1b 50 b7 2e 72 4a 3b
       -1.7476811e-17 2.972527e-05 -1.2404269e-05 0.003089081
0000e0 54 ff f2 27 36 e8 b5 3a 4b 57 7a b7 1b 29 a6 36
       6.744532e-15 0.0013878408 -1.4921486e-05 4.951971e-06
0000f0 70 30 f4 08 64 69 14 34 ee 0b 55 21 d0 24 2f ad
       1.4696603e-33 1.3821915e-07 7.2182996e-19 -9.955772e-12
000100 cb da 1b 38 ad 75 86 b9 57 7c 85 98 32 70 0f bb
       3.7158647e-05 -0.00025646147 -3.4505245e-24 -0.0021886942
000110 b3 bf a7 2c 43 58 19 3b a6 84 0d bb 8c c1 2b 9e
       4.7677084e-12 0.0023398555 -0.0021593957 -9.092689e-21
000120 e3 89 ba ba 01 5f 01 2c 23 8e 05 b9 73 7f 47 b6
       -0.0014231767 1.838474e-12 -0.00012736818 -2.9727496e-06
000130 fc 79 cb 31 0d 46 bc 33 27 2f 94 ba ce 4f dc bb
       5.9219456e-09 8.7671744e-08 -0.0011305556 -0.0067233806
000140 63 4d 77 31 96 3a 8d ba 16 cc ab 3b 20 7d 0e 28
       3.598722e-09 -0.0010774906 0.005242835 7.909716e-15
000150 20 0d 98 ab 71 75 a3 2b cd 6f 8f 33 4c a1 18 38
       -1.0803893e-12 1.1614443e-12 6.679293e-08 3.6389843e-05
000160 7a fc fb 96 79 8a 81 b5 7f ea ab 28 f6 3c ab b4
       -4.0710572e-25 -9.65155e-07 1.908651e-14 -3.1895587e-07
000170 35 62 da ae f5 3b 0a 31 1e 44 35 33 42 47 89 1a
       -9.930937e-11 2.0115725e-09 4.22043e-08 5.6776995e-23
000180 99 01 e5 38 a9 2e 20 a9 e5 7a 1f 39 dd 31 fa b1
       0.000109198685 -3.5567608e-14 0.00015209203 -7.2816264e-09
000190 23 01 a0 b6 5f d2 90 27 54 65 14 26 5e 1b b7 39
       -4.768504e-06 4.0196114e-15 5.148514e-16 0.0003492487
0001a0 c6 e2 8e 30 a7 b1 9e bb 75 c1 fd 37 9f ce cd b9
       1.0396313e-09 -0.004842955 3.0250036e-05 -0.00039254592
0001b0 ac b1 95 32 86 7f 04 3b 5e 6f c3 b6 3b 72 8a b7
       1.7426679e-08 0.0020217611 -5.8244177e-06 -1.6504075e-05
0001c0 e9 22 f3 22 70 e3 d3 b7 07 46 33 3b e1 56 63 32
       6.5902245e-18 -2.5259069e-05 0.0027354972 1.3232893e-08
0001d0 98 2d 4c b9 27 ec e2 37 25 a7 5a 2e 60 f2 e1 3a
       -0.00019471941 2.7051266e-05 4.9715915e-11 0.0017238371
0001e0 f1 f4 a0 36 f9 1b 3d b0 85 1a ba ba 13 7d 88 39
       4.7968865e-06 -6.879755e-10 -0.0014198577 0.0002603313
0001f0 94 3a a6 b9 e1 b3 bf ba 84 88 df af 6c 94 22 3a
       -0.0003170563 -0.0014625752 -4.0660464e-10 0.0006201926
